VirtualAquarium/results/VirtualAquariumReproducao2/VirtualAquarium/VirtualAquarium-11499944.pt (torch, 595711 bytes, 49 tensors)

discrete_act_size_vector f4 [1, 2]
000000 00 00 00 40 00 00 00 40
       2.0 2.0

network_body._body_endoder.seq_layers.0.weight f4 [128, 53]
000000 97 fe 5f be df c1 96 bd ec 59 08 be e2 a3 c1 be
       -0.21874462 -0.07361197 -0.13315552 -0.37820345
000010 38 51 d0 3d 0d f8 0e 3f ac 29 bc be 3e 26 07 3e
       0.10171741 0.55847245 -0.36750543 0.13198182
000020 9d a8 b1 be 3b 7c 39 bd a3 05 f3 be 5e df 94 be
       -0.34698954 -0.04528449 -0.47465238 -0.29076666
000030 d7 78 5b bd e7 33 1f be 56 e3 37 3e 54 d7 3c 3e
       -0.05358204 -0.15547143 0.17957816 0.18441516
000040 c7 88 05 bf e6 7c eb 3d a9 04 00 be d9 b5 08 be
       -0.5216183 0.11498432 -0.12501778 -0.1335062
000050 a4 59 07 3e 1d 0b 07 bf bb 70 b6 be b5 f9 cc be
       0.13217789 -0.5275133 -0.35632882 -0.4003426
000060 df 34 c3 be 4f be 1a 3e 86 46 ad bd 34 9c cf be
       -0.38126275 0.1511166 -0.08460717 -0.4054886
000070 14 bd 32 3d 09 f1 e0 bd d7 a2 6c 3d 0e 82 62 bd
       0.04363735 -0.10983474 0.057772484 -0.05529981
000080 03 10 4a 3d 39 72 1d bd 79 0a 88 bb f7 5b 0c 3e
       0.049331676 -0.03843901 -0.004151639 0.13706957
000090 8d 79 d7 be ad ae 82 bd 96 e5 41 bd 6d 1a b7 be
       -0.42084923 -0.06380973 -0.04733809 -0.3576235
0000a0 a7 99 81 bf c1 c4 f8 be aa eb 8f bd 59 91 37 bd
       -1.0125016 -0.4858761 -0.07027371 -0.04481635
0000b0 2e 15 1e 3e 1a d0 d3 3e be 2d 68 3f 5f 09 03 be
       0.15437767 0.41369706 0.906948 -0.12796544
0000c0 94 55 8e be 77 56 23 bf 20 ae 21 bf 3c 9f 53 bf
       -0.27799666 -0.6380381 -0.6315632 -0.8266485
0000d0 a4 e5 cd be b0 79 ad 3e c9 65 bf bd 33 e7 69 3d
       -0.40214264 0.33881903 -0.09345586 0.057105254
0000e0 1f 4a 1d bf 70 0a e0 be 98 fc 12 3c 5c 0f ed 3d
       -0.61441225 -0.43757963 0.008971356 0.11575195
0000f0 4e 6a 04 3e 90 6d 09 bf d7 19 1d bf 77 72 00 bd
       0.12931177 -0.53682804 -0.61367553 -0.031359162
000100 b5 e0 94 bd 6c bf bb 3a d2 5e d5 bd fb 6b 6b be
       -0.07269422 0.0014324016 -0.10418476 -0.2299041
000110 2c 2a 3c 3e 02 96 8f 3e 77 a4 18 3d dd a8 1d bf
       0.18375462 0.28044134 0.03726622 -0.6158579
000120 e4 d3 2a bf 41 60 3f 3e 59 9f 13 3f a3 c0 a2 bd
       -0.6672957 0.18689062 0.5766502 -0.07946899
000130 6b 61 26 bf d0 52 14 bf 83 22 8d be 54 53 9d 3e
       -0.649924 -0.5793886 -0.27565393 0.30727637
000140 cd 8a 54 bd e4 46 f3 be c7 b5 02 bf 86 4c e5 3e
       -0.051890183 -0.47515023 -0.5105862 0.44784945
000150 f0 82 af 3d 12 28 12 3e ea 99 40 bf 5f dc 1a bf
       0.08569896 0.14273098 -0.75234854 -0.6049251
000160 f0 71 99 be 3b b7 94 3d 6c 3c 12 3e b4 ed 21 be
       -0.2996974 0.07261511 0.14280862 -0.15813333
000170 c8 7a 20 be 61 c4 08 3f 00 d3 70 be 3e ed 0d 3e
       -0.15671837 0.5342465 -0.2351799 0.13860032
000180 c0 e2 3c bf 67 91 33 bf ca 49 30 bd 8c af 21 bf
       -0.73783493 -0.7014374 -0.04303912 -0.6315849
000190 fe f2 15 bc bf af c0 be 3e 20 93 be 67 96 20 be
       -0.009152172 -0.37634084 -0.28735536 -0.15682374
0001a0 23 72 b4 be 77 bf 88 bd e6 7a 0f bd e9 b6 91 3e
       -0.3524333 -0.06677144 -0.035029314 0.28459862
0001b0 70 ce 26 3e 43 ab da 3d eb 86 a3 3d 26 43 00 bf
       0.16289687 0.10677197 0.07984718 -0.5010246
0001c0 33 02 36 3e c4 4b 8a bd 4a 41 11 be a4 ca 8f be
       0.17774276 -0.067527324 -0.14185062 -0.2808429
0001d0 27 7f ed 3c e5 91 20 bf 0c 7c 35 3f e4 95 9d 39
       0.028991295 -0.6272262 0.70892406 0.0003005705
0001e0 cf 03 83 3d 6c a3 54 be 41 fd c3 3e a1 f7 2c be
       0.06397211 -0.20765465 0.38279155 -0.16891338
0001f0 02 a0 42 be 59 68 de be 27 c2 0c be 7f 6b 29 3f
       -0.1900635 -0.43438986 -0.13745938 0.6617965
000200 88 90 35 3e 0a b7 ea be 8c af 4b bf c8 61 2a bf
       0.17730916 -0.45842773 -0.7956474 -0.6655545
000210 4a ab d8 be bb 74 8a be ca 7c 89 be 05 88 fb be
       -0.42318183 -0.27042183 -0.2685302 -0.49127212
000220 d2 b0 2d 3f b5 6f 87 be 43 c7 61 3e b7 8b ce be
       0.6784793 -0.26452413 0.22048669 -0.4034097
000230 c6 ea 0e bf c4 1d 37 bf ef 09 35 bf 1d c4 e9 3d
       -0.55826986 -0.71529794 -0.7071828 0.11414359
000240 78 5a e0 be d9 2a b6 be 9b 5a f7 bc 17 29 25 bd
       -0.43819022 -0.35579565 -0.030194571 -0.04032239
000250 28 c5 9d 3e 49 76 38 bf f1 8b bc be 7a 81 b9 3c
       0.3081448 -0.7205549 -0.36825517 0.022644747
000260 1a 70 c6 be f3 cd ec 3e 88 c1 dc be 8e 01 e3 bd
       -0.38757402 0.46250877 -0.43116403 -0.11084281
000270 f5 b5 52 bf f4 a9 e5 3b d2 f2 d6 3d 81 b1 54 3f
       -0.82308894 0.0070087854 0.10495533 0.8308335
000280 6f 8a b1 3e 04 6f a3 be 49 36 01 bf 49 9e 32 bf
       0.3467593 -0.31920636 -0.5047346 -0.69772774
000290 bb 66 05 bf 4e 5a 20 be a6 d8 ef 3c b1 de e9 be
       -0.5210988 -0.15659449 0.02927811 -0.45677713
0002a0 d8 97 e3 bd 53 ca df be fe 9b fd bd 20 a2 b3 be
       -0.11112946 -0.4370905 -0.12383269 -0.3508463
0002b0 7e 58 fc be da 38 39 be 0d 65 01 3e 6f 52 29 bf
       -0.49286264 -0.18088093 0.12636204 -0.6614141
0002c0 35 9a 76 be fb 32 f7 be f9 da e6 be 02 05 8d be
       -0.24082263 -0.48281083 -0.45088938 -0.27542883
0002d0 2b d1 04 3f 5c 9a fe 3d d1 db 6d bf 5d 38 1f bf
       0.51881665 0.124317855 -0.9291354 -0.6219538
0002e0 eb 8b 67 be 42 d7 1f bd 71 71 8d bd 79 ef ac be
       -0.22611968 -0.039023645 -0.06906403 -0.33776453
0002f0 c0 7e ae be 5c e2 6f 3e 24 3d ae be 5d 6c 15 3e
       -0.34081078 0.23426193 -0.34031022 0.14592119
000300 5f cd dd be c1 78 14 bf 43 ea 18 bf f4 f4 b3 be
       -0.43320748 -0.57996756 -0.59732455 -0.35147822
000310 8b e8 53 3d 6f d4 b3 bc 13 f7 98 bd dd 83 5b 3d
       0.051735442 -0.021951882 -0.07469001 0.05359255
000320 4a 48 6b 3e 81 74 f5 3d c0 0e fc be 70 e5 12 bf
       0.22976795 0.11985112 -0.49230003 -0.57381344
000330 a5 48 58 3e 4a f9 1c bf 3a b8 ce be 6c 0c 3a be
       0.21121462 -0.61317885 -0.4037493 -0.18168801
000340 78 fd 28 be 97 d7 50 be d1 5b ba be 8c f0 89 bc
       -0.1650294 -0.20394741 -0.36398175 -0.016838335
000350 56 1a 07 3f 95 85 8d be 46 0b dc 3c 70 3b ac be
       0.5277456 -0.27640978 0.026860844 -0.33639097
000360 39 48 01 be 09 9d 70 3e 6f 95 5a be f1 af bc 3d
       -0.12625207 0.23497404 -0.21346067 0.09213246
000370 72 53 85 3d c0 b7 cf bd 42 b8 01 be 9e ec 29 be
       0.065100566 -0.101424694 -0.12667945 -0.16594169
000380 b9 5f ec 3d 0c b4 a1 3e 22 ef f9 3d d7 e9 cb 3e
       0.11541695 0.31582677 0.12203814 0.39826843
000390 8a 82 10 be be 59 eb be c5 2b 05 be 53 49 81 3c
       -0.14112297 -0.45966905 -0.13004978 0.015782034
0003a0 31 89 35 be 5e 05 69 be 93 55 50 3e 4e 45 c1 3e
       -0.17728116 -0.22755954 0.20345144 0.37748188
0003b0 ba de e8 3d 75 26 dd 3e a1 0f 97 3e 27 62 98 be
       0.11370607 0.43193403 0.2950411 -0.29762384
0003c0 eb a5 73 bd 69 40 90 be c1 0f 1f be cb f8 aa ba
       -0.059484404 -0.2817414 -0.15533353 -0.0013044117
0003d0 05 80 9e be 36 38 62 3e 29 c3 4c 3e f2 4c 39 3d
       -0.30957046 0.22091755 0.19996323 0.045239396
0003e0 93 19 8b 3d 3a ca 35 be 6b 9e bd be 44 0a 40 be
       0.06791987 -0.17752925 -0.37034926 -0.18753916
0003f0 ce 01 26 3d 0e b9 e9 3d 38 b9 04 be 9b dd f6 3c
       0.040529065 0.114122495 -0.1296128 0.030134967

network_body._body_endoder.seq_layers.0.bias f4 [128]
000000 52 a8 24 bf 85 23 4a be 05 64 33 3d 1f d2 f8 bd
       -0.64319336 -0.19740112 0.043796558 -0.121494524
000010 5c 81 81 3c de 9e 11 be fc c9 18 bf cc dc 84 be
       0.015808754 -0.1422076 -0.59683204 -0.25949705
000020 d2 4c fe bc a7 12 67 3e 18 01 89 bd b3 a3 7a be
       -0.03104249 0.22565709 -0.06689662 -0.24476509
000030 1a 82 1b 3e 5b 51 9c be d0 d1 b5 bc 0b 87 24 3d
       0.15186349 -0.3053082 -0.022194773 0.04016785
000040 69 7d 6e bd 64 e4 c4 be d1 a0 f5 be f8 47 55 bf
       -0.05822507 -0.38455498 -0.47974256 -0.8331294
000050 44 07 54 bd ea d6 b6 bd d3 81 3c be 06 a9 94 be
       -0.05176474 -0.0892771 -0.18408899 -0.29035205
000060 b9 31 9d be 75 0a 10 bf 0b 04 d3 bd bd 8e 0d be
       -0.30701998 -0.56265956 -0.103035055 -0.13823982
000070 ac 8d b3 bd fa 6b c3 3d a2 93 b6 be 2a 0d 1b be
       -0.08767256 0.09542079 -0.3565951 -0.1514174
000080 28 01 2d 3e 08 17 c2 be 43 0a 15 bf 9e 56 29 bf
       0.16894972 -0.37908196 -0.58218783 -0.6614779
000090 d8 ff a1 be 2b 10 12 3e 01 0e b7 3d cc 7f 74 bd
       -0.31640506 0.1426398 0.08938218 -0.05969219
0000a0 8e 83 43 be 07 55 16 bd 86 66 1f bf 81 30 3f bd
       -0.19093153 -0.036702182 -0.62265813 -0.046677116
0000b0 2c e6 90 be 35 86 5d be c3 0a 8c be 7b e3 73 3d
       -0.28300607 -0.21633227 -0.2735196 0.059543114
0000c0 2f fc 80 be 6d 03 61 be b0 a7 51 3e 02 25 dc be
       -0.251924 -0.21973963 0.20474124 -0.42996985
0000d0 c8 63 a0 bd fe a9 bb bd 88 88 cd be 4c 80 9a be
       -0.07831532 -0.09163283 -0.40143228 -0.30176008
0000e0 59 3f 9a bd b9 0e 8e be 09 9f 71 be bf fc 69 be
       -0.07531614 -0.27745607 -0.23595823 -0.22850321
0000f0 df fe 8f 3e e4 0c 11 be d4 11 aa be 6c 08 11 bf
       0.2812414 -0.14165074 -0.33216727 -0.56653476
000100 38 75 11 be 7f 1d 7a be d7 2f b8 bd af 58 19 be
       -0.14204872 -0.24425314 -0.089935 -0.14975236
000110 b0 e1 82 bc 3a 19 53 be cb 7b 83 bd 01 2d 75 be
       -0.015976757 -0.20615092 -0.06420096 -0.23942949
000120 d7 11 42 be b6 cc 0c bf a2 6c 01 3e 7d 3d 00 3e
       -0.18952118 -0.54999864 0.12639096 0.12523456
000130 3c 23 e4 be 81 46 b0 be f5 c2 b7 bd 00 9c bb be
       -0.44558132 -0.3442879 -0.08972732 -0.36642456
000140 f9 df 9a bd 1e 34 c0 bc e1 58 14 be 67 a2 1f be
       -0.07562251 -0.023462351 -0.1448703 -0.15589295
000150 86 c7 32 be f4 77 62 be f3 03 a9 bd ac de 12 be
       -0.17458925 -0.22116071 -0.082527064 -0.14342755
000160 98 3e 55 be 11 a3 9c be 55 f9 e0 bd 5b 57 9d be
       -0.20824659 -0.3059316 -0.10985056 -0.3073071
000170 b2 00 08 be 4e 9f 56 be 4c 23 bf be e1 aa 71 be
       -0.13281515 -0.20959207 -0.37331617 -0.23600341
000180 fe bc 2a be 8e 4b ed bd ed 51 82 be 7f d3 d0 be
       -0.16673657 -0.115866765 -0.2545313 -0.4078636
000190 06 f4 24 bf bc c6 7c bc 0e 38 3e be 17 6a 07 3e
       -0.6443485 -0.015428241 -0.1857607 0.13224064
0001a0 46 8d 1a be 4c 97 16 3d 94 28 f9 bd c2 d8 ec bd
       -0.15092954 0.03676538 -0.12165943 -0.11564781
0001b0 6f 32 d9 bd a0 b1 08 be 85 0d 90 be 44 f2 a2 be
       -0.106053226 -0.13349009 -0.28135315 -0.3182546
0001c0 77 73 8d be ea 85 c4 be 71 70 89 3d ee cd 3d be
       -0.27627155 -0.38383418 0.067108996 -0.18535587
0001d0 60 86 0e 3e f4 cd a2 be e2 e0 6c be 52 64 91 3c
       0.13918447 -0.31797755 -0.23132661 0.017748032
0001e0 50 40 85 be fa 27 90 be 59 7f 08 bf 6c a8 26 be
       -0.2602563 -0.281555 -0.5331932 -0.16275185
0001f0 c4 02 67 3d 06 64 8b 3d 14 e6 ee 3d 6d 5b 18 bf
       0.056399122 0.06806187 0.11664978 -0.59514505

network_body._body_endoder.seq_layers.2.weight f4 [128, 128]
000000 9b 6e b5 bd 73 9e f1 3e b6 9b 32 3f c2 0a 2b 3e
       -0.08858987 0.471912 0.69768846 0.16703323
000010 38 b8 10 3f 94 9c cd 3e b1 32 98 3d 60 e3 f1 3d
       0.56531096 0.40158522 0.074315436 0.118109465
000020 0a f0 8b bd 93 3f 3a 3d 88 da 6d 3e 45 fd 57 be
       -0.06832893 0.045470785 0.23227894 -0.21092708
000030 49 c5 95 be ff 25 e1 bd 74 ba a2 3d dd f7 d1 bd
       -0.2925208 -0.10993575 0.07945719 -0.10252354
000040 39 0f e6 3d 1c 73 5d be f0 24 32 3e 58 d9 bc 3e
       0.11233372 -0.21625942 0.17396903 0.3688457
000050 d2 27 af 3d 15 c4 e9 3e e2 1f 2a 3e d4 ed 92 be
       0.08552517 0.4565741 0.16613725 -0.28697073
000060 29 a0 96 be 5c 3b 6a be b5 15 d9 3e f3 02 b7 bd
       -0.29419068 -0.22874206 0.42399374 -0.089361094
000070 cf e3 8d be c2 30 26 be d2 e2 40 be aa 46 02 3f
       -0.27712867 -0.16229537 -0.18836525 0.50889075
000080 59 4f ba 3e f2 8b e6 3d 35 88 fb 3d 7b 65 93 3e
       0.36388662 0.11257161 0.12281839 0.2878836
000090 74 f4 c4 3e a0 44 86 3d 55 be cc 3e 44 c9 87 3e
       0.38467753 0.06556058 0.39988962 0.2652074
0000a0 3e 25 f4 bd d0 8e d4 3e 3c d4 84 3e 42 d2 02 3e
       -0.11921166 0.41515207 0.25943172 0.1277552
0000b0 24 61 a3 3d 16 64 ea 3d d4 fd d1 3e 15 ee 4d 3e
       0.079775125 0.11444871 0.41013968 0.20110352
0000c0 e4 10 cd 3d a8 b2 b4 3e bd c7 cd be 57 be 95 3e
       0.10012987 0.35292554 -0.4019145 0.2924678
0000d0 e0 a8 05 3f 34 47 4a bf 2b 48 5f 3e 2d 13 0f 3f
       0.5221081 -0.790149 0.21804874 0.55888635
0000e0 f3 af 91 be 71 c2 25 3e 79 4c 81 3d 07 5e ea bd
       -0.2845455 0.16187455 0.06313414 -0.114437155
0000f0 86 0b d1 be ed 0d b2 3d 59 2f ba 3d 3a 9e c0 3e
       -0.40829104 0.086940624 0.09091062 0.37620717
000100 87 3e 1f 3e ae 47 33 3e 12 24 06 3d eb d9 ce 3e
       0.15551196 0.17507812 0.032749243 0.40400633
000110 2e 9b 6f bd 21 d2 e3 be eb 2b be 3e 3c 35 0a bf
       -0.0584976 -0.44496253 0.37142882 -0.5398748
000120 db a4 2a bd 0f 32 ce 3e 76 47 ac 3e 47 6a 26 3e
       -0.041661125 0.40272567 0.3364827 0.16251479
000130 f4 27 44 3d d9 ab c1 bd d0 cf a5 3e a0 e3 fc bd
       0.047889665 -0.094566055 0.3238511 -0.123481035
000140 1e 65 eb 3d 6f 68 e3 be b9 d8 08 3f e6 30 88 3b
       0.11493896 -0.44415614 0.5345569 0.00415622
000150 27 7c b8 3e e3 cf a4 3e 9e 57 a4 bc 9e fc 05 3d
       0.3603222 0.32189855 -0.02006131 0.032711618
000160 7e 50 c4 3c ff 88 ab bc 41 44 cc 3d a2 75 40 3e
       0.023964163 -0.020939348 0.09973956 0.18794873
000170 72 bd bc 3e 67 85 99 be 9c 23 92 3e 44 fb 96 bd
       0.36863285 -0.2998459 0.28542793 -0.07372144
000180 20 b7 0c be bb ee e3 bc 5b 18 cb bb b6 5c a3 be
       -0.13741732 -0.027823796 -0.0061979718 -0.3190667
000190 b6 8f ac 3e 7c f0 d0 3e 68 6b bd 3e d4 7b 06 3e
       0.33703393 0.40808475 0.36996007 0.13133174
0001a0 38 8d 36 3f 43 65 79 3e 38 fb 1c 3f 9d e5 10 3d
       0.7130923 0.24355035 0.6132083 0.035375226
0001b0 69 1c 8f be 7b 5c a0 3e f2 29 36 bd 12 b7 ee 3e
       -0.27951363 0.31320557 -0.044473596 0.46624047
0001c0 ab 27 e3 3e f1 d4 e8 3e 81 64 96 be c8 80 ee 3e
       0.44366202 0.4547496 -0.29373553 0.46582627
0001d0 ac 6f 16 bd 02 94 5b bf 96 62 e0 3e bd 93 18 3f
       -0.036727592 -0.85772717 0.43825215 0.5960043
0001e0 6d 7b 3b 3d a8 9a 5c be e3 5b bd bc 71 f5 cd 3c
       0.045772005 -0.21543372 -0.023115104 0.02514145
0001f0 10 ff 69 3e 32 b7 0d 3f 62 ef 07 bf fa 35 3d be
       0.22851205 0.5535766 -0.53099644 -0.18477622
000200 87 f2 88 be f5 56 9c 3e c4 07 be bc 23 a3 b7 3d
       -0.26747534 0.30535093 -0.023197062 0.08966663
000210 2a de 9b bc a2 d1 87 3c 52 33 5c be a9 f6 20 3e
       -0.019026835 0.016579453 -0.21503952 0.15719093
000220 ef 09 f2 bd e1 cd 8f 3e a3 14 1e 3e 8e 20 95 be
       -0.11818301 0.2808676 0.1543756 -0.291264
000230 b2 e6 a4 bd 05 84 9e bd 2b 8d 1e 3e 08 8d 28 3d
       -0.08051814 -0.077400245 0.15483539 0.041150123
000240 18 7a 1d bd ea b7 c4 3e c3 aa 45 be 71 b7 ec bd
       -0.038446516 0.38421565 -0.19303422 -0.11558426
000250 75 38 31 3e be 67 2d 3e 2d 54 65 be 44 85 69 3e
       0.17306693 0.16934106 -0.22395392 0.22804743
000260 3f 99 85 be 9e a8 ef be 9a fc 90 3e 54 5b 6b 3e
       -0.2609348 -0.46808332 0.2831772 0.22984058
000270 b2 cc f1 3e 64 45 5b 3a 63 f2 33 3e 0b f2 56 3e
       0.47226483 0.0008364527 0.17572932 0.2099077
000280 5b cb f5 3e 55 4c 42 bd d0 bc 7a 3e 10 a3 30 be
       0.4800671 -0.047436077 0.24486089 -0.17249703
000290 52 da b9 3d 30 af 5e 3e 63 71 74 3c 5d 03 03 3e
       0.090748444 0.21746516 0.014919612 0.12794252
0002a0 4d d4 dc 3e d7 cf 51 3e 9c 90 d8 bd 15 a9 7d 3d
       0.43130723 0.20489441 -0.10574457 0.061928827
0002b0 6b 07 04 be 2e 01 a6 be ba ef 13 3a 06 0c 83 be
       -0.12893455 -0.32422775 0.0005643327 -0.2559511
0002c0 ba c9 5b 3e bc ca ca 3d 46 36 00 3f da 30 8d be
       0.21463671 0.0990195 0.50082815 -0.27576333
0002d0 25 49 54 3e 07 dc 93 bf 1b ba 3b 3e 0f 32 b7 3d
       0.20731027 -1.1551522 0.18332712 0.08945095
0002e0 30 7f 2e 3e da 51 df bd c5 b2 4c 3d 51 53 42 3e
       0.17040706 -0.10904284 0.049975175 0.18977095
0002f0 f5 01 91 3c 46 a5 c3 be 04 18 ab 3e 09 f4 24 bd
       0.017701128 -0.3821203 0.3341676 -0.040271793
000300 85 d3 57 3e fc 2f fd 3e cd 79 2d bb ad 92 6d bd
       0.21076782 0.49450672 -0.0026470304 -0.05800121
000310 3f 70 46 be ca 09 bd be d9 4e 34 be e6 40 9e be
       -0.19378756 -0.3692153 -0.17608203 -0.3090889
000320 e7 bd 15 3e 71 59 8a bc d6 6b b3 3e f1 e6 7f be
       0.14623223 -0.016888352 0.3504321 -0.24990441
000330 40 be 57 be cc 95 1e be 53 05 17 3e 84 b1 bd be
       -0.21068668 -0.1548683 0.14748125 -0.37049496
000340 06 ed 44 3e 4b 40 d6 3d a8 83 1e 3e b3 76 24 be
       0.19231042 0.10461482 0.1547991 -0.16060905
000350 a8 b5 24 3e ec 12 06 3e a2 34 00 3e 51 39 9f bd
       0.16084921 0.13093156 0.12520078 -0.07774604
000360 c4 ac e9 bd dc 92 5e 3e ed ff 8c 3e f5 14 23 3e
       -0.114099056 0.2173571 0.27539006 0.15925963
000370 f5 9d 29 3d 90 df ff bd 0e f7 02 bf a3 2d 70 bc
       0.041410405 -0.12493813 -0.51158226 -0.014659318
000380 2c 6b 36 be 8e 90 b8 3e 14 f2 31 3e 9e df 14 3e
       -0.1781432 0.36047786 0.17377502 0.14538428
000390 d0 53 95 3d 43 06 98 3e fa b7 50 bd 98 3a de 3c
       0.072913766 0.29692277 -0.050956704 0.027127549
0003a0 85 9a a0 3e f4 55 8b bc 91 ba ac 3e 78 28 f7 3b
       0.3136789 -0.01700876 0.3373609 0.007542666
0003b0 bd e8 bb 3d 9d 35 0b 3e 5a e1 ed 3d 51 59 42 3e
       0.09175251 0.1359467 0.11615248 0.18979384
0003c0 e6 46 f9 3e 63 00 42 bd 8d 56 99 3c bd 0e 36 3e
       0.48686904 -0.04736365 0.018718028 0.1777906
0003d0 89 dc 27 bf e8 e6 50 3d 1e 6c 77 3e c5 af 27 be
       -0.65570885 0.05100146 0.24162337 -0.16375645
0003e0 08 67 ff 3d 1f fd f7 bd 13 a1 1f be 86 b4 8d 3e
       0.124708235 -0.12108826 -0.15588789 0.2767679
0003f0 ac 50 13 3e 9a 48 7e be 32 a8 a7 be 17 a3 41 be
       0.14386243 -0.24832383 -0.3274551 -0.1890987

network_body._body_endoder.seq_layers.2.bias f4 [128]
000000 67 e4 08 bf 12 1c 1f be d2 ec a8 be 8e 0e 90 be
       -0.53473514 -0.15538052 -0.3299318 -0.28136104
000010 f1 9c a8 be cb 16 5d be 48 65 c1 be 0f ea 8d be
       -0.32932237 -0.21590726 -0.37772584 -0.27717635
000020 85 fa ab be b0 c7 cc be af b7 d0 be 6d 22 20 be
       -0.3358957 -0.399961 -0.4076514 -0.15638132
000030 01 da 0a be 24 7a 1f be 51 b4 7f be fe 51 b8 be
       -0.13559724 -0.15573937 -0.24971129 -0.36000055
000040 fc 9a 87 be 12 42 18 bf c8 7b 95 be 19 f8 72 be
       -0.2648543 -0.59475815 -0.29196 -0.23727454
000050 d8 10 79 be 94 2b 05 be a2 4f 25 3e 16 be 92 3e
       -0.24322832 -0.13004905 0.16143659 0.2866065
000060 18 eb bc be ca b7 69 be bb 41 51 bf 4a 45 07 3e
       -0.36898112 -0.22824016 -0.8174092 0.13210025
000070 ff 85 25 be b0 ea 31 bf e1 6f 6d be fe ba 87 be
       -0.16164397 -0.6949873 -0.2318721 -0.2650985
000080 66 2d 16 bf e3 69 b3 be 1b bb 4f be e4 64 12 bf
       -0.5866302 -0.35041723 -0.20286219 -0.57185197
000090 ac 64 23 be 25 44 c1 3e e6 e2 91 be 3d df 87 3d
       -0.15956372 0.37747303 -0.28493422 0.06634376
0000a0 23 ae 5a 3d 86 f0 0a be e8 03 e3 be 1d 45 83 be
       0.053388726 -0.13568315 -0.44338918 -0.25638667
0000b0 07 c8 06 bf c7 0e 01 be b5 e6 fa be 0c 2a c9 be
       -0.5264897 -0.12603293 -0.4900414 -0.39289892
0000c0 94 d2 a2 bd 42 b6 47 bf a2 68 aa be 7e 7f d4 be
       -0.07950321 -0.7801248 -0.33282954 -0.4150352
0000d0 03 d4 1e bf fd f1 3d be fb 82 b7 be 14 0c d0 bc
       -0.62042254 -0.18549342 -0.35842118 -0.025396384
0000e0 36 3b ea be 6b 8c 5b be 98 ca 06 bf 87 dc e7 be
       -0.457483 -0.21440284 -0.52652884 -0.45285437
0000f0 05 01 95 bd f3 e3 b1 be c4 22 f0 be 01 d1 fe be
       -0.07275585 -0.34744224 -0.46901524 -0.49768832
000100 9e f8 f5 3c 9c db 03 bf 71 9a 5e be 00 dc 65 bd
       0.030025776 -0.5150697 -0.21738602 -0.05611801
000110 c7 34 41 be 10 db eb be a4 fc 06 bf e6 47 10 bf
       -0.18867789 -0.4606557 -0.5272925 -0.5635971
000120 e2 e2 a4 3e 22 5f 99 be 58 51 c1 be 7b a7 b1 be
       0.32204348 -0.29955393 -0.37757373 -0.3469809
000130 21 ca b5 bd 10 3a 47 be f1 53 0a bf 10 ed d4 be
       -0.08876444 -0.19455743 -0.54034334 -0.41587114
000140 9b 6c 0a bf ff 25 cb be 55 82 a3 be b0 9d c6 be
       -0.5407197 -0.39677426 -0.31935373 -0.3879218
000150 83 61 02 3d 18 bc 0a be 0f 58 6f be e5 40 8c be
       0.031831276 -0.13548315 -0.23373435 -0.2739326
000160 4b b1 7c be 93 b2 06 bf 0e 28 d9 bd 42 c1 a5 be
       -0.24677007 -0.5261623 -0.10603343 -0.32374007
000170 cc f0 f1 be 2c 9d 15 bf 4e 01 28 be f7 9c a8 be
       -0.47254026 -0.5844295 -0.16406748 -0.32932255
000180 92 2f 36 be 40 0f 3a be ef 41 b3 be 04 45 5b be
       -0.17791584 -0.1816988 -0.3501124 -0.21413046
000190 dd 9b 4b be 9d cb e4 be 6a 64 fa bd bf 19 91 be
       -0.19883676 -0.44686595 -0.12226184 -0.28339955
0001a0 bb 07 7d be 23 54 62 bc 60 35 64 be a4 b8 bf be
       -0.2470998 -0.013814005 -0.22285986 -0.37445557
0001b0 ed 7c 45 be 56 5e 04 bf 58 05 e3 be 76 a6 23 3e
       -0.19285937 -0.51706445 -0.44340014 0.15981469
0001c0 0a ff 18 bf fa b1 56 bf 48 00 08 bf a5 2a dd be
       -0.5976416 -0.8386532 -0.5312543 -0.43196598
0001d0 9d 77 1a bf af 40 8a be 9c 1a 54 3e 86 f6 2c 3e
       -0.60338765 -0.27002475 0.20713276 0.16890916
0001e0 2b 43 c0 be a8 f1 c5 be 9a c7 cb be 48 84 a3 be
       -0.37551245 -0.38660932 -0.3980072 -0.3193686
0001f0 b4 03 03 bd b1 11 a8 be 78 3d d6 be b9 76 43 3e
       -0.031985953 -0.32825997 -0.41843772 0.19088258

action_model._continuous_distribution.log_sigma f4 [1, 3]
000000 a5 0e b4 bf 95 7c 0a c0 ff 28 fb bf
       -1.4066969 -2.163854 -1.9621886

action_model._continuous_distribution.mu.weight f4 [3, 128]
000000 66 a4 96 be b5 de 06 3f ad 3d 8d 3e 99 05 03 be
       -0.294223 0.52683574 0.27586117 -0.12795104
000010 12 87 8a bd ae 71 00 be ba 7c f7 bd 24 f5 cd be
       -0.06764044 -0.12543365 -0.120843366 -0.4022609
000020 96 60 cd bd d7 28 a2 bd 73 38 df be 13 a4 65 be
       -0.10028188 -0.07917946 -0.43597755 -0.2242587
000030 1e 59 90 bc b8 bd ae be 96 88 30 be 15 69 b7 3d
       -0.01762062 -0.3412912 -0.17239603 0.0895559
000040 81 33 5e bc bc f0 73 3d b6 66 84 be 5f 90 ff bd
       -0.013562084 0.059555754 -0.25859612 -0.124787085
000050 23 d6 c5 be 41 7c 7c 3e fb ac 38 3e 73 07 ca bd
       -0.38639936 0.24656774 0.18034737 -0.09864702
000060 14 3f 75 be 4a 69 83 be 66 4c 3d be 02 17 20 bd
       -0.23949844 -0.25666267 -0.18486175 -0.039084442
000070 03 7b cb be f6 c2 07 3e 0a f1 09 3e d2 77 58 3f
       -0.39742288 0.13257965 0.13470855 0.8455783
000080 94 2a 75 3e 30 eb 6d be bb 65 ce be 4e ed 05 be
       0.23942024 -0.23234248 -0.4031199 -0.13078806
000090 9f 7c b7 3e 6c e9 81 3e 3c 21 4a be 24 ba 67 3d
       0.35837266 0.253734 -0.1973924 0.056574002
0000a0 09 f8 77 3e 6c 1e e9 be 70 39 a9 be 7d bf 44 be
       0.24215712 -0.45531023 -0.33051634 -0.19213672
0000b0 48 fd d9 3e f5 65 a1 be 32 b6 83 bd 13 79 6d be
       0.4257605 -0.315231 -0.064312354 -0.23190717
0000c0 e4 7a 6f 3f 6d 45 53 be f5 f8 13 be 9b b5 11 bf
       0.9354689 -0.20631953 -0.14450438 -0.5691773
0000d0 e4 4e 49 be 05 68 e6 bd f0 b3 31 be 0a 88 b5 3d
       -0.19659 -0.11250309 -0.17353797 0.08863838
0000e0 72 5a 11 3f 4b 15 95 be e6 cd 1a 3e b4 1e 33 bd
       0.56778634 -0.29117808 0.15117607 -0.043730453
0000f0 d7 07 0c 3f e4 1c d1 bd b9 24 57 be 7a 8a 8b be
       0.5469946 -0.102105886 -0.21010102 -0.27254087
000100 d9 49 41 be bb 2d 83 3e 25 eb 1f be b1 71 d1 3e
       -0.18875827 0.25620827 -0.15617044 0.40907052
000110 45 b1 e6 be 44 9c 1e be 02 82 24 be 7a 07 f6 bd
       -0.4505712 -0.15489298 -0.16065219 -0.12013145
000120 de 2b 99 be 58 35 bd bd 92 99 c2 bd bb 4d 57 be
       -0.2991628 -0.0923869 -0.095019475 -0.21025746
000130 dc 10 10 3f d9 b4 97 be ef 83 3e be 92 d2 37 bd
       0.56275725 -0.29630163 -0.18605016 -0.04487855
000140 d3 68 51 be 65 cc e1 3d 9f d7 84 be 94 40 7c be
       -0.20450144 0.11025313 -0.25945756 -0.2463401
000150 1f 60 f1 bd b7 e9 b3 bd 9e 08 bc be 93 0f cf be
       -0.11785912 -0.08784812 -0.36725324 -0.4044157
000160 08 c3 ef 3c 47 1d a4 3b c8 ce 73 3e 4c 9c 25 be
       0.029267803 0.005008373 0.2380935 -0.16172904
000170 2e 39 9c 3d 52 1b 95 bd c0 ad f7 3d aa 7a 60 be
       0.07628094 -0.072806016 0.12093687 -0.21921793
000180 4a 35 b4 be 61 88 18 3d 11 f1 9d be a3 f4 8c be
       -0.35196906 0.037239436 -0.30847982 -0.27530393
000190 a4 77 6e be 4a 87 ab bd df cc 84 be d3 ec a0 be
       -0.23287827 -0.08375414 -0.25937554 -0.31430683
0001a0 61 e8 e4 be ef d6 24 be 68 76 b4 be 9c b8 8a be
       -0.4470854 -0.16097616 -0.35246587 -0.2709397
0001b0 eb ec 4d be e5 39 7d bd ea eb d1 bc 20 73 d6 3d
       -0.20109908 -0.06182279 -0.025625188 0.10471177
0001c0 a6 a7 c3 3d 2c cd 80 bd 4f ec 74 be 1d c8 50 bd
       0.09553461 -0.062891334 -0.2391827 -0.050972093
0001d0 26 7e d2 3c cf 41 a2 be 35 eb 61 3e ab 0f 9c be
       0.025694918 -0.31690833 0.2206238 -0.30480704
0001e0 3c 93 90 be 62 7e 56 be 40 ef 15 be a8 8f 58 be
       -0.2823733 -0.20946649 -0.14642048 -0.2114855
0001f0 56 75 45 bd 7b 4f b2 be 8b 2f e9 bd f0 38 c8 3e
       -0.048207603 -0.34826264 -0.11386021 0.3910594
000200 ee 3d 0c 3e 52 f3 7b bc 00 9b af 3e a8 6e b5 3d
       0.136955 -0.015377836 0.34297943 0.08858997
000210 ee 17 16 3e a9 d8 73 3e c4 3b 9f 3e 76 4a 9d 3e
       0.14657566 0.23813118 0.31100285 0.30720872
000220 55 7c d3 3e e2 8c 98 3e 17 aa 76 3e 0b 79 83 3e
       0.41305795 0.29794985 0.24088322 0.25678286
000230 db 36 e2 3e ba 5b a5 3e f2 74 2c 3e c3 db bd 3e
       0.44182476 0.32296544 0.16841486 0.37081727
000240 ac cd cb 3e 6b 53 37 3e 8a aa 71 3e 58 51 95 3e
       0.39805353 0.17902915 0.23600212 0.29163623
000250 e2 e7 b3 3c f6 3d c4 bd 18 ff e3 bd 22 36 0c be
       0.021961156 -0.095821306 -0.1113264 -0.13692525
000260 0a 5e 6f 3e 21 b4 94 3e 33 c6 75 3e 28 b5 54 3e
       0.23375717 0.29043677 0.24001388 0.2077223
000270 a4 b4 f6 3e 1b 33 05 3e 87 cd ca 3c 3c 71 58 bc
       0.48184693 0.13007776 0.024756206 -0.013210591
000280 87 43 4f 3a 16 18 d9 3e c6 78 af 3e 7a 2a bf 3d
       0.00079064857 0.4240119 0.3427183 0.09334274
000290 e1 41 e1 3d eb 7a c5 be 94 59 82 3e f2 c2 8d 3c
       0.109988935 -0.3857034 0.25458968 0.017304871
0002a0 86 3f b7 3c da 2f bb 3e 25 48 59 3e 99 65 95 3d
       0.022369158 0.36559945 0.21218927 0.07294769
0002b0 09 53 1e 3e e7 c9 aa 3e 67 85 a5 3e 29 98 a3 3e
       0.15461363 0.33357164 0.3232834 0.31952026
0002c0 70 39 10 3c 00 22 65 3e a6 97 33 3e b3 7e a8 bd
       0.008802757 0.22376251 0.17538318 -0.08227291
0002d0 84 7a 7a 3e 66 70 c6 3e 8c b0 95 3e c1 47 90 bd
       0.24460799 0.38757628 0.29236257 -0.07044936
0002e0 91 0f 6e 3e 10 f9 72 3e 2d 12 9e 3e 84 1d 93 3e
       0.23248126 0.23727822 0.30873242 0.28733456
0002f0 90 72 5f bd 83 1c a9 3e 7e 94 19 3e f0 b7 9d 3e
       -0.054552615 0.33029565 0.14998052 0.30804396
000300 59 10 7e 3e f2 22 94 3e de df ac 3e c7 a2 e2 bd
       0.24810924 0.2893291 0.33764547 -0.110662036
000310 b5 38 c9 3e 6f 9c 5a 3e bc 00 5b 3e ee b0 c3 3d
       0.39301077 0.21348737 0.21386999 0.09555231
000320 29 2a 47 be 0c 1b 9c 3e 11 32 a1 3e 69 d3 8f 3e
       -0.19449677 0.30489385 0.3148351 0.2809098
000330 72 7a 3b 3c 3d a7 15 3f 89 94 bc 3e 5a 16 27 3e
       0.011442767 0.5845831 0.36832073 0.1631712
000340 62 eb 14 3e 69 ca cd 3e 37 f3 b9 3e b4 2c 4a 3e
       0.14542916 0.4019349 0.3631837 0.19743615
000350 2c a1 82 3e a1 7b d8 3e 4d 48 97 3e fd db 7c 3e
       0.2551359 0.4228182 0.2954735 0.24693294
000360 63 88 b1 3e 8d dd 65 3e e0 28 03 3e af cc 77 3e
       0.34674367 0.22447796 0.12808561 0.24199174
000370 62 51 8a 3e 51 3d 0f 3e ee 8f c9 3e 68 8f 99 3e
       0.27015215 0.13988234 0.39367622 0.29992223
000380 de e1 00 3f 6d 09 92 3d 39 a3 8a 3e d4 a4 c3 3e
       0.50344646 0.07130704 0.27077654 0.3821169
000390 11 87 b0 3e 6e 42 c8 3e 64 67 23 3e d8 b3 88 3e
       0.34478047 0.39113182 0.15957409 0.2669971
0003a0 46 52 d4 3c 3c eb 56 3e 75 b5 ca 3e 49 45 dc 3e
       0.025918137 0.20988172 0.39591566 0.4302161
0003b0 c7 48 a3 3e c0 83 2d 3e 0f 78 2f 3e 3f 2a 6a bd
       0.31891462 0.1694479 0.17135642 -0.057169195
0003c0 68 48 a8 3e 0c 1c fc 3d 52 8c 79 3d fc 2d dd 3e
       0.32867742 0.12310037 0.060924836 0.43199146
0003d0 c6 44 8f 3e 00 b6 af 3e e9 fb 59 3c ba 59 1e 3b
       0.27982157 0.34318542 0.013304689 0.0024162368
0003e0 e8 04 8e 3e 64 a9 b7 3e 74 64 70 3e 48 5f 59 3e
       0.27738118 0.35871422 0.2347582 0.21227753
0003f0 8a cc b7 3e e2 17 c7 3e b5 9a 22 3d 1c 4d 19 3e
       0.35898238 0.3888541 0.03969832 0.14970821

action_model._continuous_distribution.mu.bias f4 [3]
000000 b6 3f db 3d 13 e6 c6 be 53 31 43 3f
       0.10705511 -0.38847408 0.7624714

action_model._discrete_distribution.branches.0.weight f4 [2, 128]
000000 87 e5 45 3f b5 4e 9e 3f 70 2a 7f 3e a7 de 76 3b
       0.77303356 1.236777 0.24918532 0.0037669332
000010 25 b2 56 bd ee de 50 3f a2 f8 11 3a 8f 74 26 3f
       -0.052415986 0.81590164 0.000556836 0.65021604
000020 73 46 ce 3e 3f e0 79 3e 46 a7 46 bc 30 21 08 3f
       0.40288123 0.2440195 -0.012124842 0.5317564
000030 a9 fd 02 3f d5 ca bf 3e 50 a7 e0 bd 12 8a 25 3e
       0.51168305 0.37459436 -0.10969412 0.16165951
000040 8a 92 fe 3e 4d 61 a1 3b 01 38 4f 3f 97 b3 25 3f
       0.49721175 0.0049249292 0.8094483 0.6472716
000050 c4 7a 06 3f d1 d6 ab 3e d3 bb df bf 58 0f ce 3e
       0.52531075 0.3356233 -1.7479194 0.4024608
000060 63 46 d9 3e 4a 10 5b 3f 57 89 90 3e 1e c1 ed 3e
       0.42436513 0.8557173 0.28229782 0.464364
000070 37 76 bc 3e 5a 98 0c 3f 55 e5 8c 3e 49 79 98 3f
       0.3680894 0.5491997 0.27518716 1.1912013
000080 69 1c 61 3f 61 84 ae 3e 41 4f 0a 3f fa 43 e4 3e
       0.87933975 0.34085372 0.5402718 0.44583112
000090 e2 62 75 3e 72 62 a8 3e cd 52 fc 3e cd aa 0c bd
       0.23963502 0.32887608 0.49281922 -0.034342576
0000a0 cb 41 2c 3e ba 7c 02 3f e4 b7 ce 3e 80 f8 78 be
       0.16821973 0.5097157 0.40374672 -0.24313545
0000b0 0f 92 5a 3f 2b b3 bd 3e bb 46 b8 3e 2f c6 bb 3e
       0.8537912 0.37050757 0.35991463 0.3667464
0000c0 3a da 26 3f 5e a7 a1 be bf 5b 06 3f 8b 1a 88 be
       0.6517674 -0.31573004 0.52483743 -0.2658275
0000d0 a1 ee ec 3e 64 99 3b 3f 57 dc 36 3f 26 8d 9e be
       0.4627581 0.7328093 0.7142996 -0.30967063
0000e0 9b 9f 1e 3f bf c4 1d 3f 6f cd ad 3e 58 28 74 3e
       0.6196229 0.61628336 0.33945796 0.23843515
0000f0 09 49 bb 3e 0a 95 b2 3f a8 d2 22 3f 20 24 46 3e
       0.3657916 1.3951733 0.63602686 0.19349718
000100 49 6f 5f 3e d2 26 c8 3d f6 99 e7 3c 84 cd 48 bf
       0.21819796 0.097730294 0.028271656 -0.7843859
000110 a4 d8 1c 3f 53 7a e9 be c2 09 83 3e 2c 6c 3b 3f
       0.6126807 -0.45601138 0.25593382 0.7321193
000120 ee b7 8d bf 69 52 8f 3e 05 b4 1b 3e fb 13 10 3f
       -1.1071756 0.2799256 0.15205391 0.5628049
000130 db 8f 22 3e 9e 9b 17 3f 5f 89 b4 3e dd 36 b5 3e
       0.15875189 0.5922183 0.35261056 0.3539342
000140 2c d3 61 3f 1f 79 10 3f aa e2 01 3f 54 9e 5d 3e
       0.8821285 0.56434816 0.50736487 0.21642429
000150 ba aa 07 be 4c f4 bb 3d 09 5e 10 3f d7 ad 43 3f
       -0.13248721 0.09177455 0.56393486 0.76437134
000160 23 a4 e3 3e 27 07 8c 3e f3 f7 c1 3e a6 6d 17 3f
       0.44461164 0.27349207 0.37884483 0.59151685
000170 15 fb bc 3d a2 bc 1c 3e d2 6a 04 3f e5 a1 bd 3d
       0.092275776 0.15306333 0.51725495 0.092593946
000180 48 c5 11 3f 48 d8 b3 be e0 7c a7 3e b6 58 93 3e
       0.5694165 -0.35125947 0.3271246 0.2877862
000190 a5 62 ca 3e 29 1c 86 3e e5 84 64 3e 47 6b 6e 3f
       0.39528385 0.2619336 0.2231632 0.9313244
0001a0 21 77 29 3f d5 09 57 3e 78 1c 2d 3f f9 7c c7 3e
       0.661974 0.20999844 0.67621565 0.38962534
0001b0 ca 4c 83 3e 40 d9 70 3f f9 5a a5 3e dc 87 a3 be
       0.25644523 0.940815 0.3229597 -0.3193959
0001c0 61 ed 90 3d fd e1 00 3f 5d 25 87 be ec ba 44 3f
       0.070765264 0.5034483 -0.26395693 0.7684772
0001d0 db bf 2f 3f f8 a5 81 be 48 df 79 bf 80 7c a1 3e
       0.68652123 -0.25321937 -0.97606325 0.31540298
0001e0 ac 79 03 3f c5 61 5e 3e b5 71 ba 3e 71 74 1c 3e
       0.5135753 0.21716984 0.36414877 0.15278794
0001f0 99 a5 60 3e 68 58 61 3d f2 a8 29 3f ac c5 08 be
       0.2193817 0.05501595 0.66273415 -0.13356656
000200 a5 80 45 bf 20 53 9d bf 44 4b 7f be dc 30 06 bc
       -0.7714942 -1.2290993 -0.24931055 -0.00819036
000210 6a de eb 3c 30 74 57 bf 92 e3 d9 3a 0f e7 29 bf
       0.028792579 -0.84161663 0.0016623607 -0.6636819
000220 26 a3 d2 be ef d4 6a be 94 a6 0e 3d 6a 04 15 bf
       -0.41140097 -0.2293279 0.03482683 -0.5820986
000230 1d 14 07 bf 51 20 c8 be c6 fa d0 3d 97 86 34 be
       -0.52765065 -0.39087155 0.10204081 -0.17629467
000240 67 3b 02 bf da 39 28 bc e4 87 4e bf e3 0f 28 bf
       -0.5087189 -0.010267699 -0.806761 -0.6564924
000250 e6 5b 0d bf 0f b1 ac be 2b 4a e2 3f 23 d5 dc be
       -0.5521835 -0.33728835 1.7678884 -0.4313136
000260 c6 df e2 be c4 93 5c bf 56 19 89 be ec 72 f1 be
       -0.4431135 -0.8616297 -0.26777142 -0.4715799
000270 f4 a6 c1 be 19 7e 08 bf 11 ec 8c be 70 7a 9a bf
       -0.37822688 -0.5331741 -0.27523854 -1.2068615
000280 f1 5a 65 bf a1 ab ae be a9 c7 0a bf 82 dd e4 be
       -0.8959189 -0.34115317 -0.5421091 -0.44700247
000290 6e 2b 70 be 6c 16 a2 be 89 f8 fd be 7c 1f e8 3c
       -0.23454067 -0.31657732 -0.4960368 0.028335325
0002a0 52 b2 45 be 7a 42 08 bf 3c 51 cb be d1 ab 7a 3e
       -0.19306305 -0.53226435 -0.39710414 0.24479605
0002b0 f2 b6 5c bf 68 79 c4 be d3 e6 b7 be d6 9b b7 be
       -0.8621665 -0.38373876 -0.35918292 -0.3586108
0002c0 ce df 22 bf 3e 0e a6 3e 4e 8b 07 bf d0 58 85 3e
       -0.6362275 0.3243274 -0.5294694 0.2604432
0002d0 d7 09 e4 be 11 23 38 bf 35 c4 33 bf 2a 86 98 3e
       -0.44538757 -0.7192851 -0.70221263 0.2978986
0002e0 58 23 1d bf d1 3f 1c bf 9d fa b3 be c6 c8 7a be
       -0.61382055 -0.61034876 -0.3515214 -0.24490651
0002f0 d2 6b ad be 90 b0 b0 bf d9 68 21 bf 10 45 4b be
       -0.33871323 -1.3803883 -0.6305061 -0.19850564
000300 f3 37 6a be 52 a7 c4 bd 3b 1e 51 bd 15 92 44 3f
       -0.22872905 -0.09602226 -0.05105422 0.76785403
000310 64 54 1b bf 03 bc f6 3e df 17 8c be 8a 48 37 bf
       -0.60675645 0.48190317 -0.27361962 -0.7159506
000320 fc 09 93 3f 8c 90 9e be 17 a2 2e be 39 11 0e bf
       1.1487422 -0.30969656 -0.1705402 -0.5549503
000330 9b 1c 2c be 0c eb 14 bf 55 27 b9 be c9 67 ba be
       -0.16807787 -0.58171153 -0.3616282 -0.36407307
000340 ae 52 63 bf 3a bf 0e bf af de 04 bf d0 9e 53 be
       -0.88798034 -0.5576054 -0.5190229 -0.20666051
000350 78 59 04 3e 36 67 ae bd 3d e4 10 bf ea 1b 49 bf
       0.12924755 -0.0851578 -0.56598264 -0.7855822
000360 c0 41 e9 be 39 10 89 be 48 22 c4 be 5d f6 1a bf
       -0.45557976 -0.2677019 -0.38307405 -0.6053217
000370 c3 1e ae bd cc a1 16 be b4 f0 01 bf 95 7a e6 bd
       -0.08501961 -0.14710158 -0.5075791 -0.112538494
000380 57 fc 12 bf 2a 8b b6 3e 5b ec af be a6 95 9b be
       -0.5741629 0.3565305 -0.34360012 -0.3038761
000390 e0 66 d0 be e9 4f 8b be fb a4 6d be 1a 1f 73 bf
       -0.40703487 -0.27209404 -0.23207466 -0.9496933
0003a0 1e bd 25 bf 94 79 3e be 4e e7 24 bf 57 3f c4 be
       -0.64741695 -0.18601066 -0.6441544 -0.38329574
0003b0 fe e3 8e be 91 a4 6d bf 92 4a ad be 50 7e a4 3e
       -0.2790832 -0.92829233 -0.33845955 0.3212762
0003c0 62 b4 96 bd 20 7c f9 be af 99 8e 3e bf 1e 47 bf
       -0.07358624 -0.48727512 0.27851626 -0.7778129
0003d0 dc 05 2a bf 1d 42 86 3e 1f 3f 7d 3f 22 58 a5 be
       -0.6641519 0.26222315 0.9892444 -0.32293802
0003e0 46 d8 05 bf d8 d0 61 be a4 44 b1 be e3 04 38 be
       -0.5228313 -0.22052324 -0.3462268 -0.17970614
0003f0 8e 2c 63 be c3 7d 6b bd 84 16 2b bf 9f 59 00 3e
       -0.22184965 -0.057492983 -0.6683123 0.12534188

action_model._discrete_distribution.branches.0.bias f4 [2]
000000 f9 b9 9c bf 20 d3 9d 3f
       -1.2244254 1.2330055

action_model._discrete_distribution.branches.1.weight f4 [2, 128]
000000 e5 23 5a 3f 03 40 d5 3f 24 95 7a 3f ed 30 0b 3f
       0.8521102 1.666016 0.9788382 0.5437153
000010 4d ff 18 3f 26 74 e1 3f d0 e0 82 3f cc db d7 3f
       0.5976456 1.7613571 1.0224857 1.6863952
000020 2b b4 76 3f 95 11 df 3e d6 9d e1 3e 56 3c 83 3f
       0.96368665 0.43568102 0.44065732 1.0252788
000030 65 f5 c6 3f ff 14 b0 3f d9 0d 1c 3f e4 67 f2 3e
       1.5543638 1.3756407 0.6095863 0.47344887
000040 23 a8 8f 3f c5 e3 9c 3e a3 ac be 3f b0 42 76 3f
       1.1223186 0.30642524 1.4896435 0.9619551
000050 cc 5a 8f 3f 6b 27 c6 3f fd 91 29 3e 0c 47 6d 3f
       1.1199584 1.548078 0.16559596 0.92686534
000060 03 50 8d 3f 85 9b be 3f 06 82 45 3f 62 d9 81 3f
       1.1040043 1.4891211 0.77151525 1.0144465
000070 18 23 18 40 c9 a6 88 3f 28 e5 bd 3f 85 4a e7 3f
       2.377142 1.0675899 1.4835558 1.8069617
000080 5e a1 b5 3f 5e 8c 81 3f ec c1 90 3f 80 ad 90 3f
       1.418987 1.0120962 1.130918 1.1302948
000090 e7 fb d3 3f 4e ff 1a 3f d5 10 83 3f fa 51 79 3f
       1.656125 0.60545814 1.0239512 0.9739071
0000a0 6f 07 c3 3f 48 4f c1 3f 7b 63 6f 3f 6e b3 ad 3f
       1.5236644 1.510232 0.9351117 1.3570383
0000b0 ec 10 76 3f 9a 48 56 3f 75 c1 8f 3f 3a 24 a3 3f
       0.9611957 0.8370453 1.1230913 1.274543
0000c0 76 ca 40 3f 3c 56 d8 3f c7 fe 84 3f 86 f0 27 3f
       0.7530893 1.6901317 1.0390252 0.65601385
0000d0 5e 78 56 3f 62 d5 94 3f c2 c0 b5 3f fa a4 25 3f
       0.83777416 1.1627619 1.419945 0.6470486
0000e0 9a 73 3a 3f 00 58 d9 3f 24 d6 ae 3e d1 54 8b 3f
       0.72832644 1.697998 0.3414775 1.0885259
0000f0 d2 64 a7 3e 6b 47 cf 3f e1 ac 2a 3f 0e ae 13 3f
       0.32694107 1.619367 0.6667004 0.5768746
000100 a8 0c 6e 3e e6 b5 a7 3f 7b c8 57 3f a6 f3 34 3f
       0.23247015 1.3102386 0.84290284 0.7068428
000110 9a 9d 9c 3f 9b e2 2b 3f 6f 8a d4 3f 4c ac c1 3f
       1.2235596 0.6714265 1.6604747 1.5130706
000120 f1 f0 23 bf d0 bd 29 3f c4 98 8d 3f cc dd 71 3f
       -0.6403952 0.66305256 1.1062245 0.9447906
000130 d7 5a cf 3f c7 00 92 3e ee c7 66 3f 41 73 81 3f
       1.6199597 0.28516218 0.9014882 1.0113298
000140 a5 28 98 3f 0c 76 8d 3f b1 82 ff 3e 68 f1 7f 3f
       1.1887404 1.105165 0.49904397 0.9997773
000150 03 1f a4 3f 83 83 91 3f 5c 58 9e 3f cf 09 af 3f
       1.2821964 1.1368259 1.2370715 1.3674868
000160 13 cd 98 3f 56 b2 12 40 ec 05 8d 3f 81 2e dd 3d
       1.1937584 2.2921348 1.1017432 0.107998855
000170 3c 65 86 3f 11 bd af 3f 7f 2a a1 3f 79 18 ac 3f
       1.0499644 1.3729573 1.2591094 1.3444968
000180 2b ed 75 3f 4a c7 94 3f e5 44 15 3f f4 8e 92 3f
       0.96065015 1.1623318 0.5830825 1.1449876
000190 8a 6e 8d 3f 3e f1 a4 3f d5 12 d3 3f ce 10 89 3f
       1.1049359 1.2886121 1.6490122 1.0708253
0001a0 62 d3 a3 3f 07 82 a3 3f 5e 0e ef 3f cf 3d 9f 3f
       1.2798884 1.2774056 1.867626 1.2440737
0001b0 2e d4 56 3f 23 a2 04 3f 84 9f 13 3f ca d5 d7 3f
       0.8391751 0.518099 0.57665277 1.6862118
0001c0 20 19 33 3f d2 f5 dd 3f ea 4a b2 3e 0d 85 ab 3f
       0.6996021 1.7340643 0.3482278 1.3399979
0001d0 63 bc 45 3f 0d 21 0b 3f ff 88 f4 bd 96 1c 18 40
       0.7724058 0.54347306 -0.119401924 2.3767447
0001e0 94 15 80 3f 79 c4 97 3f 4f 9b 75 3f a7 e4 05 3f
       1.0006585 1.1856834 0.9594011 0.5230202
0001f0 7e 13 d1 3f 4d c6 ab 3f 59 bc 92 3f a1 6f 99 be
       1.6334074 1.3419892 1.1463729 -0.2996798
000200 74 83 5a bf be c7 d4 bf df a4 76 bf 73 7b 06 bf
       -0.8535683 -1.6623456 -0.96345323 -0.5253212
000210 04 0f 17 bf 11 56 e1 bf df 71 83 bf ec ac d7 bf
       -0.5900729 -1.760439 -1.0269126 -1.6849647
000220 35 37 76 bf d2 c0 e2 be 1e 53 e4 be 4b ac 84 bf
       -0.9617799 -0.44287735 -0.44594663 -1.036508
000230 55 f2 c6 bf e5 f6 ac bf 7f b0 18 bf 09 3c e8 be
       -1.5542704 -1.3512846 -0.5964431 -0.45358303
000240 bd 7b 91 bf 79 3b a6 be 79 fd bd bf 70 78 75 bf
       -1.1365887 -0.3246725 -1.4842979 -0.958869
000250 0e 12 8f bf 62 4d c5 bf 52 5a 36 be 81 01 6a bf
       -1.1177385 -1.541424 -0.17807892 -0.91408545
000260 de f3 8f bf b4 42 be bf 52 09 44 bf 64 fc 80 bf
       -1.1246297 -1.4864106 -0.7657672 -1.0077024
000270 58 1b 18 c0 d6 6a 8a bf 65 52 bd bf 8b e5 e6 bf
       -2.376669 -1.0813854 -1.479077 -1.8038801
000280 fc ad b6 bf da 0e 82 bf 99 50 8f bf 25 fe 8f bf
       -1.4271846 -1.0160782 -1.1196471 -1.1249434
000290 54 be d4 bf 89 17 1a bf e4 7c 82 bf c2 bd 7b bf
       -1.6620584 -0.6019216 -1.0194364 -0.9833642
0002a0 36 50 c5 bf bb 6c c0 bf 4c 9c 71 bf 79 4e ae bf
       -1.5415103 -1.5033182 -0.94379115 -1.3617698
0002b0 80 97 77 bf f4 8f 54 bf 84 46 8f bf 51 c3 a3 bf
       -0.96715546 -0.83032155 -1.1193395 -1.2793981
0002c0 00 53 3f bf 94 b0 d7 bf ec d7 83 bf 7f b6 26 bf
       -0.7473602 -1.6850762 -1.0300269 -0.65122217
0002d0 98 8f 51 bf 63 ca 94 bf 2a 2f b7 bf a4 ba 20 bf
       -0.8185973 -1.1624264 -1.4311268 -0.6278479
0002e0 3a 1f 35 bf 8e 75 dc bf 0b 97 b0 be a4 bf 87 bf
       -0.7075077 -1.7223375 -0.34490237 -1.0605359
0002f0 8b d4 a4 be 2b c1 d0 bf cd 79 2a bf 41 b6 0e bf
       -0.32193407 -1.630895 -0.66592103 -0.5574685
000300 f2 d3 73 be 4d 13 a8 bf 53 42 59 bf cd 25 36 bf
       -0.2381132 -1.313089 -0.8486683 -0.7115143
000310 c0 bc 9b bf e3 c7 2a bf 67 da d0 bf 7a fa c1 bf
       -1.2166977 -0.6671125 -1.6316651 -1.5154564
000320 d1 8a 23 3f ee 24 2d bf 8f 6b 8f bf 8a 31 74 bf
       0.6388369 -0.67634475 -1.1204699 -0.9538809
000330 24 de cb bf 3f cf 9b be bb a0 66 bf be 44 7b bf
       -1.5927167 -0.30431554 -0.90089005 -0.9815177
000340 ba bf 96 bf 17 8f 8e bf 6c fc 02 bf 98 62 80 bf
       -1.177726 -1.1137418 -0.51166415 -1.0030088
000350 bf b8 a5 bf 3f 7c 90 bf 48 ba 9d bf 75 1e af bf
       -1.2947005 -1.1287917 -1.2322474 -1.368117
000360 c2 bd 9a bf 16 63 12 c0 1a 23 90 bf 4c 61 d4 bd
       -1.208916 -2.2872977 -1.1260712 -0.103701204
000370 70 71 87 bf 02 95 ac bf 9a ca 9e bf 47 1f ab bf
       -1.0581493 -1.3482974 -1.2405579 -1.336892
000380 5c 30 77 bf 4e 18 95 bf 97 db 17 bf d1 32 92 bf
       -0.96558166 -1.1648042 -0.5931944 -1.1421758
000390 00 db 90 bf 37 98 a4 bf 0d ba d3 bf c4 dd 88 bf
       -1.1316833 -1.2858952 -1.6541153 -1.0692677
0003a0 de 3d a4 bf 37 12 a3 bf 78 b6 ef bf 77 fa 9f bf
       -1.283138 -1.2739934 -1.872756 -1.2498311
0003b0 e9 65 52 bf e3 74 02 bf 81 af 10 bf 22 14 d7 bf
       -0.8218675 -0.50959605 -0.565178 -1.6803019
0003c0 37 f1 2e bf 00 78 dd bf 10 5b b6 be 75 cf aa bf
       -0.68336815 -1.7302246 -0.3561635 -1.3344561
0003d0 e5 a8 44 bf 5a 08 10 bf ac f2 fe 3d de 70 18 c0
       -0.7682021 -0.56262743 0.1244863 -2.3818889
0003e0 74 df 7f bf ef df 94 bf 31 b9 76 bf 31 f1 03 bf
       -0.9995034 -1.1630839 -0.9637633 -0.51539904
0003f0 10 b2 d1 bf 96 85 ad bf 25 6d 95 bf fa b8 99 3e
       -1.6382465 -1.3556392 -1.1673933 0.30023938

action_model._discrete_distribution.branches.1.bias f4 [2]
000000 5c 3e c9 be 61 3f c9 3e
       -0.3930539 0.39306167

exp_avg f4 [128, 53]
000000 5a 8f 1f 97 61 bd 1f 95 04 00 00 80 82 14 17 22
       -5.1556606e-25 -3.2259188e-26 -6e-45 2.0475173e-18
000010 09 fa 15 22 c6 a5 a2 95 3d f0 ed 94 04 00 00 00
       2.0325633e-18 -6.5692823e-26 -2.4025642e-26 6e-45
000020 a0 58 1a 22 a7 ef 18 22 09 4c 17 97 61 bd 1f 95
       2.091781e-18 2.0726712e-18 -4.88867e-25 -3.2259188e-26
000030 04 00 00 80 93 6b 0c 22 80 90 0d 22 4a 40 36 93
       -6e-45 1.9030487e-18 1.918556e-18 -2.3003327e-27
000040 df 96 ed 94 04 00 00 00 d6 2b 12 22 6e 2c 12 22
       -2.3990393e-26 6e-45 1.9809896e-18 1.981021e-18
000050 f7 2d 00 00 fc 94 6b 16 04 00 00 00 88 38 1b 22
       1.6489e-41 1.903016e-25 6e-45 2.1036344e-18
000060 f1 93 1a 22 7d 50 33 11 d6 c7 23 14 eb d8 ae 03
       2.0949211e-18 1.4145413e-28 8.268808e-27 1.0276603e-36
000070 37 2f 12 22 2f 2f 12 22 25 d4 d9 81 61 bd 1f 95
       1.9811685e-18 1.9811668e-18 -8.0017623e-38 -3.2259188e-26
000080 04 00 00 80 b7 3a 1e 22 2e 86 1d 22 1a 93 10 13
       -6e-45 2.1444076e-18 2.1348502e-18 1.8247882e-27
000090 04 00 00 00 04 00 00 80 37 2f 12 22 3b 2f 12 22
       6e-45 -6e-45 1.9811685e-18 1.9811693e-18
0000a0 dc 08 4b 96 39 a6 af 03 04 00 00 80 a6 0d 13 22
       -1.6401005e-25 1.0323738e-36 -6e-45 1.992944e-18
0000b0 43 01 13 22 f1 23 03 22 2c d5 13 21 61 93 4f 21
       1.9922883e-18 1.7772838e-18 5.008767e-19 7.032938e-19
0000c0 17 05 26 25 18 29 12 22 b3 b2 13 23 22 27 12 22
       1.439993e-16 1.9808444e-18 8.006727e-18 1.9807406e-18
0000d0 22 27 12 22 36 c0 15 0f 0b a4 71 94 04 00 00 80
       1.9807406e-18 7.383286e-30 -1.2199742e-26 -6e-45
0000e0 6c 40 75 19 0b 4f e6 1b 9e 01 d7 0e cf b8 90 94
       1.2679213e-23 3.8101388e-22 5.300315e-30 -1.4613178e-26
0000f0 04 00 00 00 51 34 24 19 98 9d 09 1c 4f cb 18 0f
       6e-45 8.4891665e-24 4.5533183e-22 7.5333344e-30
000100 0b a4 71 94 04 00 00 80 7b 66 dc 1c 91 97 ed 1c
       -1.2199742e-26 -6e-45 1.4584869e-21 1.5722523e-21
000110 86 ae a2 0e 6e b9 90 94 04 00 00 80 de ee 26 1d
       4.0104143e-30 -1.4613423e-26 -6e-45 2.2093409e-21
000120 1a 65 2d 1d 17 00 00 00 53 72 52 98 04 00 00 80
       2.2948628e-21 3.2e-44 -2.7199583e-24 -6e-45
000130 a7 e1 63 1a 14 45 82 1b 7f fd 40 05 ff 3a 3f 93
       4.712478e-23 2.1551337e-22 9.0743565e-36 -2.4136677e-27
000140 9a 20 5c 80 2b 26 46 1d 26 eb 46 1d 5b 00 00 80
       -8.460561e-39 2.6224814e-21 2.632665e-21 -1.28e-43
000150 0b a4 71 94 04 00 00 00 22 22 80 99 20 f5 21 1b
       -1.2199742e-26 6e-45 -1.3248676e-23 1.3396812e-22
000160 b0 81 ef 07 04 00 00 80 04 00 00 00 2b 26 46 1d
       3.6036947e-34 -6e-45 6e-45 2.6224814e-21
000170 df 22 47 1d bb d9 ce 92 29 25 5c 80 04 00 00 00
       2.6355459e-21 -1.3054102e-27 -8.462196e-39 6e-45
000180 e2 70 e1 1c 3c 4f ea 1c 00 48 0d 9d c8 ef 9b 9c
       1.4918431e-21 1.5505303e-21 -1.8698418e-21 -1.0319022e-21
000190 68 44 eb 9c 81 3c 64 20 f8 bc 68 1d b2 09 7c 1e
       -1.5568678e-21 1.933237e-19 3.0802639e-21 1.3342774e-20
0001a0 c6 31 95 1d cb 31 95 1d 26 a9 8c 08 e1 07 34 12
       3.9491436e-21 3.9491456e-21 8.46571e-34 5.6807697e-28
0001b0 04 00 00 80 f1 09 b2 18 e0 66 42 18 20 36 f1 05
       -6e-45 4.602196e-24 2.512585e-24 2.2683413e-35
0001c0 16 37 8a 92 04 00 00 00 36 c6 9a 18 8a 38 85 18
       -8.722604e-28 6e-45 4.000821e-24 3.4436784e-24
0001d0 a3 9c 8b 08 e1 07 34 12 04 00 00 80 b4 52 ef 18
       8.402583e-34 5.6807697e-28 -6e-45 6.186356e-24
0001e0 22 27 8b 18 6b 67 ed 05 9f 38 8a 92 04 00 00 80
       3.597017e-24 2.2325363e-35 -8.722983e-28 -6e-45
0001f0 72 97 ff 18 cf 8b dc 18 04 00 00 00 a9 75 cf 95
       6.6068876e-24 5.7009838e-24 6e-45 -8.379227e-26
000200 04 00 00 80 a0 83 9c 18 1a 40 f4 17 d6 89 0b 00
       -6e-45 4.0457962e-24 1.5784312e-24 1.059637e-39
000210 7d 3c e4 92 85 26 00 80 0a 3e 19 19 47 89 03 19
       -1.4403734e-27 -1.3818e-41 7.922443e-24 6.800264e-24
000220 04 00 00 80 e1 07 34 12 04 00 00 00 92 1f c3 99
       -6e-45 5.6807697e-28 6e-45 -2.0175279e-23
000230 94 cf d1 99 38 e7 8f 02 04 00 00 00 04 00 00 00
       -2.1693934e-23 2.1144675e-37 6e-45 6e-45
000240 69 42 19 19 e2 4c 02 19 1b 67 9d 92 88 26 00 80
       7.923326e-24 6.736369e-24 -9.93351e-28 -1.3822e-41
000250 04 00 00 00 73 00 b2 99 05 40 c1 99 97 0c b1 19
       6e-45 -1.840495e-23 -1.998159e-23 1.8306456e-23
000260 1e 06 6a 1a 58 85 61 9a aa 47 d5 9c 44 f4 9d 9a
       4.8395007e-23 -4.6636624e-23 -1.4113682e-21 -6.532831e-23
000270 e5 16 90 9b 68 9f 25 9b 68 9f 25 9b b8 16 0c 24
       -2.3837597e-22 -1.3699987e-22 -1.3699987e-22 3.0376904e-17
000280 21 d1 84 9a 04 00 00 80 0a 6a 28 25 e9 e0 ea 26
       -5.4931786e-23 -6e-45 1.4607605e-16 1.6297974e-15
000290 62 fc 01 24 3b 0d cf 9a 1b 00 00 80 9a 1c 04 a7
       2.8186193e-17 -8.563457e-23 -3.8e-44 -1.8334185e-15
0002a0 27 06 54 22 c9 c9 08 24 83 c0 84 9a c1 ed 6b 81
       2.8734615e-18 2.9661218e-17 -5.490494e-23 -4.3333263e-38
0002b0 3b e5 43 27 28 79 80 27 e0 1f b4 23 1a aa cf 9a
       2.7185952e-15 3.5658495e-15 1.9529139e-17 -8.588801e-23
0002c0 04 00 00 80 02 09 32 28 a4 30 32 28 10 a8 b2 8c
       -6e-45 9.882938e-15 9.891532e-15 -2.7526391e-31
0002d0 d8 2a 38 9d 04 00 00 80 04 ca 6d 25 6a 80 7d 26
       -2.4374347e-21 -6e-45 2.0624919e-16 8.795104e-16
0002e0 2d ce ec 1b f4 b1 15 9a 2d 94 b9 91 ed 08 32 28
       3.9176163e-22 -3.0956227e-23 -2.9279174e-28 9.88292e-15
0002f0 d1 31 32 28 35 fa 90 12 83 c0 84 9a 04 00 00 00
       9.891787e-15 9.149358e-28 -5.490494e-23 6e-45
000300 7b f9 b1 25 64 90 74 26 f0 53 84 1d 47 5c 3f 82
       3.087366e-16 8.485019e-16 3.50269e-21 -1.4058946e-37
000310 04 00 00 00 44 08 32 28 df 39 32 28 ab 66 63 99
       6e-45 9.882777e-15 9.893534e-15 -1.17563586e-23
000320 9b 23 c3 91 04 00 00 00 ae 2c 47 27 dc 28 63 27
       -3.078752e-28 6e-45 2.7641019e-15 3.1524728e-15
000330 d4 5b dc a7 67 8a 8f a7 17 53 f0 a7 ba 7f 6b 2b
       -6.1161827e-15 -3.984053e-15 -6.6703468e-15 8.366603e-13
000340 bd 1e 38 28 fc 98 4c 29 b7 20 3e 28 23 1f 38 28
       1.0220717e-14 4.5429792e-14 1.0554213e-14 1.02208035e-14
000350 d5 28 03 80 e7 da a0 0d 04 00 00 00 30 15 52 18
       -2.90154e-40 9.91346e-31 6e-45 2.715256e-24
000360 1c 49 32 18 04 00 00 80 2d e0 a0 0d 04 00 00 00
       2.3042872e-24 -6e-45 9.91473e-31 6e-45
000370 b3 2d 51 18 fe fa 58 17 9c 27 03 80 e7 da a0 0d
       2.703569e-24 7.011016e-25 -2.89716e-40 9.91346e-31
000380 04 00 00 80 45 8a 52 18 d8 a7 4c 18 04 00 00 00
       -6e-45 2.7211672e-24 2.6451121e-24 6e-45
000390 2d e0 a0 0d 04 00 00 00 6b 1a 50 18 ec 34 9a 17
       9.91473e-31 6e-45 2.6896708e-24 9.965376e-25
0003a0 04 00 00 80 ef 0e 5c 91 04 00 00 80 34 53 51 18
       -6e-45 -1.7359542e-28 -6e-45 2.7054624e-24
0003b0 ac f6 4e 18 37 00 00 00 22 4c 28 07 04 00 00 00
       2.6749413e-24 7.7e-44 1.2661289e-34 6e-45
0003c0 b1 9c 01 99 f1 48 01 99 04 00 00 80 e7 da a0 0d
       -6.700787e-24 -6.683874e-24 -6e-45 9.91346e-31
0003d0 04 00 00 80 02 a6 e5 18 ec 48 e0 18 36 00 00 00
       -6e-45 5.9362738e-24 5.7976275e-24 7.6e-44
0003e0 04 00 00 00 04 00 00 80 df 87 01 99 dc 64 01 99
       6e-45 -6e-45 -6.696583e-24 -6.689512e-24
0003f0 67 0b 90 8f 04 00 00 80 04 00 00 00 19 b0 e5 18
       -1.4203888e-29 -6e-45 6e-45 5.9372926e-24
