VirtualAquarium/results/VirtualAquariumReproducao/VirtualAquarium.onnx (onnx, 100504 bytes, 12 tensors)

action_model._continuous_distribution.log_sigma f4 [1, 3]
00000000: dbf5 b3bf 8f16 94bf 6746 83bf
-1.4059404 -1.1569384 -1.025586

action_model._continuous_distribution.mu.bias f4 [3]
00000000: b259 133e 066d cebd febf 90be
0.14389685 -0.10079388 -0.28271478

action_model._continuous_distribution.mu.weight f4 [3, 128]
00000000: 559c 4d3c 10e7 95bd 3109 44be f8a5 f4bd
00000010: 0afe 74be fa48 0cbe 8e2d 72be c07a 23be
00000020: 5a0d 9fbd 23e9 f3bd 986d 4d3c 9381 fabc
00000030: e34d 0a3d dd65 9abd 8fab 113e 35d2 91bd
00000040: 3873 0abe e6ed 943d f061 8dbe bfc8 eebd
00000050: d52b a5be e9f0 c03c ea29 87bd 9c2e 2c3e
00000060: f53b 033e 6d1f 30be 3adc c5bd 1ae3 24be
00000070: 96f0 62be 98af 923c 081d 05bd 9a94 f9bc
00000080: ca5a b9bc d818 2a3d 135d 40be 88f7 6dbd
00000090: 6091 0e3d c19c 333c 2538 a4bd acfc 2fbe
000000a0: 32cb 783e 7005 2ebe 55b9 4abe d34c 4dbe
000000b0: 193a 37be b13f e73c 3b96 6dbe b344 bcbc
000000c0: 9472 9bbe b90f 333e 07b1 67bd 2875 15be
000000d0: c13e d2bd 29d6 1fbe 552b be3d 51ed 443e
000000e0: 3f9d 56be 2413 31be 48ab d83c 875f d4bd
000000f0: aa8f 00be 2462 13be b194 043e 43c0 27bc
00000100: 8daf 0fbe 8e64 1dbe af63 49be 6519 d2bd
00000110: 61a7 903b 5cd9 1dbe 8801 39bd 06c2 13be
00000120: c804 26be 0148 4e3d 7c58 3c3d b931 393d
00000130: bdfa 3dbe 6fc1 8b3a f531 2abe 84c4 983e
00000140: 3654 3ebd cc9b 23bd f040 06be 876d f0bc
00000150: 4eaf 02be 272c c5bd 5064 a43d 9133 abbc
00000160: 4ba7 3c3e bf15 5d3e 52c4 903b 1839 153d
00000170: b662 a5bd 87aa 373e 6ef6 313d 6b0a 26be
00000180: 1b6f e4bd d67d 013d cc59 babd 84c3 f9bd
00000190: bcff cfbd 7b5e a8bd 37ed b63c 80e0 1dbd
000001a0: b2f6 c8bc 1893 913d e2a8 0cbe 38d9 ffbd
000001b0: 0c3d efbd 2672 a33c 007a 90be b5e7 d13d
000001c0: 322f 83bc 72b4 a7be 9e0e d9bd efc4 0bbe
000001d0: b35e fc3d 5578 d9bd e1be 7f3c 4686 8d3c
000001e0: 8f12 babd 02e9 74bb 48f3 26be b3aa 2c3e
000001f0: dfe2 56be 0aaf f0bd da5b 963d 1d79 a4bd
00000200: fca5 1c3e dfa7 1f3e 7219 413e 071f 033e
00000210: 261e 4f3e de37 073e d44e 173e df6b 733e
00000220: 9f2e 1c3e 8ae0 1dbe e12a ef3d b28c 9d3d
00000230: 86bc f43d 60e5 323e 2256 bf3c 47fb bebd
00000240: 9390 883e 9edc dbbe 7235 253e 696d d1bd
00000250: 0fac 82bd 0566 96be d2b7 343d 7c8f 223e
00000260: edd4 ab3d f87a 463e 824d 89be 9de3 b63d
00000270: e81c da3e 6286 553e a021 343e 6d04 033e
00000280: 934d 703e b683 0cbe 5ff7 993e 4445 113e
00000290: ee07 803d 877f cfbc 9665 5f3e 0026 733e
000002a0: 6116 1b3e 194b deb8 f31b 00bd 89b1 e03d
000002b0: 16bf 843e 8f25 513c 761b 343e dbc3 09bd
000002c0: 2d50 fc3d df80 933d 4703 8d3d 2d6a 333c
000002d0: c3d9 5e3e 7ad0 823e 4b56 e03d a364 bd3d
000002e0: d3ec 01be 3d6f 5c3e 2461 f83d d1b5 673e
000002f0: 9131 9a3d 452d 973c 5c6a b43d a6ba 123e
00000300: 3c2e 793e ee14 963e 8d60 1c3e 08b6 fb3d
00000310: c9d5 3d3c 0878 913e 073f 2c3e f41f 203e
00000320: 12f7 dc3d 4d59 fa3d 4ac5 a03d 40bd ca3d
00000330: 852d 933e 4706 2f3e e33b a93d 4026 673e
00000340: 3460 e13d 91c2 303e ea00 523e 4fb4 393e
00000350: 29a6 583e ba9f 103e 6913 d03d 8844 ec3d
00000360: 39d8 f9bd c9f6 843e 6f14 ecbd 6c72 f1bd
00000370: bc64 09bd 85ea 26bc af4f da3d e697 d33d
00000380: baff a6bc 3af7 0ebd b8fd 623e a0b2 4cbe
00000390: aeb4 c33d 565c 713e 1b57 393d 5dc0 8b3e
000003a0: 779b a23d 210f 15bd 02cd 3ebe 63a9 573e
000003b0: bb2b 043e ab0c 283e 560c 643d 9bd7 363d
000003c0: 1074 63bd 5a45 913e 7b11 e63d 0021 9d3e
000003d0: 8cec 0bbe 6d41 fe3c 7dc0 653e 4bd5 a9bd
000003e0: fbb6 44be 66f9 f83b 4888 8fbe 9312 c43d
000003f0: fd4a 3e3e 81f5 f33d 9e4d 58be 79e1 523e
0.0125494795 -0.07319462 -0.19144131 -0.119457185 -0.23925033 -0.13699713 -0.2365019 -0.15964794
-0.077662185 -0.11909702 0.012538336 -0.030579364 0.033765685 -0.0753896 0.142256 -0.07120172
-0.13520515 0.07271938 -0.27613783 -0.11659383 -0.32260004 0.023552375 -0.06599791 0.16814655
0.1281584 -0.17199488 -0.096611455 -0.16102257 -0.22162089 0.017905995 -0.03249839 -0.030466367
-0.0226263 0.0415276 -0.18785505 -0.058097392 0.03480661 0.010962666 -0.08018521 -0.1718623
0.24296263 -0.16994262 -0.19797261 -0.20048837 -0.17893256 0.028228613 -0.2320184 -0.022981977
-0.30360854 0.17486466 -0.05656531 -0.14595473 -0.102658756 -0.1560904 0.09285609 0.19231154
-0.20958422 -0.17292458 0.02644886 -0.10369783 -0.12554803 -0.14392906 0.12947346 -0.01023871
-0.14031811 -0.1537039 -0.19666933 -0.1025875 0.0044144844 -0.15414947 -0.045167476 -0.14429483
-0.16212761 0.050361637 0.045982823 0.045213435 -0.1855268 0.0010662506 -0.1662062 0.2983743
-0.04646703 -0.0399435 -0.13110709 -0.029349102 -0.12762186 -0.09627562 0.080269456 -0.020898612
0.18423192 0.21590327 0.0044179345 0.036431402 -0.08075468 0.17936145 0.043447904 -0.16214912
-0.11154004 0.031614147 -0.09099159 -0.12195495 -0.10156199 -0.08221146 0.02232991 -0.038544178
-0.024531696 0.07108134 -0.13736299 -0.12492603 -0.11681566 0.019951891 -0.2821808 0.10249273
-0.016013715 -0.32754856 -0.10598491 -0.13649343 0.1232275 -0.10618655 0.015609474 0.01727594
-0.09085571 -0.0037370329 -0.16303742 0.16861992 -0.20984982 -0.11752136 0.07341738 -0.08030913
0.15297693 0.15591381 0.18857363 0.12804805 0.20226344 0.13204905 0.14776164 0.23771618
0.1525216 -0.15417686 0.116781004 0.07692851 0.119500205 0.17470312 0.023356501 -0.09325271
0.266728 -0.42941755 0.16133669 -0.102259465 -0.06380474 -0.2937471 0.044120617 0.15875047
0.08390222 0.19382846 -0.26816946 0.089301325 0.4260018 0.20852044 0.17590952 0.12794657
0.23467092 -0.13722119 0.30071542 0.14186579 0.062515125 -0.025329364 0.21816096 0.23744965
0.15145256 -0.00010599773 -0.031276654 0.10971362 0.25927037 0.012765302 0.175886 -0.033634048
0.1231998 0.072023146 0.06885391 0.010950607 0.21762757 0.2554968 0.10953959 0.092477106
-0.12687998 0.21526809 0.12127903 0.22627951 0.07528985 0.018454203 0.08809349 0.14329013
0.24334043 0.29312843 0.15271206 0.12290579 0.011586615 0.2841189 0.16820918 0.15637189
0.107893124 0.12224064 0.0785013 0.09899378 0.28745666 0.17092238 0.082633756 0.22573185
0.110046774 0.17261721 0.20508161 0.18135189 0.21157135 0.14123431 0.10159952 0.11536509
-0.12199444 0.25969532 -0.11527335 -0.11789402 -0.033543333 -0.01018775 0.1065973 0.10331707
-0.020385612 -0.034903742 0.22167099 -0.19990015 0.09555946 0.2357038 0.045249086 0.272952
0.07939809 -0.03639138 -0.18632892 0.2106071 0.12907307 0.16411082 0.055675827 0.04463921
-0.055530608 0.28373224 0.11233803 0.3068924 -0.13664454 0.031037057 0.2243671 -0.082926355
-0.19210427 0.00759809 -0.28033662 0.09573855 0.18583293 0.119120605 -0.21123359 0.20593823

action_model._discrete_distribution.branches.0.bias f4 [2]
00000000: 14c3 bbbe bec4 bb3e
-0.3667227 0.3667354

action_model._discrete_distribution.branches.0.weight f4 [2, 128]
00000000: 447c d83e 0f74 9c3f d8ee 893f 4c6a c73f
00000010: 9204 263e 1ce3 213f 3808 1a3f 8a4d 5e3f
00000020: b296 493e d967 4a3d 02b8 b83f 7292 3c3f
00000030: 5ec7 873f 6ba3 863f a4ee bcbe c3ef 1c3f
00000040: 385f 143f 0a73 933e 17e2 283f dc72 08bf
00000050: dbdd 60bc 08df 8a3e d674 e83d 5cf3 dabe
00000060: 8f9c e63d ddcb 833f 9443 d53e e937 0d3f
00000070: 48e9 c43e 06b0 6e3f 160d 403e 7fb5 813d
00000080: d5a7 873f 7cdc 093e 468a 653e ab82 343f
00000090: 4aca a93f 0eec 283f fd0e 923f 9350 9b3e
000000a0: 5979 f8bd 3dd6 333f b279 573e 317e 0a3f
000000b0: ec2e 3c3f 0e60 5f3f 9a5a cb3e e59e c6be
000000c0: 00fb 003f 0710 8dbd 71bf 123e c24c c93e
000000d0: 6a46 f23e 6117 473f 88b4 5d3f ade2 723f
000000e0: 9f0e f83d b73c 0b3f 3b72 ce3f 8f4e 293f
000000f0: 2b70 c73e b71b 3c3e cf7a ce3e b28f ae3f
00000100: 635f 813f ce8d 273f 6882 273d 48b8 833f
00000110: b0c2 ae3f 33ab 993f 41e9 24bf b4e2 663e
00000120: cc7b 853f 072e 833f a2e7 293d 05a6 8e3f
00000130: 7e52 343f 8b24 e33e 856e 5a3f 8892 16bd
00000140: 6585 e43e 1310 2d3f d755 a33f e50d 9ebe
00000150: 7d96 8a3f 49e0 3c3e 685a 993d 66bc 963e
00000160: f2da 92be 4c65 163e 157a 3abf 7e79 883f
00000170: 230d 9d3e 48c7 c83f 6dec 9d3e 6d2b 7b3f
00000180: 5ddb 963f f77a 0c3f 363b 933f d148 c13d
00000190: 5d5c 473f 9da8 733f 06f7 6a3e 94da a33c
000001a0: 5697 02bf e128 ab3e c1e3 ffbe 986e cbbc
000001b0: 6c63 a73c 0297 ad3f 8721 3f3e 1e3b 813f
000001c0: c2fd 663f 6521 023e 8345 e13e 56ce d93e
000001d0: 5c57 b63d 3ffc 9bbd 1335 cc3f 727d e5bd
000001e0: 54d0 c03d 83fb 753e 27a3 cb3e 705f 86bd
000001f0: c9e3 b43f c7e5 3e3f 368d 7dbc b254 2d3f
00000200: c0df cdbe c88c 9bbf 0392 86bf 2cc2 c6bf
00000210: feb4 23be 6d53 20bf df9b 17bf 6b0a 5abf
00000220: b417 50be 0499 7dbd 8662 b8bf 4f40 3cbf
00000230: 8f8a 86bf 5282 85bf 3eac bf3e d60f 20bf
00000240: 09bd 12bf 2f61 97be 787e 27bf 15f0 043f
00000250: 4345 073d 8b97 8abe 28f2 fdbd 811c e73e
00000260: 4242 e7bd 8147 82bf 855e cebe efbc 0abf
00000270: 6db2 c4be 30ee 6cbf 48f5 57be 0378 73bd
00000280: e685 83bf 1e16 06be dd87 7cbe 3a69 3bbf
00000290: f1ce a9bf 5072 2cbf a38f 92bf 64b2 93be
000002a0: 507e d03d 37e0 35bf 1275 55be 201f 05bf
000002b0: e7bc 3ebf f248 63bf 9255 cdbe 573a c83e
000002c0: fb28 f8be 6d9b 883d adb8 1dbe 39f1 c7be
000002d0: bb90 ecbe 3ba1 40bf 9f4d 61bf e72d 74bf
000002e0: babe fabd 8432 0abf 2698 cdbf 3038 2cbf
000002f0: 3d5f b6be 4af2 3abe e68d d2be cacd adbf
00000300: 0d1f 80bf f9d0 26bf b33f 15bc 95d5 84bf
00000310: 7fe7 b0bf 27a9 9bbf 8b29 283f d279 58be
00000320: 19cb 83bf 8b3e 81bf 56b0 62bd 7666 8ebf
00000330: bee7 2ebf dbae e3be 6a43 56bf 5d17 223d
00000340: dfd5 e4be 5810 32bf 7d88 a3bf 8a26 963e
00000350: d065 89bf ae0d 2fbe 33b5 79bd 1750 9dbe
00000360: 30b4 963e f2c0 00be e89b 3d3f 8bdc 87bf
00000370: 4991 9cbe 5657 c7bf 074f a8be 16f0 79bf
00000380: acb3 96bf d038 09bf 4c15 94bf 8758 b4bd
00000390: bbc5 4abf a2ed 70bf 8463 76be 66bf 7a3a
000003a0: 2983 023f cbe8 a8be d92b 003f ebe5 ad3c
000003b0: 4f73 f8bc cba6 a8bf f466 30be 7674 84bf
000003c0: 7eaf 65bf fbd6 e2bd 91ae dabe 77c2 d2be
000003d0: 385d b9bd d156 913d f108 cbbf 8143 073e
000003e0: 0f4b b8bd 25d8 6bbe f50b c9be 4e6b 833d
000003f0: b2df b2bf 75b6 42bf 167b af3c 6b64 28bf
0.42282307 1.2222918 1.0776014 1.5579314 0.16212681 0.63237166 0.6016879 0.86837065
0.19686392 0.049415443 1.4431155 0.7366096 1.0607717 1.0518621 -0.36900818 0.6130335
0.5795779 0.28798705 0.65969986 -0.5330026 -0.013724769 0.27123284 0.1135041 -0.42763793
0.1126033 1.0296589 0.4165312 0.5516344 0.3845923 0.9323734 0.18754992 0.06333446
1.0598093 0.13463014 0.22416028 0.70511883 1.3264859 0.6598519 1.1410824 0.3033491
-0.1213252 0.70248777 0.21042517 0.540988 0.735091 0.8725594 0.3971756 -0.38793102
0.50382996 -0.068878226 0.14330842 0.39316374 0.47319347 0.7777005 0.86603594 0.9487713
0.12112164 0.5438952 1.612861 0.66135496 0.38952765 0.18369947 0.4032807 1.3637602
1.0107235 0.6545075 0.04089585 1.0290613 1.3653164 1.2005371 -0.6441842 0.22547418
1.0428405 1.0248421 0.041480668 1.1144415 0.70438373 0.44363818 0.8532489 -0.036760837
0.44633022 0.6760265 1.2760571 -0.30869976 1.0827175 0.18444933 0.07487947 0.29440612
-0.28682667 0.14687079 -0.7284253 1.0662076 0.30674085 1.5685816 0.3084444 0.9811314
1.1785694 0.5487513 1.1502445 0.09437717 0.7787531 0.9517916 0.22945794 0.020001687
-0.5101217 0.33429626 -0.4997845 -0.024833009 0.02043315 1.3561709 0.18665133 1.0096166
0.90230954 0.12708052 0.43998346 0.42540234 0.08903381 -0.076164715 1.5953697 -0.112055674
0.094147354 0.24021725 0.39772913 -0.06561172 1.4132015 0.7456936 -0.015475562 0.6770736
-0.4020977 -1.2152338 -1.0513309 -1.5528007 -0.15987012 -0.626273 -0.59222215 -0.85172147
-0.20321542 -0.061913505 -1.4405067 -0.7353563 -1.0511035 -1.0430396 0.37436098 -0.62524164
-0.57319695 -0.29566333 -0.6542735 0.51928836 0.033025037 -0.27068743 -0.12399703 0.45138934
-0.112919345 -1.0178071 -0.40306488 -0.5419454 -0.38417378 -0.92550945 -0.21089661 -0.059440624
-1.0275238 -0.13094375 -0.24661203 -0.7320744 -1.3266279 -0.6736193 -1.1450084 -0.2884704
0.10180342 -0.7104525 -0.2084544 -0.5200062 -0.7450699 -0.8878318 -0.40104347 0.3910701
-0.48468766 0.0667027 -0.1540248 -0.39051226 -0.4620417 -0.7524602 -0.88009065 -0.9538254
-0.122434095 -0.5398333 -1.6062057 -0.67273235 -0.35619536 -0.18256488 -0.41123885 -1.3578427
-1.0009476 -0.65162617 -0.009109425 -1.037768 -1.3820647 -1.2160996 0.6568839 -0.21140221
-1.0296355 -1.0097212 -0.05534395 -1.1125019 -0.6832236 -0.44469342 -0.83696616 0.039573062
-0.4469442 -0.6955619 -1.2776028 0.29326278 -1.0734196 -0.17095062 -0.06096382 -0.30725166
0.29434347 -0.12573603 0.7406602 -1.0614179 -0.30579594 -1.5573528 -0.32872793 -0.9763197
-1.1773582 -0.53602314 -1.1568999 -0.08805948 -0.7920796 -0.941126 -0.240614 0.0009565264
0.50981385 -0.32990107 0.50066906 0.021227797 -0.03032842 -1.3175901 -0.17226774 -1.0348041
-0.89720905 -0.110761605 -0.4271131 -0.4116399 -0.09050983 0.07096637 -1.5862104 0.13209344
-0.08998691 -0.23031671 -0.39266935 0.06416951 -1.3974516 -0.7605966 0.021420997 -0.65778226

action_model._discrete_distribution.branches.1.bias f4 [2]
00000000: 5cfb 2abd d8ff 2a3d
-0.04174362 0.041747898

action_model._discrete_distribution.branches.1.weight f4 [2, 128]
00000000: b164 ccbe f88c 963e af0f 68b9 06bf ebbd
00000010: 9352 84be a9da 85bd ef16 843e 827c 853d
00000020: 8652 703c 88e9 d8bd f96e f7ba c0b3 8fbe
00000030: 133f 1d3d 174b 213d 673d a4be f6af d73e
00000040: 827c b6bd aa17 af3e 8327 603f ef73 2c3e
00000050: 04f3 b1be 5aed 59bd 2acb 073f c6c1 873e
00000060: 1b67 d83e d6ef 04bc 4866 af3e 4a65 263d
00000070: 0976 d1bd d32d 91be 7c06 b83d d9b7 833e
00000080: 2e76 023e 3d6a 8fbd 95b0 dfbd 0b1d f2bc
00000090: 9dac 303f c52f a23e 5417 cf3d c713 e73d
000000a0: 2d99 27bc 5006 2fbe 9490 b53d 27dd 993e
000000b0: 9ecd c13c ee14 143f 2126 0f3e 4b1f b2be
000000c0: 2ffb f23b b5e4 043e 430f cdbe e818 75be
000000d0: 56a7 74be 527c 9d3e dd71 29be 8a45 6bbe
000000e0: 09f9 613e 9064 f33e efce 5e3e 7d93 75be
000000f0: 1a0b 77be fb72 5a3e 3bbe 36be 4182 e63e
00000100: fb6a b6bc cff2 8e3d d2c8 aa3d 24a1 d13d
00000110: 76a9 e23d 153e 943d e8bc ebbe 471c 893e
00000120: 1339 533e 4689 b33c 8371 6a3d e186 723e
00000130: 04fa 1bbe 976f 523e 5cb8 43bc 6171 fdbd
00000140: 11ea 1c3f c9c8 26be 9957 a63e 667d a2be
00000150: 7f26 c73d 0aac 77bc a68a 4b3e 34ca a13e
00000160: d883 f0be 01ac d0be fb43 f0be d673 6e3e
00000170: 015b a0be 8659 3d3e f954 353d 0a34 373e
00000180: d189 40be a902 003f b47e 8739 e5fc 12bd
00000190: c700 65be 2163 66bd f21b 10be 9750 02bd
000001a0: 079d 0f3c aa41 1fbe 7ea5 bbbe ab2b d33d
000001b0: 4045 c63d 1d63 81bd 764f 583d 7c05 163f
000001c0: e7b0 053f 1df4 c7be c86a 163e ef2e 293e
000001d0: 3af6 9bbd b57e f03e 9a9f 0d3e 7a41 8e3e
000001e0: 716c 8a3c bc53 ecbe daa4 59be 6b3c 123e
000001f0: f175 b63d 29d4 f2bd 6fba ba3d 4360 85be
00000200: 86c3 d03e d2cd 9abe 30b3 fdbb 1e6d f13d
00000210: ae08 7e3e 86ac 663d 5399 7dbe da5b a6bd
00000220: 138d abbb a423 e73d 135c dbbb c25b 933e
00000230: fee0 0ebd 1506 0ebd 0e71 a43e 9178 cfbe
00000240: 9a52 b13d 173e a7be 679b 61bf 7d26 2cbe
00000250: b965 b13e 28e5 893d 70e8 07bf d253 71be
00000260: 02fa d9be 7a7f 8e3b 65cb b6be a046 0abc
00000270: b92c be3d 764c 863e 13ef b2bd 2760 80be
00000280: afd9 f4bd 6f39 a43d 179d c73d 5fea 913c
00000290: ab0a 34bf 38ba a2be 7fff d2bd e688 f9bd
000002a0: 7879 383c 5267 143e 5877 92bd 0199 a2be
000002b0: 28a5 acbc 20f4 11bf db1e 0ebe 468f b33e
000002c0: c6aa a2bc dce1 09be 3946 c83e fd55 7b3e
000002d0: b25f 7c3e e9ca a3be 3f82 283e 5b40 793e
000002e0: 155d 63be 2a33 f3be c46d 48be f8d5 703e
000002f0: 6c4e 703e d950 4fbe a142 333e e12d e7be
00000300: 4551 ec3c b239 89bd ff58 d5bd 44d7 f2bd
00000310: 285f ddbd 8867 b5bd 51d6 ea3e a93a 85be
00000320: b6be 5dbe f6fb 02bc 05bb 32bd 40ce 74be
00000330: 5237 0e3e 90b0 53be 3c80 d53c c69f e73d
00000340: 5d6d 1fbf cf44 133e c3d6 abbe e22d a03e
00000350: 355c a5bd 3f0a 9c3c 1391 43be aeb8 a8be
00000360: 4964 f33e 3851 c93e b686 f33e d8d7 71be
00000370: a4cf a63e c16c 3cbe 086a 25bd 28ee 35be
00000380: 33d8 493e 9be7 fcbe 4ca5 b6bb faf0 fa3c
00000390: 6ef8 5b3e bbd7 6b3d 9fb2 013e 645c 6c3c
000003a0: c5fc 88bb 2ceb 263e 37b0 be3e 14f7 d3bd
000003b0: 3c4f e1bd 1746 943d 82fd 22bd dbd2 1bbf
000003c0: 780a fabe 6bb9 c53e 4ced 08be d9aa 2cbe
000003d0: d873 9d3d 6ef0 f4be 623b 11be 9f59 8cbe
000003e0: d244 9fbc 0f43 ea3e d31d 543e 3720 01be
000003f0: 1598 c5bd fef0 003e b161 b7bd f0bb 803e
-0.3992057 0.29404426 -0.00022131087 -0.11511044 -0.2584425 -0.06535847 0.25798747 0.065178886
0.014668113 -0.105914176 -0.0018877677 -0.28066826 0.03839023 0.039378252 -0.32078096 0.42126435
-0.08910467 0.34197742 0.8756029 0.168411 -0.3475572 -0.05320487 0.5304438 0.26515025
0.42266163 -0.008113822 0.34257722 0.04062394 -0.102275915 -0.28355274 0.08985612 0.25726202
0.12740394 -0.07002685 -0.10922352 -0.029554864 0.69013387 0.3167707 0.10111871 0.11283069
-0.010229391 -0.17092252 0.08865467 0.30051538 0.023657616 0.57844436 0.13979389 -0.347895
0.0074151973 0.1297787 -0.40050706 -0.23935282 -0.23891959 0.3075891 -0.16547342 -0.22975746
0.22067656 0.4753766 0.21758626 -0.23982044 -0.24125329 0.21332924 -0.17846005 0.4502125
-0.02226781 0.06979906 0.08339085 0.10235813 0.11067478 0.07238404 -0.46042562 0.26779386
0.20627241 0.021916043 0.05723716 0.23684265 -0.15232092 0.2055038 -0.01194581 -0.12375141
0.61294657 -0.16287531 0.32488707 -0.31736296 0.097241394 -0.015116701 0.19877109 0.3159958
-0.4697559 -0.4075623 -0.46926865 0.23286375 -0.3131943 0.18491182 0.04427049 0.17890945
-0.18802573 0.5000406 0.00025843608 -0.03588571 -0.22363578 -0.05624688 -0.1407316 -0.031815138
0.008765466 -0.15552393 -0.36649698 0.103110634 0.09681177 -0.063177325 0.052810155 0.5860212
0.52223057 -0.3905343 0.14689171 0.1652181 -0.07615323 0.4697167 0.13830414 0.2778433
0.016897412 -0.46157634 -0.21254292 0.1428086 0.08909214 -0.118568726 0.09117591 -0.26050004
0.40774173 -0.30235153 -0.007742308 0.117883906 0.24807999 0.056316875 -0.2476552 -0.08122988
-0.005235323 0.11286095 -0.0066943257 0.28780943 -0.034882538 -0.03467377 0.32117504 -0.40521672
0.08658333 -0.32664558 -0.8812775 -0.16811557 0.3464792 0.06733161 -0.53089046 -0.23567131
-0.42573553 0.0043486925 -0.35702053 -0.00843969 0.09285874 0.2623021 -0.08737006 -0.25073358
-0.11955582 0.08018767 0.097467594 0.017811952 -0.7032878 -0.317827 -0.10302638 -0.121843144
0.011259429 0.14492539 -0.07151669 -0.31757358 -0.021074846 -0.5701313 -0.13878958 0.35070246
-0.019856822 -0.13465065 0.39116076 0.2454452 0.2464588 -0.31990746 0.16455935 0.24340956
-0.22203477 -0.47499973 -0.19573122 0.23519123 0.23467416 -0.20245685 0.17505886 -0.4515219
0.028847346 -0.06700458 -0.10417365 -0.11857465 -0.10809165 -0.08857638 0.45866635 -0.26021317
-0.21654782 -0.0079946425 -0.043635387 -0.23906803 0.1388829 -0.20672822 0.026062123 0.11309771
-0.6227625 0.14381717 -0.33562288 0.31285006 -0.08074228 0.019047854 -0.1909831 -0.329534
0.4753745 0.39319777 0.47563714 -0.23617494 0.32580292 -0.18400861 -0.040384322 -0.1776663
0.1971138 -0.4939545 -0.005573904 0.030632485 0.21481487 0.057578783 0.12665795 0.0144263245
-0.004180523 0.16300648 0.37243816 -0.10349861 -0.11001441 0.07239931 -0.039792545 -0.60868615
-0.48836112 0.38618025 -0.13371772 -0.16862048 0.07688111 -0.47839683 -0.14182809 -0.27412125
-0.019441996 0.45754287 0.20714502 -0.12609945 -0.09648148 0.12591931 -0.0895418 0.25143385

discrete_action_output_shape f4 [1, 2]
00000000: 0000 0040 0000 0040
2.0 2.0

network_body._body_endoder.seq_layers.0.bias f4 [128]
00000000: fbc0 ca3d b887 8b3d b3a5 2c3e 9d77 c4bd
00000010: a453 f93d fd52 80be ff3b bbbd 119c 523d
00000020: a3c9 e6bd 0f0b e03d 7c0a e0bb a5ab 6bbd
00000030: 0759 f8bd f250 15be caf6 1fbe 63dc 3cbc
00000040: 8c59 833d db97 a6be 35ad 66be fd49 e93d
00000050: 6e84 6bbc 1ceb 703c 9ff8 86bd 5da0 af3c
00000060: a605 1dbe 37cf a3be e8f2 683d 3274 c1bd
00000070: 54c7 e7bd f29b 6f3d f403 41bc 0e4f 833d
00000080: 2f2a 83be d2a9 86be d378 83be d6cc 81be
00000090: b4ef 383d d496 04be b8f7 babe 69a5 a43d
000000a0: e12f 91be 2454 c43d 0948 a4bc 23e7 d83a
000000b0: 9af3 8abd b332 103d 64a5 2ebe a0b3 633d
000000c0: 6025 1dbe 20aa 35be 060e b4bd f5c0 d53c
000000d0: 96d6 3f3c e526 123e 5a92 db3d 02b0 9b3d
000000e0: bec3 1fbd d564 7dbe f516 5abd df03 9fbe
000000f0: 9fcf 423d 2e4f 863c 9220 453c 36e2 b53d
00000100: 9baa be3c b48b c53d cddc 31bc 16fd d6bc
00000110: d013 9bbd c74d 893d 7306 53be 486a bc3d
00000120: 949e fcbc 0050 27be 5224 7ebc 596e d6bd
00000130: f5f8 f1bd 9304 063e 9fb0 66be 2b04 4d3d
00000140: 203d 03be 2896 f43c 2007 79be b8fd 86bc
00000150: 200a a8ba 91b5 54be 8115 6cbe 7d3f 61bd
00000160: 7a92 83be deef a23d 6ebc b73c 5997 813d
00000170: f178 863d f6bd 88be b357 abbd 0309 3d3e
00000180: 902d febd 3e59 e53d e85d 3d3d 25b1 a73d
00000190: 2752 1e3e e048 55bd ffa6 163e 5225 6f3e
000001a0: 1da0 353d ea46 b8bc 6f18 0abe 1c94 2d3d
000001b0: c301 a5be b43e 383e 7ffd 4c3e 00d3 01bf
000001c0: 6880 023e 0eb5 34be 9307 19be 7603 5abe
000001d0: ecd6 96be 15d5 b43d 4282 983d b839 76be
000001e0: c7d2 2fbe e275 4f3c 65e4 14bd a7fb ad3d
000001f0: d6da be3c e928 303e 5c79 e83d 393e 9fbe
0.09900089 0.06812996 0.16860084 -0.09593127 0.12174156 -0.25063315 -0.09142303 0.051418368
-0.11268928 0.10939609 -0.0068371873 -0.05753674 -0.121263556 -0.1458166 -0.15621486 -0.011527154
0.06413564 -0.32537732 -0.2252701 0.11391065 -0.014374835 0.014704492 -0.065903895 0.021438772
-0.15334186 -0.3199403 0.05687228 -0.094459906 -0.11317316 0.05849833 -0.011780728 0.06411563
-0.2561812 -0.26301438 -0.2567812 -0.2535159 0.045150474 -0.12948161 -0.3651712 0.08039362
-0.2835684 0.09586361 -0.02005388 0.0016548376 -0.067847446 0.0352046 -0.17055279 0.055591226
-0.15346289 -0.17740679 -0.08791737 0.026092986 0.011708876 0.1427265 0.10721274 0.0760193
-0.039005034 -0.24745496 -0.05324455 -0.3105764 0.047561284 0.016395178 0.012031691 0.08881037
0.02327471 0.09645787 -0.010855866 -0.026243728 -0.07572138 0.06704288 -0.20607929 0.09199959
-0.030837335 -0.16339111 -0.015511589 -0.10470266 -0.11815063 0.13087682 -0.22528313 0.050052803
-0.12816286 0.029856756 -0.24319124 -0.016478404 -0.00128204 -0.20772387 -0.23055078 -0.054992188
-0.2569769 0.07955907 0.022428717 0.063276954 0.065660365 -0.2670743 -0.08366337 0.18460469
-0.12411034 0.11198662 0.046232134 0.081880845 0.15461026 -0.052071452 0.14712141 0.2335408
0.04434215 -0.022494752 -0.13485883 0.042377576 -0.32227907 0.1799267 0.20018576 -0.50712585
0.12744296 -0.17647192 -0.14944296 -0.21290383 -0.29460847 0.08829705 0.0744672 -0.24045455
-0.17170249 0.012662383 -0.036350626 0.084952645 0.023297708 0.17203106 0.113512725 -0.3110216

network_body._body_endoder.seq_layers.0.weight f4 [128, 52]
00000000: 1c07 273e b0df c0bd 4e09 f33d 4b68 52be
00000010: 6599 a6bb 1ea5 21bd df62 b23e 605f 3dbb
00000020: be1b 3d3e 0fa4 9e3e b12a a43e ad74 803e
00000030: 09c7 e83d 0fe7 4fbe 3e73 443d 1160 893e
00000040: 828c 2a3e 6225 5d3d 8a99 df3d df84 f33d
00000050: 1eb5 273f 4ebe 7c3d 4f0f 9a3e 03ec 68be
00000060: e121 703e b029 843e 4474 50be 1940 13be
00000070: 3432 a8bd 7bbe 39bd 1c83 a33e 3d50 073e
00000080: d787 3abe 968a 6d3d 8eb0 9cbe 2024 013e
00000090: 6963 b63d 8007 833d 9f19 47bd 472e 1cbe
000000a0: 34e7 553e 234a 44be b27b 7fbe 96fa ffbd
000000b0: e0e3 49be 362a 10be ed0e 82be 7ab5 083f
000000c0: 5acd 16be b171 74bd 9429 0dbd 5db1 ea3c
000000d0: 615f 01bf 39f0 a7be c05f 94be 87a7 903e
000000e0: 69a0 bb3d 2563 733e 2e43 df3d b121 403d
000000f0: c379 e5bd ab81 0bbe 03d2 6e3e 8a13 d63d
00000100: c489 93bd 88cc 13be af80 f83d b7ac ce3d
00000110: ee7a 3dbe adaa 803d 53ef afbe f11b 243d
00000120: 1b21 e63e f44e 5fbd 940e f0be f8f8 55bd
00000130: 399f cb3d 023a 53bc 2b27 0b3e 2cea d8bd
00000140: 7abb 4e3e 7824 c13d d834 ef3e 6b94 e53d
00000150: 40ef bebd 6f34 afbe 2732 08be 478c 2ebe
00000160: 6449 8ebd 0f8d b9bd f19b 743e acce 2bbe
00000170: 1956 173f e144 92bd 826a d6be a1ff edbd
00000180: 3187 abbd 8cc7 3bbd 26bc efbe 8ecb 353e
00000190: e4ac e0bd e0d8 343e 9e0f f2bd b5b2 33be
000001a0: d5e6 0fbd 81de 32bd 927d af3c ad27 8a3e
000001b0: b041 923e 56f6 39be 1325 84bc e19c febd
000001c0: 8942 25bd 8fdb b0be 19da 933e 39ac c7bd
000001d0: e91c bd37 cbec 8fbe 0873 f93d 0149 9dbd
000001e0: 0493 dd3c ff00 463e b551 ef3d 19b3 6cbd
000001f0: 66d2 b93d 191c cf3d cccc cabc 7b14 bf3c
00000200: a7f9 46be d030 803e ed74 0abe c0ae 0abe
00000210: 1382 2dbe be46 9a3e 7506 c9be 02b5 f53d
00000220: 3ea5 2ebd fbbd 9e3d 03c9 093e 50d5 15be
00000230: 0832 cd3d 29f3 573d b04c 7abd 2276 2fbe
00000240: eda5 c23b d521 89bd e659 6e3e 07c6 cc3c
00000250: a9d2 01be 9cb0 2b3e 9434 b2be 76c5 a3bd
00000260: 9aa2 d5bd 3bb6 523e 8304 83be 279e 1f3d
00000270: 0bc0 6b3e dd89 f03d 6309 193d 608b 30be
00000280: e205 e4bd 3318 6a3e 50a8 06be 7417 08be
00000290: 9aad c63d f59e d8bb 2007 70bc 6cf9 b0bd
000002a0: af77 55bd 3227 663e 24e9 4cbe 18b4 3abe
000002b0: b53e 033e 42cc 973c c3cb 833e e942 1ebd
000002c0: 32ff 31be 1034 87bd 003c 383e da06 123e
000002d0: 796e 75be 84c1 8cbe 21c6 9bbd 1fd7 003d
000002e0: d9b7 ddbd 2981 3dbd f4ab 21bd 3389 1e3e
000002f0: 1f0e 76bd a47f e6bd 46b3 01be 3484 b7bd
00000300: c8ff 2a3e 81c5 a9bd 2480 223e cb66 843e
00000310: 0677 a7bd 43b0 1b3d 27ef 9cbe 3e07 013f
00000320: 4b69 633d 7680 5d3f 83ae 213f 18fa 123f
00000330: 3952 56bc ec34 8bbe 87f7 143e 3b0b e0bd
00000340: 0b9f d0be 0027 99be b140 89be 9a5a 8f3e
00000350: 402d 023e 3cf6 90be 6de8 a43e c942 aebd
00000360: 6a34 9a3c 87bd 83ba bc7f 9bbc fbd7 013d
00000370: 40a9 23bc d08b 9abc 73ae 1bbc e29a 13be
00000380: 5a8b 433e 3985 933d bd0d 353c 4166 16bd
00000390: 1631 583c 167c 07be 926d bf3d 2798 c73d
000003a0: 8842 a9be 9f30 ee3d 8823 19be 75f6 133e
000003b0: ccc0 e7be 472c 98be 0c7a 6e3c caf2 473e
000003c0: 7aab be3e 37e6 4a3d 3fa2 853d e560 26bd
000003d0: 3a5c b9be 3feb 9cbd df87 cfbe 5d98 b0be
000003e0: f660 f03e f9cf 05bd b310 41bd 4fae a13d
000003f0: bb80 83be 11d7 803d a74f fc3d 7051 b83d
0.16311306 -0.09417665 0.11867009 -0.20547597 -0.005084204 -0.03946411 0.34841058 -0.002889596
0.18467614 0.30984542 0.3206382 0.25089017 0.11366088 -0.20302986 0.047961466 0.26831105
0.16655162 0.05399073 0.10917957 0.118905775 0.6551074 0.061704926 0.30089805 -0.22746281
0.23450424 0.25813055 -0.20356852 -0.1437992 -0.082127005 -0.045347672 0.31935966 0.13214202
-0.18215881 0.057993494 -0.3060345 0.12611437 0.0890568 0.06397915 -0.04860842 -0.15252028
0.20888978 -0.19168906 -0.2494953 -0.12498967 -0.19715834 -0.14078602 -0.25402012 0.5340191
-0.14726773 -0.059678737 -0.03446348 0.028649027 -0.5053616 -0.32800463 -0.289793 0.28252813
0.09161455 0.2376829 0.109014854 0.04690713 -0.11204865 -0.13623683 0.233223 0.104529455
-0.07204011 -0.14433491 0.121339194 0.100915365 -0.18503925 0.06282554 -0.34362277 0.04006571
0.44947132 -0.054518655 -0.46886122 -0.05223939 0.09942479 -0.012892248 0.1358916 -0.1059154
0.20188704 0.09430784 0.46720004 0.11209949 -0.09322977 -0.3421969 -0.13300382 -0.17045699
-0.06947592 -0.09060108 0.23887612 -0.16778058 0.5911575 -0.07142044 -0.41878134 -0.11621023
-0.08375395 -0.0458446 -0.46823233 0.17753431 -0.10970476 0.17660856 -0.11819385 -0.1754864
-0.035132248 -0.043669228 0.021422181 0.26983395 0.2856574 -0.18160376 -0.01613096 -0.12432266
-0.040346656 -0.3454251 0.28877333 -0.09749646 2.2544018e-05 -0.28110346 0.121801436 -0.0767994
0.027047642 0.19336317 0.11685506 -0.05778799 0.090733334 0.10112781 -0.024755858 0.023325196
-0.19431172 0.2503724 -0.13521166 -0.13543224 -0.1694415 0.30132097 -0.3926274 0.11997415
-0.042638056 0.0775108 0.13455586 -0.14632154 0.10019308 0.05272213 -0.06110829 -0.17134908
0.00594019 -0.06695906 0.23276481 0.02499677 -0.12678017 0.1676659 -0.3480574 -0.07996647
-0.104314044 0.20577328 -0.2558938 0.038969185 0.23022477 0.11745045 0.037362467 -0.17240667
-0.111339346 0.22860794 -0.13150144 -0.13290197 0.097010806 -0.006610746 -0.014650136 -0.086413234
-0.052116092 0.2247589 -0.20010811 -0.18232763 0.1281689 0.018530015 0.25741395 -0.03863803
-0.17382506 -0.06601727 0.17991638 0.14260426 -0.23967923 -0.2749139 -0.076061495 0.031455155
-0.10826082 -0.046265755 -0.039470628 0.15482025 -0.06007206 -0.11254814 -0.12666044 -0.089607626
0.16699135 -0.08289624 0.15869194 0.25859675 -0.08176999 0.038009893 -0.3065121 0.50401676
0.055520337 0.8652414 0.6315691 0.5741286 -0.013081127 -0.27188814 0.14547549 -0.10939642
-0.4074634 -0.29912567 -0.26807168 0.2799881 0.12712574 -0.28312862 0.32208577 -0.08508832
0.018823821 -0.001005099 -0.018981807 0.031700116 -0.009989083 -0.018865496 -0.009502041 -0.14414552
0.19096127 0.072031446 0.011050639 -0.03671861 0.013195297 -0.13230929 0.09347071 0.09745818
-0.33058572 0.116303675 -0.1495496 0.14449485 -0.4526428 -0.2972128 0.014555465 0.1952621
0.372402 0.049535956 0.065250866 -0.04061975 -0.36203176 -0.07662057 -0.4053335 -0.34491244
0.46948975 -0.03266904 -0.047135066 0.07894575 -0.2568415 0.06291021 0.1231988 0.08999908

network_body._body_endoder.seq_layers.2.bias f4 [128]
00000000: 85ac 203c d9a4 123d fefa d33c 13f2 4e3d
00000010: 8521 9a3c 00c6 d93d acb7 36bc ac9a a03d
00000020: 5ef7 8a3d 7113 3e3e c7dc 46bd 117c bcbd
00000030: 9cd1 67bc 4bed 653d 985d b73e 525e 273b
00000040: d2f3 ac3d 00ea a13e b71b 103e abcb 0c3e
00000050: 61bf 353e 2e68 dbbc 4d57 dabd d677 a93c
00000060: a2ae 573d a419 61bd 719e b63d 55ac b0bc
00000070: 654c 36bb 9fde 1ebe 5416 29be 89fc 083e
00000080: 6281 0d3d af3b 423e 2021 3c3e 49df 39be
00000090: 7bff 503e d521 d3bd 983e acbb dbaa 2b3d
000000a0: 8d9a 9f3d 18a5 163d 9da4 f93d 1156 f8bd
000000b0: a455 3dbc ed8d 44ba d9ee cf3d e5a5 dd3c
000000c0: 52cf 813d 1a43 de3c e79c 84be a1f7 673c
000000d0: f73e 1c3d 74de 86be aa12 8e3b d790 7c3d
000000e0: c558 213e 5094 87bb 2bb1 493d c373 9f3d
000000f0: 6c6a 853d e2c6 233d 6b9a 50bd 49e6 0e3d
00000100: 352f 96bd b62c 573d dfc9 5b3e b37c 0c3c
00000110: 45e4 8fbb f9dc 893d 205b b73d c836 ac3d
00000120: a002 be3b 9db6 3bbd d32f dabc ccfb 31bd
00000130: 5228 2d3d a9f8 3fbd f13d 033d ec72 df3c
00000140: 3cea d6bc 6515 b73d 6ae1 8f3a defe b13c
00000150: c2a7 2d3d 2ffc 203d 3e98 37bd 5952 253e
00000160: 8727 813e a8a7 093e f9dc 623e 5bfe e6bb
00000170: e4f8 2abc 3310 87bc b618 083d 26ed 87bd
00000180: e766 5b3d 6e27 e13d b797 2abc 9098 8e3e
00000190: ca42 c5ba 359a bebd ce8f fbbd df67 f93d
000001a0: 5f00 dd3d c4bd 46be 46e2 483e 634f 363d
000001b0: 7f6a 173e 28bc 553b 520a 6c3c 114d 8b3d
000001c0: cbf4 a43b 0950 4c3d 1eb8 1f3d 5fff e43d
000001d0: 1d6d 243e bfb4 e83d 593c 753d d087 913d
000001e0: 2212 bd3e 34ad c8bd 6084 2c3e 629e a83d
000001f0: cfb2 8ebd 8ee7 fcbc 3467 463e 9c1e 853d
0.009806757 0.035801742 0.025876518 0.05052383 0.018814811 0.10633469 -0.011152189 0.07842001
0.06785463 0.18562104 -0.048550393 -0.09203351 -0.014149096 0.056134503 0.35813594 0.0025538397
0.084449425 0.3162384 0.14073072 0.13749568 0.17748787 -0.026783075 -0.106611826 0.020687025
0.052656777 -0.054956093 0.08916939 -0.02156655 -0.002781653 -0.1551461 -0.16512424 0.13377585
0.034547217 0.1896808 0.18372011 -0.18151583 0.20409958 -0.10309187 -0.005256485 0.041910987
0.0779315 0.03677854 0.121896006 -0.12125791 -0.011556063 -0.0007497955 0.101529785 0.027056644
0.06338371 0.027131606 -0.25900957 0.01415816 0.038145985 -0.26341593 0.004335721 0.061661568
0.15756519 -0.0041375533 0.049241226 0.07785752 0.06514439 0.03998459 -0.050928514 0.034887586
-0.07333223 0.052532874 0.21463726 0.0085746525 -0.0043912255 0.067316 0.089529276 0.08408886
0.005798653 -0.04582845 -0.026634132 -0.043453023 0.04227478 -0.046868 0.032041494 0.027276479
-0.026234739 0.089396276 0.0010977213 0.021727975 0.042396314 0.039303 -0.044822924 0.16144694
0.2522547 0.13442862 0.22154607 -0.0070493645 -0.010435317 -0.016487217 0.03322669 -0.06637029
0.053564932 0.10993849 -0.010412148 0.2785077 -0.0015049812 -0.093067564 -0.12283288 0.12178015
0.107910864 -0.19408327 0.19617566 0.044509303 0.14786719 0.003261337 0.014406757 0.068018086
0.0050340644 0.049881015 0.038993947 0.11181521 0.16057248 0.113625996 0.059872005 0.07105982
0.36927897 -0.09798661 0.16847372 0.08233334 -0.06967699 -0.030872133 0.19375306 0.06499979

network_body._body_endoder.seq_layers.2.weight f4 [128, 128]
00000000: 115f adbe e49a 79be d0f2 37be 799c 94be
00000010: 2ffe 68be ee56 d8bd b5d9 e7be eec3 b4be
00000020: 6034 a7be f7b1 f6be 00b8 4cbe 6b90 10bd
00000030: 07e1 abbe 1311 dcbe 2870 39be 0cda febd
00000040: 7895 a5be 91c2 0cbd 4086 dc3d 2bb8 80be
00000050: 3e2b 88be f681 bcbd ebd8 33be e774 a1be
00000060: 0dab 553d dc98 673d c4a6 17be 6c9e a2be
00000070: 4169 94be 5a70 5f3d 316f 3dbe c875 debd
00000080: 1723 c13e a17b cdbd adfd 1e3d 36a5 78bd
00000090: 87de 87be 201f 0abe ba58 3abd ec60 a6be
000000a0: 3a44 12be 133d 7bbe 4842 7dbe 6ffa 89be
000000b0: 5423 703e 7556 acbe 258c c1be c3f1 833d
000000c0: 1087 a43c ce10 a0bd b718 c2be 4349 45be
000000d0: 2273 86be 13e6 aebd 48d6 173f 58de 5ebe
000000e0: 550a 19be 3a25 35bd 3a89 fabe 785a 653d
000000f0: ce11 debd c58f 33be 8e31 64bd 0587 11be
00000100: 3bad 34be b8c9 d1be c8dc acbd e652 9dbe
00000110: 87e2 683e 3023 88be ff53 90bd 0fd0 c63a
00000120: 6a73 76be 6adc 01bf 5660 0dbf 3f78 bf3d
00000130: aaef 3fbe 2c17 c7bd d072 22be bd12 7dbe
00000140: b62e 22be c6c6 1ebe 5de1 943d cb93 47be
00000150: 7ed5 17be 84c5 6ebe 1893 97be 67c2 d6bd
00000160: 38c4 49be 7526 57be 627d 95bd 5746 21be
00000170: 75af 00be 4842 01be 4f74 023e c055 bdbd
00000180: dfc4 e4bd 9613 b0be fc26 a7be 713a cbbd
00000190: 7e42 3cbe 59a5 97be 326b e3be f5bb acbd
000001a0: c500 02be 0953 86be cc11 113c cbc6 08be
000001b0: db51 14bd 78b7 383d e6f3 8ebe 87da 0cbe
000001c0: 8483 8a3d a939 243e 0e9f cebc b9a5 04be
000001d0: 7190 3bbe 96f8 8ebe 26b1 1bbf fa8d ab3c
000001e0: dd4b 9ebd 5f87 6bbe e04a f7be 6836 093e
000001f0: a9cb 96be 9744 4ebe be83 47be 1e00 20bd
00000200: 5b3c 89be 4326 a3be 0e5d aebe 7426 91be
00000210: abcb 2cbf ad01 9dbe d4e2 7bbe 3a04 e5be
00000220: 58ef 14be f05f cebe f665 f23d 1145 50be
00000230: e011 31be a7e1 f3bd d334 05be c471 0cbf
00000240: c092 acbe f3f8 1d3e a5d5 d6bd 803d 9c3d
00000250: 708c 38be 060b 8cbe 1dd2 b8be 423e 87bd
00000260: bc98 f7be d373 1a3d 6181 4fbe b1a7 8ebe
00000270: d6e6 8cbe 0fcd 79be faf1 eabd 70b3 9abe
00000280: a9eb 863d a33f e43d f127 33bd 675d 65be
00000290: 11a5 ddbd 8adf 0aba b32b 77bd adb8 f6be
000002a0: f64d d4be da58 eabe f1c1 d1be 6cc0 d6be
000002b0: da3d 32be 605f bbbe 14fa 6ebe 9ddd c9be
000002c0: 9424 57be 8cf1 db3d 701c 17be 1bd5 8b3d
000002d0: 9627 4abe 777e d1be 9785 08be e597 0dbe
000002e0: 3d8f 8ebe 82f7 37be d66a 84be b105 d43e
000002f0: 1a8b 92be dc5a 6cbe 7960 f4bc aeb2 93be
00000300: b6b8 c4be 9a88 2cbe 86d6 f9be 3f86 71be
00000310: 77e8 833d 6248 d8be fd28 b1be 62c7 62be
00000320: c009 83be a2a2 04be 6565 9bbe a084 93be
00000330: 1dee 99be ada7 783e 8a1b 0ebe 2754 96be
00000340: 0cb4 34be 19c7 4abe bf17 933d 4b1a 80bd
00000350: d66c f0be cba1 99be 4238 67bd 7e71 d8bc
00000360: 8452 5f3e d371 0bbf 4021 e7be 29bc 0bbf
00000370: 5536 abbe c93d cbbb 9da0 53bd 84e9 00bf
00000380: 9ae1 5dbd cfe3 e1be 38f4 ccbe 96aa 22bf
00000390: a23e 15bf 8f6c b3bd da3a 88be 416e ffbe
000003a0: 08c9 47be 3e21 64be c641 7e3d 30b2 0cbf
000003b0: 2408 77be d2ed ddbe 4c69 33bf 1468 1a3d
000003c0: 227e 0bbe dd17 c93d 9d56 cd3d 0ee0 f5bc
000003d0: 0e59 3cbe 6b43 ccbe bb15 01bd ffb4 3cbe
000003e0: b9ad 23be 6a97 2bbd dc84 2fbe 44e9 2e3d
000003f0: ba34 d2bd 3613 e2bd e5d8 34be a8d1 53be
-0.33861592 -0.24375492 -0.1796372 -0.2902563 -0.22753213 -0.105634555 -0.45283285 -0.35305732
-0.32657146 -0.4818265 -0.19992065 -0.035293978 -0.3357012 -0.42981777 -0.1810919 -0.12443933
-0.32340598 -0.03436524 0.10767794 -0.2514051 -0.2659549 -0.092044756 -0.17563216 -0.31534502
0.05216508 0.056542262 -0.1480971 -0.3176149 -0.28986552 0.054550506 -0.18499447 -0.10862309
0.37722084 -0.10033346 0.038816143 -0.060704432 -0.26536962 -0.13488436 -0.045494772 -0.3249582
-0.14283839 -0.24535017 -0.24732316 -0.26948878 0.23450977 -0.3365971 -0.37802234 0.06442597
0.020083934 -0.07815705 -0.3790948 -0.19266228 -0.26259714 -0.08539977 0.5931134 -0.21764505
-0.14945348 -0.044224955 -0.4893282 0.05599448 -0.1084324 -0.17535312 -0.05571132 -0.14211662
-0.17644207 -0.40974212 -0.08440548 -0.3072731 0.22742663 -0.26589346 -0.07047271 0.0015168207
-0.24067464 -0.5072695 -0.5522512 0.09349107 -0.18743768 -0.097212166 -0.1586411 -0.2471418
-0.15838131 -0.15505514 0.07269547 -0.19489972 -0.14827535 -0.23317534 -0.2960441 -0.10486298
-0.19703758 -0.21010764 -0.072993055 -0.15749489 -0.12566932 -0.1262294 0.1273968 -0.09244871
-0.11170363 -0.34389943 -0.3264693 -0.09923256 -0.1838474 -0.29618338 -0.4441772 -0.084342875
-0.12695606 -0.26235226 0.008854341 -0.13357083 -0.036210876 0.045096844 -0.27920455 -0.13755237
0.06763366 0.1603762 -0.025222328 -0.12953843 -0.18316819 -0.2792403 -0.6081718 0.020941723
-0.077293135 -0.23000859 -0.48299313 0.1339966 -0.29452255 -0.20143352 -0.1948385 -0.03906261
-0.2680386 -0.3186513 -0.3405537 -0.2834965 -0.6749827 -0.3066534 -0.24598247 -0.44729787
-0.14544427 -0.4030757 0.11835854 -0.20338847 -0.17291975 -0.11908274 -0.13008432 -0.5486109
-0.3370571 0.15426998 -0.10489968 0.07628918 -0.18022323 -0.2735216 -0.36097804 -0.066036716
-0.48358715 0.037708115 -0.20264198 -0.27862313 -0.27519864 -0.2439463 -0.114719346 -0.30215025
0.06587917 0.1114495 -0.043739263 -0.22398911 -0.108224995 -0.0005297592 -0.06034441 -0.4818777
-0.4146573 -0.45770913 -0.40968278 -0.4194368 -0.17406407 -0.36596203 -0.23337585 -0.3942689
-0.21010047 0.10739431 -0.14756942 0.06827756 -0.19741663 -0.40916798 -0.1333221 -0.13827474
-0.27843657 -0.1796551 -0.2586276 0.41410592 -0.2862175 -0.23081535 -0.029831158 -0.2884726
-0.38422173 -0.16848984 -0.4879648 -0.23586367 0.064408235 -0.42242724 -0.34601584 -0.22146371
-0.25593376 -0.12952664 -0.30350795 -0.28812122 -0.3006448 0.24282713 -0.13877693 -0.29361078
-0.17646807 -0.19802512 0.071822636 -0.06255015 -0.46958035 -0.3000625 -0.056450136 -0.026421305
0.21808821 -0.54470557 -0.45142555 -0.54583985 -0.3343989 -0.0062024337 -0.051666845 -0.50356317
-0.05417023 -0.44119117 -0.40030074 -0.63541543 -0.58298695 -0.0876094 -0.266074 -0.49888805
-0.19510281 -0.22278306 0.062074445 -0.5495939 -0.24124199 -0.43345505 -0.70082545 0.037696913
-0.13622335 0.09819005 0.10026286 -0.030014064 -0.18393347 -0.39895186 -0.031514864 -0.1842842
-0.15984239 -0.041892447 -0.17140526 0.04270293 -0.10263963 -0.110388204 -0.17660864 -0.20685446
