VirtualAquarium/results/VirtualAquariumReproducao4/VirtualAquarium.onnx (onnx, 101016 bytes, 12 tensors)

action_model._continuous_distribution.log_sigma f4 [1, 3]
0	0xbfefdf31	-1.8739988
1	0xbfab217a	-1.3369591
2	0xbfd31d12	-1.6493247

action_model._continuous_distribution.mu.bias f4 [3]
0	0x3dc27e01	0.094966896
1	0xbef88c04	-0.48544323
2	0xbe0680e5	-0.13135107

action_model._continuous_distribution.mu.weight f4 [3, 128]
0	0x3d70498a	0.058663882
1	0xbccc8eda	-0.02497046
2	0x3d960d3e	0.073267445
3	0x3db082ff	0.086187355
4	0xbd333988	-0.043756038
5	0xbe03de47	-0.12877761
6	0xbe137a33	-0.14402084
7	0xbe23b289	-0.15986075
8	0x3d6192fd	0.05507182
9	0x3d9499d6	0.072559044
10	0x3c7bb5e6	0.015363192
11	0x3e15a3b3	0.14613228
12	0xbdf5265b	-0.11970206
13	0xbe01b29d	-0.12665792
14	0xbdeb2cf9	-0.11483187
15	0x3dadbfa3	0.084838174
16	0xbc496005	-0.012290959
17	0xbdb32264	-0.08746794
18	0xbda88653	-0.08228745
19	0xbe180c46	-0.14848432
20	0xbe23370d	-0.15938969
21	0xbdd87bac	-0.105704635
22	0x3db48f1f	0.08816361
23	0x3cbd5f4a	0.023116726
24	0xbdb0e617	-0.08637636
25	0xbe55f980	-0.20895958
26	0xbcd7d0ec	-0.026344739
27	0x3c95750c	0.018244289
28	0xbc948e1f	-0.018134175
29	0xbb82f8ce	-0.003996945
30	0x3d8800a3	0.066407464
31	0xbe3ecc2b	-0.18632571
32	0xbcceda39	-0.025250541
33	0xbe0e701a	-0.13909951
34	0xbccaf86e	-0.024776664
35	0xbd21f369	-0.039538775
36	0xbd264d57	-0.0406011
37	0x3d2e29d5	0.042520363
38	0xbd4e697c	-0.050393566
39	0xbcb68238	-0.02227889
40	0x3c762e2a	0.015025655
41	0xbdc447b0	-0.09583986
42	0xbdfeea8a	-0.124470785
43	0x3df69e30	0.120418906
44	0xbe235f04	-0.15954214
45	0x3e2f05d6	0.1709207
46	0x3b8d4410	0.004311092
47	0xbdae33c8	-0.0850597
48	0xbde1fe86	-0.110348746
49	0x3d1ff7cd	0.03905468
50	0x3e1ab0c3	0.15106492
51	0xbd852470	-0.065010905
52	0x3c9e96ce	0.019359019
53	0x3db7cfe9	0.089752026
54	0x3cea5ca5	0.02860863
55	0x3d92508d	0.0714427
56	0xbe329bb0	-0.17442203
57	0xbe230ef8	-0.15923679
58	0xbe18278e	-0.14858839
59	0xbd593b3d	-0.05303501
60	0x3de33e65	0.11095885
61	0xbd8ddbc4	-0.069266826
62	0xbd8e0bab	-0.06935819
63	0xbdf411e6	-0.11917476
64	0xbe14b98d	-0.14523907
65	0x3d3f69d7	0.046731796
66	0xbc1f7d9d	-0.009734538
67	0xbe14ea77	-0.14542566
68	0xbdbc35f4	-0.09189978
69	0xbe161179	-0.14655103
70	0x3e2764b7	0.16347013
71	0x3ea5eaaf	0.32405612
72	0x3dc89b96	0.09795301
73	0xbcef9e2e	-0.02925023
74	0x3c26f2a4	0.010189686
75	0xbc4d9c56	-0.01254948
76	0x3e1a17c1	0.15048124
77	0xbc75b634	-0.014997054
78	0x3d55a3f2	0.052158304
79	0xbcc5e16b	-0.02415534
80	0x3dc2d8f2	0.09514035
81	0x3da6deeb	0.08147987
82	0x3c52c6b7	0.01286476
83	0xbdacd1ef	-0.08438479
84	0xbac1a8d1	-0.0014775043
85	0xbd2c9845	-0.042137403
86	0xbd945e3d	-0.07244537
87	0xbd92dbd4	-0.07170835
88	0xbe42feef	-0.19042562
89	0x3e030db3	0.12798195
90	0xbd3a52b8	-0.045489043
91	0xbdf47408	-0.11936194
92	0x3beb1157	0.007173698
93	0xbde9e31c	-0.11420271
94	0xbddd9c65	-0.108208455
95	0x3cc6a0d3	0.024246609
96	0xbb011368	-0.0019695405
97	0xbe3fda92	-0.18735722
98	0xbe32ab81	-0.17448236
99	0xbde3ba07	-0.11119466
100	0x3bfc4cc7	0.0076995823
101	0x3c853785	0.016261825
102	0x3e1064fc	0.14101022
103	0x3e3942ce	0.1809189
104	0xbe0e986d	-0.13925333
105	0xbd1b3bb3	-0.03789873
106	0x3babe1e8	0.005245436
107	0x3d9ed134	0.07754746
108	0xbe2bcc4a	-0.16777149
109	0x3b135652	0.002248187
110	0xbd17d282	-0.03706599
111	0xbe608fb4	-0.21929818
112	0xbe1a779f	-0.15084694
113	0xbda23282	-0.0791979
114	0xbc4083d9	-0.011750185
115	0x3d981c54	0.07427278
116	0x3d74e26a	0.059786238
117	0xbe0dcace	-0.13846895
118	0xbe3705a5	-0.17873247
119	0xbe0b6961	-0.13614418
120	0x3d92f970	0.07176483
121	0xbdab3fa0	-0.08361745
122	0xbd03b434	-0.032154277
123	0x3cbcffec	0.023071252
124	0xbe1ca168	-0.15295947
125	0xbe8f4bc5	-0.27987495
126	0x3b5d215f	0.0033741815
127	0xbc7a34a9	-0.015271344
128	0x3dd4026c	0.103520244
129	0x3f0d6b10	0.5524149
130	0x3df710a6	0.12063722
131	0x3e0f9393	0.14021139
132	0x3ec3df81	0.38256457
133	0x3e53c83a	0.20681849
134	0x3ed93cf3	0.42429313
135	0x3e91d10a	0.28479797
136	0x3d521b24	0.051295415
137	0x3e80e2ef	0.25173137
138	0x3eb6a34b	0.35671458
139	0x3e30d779	0.17269696
140	0x3f1cda2c	0.61270404
141	0x3eb0ffc4	0.34570134
142	0x3d61aa13	0.055093836
143	0x3f02170f	0.50816435
144	0x3e94a265	0.29030147
145	0x3ec0f499	0.37686613
146	0xbba61600	-0.0050685406
147	0xbe97fdf4	-0.29685938
148	0x3eb0b64c	0.3451408
149	0x3f0458c2	0.51697934
150	0x3d4a6945	0.0494168
151	0x3de043da	0.10950442
152	0x3e7c06ad	0.24611922
153	0x3f15fd0e	0.58589256
154	0x3e4955db	0.19661658
155	0x3f1a5728	0.6028924
156	0x3eb63f9f	0.35595414
157	0x3ddb19e4	0.106982976
158	0x3e634f8b	0.22198312
159	0x3f08b1d2	0.5339633
160	0x3e605054	0.21905643
161	0x3eb2457c	0.34818637
162	0x3dc03cc2	0.09386589
163	0x3f0cf4bd	0.5506094
164	0x3e90422e	0.2817549
165	0x3ea3378c	0.31878316
166	0xbde37949	-0.11107118
167	0x3ce16ee4	0.027518697
168	0x3e2e4af2	0.17020777
169	0x3dadab7b	0.08479973
170	0x3e2381d0	0.15967488
171	0x3e2383f2	0.15968302
172	0x3e27c4c8	0.1638366
173	0x3e26762e	0.1625602
174	0x3e1a592d	0.1507308
175	0x3eed54ad	0.46353665
176	0x3ecb9707	0.39763662
177	0x3f152185	0.5825427
178	0x3f196c03	0.5993044
179	0x3ce68b1e	0.028142508
180	0x3e0e5cb5	0.13902552
181	0x3d18095f	0.037118312
182	0x3ee7675e	0.4519605
183	0x3ef87398	0.4852569
184	0x3ed16d9b	0.40903935
185	0x3d1e449d	0.038639653
186	0xbe887180	-0.26649094
187	0x3f235f30	0.6381712
188	0x3ed5923f	0.4171314
189	0x3e557627	0.20845853
190	0x3ee33d2e	0.44382614
191	0x3f1c2538	0.6099429
192	0x3ea2490a	0.3169635
193	0x3e307b4c	0.17234534
194	0xbe20c291	-0.15699221
195	0x3eacc787	0.33745977
196	0xbdadfa18	-0.08494967
197	0x3f045249	0.5168806
198	0x3ebfaf80	0.37438583
199	0x3e95bf41	0.29247478
200	0x3e33fcdc	0.17576927
201	0x3f062c19	0.5241104
202	0x3d6b9baf	0.05752152
203	0x3e37ce37	0.17949758
204	0x3c0479ac	0.008085649
205	0xbe6a0f5b	-0.2285742
206	0x3eb767d2	0.35821396
207	0x3e2f0416	0.17091402
208	0x3eea7388	0.45791268
209	0x3e72e735	0.23721011
210	0x3f060cf2	0.523635
211	0x3e9fa201	0.31178287
212	0x3eec6ea3	0.4617816
213	0x3b2d3bdb	0.0026433382
214	0x3e8653d8	0.26235843
215	0x3f1e3527	0.61799854
216	0x3eecf30f	0.4627919
217	0x3d0c9fb7	0.034332003
218	0x3edfb7e0	0.43694973
219	0x3e9a745d	0.30166903
220	0x3ebb0b62	0.36532122
221	0x3f0c7221	0.54861647
222	0x3f0f4f0c	0.5597999
223	0x3e9807c7	0.29693434
224	0x3d874183	0.06604292
225	0x3dedf54b	0.116190515
226	0xbcd2caf5	-0.025731543
227	0xbe380540	-0.17970753
228	0x3ed548ce	0.41657108
229	0x3f16b69d	0.58872396
230	0x3b4b2dc4	0.003100262
231	0x3d959e62	0.073056
232	0xbe7c106a	-0.24615636
233	0x3f055525	0.52083045
234	0x3e93599c	0.28779304
235	0x3e9f7fd8	0.31152225
236	0x3ea60e73	0.324329
237	0x3e1fc85d	0.15603776
238	0x3ee344fa	0.44388562
239	0xbc90bd32	-0.01766834
240	0x3ed18a5c	0.40925872
241	0x3e120396	0.1425918
242	0x3e1ac208	0.1511308
243	0x3e8c5421	0.27407935
244	0xbcf6d7c0	-0.030132174
245	0x3ef67b7d	0.4814109
246	0x3ea92f3c	0.3304385
247	0x3ef4ff1d	0.47850886
248	0x3ebf91f4	0.3741604
249	0x3e7e8ec3	0.24859147
250	0xbd4d3445	-0.050098676
251	0x3efca733	0.49346313
252	0x3e132619	0.14370002
253	0x3ef27bd8	0.4736011
254	0x3e72e7af	0.23721193
255	0x3e117ac5	0.14206989

action_model._discrete_distribution.branches.0.bias f4 [2]
0	0x3d988968	0.07448083
1	0xbd988671	-0.07447518

action_model._discrete_distribution.branches.0.weight f4 [2, 128]
0	0x3e03e7b3	0.12881355
1	0x3eb7556b	0.35807356
2	0x3f49b081	0.7878495
3	0x3f45fddc	0.77340484
4	0x3f368698	0.71299124
5	0x3f374e40	0.71603775
6	0x3e8cb884	0.27484524
7	0x3f1aacb5	0.6041978
8	0x3f3d7806	0.74011266
9	0xbf2f002e	-0.6835965
10	0x3ed0925c	0.40736663
11	0x3f61efb4	0.8825638
12	0x3f3806e9	0.71885544
13	0x3f1150f2	0.5676414
14	0x3ef5200b	0.4787601
15	0x3f1565e4	0.583586
16	0x3f70f236	0.94119585
17	0x3f1b6728	0.6070428
18	0x3e5d56d8	0.2161516
19	0x3d117590	0.035512507
20	0x3f78ed38	0.9723697
21	0x3d8cb91c	0.06871244
22	0x3f108217	0.564485
23	0x3c88bedf	0.016692577
24	0x3f81ed83	1.0150608
25	0x3eddd282	0.43324667
26	0x3f61c930	0.8819761
27	0x3f473c2b	0.77826184
28	0x3f877827	1.0583543
29	0x3ea6c979	0.32575586
30	0x3f015964	0.50527024
31	0x3eab2c69	0.3343232
32	0x3fceb0a1	1.6147653
33	0x3f1a58f6	0.60291994
34	0x3f484930	0.78236675
35	0x3f450495	0.76960117
36	0x3fb3f216	1.4058254
37	0x3f863bd7	1.0487012
38	0x3eafd044	0.34338582
39	0xbf053c2a	-0.5204493
40	0x3e2e541f	0.17024277
41	0x3f7cee24	0.98800874
42	0x3ee6e8b3	0.4509941
43	0x3fa2109f	1.2661322
44	0x3f88f203	1.0698856
45	0x3e7eb032	0.248719
46	0xbe02a6ba	-0.12758914
47	0x3f38d68e	0.72202384
48	0x3f227e13	0.63473624
49	0x3f439cc1	0.7641106
50	0xbc9750e9	-0.018471198
51	0x3c76f6f2	0.015073525
52	0xbe3597c4	-0.17733675
53	0x3d32aa6a	0.04361955
54	0x3fa13131	1.2593137
55	0x3f720cb5	0.9455064
56	0x3c8b5e87	0.017012848
57	0x3f5742ae	0.8408612
58	0x3e706405	0.23475654
59	0x3f32d8e1	0.6986218
60	0x3f4a256a	0.7896334
61	0x3f4efc83	0.8085405
62	0x3f43d3af	0.7649488
63	0x3ee79338	0.45229506
64	0x3e7e3a9f	0.2482705
65	0x3ebfe096	0.37476033
66	0x3f34ee43	0.7067606
67	0xbe3e3549	-0.18575014
68	0xbd8449be	-0.06459378
69	0x3e751c71	0.23936631
70	0x3f4b5c98	0.7943816
71	0xbea0a20a	-0.31373626
72	0x3f7de8c5	0.99183303
73	0x3f0eb27f	0.55741113
74	0x3fa44f47	1.2836694
75	0x3f8cfc82	1.1014559
76	0x3e6f4e23	0.2336965
77	0x3d860979	0.065447755
78	0x3ee536a5	0.44768253
79	0x3e698fde	0.22808787
80	0xbdd6463d	-0.10462616
81	0x3e57f935	0.21091159
82	0x3fac11d1	1.3442937
83	0x3eb4a3f8	0.35281348
84	0x3e8ee4ec	0.2790903
85	0xbdb69b5d	-0.08916352
86	0x3f81711e	1.0112646
87	0x3f1a3380	0.6023483
88	0x3eb2d3fc	0.34927356
89	0x3e251a1a	0.16123238
90	0x3f899414	1.0748315
91	0x3e9bcd9a	0.304303
92	0x3f33ac3f	0.701847
93	0x3ebc779a	0.3681
94	0x3ec63c7d	0.38718024
95	0x3f762b16	0.96159494
96	0x3f9219a0	1.141407
97	0x3ea335f8	0.31877112
98	0xbef46735	-0.4773499
99	0xbe1a1071	-0.15045334
100	0x3fb3d916	1.4050624
101	0x3ed03db7	0.40672085
102	0xbd14dd8a	-0.03634409
103	0x3ee1ff25	0.44139972
104	0xbe05a2d9	-0.13050403
105	0x3f2943d5	0.6611913
106	0x3f2dafd6	0.6784643
107	0x3efdb073	0.49548683
108	0x3f3c9820	0.73669624
109	0x3fae2fc5	1.3608328
110	0x3fb7d799	1.436267
111	0x3e1b5667	0.15169679
112	0x3f7ba23c	0.98294425
113	0x3efd02fd	0.49416342
114	0x3e72adf7	0.23699175
115	0xbd1b0914	-0.037850454
116	0x3f8797b3	1.059317
117	0x3d22317c	0.039597973
118	0x3fa7e195	1.3115717
119	0x3f37c122	0.7177907
120	0x3f760c13	0.96112174
121	0x3f855390	1.0416126
122	0x3f522189	0.8208242
123	0xbe554f35	-0.20830996
124	0xbe9885ee	-0.2978968
125	0x3ee1399b	0.43989262
126	0xbe2e849c	-0.17042774
127	0x3f1c0704	0.60948205
128	0xbe0e5835	-0.13900836
129	0xbead8a9b	-0.3389481
130	0xbf4b75a1	-0.7947636
131	0xbf436c9f	-0.7633762
132	0xbf38e697	-0.7222685
133	0xbf3ab9ea	-0.7293993
134	0xbe918ac5	-0.28426185
135	0xbf1849c0	-0.59487534
136	0xbf3cee38	-0.7380099
137	0x3f33a2ec	0.70170474
138	0xbecbb457	-0.39786026
139	0xbf69ff7f	-0.9140548
140	0xbf39547e	-0.7239455
141	0xbf148572	-0.5801612
142	0xbef641da	-0.48097116
143	0xbf139b82	-0.5765916
144	0xbf6e6def	-0.93136495
145	0xbf190e2b	-0.59787244
146	0xbe5bfed1	-0.21483923
147	0xbd5e0426	-0.054203175
148	0xbf76f5f3	-0.9646904
149	0xbd8c6a33	-0.068561934
150	0xbf0dde06	-0.55416906
151	0xbc546fda	-0.012966121
152	0xbf82b5fe	-1.021179
153	0xbed9a556	-0.42508954
154	0xbf686958	-0.9078574
155	0xbf478a28	-0.77945185
156	0xbf87461d	-1.0568272
157	0xbea465c3	-0.32108888
158	0xbf00ca2b	-0.50308484
159	0xbeb1580a	-0.3463748
160	0xbfd15a66	-1.6355712
161	0xbf1c4746	-0.61046255
162	0xbf4278e0	-0.7596569
163	0xbf485d15	-0.7826703
164	0xbfb478dc	-1.4099383
165	0xbf870845	-1.0549399
166	0xbeaa75f1	-0.33293107
167	0x3f0a6334	0.5405762
168	0xbe3d9770	-0.185148
169	0xbf7d56ef	-0.98960775
170	0xbedc78dc	-0.43060958
171	0xbfa3955c	-1.2779956
172	0xbf889824	-1.067143
173	0xbe81763c	-0.25285518
174	0x3dfc615e	0.12323259
175	0xbf3a032e	-0.726611
176	0xbf23a843	-0.6392862
177	0xbf449d04	-0.76802087
178	0x3c783690	0.015149727
179	0xbc5bb5d7	-0.013410053
180	0x3e33f268	0.1757294
181	0xbd5ae0d9	-0.053437088
182	0xbfa1d7dc	-1.2644
183	0xbf73b4d2	-0.95197785
184	0xbc90f247	-0.017693652
185	0xbf5261f1	-0.82180697
186	0xbe6b7ea3	-0.22997527
187	0xbf34163c	-0.70346427
188	0xbf464a91	-0.7745753
189	0xbf4c3463	-0.79767436
190	0xbf449a16	-0.76797616
191	0xbee2d5c1	-0.44303706
192	0xbe741b25	-0.2383848
193	0xbeb5ac5d	-0.35483065
194	0xbf362aa4	-0.71158814
195	0x3e376ed7	0.17913376
196	0x3da5e55b	0.08100387
197	0xbe759d2e	-0.2398574
198	0xbf4b9e11	-0.79538065
199	0x3eadf6bd	0.3397731
200	0xbf7e3864	-0.99304795
201	0xbf1257e2	-0.5716535
202	0xbfa636d4	-1.2985482
203	0xbf8bf0b8	-1.0932837
204	0xbe604da7	-0.21904622
205	0xbd8ab926	-0.067735955
206	0xbedbb7a6	-0.4291355
207	0xbe6edb2a	-0.23325792
208	0x3dc1b9da	0.094592765
209	0xbe4978bf	-0.19674967
210	0xbfaa97b3	-1.3327545
211	0xbeb1386b	-0.34613356
212	0xbe949cf2	-0.2902599
213	0x3de715dd	0.11283467
214	0xbf81e215	-1.014712
215	0xbf17f265	-0.5935424
216	0xbea3495c	-0.31891906
217	0xbe1e73b3	-0.15473823
218	0xbf8af0f1	-1.085478
219	0xbe9ebf38	-0.31005263
220	0xbf339804	-0.7015383
221	0xbec3f7ba	-0.38274938
222	0xbec17551	-0.37784818
223	0xbf790cbc	-0.97285056
224	0xbf91e37f	-1.1397551
225	0xbea6ef9f	-0.3260469
226	0x3efc4c29	0.49276856
227	0x3e1f47c9	0.15554728
228	0xbfb32a20	-1.399723
229	0xbec87ff6	-0.39160126
230	0x3d4f5e5b	0.050627094
231	0xbee3117d	-0.4434928
232	0x3dd945f9	0.10609049
233	0xbf296141	-0.6616402
234	0xbf345dfa	-0.70455897
235	0xbf05c92b	-0.5226008
236	0xbf3b22b8	-0.7309985
237	0xbfadd759	-1.3581344
238	0xbfb8a560	-1.4425468
239	0xbe1468b1	-0.14493062
240	0xbf788592	-0.9707881
241	0xbef720c4	-0.48267186
242	0xbe698e95	-0.22808297
243	0x3c5cb3e6	0.0134706255
244	0xbf877420	-1.0582314
245	0xbd50ea52	-0.051004715
246	0xbfa66a17	-1.3001126
247	0xbf39cd3a	-0.72578776
248	0xbf736f45	-0.9509166
249	0xbf85b9b7	-1.0447301
250	0xbf545881	-0.82947546
251	0x3e664ebb	0.22490971
252	0x3e9dc802	0.30816656
253	0xbee26af3	-0.4422222
254	0x3e230523	0.15919928
255	0xbf1e0457	-0.6172537

action_model._discrete_distribution.branches.1.bias f4 [2]
0	0x3bf2e80c	0.007412916
1	0xbbf2dea8	-0.0074117966

action_model._discrete_distribution.branches.1.weight f4 [2, 128]
0	0xbeb48ab8	-0.35262084
1	0x3e2d4065	0.16919096
2	0xbf24cce7	-0.64375156
3	0xbf7fd51e	-0.99934566
4	0xbe5bb498	-0.2145561
5	0xbf2ae6b4	-0.66758275
6	0x3d3c422d	0.045961548
7	0xbf1b6eec	-0.6071613
8	0xbf9416ba	-1.1569436
9	0xbef7921c	-0.4835366
10	0xbbe08731	-0.0068520536
11	0xbf01337c	-0.50469184
12	0xbef7457e	-0.48295206
13	0x3c6af1ee	0.014339907
14	0xbe600bfa	-0.21879569
15	0xbea5d047	-0.32385466
16	0xbf9738df	-1.1814231
17	0xbf675d00	-0.9037628
18	0xbf9587c0	-1.1682053
19	0xbe180e2e	-0.14849159
20	0xbebb97d7	-0.36639282
21	0xbedb7a45	-0.42866722
22	0x3cd7eb2a	0.026357252
23	0xbeb8267e	-0.35966867
24	0xbf622459	-0.8833671
25	0xbdcf6003	-0.10125735
26	0xbf1403d2	-0.5781833
27	0xbef1f604	-0.47258008
28	0xbf1c7493	-0.6111538
29	0x3eeffa90	0.46870852
30	0xbea7adea	-0.32749873
31	0xbeb69a16	-0.35664433
32	0xbf8441a0	-1.0332527
33	0xbf55d148	-0.8352246
34	0x3e542b08	0.2071954
35	0xbda488d4	-0.080339104
36	0xbf7fc868	-0.9991517
37	0xbe4ccd63	-0.20000224
38	0xbd01e11e	-0.03170883
39	0x3eac0c1e	0.33602995
40	0xbda9afca	-0.08285482
41	0xbf5fac73	-0.8737251
42	0xbf3cde3d	-0.7377661
43	0xbf590b6b	-0.8478305
44	0xbf391812	-0.72302353
45	0x3edb8c27	0.42880365
46	0xbf2ca96c	-0.6744602
47	0xbe430c1c	-0.19047588
48	0xbd3519fa	-0.044214226
49	0xbded0dbd	-0.11574886
50	0x3e2b0542	0.16701224
51	0xbd97194c	-0.07377872
52	0xbe9f03ca	-0.31057578
53	0xbeba5062	-0.36389452
54	0xbf807ff2	-1.0039046
55	0xbf29ee3f	-0.6637916
56	0x3ea32e86	0.31871432
57	0xbf00f680	-0.5037613
58	0x3ea2f81f	0.31829926
59	0xbda8603a	-0.08221479
60	0xbf749695	-0.9554227
61	0xbf668ae5	-0.90055686
62	0xbf43aac1	-0.76432425
63	0xbe0ec903	-0.13943867
64	0xbeeda286	-0.46413058
65	0xbdbfa08c	-0.09356794
66	0xbedc219e	-0.42994398
67	0x3ec8377d	0.39104834
68	0x3e58f467	0.21186982
69	0xbab88583	-0.0014077876
70	0xbe86e891	-0.2634931
71	0x3e8b8140	0.27247047
72	0xbf2145b4	-0.62996984
73	0xbea4678c	-0.3211025
74	0xbf20d1c6	-0.6282009
75	0xbf3119e3	-0.69180125
76	0xbd999d5a	-0.075007156
77	0xbe5b029f	-0.21387719
78	0xbe364b9d	-0.17802282
79	0xbedc3bdb	-0.43014416
80	0x3c9e53b6	0.019327026
81	0xbf17625c	-0.5913446
82	0xbf481965	-0.7816375
83	0xbeea83a1	-0.4580355
84	0xbf506b7e	-0.8141402
85	0x3ea97102	0.3309403
86	0xbf63b4bb	-0.8894765
87	0xbe9ac997	-0.30231926
88	0xbdabb66d	-0.08384404
89	0x3bd62899	0.0065356013
90	0xbf0e53ff	-0.5559692
91	0xbeb7ecbc	-0.35922801
92	0xbf5e01ae	-0.86721313
93	0xbe97cfac	-0.2965063
94	0xbc8e403f	-0.01736462
95	0xbf839f18	-1.0282927
96	0xbf978ea0	-1.1840401
97	0xbe0d1632	-0.13777998
98	0x3e8c1d4e	0.27366108
99	0x3dba3303	0.09091761
100	0xbf45f789	-0.77330834
101	0xbddf314e	-0.10898076
102	0xbdca76c3	-0.09885933
103	0xbf830f83	-1.0239109
104	0x3e5ba6d9	0.21450366
105	0xbeaf1798	-0.34197688
106	0xbf7a55cb	-0.9778716
107	0xbee44479	-0.4458349
108	0xbee5fe52	-0.44920594
109	0xbf726794	-0.946893
110	0xbf5659e2	-0.837309
111	0xbed71cd2	-0.42014176
112	0xbf4cd209	-0.8000799
113	0xbf62a8ec	-0.88539004
114	0x3cbd6b39	0.023122417
115	0x3cf925bd	0.030413503
116	0xbf956cb8	-1.1673803
117	0xbd0de345	-0.03464057
118	0xbfa8e2f2	-1.3194258
119	0xbf2f6066	-0.6850647
120	0xbd241a57	-0.040064182
121	0xbf81459e	-1.009937
122	0xbf358dd3	-0.7091953
123	0x3ec2abb0	0.38021612
124	0xbebd68f6	-0.3699414
125	0xbeaaf045	-0.33386436
126	0xbe3d2c22	-0.18473867
127	0xbec00abf	-0.375082
128	0x3eb1b7c0	0.34710503
129	0xbe28607b	-0.16443054
130	0x3f262992	0.6490718
131	0x3f7fb282	0.99881756
132	0x3e5148b1	0.20437886
133	0x3f245ed6	0.6420721
134	0xbcc86a58	-0.024464771
135	0x3f1ac957	0.6046347
136	0x3f96727d	1.1753689
137	0x3efc7c7b	0.4931372
138	0xbb277538	-0.0025552046
139	0x3efc5ea5	0.49290958
140	0x3efe0061	0.49609664
141	0xbb90be5e	-0.004417225
142	0x3e77e4ce	0.24208376
143	0x3e9f9f3c	0.31176174
144	0x3f982209	1.1885387
145	0x3f6be159	0.9214073
146	0x3f95fbef	1.1717509
147	0x3e2700b8	0.16308868
148	0x3ebc9eca	0.36839896
149	0x3ee707d2	0.45123154
150	0xbcbd7dd4	-0.023131289
151	0x3eb5b8e3	0.3549262
152	0x3f61ed68	0.8825288
153	0x3dc9fb10	0.098623395
154	0x3f11568a	0.56772673
155	0x3ef791d5	0.4835345
156	0x3f1d7309	0.61503655
157	0xbeea5efd	-0.45775595
158	0x3e9e1704	0.30876935
159	0x3eb688e9	0.3565133
160	0x3f83dfd1	1.0302678
161	0x3f54c6f1	0.8311606
162	0xbe5623a5	-0.20912035
163	0x3d92caf6	0.07167618
164	0x3f819d85	1.0126196
165	0x3e4f6a7e	0.20255467
166	0x3cc12f4a	0.02358212
167	0xbeabe860	-0.33575726
168	0x3dbfa43a	0.093574956
169	0x3f63942b	0.8889796
170	0x3f40f22e	0.75369537
171	0x3f5aa59f	0.8540897
172	0x3f3e0e7e	0.74240863
173	0xbed8a6c2	-0.42314726
174	0x3f2e3fbb	0.68065995
175	0x3e473045	0.19452007
176	0x3d5856f0	0.052817285
177	0x3de0ad8e	0.10970603
178	0xbe2d8f56	-0.1694921
179	0x3dcbce5c	0.09951469
180	0x3ea5fc35	0.3241898
181	0x3eb87101	0.36023715
182	0x3f7f438f	0.9971246
183	0x3f233182	0.6374742
184	0xbe9d6e60	-0.30748272
185	0x3f012ed4	0.5046208
186	0xbeae0e9c	-0.3399552
187	0x3d9c0041	0.07617236
188	0x3f77605b	0.966314
189	0x3f5ea584	0.86971307
190	0x3f41b5f5	0.7566827
191	0x3e06506f	0.1311662
192	0x3ef29f4d	0.47387162
193	0x3dab8994	0.0837585
194	0x3ed0959f	0.40739152
195	0xbebf4f63	-0.37365255
196	0xbe516182	-0.20447353
197	0xbcacbe1f	-0.02108675
198	0x3e7fdec1	0.24987318
199	0xbe8c88f0	-0.27448225
200	0x3f1f1d2c	0.6215389
201	0x3ea6e10d	0.32593575
202	0x3f219f9f	0.6313419
203	0x3f32948e	0.69757926
204	0x3d70b77c	0.058768734
205	0x3e505eaf	0.20348619
206	0x3e478ace	0.19486544
207	0x3edda28e	0.43288082
208	0xbcc18985	-0.023625145
209	0x3f1a7186	0.60329473
210	0x3f4a7cbf	0.790966
211	0x3ef24225	0.4731609
212	0x3f4c028b	0.7969138
213	0xbeae9483	-0.3409768
214	0x3f659d25	0.8969291
215	0x3e9a59e6	0.30146712
216	0x3dc5da62	0.09660794
217	0x3c939f94	0.018020429
218	0x3f0ab0a0	0.5417576
219	0x3eb9577b	0.36199555
220	0x3f5fec75	0.8747018
221	0x3e8c472e	0.27398056
222	0xba0f0e17	-0.00054571166
223	0x3f801ce6	1.0008819
224	0x3f9661d4	1.1748605
225	0x3e02a845	0.12759502
226	0xbe8b02e2	-0.27150637
227	0xbdc5b80d	-0.096542455
228	0x3f4760b2	0.7788192
229	0x3df39598	0.11893767
230	0x3da6c1e7	0.08142453
231	0x3f83b813	1.029055
232	0xbe54d5ca	-0.20784679
233	0x3eb04faa	0.3443578
234	0x3f77b12e	0.9675473
235	0x3ed7d640	0.42155647
236	0x3ee646a9	0.44975784
237	0x3f70bd11	0.9403849
238	0x3f54f490	0.8318567
239	0x3ed8b42c	0.4232496
240	0x3f4e20d7	0.8051886
241	0x3f60cb08	0.878098
242	0xbcf830e6	-0.030296754
243	0xbcd08f4e	-0.025458958
244	0x3f947e7a	1.1601098
245	0x3d141b50	0.03615886
246	0x3fa8dd5d	1.3192555
247	0x3f2f938f	0.6858453
248	0x3d6d3536	0.057912074
249	0x3f820a32	1.0159361
250	0x3f37660a	0.71640074
251	0xbec68e81	-0.38780597
252	0x3ec14dd6	0.37754697
253	0x3eb2edf5	0.34947172
254	0x3e39cdff	0.18144988
255	0x3ec1241b	0.3772286

discrete_action_output_shape f4 [1, 2]
0	0x40000000	2.0
1	0x40000000	2.0

network_body._body_endoder.seq_layers.0.bias f4 [128]
0	0xbe853720	-0.2601862
1	0xbe38e403	-0.1805573
2	0x3dffdfa0	0.12493825
3	0xbebe8c52	-0.3721643
4	0xbf17f7d9	-0.5936256
5	0xbe875cae	-0.26437896
6	0xbe6d9341	-0.23200704
7	0x3dd60117	0.104494266
8	0xbe94ca5f	-0.29060647
9	0x3e237c46	0.15965375
10	0xbe9a4200	-0.3012848
11	0xbee6bfec	-0.450683
12	0xbebc8b63	-0.36825094
13	0xbeee9eaa	-0.46605426
14	0xbed4b3e7	-0.41543505
15	0xbe4817fc	-0.195404
16	0xbea8b06b	-0.32947096
17	0x3d0f69d6	0.035013042
18	0xbdfe3bb0	-0.12413728
19	0xbf0174dc	-0.5056894
20	0xbedef657	-0.43547317
21	0xbea9d439	-0.33169726
22	0xbee410f4	-0.44544184
23	0xbf037929	-0.5135675
24	0xbc2c8c05	-0.01053143
25	0xbe9711a7	-0.29505655
26	0xbe3717a6	-0.17880115
27	0xbe620ecd	-0.22075959
28	0xbde9c393	-0.11414256
29	0xbe627df1	-0.22118355
30	0xbe0c5910	-0.1370585
31	0xbed0d7a1	-0.40789512
32	0xbe642503	-0.22279744
33	0x3d9293e7	0.071571164
34	0xbdf048c1	-0.11732627
35	0xbe05b5ba	-0.13057604
36	0x3cdef8b9	0.02721821
37	0xbd2371ba	-0.03990338
38	0xbe184570	-0.14870238
39	0xbe57e64b	-0.21083944
40	0xbdf6544c	-0.12027797
41	0xbee77813	-0.45208797
42	0xbe4d2e4b	-0.2003719
43	0xbcae453c	-0.021273248
44	0xbe6e2e20	-0.23259783
45	0xbeb4221d	-0.35182276
46	0xbe0c7979	-0.13718213
47	0xbee61ba6	-0.4494297
48	0xbe48c67b	-0.19606964
49	0xbe5fe720	-0.21865511
50	0x3d4180bd	0.047241915
51	0xbeeb488b	-0.45953783
52	0xbeabdd83	-0.33567438
53	0xbe9bca0e	-0.30427593
54	0xbe7faea0	-0.24968958
55	0xbe8e6c1a	-0.2781685
56	0xbeab2ec9	-0.33434132
57	0xbe3b5bbb	-0.18296711
58	0xbe851e08	-0.25999475
59	0xbe33bb54	-0.17551929
60	0xbe71be62	-0.23607782
61	0xbefa30dd	-0.48865405
62	0xbe8813ae	-0.26577514
63	0xbe7c0300	-0.2461052
64	0x3d06bc2b	0.032894295
65	0x3d83fc04	0.064445525
66	0xbe667766	-0.22506484
67	0xbda44145	-0.08020262
68	0xbdf8eab1	-0.12154139
69	0xbeabec9d	-0.3357896
70	0xbe68a9d1	-0.2272103
71	0xbec1be89	-0.3784068
72	0xbe1db9a0	-0.15402842
73	0xbe3ecb1c	-0.18632168
74	0xbf160b00	-0.58610535
75	0xbe6f8979	-0.23392285
76	0x3dcfe876	0.1015176
77	0x3e276c69	0.16349949
78	0xbf342c36	-0.7037996
79	0xbeb4ba12	-0.3529821
80	0xbe535bf8	-0.20640552
81	0xbef89d35	-0.4855744
82	0xbda032ff	-0.07822227
83	0x3a2978fd	0.0006464867
84	0x3e36f13d	0.17865463
85	0xbdf32534	-0.1187233
86	0xbe6c9990	-0.23105454
87	0xbdb59e39	-0.08868069
88	0xbddaca4c	-0.10683116
89	0xbec58336	-0.38576669
90	0xbec18227	-0.3779461
91	0x3dc01c7f	0.09380435
92	0x3dc00a6e	0.09376989
93	0xbe8feea1	-0.28111747
94	0xbeab49be	-0.33454698
95	0xbed67268	-0.4188416
96	0xbd14759a	-0.036244966
97	0x3d651087	0.055923965
98	0xbdff7223	-0.12472942
99	0xbf1fcd19	-0.6242233
100	0xbe8928bb	-0.26788887
101	0xbea1d021	-0.31604102
102	0x3e14f968	0.14548266
103	0xbe8d0762	-0.27544695
104	0xbe8da75d	-0.2766675
105	0x3d2801ab	0.041017216
106	0xbdc7fbe9	-0.09764845
107	0x3e355a69	0.1771027
108	0xbeb0f4ff	-0.34561917
109	0xbed83019	-0.42224196
110	0xbdcc3db4	-0.099727064
111	0xbe88210d	-0.26587716
112	0x3d7131a6	0.05888524
113	0xbf079b80	-0.5297165
114	0xbebdfe82	-0.37108237
115	0xbec3f051	-0.38269284
116	0x3e3e1732	0.18563536
117	0xbe6cb989	-0.23117651
118	0x3e91be36	0.28465432
119	0xbe5e0b3d	-0.21683975
120	0xbe6f71a8	-0.233832
121	0xbccf4d0b	-0.025305292
122	0x3dda6673	0.10664072
123	0xbe8115d3	-0.25211963
124	0xbf2dfd14	-0.6796429
125	0xbf0ac383	-0.5420458
126	0x3df6dba8	0.12053615
127	0xbede9c8a	-0.43478805

network_body._body_endoder.seq_layers.0.weight f4 [128, 53]
0	0xbebc95a2	-0.3683291
1	0xbf85528d	-1.0415817
2	0xbe35ee95	-0.17766793
3	0xbed2774a	-0.41106635
4	0xbf021cd4	-0.5082524
5	0x3e8a414a	0.27002937
6	0xbf272a9f	-0.6529941
7	0xbd5c5512	-0.053792067
8	0xbea77f9b	-0.32714543
9	0xbe303a93	-0.17209844
10	0xbee4b654	-0.44670355
11	0xbf90b6f4	-1.1305833
12	0xbd18f956	-0.03734716
13	0xbe70eb17	-0.2352718
14	0xbe7069eb	-0.23477904
15	0xbdd055fa	-0.10172649
16	0xbf906682	-1.1281283
17	0xbbd99644	-0.0066402275
18	0xbf060e71	-0.52365786
19	0xbf48b012	-0.7839366
20	0xbed1bbd3	-0.4096361
21	0xbedd462c	-0.432176
22	0xbe0f8337	-0.14014898
23	0xbf39ef5d	-0.72630864
24	0xbf4c5476	-0.7981638
25	0x3d55c10c	0.052186057
26	0xbe342f92	-0.17596272
27	0x3e5d8a56	0.21634802
28	0xbeb60b38	-0.35555434
29	0xbf37ddc9	-0.7182279
30	0xbe3fad12	-0.18718365
31	0xbde7a2ae	-0.113103256
32	0x3e437b40	0.19089985
33	0xbf1bb5e4	-0.6082442
34	0xbeb7375a	-0.35784417
35	0xbe4efb0f	-0.20212959
36	0x3d352bf0	0.044231355
37	0xbe12b7d6	-0.1432794
38	0xbf37e514	-0.7183392
39	0xbf3b0190	-0.7304926
40	0x3bbf281b	0.0058336384
41	0xbe393b33	-0.18088989
42	0x3e0efeb7	0.13964354
43	0xbf039062	-0.51392186
44	0xbf5ec81d	-0.870241
45	0xbeeacf80	-0.45861435
46	0xbbdea7b6	-0.006794895
47	0x3f0ec963	0.5577604
48	0xbcf9e512	-0.030504737
49	0xbe28da0b	-0.16489427
50	0xbefd6fb9	-0.494993
51	0xbf139557	-0.5764975
52	0x39fc71ba	0.00048149918
53	0x3eaf0b18	0.3418815
54	0xbf446982	-0.7672349
55	0x3e660dd0	0.22466207
56	0xbf0351b6	-0.51296556
57	0xbf04aa3e	-0.5182227
58	0xbdeef555	-0.11667887
59	0x3d53b4ea	0.051686205
60	0x3f2d3ae3	0.6766798
61	0xbeb359fd	-0.35029593
62	0xbdea2805	-0.11433414
63	0x3e0bf266	0.13666686
64	0xbeb430f1	-0.3519359
65	0x3f024ff9	0.5090328
66	0xbec0d7b9	-0.37664583
67	0xbec9831e	-0.39357847
68	0xbe9ff171	-0.31238893
69	0xbf21ab2d	-0.6315182
70	0xbed46910	-0.41486406
71	0xbe0d8046	-0.13818464
72	0xbd7fbdf8	-0.062437028
73	0x3ea7e7ed	0.32794133
74	0xbf02124d	-0.50809175
75	0xbeb7eaad	-0.3592123
76	0xbd0da805	-0.034584064
77	0x3e64805f	0.22314595
78	0xbed1aa3c	-0.4095019
79	0xbf07dac7	-0.530682
80	0xbd0d0498	-0.03442821
81	0xbd48c65c	-0.049017295
82	0x3d1cb9fe	0.038263313
83	0x3e93579c	0.28777778
84	0xbc98d3ab	-0.018655619
85	0x3f088728	0.5333123
86	0x3de03040	0.10946703
87	0xbe987a4d	-0.29780808
88	0x3e92bf70	0.2866168
89	0x3ec6d041	0.3883076
90	0x3d1a1b13	0.037623476
91	0x3e2e76f4	0.17037565
92	0xbc566877	-0.01308643
93	0x3f21fb44	0.63274026
94	0xbedd7ae7	-0.4325783
95	0x3e382e64	0.17986447
96	0x3e836319	0.25661543
97	0x3e13aa4a	0.14420429
98	0xbe589551	-0.2115071
99	0xbf183c03	-0.5946657
100	0x3e758b81	0.23978998
101	0x3dac77f7	0.08421319
102	0xbe8733e2	-0.2640677
103	0x3e9d6791	0.30743077
104	0xbc80ddb2	-0.015730713
105	0xbf2c6760	-0.6734524
106	0xbe864847	-0.26227018
107	0xbc367568	-0.01113639
108	0xbe517b1d	-0.2045712
109	0x3b95d881	0.0045729284
110	0x3e051708	0.12997067
111	0xbd16a2df	-0.03677642
112	0x3b3c8b80	0.0028769672
113	0xbeb0772c	-0.3446592
114	0xbf085976	-0.53261507
115	0xbee5a7ea	-0.4485467
116	0xbca603c2	-0.020265464
117	0x3de80d1f	0.11330628
118	0xbf2ed710	-0.6829691
119	0xbe726da1	-0.23674633
120	0xbe7f22c3	-0.24915604
121	0x3db91042	0.09036304
122	0xbe781af5	-0.24229033
123	0x3ed4a0c3	0.415289
124	0xbe342ccb	-0.17595212
125	0xbd69543e	-0.056965105
126	0x3e511d1a	0.20421258
127	0xbeb2c1c0	-0.34913445
128	0xbe7105c7	-0.2353736
129	0xbd9c2061	-0.07623363
130	0xbdadae0b	-0.08480462
131	0xbd2b5a6b	-0.041834276
132	0xbd509c23	-0.050930154
133	0xbe50732a	-0.20356432
134	0xbd5eacf3	-0.054364156
135	0xbe8bfd55	-0.27341715
136	0x3e2e0005	0.16992195
137	0xbb836efa	-0.004011032
138	0xbe7c1026	-0.24615535
139	0x3e3ff98a	0.18747535
140	0x3e0bee37	0.1366509
141	0x3e99d9fb	0.30049118
142	0xbe20c3f0	-0.15699744
143	0xbe50d4b8	-0.20393646
144	0xbe7d8242	-0.2475672
145	0xbe6f29b4	-0.23355752
146	0x3ef20ff9	0.4727781
147	0x3d2a6b69	0.04160634
148	0x3ec9a7a0	0.393857
149	0x3e02dd9b	0.12779848
150	0xbc0555ca	-0.0081381295
151	0x3ebc0c63	0.367282
152	0xbdd35979	-0.103198
153	0x3ddc9407	0.107704215
154	0xbea98283	-0.33107385
155	0x3e309138	0.17242897
156	0xbc5c72f3	-0.01345514
157	0x3dedff69	0.11620981
158	0x3e59ebda	0.21281376
159	0x3e98ad3e	0.29819673
160	0x3cf72034	0.030166723
161	0xbe906963	-0.28205404
162	0xbe30b611	-0.17256953
163	0xbe058ebc	-0.1304273
164	0xbf0960b4	-0.5366318
165	0xbde0789b	-0.10960504
166	0x3bbdf0ce	0.0057965284
167	0xbf0c4915	-0.54799014
168	0xbf1c8859	-0.6114555
169	0xbe2426e1	-0.16030456
170	0xbe8951fe	-0.26820368
171	0xbe95a919	-0.29230574
172	0xbea754d8	-0.32681918
173	0xbe1ccaf6	-0.15311798
174	0xbebee2ab	-0.3728231
175	0x3ee275c3	0.4423047
176	0xbd84d5f9	-0.064861245
177	0xbe6a303b	-0.22869961
178	0xbea81041	-0.328249
179	0x3c5d1b20	0.013495237
180	0x3d67a2fc	0.05655192
181	0x3d874d6a	0.066065624
182	0xbecc6d4b	-0.39927134
183	0xbee3ef88	-0.44518685
184	0xbdd15e3f	-0.10223054
185	0x3e41d8fa	0.18930426
186	0xbdb7c1b2	-0.08972491
187	0xbf15071c	-0.58213973
188	0xbdf6d329	-0.12051994
189	0xbea91200	-0.33021545
190	0xbec6095a	-0.3867901
191	0xbe19f331	-0.15034176
192	0xbeaa714d	-0.33289567
193	0xbef236ca	-0.47307426
194	0x3eecfe1f	0.4628763
195	0x3d2e08f0	0.042488992
196	0xbdbc8c90	-0.09206498
197	0xbc9df06a	-0.019279677
198	0xbe79342b	-0.24336307
199	0xba9fe1a5	-0.0012197985
200	0xbe6d319a	-0.23163453
201	0xbccb2cce	-0.024801638
202	0xbef4744a	-0.47744972
203	0xbed4ff3b	-0.41600975
204	0x3e40adc8	0.18816292
205	0x3cd06a0f	0.025441198
206	0x3e1f38e3	0.15549044
207	0xbed320bd	-0.41235915
208	0xbe5c6678	-0.21523464
209	0xbed10fb6	-0.408323
210	0xbea58a93	-0.32332286
211	0xbe07004e	-0.1318371
212	0xbea6ba8c	-0.325642
213	0xbec6ecf7	-0.38852665
214	0xbee0fbee	-0.43942207
215	0xbeb5f7e4	-0.35540688
216	0xbf1d7158	-0.61501074
217	0xbf17f8ad	-0.59363824
218	0xbe737167	-0.23773728
219	0x3d90441f	0.07044243
220	0xbed3d233	-0.41371307
221	0xbee45850	-0.44598627
222	0xbe14dbef	-0.14537023
223	0xbd80c81d	-0.062881686
224	0xbea31b94	-0.31856978
225	0xbf56570c	-0.83726573
226	0xbfa625a6	-1.2980239
227	0xbeb758b1	-0.35809854
228	0x3e033f78	0.1281718
229	0x3df4e41e	0.119575724
230	0x3dc48ad1	0.0959679
231	0xbf093260	-0.5359249
232	0xbe65905f	-0.22418354
233	0xbe7be1db	-0.24597876
234	0xbe8e2f53	-0.2777048
235	0xbf1dcc4c	-0.6163986
236	0xbf304d18	-0.68867636
237	0x3b34eec0	0.0027608126
238	0xbd88f3e3	-0.06687143
239	0xbda50618	-0.08057803
240	0xbeba992b	-0.36444983
241	0xbe873ec2	-0.26415068
242	0xbe6ffc7e	-0.23436162
243	0x3db721be	0.08941983
244	0xbd61ee00	-0.055158615
245	0xbf0dae9f	-0.55344576
246	0xbf41101f	-0.75415224
247	0xbeb316ce	-0.34978336
248	0x3ee92431	0.45535424
249	0xbea48048	-0.3212912
250	0xbebced84	-0.3689996
251	0xbe817f7a	-0.2529257
252	0x3d2a0ae6	0.0415143
253	0x3e0a831f	0.13526581
254	0xbeb3b6d1	-0.35100415
255	0xbf7b9c25	-0.9828513

network_body._body_endoder.seq_layers.2.bias f4 [128]
0	0xbe6636da	-0.22481862
1	0xbe256f5c	-0.16155761
2	0xbe9d00e5	-0.30664745
3	0xbd4b4be5	-0.049632926
4	0xbe94fc76	-0.29098862
5	0xbe1dc822	-0.15408376
6	0xbe4244e5	-0.18971594
7	0xbecb1db5	-0.39671102
8	0xbea625f0	-0.3245082
9	0xbdbf332e	-0.093359336
10	0xbc10cfea	-0.008838633
11	0x3c25a924	0.010111127
12	0xbe057f62	-0.13036874
13	0xbdf63432	-0.12021674
14	0xbe7be45e	-0.24598834
15	0x3dace6ea	0.08442481
16	0xbe583631	-0.21114422
17	0xbe8f52ee	-0.27992958
18	0xbdee5258	-0.116367996
19	0x3e9b1c2b	0.30294928
20	0xbdaed76c	-0.08537182
21	0xbd92303d	-0.07138107
22	0xbd10b01b	-0.035324197
23	0xbe183804	-0.14865118
24	0xbde75352	-0.11295189
25	0xbdf46f82	-0.11935331
26	0xbe0a3c9b	-0.13499682
27	0xbcbc549f	-0.02298957
28	0xbe7abf61	-0.24487068
29	0xbe6f0995	-0.23343499
30	0xbddda570	-0.1082257
31	0xbe4f5b90	-0.20249772
32	0xbd59b65d	-0.05315243
33	0xbe5bca79	-0.21463956
34	0xbe5d2304	-0.21595389
35	0xbe8ae761	-0.27129653
36	0x3b9d3bdd	0.004798396
37	0xbdc6275b	-0.09675475
38	0x3bca76e4	0.0061787236
39	0xbdcef140	-0.101046085
40	0xbe80ecdc	-0.2518071
41	0xbe39e0d3	-0.1815217
42	0xbef7045d	-0.48245516
43	0xbd49d855	-0.049278576
44	0xbe54be86	-0.20775804
45	0xbcd5a5ca	-0.026080031
46	0xbe893348	-0.26796937
47	0xbe42c7e3	-0.19021563
48	0xbe8e052c	-0.2773832
49	0xbb118b2b	-0.0022208195
50	0x3cc0c564	0.023531623
51	0xbc052fc7	-0.008129067
52	0xbe9cb3a9	-0.3060582
53	0xbe46afb1	-0.19402958
54	0xbdcacd97	-0.099024944
55	0xbce214da	-0.027597833
56	0xbe785a6a	-0.2425324
57	0xbe1327d6	-0.14370665
58	0x3e8a860e	0.270554
59	0xbd8fb7d4	-0.07017484
60	0xbec08d26	-0.37607688
61	0xbed4f9a5	-0.41596714
62	0xbe7b6e34	-0.24553758
63	0xbe54469b	-0.20730059
64	0xbe82e321	-0.2556391
65	0xbd35e4ba	-0.044407584
66	0x3d6840ba	0.056702353
67	0xbe4264c4	-0.18983752
68	0x3e3350d6	0.17511305
69	0xbe1dcbb7	-0.15409742
70	0xbe194728	-0.1496855
71	0x3d77a1fd	0.06045722
72	0xbe5b615e	-0.21423861
73	0x3b745af7	0.0037285665
74	0x3e019e66	0.1265808
75	0xbe0451db	-0.1292185
76	0x3e091b6d	0.13389368
77	0xbe37d6fe	-0.17953107
78	0xbe1ee193	-0.15515737
79	0xbe1cd128	-0.15314162
80	0xbdf188b8	-0.11793655
81	0xbe217c38	-0.15770042
82	0x3d305143	0.043046247
83	0xbe90d307	-0.28286
84	0xbdc704a8	-0.09717685
85	0xbde01660	-0.10941768
86	0xbdcb9388	-0.09940249
87	0xbe214f6a	-0.1575295
88	0xbe9bd939	-0.30439165
89	0xbe4749fd	-0.19461818
90	0xbe3a7153	-0.18207292
91	0xbea023fb	-0.3127745
92	0xbc1ace34	-0.009448577
93	0xbe3e183d	-0.18563934
94	0xbe695585	-0.2278653
95	0xbe2f4a98	-0.17118299
96	0xbdb0e768	-0.08637887
97	0xbdd9212b	-0.106020294
98	0x3c88b2a8	0.016686752
99	0x3d513c8b	0.05108313
100	0xbd6d860c	-0.057989165
101	0x3caed72a	0.021342833
102	0x3d814455	0.063118614
103	0x3e012f59	0.12615718
104	0x3d8a1aa8	0.067433655
105	0xbd83ac59	-0.06429357
106	0x3da2f0b0	0.07956064
107	0xbd19349d	-0.03740369
108	0xbeb612f7	-0.35561344
109	0xbe040d4a	-0.12895694
110	0xbd81cf5c	-0.06338379
111	0x3cbe3e8c	0.023223184
112	0xbe90a900	-0.28253937
113	0xbe4144a0	-0.18873835
114	0xbe1ff00d	-0.15618916
115	0xbe14f7cc	-0.14547652
116	0xbe0a0740	-0.13479328
117	0xbed49f17	-0.41527626
118	0xbe517d1a	-0.20457879
119	0xbe9c5ad8	-0.30538058
120	0xbe1c68bc	-0.15274328
121	0xbeb2d40e	-0.3492741
122	0xbe15b3e8	-0.1461941
123	0xbcbcae6d	-0.023032391
124	0xbf03b9a9	-0.5145517
125	0xbea8a2a3	-0.32936582
126	0xbe4b24b1	-0.19838215
127	0xbec5c47b	-0.38626465

network_body._body_endoder.seq_layers.2.weight f4 [128, 128]
0	0x3f000e70	0.5002203
1	0x3e4a505e	0.1975722
2	0x3f173933	0.59071654
3	0x3d853a80	0.065052986
4	0x3e674c05	0.22587593
5	0x3ddb9b77	0.10723012
6	0x3d3ef013	0.04661567
7	0x3dea9a4b	0.1145521
8	0xbc48e24c	-0.012260985
9	0xbd859a6c	-0.06523594
10	0x3e252b81	0.16129877
11	0xbd31176e	-0.043235235
12	0x3e0663dc	0.13124031
13	0xbd0c1850	-0.034202874
14	0xbd88b4d3	-0.066751145
15	0x3d8f6025	0.0700076
16	0x3ed64292	0.41847664
17	0xbeb783b0	-0.35842657
18	0xbe84b5e5	-0.25920025
19	0xbc42dd78	-0.011893623
20	0xbd56e969	-0.05246869
21	0x3edf0474	0.43558085
22	0xbdd760e2	-0.10516526
23	0xbd71138e	-0.05885654
24	0xbd7a694e	-0.061135583
25	0x3dd5f05f	0.10446238
26	0x3e2f05d5	0.17092068
27	0x3d937a73	0.0720109
28	0x3f1ba2db	0.6079537
29	0x3ea38fe9	0.31945732
30	0xbc67a196	-0.014137646
31	0x3efe6b7b	0.49691376
32	0x3d1da871	0.038490716
33	0xbe04790e	-0.12936804
34	0xbdb4abde	-0.088218436
35	0xbdd8d5c5	-0.10587648
36	0xbb0b0a91	-0.0021216015
37	0xbe9f6725	-0.3113338
38	0x3ccd5f2c	0.025069796
39	0x3dd4924a	0.10379465
40	0xbda481f3	-0.08032598
41	0x3d53ceed	0.05171101
42	0x3db90ab7	0.09035247
43	0x3f233d87	0.6376576
44	0x3e396486	0.18104753
45	0x3c5facd1	0.0136520425
46	0x3f1cbbab	0.6122386
47	0x3c777016	0.015102407
48	0x3d37783b	0.044792395
49	0x3e2070da	0.1566805
50	0xbe882bbd	-0.2659587
51	0x3d47a30b	0.048739474
52	0xbdce3ff7	-0.10070794
53	0xbe04be3b	-0.12963192
54	0x3cb86176	0.02250741
55	0x3e230979	0.15921582
56	0x3d92ded9	0.07171411
57	0x3d6f099b	0.05835877
58	0xbdf7bbbb	-0.120963536
59	0x3e6616d6	0.22469649
60	0xbc1e5d4a	-0.0096657965
61	0xbd9e45bb	-0.07728144
62	0x3e311d33	0.17296295
63	0xbdfd5e10	-0.123714566
64	0xbe1dc207	-0.15406047
65	0xbd2d6bb9	-0.04233906
66	0x3e5b6440	0.21424961
67	0x3f0b4168	0.54396677
68	0xbd8f8a0f	-0.070087545
69	0x3dbed1ab	0.09317335
70	0x3d81c13c	0.06335685
71	0x3e14e0d2	0.14538887
72	0xbdd86781	-0.10566617
73	0xbca8849b	-0.020571044
74	0xbda7ef64	-0.08199957
75	0xbec14d38	-0.37754226
76	0xbea36f56	-0.3192088
77	0x3f493774	0.7860024
78	0x3d9dbe40	0.07702303
79	0x3da9e1b9	0.08295006
80	0x3b310695	0.002701198
81	0xbc4a9ae9	-0.012366035
82	0xbdfea389	-0.124335356
83	0x3e094b3c	0.13407606
84	0x3ea61411	0.32437184
85	0x3d9b2578	0.07575506
86	0x3e321401	0.17390443
87	0xbd197314	-0.037463263
88	0x3d250144	0.04028441
89	0xbe6a1b07	-0.22861873
90	0x3e28fe54	0.16503268
91	0xbe4d85eb	-0.20070617
92	0x3e9f2bb4	0.3108803
93	0x3e52fe75	0.2060488
94	0x3e41372b	0.18868701
95	0xbdf018e9	-0.11723501
96	0x3e43d9bc	0.19126028
97	0x3e878c69	0.26474312
98	0xbda50665	-0.0805786
99	0x3e22b0dc	0.15887779
100	0xbeaa7ef1	-0.33299974
101	0xbe40b011	-0.18817164
102	0x3d9362f6	0.0719661
103	0x3e22f40e	0.15913412
104	0x3e24b995	0.16086419
105	0x3ed64e85	0.4185678
106	0x3ea178fd	0.3153762
107	0x3cbe5a84	0.02323652
108	0x3d54dbe1	0.051967505
109	0x3dc88ce1	0.097924955
110	0xbe301f78	-0.17199504
111	0xbce30884	-0.027714022
112	0xbee463aa	-0.44607288
113	0x3dd33f03	0.10314753
114	0x3db3b807	0.08775335
115	0x3ef551a9	0.47913864
116	0x3ebae815	0.3650519
117	0x3e239f3c	0.15978712
118	0x3ef8eec3	0.4861966
119	0x3d7feec9	0.062483583
120	0xbdace172	-0.08441438
121	0xbe7bfc61	-0.24607994
122	0x3f28e4ed	0.65974313
123	0xbd917e48	-0.07104164
124	0x3cae9c6e	0.021314826
125	0x3c9f56ab	0.019450506
126	0x3da43a54	0.08018938
127	0xbca3e339	-0.02000581
128	0x3e31c8ac	0.17361706
129	0xbe00aec6	-0.12566671
130	0xbc4da45d	-0.012551394
131	0xbe17ef69	-0.14837421
132	0xbdde4259	-0.108524986
133	0xbeb872c0	-0.36025047
134	0xbde7d630	-0.1132015
135	0xbd8e301e	-0.069427714
136	0xbd18b92a	-0.03728596
137	0x3c1116c8	0.008855529
138	0xbeacd81f	-0.33758637
139	0xbda60b96	-0.081076786
140	0x3d78f40f	0.060779627
141	0x3d8820cf	0.06646883
142	0x3e075189	0.13214697
143	0xbd663901	-0.056206707
144	0xbda9079b	-0.08253404
145	0xbe3eacb8	-0.18620574
146	0xbceaaeb4	-0.028647758
147	0xb89e99c8	-7.562671e-05
148	0x3df05aca	0.11736067
149	0x3dddb824	0.10826138
150	0xbe3ae345	-0.18250759
151	0x3e519686	0.20467576
152	0xbd9e4e48	-0.07729775
153	0xbbbee977	-0.005826171
154	0x3e0314a4	0.12800843
155	0xbed40e07	-0.41416952
156	0xbe19805e	-0.14990374
157	0xbe053f58	-0.13012445
158	0xbe4c0303	-0.19923024
159	0x3e17b538	0.14815223
160	0xbdf69042	-0.12039234
161	0xbd49c4ce	-0.049259953
162	0xbbc3bb98	-0.0059732907
163	0xbe0e4bfe	-0.13896176
164	0xbe89923c	-0.2686938
165	0x3d967680	0.07346821
166	0x3d0e790f	0.03478342
167	0x3d66bde2	0.05633343
168	0x3d32e138	0.043671817
169	0xbe983ded	-0.29734746
170	0xbe67a51b	-0.22621576
171	0x3e474b82	0.19462398
172	0xbb651ccc	-0.0034959791
173	0xbd6e6264	-0.0581993
174	0xbddba7c4	-0.10725358
175	0xbcc58d47	-0.024115218
176	0xbd1125d2	-0.03543646
177	0xbda6cc8f	-0.08144485
178	0x3c2bd2fd	0.010487315
179	0xbea8514a	-0.3287452
180	0x3c9f04b2	0.019411419
181	0xbd16be65	-0.036802668
182	0x3dccf433	0.10007515
183	0x3e39ab06	0.18131647
184	0xbd5c4970	-0.053780973
185	0x3d907cff	0.07055091
186	0xbe077d36	-0.13231358
187	0xbe174c10	-0.1477511
188	0xbeb994af	-0.3624625
189	0x3b81914d	0.003954089
190	0x3e67560b	0.22591417
191	0xbe639eb1	-0.22228505
192	0x3d939e07	0.07207876
193	0xbe480c08	-0.1953584
194	0xbd497dd6	-0.049192272
195	0x3de73881	0.11290074
196	0xbe87b817	-0.26507637
197	0x3d8f4776	0.06996052
198	0xbcb45fc7	-0.022018326
199	0xbdc3aec3	-0.095548175
200	0xbdd2f9b2	-0.10301532
201	0xbd99c132	-0.07507552
202	0x3d4ffa68	0.050775915
203	0x3d73d9c6	0.059533857
204	0xbe11d5db	-0.14241736
205	0xbe450da6	-0.19243488
206	0xbcf97912	-0.030453239
207	0x3e1fcc27	0.15605222
208	0xbdce6c50	-0.10079253
209	0xbdab8e61	-0.08376766
210	0xbdcd6efb	-0.100309335
211	0xbcc7d8ae	-0.024395313
212	0xbdbf3959	-0.0933711
213	0xbe9da83d	-0.30792418
214	0xbd9cc89c	-0.07655451
215	0x3dc15111	0.0943929
216	0xbcb50172	-0.022095416
217	0xbc9f7409	-0.01946451
218	0x3d860a0f	0.06544887
219	0xbdb76717	-0.0895521
220	0xbd317575	-0.043324906
221	0xbe06bec3	-0.13158707
222	0xbe0af8e5	-0.13571508
223	0xbe080c02	-0.1328583
224	0xbd1df7c8	-0.03856638
225	0x3e1cca15	0.15311463
226	0x3cbef6ce	0.023311045
227	0xbd88f006	-0.06686406
228	0x3ea30d25	0.31845966
229	0xbd063984	-0.032769695
230	0xbd802e7c	-0.06258866
231	0xbd30d5fc	-0.04317282
232	0x3d1dc841	0.038521055
233	0xbdb10256	-0.08643024
234	0x3d11edbb	0.035627108
235	0x3e1dd513	0.15413313
236	0x3e78cd12	0.24296978
237	0x3b09889d	0.002098597
238	0x3d235829	0.039878998
239	0x3df0bd71	0.11754883
240	0xbdfc9c1a	-0.123344615
241	0x3df89f8e	0.12139808
242	0xbd2fab24	-0.04288782
243	0xbde42dc1	-0.11141539
244	0xbae00c1b	-0.0017093451
245	0xbdc03723	-0.093855165
246	0xbce5c754	-0.028049149
247	0xbe373a62	-0.17893365
248	0xbde55f3b	-0.111998044
249	0xbe93b7c8	-0.2885115
250	0xbd8c1441	-0.068398006
251	0xbddf3e7d	-0.109005906
252	0x3e1f2b17	0.15543781
253	0xbdde1fa4	-0.10845879
254	0xbcbe4693	-0.023227012
255	0x3e52c717	0.20583759
