VirtualAquarium/results/VirtualAquarium/VirtualAquarium/VirtualAquarium-3999983.onnx (onnx, 75037 bytes, 7 tensors)

action_model._continuous_distribution.log_sigma f4 [1, 4]
-2.5801473 -1.9466763 -1.5755107 -1.3535569
00000000: 2221 25c0 b02c f9bf 56aa c9bf 5a41 adbf

action_model._continuous_distribution.mu.bias f4 [4]
0.34980834 -0.13581674 0.3899691 -0.14084435
00000000: 141a b33e 8b13 0bbe 08aa c73e 8039 10be

action_model._continuous_distribution.mu.weight f4 [4, 128]
-0.02688709 -0.045199156 -0.03533181 -0.020823939 0.04387317 -0.031936694 0.0008270404 -0.03625364
0.024972646 -0.03354121 -0.051040318 -0.03881408 0.002568986 -0.072999895 -0.01812579 0.009848726
-0.08730948 -0.10792187 -0.04019944 0.007713859 0.04464053 -0.055035137 0.05369555 0.0753227
-0.032521073 0.003909169 0.06601139 -0.024157645 -0.032069713 0.020116854 -0.03371911 -0.037342116
0.006448927 -0.024400974 0.08172664 -0.09688908 -0.013428133 0.009285114 0.014196282 -0.039480835
-0.04161873 -0.17392358 -0.035999674 -0.038261678 0.10289317 0.070482716 0.017716894 -0.020764036
0.039712515 0.0044597685 0.057259984 -0.10189746 -0.10618678 -0.045714624 -0.12503105 0.058276385
-0.048608996 -0.015876265 -0.08633858 0.07551782 0.05473629 0.13116315 -0.057166733 -0.05185723
-0.039947674 -0.06660595 -0.0019779752 0.019641342 0.0138579095 0.13475558 -0.061419707 -0.050543766
0.06664596 0.013229393 -0.05782223 -0.059932094 0.069462046 -0.016597345 -0.007088111 0.025265273
0.031728256 -0.017562905 0.033276334 -0.08617221 -0.06499748 -0.04550808 -0.010510356 -0.02018375
-0.10760725 0.163566 0.017813422 0.10606588 0.050236855 -0.029056648 0.024812602 0.01947183
-0.03007215 -0.08311744 0.024368139 -0.07297307 -0.018964589 0.023738518 -0.14501959 0.012063441
-0.036378894 -0.08435286 -0.12923208 -0.043069895 0.13804184 0.020819753 -0.033498794 0.06036487
-0.036508735 0.0091127185 -0.0028011724 0.02347681 0.027340509 0.032320768 -0.06194517 -0.011950263
-0.068484 0.0016631559 -0.071625404 0.04186309 -0.15089506 -0.10031003 -0.027823398 -0.07145635
-0.048156228 -0.06447163 -0.012532587 0.014054459 -0.078870386 0.0062168273 -0.08542941 -0.11920038
-0.1727836 -0.07861526 -0.13959779 -0.11170222 -0.021309765 -0.102575816 -0.04480765 0.06024115
0.07386977 -0.06601354 0.017451184 0.18292205 0.0891524 -0.04143031 -0.0069007007 -0.039506555
0.026208032 -0.17937267 0.12555562 -0.1221761 0.12279521 0.18205105 0.0123584615 -0.12224025
-0.08308006 0.02419162 -0.14724416 -0.011682829 0.011095963 0.108715326 -0.062205557 0.01611912
0.058149204 -0.019807655 -0.024839237 -0.023869839 0.044610035 -0.18798727 -0.1335472 -0.17365645
0.2163306 0.09251588 -0.06358746 0.054090407 -0.19241917 -0.088765904 -0.01699587 -0.14867719
-0.06361913 0.07885679 -5.8156643e-06 -0.10163189 0.12275189 0.028229084 -0.089460984 0.1391949
-0.026940927 -0.024543019 -0.1129449 -0.056459963 -0.09350221 0.16548234 -0.042652186 -0.19545163
-0.05910969 -0.09108051 -0.14075756 -0.122902945 -0.15050322 -0.10541982 -0.015925305 -0.28200704
-0.06565165 -0.040894125 0.13825537 0.08472475 -0.2112058 -0.02572302 -0.10876593 0.019027693
-0.06612929 -0.13328521 -0.10392944 -0.10723891 0.118555665 -0.09941051 -0.020650813 -0.22765216
0.07271919 0.12289109 0.034258157 -0.020079492 0.046045557 -0.029091269 -0.109201044 -0.13804634
0.04274901 -0.1691894 -0.109812185 0.024323411 -0.13881737 0.086730964 0.03597171 -0.118912086
-0.21100776 -0.058631275 -0.11774514 -0.02563547 0.00924794 -0.12227223 -0.14113894 -0.015911454
0.029961387 -0.111587085 -0.118766345 -0.09159925 -0.18217574 0.16009681 -0.19375539 0.0017283052
00000000: 5142 dcbc c022 39bd 17b8 10bd f796 aabc
00000010: 5ab4 333d 0dd0 02bd becd 583a b27e 14bd
00000020: 6f93 cc3c 8262 09bd a70f 51bd 83fb 1ebd
00000030: 6f5c 283b f880 95bd 897c 94bc 8d5c 213c
00000040: 50cf b2bd 2406 ddbd 2ba8 24bd 8ac4 fc3b
00000050: fdd8 363d 866c 61bd ddef 5b3d ca42 9a3d
00000060: d134 05bd 7d18 803b fb30 873d 41e6 c5bc
00000070: 885b 03bd 1acc a43c 0d1d 0abd 0cf4 18bd
00000080: 8551 d33b 8de4 c7bc 4c60 a73d c86d c6bd
00000090: ac01 5cbc 9720 183c 8697 683c a8b6 21bd
000000a0: 6778 2abd 0619 32be 6574 13bd 47b8 1cbd
000000b0: a8b9 d23d 3e59 903d 0523 913c 5719 aabc
000000c0: 97a9 223d 4023 923b 7289 6a3d 9eaf d0bd
000000d0: 7478 d9bd 423f 3bbd 2408 00be 38b3 6e3d
000000e0: 3a1a 47bd f10e 82bc 48d2 b0bd 16a9 9a3d
000000f0: 2933 603d a24f 063e aa27 6abd 3f68 54bd
00000100: 2ca0 23bd b368 88bd eba0 01bb e1e6 a03c
00000110: 490c 633c 5efd 093e 3b93 7bbd fb06 4fbd
00000120: ad7d 883d 19c0 583c 01d7 6cbd 5b7b 75bd
00000130: 1e42 8e3d 28f7 87bc 6243 e8bb 1ef9 ce3c
00000140: 7df5 013d 15e0 8fbc c44c 083d 0e7b b0bd
00000150: 661d 85bd ae66 3abd a133 2cbc 6458 a5bc
00000160: 3161 dcbd d87d 273e 74ed 913c 1139 d93d
00000170: 29c5 4d3d 3508 eebc cc43 cb3c 6383 9f3c
00000180: df59 f6bc 7a39 aabd b19f c73c e872 95bd
00000190: a05b 9bbc 4877 c23c 0480 14be bda5 453c
000001a0: 0902 15bd 31c1 acbd 6a55 04be 0f6a 30bd
000001b0: d75a 0d3e 308e aa3c 0836 09bd 2741 773d
000001c0: 2f8a 15bd 834d 153c e093 37bb 7052 c03c
000001d0: 34f9 df3c c862 043d 38ba 7dbd 09cb 43bc
000001e0: 5741 8cbd 40fe d93a 57b0 92bd a278 2b3d
000001f0: 3c84 1abe 586f cdbd e5ed e3bc b557 92bd
00000200: 773f 45bd b409 84bd 7b55 4dbc ac44 663c
00000210: cc86 a1bd 87b6 cb3b 9df5 aebd 541f f4bd
00000220: 2fee 30be 0a01 a1bd b9f2 0ebe 22c4 e4bd
00000230: d191 aebc 4513 d2bd 3a88 37bd 6dbf 763d
00000240: 0949 973d 1b32 87bd c9f5 8e3c eb4f 3b3e
00000250: 8995 b63d d4b2 29bd 461f e2bb a0d1 21bd
00000260: 3ab2 d63c 78ad 37be a791 003e 7737 fabd
00000270: 0e7c fb3d 976b 3a3e 257b 4a3c 1959 fabd
00000280: e125 aabd 812d c63c 2cc7 16be 5669 3fbc
00000290: d8cb 353c 24a6 de3d 41cb 7ebd 3f0c 843c
000002a0: dc2d 6e3d aa43 a2bc a87b cbbc ae8a c3bc
000002b0: 03b9 363d bc7f 40be 99c0 08be ffd2 31be
000002c0: c585 5d3e f778 bd3d 243a 82bd e78d 5d3d
000002d0: 8809 45be e6ca b5bd ec3a 8bbc d53e 18be
000002e0: bf4a 82bd ab7f a13d 2d24 c3b6 6124 d0bd
000002f0: 5865 fb3d ae40 e73c 5237 b7bd 1c89 0e3e
00000300: 38b3 dcbc 710e c9bc a84f e7bd 9042 67bd
00000310: 167e bfbd 3474 293e 0fb4 2ebd 7924 48be
00000320: 011d 72bd 6b88 babd c022 10be 8ab4 fbbd
00000330: 841d 1abe 59e6 d7bd c975 82bc 3a63 90be
00000340: 5f74 86bd 9980 27bd d192 0d3e 2b84 ad3d
00000350: 5546 58be 15b9 d2bc acc0 debd f7df 9b3c
00000360: cb6e 87bd eb7b 08be f5d8 d4bd 13a0 dbbd
00000370: 50cd f23d bd97 cbbd e52b a9bc a61d 69be
00000380: cced 943d 53ae fb3d 4852 0c3d bf7d a4bc
00000390: 449a 3c3d d050 eebc cca4 dfbd 055c 0dbe
000003a0: 9619 2f3d fc3f 2dbe 36e5 e0bd e441 c73c
000003b0: 2426 0ebe 01a0 b13d 1257 133d 2e88 f3bd
000003c0: 6b12 58be 5927 70bd 5d24 f1bd 7a01 d2bc
000003d0: ac84 173c dd69 fabd ba86 10be bd58 82bc
000003e0: 9571 f53c c587 e4bd c53b f3bd 6398 bbbd
000003f0: 478c 3abe 6bf0 233e d067 46be 4d88 e23a

network_body._body_endoder.seq_layers.0.bias f4 [128]
-0.13241449 -0.3478062 -0.09378511 0.0027934858 0.045875855 -0.1640981 -0.076171 -0.28899458
-0.056414053 -0.16776016 -0.2571714 -0.13948819 -0.20942378 0.09378528 -0.20059772 -0.1460107
-0.24871108 -0.0015713753 -0.27971044 -0.34831247 0.08851398 -0.13449219 0.02634812 -0.039849035
-0.18268684 -0.07397555 -0.147844 0.042661604 -0.31392458 -0.11343424 0.07485101 -0.10803042
-0.2677974 0.16803724 -0.007971103 -0.043437485 -0.1961991 -0.093892194 -0.15283717 -0.0684513
-0.31704256 -0.064607315 -0.2614941 -0.01979173 -0.28035554 -0.23432337 -0.24517514 -0.071217604
-0.118980385 -0.1460586 -0.17217997 -0.2661117 0.08572702 -0.23431864 -0.39885288 -0.020308213
-0.38901716 -0.019915966 -0.21383531 -0.31930628 0.07692811 -0.3416053 -0.083003424 0.1676194
-0.56126606 -0.095646456 -0.019676927 -0.05753854 -0.21220472 -0.025251737 0.036291413 -0.0883129
-0.016696228 -0.27386287 -0.32917917 -0.11451844 0.14071694 3.7015417e-07 -0.04877483 0.061747324
-0.22115453 -0.3601485 -0.24981293 -0.3163648 -0.15873714 -0.27343175 -0.24288684 -0.009310045
-0.2537088 -0.21605127 -0.47868055 -0.07397535 -0.017114075 0.13436092 -0.09215854 -0.1428177
-0.1358103 -0.30873215 -0.3687893 -0.13114202 -0.13092962 0.07208888 -0.01990418 -0.08939925
-0.07620746 0.04033662 0.082009904 -0.24702351 -0.10582242 0.016700136 -0.08711172 -0.044729758
-0.12967652 -0.13156658 -0.16849732 -0.11762425 -0.25145853 0.10773983 0.003868372 -0.05487109
-0.06781218 -0.2527303 -0.04926023 -0.3207946 -0.10379907 -0.21555448 0.12657018 0.028457414
00000000: aa97 07be a713 b2be 6812 c0bd ea12 373b
00000010: 52e8 3b3d 5509 28be 8bff 9bbd 19f7 93be
00000020: 6c12 67bd 52c9 2bbe f8ab 83be fed5 0ebe
00000030: 3073 56be 7f12 c03d 7d69 4dbe d483 15be
00000040: 1eae 7ebe 9bf6 cdba 3536 8fbe 0356 b2be
00000050: d146 b53d 52b8 09be 03d8 d73c be38 23bd
00000060: 4212 3bbe 7e80 97bd 6b64 17be efbd 2e3d
00000070: b9ba a0be 3650 e8bd 7d4b 993d 0e3f ddbd
00000080: be1c 89be f411 2c3e 3b99 02bc 81eb 31bd
00000090: 6be8 48be 8d4a c0bd 5981 1cbe 3230 8cbd
000000a0: 6753 a2be d750 84bd 8ee2 85be 4422 a2bc
000000b0: c38a 8fbe 77f2 6fbe 310f 7bbe 89da 91bd
000000c0: fdab f3bd 6390 15be f24f 30be cb3f 88be
000000d0: a691 af3d 3af1 6fbe 7236 ccbe 695d a6bc
000000e0: 422d c7be cf26 a3bc a5f7 5abe 1d7c a3be
000000f0: 7c8c 9d3d e4e6 aebe b3fd a9bd 6ca4 2b3e
00000100: 22af 0fbf 4ae2 c3bd 8231 a1bc 88ad 6bbd
00000110: 324c 59be bbdc cebc 4ea6 143d 65dd b4bd
00000120: 87c6 88bc c137 8cbe 2c8a a8be a588 eabd
00000130: 1a18 103e 9ab9 c634 1ec8 47bd c3ea 7c3d
00000140: 5576 62be 6265 b8be f6ce 7fbe 91fa a1be
00000150: fd8b 22be 3fff 8bbe 54b7 78be 2989 18bc
00000160: 1fe6 81be 8b3c 5dbe 9e15 f5be 6380 97bd
00000170: d132 8cbc e995 093e 9ebd bcbd ce3e 12be
00000180: db11 0bbe 2412 9ebe f3d1 bcbe 184a 06be
00000190: 6a12 06be 56a3 933d 170e a3bc f416 b7bd
000001a0: a812 9cbd 0338 253d cff4 a73d bbf3 7cbe
000001b0: 6db9 d8bd b9ce 883c a167 b2bd 8d36 37bd
000001c0: ecc9 04be 64b9 06be 908a 2cbe fce4 f0bd
000001d0: 2cbf 80be b3a6 dc3d 8384 7d3b 82c0 60bd
000001e0: 1de1 8abd de65 81be 18c5 49bd 313f a4be
000001f0: 9b94 d4bd 50ba 5cbe 9d9b 013e 861f e93c

network_body._body_endoder.seq_layers.0.weight f4 [128, 9]
0.3810578 0.061447192 0.4523581 0.049390163 -0.048225913 -0.62082076 -0.33228436 -0.74201405
-0.12198319 -0.39765725 -0.40245536 0.07510943 0.058101095 0.2558248 -0.3589624 0.28552613
-0.108825706 -0.012508838 -0.15442228 0.027300745 -0.29246905 -0.3520252 0.32906002 -0.20759225
0.3440146 -0.80920637 -0.8142062 -0.09510739 -0.3195704 -0.19733725 0.057217635 0.11690892
-0.0045996453 0.2750678 -0.61078423 0.158978 0.13176301 0.15357137 0.102898866 0.08538719
-0.34330317 0.1992918 -0.22307101 0.031429853 -0.516679 -0.027106436 0.37857693 0.20189059
-0.42567194 0.034868836 0.48044395 0.03364195 -0.3955013 -0.06525135 -0.41563118 -0.017371166
-0.10178221 0.2920297 -0.034173325 -0.3828006 -0.3482823 -0.7264485 -0.6320963 0.044929393
0.11362596 -0.8846438 -0.56840587 -0.32692868 0.14684668 -0.037032295 -0.62187105 0.007306245
-0.08344817 0.57182026 -0.05228026 -0.8709581 -0.36359584 -0.16829403 0.0044497526 -0.37969407
-0.31321585 -0.18831882 -0.098101355 -0.24646847 -0.024042035 -0.3560802 -0.08935596 -0.2736018
-0.4682352 -0.27319345 -0.06700565 -0.20994747 0.018076094 -0.6248917 0.35721266 -0.3992253
0.008513175 -0.3211276 -0.53848356 -0.36456937 0.4550948 -0.6827402 -0.22434717 0.33352995
0.33461237 -0.4924261 -0.165823 0.42153573 -0.049343426 0.6317463 0.30433342 0.22698869
0.3423738 -0.24620032 -0.1300601 0.009410532 -0.8689783 0.1850754 0.23400816 0.28082332
0.54151285 -0.63847303 0.15338174 0.14889981 -0.35864234 -0.35102355 0.018384796 -0.19228251
-0.7008207 0.37667474 0.024536988 -0.993366 -0.7300225 -0.51647705 -0.3664427 -0.8122545
0.5307306 -0.3144205 0.35792208 0.41112855 0.0014596467 0.27466977 0.17727944 0.069595955
0.10287557 -0.09971383 -0.1489544 -0.32693133 0.04479096 -0.44241208 0.41776454 -0.14065835
0.039260916 0.13081188 -0.011981375 -0.12939496 0.4234212 -0.26103073 0.09651342 0.0285338
-0.22346725 -0.2944625 0.012782747 -0.11650868 -0.22872576 -0.2887649 0.19538334 -0.038319234
0.49810442 -0.28906158 0.4118671 0.14835668 0.0654463 0.22289859 0.4614275 0.027456542
-0.29771313 0.14151643 -0.22253829 -0.80251414 -0.0009924195 -0.76526225 0.25647932 0.5309402
-0.27162552 0.27722797 0.25117996 -0.27231959 -0.21006426 0.48257658 0.34571132 -0.25990438
0.3037015 0.11217337 -0.073892616 -0.011405939 -0.21371055 0.22717465 0.3191023 -0.9793632
0.05178835 0.047121577 0.0305464 0.15518405 0.27456695 -0.40906477 -0.1277629 -0.2999946
-0.97740966 -0.2794826 0.072806485 0.26758638 0.09777494 0.41838938 0.27378112 -0.1335739
0.3032707 0.454285 0.06302294 -0.1737348 -0.1628312 -0.10871363 0.043804716 -0.41996664
-0.11281545 -0.10670828 -0.3617239 -0.10957535 -0.11841871 -0.3600526 -0.59910136 0.06771848
-0.657983 0.16514637 -0.7029249 -0.37565842 -0.14597279 -0.517146 0.0397857 -0.31147736
-0.3208326 -0.59348875 0.27919215 0.042653937 0.28977334 0.09766632 0.2450874 0.00045994655
-0.20648666 0.046294637 0.046069667 -0.77334213 -0.35746172 0.15258896 -0.5751556 -0.3555532
00000000: 021a c33e 0db0 7b3d 7b9b e73e 574d 4a3d
00000010: 8988 45bd 1cee 1ebf 2d21 aabe a2f4 3dbf
00000020: 53d2 f9bd bb99 cbbe a10e cebe f9d2 993d
00000030: 6afb 6d3d 78fb 823e ebc9 b7be 7b30 923e
00000040: 03e0 debd dff1 4cbc e020 1ebe d0a5 df3c
00000050: 81be 95be a63c b4be 8e7a a83e 1093 54be
00000060: af22 b03e 2628 4fbf d16f 50bf aac7 c2bd
00000070: bb9e a3be c712 4abe 0a5d 6a3d f26d ef3d
00000080: 9fb8 96bb b0d5 8c3e 5b5c 1cbf 21cb 223e
00000090: e2ec 063e d041 1d3e a4bc d23d 7bdf ae3d
000000a0: 6fc5 afbe 2613 4c3e ba6c 64be 97bc 003d
000000b0: 1345 04bf 510e debc d6d4 c13e 68bc 4e3e
000000c0: acf1 d9be a0d2 0e3d c0fc f53e 24cc 093d
000000d0: 257f cabe 80a2 85bd 9ccd d4be fa4d 8ebc
000000e0: 3173 d0bd eb84 953e 54f9 0bbd 71fe c3be
000000f0: 0f52 b2be 87f8 39bf 10d1 21bf e207 383d
00000100: bab4 e83d 0478 62bf 0c83 11bf 3263 a7be
00000110: fa5e 163e 2daf 17bd f132 1fbf 3a69 ef3b
00000120: e0e6 aabd d062 123f d323 56bd 1cf7 5ebf
00000130: 3c29 babe 4555 2cbe 3bcf 913b 4367 c2be
00000140: d45d a0be a6d6 40be 5de9 c8bd 3b62 7cbe
00000150: cdf3 c4bc 2550 b6be 4200 b7bd 8915 8cbe
00000160: 86bc efbe 03e0 8bbe 423a 89bd 78fc 56be
00000170: 5114 943c e7f8 1fbf 94e4 b63e 4267 ccbe
00000180: d87a 0b3c d66a a4be 0fda 09bf d6a8 babe
00000190: 3002 e93e 10c8 2ebf 44bb 65be 70c4 aa3e
000001a0: 5052 ab3e 461f fcbe 81cd 29be 88d3 d73e
000001b0: 551c 4abd 20ba 213f 97d1 9b3e b96f 683e
000001c0: 9e4b af3e f01b 7cbe 7a2e 05be a22e 1a3c
000001d0: 5d75 5ebf 6884 3d3e d69f 6f3e 13c8 8f3e
000001e0: 96a0 0a3f f872 23bf 1a10 1d3e 3179 183e
000001f0: f89f b7be 5cb9 b3be b69b 963c b5e5 44be
00000200: fc68 33bf 83db c03e cb01 c93c 3c4d 7ebf
00000210: c1e2 3abf d737 04bf 619e bbbe e9ef 4fbf
00000220: f6dd 073f b9fb a0be 9041 b73e 717f d23e
00000230: 9e51 bf3a 84a1 8c3e be88 353e 5388 8e3d
00000240: 6db0 d23d c436 ccbd 8187 18be 8b63 a7be
00000250: ba76 373d d683 e2be 3ce5 d53e be08 10be
00000260: 0ed0 203d 8df3 053e 874d 44bc 1d80 04be
00000270: aaca d83e d2a5 85be d4a8 c53d b7bf e93c
00000280: 99d4 64be cac3 96be ba6e 513c 1a9c eebd
00000290: 1637 6abe fed8 93be 9212 483e a1f4 1cbd
000002a0: 8b07 ff3e e1ff 93be 3fe0 d23e d0ea 173e
000002b0: b608 863d 873f 643e 3a40 ec3e 8bec e03c
000002c0: db6d 98be afe9 103e 14e1 63be 9171 4dbf
000002d0: 1314 82ba 3ae8 43bf 4251 833e b2eb 073f
000002e0: 8012 8bbe d3f0 8d3e a99a 803e 796d 8bbe
000002f0: 161b 57be 4714 f73e 1301 b13e 3012 85be
00000300: c37e 9b3e 27bb e53d 0355 97bd fadf 3abc
00000310: f0d6 5abe 79a0 683e 6061 a33e 8cb7 7abf
00000320: 0520 543d 8e02 413d 723c fa3c 91e8 1e3e
00000330: 0a94 8c3e f070 d1be 47d4 02be e498 99be
00000340: 8537 7abf 5818 8fbe 911b 953d 1501 893e
00000350: 3a3e c83d 2237 d63e 0a2d 8c3e 99c7 08be
00000360: 4c46 9b3e 0b98 e83e 2c12 813d 89e7 31be
00000370: 39bd 26be 40a5 debd 936c 333d de05 d7be
00000380: c90b e7bd df89 dabd e033 b9be 0b69 e0bd
00000390: 8285 f2bd d058 b8be b55e 19bf fdaf 8a3d
000003a0: 9371 28bf 211c 293e e3f2 33bf 4d56 c0be
000003b0: e479 15be ae63 04bf 55f6 223d f679 9fbe
000003c0: 2c44 a4be e1ee 17bf 46f2 8e3e e5b5 2e3d
000003d0: 2c5d 943e 4805 c83d 31f8 7a3e fb24 f139
000003e0: 3d71 53be 729f 3d3d 8cb3 3c3d c0f9 45bf
000003f0: 3905 b7be 4840 1c3e 663d 13bf 120b b6be

network_body._body_endoder.seq_layers.2.bias f4 [128]
-0.52678806 -0.3377549 -0.5849353 -0.26346144 -0.08417605 -0.07248005 -0.2391809 -0.17151958
-0.12262064 -0.23938602 -0.048603944 -0.23323892 -0.19737808 -0.3443482 0.043421444 0.038025327
-0.25714698 -0.1068676 -0.4254449 -0.21261209 -0.061048683 -0.30779582 0.003850911 -0.053228233
-0.49440235 -0.21195996 -0.17763911 -0.19565344 0.030609028 -0.16544636 -0.25969914 -0.2585957
-0.17978291 -0.23580013 -0.025682233 -0.24537899 -0.13535719 -0.26671907 -0.1637911 -0.35860416
-0.24037975 -0.20730807 -0.12943915 -0.45455843 -0.103951685 -0.024695687 -0.08177048 -0.22405152
-0.035172038 -0.14050196 -0.13484263 -0.1519557 -0.31914976 -0.18282752 -0.27714944 -0.018240495
-0.3735861 -0.24153133 -0.4373589 -0.15616821 -0.17308483 0.011420419 -0.2574869 -0.22784992
-0.51130706 -0.34345984 -0.0994666 -0.38458166 -0.09181931 0.18031433 -0.2854982 -0.25989875
-0.05384848 -0.35653406 -0.17872988 -0.33960977 -0.001898976 -0.16480137 -0.22296798 0.024688454
-0.049943455 -0.3283956 -0.14804798 -0.14494713 -0.18458836 -0.4143125 -0.1158495 -0.3132302
-0.31641755 0.09712834 -0.198786 -0.039411522 -0.06669975 -0.484275 -0.36500764 -0.16666272
0.042434886 -0.18233679 -0.12235383 -0.15080436 -0.26412043 -0.20758758 -0.18558262 -0.16710405
-0.1962731 -0.0969341 -0.31626898 -0.45987573 0.11847697 -0.028955018 -0.41226682 -0.3133792
-0.040122185 -0.21596314 -0.13621975 -0.09487752 -0.2575444 -0.019962 -0.14401709 -0.40400064
-0.5675038 -0.09147558 -0.31473044 -0.17314334 -0.14781775 -0.14561515 -0.379182 -0.5203328
00000000: 95db 06bf 36ee acbe 52be 15bf 6be4 86be
00000010: 7e64 acbd 6c70 94bd d6eb 74be d4a2 2fbe
00000020: 8820 fbbd 9c21 75be ee14 47bd 2fd6 6ebe
00000030: 7b1d 4abe 684e b0be afda 313d 72c0 1b3d
00000040: c5a8 83be 66dd dabd ead3 d9be fcb6 59be
00000050: 2f0e 7abd 6a97 9dbe 915f 7c3b d905 5abd
00000060: 4e22 fdbe 080c 59be 07e7 35be 6059 48be
00000070: c9bf fa3c c56a 29be 49f7 84be a866 84be
00000080: 0319 38be 9775 71be 8c63 d2bc a144 7bbe
00000090: 139b 0abe 678f 88be dbb8 27be f79a b7be
000000a0: 1c26 76be 9148 54be b28b 04be e2bb e8be
000000b0: 9fe4 d4bd 9c4e cabc 4877 a7bd c36d 65be
000000c0: 8e10 10bd bfdf 0fbe 3014 0abe 469a 1bbe
000000d0: 9967 a3be 2337 3bbe 88e6 8dbe 176d 95bc
000000e0: ad46 bfbe fd53 77be 81ed dfbe 8fea 1fbe
000000f0: 263d 31be b61c 3b3c 53d5 83be 7d51 69be
00000100: 05e5 02bf f8d9 afbe 25b5 cbbd e3e7 c4be
00000110: c30b bcbd 52a4 383e d22c 92be 7311 85be
00000120: 3990 5cbd a28b b6be f704 37be 55e1 adbe
00000130: 10e7 f8ba b1c1 28be b851 64be 713f ca3c
00000140: 8291 4cbd 7823 a8be e499 17be 056d 14be
00000150: bb04 3dbe c520 d4be 8142 edbd b55f a0be
00000160: 7b01 a2be 39eb c63d 8f8e 4bbe fa6d 21bd
00000170: e199 88bd e5f2 f7be 48e2 babe a2a9 2abe
00000180: 34d0 2d3d 7fb6 3abe a594 fabd 756c 1abe
00000190: cb3a 87be d791 54be 5f09 3ebe 531d 2bbe
000001a0: d1fb 48be 6385 c6bd 02ee a1be d574 ebbe
000001b0: 0ea4 f23d 1333 edbc a314 d3be 3d73 a0be
000001c0: 2957 24bd 7125 5dbe 317d 0bbe 254f c2bd
000001d0: dcdc 83be 5987 a3bc 3779 13be 2cd9 cebe
000001e0: ee47 11bf 8d57 bbbd 5924 a1be 7d4c 31be
000001f0: 895d 17be 231c 15be 2524 c2be 8834 05bf

network_body._body_endoder.seq_layers.2.weight f4 [128, 128]
-0.19390576 -0.26259783 0.11390521 0.26170552 -0.04061785 0.10870322 -0.1715669 0.18213879
0.44106182 0.07339829 -0.28016898 -0.16245645 -0.2137865 -0.092845835 0.02382938 -0.43738934
-0.18752785 0.09156675 0.15780857 -0.2920875 -0.1220412 -0.21301161 -0.002181815 -0.26420498
0.20264912 -0.08351281 0.021372866 -0.2476827 -0.04790637 0.061493035 -0.41380778 -0.43634534
0.08950223 -0.2600795 0.21496026 -0.16474926 0.4821698 -0.14567272 0.2228171 -0.35424384
0.20068558 0.228891 -0.31001702 0.19152266 0.086078495 0.011106606 0.1887549 -0.05809777
0.06981723 0.14479735 0.09802214 0.03551943 -0.19249468 -0.15649056 0.24323173 -0.18308504
0.34154123 -0.25150698 -0.06266142 -0.08172144 -0.3580801 0.027387593 0.2756612 -0.08152466
0.37514898 0.12231688 -0.108737744 -0.29364458 0.062997885 -0.14717062 0.07786468 -0.43111393
-0.24968892 0.36908737 0.17441131 0.07862538 -0.27922615 0.14454103 0.049511533 -0.33136487
-0.22747454 -0.015798716 0.071556136 -0.2063605 -0.27982444 -0.0072001307 0.055656075 -0.1372791
-0.20396557 -0.24980436 -0.065875694 0.14323552 -0.10353637 -0.12011439 0.15230526 0.020190401
0.14623326 0.17632785 0.15834522 -0.19099668 -0.08932663 -0.03511129 -0.39675757 -0.25726366
-0.08643927 -0.35791838 0.3745777 -0.043138783 -0.083822004 0.27447322 -0.1050195 -0.43431222
-0.18052813 -0.008537025 -0.14755924 -0.25953388 -0.009793981 -0.10475557 -0.165982 -0.23245785
0.3157392 -0.13515507 0.050450854 0.10436107 -0.19705935 -0.18393545 0.14572732 -0.40809697
0.03742922 -0.08337582 -0.08013373 0.00572772 -0.14798889 0.21222505 -0.14669357 0.33877432
0.42441353 0.07104959 0.04374239 -0.23547962 -0.037601992 -0.38033023 0.12998736 -0.31353742
-0.040142484 -0.06763809 -0.103077956 -0.11609599 -0.049142998 -0.16797903 -0.12913968 -0.13181512
-0.12040632 -0.1107321 -0.11047827 -0.003422444 0.06066089 -0.22689423 -0.3818 0.0636745
0.1132737 -0.37763554 -0.14937921 -0.1989711 -0.0070877825 -0.24120095 0.33190945 -0.1582629
0.20957933 0.26735583 -0.05092144 -0.029971346 0.1307329 0.09855598 0.09858009 -0.18330553
0.2672537 0.21560618 0.24259736 0.0024681443 -0.3464921 -0.25611225 0.2421181 -0.13898008
0.026801607 -0.28937256 -0.07523258 -0.037029665 -0.09521161 -0.08665662 0.055171907 0.061976988
0.09851925 -0.10464975 -0.0332459 0.032450695 0.08274965 -0.47367415 0.08606592 -0.032094266
0.07944931 0.12343033 0.052579466 -0.0070771645 -0.044118524 -0.058587063 -0.06302253 -0.13085508
0.003501844 -0.07186386 -0.030505119 0.10805615 -0.26490718 0.05691898 0.14785117 -0.09516205
0.13948321 -0.16392496 -0.039352424 -0.076861344 -0.04681188 -0.27374634 0.2876088 -0.044288337
-0.09880547 0.048879243 0.15036128 -0.08533566 -0.19442041 0.043737642 -0.13163784 -0.21992393
0.034386806 -0.14953402 0.1971388 0.00076633354 -0.18964455 0.1380927 -0.24021697 -0.026315454
-0.39094526 0.15208419 -0.26811317 -0.10032281 -0.035485476 -0.10575641 -0.11766286 -0.24676843
-0.20415275 0.0069988794 0.10400036 0.066632025 -0.19677891 -0.024830205 -0.3683894 -0.3627302
00000000: 3b8f 46be 3973 86be 2247 e93d 44fe 853e
00000010: e75e 26bd cb9f de3d 3caf 2fbe 9782 3a3e
00000020: dbd2 e13e d851 963d 4f72 8fbe fc5a 26be
00000030: d9ea 5abe f525 bebd d535 c33c 7ff1 dfbe
00000040: 4d07 40be 5987 bb3d 9298 213e 7e8c 95be
00000050: bdf0 f9bd b71f 5abe c8fc 0ebb e045 87be
00000060: 4083 4f3e c408 abbd 2616 af3c 89a0 7dbe
00000070: 7839 44bd 1fe0 7b3d 9dde d3be a868 dfbe
00000080: f24c b73d 2429 85be 8b1e 5c3e 08b4 28be
00000090: f6de f63e 3b2b 15be 2a2a 643e 735f b5be
000000a0: 8580 4d3e 6762 6a3e 8dba 9ebe 841e 443e
000000b0: ec49 b03d 7bf8 353c f748 413e edf7 6dbd
000000c0: 56fc 8e3d c245 143e d5bf c83d d27c 113d
000000d0: 531d 45be 103f 20be bd11 793e a57a 3bbe
000000e0: 7ede ae3e 86c5 80be a154 80bd 925d a7bd
000000f0: 4656 b7be f25b e03c 7723 8d3e 67f6 a6bd
00000100: 8713 c03e 4681 fa3d e5b1 debd 9558 96be
00000110: 0905 813d e5b3 16be 8477 9f3d f7ba dcbe
00000120: 74ae 7fbe 05f9 bc3e e198 323e 5806 a13d
00000130: bbf6 8ebe 9002 143e 9bcc 4a3d a8a8 a9be
00000140: 16ef 68be 4f6c 81bc 068c 923d 2b50 53be
00000150: 2645 8fbe 13ef ebbb a0f7 633d e492 0cbe
00000160: 5adc 50be b7cc 7fbe d6e9 86bd 55ac 123e
00000170: e00a d4bd 89fe f5bd e9f5 1b3e 5766 a53c
00000180: 2cbe 153e 4a8f 343e 4025 223e a294 43be
00000190: e1f0 b6bd dbd0 0fbd cf23 cbbe 10b8 83be
000001a0: 1207 b1bd 1441 b7be a6c8 bf3e 4bb2 30bd
000001b0: dfaa abbd c187 8c3e 7714 d7bd 2c5e debe
000001c0: 5edc 38be e1de 0bbc c519 17be a0e1 84be
000001d0: ef76 20bc 178a d6bd 2ff7 29be 6e09 6ebe
000001e0: 92a8 a13e 1766 0abe 8ea5 4e3d 42bb d53d
000001f0: edc9 49be 9359 3cbe 8b39 153e 16f2 d0be
00000200: 624f 193d f1c0 aabd 271d a4bd 99af bb3b
00000210: 668a 17be 8651 593e d736 16be d473 ad3e
00000220: bb4c d93e 7382 913d 382b 333d 9221 71be
00000230: 8c04 1abd a5ba c2be 681b 053e fa87 a0be
00000240: 726c 24bd d785 8abd 891a d3bd bcc3 edbd
00000250: 2b4a 49bd b202 2cbe 313d 04be 8bfa 06be
00000260: 9797 f6bd 83c7 e2bd 6e42 e2bd 154b 60bb
00000270: 8e77 783d f656 68be 4a7b c3be c767 823d
00000280: 0bfc e73d 7259 c1be ddf6 18be 14bf 4bbe
00000290: a140 e8bb 62fd 76be 09f0 a93e ab0f 22be
000002a0: f79b 563e dde2 883e 0093 50bd 7886 f5bc
000002b0: d8de 053e b8d7 c93d 5ce4 c93d 72b4 3bbe
000002c0: 7ad5 883e dec7 5c3e 716b 783e 97c0 213b
000002d0: 6a67 b1be 2521 83be cfed 773e cb50 0ebe
000002e0: 0b8f db3c a428 94be 8a13 9abd 6bac 17bd
000002f0: 4efe c2bd 0779 b1bd f0fb 613d 95db 7d3d
00000300: 76c4 c93d 9c52 d6bd da2c 08bd 05eb 043d
00000310: a678 a93d 6b85 f2be 5443 b03d 4775 03bd
00000320: 52b6 a23d 0ac9 fc3d 915d 573d 8fe7 e7bb
00000330: a0b5 34bd fdf8 6fbd f511 81bd e0fe 05be
00000340: 317f 653b 5c2d 93bd dfe5 f9bc 8b4c dd3d
00000350: eaa1 87be e023 693d 4c66 173e 52e4 c2bd
00000360: b0d4 0e3e f2db 27be 0230 21bd 7b69 9dbd
00000370: d0bd 3fbd 7b28 8cbe 7641 933e b067 35bd
00000380: 865a cabd 9a35 483d 4ff8 193e 76c4 aebd
00000390: 2516 47be 3e26 333d 12cc 06be bd33 61be
000003a0: 2ed9 0c3d 721f 19be c1de 493e c6e3 483a
000003b0: 2e32 42be 2c68 0d3e 70fb 75be 8293 d7bc
000003c0: fa29 c8be f5bb 1b3e 2146 89be 0c76 cdbd
000003d0: 3859 11bd d196 d8bd 3af9 f0bd ddb0 7cbe
000003e0: 6b0d 51be db56 e53b 24fe d43d 5f76 883d
000003f0: 6980 49be b768 cbbc 899d bcbe c6b7 b9be
