VirtualAquarium/results/VirtualAquarium/VirtualAquarium/VirtualAquarium-10147.pt (torch, 451487 bytes, 36 tensors)

network_body._body_endoder.seq_layers.0.weight f4 [128, 9]
000000 a3 90 11 be 7e 2b c0 3d dc a1 c7 bd 16 ef 2c be
       -0.14215331 0.093832955 -0.09747669 -0.16888079
000010 dc 11 bf be cf 03 9e be 39 87 d6 3d 12 93 f7 bd
       -0.37318313 -0.3086228 0.104750104 -0.12088598
000020 7a aa af be c9 76 5b 3e a3 90 1a be ed d0 a6 3c
       -0.3430975 0.21432032 -0.15094237 0.020363295
000030 ca 37 a3 be 0a 8b cc 3e 9f e4 89 be b4 34 94 be
       -0.318785 0.39949828 -0.26932237 -0.2894646
000040 0f 16 31 bd 7c 35 af bd 94 93 38 be eb f4 80 3f
       -0.043233927 -0.08555123 -0.18025047 1.0074743
000050 57 f2 e7 be 38 ae ac be 2e 80 8c 3e 82 e9 01 be
       -0.45302078 -0.33726668 0.27441543 -0.12686732
000060 57 c6 97 3e 7d 01 f7 3e b1 d0 6b be 2a 60 44 be
       0.2964351 0.48243323 -0.23028828 -0.19177309
000070 78 d7 4d bc b8 bb f6 be fd 4c cb be 50 a0 22 3e
       -0.012563579 -0.48190093 -0.39707175 0.15881467
000080 d4 fd 51 bd be 39 26 3f a7 16 b2 be e8 2c 3f 3d
       -0.05126746 0.6493186 -0.34782907 0.046673685
000090 47 f9 a7 be 87 f4 51 bd e1 38 ba be af 8d 1a 3e
       -0.3280737 -0.05125859 -0.3637152 0.1509311
0000a0 b4 bb 40 bf 9c 6d 04 bd ab f6 bb 3d 9b 86 9d be
       -0.7528641 -0.032331094 0.091779076 -0.30766758
0000b0 81 b3 13 3e 64 cc 13 3f 2e 7e 3c bf 2f f2 d0 3d
       0.14423944 0.5773375 -0.73630035 0.10202443
0000c0 9c d7 85 3e cb 42 44 be 44 5a 17 3d 40 28 55 3e
       0.2614106 -0.19166104 0.03695132 0.20816135
0000d0 26 84 51 3e 13 bc 99 be c0 1b ba 3e 19 c3 2b 3f
       0.20460567 -0.30026302 0.36349297 0.6709457
0000e0 fb ca a5 3e 2c 61 17 bf e1 4c 27 be 67 5d 61 3e
       0.32381424 -0.5913265 -0.1633792 0.22008286
0000f0 c2 c8 cc 3e 5e 0e 9d 3d fe 0f fa 3d 4e d5 78 3e
       0.39996916 0.07668756 0.122100815 0.2430012
000100 6c f0 c2 be f4 e9 d6 bc a3 49 76 be 4d 45 95 be
       -0.38074052 -0.026234604 -0.24051528 -0.29154435
000110 29 2b a7 3e 74 67 e2 3c 05 6f 5a bd 8e 16 fb 3d
       0.32650116 0.02763722 -0.053328533 0.12260161
000120 14 35 3e 3e 1d f8 5b 3e 7f 4f ac 3e 17 22 f5 3e
       0.18574935 0.21481366 0.336544 0.4787757
000130 73 7f 37 3e 3c 2e f8 be ce b7 59 3e 50 c2 b8 be
       0.17919712 -0.48472774 0.21261522 -0.3608575
000140 df ea 03 be 14 73 02 be e5 c5 84 be e6 20 b8 be
       -0.12882565 -0.12739211 -0.25932232 -0.359626
000150 dd 69 8a be 1a a4 0e be a9 d6 06 3d 99 82 44 be
       -0.27033892 -0.13929787 0.03291956 -0.19190444
000160 a3 56 85 3d 27 13 f5 bd f1 ab 00 b9 59 97 82 3d
       0.06510665 -0.11966544 -0.00012271084 0.063765235
000170 29 29 ff be 3f f9 59 3d 4f 48 9a 3d d0 55 66 bc
       -0.4983609 0.053216215 0.07533323 -0.014058545
000180 39 b2 a2 3d 54 2d 35 be cc 58 9d 3e 31 1e 2c 3e
       0.079441495 -0.17693073 0.3073181 0.16808392
000190 16 45 7c 3d 42 a1 0a 3e ac 1f 93 be fb f4 23 3e
       0.061589323 0.13538077 -0.287351 0.16011421
0001a0 d6 65 e0 3c c7 8b 20 3e cc c4 61 3d 86 fc dd 3e
       0.02739231 0.15678321 0.05511932 0.43356723
0001b0 0d 83 c1 3d f2 93 d1 3e 41 19 ee 3e 5f df 9c 3e
       0.09448824 0.40933186 0.46503642 0.3063917
0001c0 77 cc 77 3e e2 1f e8 be 51 f0 03 3e a3 42 ab 3e
       0.24199091 -0.45336825 0.12884642 0.33449277
0001d0 10 33 18 bd f2 89 c9 3d 72 44 ae 3e 77 7c fd 3e
       -0.037158072 0.09840764 0.34036595 0.49509022
0001e0 60 23 8d 3e 92 c8 70 bc 8a a9 d1 be 80 73 27 bb
       0.2756605 -0.014696257 -0.4094966 -0.002555102
0001f0 e2 9f 13 be d4 bf e3 be 3d 2d ee bd 04 11 fa 3d
       -0.14416459 -0.4448229 -0.11629722 0.12210277
000200 ed 8e dc 3e d5 b1 70 3e ff 25 ee be 91 f1 b1 be
       0.43077794 0.23505338 -0.46513364 -0.34754613
000210 ed b9 7f 3e de cb 81 be 58 95 e4 bd b1 1a e0 bd
       0.24973269 -0.2535085 -0.111612976 -0.10942591
000220 86 8a ec 3e 58 04 07 3e 83 47 4f 3d 08 b2 83 be
       0.46199435 0.13185251 0.05060531 -0.25721765
000230 e2 dc 4c bd 46 f3 e6 bd a3 23 00 3e b0 e9 aa be
       -0.050015338 -0.112768695 0.12513594 -0.33381414
000240 6e 8c e1 3e 1e c5 bb be db 34 ab bd 02 47 bd 3e
       0.44052452 -0.36673826 -0.08359691 0.36968237
000250 1f cb 0f be 8b 4c b8 3e 74 25 16 be cd b7 1c be
       -0.14042328 0.35995898 -0.14662725 -0.1530449
000260 f4 e0 b5 3e e7 6e ca 3d 16 6d 33 3d 4f e4 4e 3e
       0.35523188 0.09884434 0.043805204 0.2020428
000270 a2 f5 96 3e ec 05 88 be a2 49 65 3e 34 e1 c1 be
       0.29484278 -0.26567018 0.2239137 -0.3786713
000280 b6 a5 8b bc a6 e0 60 bd ba d7 97 3e f1 66 45 3e
       -0.01704679 -0.05490174 0.29656774 0.1927755
000290 11 d0 22 bf b0 1f 0a bd e8 92 5b 3e d6 ef d9 bd
       -0.63598734 -0.033721626 0.21442759 -0.10641448
0002a0 cd 33 37 be 97 64 46 bd 29 69 79 3e 48 59 25 3e
       -0.17890854 -0.048435774 0.24356522 0.1614734
0002b0 26 18 f8 3e 89 ec 2d be 9d fd cc 3e 9e 7f b6 bd
       0.48455924 -0.16984762 0.40037242 -0.0891106
0002c0 f1 03 37 be 6f f3 04 be 6d 43 8d 3e de 3b 35 be
       -0.17872597 -0.12983488 0.27590504 -0.17698619
0002d0 27 b0 36 bf f2 e3 17 3e 09 df cd 3e 04 db 41 bd
       -0.7136254 0.14833048 0.40209225 -0.04732801
0002e0 3e 8d c7 be e9 e5 23 3e a2 1c 0c be 38 90 e9 3e
       -0.38974947 0.16005673 -0.13682798 0.45617843
0002f0 55 50 4a be ee 99 92 be 26 96 e5 bd 38 69 11 3e
       -0.19757207 -0.28633064 -0.11210279 0.14200294
000300 0c c3 a5 3e 65 8c 96 be e9 d6 00 bf e5 22 1c bd
       0.3237537 -0.29403988 -0.50327927 -0.038119216
000310 35 b0 d6 be 5d 53 01 bc 28 39 24 3f a2 f7 90 3e
       -0.4193131 -0.0078934105 0.64149714 0.2831393
000320 51 de 3f be e9 6a fa be ac 41 0a bf 02 e9 a4 be
       -0.1873715 -0.4890969 -0.5400646 -0.3220902
000330 8a ac 8d be 91 d9 65 be 27 07 9f 3e e8 4d 98 3c
       -0.276707 -0.22446276 0.31060144 0.018591836
000340 a0 f9 bc be b7 26 30 3e 83 7f 3d 3c 9c f4 0a bf
       -0.369092 0.17202269 0.011566046 -0.54279494
000350 12 15 5b 3e e3 e4 fe 3b 10 86 ca 3e e4 37 15 3f
       0.21394756 0.0077787503 0.39555407 0.5828841
000360 03 26 9e bd 93 2e d9 bd ed b4 04 3f 51 f6 df bc
       -0.07722094 -0.106045865 0.5183857 -0.027339133
000370 9f f5 90 bc 78 71 9d 3e d3 2d a6 3e eb 05 e7 be
       -0.017695246 0.30750632 0.32456836 -0.45121703
000380 71 b3 a0 3e 82 c3 f9 3e cf c1 78 3e 14 f0 2e 3f
       0.31386903 0.48781973 0.24292682 0.6833508
000390 20 73 4b be 48 bf ed bc 5f 71 7a 3d 45 aa 1e be
       -0.19868135 -0.029021874 0.061143275 -0.1549464
0003a0 e6 65 96 3e 03 23 a0 3d 10 7d a6 3e a1 59 94 3e
       0.29374617 0.07819178 0.3251729 0.2897463
0003b0 2f 1a 90 be 3b 33 d8 3e 07 d3 8c be c4 4f 82 3e
       -0.28144976 0.42226586 -0.2750475 0.2545148
0003c0 3c 2d d6 ba 2f a2 04 3e 13 cc 3e 3e 67 4a d1 bd
       -0.0016340385 0.12952493 0.18632536 -0.10219269
0003d0 f6 b4 92 3e 8e 68 3b 3e 1a 92 97 be c4 79 db 3e
       0.28653687 0.18301603 -0.29603654 0.42866337
0003e0 a6 ef 67 bd 01 97 4a 3e 12 c1 ce be 79 5f 4c be
       -0.05662503 0.19784166 -0.40381676 -0.19958295
0003f0 d6 ac d0 3e 01 1d 76 b8 c0 8c 04 3f 90 40 05 3f
       0.40756863 -5.8677982e-05 0.5177727 0.5205164

network_body._body_endoder.seq_layers.0.bias f4 [128]
000000 73 0f dd 3a f0 99 76 bc 1b 58 a9 ba 14 b4 34 bc
       0.0016865566 -0.01505135 -0.0012919934 -0.011029262
000010 85 65 49 3c f1 8c 19 bc 26 79 a8 bb 7b 64 aa bb
       0.012292271 -0.009371982 -0.005141395 -0.0051999665
000020 55 0d 30 bb 31 9f 13 3c 3d e5 04 3c 97 79 07 3c
       -0.0026863415 0.009010122 0.008111295 0.008268735
000030 1d 13 a5 bc cc 73 d8 bc 29 1a 9c bc 77 f0 38 bc
       -0.020150715 -0.026422404 -0.019055443 -0.0112878
000040 19 76 7b bc bf 93 ba bc 8c 81 4b bc 59 4b df bb
       -0.015347981 -0.022775529 -0.012421023 -0.006814402
000050 84 e7 67 bb cb 45 29 3c 1e f0 9f bb 3e 0b aa bc
       -0.0035385797 0.010331581 -0.004880919 -0.020757314
000060 84 d3 c5 bc 18 30 48 bb 8b 31 63 3b 1b 09 41 bd
       -0.02414871 -0.0030546244 0.003466698 -0.047127824
000070 7d 37 c8 bc db bf bc 3a 65 29 07 bc d5 ab 1e 3b
       -0.024440521 0.0014400439 -0.008249615 0.0024211307
000080 42 fb 51 bc 75 fe 09 bb 14 a1 a6 3b aa dc 00 3b
       -0.012816252 -0.002105621 0.00508512 0.0019662776
000090 95 fa 0b bb 4d 6a 66 ba 65 94 6c bc 71 ce f8 bb
       -0.0021359075 -0.0008789644 -0.014439677 -0.007592969
0000a0 57 8a 0e bc a9 bd 9f 3a 07 f5 14 bc 4b 44 63 3c
       -0.008699975 0.001218726 -0.009091622 0.013871263
0000b0 98 f8 03 bd 39 1a 58 bc 38 39 d8 bc ba 95 5b 3a
       -0.0322195 -0.013189846 -0.026394472 0.0008376498
0000c0 d6 d7 ab 3c 81 27 b6 3a 42 56 91 bc c5 26 42 bc
       0.020976942 0.0013897271 -0.017741326 -0.011850064
0000d0 96 82 ed 3a 59 71 73 bc 44 37 15 bc 91 d7 5c bc
       0.0018120583 -0.014858567 -0.009107415 -0.013479129
0000e0 08 91 22 bc 03 c5 82 bb 9a 92 5e bc 9f a2 91 3a
       -0.009922273 -0.003990771 -0.013584757 0.0011111087
0000f0 41 6e db bb 02 f5 d8 bb 73 4b 8f ba 70 ed d0 ba
       -0.006696493 -0.006621004 -0.001093252 -0.0015939903
000100 b2 f3 bf bc 11 2a c1 3b e3 ff d6 bc e5 2d 28 bc
       -0.023431633 0.0058949073 -0.026245063 -0.010264848
000110 a2 e6 ed 3a df 0a e1 3b ef 49 2c 3b 99 e8 da bb
       0.0018150399 0.006867751 0.0026289185 -0.00668056
000120 00 3c 28 bc a3 16 5d bc f7 6a 09 bc 95 94 6a bc
       -0.010268211 -0.013494167 -0.008387319 -0.014317651
000130 99 6b 09 bc c0 24 8f bc 00 e0 11 bc a6 9d 8f 3a
       -0.00838747 -0.017473578 -0.008903503 0.0010957017
000140 ca a3 56 bc 59 3d b7 bc 64 e3 8e 3c eb 15 51 ba
       -0.013100574 -0.02236812 0.017442413 -0.00079759833
000150 66 ca 23 bc f9 e4 25 bc d7 c6 c9 bc 99 c4 df 39
       -0.009996986 -0.010125392 -0.024630947 0.0004268035
000160 fc 87 00 bc 3c 98 1c bc f0 6b 48 39 11 f0 11 bd
       -0.007844921 -0.00955778 0.00019113696 -0.035629336
000170 ca dd 1c 39 50 84 29 bb 05 69 e5 bb 80 2d f3 bc
       0.00014959942 -0.0025866218 -0.0070010447 -0.029684782
000180 0f e9 2b bb 3b f6 94 3c 88 e7 b7 bc 47 32 85 bb
       -0.0026231443 0.018183818 -0.02244927 -0.0040648314
000190 f7 de 42 bc 60 32 58 bc 85 67 23 bb 88 1c 55 3c
       -0.011893979 -0.013195604 -0.0024933529 0.013007291
0001a0 de 08 65 3b 0e 23 0b 3c 03 0a eb bb 6c c0 a7 3b
       0.0034947912 0.008492244 -0.0071728243 0.005119374
0001b0 cd 0b 4a bc 9f e8 d8 bc c0 7f bb bc 63 49 7f bc
       -0.012331915 -0.02647811 -0.022888064 -0.015581462
0001c0 0d 5f a7 bb 44 4d 2d 3c e7 df 00 3c ed 71 3d bc
       -0.0051077665 0.010577504 0.0078658825 -0.011562807
0001d0 ba f7 38 3b 69 53 93 bb 92 52 a1 bc 09 30 70 bc
       0.0028223828 -0.0044960272 -0.019692693 -0.01465989
0001e0 dd cf 85 3c ae 00 d5 bb f2 5d a2 bb 47 aa 9d bc
       0.016334468 -0.006500325 -0.004955047 -0.019246234
0001f0 a1 7c e8 bb 82 54 8f bc 57 93 84 bc d2 a9 65 bc
       -0.007094935 -0.017496351 -0.016183538 -0.014017539

network_body._body_endoder.seq_layers.2.weight f4 [128, 128]
000000 b8 0f 05 bc 44 b9 9a bd 04 64 c9 3d 72 0c 6e 3e
       -0.008121423 -0.07554868 0.098335296 0.23246935
000010 32 6d 27 3d 31 f8 7a bd a0 da d4 3c b5 4d f2 bd
       0.04087562 -0.06127185 0.025983155 -0.11831228
000020 cc 3b 01 be d1 04 37 3e 02 25 d1 bb c8 8b 15 bd
       -0.12620467 0.17872931 -0.0063825855 -0.03651026
000030 a7 79 50 bd 45 55 1a be a5 b3 b2 bb 00 ac 99 bc
       -0.050897267 -0.1507159 -0.005453544 -0.018758774
000040 97 d0 0d be e6 12 c3 3c 2c e5 06 3e 03 3e 6d bc
       -0.13849102 0.023812722 0.1317336 -0.014480117
000050 82 b9 39 3d f0 1d 10 be 80 39 83 bd 34 d2 34 3c
       0.04534293 -0.1407392 -0.06407452 0.011036444
000060 de 53 2a bd 9e 17 2c 3d 58 d7 a6 bd 21 12 32 3d
       -0.04158389 0.04201471 -0.08146542 0.04347432
000070 c7 99 81 bd 1f b9 55 3d 3e 5a 3d 3d 97 c1 ad 3d
       -0.06328159 0.0521785 0.04622864 0.0848419
000080 d7 2f 14 3d f7 0c 4f bd 71 f7 12 3d b7 a6 0d be
       0.036178436 -0.050549474 0.03588051 -0.13833128
000090 b6 a6 ba bd f3 4e 86 3e e4 16 0b 3d 74 0f a4 bc
       -0.09113829 0.26232108 0.033957377 -0.0200269
0000a0 4b 32 38 be e2 3b 07 be 8e 6c f3 3c ba 7d 57 3b
       -0.17987935 -0.13206437 0.029714849 0.0032881335
0000b0 d9 1e 50 bb 16 db 31 bd 11 d6 c2 3d 90 a7 04 3d
       -0.0031756668 -0.043421827 0.09513486 0.032386363
0000c0 55 13 0b 3e 85 9d 27 bd f2 a7 ef bd b5 d2 77 bd
       0.13581593 -0.040921707 -0.11701955 -0.06050368
0000d0 c9 2c ab 3d aa 5f b0 3d 5b 23 4c bd f0 ca bd 3d
       0.083581515 0.086119965 -0.049838405 0.09267223
0000e0 c5 d8 47 3d 65 e8 96 3e 97 7a 0b 3d 84 69 92 bd
       0.048790712 0.29474178 0.034052458 -0.07149032
0000f0 91 ce 42 be 77 86 bd bd 70 30 18 3d b6 e0 00 bc
       -0.19024111 -0.09254163 0.03715557 -0.007866075
000100 6a 93 12 3e 1c 26 d9 bc 98 95 a4 3c 7a 41 fd bd
       0.14314047 -0.02650743 0.020090863 -0.12366004
000110 27 7d 0d bd 45 90 e3 3c f2 ba b0 bd 05 1a a8 3c
       -0.034543183 0.027778754 -0.08629407 0.02052022
000120 f3 d1 17 be 7c bf 9c bd 3b 63 eb bb 7c 1e 34 3d
       -0.14826183 -0.0765371 -0.00718346 0.043974385
000130 ae 03 b4 bd 46 ab 32 3d 24 97 b0 bd 6b 90 3d be
       -0.08789764 0.04362037 -0.08622578 -0.18512122
000140 20 3f 24 3e 70 09 46 bd 11 c9 33 bd 5e 7f eb 3a
       0.16039705 -0.048348844 -0.043892924 0.0017967036
000150 e3 c0 1a 3d e7 3f 0f bd d5 1f 98 3d 51 9a 49 3e
       0.037781607 -0.03497305 0.074279465 0.19687773
000160 39 05 a5 3d 05 a5 6c 3d 36 9f 4e bd 1d d6 96 bd
       0.08057637 0.057774562 -0.050444804 -0.073650576
000170 ff df a5 bd cb 72 21 be be 27 62 bd 02 89 1a be
       -0.080993645 -0.15766446 -0.055213682 -0.15091327
000180 e0 c2 14 bd 15 13 c4 3d 5a fc eb 3c 49 08 fc 3a
       -0.03631866 0.09573952 0.028806854 0.0019228543
000190 2b e9 4a 3a d4 ac a9 bd 56 f7 98 3d 7b 0b c1 3c
       0.0007740433 -0.082849175 0.074690506 0.023565045
0001a0 83 6b 64 bd 7b c8 cd 3c 88 46 d0 bc 1d 8b b1 bd
       -0.055766594 0.02512001 -0.025424257 -0.08669112
0001b0 10 65 5b be d1 74 bf bd 8c a3 3c bc 53 2e 76 bc
       -0.21425271 -0.09348453 -0.011513602 -0.015025693
0001c0 dc d3 04 be 49 f4 aa bd c2 a7 f7 3a 97 d4 2f bd
       -0.12971443 -0.08347375 0.00188946 -0.04292735
0001d0 5f 1d 52 bd 0f e9 88 3d dd cb 11 be 1c 95 d4 3d
       -0.05129754 0.066850774 -0.14237924 0.10380003
0001e0 b1 49 d2 3c ad 7a 3c bd e2 6f 68 bd f0 3a 33 39
       0.025669904 -0.04601543 -0.056747325 0.00017092726
0001f0 18 65 24 be 9d de 42 3d 47 6b 38 3e 40 17 e4 bd
       -0.16054189 0.04757558 0.18009673 -0.11137247
000200 2a 8b 3d 3d 14 50 82 bd 7d d4 47 3d b8 23 3e 3e
       0.046275295 -0.0636293 0.04878663 0.18568313
000210 a1 4c 36 bd 2d 6c ff 3d fe f1 74 bd cd 42 04 3e
       -0.044506673 0.12471805 -0.059801094 0.12916107
000220 dc be 2a 3e 4d 8c 61 bd a7 9a 7b bd 66 43 d8 bd
       0.1667437 -0.055065442 -0.061426785 -0.1055973
000230 52 90 e6 bb 8a 05 54 bd f6 7c 81 3d fd 68 0a 3b
       -0.0070362473 -0.051763095 0.063226625 0.0021119707
000240 61 da c5 3d 44 eb 93 bd 85 16 78 be 0a 3c 96 bd
       0.09660793 -0.07222608 -0.2422734 -0.0733567
000250 52 bb cf 3d ae 65 04 be 7d f2 10 3e c6 1a 42 bd
       0.101431504 -0.12929413 0.14155002 -0.047388814
000260 b0 31 0f 3d 5c 0c 01 3e 3c 07 f5 3d 37 0d 27 bd
       0.034959495 0.12602371 0.119642705 -0.040784087
000270 ba ab a2 bd e5 2e 44 3e fd 9f 1b be a3 04 d6 bd
       -0.079429105 0.19158514 -0.1519775 -0.10450103
000280 87 ad f1 bc 0e bb aa bd 67 70 53 3d 04 5c 18 bd
       -0.02950169 -0.08336459 0.051620867 -0.037197128
000290 09 de b3 bc 6d a5 2d be 00 ea 1b be 3a 28 c7 39
       -0.02195646 -0.16957636 -0.15225983 0.0003798621
0002a0 c4 ad 87 bd 65 0b 5c 3d f7 40 22 bc 42 d9 f5 bc
       -0.0662494 0.053721804 -0.009903184 -0.030010823
0002b0 fd f1 33 3c 26 a3 7e bd 20 47 9d 3d 40 9a 97 bd
       0.0109829875 -0.06216731 0.07679582 -0.07402468
0002c0 39 40 f1 bd 0b 82 9a 3d 33 9e c1 bc dc 7c 99 3c
       -0.117798276 0.07544335 -0.023635006 0.018736295
0002d0 c8 60 02 3d 13 28 a5 3d 2e 06 04 3e 89 2e 01 3e
       0.03183058 0.08064284 0.12892982 0.12615408
0002e0 a6 19 46 bc 20 1f 10 bd 12 b8 07 3d de 55 02 3e
       -0.012091076 -0.035185933 0.033134528 0.12728068
0002f0 76 4d 2c 3e c9 06 50 bd 23 c2 f2 3d 85 92 1a bd
       0.16826424 -0.05078772 0.11853435 -0.03773739
000300 0a 5d 05 bd 34 74 b6 3c 32 26 78 3d 7a 07 ae bd
       -0.032559432 0.022272207 0.0605833 -0.0849752
000310 37 be 04 3e 60 3b df bc b2 5b 1f bd 5c 47 11 be
       0.12963186 -0.027249992 -0.038905807 -0.14187378
000320 d8 da f3 3d 61 bb c2 3d 6d 30 35 be 64 18 13 bc
       0.119069755 0.09508396 -0.17694254 -0.008977983
000330 9f 50 0d 3e be 6a d1 bd 81 c6 8e bd e8 ef d8 3d
       0.13800286 -0.102254376 -0.06971455 0.105926335
000340 2b 49 17 bd e5 3e b8 bd 25 fa 2b bd ac 4b 15 3e
       -0.036935013 -0.08996371 -0.041986603 0.14579648
000350 c6 80 28 be 85 2a eb bd 76 47 46 3d c3 98 72 bd
       -0.16455373 -0.11482719 0.048407994 -0.059227716
000360 41 30 81 bd d2 21 32 3e 8f 59 d8 bc f0 6e 1e bd
       -0.06308032 0.17395714 -0.026409892 -0.038680017
000370 6f d5 74 3b 4c ff c0 3c 67 5c 18 3e 24 9d 63 bd
       0.0037358662 0.023559235 0.14878999 -0.055569783
000380 89 eb cb bc c2 69 83 bc fd 72 db 3d 8b ca ab 3c
       -0.024892585 -0.01604164 0.10715292 0.020970603
000390 5d f8 7d 3d 8b 8c 2f be 1e 7e b2 bc b5 d8 e4 3d
       0.062004436 -0.17143457 -0.021788653 0.11174146
0003a0 fc b7 4d 3d 12 00 e5 3c 94 b4 66 bd 26 2d 05 3d
       0.05022429 0.027954135 -0.056324556 0.03251376
0003b0 c7 ea c0 3d 3e 9b 74 3d 5e 94 92 bd 0b fb be bd
       0.0941978 0.059718363 -0.07157205 -0.093252264
0003c0 e2 5a 95 3d 20 b5 8a bd df d7 ed bd d7 3a e9 3d
       0.07292725 -0.06772828 -0.1161344 0.11388176
0003d0 d8 ea 33 bd 43 36 dc bd 7d 84 9e bc 5f 56 94 3d
       -0.043925136 -0.10752537 -0.019350285 0.072430365
0003e0 cd a0 88 bb 69 66 03 3d f6 87 a6 3d 37 a2 e2 3d
       -0.0041695596 0.032080088 0.08131401 0.11066096
0003f0 32 87 2d 3d 40 c4 62 be 69 40 f5 bb 0e 8b 04 3d
       0.04236526 -0.22145176 -0.007484485 0.032359175

network_body._body_endoder.seq_layers.2.bias f4 [128]
000000 03 04 88 bc 4f 9a 09 bc 5e fb 59 bc bc cf 18 bc
       -0.016603475 -0.008398606 -0.0133045595 -0.0093268715
000010 a9 f2 1a 3b bf 0c ce bc 6c c1 28 3c 23 60 2c bc
       0.0023643172 -0.025152562 0.010300022 -0.010520968
000020 71 8c c8 bc 32 81 79 bb a9 66 a0 bb d8 ea 01 bb
       -0.02448103 -0.0038071391 -0.0048950505 -0.0019823816
000030 01 42 a9 bb 79 43 1e bc 58 b1 70 bb e1 df 4d bc
       -0.005165339 -0.009659641 -0.00367268 -0.012565584
000040 21 91 4b bc 02 1a 42 bc 17 66 7c bc 68 24 88 3b
       -0.012424738 -0.011847021 -0.0154051995 0.0041547306
000050 3b 95 2d bc f6 37 a1 3a 44 da 41 bc f2 34 b2 bb
       -0.010594661 0.0012300003 -0.011831824 -0.0054384405
000060 c0 96 2c bb af 2c ad bb 10 f0 97 bb 63 63 b4 bb
       -0.0026334971 -0.0052848677 -0.004636772 -0.005505012
000070 41 85 26 bc b9 ae b0 bb 19 af ed bb 54 c7 dd 3a
       -0.010163606 -0.0053919223 -0.0072535393 0.0016920366
000080 a8 c8 0b bc f5 99 c2 bb 49 53 53 bc cb f0 14 39
       -0.008531727 -0.0059387633 -0.012898275 0.00014204082
000090 1b b8 12 bc c5 01 a3 bc a4 1c a1 bc a0 37 37 bc
       -0.008955027 -0.019898305 -0.019666977 -0.011182696
0000a0 ad 53 82 bc 69 27 af bb 77 01 31 bc 63 66 47 bb
       -0.01590904 -0.005345274 -0.010803572 -0.0030426017
0000b0 94 d6 1b bb e1 10 01 bc be 38 cf bb bd 0a 05 bd
       -0.0023779022 -0.007877559 -0.006323903 -0.032480944
0000c0 e3 0e 82 bb 25 37 9c bc 4f f6 1e bc 42 5a f0 bb
       -0.00396906 -0.019069264 -0.009702279 -0.0073349783
0000d0 a8 f6 9e bb 70 48 7e bc 3a b6 b8 bb 7b 1f 13 bc
       -0.004851181 -0.0155202 -0.0056369575 -0.0089796735
0000e0 78 7a a2 bc 86 4f 2f bc 19 01 3c bc 50 bb eb bb
       -0.019833788 -0.010700112 -0.011474871 -0.0071939602
0000f0 4e 74 9c 3b 20 06 a9 bb 31 e2 c3 bb 26 75 fe bb
       0.004774607 -0.005158201 -0.005977892 -0.00776543
000100 72 6a 03 bc c6 72 02 bc 45 9f b5 ba 92 40 f7 bb
       -0.008020984 -0.007961934 -0.001385667 -0.007545539
000110 88 0f 11 3c 4d 7e 0e bc 44 5a e1 3b db be 09 bc
       0.008853801 -0.008697105 0.0068772156 -0.00840732
000120 2d 74 a5 ba 83 49 28 bc 18 37 19 3a 88 da 2e bb
       -0.0012623124 -0.010271433 0.00058446964 -0.0026680548
000130 97 97 f9 ba 53 72 93 bb dc 5b 11 bc 5d ec 5c bc
       -0.001904237 -0.0044997125 -0.008871999 -0.013484088
000140 f3 0b 54 3c 4d c4 75 bc e1 60 6a bc 12 08 36 3b
       0.012942302 -0.015000415 -0.014305324 0.0027775806
000150 d6 45 95 bb 89 7f 16 3b d8 be 9e ba da 80 e7 bc
       -0.0045554442 0.00229642 -0.0012111319 -0.028259683
000160 6b e9 8a 3b 14 3d 98 bc 72 ab 87 ba 91 55 de bb
       0.0042392514 -0.018583812 -0.0010350777 -0.0067851027
000170 86 aa cd bc 2b 74 9d 3b 41 9a 37 bc e8 e4 cf bb
       -0.025105726 0.004805108 -0.011206211 -0.0063444264
000180 77 64 32 bc 69 0e 74 3b ad e2 16 3b b5 66 e2 bc
       -0.0108882105 0.0037240034 0.0023023293 -0.027636865
000190 e9 25 db bb ca fe 37 bc a1 83 38 bc c8 0e 18 bc
       -0.006687869 -0.01123018 -0.0112618515 -0.009280868
0001a0 bb df 97 bc df 62 1f bc 2e 26 b9 3a c2 59 77 bb
       -0.0185393 -0.009728163 0.0014125758 -0.0037742709
0001b0 19 45 e9 3b d0 a0 85 bc d6 5d 63 bc c1 ba 57 bc
       0.007118833 -0.016312033 -0.013877353 -0.013167084
0001c0 84 fb 0f bc 6b 83 7a bb 40 2e f5 3c 03 fd 5c bc
       -0.008787993 -0.0038225304 0.02992928 -0.013488057
0001d0 df 5b a5 bb 55 a8 51 bc 16 9f f7 bb 04 88 5f bc
       -0.0050463523 -0.012796481 -0.0075568063 -0.0136432685
0001e0 34 ce 44 bc a4 d0 f3 bb 0f cb 5f bb c3 fd 52 bc
       -0.012012053 -0.0074406434 -0.0034148132 -0.012877884
0001f0 4f 4a 35 bc f7 42 da bb a3 e0 34 bb 7f 7d 12 bc
       -0.01106508 -0.006660815 -0.0027599714 -0.008941053

action_model._continuous_distribution.log_sigma f4 [1, 4]
000000 0f 44 81 bd 7e 7f 9f 3c b8 02 a6 3c ac b3 fa 3b
       -0.06311809 0.019469973 0.020264968 0.007650813

action_model._continuous_distribution.mu.weight f4 [4, 128]
000000 e7 77 0c bc 52 f0 b5 bb 6e 5d be bc 44 55 fa bb
       -0.008573509 -0.00555233 -0.02323791 -0.007639559
000010 fa 29 21 bc 35 b2 a6 bb e0 90 8c bb 3a 8c 16 3c
       -0.009836668 -0.005087162 -0.0042897314 0.009188706
000020 c8 d6 4b 3b c9 b1 28 3b dc 2f 86 bc 06 93 25 bc
       0.0031103361 0.0025740734 -0.016380243 -0.010105854
000030 f5 bd 6d 3c e1 08 58 3c f0 97 d9 bc 57 26 4f 3d
       0.014510621 0.013185711 -0.026561707 0.050573673
000040 e0 36 c5 ba b6 1f 45 bc fc 89 b7 3a 55 98 3f bc
       -0.0015046261 -0.012031486 0.0014002915 -0.011694034
000050 c3 c3 68 bc 5e 34 0d bc af 4b 97 bb 4a cb b9 bb
       -0.0142068295 -0.008618442 -0.0046171765 -0.005669986
000060 22 1f 3e bb 5c da 41 3b d4 42 31 3c c1 0f bb bb
       -0.0029010256 0.0029579615 0.010819156 -0.005708665
000070 19 20 58 3c 12 fb ac bc 9f 1f 56 3c 82 3e 08 bd
       0.013191246 -0.021115813 0.0130690625 -0.033262737
000080 32 33 73 3b 7d 5f 87 ba 6e 5d af 3c 72 5b 12 3d
       0.0037109372 -0.001032814 0.021406855 0.03573174
000090 92 9e 72 3c dc 8c 65 3c b9 4a 12 3d 5f a0 52 bc
       0.014808314 0.014010634 0.035715792 -0.012855618
0000a0 f1 c6 f9 3b d0 14 52 bc e3 6f a9 bc 89 56 7c 3c
       0.0076225926 -0.012822345 -0.020683235 0.015401491
0000b0 49 2f a0 ba ff cd b8 bc b2 77 21 bc 8c 3c 82 bc
       -0.0012221123 -0.022559164 -0.009855198 -0.015898012
0000c0 c4 51 ad bc a2 e9 8c ba 57 ce c3 3c 4f d8 08 3d
       -0.021157153 -0.001075078 0.023902101 0.033409413
0000d0 ed 3d e7 bb 41 e0 e1 bb 86 ea c5 bc 6f ac 0b bc
       -0.0070569427 -0.006893188 -0.024159681 -0.008524998
0000e0 ba a5 8f 3b f6 d7 5f 3b 62 f2 92 bb c7 a3 e1 3b
       0.00438377 0.0034155822 -0.0044844607 0.006885979
0000f0 2d 17 df bc 13 55 01 3d 4e 4e 83 3c 62 bd d9 bc
       -0.02723273 0.031575274 0.01602855 -0.026579563
000100 1e 4a 70 bc 58 73 d0 ba 1b 34 fa bc a3 d9 d0 3b
       -0.014666108 -0.0015903516 -0.030542424 0.0063736006
000110 91 a7 9f 3a 6b 7b 0b 3c e8 26 4f 3b f8 c2 af ba
       0.0012180676 0.008513312 0.0031608883 -0.0013409546
000120 32 2f 8a 3c c5 21 14 3c ac 41 f0 3a 8f e4 5c 3b
       0.016868208 0.009041254 0.0018330119 0.0033705567
000130 be 62 94 bc b7 10 b5 bb a1 31 91 3c 24 4c 33 bb
       -0.01811349 -0.005525674 0.01772386 -0.0027358616
000140 58 d3 2b bb 80 59 22 3c 8a d5 0d 3b 0a 89 27 3d
       -0.00262185 0.009909034 0.0021642172 0.040902175
000150 4a 80 6e bc dc ba 39 3c a1 98 e4 bb 2c 85 0c ba
       -0.014556954 0.011336055 -0.0069762026 -0.00053604203
000160 31 fb 7d 3b 33 a7 b0 bc 99 d0 a0 bc 9c e5 32 3b
       0.0038754458 -0.021564102 -0.019630717 0.0027297502
000170 38 7f cb 3c 0f 2d 96 bb a2 99 18 3b e4 15 e2 bb
       0.024840936 -0.004583008 0.0023284932 -0.006899582
000180 f5 af 48 bd 9b af 01 3d 54 f7 ff bb 8b 2e b5 3b
       -0.04899593 0.03166161 -0.007811466 0.00552923
000190 d3 7d 24 3c 54 bf 98 3c e6 83 b9 bc 95 48 13 3c
       0.010039764 0.01864592 -0.022645902 0.008989473
0001a0 82 5d 9a bc 97 c3 9d bc ed 42 c5 bc 85 c2 a9 bc
       -0.018843416 -0.019258304 -0.024079764 -0.020722637
0001b0 6f f3 de bc 9b d7 a3 bc df dd 34 3b 02 67 f7 3b
       -0.027215688 -0.02000027 0.0027598066 0.0075501213
0001c0 8d 07 6e bb ae dc 0c bc 49 f9 04 bd 41 62 44 bb
       -0.0036320419 -0.008597536 -0.0324643 -0.002996579
0001d0 5a 34 c8 3c 74 af 27 3c e7 6a f8 bb c4 7a 04 3b
       0.024439026 0.010234702 -0.007581103 0.0020214776
0001e0 7e e5 26 bb ee d9 a3 bc ef a4 1e 3c 2a f2 9d 3b
       -0.0025466378 -0.020001378 0.009682878 0.004820128
0001f0 81 50 fe ba 6e c5 d5 bb e4 a9 71 b9 68 7b 8e bc
       -0.0019402654 -0.0065237796 -0.0002304684 -0.017392829
000200 3a ff 84 bc c8 23 65 bc 6e 27 f9 bb 5a 04 8d 3a
       -0.016234983 -0.013985582 -0.0076035773 0.0010758743
000210 0b c5 2b 3d 92 db 0f 3c 49 85 c2 ba e7 d5 35 3c
       0.04193596 0.008780377 -0.0014840747 0.011098362
000220 2c 09 f6 bc 6d df e9 3c 6e b9 21 3d f0 e9 15 bb
       -0.03003367 0.02854892 0.03948348 -0.0022875033
000230 46 09 1f 3c f4 08 52 3c 4c 81 7d 3a 7c 74 e7 3c
       0.009706801 0.012819517 0.0009670451 0.028253786
000240 dd 89 39 bb a3 da fb 3b 26 c3 e7 bb 2f 06 36 3c
       -0.0028310933 0.0076859756 -0.007072824 0.011109873
000250 83 de f2 bc 61 2f 23 bb de 47 dd 3b c6 ee 2d 3c
       -0.029647117 -0.0024900066 0.006752952 0.01061601
000260 3d a6 23 bc df 0e 12 bc 68 6e b0 bc c3 3f 32 3b
       -0.009988365 -0.008914678 -0.02153702 0.002719865
000270 c8 3f e3 3c 40 67 24 3b ae 6f 53 3c 22 a1 9e 3b
       0.027740374 0.0025085956 0.0129050445 0.004840986
000280 96 6a 4f 3c ab fa b4 39 07 fb 4e 3c d0 23 30 3b
       0.012659689 0.00034519038 0.012633092 0.0026876815
000290 b8 91 23 bc c9 c2 c7 bb a1 c8 99 3b a8 e7 df 3b
       -0.0099834725 -0.0060962182 0.0046931063 0.0068330355
0002a0 33 9a 8f bc 33 11 b9 bc e2 9d f3 bb 8b 9b b4 3b
       -0.017529583 -0.022591209 -0.0074345926 0.005511706
0002b0 30 4f 53 bc 31 c8 5f bc 9c f4 65 bc 67 07 96 3c
       -0.012897298 -0.013658569 -0.01403537 0.018314077
0002c0 7a 32 9a 3c fb 4c 02 3c 7c 3c 8b 3c c0 d4 bf 3a
       0.018822897 0.007952924 0.016996615 0.0014635548
0002d0 2d 98 57 bc c3 16 22 3b dd 71 97 bc 20 08 30 bb
       -0.01315884 0.0024732805 -0.018486911 -0.0026860312
0002e0 c9 16 c4 bc 16 9f ec 3b 7b 83 99 bc 6d 98 ae 3b
       -0.023936646 0.007221113 -0.018739453 0.005328229
0002f0 76 af c8 3c 9a 7c d7 3c 11 02 8a bc a1 0f 0c bc
       0.024497729 0.026304532 -0.016846688 -0.008548648
000300 78 4c a0 3b e6 df b4 bb 1b 27 1c 3d cc 27 23 bd
       0.0048919283 -0.005519855 0.03812323 -0.039832875
000310 90 df 95 38 7c aa 46 bc 94 3f 0b 3d fa 31 77 bc
       7.1465154e-05 -0.012125608 0.03399618 -0.015087599
000320 b4 c3 e3 3c 75 46 d1 3b 0d 08 56 3c e6 00 98 bb
       0.02780328 0.006386573 0.013063443 -0.004638779
000330 be 45 76 3c 75 9c 55 bc b4 46 1e 3c 73 9f 4e 3b
       0.015031276 -0.013037791 0.009660412 0.0031528145
000340 7b ce 8d bc 12 17 b5 bc 68 59 a6 3b 71 ad 64 3b
       -0.017310372 -0.022105727 0.005076576 0.0034893418
000350 b5 e9 bf 3c b4 6d 77 3b e5 b6 0a 3b bc e7 ad 3c
       0.02342687 0.0037754597 0.0021166143 0.021228664
000360 4b 9a 2f 3c e2 1b 94 3a 9a 72 33 3c cf 6b a3 ba
       0.010717939 0.0011299814 0.010952616 -0.0012468043
000370 c9 49 86 3c 58 1e 0b bd f3 ad ff 3c 94 38 1e 3c
       0.016392605 -0.033964485 0.031210875 0.009657044
000380 68 6f a2 bb 9e c5 be 3a 29 e2 d9 bc 77 60 6b bc
       -0.0049571283 0.0014554744 -0.0265971 -0.014366261
000390 fe e2 3c bc 93 fa b9 bb 01 8d fb ba d6 68 de bb
       -0.0115287285 -0.0056756227 -0.0019191803 -0.0067873998
0003a0 ce 96 04 bc f8 a2 e5 bb 81 b3 b3 bc 1f 73 8f 3c
       -0.008092595 -0.007007953 -0.02193618 0.017510949
0003b0 63 65 0a bd db 27 51 3b 9c f2 24 bc 4a ba ff bb
       -0.033788096 0.0031914625 -0.010067608 -0.00780419
0003c0 31 10 13 3c 4b e2 38 3b 52 4b b1 3a 71 0b b4 3c
       0.008976028 0.0028211053 0.0013526476 0.021978112
0003d0 d3 0d 2e 3c ee b0 a2 bc 3b ec 6d bb 21 5c 74 3c
       0.010623413 -0.019859757 -0.0036304134 0.014914543
0003e0 d8 71 99 3c 69 61 53 bb 17 09 8b bc 79 7f 29 3c
       0.018731043 -0.0032254106 -0.016972108 0.010345333
0003f0 d8 16 c9 bc 93 fb 7b 3c 04 16 1d 3c 82 a1 28 3c
       -0.024547026 0.015379804 0.009587768 0.010292413

action_model._continuous_distribution.mu.bias f4 [4]
000000 bc b1 70 ba fd d4 17 3b 8e 5f 9b 3a a5 c8 00 3a
       -0.0009181758 0.0023167722 0.0011854039 0.0004912711

exp_avg f4 [128, 9]
000000 96 07 5e b7 9b 0c 5c b8 12 c6 1a b8 18 35 94 37
       -1.3233997e-05 -5.2463827e-05 -3.690093e-05 1.7667699e-05
000010 cd e7 2c b8 3a 1f e7 b6 2f eb 00 b7 3a 8a ae 39
       -4.1223877e-05 -6.8879717e-06 -7.6841525e-06 0.00033290853
000020 4b 6b a6 38 b6 40 9d b7 f9 56 ab b7 d6 f0 54 b7
       7.935482e-05 -1.8745992e-05 -2.0425288e-05 -1.2692259e-05
000030 67 a0 22 37 8f a2 bc b7 fa 6e 69 b6 f9 e8 8d b6
       9.693299e-06 -2.2487044e-05 -3.4784302e-06 -4.229249e-06
000040 ba e8 e8 38 bf a4 52 39 71 5c 48 ba 8e 9b 31 ba
       0.00011105971 0.00020088533 -0.00076431694 -0.00067751936
000050 87 3c ed b9 3d e9 79 39 43 c1 11 ba d1 6b c2 b8
       -0.0004524926 0.00023833379 -0.0005560109 -9.270723e-05
000060 d4 67 d9 b8 5b b5 77 3b ee 35 ec 3b 69 aa 69 38
       -0.00010366706 0.0037797305 0.0072085774 5.5710236e-05
000070 b3 a6 27 38 89 2a 71 b5 fa de 0b b7 c2 f1 a2 37
       3.9971153e-05 -8.9841393e-07 -8.336961e-06 1.9424482e-05
000080 dc c5 55 36 2d 87 73 36 bd 10 02 b8 e8 81 6f b9
       3.1854643e-06 3.6288504e-06 -3.1010004e-05 -0.0002284121
000090 85 24 49 b9 c7 0d 24 b9 fb 55 52 b9 eb 0c 9b 38
       -0.00019182458 -0.00015645391 -0.00020059191 7.393382e-05
0000a0 06 c7 34 b9 06 bc ef b7 c1 ea 06 b8 9c 35 c0 3a
       -0.0001724028 -2.8578575e-05 -3.216672e-05 0.0014664414
0000b0 b2 42 d8 3a 4e 71 58 39 45 b6 69 39 44 4c 9c 39
       0.0016499369 0.00020641575 0.00022288512 0.0002981146
0000c0 5b 03 15 b9 f0 d9 ad 39 cc 7c 68 38 fc 9d 81 38
       -0.00014210997 0.00033159507 5.5429336e-05 6.180626e-05
0000d0 ae ef 1b bb 61 aa ec ba 7e 12 bd b9 bd 26 75 b9
       -0.0023793983 -0.0018056148 -0.00036062667 -0.00023379452
0000e0 02 71 72 b9 d3 1f bd 38 07 9b 5c b9 34 23 13 b8
       -0.00023121017 9.01815e-05 -0.00021038587 -3.5080317e-05
0000f0 69 86 24 b8 ce 54 df 3a ff 36 6c 3b fa 02 d0 b9
       -3.9225826e-05 0.0017038824 0.0036043522 -0.0003967507
000100 20 d2 43 38 f3 b4 14 b9 27 99 8a 38 24 a2 21 b9
       4.6687317e-05 -0.00014181789 6.6088796e-05 -0.00015414559
000110 e6 ff d6 b7 c2 2b f1 b7 86 47 8e 3a e8 97 1f 3b
       -2.562995e-05 -2.8749815e-05 0.0010855056 0.0024352018
000120 21 28 36 b5 f4 74 c9 b5 0e 36 60 b5 ef da 0b 35
       -6.785868e-07 -1.5009705e-06 -8.352516e-07 5.2100125e-07
000130 69 b8 a3 b5 ff 6a 64 b4 0e d9 72 b4 a9 0c e6 36
       -1.2198117e-06 -2.127308e-07 -2.261697e-07 6.856008e-06
000140 3a 35 91 36 a5 a4 11 39 69 32 a3 b8 59 1c a5 b8
       4.327533e-06 0.00013889612 -7.781835e-05 -7.873093e-05
000150 86 9c 50 38 5f 54 f3 b8 e4 3b a2 b7 f7 7a b5 b7
       4.973684e-05 -0.00011602858 -1.9339794e-05 -2.1634141e-05
000160 fc 57 23 3a 74 2d d6 3a ec 21 d4 b9 91 dd 35 b9
       0.0006231067 0.001634045 -0.00040461065 -0.00017344045
000170 e7 8e d0 39 da 28 e2 35 84 d4 85 b6 39 8b 53 b5
       0.00039779322 1.6850202e-06 -3.988449e-06 -7.880622e-07
000180 8d 28 43 b5 b8 4d 15 bb 4b 31 b5 3a ca 0f b3 39
       -7.270217e-07 -0.002278192 0.0013823895 0.00034153304
000190 f8 4a 4f 39 79 0c 8e 39 26 95 16 b9 23 af af 39
       0.00019768986 0.00027093643 -0.00014360677 0.00033509088
0001a0 97 f7 6a 38 4f fb 82 38 0a a6 17 bb 3e e1 4e bb
       5.6020534e-05 6.245693e-05 -0.0023139738 -0.003156736
0001b0 ab 1b 37 ba a1 a4 7d ba 0e 51 70 ba 0d 1e dc 39
       -0.0006985019 -0.00096757157 -0.00091673515 0.0004198406
0001c0 e8 60 80 ba 9d 3e 2b b9 af 7c 3f b9 12 61 ea 3b
       -0.0009794505 -0.00016331156 -0.00018261628 0.007152685
0001d0 1a 3c 7c 3b 78 bf c0 b5 17 df 31 b7 c8 14 2c 36
       0.0038487972 -1.436084e-06 -1.0601964e-05 2.5642094e-06
0001e0 3b 0f a2 33 85 54 3d b4 a1 cb 00 b3 f6 db 0c b3
       7.546483e-08 -1.7632745e-07 -2.9987522e-08 -3.2796343e-08
0001f0 b4 91 31 b7 bf 12 43 b6 01 20 4b 37 21 91 a8 b7
       -1.0583946e-05 -2.9068176e-06 1.2107194e-05 -2.0094742e-05
000200 b8 21 e4 b6 53 10 b9 36 65 bb 57 b7 34 b6 0e b6
       -6.798855e-06 5.51533e-06 -1.285863e-05 -2.1265705e-06
000210 89 0c 21 b6 b7 bc 80 38 95 35 21 b8 f4 00 65 38
       -2.3998166e-06 6.1386665e-05 -3.8435293e-05 5.4598742e-05
000220 f5 8b 83 38 4d 34 f5 38 56 ca 66 b8 23 9a 06 39
       6.272636e-05 0.00011692252 -5.5024713e-05 0.00012836656
000230 62 86 b3 37 d6 c5 c8 37 eb 09 6a ba 31 24 c2 b8
       2.140104e-05 2.3933982e-05 -0.00089278695 -9.257382e-05
000240 83 f4 6d 37 20 e4 17 b8 4b 3c 33 b9 6d eb 3d 38
       1.4183231e-05 -3.6213663e-05 -0.00017093231 4.528037e-05
000250 05 5b dd b8 7e 1d 92 b7 37 4a a5 b7 27 0e 91 3a
       -0.00010555055 -1.741829e-05 -1.9704092e-05 0.001106684
000260 ae b6 d4 ba 01 6c 0b 39 5c d8 cd 38 b5 71 d9 38
       -0.0016228759 0.00013296308 9.815462e-05 0.00010368546
000270 a4 50 68 b8 92 75 07 39 99 1e b4 37 20 20 ca 37
       -5.5388213e-05 0.00012918402 2.147192e-05 2.4095236e-05
000280 38 54 65 ba 65 9a 3f ba 2d a5 c0 b8 d9 d5 da b8
       -0.00087482063 -0.00073090784 -9.18604e-05 -0.00010434882
000290 7b 80 6d b9 d5 a0 a8 38 90 b5 44 b9 3d 4c 03 b8
       -0.00022649944 8.0408216e-05 -0.00018759654 -3.1303836e-05
0002a0 ac b0 12 b8 77 02 dd 3a 67 6d 4b 3b 56 bf 0a b9
       -3.497365e-05 0.0016861696 0.003104055 -0.00013231984
0002b0 6f ce 15 b9 aa 4c ae 38 6f c1 ae b7 a0 d8 4b 38
       -0.0001428665 8.311246e-05 -2.0832491e-05 4.860072e-05
0002c0 96 f8 07 37 54 06 18 37 52 8b f7 b9 4e 94 cb 3a
       8.1045055e-06 9.061379e-06 -0.00047215313 0.0015531869
0002d0 87 35 84 39 a5 b7 1d b9 d6 b2 99 38 80 8a 02 b8
       0.00025216883 -0.000150411 7.328919e-05 -3.1123403e-05
0002e0 c5 67 98 38 d5 9b 4d 37 33 03 63 37 27 34 f7 b9
       7.2672534e-05 1.2255235e-05 1.3530999e-05 -0.00047150368
0002f0 75 8a 0a 3a 2c 03 02 38 5c 22 60 b7 09 9b da 33
       0.0005284914 3.099737e-05 -1.335944e-05 1.0179617e-07
000300 ee 4e a8 33 de c1 23 b4 63 ba 29 33 2d cb 1f b3
       7.837467e-08 -1.5251086e-07 3.9517897e-08 -3.720486e-08
000310 58 31 4a b5 2f b6 11 b9 71 9d 32 ba b8 f5 a9 b9
       -7.532267e-07 -0.00013896146 -0.0006813622 -0.00032417267
000320 c3 05 87 39 10 ff 3f 38 69 09 e0 b8 29 1f 96 b7
       0.000257535 4.5775494e-05 -0.00010682905 -1.7895904e-05
000330 74 fd a6 b7 50 c5 a3 ba 72 a4 45 3b 0d e0 b9 b9
       -1.9906765e-05 -0.0012494717 0.0030157831 -0.0003545288
000340 b0 dc 74 b9 ad bc 11 ba a8 f1 53 39 d6 43 f7 b9
       -0.00023351866 -0.0005559426 0.00020212552 -0.00047162053
000350 84 45 a5 b8 0e 5c b8 b8 bc 73 8d 3b fd 1e 6b 3b
       -7.8807614e-05 -8.79095e-05 0.004316775 0.0035876625
000360 37 86 d0 39 ba 4e 20 39 9d 81 41 b9 16 07 6c b6
       0.0003977285 0.00015288117 -0.00018454199 -3.5170865e-06
000370 cc 34 0a 37 74 c3 c1 35 fb df cc 35 d3 e1 80 3a
       8.237734e-06 1.4436505e-06 1.5264371e-06 0.0009832926
000380 1a 13 2f 3a 23 02 33 b8 f6 8c 39 39 7b 2a e1 37
       0.00066785666 -4.2678916e-05 0.00017695487 2.6841872e-05
000390 b3 24 91 37 2b 4a 29 b8 a6 95 e1 b6 89 8a fc b6
       1.7302436e-05 -4.0361814e-05 -6.722944e-06 -7.526313e-06
0003a0 6b 15 18 b9 d1 54 3c bb d2 ec b0 39 28 58 5e 39
       -0.00014503828 -0.0028737078 0.0003374578 0.0002120441
0003b0 9d bf d8 b9 2d bf 27 37 19 84 c3 b7 bb 15 81 b6
       -0.00041341493 9.998487e-06 -2.3307324e-05 -3.8470293e-06
0003c0 c8 fd 91 b6 d9 6e 23 3b 26 02 a9 3b 0d 5b 19 b5
       -4.3508808e-06 0.0024937897 0.005157727 -5.712944e-07
0003d0 23 a2 08 b5 fa 31 b6 b4 9a 51 5b 34 9f 3b 00 b5
       -5.089989e-07 -3.3936504e-07 2.0425651e-07 -4.7770476e-07
0003e0 de 88 b0 b3 7f 87 be b3 fb d0 51 36 2b 10 ad 34
       -8.220535e-08 -8.872211e-08 3.126507e-06 3.2235525e-07
0003f0 8d 7d 7e b7 62 85 92 38 23 18 d2 b8 88 32 19 38
       -1.5168812e-05 6.986667e-05 -0.00010018076 3.6525103e-05

exp_avg_sq f4 [128, 9]
000000 4a 4c f5 35 e3 4c 2c 37 bb b3 8a 35 d4 01 97 33
       1.8276126e-06 1.02699005e-05 1.033411e-06 7.031818e-08
000010 b7 08 b3 35 92 79 c4 33 d6 49 d3 32 de 04 0b 37
       1.3339076e-06 9.149075e-08 2.459721e-08 8.286179e-06
000020 75 77 01 33 a5 1b 55 36 e3 fd 77 37 a8 3d f7 36
       3.01438e-08 3.1755565e-06 1.478146e-05 7.3683514e-06
000030 cc dc 27 34 97 53 15 36 c2 97 73 34 fd 4a b7 33
       1.5633412e-07 2.2251386e-06 2.2686348e-07 8.535242e-08
000040 e1 f9 df 38 1b 7e d3 36 64 19 86 38 a3 db eb 38
       0.00010680012 6.3029706e-06 6.394347e-05 0.00011246584
000050 cb 01 3e 38 36 52 6d 36 8b c3 3c 38 aa 2f 83 36
       4.53012e-05 3.5363605e-06 4.5004806e-05 3.909653e-06
000060 9a 17 be 35 83 71 01 3c ef 82 25 3b 44 55 20 34
       1.4162972e-06 0.007900598 0.0025255044 1.493218e-07
000070 22 dd c5 35 01 af 5c 32 41 4f 14 32 79 de 19 33
       1.4742002e-06 1.2845477e-08 8.632754e-09 3.5825426e-08
000080 02 d4 95 32 20 c8 37 31 a1 aa ab 33 3d 23 b8 36
       1.7442293e-08 2.6743763e-09 7.993845e-08 5.4877296e-06
000090 f4 0d 85 36 ad 5c af 37 ec 58 e2 35 2c f6 67 34
       3.9653332e-06 2.0904781e-05 1.6864192e-06 2.1603108e-07
0000a0 d4 26 19 36 79 4c af 34 64 9b 66 33 ac b1 e8 37
       2.2821378e-06 3.265193e-07 5.3692375e-08 2.773929e-05
0000b0 36 92 5f 39 82 17 30 37 dc d4 9b 37 69 07 18 37
       0.00021321405 1.0495891e-05 1.857656e-05 9.061631e-06
0000c0 01 e2 22 35 8d 33 f7 36 bd cc 63 35 37 cb 8e 34
       6.067858e-07 7.367175e-06 8.4862023e-07 2.659742e-07
0000d0 d2 1f c6 3a 92 4a 23 39 66 e1 df 37 0b 34 48 38
       0.0015115684 0.00015572671 2.668863e-05 4.7732185e-05
0000e0 d2 04 eb 37 d2 5e c4 35 b1 3f a3 37 3e 08 c7 35
       2.8016428e-05 1.4630734e-06 1.9460773e-05 1.4829054e-06
0000f0 86 0b 21 35 eb c5 58 3b 92 b3 64 3a 6c 92 ee 36
       5.999394e-07 0.0033076953 0.0008724268 7.1099985e-06
000100 c3 fe f9 37 ae a7 ea 36 28 9b e1 34 c8 85 9f 36
       2.9801746e-05 6.993264e-06 4.2022407e-07 4.7541434e-06
000110 c8 d7 2d 35 e8 36 1e 34 12 97 ed 39 23 80 66 39
       6.4761525e-07 1.4734871e-07 0.0004531672 0.00021982244
000120 d6 b2 a8 36 ed 15 07 38 31 51 d6 36 d3 41 1d 34
       5.0276094e-06 3.2206928e-05 6.387149e-06 1.4645711e-07
000130 5c 59 d3 35 b9 54 51 34 f6 70 c6 33 fd d8 06 37
       1.5746732e-06 1.9495464e-07 9.240641e-08 8.037544e-06
000140 15 77 7d 37 5a fe a6 36 62 5b 7e 37 7f 0f b0 35
       1.5107701e-05 4.976796e-06 1.51608565e-05 1.3117532e-06
000150 b7 cd 66 34 0a b0 04 36 a4 59 b6 34 01 f4 9a 33
       2.1495258e-07 1.9772e-06 3.3965364e-07 7.215568e-08
000160 61 43 a1 39 26 12 81 38 b4 c2 fb 37 7a 22 a2 38
       0.00030758514 6.15458e-05 3.0012197e-05 7.731184e-05
000170 d8 74 94 37 ed d3 a8 35 23 8b 7f 37 66 6b ac 35
       1.7697384e-05 1.2578654e-06 1.523158e-05 1.2846256e-06
000180 5d 8d f3 34 cb a7 b6 3a ce 31 fa 3a 31 3b 11 38
       4.5365132e-07 0.0013935504 0.0019088329 3.462582e-05
000190 b7 54 97 38 fb ea e8 37 42 29 0a 36 e6 ee f6 37
       7.2160205e-05 2.7765976e-05 2.0587618e-06 2.9436731e-05
0001a0 08 61 08 36 70 94 6d 35 b0 58 b0 3b 77 60 91 3a
       2.0322059e-06 8.8505385e-07 0.005381666 0.0011091371
0001b0 44 d2 92 38 36 e5 24 39 ad 5a 82 38 a4 39 87 36
       7.0009875e-05 0.00015725647 6.215773e-05 4.030024e-06
0001c0 1d 2a 5a 38 ba bb 96 36 f9 8b d4 35 59 97 0b 3c
       5.201447e-05 4.4922026e-06 1.5835968e-06 0.008519971
0001d0 b2 97 ee 3a a0 bc 03 36 02 22 03 37 72 d4 53 36
       0.0018203168 1.9630315e-06 7.8161265e-06 3.156511e-06
0001e0 5d 7a bf 33 2c ff a2 35 e5 c9 0b 34 0d 14 2e 33
       8.916388e-08 1.2144205e-06 1.3018833e-07 4.0530768e-08
0001f0 ef ec 03 38 29 62 97 35 fb ff 48 36 17 d6 80 37
       3.1453495e-05 1.1278945e-06 2.9951323e-06 1.5358482e-05
000200 25 20 81 36 f2 38 ea 33 c1 0c cf 35 9a d5 27 34
       3.8482417e-06 1.09068324e-07 1.5426414e-06 1.5630795e-07
000210 de 2c 42 33 5c 84 1f 37 83 95 f6 36 cc c1 64 37
       4.520995e-08 9.507956e-06 7.3487768e-06 1.3634981e-05
000220 6f f8 00 38 b3 f0 2e 37 8b 22 48 35 b8 f6 17 37
       3.074895e-05 1.042725e-05 7.455607e-07 9.057745e-06
000230 32 b1 4b 35 cc 85 a0 34 a9 b8 bc 3a 87 ab 3f 38
       7.5881246e-07 2.9899672e-07 0.0014398295 4.5697696e-05
000240 ee 91 2b 37 d7 a4 1b 38 dd d2 50 37 9f e1 01 35
       1.0226371e-05 3.71084e-05 1.2446862e-05 4.8384567e-07
000250 bf 80 b4 36 9a 3c 3e 35 07 34 45 34 7e 5c 10 3a
       5.379406e-06 7.08687e-07 1.8365982e-07 0.00055069465
000260 86 db 02 3a a5 70 03 37 8e 2a 08 38 1b 23 33 37
       0.0004991818 7.834436e-06 3.246456e-05 1.0677405e-05
000270 08 5b ad 34 33 29 82 36 88 a8 10 35 ef 4b 22 34
       3.2289995e-07 3.879098e-06 5.3889426e-07 1.511505e-07
000280 95 3d a8 39 0f 6f d8 38 3e bc 8c 36 b1 64 5c 37
       0.0003208934 0.00010320369 4.1942394e-06 1.3136466e-05
000290 46 ea 27 36 63 30 77 34 2e b1 37 36 3f f6 50 34
       2.5021304e-06 2.302127e-07 2.7372257e-06 1.9461093e-07
0002a0 99 58 ca 33 6d f2 e4 39 a2 6c 81 39 d6 3b 5c 37
       9.422474e-08 0.0004366817 0.00024685735 1.31269535e-05
0002b0 35 00 0c 38 97 4e 3f 37 1a 89 4b 35 bc fc 26 37
       3.3378794e-05 1.1402785e-05 7.58229e-07 9.953215e-06
0002c0 23 4f 4f 35 10 18 a7 34 45 c4 bf 3a 2c 06 b1 39
       7.722867e-07 3.1123682e-07 0.0014630636 0.0003376467
0002d0 75 ee c1 37 1a 13 70 38 17 b9 8e 37 df e4 c6 35
       2.3118433e-05 5.723825e-05 1.7013908e-05 1.481876e-06
0002e0 b8 77 a0 37 db e6 dd 35 c7 1f 1c 35 83 c6 4d 3b
       1.9129235e-05 1.6532971e-06 5.816077e-07 0.003139884
0002f0 7d ed 02 3a b0 e1 86 36 97 63 a7 37 e7 24 61 36
       0.0004994495 4.0197847e-06 1.9954326e-05 3.3549093e-06
000300 8b 15 26 34 f3 aa 16 36 4c 75 93 34 2c 92 1e 33
       1.5467792e-07 2.2451247e-06 2.7466228e-07 3.6920184e-08
000310 30 cd d5 35 8a e2 90 38 14 3a 63 37 5c 48 33 38
       1.5929454e-06 6.908651e-05 1.3543777e-05 4.2744316e-05
000320 bd cb 66 37 be e3 30 35 b3 b4 07 37 b3 7d 54 35
       1.3756505e-05 6.589652e-07 8.088699e-06 7.915907e-07
000330 01 b9 74 34 24 69 13 3a f7 d7 8c 3a a7 d6 0d 38
       2.2791575e-07 0.0005623272 0.0010745515 3.381693e-05
000340 50 60 84 38 64 ac cb 37 af b6 e7 35 db d6 ac 37
       6.31219e-05 2.4279761e-05 1.7264009e-06 2.0604048e-05
000350 68 77 06 36 03 c8 36 35 e4 09 6a 3b b6 c3 25 3a
       2.003706e-06 6.809134e-07 0.0035711462 0.00063234137
000360 52 40 c3 36 38 9c a5 37 04 25 d8 36 d4 a6 70 34
       5.8189407e-06 1.9742278e-05 6.441611e-06 2.2412434e-07
000370 bf c3 20 36 01 42 b1 34 4a b3 8a 33 e4 dc 7c 38
       2.3955797e-06 3.3016843e-07 6.458738e-08 6.0287202e-05
000380 0f 40 7c 39 12 07 cf 37 bf fc 3b 38 ec 56 d5 37
       0.00024056456 2.4679615e-05 4.4819662e-05 2.5432055e-05
000390 72 86 bb 35 bf 4e 9d 37 76 5d c9 35 81 c1 1c 35
       1.3971714e-06 1.8752527e-05 1.5002868e-06 5.8396114e-07
0003a0 7c 25 44 3b 22 7d 4f 3a 50 8d 11 38 d8 4d b5 38
       0.002992957 0.00079150696 3.47023e-05 8.645252e-05
0003b0 4f 8e e2 37 c2 b4 02 36 2a 2c d7 37 8a 6a 0a 36
       2.7007567e-05 1.9476724e-06 2.5650563e-05 2.0625616e-06
0003c0 ac b2 59 35 46 c0 7c 3b e3 ff db 3a f6 16 88 34
       8.10988e-07 0.0038566752 0.0016784634 2.534868e-07
0003d0 36 2d 76 36 5f 58 77 34 29 3f 30 32 80 38 1d 34
       3.6683173e-06 2.3035817e-07 1.0258909e-08 1.4642319e-07
0003e0 df cc 33 32 bd 27 b3 31 2a fe 31 35 f6 c5 cc 33
       1.0465754e-08 5.2141034e-09 6.6307496e-07 9.535499e-08
0003f0 81 0c 29 37 1c 89 9e 37 a6 c0 29 37 5f 0c 24 35
       1.0076096e-05 1.8898914e-05 1.0118039e-05 6.1112763e-07

exp_avg f4 [128]
000000 18 35 94 37 65 a0 22 37 3b e9 79 39 f9 de 0b b7
       1.7667699e-05 9.693297e-06 0.00023833376 -8.3369605e-06
000010 ee 0c 9b 38 5b 03 15 b9 d3 1f bd 38 28 99 8a 38
       7.393384e-05 -0.00014210997 9.01815e-05 6.60888e-05
000020 ed da 0b 35 87 9c 50 38 e7 28 e2 35 26 95 16 b9
       5.2100114e-07 4.9736842e-05 1.6850216e-06 -0.00014360677
000030 0d 1e dc 39 e2 0e a2 33 51 10 b9 36 55 ca 66 b8
       0.0004198406 7.54642e-08 5.515329e-06 -5.502471e-05
000040 6c eb 3d 38 a3 50 68 b8 d5 a0 a8 38 6e c1 ae b7
       4.5280365e-05 -5.538821e-05 8.0408216e-05 -2.083249e-05
000050 7e 8a 02 b8 fb 4e a8 33 10 ff 3f 38 aa f1 53 39
       -3.1123396e-05 7.837476e-08 4.5775494e-05 0.00020212555
000060 e3 06 6c b6 ad 24 91 37 54 bf 27 37 9a 51 5b 34
       -3.517075e-06 1.7302425e-05 9.998523e-06 2.0425651e-07
000070 89 32 19 38 f7 d6 55 b8 89 c9 86 38 f4 31 ce b8
       3.6525107e-05 -5.098336e-05 6.427157e-05 -9.83215e-05
000080 ba 58 56 b8 8d 24 86 38 76 91 b3 b7 7b b3 81 b7
       -5.110421e-05 6.396426e-05 -2.1406198e-05 -1.5461575e-05
000090 40 e2 1b 39 d2 4a 3e 38 c2 ed ee 38 21 c3 2a 37
       0.00014866237 4.5369212e-05 0.0001139301 1.0178222e-05
0000a0 24 e3 5a 39 b7 64 d0 38 4d ae a1 38 77 14 ba b4
       0.00020874717 9.9369725e-05 7.709544e-05 -3.466009e-07
0000b0 ca 7f 01 b6 60 b2 45 39 79 b0 6f 38 6e a0 c3 35
       -1.929688e-06 0.00018853834 5.7146393e-05 1.4575323e-06
0000c0 db d1 9a b8 48 2a b4 37 34 0b 9d b8 45 0f ad b8
       -7.382381e-05 2.147736e-05 -7.48843e-05 -8.252127e-05
0000d0 23 21 77 35 30 d0 3e 34 db 31 61 b2 88 d2 3c 38
       9.206289e-07 1.7770867e-07 -1.31080595e-08 4.5018765e-05
0000e0 2e 64 40 38 a0 3f de b7 ae 3a 2f 39 6a 7f 94 37
       4.5869667e-05 -2.649409e-05 0.0001671116 1.7702307e-05
0000f0 35 a4 0a b8 c4 e2 2e b8 16 a1 ff b8 f0 f9 79 38
       -3.3054694e-05 -4.1696025e-05 -0.00012189352 5.9599e-05
000100 f1 88 48 39 7a ff 68 b6 fc 12 c2 b8 3d 63 ae b8
       0.00019124501 -3.47194e-06 -9.254177e-05 -8.315451e-05
000110 9c e6 69 b8 ed 44 70 38 64 44 9b 37 40 d0 6e 38
       -5.57663e-05 5.728465e-05 1.8509287e-05 5.693757e-05
000120 c4 ba fc 38 71 b7 0d 39 62 bb 20 b9 23 5a 62 35
       0.00012051084 0.00013515145 -0.00015328595 8.4322727e-07
000130 30 6c 6d 36 9e ec 3e 39 78 9e 29 39 e1 f1 4c 39
       3.5378725e-06 0.00018207959 0.0001617613 0.00019545063
000140 97 f2 5e b8 73 b6 07 39 e1 9b 0e 34 7d 66 08 b6
       -5.3154854e-05 0.00012942571 1.3281489e-07 -2.0325235e-06
000150 5d d8 94 37 3d 75 38 b9 7e 59 6d 38 82 24 1a b9
       1.7743727e-05 -0.00017591282 5.658855e-05 -0.00014700185
000160 b4 c9 a3 b7 03 c9 97 32 d2 2d c8 b8 e2 a0 f0 38
       -1.952504e-05 1.7670123e-08 -9.545278e-05 0.000114740586
000170 10 e5 2e b8 cf 56 82 b8 9c 0d 63 b8 d4 23 53 39
       -4.1698164e-05 -6.2150524e-05 -5.4133692e-05 0.00020135875
000180 fd cc b8 38 c1 dd 0f b8 60 10 4b 39 94 98 48 39
       8.811986e-05 -3.430038e-05 0.00019365689 0.00019130326
000190 fa b9 41 38 5c b3 14 38 08 67 56 35 e8 f8 5f b9
       4.618799e-05 3.545299e-05 7.987114e-07 -0.00021359662
0001a0 f2 f3 b6 38 b7 10 e7 b8 f3 de a8 37 42 c9 53 b9
       8.7238746e-05 -0.00011018052 2.013098e-05 -0.00020197502
0001b0 dc 66 3b 39 5c 40 03 b9 c7 e0 ed 38 19 51 eb 38
       0.00017872028 -0.0001251711 0.00011342909 0.00011220779
0001c0 fc 33 d6 35 2d 78 fe 36 07 ac 81 b6 a0 23 ab b7
       1.5959372e-06 7.58378e-06 -3.864526e-06 -2.0401378e-05
0001d0 a2 d1 4a b9 4b 7e 57 38 b6 21 30 b9 08 62 82 38
       -0.00019342315 5.1377614e-05 -0.00016797226 6.217143e-05
0001e0 8a 80 43 b8 6f fa 87 36 a1 e6 88 b6 bc ee 6c b8
       -4.6611334e-05 4.052468e-06 -4.0799646e-06 -5.6489123e-05
0001f0 17 7c ab b6 02 88 71 35 1f 01 e5 35 50 17 7c b8
       -5.110643e-06 8.9977414e-07 1.7062156e-06 -6.0103193e-05
