VirtualAquarium/results/VirtualAquarium/VirtualAquarium/VirtualAquarium-3499997.pt (torch, 451487 bytes, 36 tensors)

network_body._body_endoder.seq_layers.0.weight f4 [128, 9]
0.38590005 0.042594604 0.4323718 0.028616115 -0.050697792 -0.6069076 -0.32420748 -0.72407573
-0.12673043 -0.400401 -0.41063243 0.068425186 0.05819159 0.2533523 -0.3437634 0.2652457
-0.08365818 -0.016305428 -0.17192405 0.022240454 -0.2570658 -0.31269604 0.34963882 -0.20437212
0.350203 -0.8215919 -0.8135675 -0.101054266 -0.33042148 -0.16632386 0.08549746 0.12609732
-0.005644943 0.2955033 -0.5949744 0.18456951 0.11680814 0.15974797 0.111595355 0.08210922
-0.34879774 0.20022833 -0.2579703 0.0170084 -0.48415416 -0.037320804 0.36761823 0.21932343
-0.41392988 0.069375 0.4835304 0.05360151 -0.39154 -0.0612699 -0.43306386 -0.028717935
-0.074141085 0.31144452 -0.04631233 -0.4090498 -0.35811073 -0.76529735 -0.6477802 0.043976035
0.112625584 -0.8535178 -0.5676889 -0.31197187 0.13818106 -0.03357096 -0.58959466 -0.0050416007
-0.043938927 0.5611245 -0.05884179 -0.8916962 -0.3687307 -0.1829245 -0.01638622 -0.3910155
-0.3264469 -0.18220103 -0.09507427 -0.21272005 -0.0049538473 -0.35580343 -0.12730159 -0.28646085
-0.4975769 -0.2685067 -0.07728762 -0.22618262 0.05173859 -0.59945595 0.38481826 -0.39707357
0.0018347794 -0.3183385 -0.55230796 -0.35978714 0.43149194 -0.67052245 -0.21756385 0.3380622
0.34742698 -0.47525713 -0.16029572 0.43229866 -0.04921497 0.6382429 0.34392098 0.27640653
0.355802 -0.23875594 -0.09741353 0.056867216 -0.79290575 0.17581634 0.21943797 0.27573717
0.53335345 -0.62783724 0.14580226 0.14372116 -0.38136476 -0.33010635 0.0056910412 -0.20160055
-0.6387809 0.42206085 0.06545949 -1.0341896 -0.7369793 -0.48525202 -0.3675738 -0.81869304
0.5076794 -0.30838394 0.37403885 0.41203704 0.00291196 0.2695537 0.1827305 0.07300413
0.11485008 -0.09132148 -0.15166458 -0.3281764 0.051497966 -0.43230984 0.4296055 -0.13684647
0.038923487 0.13824087 -0.006013001 -0.13849913 0.400259 -0.26197162 0.08104662 -0.0021676682
-0.28377452 -0.28877065 0.016886177 -0.15866207 -0.21528724 -0.2730094 0.19652711 -0.038324162
0.50090384 -0.2712301 0.43419644 0.12571439 0.04566388 0.21776105 0.45283914 0.015247441
-0.31324387 0.15550515 -0.22627068 -0.83674496 -0.028262902 -0.7716638 0.25971097 0.53329706
-0.2853538 0.2634014 0.22118954 -0.24445812 -0.20496522 0.49098772 0.34608325 -0.27886248
0.30459693 0.123376794 -0.048549227 -0.008948401 -0.21181613 0.23334777 0.32003504 -0.98491675
0.06910708 0.06106432 0.037004393 0.14883333 0.24056654 -0.41382623 -0.1050091 -0.3041946
-0.94028896 -0.28524914 0.065450944 0.2567787 0.10545518 0.4266051 0.27551478 -0.14563555
0.2936566 0.41479692 0.058300145 -0.18866104 -0.16733694 -0.099286035 0.037218682 -0.44739416
-0.120915584 -0.11638247 -0.3489395 -0.09684991 -0.10383436 -0.36068043 -0.5854908 0.0938693
-0.6625971 0.17241015 -0.7097205 -0.40651366 -0.11794609 -0.49317127 0.06057299 -0.30347472
-0.32591096 -0.5823008 0.29775122 0.05900139 0.26102707 0.10666608 0.26616085 0.02478214
-0.20900485 0.04472911 0.075681485 -0.782685 -0.3571505 0.10445616 -0.57935655 -0.3508274
00000000: b194 c53e ae77 2e3d d65f dd3e 586c ea3c
00000010: 7da8 4fbd 4c5e 1bbf 86fe a5be 075d 39bf
00000020: 9fc5 01be 5c01 cdbe 6a3e d2be 8122 8c3d
00000030: 4e5a 6e3d 65b7 813e c201 b0be 49ce 873e
00000040: fb54 abbd f692 85bc dc0c 30be 9d31 b63c
00000050: 219e 83be b219 a0be dc03 b33e ed46 51be
00000060: cf4d b33e d953 52bf f645 50bf 8af5 cebd
00000070: 012d a9be cd50 2abe 4b19 af3d a81f 013e
00000080: 37f9 b8bb 354c 973e 3e50 18bf caff 3c3e
00000090: 1b39 ef3d f994 233e 1b8c e43d e128 a83d
000000a0: 9e95 b2be a808 4d3e af14 84be 3355 8b3c
000000b0: 0ee3 f7be b3dd 18bd 7538 bc3e 5296 603e
000000c0: 9eee d3be 7b14 8e3d 4c91 f73e 428d 5b3d
000000d0: ee77 c8be 26f6 7abd 8cba ddbe e041 ebbc
000000e0: 48d7 97bd a875 9f3e ffb1 3dbd fa6e d1be
000000f0: 4a5a b7be 87ea 43bf ecd4 25bf 3720 343d
00000100: 3ea8 e63d 2480 5abf 0f54 11bf c7ba 9fbe
00000110: 567f 0d3e b481 09bd adef 16bf 0334 a5bb
00000120: 4ef9 33bd dba5 0f3f 1704 71bd 3446 64bf
00000130: 45ca bcbe 8f50 3bbe 653c 86bc 2f33 c8be
00000140: 0c24 a7be e892 3abe 4db6 c2bd 49d3 59be
00000150: e253 a2bb de2b b6be 595b 02be ffaa 92be
00000160: 66c2 febe b679 89be f948 9ebd 6b9c 67be
00000170: d8eb 533d f275 19bf e606 c53e 3a4d cbbe
00000180: fb7c f03a 44fd a2be 0e64 0dbf 0536 b8be
00000190: 83ec dc3e 5ca7 2bbf 0fc9 5ebe 7d16 ad3e
000001a0: f3e1 b13e e754 f3be 9024 24be 4056 dd3e
000001b0: a395 49bd e363 233f 6916 b03e 2885 8d3e
000001c0: ae2b b63e 707c 74be bf80 c7bd 99ed 683d
000001d0: dffb 4abf 3309 343e 59b4 603e 6c2d 8d3e
000001e0: da89 083f f1b9 20bf 304d 153e a42b 133e
000001f0: 3e42 c3be b303 a9be ea7b ba3b 6070 4ebe
00000200: 2587 23bf 5c18 d83e a00f 863d 5360 84bf
00000210: adaa 3cbf f472 f8be a232 bcbe de95 51bf
00000220: 47f7 013f 80e4 9dbe 0582 bf3e 85f6 d23e
00000230: 95d6 3e3b f102 8a3e b41d 3b3e 3083 953d
00000240: 8536 eb3d c206 bbbd f64d 1bbe bd06 a8be
00000250: 88ef 523d b757 ddbe 41f5 db3e 7b21 0cbe
00000260: 3c6e 1f3d 048f 0d3e b508 c5bb b7d2 0dbe
00000270: bfee cc3e 2521 86be c5fb a53d 700f 0ebb
00000280: e54a 91be bfd9 93be e154 8a3c 4f78 22be
00000290: 4274 5cbe e3c7 8bbe 673e 493e ccf9 1cbd
000002a0: 3c3b 003f acde 8abe ff4e de3e 46bb 003e
000002b0: 0c0a 3b3d c1fc 5e3e 88da e73e 67d0 793c
000002c0: 8061 a0be be3c 1f3e 80b3 67be eb34 56bf
000002d0: 9a87 e7bc c28b 45bf d6f8 843e 2886 083f
000002e0: e519 92be 8cdc 863e 837f 623e 3b53 7abe
000002f0: 67e2 51be be62 fb3e d331 b13e 10c7 8ebe
00000300: 21f4 9b3e f9ac fc3d 8edb 46bd 509c 12bc
00000310: 54e6 58be b8f2 6e3e a2db a33e 8123 7cbf
00000320: 0388 8d3d 951e 7a3d eb91 173d c467 183e
00000330: 1357 763e 08e1 d3be 030f d7bd 65bf 9bbe
00000340: c7b6 70bf 2d0c 92be 250b 863d 7f78 833e
00000350: e3f8 d73d fc6b da3e 4610 8d3e 7c21 15be
00000360: 285a 963e 4360 d43e 22cc 6e3d 5c30 41be
00000370: 605a 2bbe 7a56 cbbd 9e72 183d d910 e5be
00000380: 97a2 f7bd ef59 eebd 33a8 b2be 3f59 c6bd
00000390: 1ca7 d4bd 1bab b8be bae2 15bf 8c3e c03d
000003a0: f79f 29bf 498c 303e 3eb0 35bf 8f22 d0be
000003b0: b88d f1bd f280 fcbe 621b 783d 0a61 9bbe
000003c0: cddd a6be aa11 15bf d972 983e 71ab 713d
000003d0: 57a5 853e bf73 da3d 3c46 883e ea03 cb3c
000003e0: 5e05 56be df35 373d e5fe 9a3d 0b5e 48bf
000003f0: 6edc b6be 1ced d53d b650 14bf a69f b3be

network_body._body_endoder.seq_layers.0.bias f4 [128]
-0.15318765 -0.34771293 -0.054452576 0.031072775 0.042596553 -0.15236032 -0.05675662 -0.28828722
-0.077151164 -0.14867464 -0.23173581 -0.13270488 -0.16000967 0.08562426 -0.1552069 -0.12989353
-0.24995472 -0.024737926 -0.26395497 -0.35690084 0.09086289 -0.13359113 0.040291145 -0.047206324
-0.19761306 -0.059391867 -0.123865806 0.0637339 -0.3091988 -0.08712647 0.076073684 -0.1078771
-0.269928 0.14863479 -0.0005722518 -0.024086693 -0.15344732 -0.1197147 -0.13099103 -0.07986598
-0.31814235 -0.00069795 -0.25343123 -0.02411907 -0.23819332 -0.21342734 -0.24234658 -0.06892494
-0.09496741 -0.14296526 -0.16891523 -0.2548318 0.1152016 -0.22129698 -0.38970706 -0.016484829
-0.38023654 -0.02927711 -0.20765974 -0.3029108 0.045978334 -0.3276583 -0.06992361 0.16148521
-0.5393459 -0.07907004 -0.007628866 -0.038446948 -0.19667122 -0.034400593 0.011452398 -0.08678237
-0.038267467 -0.25783545 -0.3600339 -0.12283631 0.10046037 0.033011775 -0.07187517 0.047511272
-0.22558765 -0.33900192 -0.2522368 -0.31202042 -0.14836733 -0.27255216 -0.21347244 -0.006535759
-0.25374833 -0.20864068 -0.43140626 -0.074207805 -0.026604198 0.13374165 -0.06281504 -0.1123461
-0.13009003 -0.27425233 -0.35603186 -0.11726264 -0.11696141 0.10777272 -0.013795278 -0.051916935
-0.051366646 0.029322216 0.097410046 -0.23620856 -0.12833549 0.014096499 -0.09156691 -0.039200474
-0.12758674 -0.11988075 -0.14739351 -0.10065291 -0.2632001 0.11787419 -0.009039233 -0.07343374
-0.074473 -0.2531618 -0.029993506 -0.30255985 -0.10304818 -0.1948677 0.13259998 0.0026270852
00000000: 39dd 1cbe 6e07 b2be aa09 5fbd 558c fe3c
00000010: b979 2e3d 5804 1cbe a179 68bd 629a 93be
00000020: 6e01 9ebd 2a3e 18be 274c 6dbe cae3 07be
00000030: 93d9 23be c65b af3d 8fee 1ebe cf02 05be
00000040: 21f4 7fbe 31a7 cabc 1b25 87be b5bb b6be
00000050: 5316 ba3d 1dcc 08be 5408 253d 6b5b 41bd
00000060: 145b 4abe e344 73bd 5bad fdbd eb86 823d
00000070: 4e4f 9ebe 5d6f b2bd 85cc 9b3d abee dcbd
00000080: 0134 8abe b833 183e 2b03 16ba 7551 c5bc
00000090: 4b21 1dbe fb2c f5bd 8322 06be c690 a3bd
000000a0: 8ee3 a2be a2f6 36ba bdc1 81be 5b95 c5bc
000000b0: f3e8 73be b28c 5abe b429 78be 8528 8dbd
000000c0: 467e c2bd 7c65 12be 1df8 2cbe 5079 82be
000000d0: d1ee eb3d ad9b 62be af87 c7be 310b 87bc
000000e0: 5dae c2be 8dd6 efbc c1a4 54be 2017 9bbe
000000f0: c753 3c3d d4c2 a7be 1c34 8fbd 615c 253e
00000100: 9312 0abf 79ef a1bd 91fb f9bb 8c7a 1dbd
00000110: 2e64 49be a3e7 0cbd d7a2 3b3c f5ba b1bd
00000120: 59be 1cbd 0203 84be 5d56 b8be 9a91 fbbd
00000130: 2bbe cd3d 5b37 073d 4a33 93bd 2e9b 423d
00000140: 7300 67be a991 adbe 2f25 81be 24c1 9fbe
00000150: 9bed 17be f58b 8bbe 8598 5abe ec29 d6bb
00000160: 4deb 81be e7a5 55be 48e1 dcbe 43fa 97bd
00000170: 0cf1 d9bc 92f3 083e 2ca5 80bd b615 e6bd
00000180: 5236 05be cd6a 8cbe cf49 b6be 6527 f0bd
00000190: 7789 efbd f2b7 dc3d 9705 62bc daa6 54bd
000001a0: d565 52bd 2535 f03c eb7e c73d a8e0 71be
000001b0: 616a 03be 01f5 663c 6f87 bbbd ad90 20bd
000001c0: 19a6 02be 0a84 f5bd 53ee 16be 1d23 cebd
000001d0: 2ac2 86be 0668 f13d 4b19 14bc 6e64 96bd
000001e0: 4d85 98bd 6c9e 81be f1b4 f5bc 20e9 9abe
000001f0: ed0a d3bd 668b 47be 4ac8 073e 2d2b 2c3b

network_body._body_endoder.seq_layers.2.weight f4 [128, 128]
-0.19655372 -0.2618842 0.10664887 0.2552377 -0.043238573 0.096054494 -0.1760714 0.15220363
0.39354095 0.04178104 -0.2878933 -0.15479918 -0.21037859 -0.09333393 0.0073155886 -0.43640947
-0.20034751 0.073970936 0.15854956 -0.2911126 -0.11643083 -0.20025836 0.0013974854 -0.26395798
0.17917536 -0.11804735 0.027200947 -0.2504389 -0.049244817 0.015064685 -0.4047564 -0.4141139
0.07398205 -0.25606757 0.2119501 -0.16825198 0.46683475 -0.14018746 0.20747076 -0.35425308
0.20711643 0.21551512 -0.30934808 0.19190907 0.07540224 -0.005122332 0.17681542 -0.04780038
0.053895652 0.12871581 0.08829415 0.032542553 -0.1861939 -0.16328134 0.22796668 -0.18645917
0.33067605 -0.2209136 -0.07770638 -0.086146966 -0.36041385 0.02083118 0.27181953 -0.09377337
0.3642873 0.102887236 -0.12300001 -0.2841051 0.062622696 -0.14012629 0.06934228 -0.40778226
-0.27279317 0.3493393 0.14731212 0.06623053 -0.26018044 0.13305148 0.009835005 -0.33562094
-0.20748574 -0.03781214 0.053935632 -0.20670998 -0.24478249 0.005967143 0.05150205 -0.13581765
-0.20162025 -0.24864456 -0.07522568 0.12748843 -0.11337436 -0.11225057 0.1386016 0.041424245
0.13217701 0.16173452 0.13797015 -0.16346227 -0.10268578 -0.049617134 -0.39828658 -0.24868931
-0.08640843 -0.3645857 0.348859 -0.06321858 -0.096622184 0.2757117 -0.12041595 -0.42400724
-0.14313851 -0.019562323 -0.14305662 -0.24044587 -0.027395032 -0.109110154 -0.16634448 -0.23915377
0.29096147 -0.15086137 0.036238037 0.103586406 -0.19563848 -0.19013259 0.1478125 -0.39220616
0.057831056 -0.09547716 -0.04798056 0.024925018 -0.14156161 0.21792673 -0.16347699 0.32823277
0.41533893 0.06842517 0.054386668 -0.23240818 -0.029070618 -0.3796375 0.15538867 -0.32334518
-0.025704185 -0.061213706 -0.08562124 -0.10205737 -0.05793767 -0.15093115 -0.10869534 -0.14064178
-0.13098644 -0.14026804 -0.14214033 0.009223083 0.05704241 -0.24411713 -0.4047115 0.07705977
0.099069625 -0.40146837 -0.14196791 -0.18883723 -0.015474608 -0.24814269 0.3147787 -0.13232796
0.22218588 0.29402006 -0.042033233 -0.044900857 0.12240236 0.0970068 0.116772436 -0.21791211
0.28435203 0.238102 0.25928012 -0.010272563 -0.3409441 -0.26682433 0.21813768 -0.15889034
0.020786788 -0.28208098 -0.057451706 -0.06994245 -0.10480416 -0.095751695 0.054362204 0.068779744
0.08656957 -0.085773595 -0.021627812 0.047870975 0.055209164 -0.45618853 0.10518565 -0.02518315
0.07503737 0.12648551 0.049490694 -0.043349072 -0.01848292 -0.0490192 -0.07041745 -0.12123855
0.013472996 -0.09659739 -0.042646825 0.060118064 -0.25555167 0.07746345 0.16362208 -0.11041877
0.14963292 -0.13733439 -0.041081112 -0.08605174 -0.038713183 -0.27104533 0.28680402 -0.04880328
-0.10280908 0.06652136 0.13472061 -0.083506465 -0.19202296 0.021602828 -0.13891684 -0.22306174
0.002993675 -0.14463887 0.18682641 -0.028007675 -0.21317583 0.11538208 -0.25903016 -0.011445254
-0.3747586 0.16635801 -0.29476157 -0.09179553 -0.051762234 -0.109006956 -0.13708732 -0.24239713
-0.20680101 -0.024975173 0.1012029 0.08484684 -0.20164748 -0.00018435261 -0.3635149 -0.3764368
00000000: 6145 49be b015 86be b96a da3d 84ae 823e
00000010: ee1a 31bd 38b8 c43d 104c 34be 45db 1b3e
00000020: 337e c93e 9922 2b3d c066 93be ad83 1ebe
00000030: 7c6d 57be dc25 bfbd 9bb7 ef3b 1071 dfbe
00000040: e627 4dbe 137e 973d d15a 223e b60c 95be
00000050: 4973 eebd 8710 4dbe d42b b73a 8025 87be
00000060: bf79 373e cfc2 f1bd 85d4 de3c 8739 80be
00000070: efb4 49bd ded1 763c 3b3c cfbe bd06 d4be
00000080: e783 973d 4a1b 83be 7209 593e 3f4a 2cbe
00000090: f704 ef3e 4d8d 0fbe 3773 543e a960 b5be
000000a0: 5416 543e ffaf 5c3e df62 9ebe d083 443e
000000b0: 7d6c 9a3d 3cd9 a7bb 1a0f 353e 55ca 43bd
000000c0: b0c1 5c3d 14ce 033e 90d3 b43d 574b 053d
000000d0: 9da9 3ebe 3933 27be 1970 693e 27ef 3ebe
000000e0: 5f4e a93e 2d37 62be 8624 9fbd d26d b0bd
000000f0: 2a88 b8be 27a6 aa3c ee2b 8b3e 410c c0bd
00000100: dd83 ba3e 8bb6 d23d 6ee7 fbbd 3976 91be
00000110: 5440 803d 447d 0fbe 5303 8e3d d6c8 d0be
00000120: 8cab 8bbe 9adc b23e fdd8 163e dfa3 873d
00000130: 5f36 85be a63e 083e 0023 213c 82d6 abbe
00000140: 2477 54be e7e0 1abd 9ceb 5c3d c8ab 53be
00000150: 43a8 7abe 0688 c33b d0f3 523d c813 0bbe
00000160: 8a75 4ebe ae9c 7ebe ec0f 9abd 548c 023e
00000170: d130 e8bd a0e3 e5bd 94ed 0d3e 78ac 293d
00000180: 6959 073e bc9d 253e 0c48 0d3e a762 27be
00000190: ec4c d2bd 563b 4bbd 38ec cbbe 69a8 7ebe
000001a0: e7f6 b0bd faaa babe a69d b23e be78 81bd
000001b0: dae1 c5bd 152a 8d3e a39c f6bd 7a17 d9be
000001c0: e792 12be 2a41 a0bc 6f7d 12be 7137 76be
000001d0: 8c6b e0bc 2575 dfbd 3556 2abe bae4 74be
000001e0: e7f8 943e 677b 1abe 566e 143d 1c25 d43d
000001f0: 7455 48be 1eb2 42be 295c 173e 3fcf c8be
00000200: 42e0 6c3d 8789 c3bd 4487 44bd 8d2f cc3c
00000210: 87f5 10be 2f28 5f3e 8366 27be 200e a83e
00000220: 4ea7 d43e 7f22 8c3d 8ec4 5e3d 69fc 6dbe
00000230: 8125 eebc d95f c2be 351e 1f3e 808d a5be
00000240: 9591 d2bc 39bb 7abd 305a afbd 7403 d1bd
00000250: 0d50 6dbd b28d 1abe aa9b debd 6604 10be
00000260: 4f21 06be 6da2 0fbe 3c8d 11be 6a1c 173c
00000270: 4da5 693d d7f9 79be 5936 cfbe 83d1 9d3d
00000280: 04e5 ca3d 438d cdbe 0960 11be 8c5e 41be
00000290: 3689 7dbc 1e19 7ebe ac2a a13e fb80 07be
000002a0: b284 633e cc89 963e 0a2b 2cbd f6e9 37bd
000002b0: 17ae fa3d 80ab c63d 6326 ef3d 5a24 5fbe
000002c0: 9796 913e 03d1 733e 5dc0 843e 414e 28bc
000002d0: 3a90 aebe 339d 88be 7c5f 5f3e 26b4 22be
000002e0: 0e49 aa3c eb6c 90be 7b52 6bbd fd3d 8fbd
000002f0: 90a3 d6bd 7719 c4bd e7aa 5e3d 65dc 8c3d
00000300: 634b b13d 11aa afbd cf2c b1bc 5b14 443d
00000310: 0123 623d 8b91 e9be 936b d73d e54c cebc
00000320: 31ad 993d 6b85 013e c1b6 4a3d cc8e 31bd
00000330: 7e69 97bc 5bc8 48bd 0637 90bd eb4b f8bd
00000340: d7bd 5c3c dad4 c5bd 70ae 2ebd 5c3e 763d
00000350: abd7 82be 28a5 9e3d 8c8c 273e 3c23 e2bd
00000360: 5f39 193e 63a1 0cbe ab44 28bd e53b b0bd
00000370: b791 1ebd 74c6 8abe fad7 923e f3e5 47bd
00000380: 918d d2bd 5a3c 883d 33f4 093e 7005 abbd
00000390: aba1 44be 6af8 b03c 3740 0ebe 4c6a 64be
000003a0: 8831 443b 361c 14be 6c4f 3f3e 5a70 e5bc
000003b0: c44a 5abe 714d ec3d 9a9f 84be e084 3bbc
000003c0: 5ce0 bfbe c159 2a3e fdea 96be 4bff bbbd
000003d0: a304 54bd 0a3f dfbd 9e60 0cbe f436 78be
000003e0: a5c3 53be bc98 ccbc 7743 cf3d 2ec4 ad3d
000003f0: ad7c 4ebe c74e 41b9 a01e babe 53bc c0be

network_body._body_endoder.seq_layers.2.bias f4 [128]
-0.51011366 -0.3230625 -0.5579418 -0.2435888 -0.07379116 -0.069017425 -0.23178957 -0.2249842
-0.1096685 -0.22922091 -0.04357947 -0.21401682 -0.19476035 -0.3341968 0.064160265 0.019955408
-0.23669054 -0.14514434 -0.4032935 -0.2006669 -0.07066798 -0.292425 -0.008747167 -0.05473292
-0.4629217 -0.19166318 -0.15554455 -0.25283906 0.0325762 -0.1683635 -0.24773648 -0.24580614
-0.16548115 -0.23128462 -0.008631939 -0.20944108 -0.14690958 -0.25274256 -0.16972198 -0.33717763
-0.24965407 -0.19200416 -0.13634068 -0.41994056 -0.10124822 -0.022014655 -0.08576462 -0.191743
-0.03706432 -0.14602771 -0.108391024 -0.15527675 -0.296559 -0.21321028 -0.27118927 0.002285559
-0.38843638 -0.23527412 -0.44654068 -0.12599283 -0.19071172 0.011273547 -0.24005 -0.16960065
-0.49739584 -0.35140228 -0.07162866 -0.37854865 -0.06255221 0.17865726 -0.27611434 -0.25450554
-0.05447724 -0.35412723 -0.19080815 -0.36394462 0.013178813 -0.16692103 -0.23506053 0.0006975967
-0.060586132 -0.29153794 -0.15047427 -0.14048024 -0.21062192 -0.42944467 -0.14200312 -0.31036168
-0.297627 0.07117565 -0.18934134 -0.03897273 -0.07665361 -0.50602186 -0.36322707 -0.16751114
0.040998828 -0.17536646 -0.14516897 -0.14224473 -0.2883233 -0.18068536 -0.1839124 -0.16707705
-0.21568026 -0.06415774 -0.2889131 -0.43889287 0.12544157 -0.04157184 -0.39578643 -0.29795212
-0.03755351 -0.20093983 -0.10839853 -0.06779396 -0.22904292 0.011104208 -0.1325786 -0.3742715
-0.5569171 -0.07473204 -0.29257768 -0.13306691 -0.16644034 -0.123364285 -0.3687668 -0.49287984
00000000: cf96 02bf 7368 a5be 46d5 0ebf 586f 79be
00000010: d21f 97bd 0259 8dbd 3f5a 6dbe 4262 66be
00000020: e199 e0bd e3b8 6abe 6380 32bd 3a27 5bbe
00000030: 426f 47be d81b abbe 7566 833d 8679 a33c
00000040: 015f 72be b8a0 14be 7c7c cebe a07b 4dbe
00000050: 60ba 90bd bbb8 95be 4750 0fbc a02f 60bd
00000060: 1304 edbe 5a43 44be 1247 1fbe 1f74 81be
00000070: 9f6e 053d 7b67 2cbe a2ae 7dbe 9bb4 7bbe
00000080: e473 29be e0d5 6cbe fa6c 0dbc b977 56be
00000090: 776f 16be 7967 81be 99cb 2dbe 8ca2 acbe
000000a0: 51a5 7fbe bd9c 44be e49c 0bbe 7302 d7be
000000b0: 3a5b cfbd 1458 b4bc 5ca5 afbd 4758 44be
000000c0: c2d0 17bd 4a88 15be 1dfc ddbd de00 1fbe
000000d0: 95d6 97be cc53 5abe 52d9 8abe 51c9 153b
000000e0: 22e1 c6be b3eb 70be fba0 e4be 4404 01be
000000f0: ef49 43be afb4 383c abcf 75be cbab 2dbe
00000100: abaa febe 00eb b3be 0cb2 92bd 21d1 c1be
00000110: 601b 80bd eef1 363e dc5e 8dbe 8d4e 82be
00000120: 8723 5fbd 2a50 b5be 3663 43be f356 babe
00000130: f3eb 573c 59ed 2abe b5b3 70be ecde 363a
00000140: 2a29 78bd 7644 95be ed15 1abe 0dda 0fbe
00000150: 46ad 57be 2ce0 dbbe 4469 11be bae7 9ebe
00000160: 9162 98be 8ac4 913d b2e2 41be dfa1 1fbd
00000170: 91fc 9cbd a68a 01bf e6f8 b9be 0a88 2bbe
00000180: 63ee 273d 4493 33be 2da7 14be 9aa8 11be
00000190: 1d9f 93be 9505 39be 8853 3cbe 3f16 2bbe
000001a0: 49db 5cbe 2265 83bd 6bec 93be 91b6 e0be
000001b0: c173 003e 3c47 2abd 85a4 cabe 2e8d 98be
000001c0: b6d1 19bd 2cc3 4dbe 0c00 debd 8fd7 8abd
000001d0: 3a8a 6abe 6dee 353c afc2 07be 84a0 bfbe
000001e0: 1e92 0ebf 1d0d 99bd becc 95be b142 08be
000001f0: 566f 2abe 6aa6 fcbd 01cf bcbe bf5a fcbe

action_model._continuous_distribution.log_sigma f4 [1, 4]
-2.430543 -1.8030226 -1.5454775 -1.2100801
00000000: 048e 1bc0 72c9 e6bf 35d2 c5bf e8e3 9abf

action_model._continuous_distribution.mu.weight f4 [4, 128]
-0.033204764 -0.050034165 -0.039217543 -0.01135257 0.028448341 -0.04155202 -0.0015680215 -0.047842473
-0.02692225 -0.03923889 -0.026943361 -0.073690005 0.008719279 -0.09341786 -0.044181373 0.0017556223
-0.097381875 -0.11200569 -0.03202685 0.022041306 0.025254466 -0.07141086 0.06440269 0.09371606
-0.033163004 -0.016232515 0.076316655 -0.034850232 -0.05408177 0.048058376 -0.029679786 -0.039242037
0.0033558628 -0.03552211 0.095790945 -0.10082341 -0.0146414265 0.046979368 0.006284016 -0.04500368
-0.040966634 -0.18898083 -0.028631983 -0.0508718 0.12900779 0.056751333 0.038099144 -0.022048855
0.03516343 -0.010830182 0.053541742 -0.104746506 -0.11599517 -0.03343463 -0.1341406 0.0642466
-0.038989346 -0.022241538 -0.07974001 0.08449873 0.06936236 0.12630565 -0.06348948 -0.04981571
-0.057499155 -0.07401531 0.005004639 0.010362242 -0.012667217 0.13596211 -0.057635684 -0.05348412
0.04763232 0.034022126 -0.052128337 -0.051585685 0.06650515 -0.038344655 -0.027741952 0.022288034
0.025520422 -0.04635253 0.053865142 -0.1112986 -0.04730759 -0.041132886 -0.009991745 -0.024011597
-0.11270816 0.15465982 0.018671457 0.07946562 0.055672307 -0.031914763 0.0064616823 -0.0032268614
-0.053471167 -0.08408843 0.0303939 -0.089603096 -0.04096269 0.01087302 -0.15337963 -0.018194107
-0.048929613 -0.078782625 -0.14833495 -0.042429566 0.13708499 0.006912422 -0.035713326 0.09609186
-0.024909183 0.017256884 -0.007507613 -0.025076883 0.021307265 0.044812687 -0.04810624 -0.019762838
-0.078217335 -0.007837975 -0.07542847 0.06143045 -0.15193453 -0.09876872 -0.041292824 -0.08655537
-0.038468745 -0.06984204 -0.0020659743 0.015652956 -0.06586242 0.005955245 -0.08810695 -0.083002105
-0.16465615 -0.08289171 -0.12864871 -0.11005847 -0.021656245 -0.09573739 -0.033583354 0.055688147
0.08252606 -0.039350737 0.036505833 0.1780794 0.104880884 -0.0438123 0.023102535 -0.0820752
0.037039652 -0.20034358 0.10977321 -0.0873826 0.08829423 0.17438209 0.016829176 -0.12592295
-0.07061624 0.03636892 -0.16431212 -0.009672138 0.030832836 0.10286064 -0.071199864 0.0305946
0.062752195 -0.016955057 -0.009685858 -0.012978489 0.021205962 -0.19986844 -0.16602123 -0.18331937
0.22162202 0.099305294 -0.08877912 0.06975204 -0.20475136 -0.080284186 -0.023414176 -0.15065113
-0.05451901 0.0477696 0.00067982654 -0.08868204 0.12596299 0.005576461 -0.08810245 0.12824535
-0.032888856 -0.021307811 -0.113089785 -0.057579037 -0.074645445 0.16977294 -0.03988045 -0.19601038
-0.08434534 -0.10038212 -0.1453123 -0.10150707 -0.16769934 -0.11037777 -0.023603294 -0.27772126
-0.076690204 -0.05566566 0.1480246 0.09714951 -0.19585963 -0.010156931 -0.14943255 0.034482643
-0.054088987 -0.14157839 -0.09013432 -0.11731416 0.11026846 -0.07832731 -0.0066680894 -0.2443688
0.076435454 0.11611482 0.030972572 -0.014043247 0.032376215 -0.011088281 -0.111210026 -0.1476416
0.040839218 -0.17392902 -0.11889402 0.030466989 -0.15093623 0.07700763 0.029981643 -0.13878924
-0.22313014 -0.038266547 -0.14608273 -0.014887542 0.01702842 -0.10073264 -0.1210755 -0.015250795
0.04272514 -0.13198723 -0.12335785 -0.11583128 -0.18915498 0.16723296 -0.1903503 0.02073448
00000000: b801 08bd a0f0 4cbd 93a2 20bd 2100 3abc
00000010: 7f0c e93c 7332 2abd 1286 cdba 78f6 43bd
00000020: 0d8c dcbc f5b8 20bd 53b8 dcbc c9ea 96bd
00000030: 4fdb 0e3c dd51 bfbd 87f7 34bd e91c e63a
00000040: 2670 c7bd 3d63 e5bd 962e 03bd f88f b43c
00000050: 74e2 ce3c db3f 92bd 8fe5 833d 35ee bf3d
00000060: eed5 07bd 0dfa 84bc e84b 9c3d 1ebf 0ebd
00000070: d984 5dbd dcd8 443d 0623 f3bc 42bc 20bd
00000080: 09ee 5b3b a27f 11bd 0b2e c43d 817c cebd
00000090: 98e2 6fbc 706d 403d 26ea cd3b c755 38bd
000000a0: a1cc 27bd 3184 41be 9f8d eabc f35e 50bd
000000b0: 9e1a 043e 1674 683d d90d 1c3d cd9f b4bc
000000c0: 8707 103d 1371 31bc 964e 5b3d 5685 d6bd
000000d0: e08e edbd c0f2 08bd 275c 09be b993 833d
000000e0: 4bb3 1fbd e333 b6bc bb4e a3bd ac0d ad3d
000000f0: da0d 8e3d 4556 013e c606 82bd 8f0b 4cbd
00000100: 3c84 6bbd 5795 97bd f4fd a33b 65c6 293c
00000110: 298a 4fbc a739 0b3e 6513 6cbd 2a12 5bbd
00000120: 1c1a 433d c95a 0b3d 8684 55bd 834b 53bd
00000130: da33 883d 490f 1dbd 1743 e3bc 6595 b63c
00000140: 3410 d13c 27dc 3dbd b2a1 5c3d 85f0 e3bd
00000150: 9ac5 41bd f57a 28bd 6bb4 23bc f8b3 c4bc
00000160: 89d3 e6bd 255f 1e3e e2f4 983c dfbe a23d
00000170: a508 643d 0eb9 02bd 85bc d33b c079 53bb
00000180: 9504 5bbd 8e36 acbd a1fc f83c d481 b7bd
00000190: 7ec8 27bd c024 323c 8d0f 1dbe cf0b 95bc
000001a0: 6b6a 48bd c958 a1bd 1ee5 17be a0ca 2dbd
000001b0: 0260 0c3e 9981 e23b 2348 12bd cfcb c43d
000001c0: 580e ccbc 4f5e 8d3c 6c02 f6bb 096e cdbc
000001d0: 938c ae3c 828d 373d 0c0b 45bd ade5 a1bc
000001e0: 6930 a0bd da6a 00bc 3e7a 9abd 7f9e 7b3d
000001f0: ba94 1bbe 4147 cabd aa22 29bd f143 b1bd
00000200: 6791 1dbd 5809 8fbd 4c65 07bb a13a 803c
00000210: e0e2 86bd 3724 c33b 6b71 b4bd 02fd a9bd
00000220: 9f9b 28be 21c3 a9bd 7dbc 03be 5666 e1bd
00000230: 7068 b1bc f711 c4bd b38e 09bd 4119 643d
00000240: 6c03 a93d 3d2e 21bd 2487 153d 725a 363e
00000250: cacb d63d 8774 33bd 8741 bd3c 0b17 a8bd
00000260: e4b6 173d de26 4dbe c7d0 e03d a6f5 b2bd
00000270: 9bd3 b43d 3891 323e 57dd 893c f2f1 00be
00000280: 3f9f 90bd 94f7 143d 7041 28be e377 1ebc
00000290: 2595 fc3c 99a8 d23d 3cd1 91bd 87a1 fa3c
000002a0: 3984 803d 55e5 8abc 6fb1 1ebc baa3 54bc
000002b0: 20b8 ad3c 50aa 4cbe 7801 2abe 13b8 3bbe
000002c0: e2f0 623e 9360 cb3d d4d1 b5bd 28da 8e3d
000002d0: 57aa 51be 096c a4bd 16cf bfbc 4a44 1abe
000002e0: 534f 5fbd 0eaa 433d 6336 323a ee9e b5bd
000002f0: 71fc 003e bfba b63b 0f6f b4bd c052 033e
00000300: 77b6 06bd b88d aebc 9e9b e7bd ffd7 6bbd
00000310: b6df 98bd f5d8 2d3e af59 23bd f2b6 48be
00000320: 40bd acbd 2495 cdbd bfcc 14be f0e2 cfbd
00000330: 60b9 2bbe be0d e2bd b25b c1bc 7b31 8ebe
00000340: c10f 9dbd ad01 64bd c393 173e 53f6 c63d
00000350: 6d8f 48be 4269 26bc d904 19be ac3d 0d3d
00000360: 6a8c 5dbd edf9 10be 5898 b8bd 6842 f0bd
00000370: 6ed4 e13d 126a a0bd fd7f dabb d13b 7abe
00000380: 318a 9c3d 9bcd ed3d 31ba fd3c a615 66bc
00000390: ec9c 043d 9fab 35bc 15c2 e3bd 5c2f 17be
000003a0: 0647 273d 731a 32be b57e f3bd e895 f93c
000003b0: 078f 1abe 2db6 9d3d 109c f53c c41e 0ebe
000003c0: 3a7c 64be 62bd 1cbd b696 15be e1ea 73bc
000003d0: 2f7f 8b3c ea4c cebd 6ff6 f7bd 78de 79bc
000003e0: 8e00 2f3d a927 07be 0aa3 fcbd f338 edbd
000003f0: d8b1 41be 1e3f 2b3e 30eb 42be 5bdb a93c

action_model._continuous_distribution.mu.bias f4 [4]
0.37745443 -0.15145002 0.38107657 -0.13866678
00000000: b541 c13e b715 1bbe 781c c33e aafe 0dbe

exp_avg f4 [128, 9]
1.8315582e-08 -1.258726e-08 -5.701152e-09 -5.567964e-09 -4.4834985e-09 7.735965e-09 4.213683e-09 -1.0419667e-07
6.6912174e-09 -4.182639e-05 0.00042664618 -0.00013693557 -0.0001420911 -0.00010663431 0.000197364 0.000107127256
-0.0038769504 -0.00036894312 -5.9152176e-09 3.954174e-09 1.941821e-09 1.8831343e-09 1.3959595e-09 -2.613738e-09
-1.4182815e-09 3.5595463e-08 2.8385242e-13 0.00024498618 -4.624214e-05 -0.0001270439 -0.00011857313 -8.882683e-05
0.00016458915 8.935357e-05 -0.002648636 -0.00583346 -0.0004997023 -0.001350273 0.0006506961 0.00084864383
0.000639402 -0.0011804961 -0.000640503 0.021162575 0.00010797777 -1.5835763e-05 9.3866765e-06 6.2129616e-06
5.6212184e-06 4.2141214e-06 -7.804831e-06 -4.2368365e-06 0.00010669839 -1.1945532e-05 1.3866129e-07 -9.648915e-08
-4.542263e-08 -4.3322295e-08 -3.274012e-08 6.014366e-08 3.2663554e-08 -8.026458e-07 -1.3119999e-11 -1.654985e-07
1.0314042e-07 6.0890244e-08 5.6454514e-08 4.2459313e-08 -7.837793e-08 -4.2555587e-08 1.0777233e-06 3.709699e-07
-5.55013e-06 3.4925965e-06 1.6998298e-06 1.7725198e-06 1.3279858e-06 -2.4605793e-06 -1.3357875e-06 3.5097743e-05
2.1605059e-08 -2.3042721e-06 1.2639815e-06 9.075053e-07 8.411724e-07 6.3015113e-07 -1.1676906e-06 -6.339094e-07
1.6507684e-05 -7.26141e-08 -2.3758332e-06 5.646683e-06 1.7307416e-07 5.5561355e-08 4.1689063e-08 -7.716569e-08
-4.1886576e-08 -8.8972465e-06 2.3173389e-07 0.0042936453 0.017613227 -0.007573329 -0.009680437 -0.0072666686
0.01344736 0.0072989045 -0.26059002 -0.13649334 0.002304715 0.0012048788 -0.0018698444 -0.0018558175
-0.0013934713 0.002578236 0.0013993648 -0.046363328 6.137987e-05 1.3799319e-05 -6.176026e-06 -5.8747146e-06
-5.428217e-06 -4.0863524e-06 7.548482e-06 4.0959426e-06 -0.00010906147 -5.0730114e-07 -1.3132615e-06 -1.9727772e-06
1.3722829e-06 1.2655103e-06 9.478925e-07 -1.7567079e-06 -9.5367255e-07 3.1449566e-05 -5.0254815e-08 -0.005920233
0.004951975 0.0015582206 0.00062632473 0.0004755797 -0.00087376864 -0.0004737051 -0.013255127 -0.025660971
-0.0005096787 0.0014910805 -0.00024810008 -0.00045054703 -0.0003370272 0.0006250586 0.0003393874 -0.014399242
-0.014778312 -3.3616612e-05 1.0898894e-05 1.7473092e-05 1.4124777e-05 1.0579219e-05 -1.960495e-05 -1.0643507e-05
0.00029085221 -1.6602795e-06 0.0035088765 0.0029553007 -0.0011084196 -0.00218587 -0.0016536972 0.0030452777
0.0016515867 -0.03935486 0.07534349 -2.247937e-05 7.604181e-06 2.9206742e-05 1.3136103e-05 9.81057e-06
-1.821341e-05 -9.890915e-06 0.00027670953 7.8537575e-08 8.9244284e-05 3.9229344e-05 -6.783838e-05 -6.169174e-05
-4.623622e-05 8.564743e-05 4.6494883e-05 -0.001462966 -7.513626e-05 0.008844936 -0.009212027 -0.0014478774
-0.00043666406 -0.00033316016 0.00061027124 0.0003306909 0.023058282 0.0034883006 -1.759248e-06 -1.4231416e-06
1.2375876e-06 1.405559e-06 1.0529252e-06 -1.950985e-06 -1.0591762e-06 3.3070683e-05 -1.8560347e-06 -0.008309856
-0.0010984758 0.0024877023 0.0037856093 0.0028485195 -0.0052633802 -0.0028561375 0.09141754 0.052732106
-7.123781e-07 3.037662e-07 2.3651994e-07 2.6095358e-07 1.9534575e-07 -3.6218648e-07 -1.9662824e-07 5.876215e-06
5.9359814e-07 4.6622397e-05 1.125034e-05 -2.8881084e-05 -2.8171697e-05 -2.1104062e-05 3.9104452e-05 2.1229378e-05
-0.0006766974 -0.0014471102 -0.005315754 -0.0038563858 0.0050847554 0.004452281 0.003335902 -0.0061805137
-0.0033552728 0.10759856 0.22203235 0.0017616769 0.004347788 -0.0021398198 -0.0028614895 -0.0021489551
0.003975635 0.0021577808 -0.077892944 -0.00023139382 0.0029953907 0.013039227 -0.0050369026 -0.0071286396
00000000: 6454 9d32 5b3f 58b2 dde3 c3b1 5450 bfb1
00000010: 450d 9ab1 22e7 0432 f3c7 9031 bac2 dfb3
00000020: 92e8 e531 bf6e 2fb8 7baf df39 5d96 0fb9
00000030: 4afe 14b9 dca0 dfb8 7ff3 4e39 82a9 e038
00000040: 6f14 7ebb b56e c1b9 ce3e cbb1 48dd 8731
00000050: e070 0531 7368 0131 f5db bf30 5d9d 33b1
00000060: 58ed c2b0 a0e1 1833 72cb 9f2a 7d71 8039
00000070: 1ff4 41b8 1637 05b9 77aa f8b8 8b48 bab8
00000080: 9095 2c39 5563 bb38 bd94 2dbb 9c26 bfbb
00000090: 74fe 02ba a5fb b0ba 7a93 2a3a 8677 5e3a
000000a0: 8b9d 273a e0ba 9aba 6ee7 27ba 235d ad3c
000000b0: 2072 e238 0bd7 84b7 787b 1d37 ef78 d036
000000c0: e69d bc36 0767 8d36 7ef1 02b7 262a 8eb6
000000d0: 43c3 df38 ab69 48b7 ede2 1434 7935 cfb3
000000e0: b616 43b3 5e11 3ab3 259e 0cb3 5428 8133
000000f0: f549 0c33 6675 57b5 39cf 66ad e2b3 31b4
00000100: 0c7e dd33 c4c2 8233 6578 7233 825c 3633
00000110: b950 a8b3 5dc6 36b3 4aa6 9035 b729 c734
00000120: 413b bab6 5a62 6a36 b525 e435 51e7 ed35
00000130: 3f3d b235 6e20 25b6 4f49 b3b5 ea35 1338
00000140: 0796 b932 18a3 1ab6 13a6 a935 4a9b 7335
00000150: edcc 6135 a827 2935 8bb9 9cb5 ec29 2ab5
00000160: fb79 8a37 06f0 9bb3 8170 1fb6 a378 bd36
00000170: 43d6 3934 5ba2 6e33 9c0d 3333 49b6 a5b3
00000180: c7e6 33b3 6245 15b7 87d2 7834 b5b1 8c3b
00000190: 9d49 903c b029 f8bb b29a 1ebc 3c1d eebb
000001a0: 5152 5c3c a62b ef3b 0e6c 85be e9c4 0bbe
000001b0: b40a 173b 06ed 9d3a 9115 f5ba e73e f3ba
000001c0: 23a5 b6ba 9ff7 283b e46a b73a 79e7 3dbd
000001d0: 11b9 8038 a083 6737 a93b cfb6 6a1f c5b6
000001e0: 0724 b6b6 801d 89b6 f748 fd36 e16f 8936
000001f0: eeb7 e4b8 782d 08b5 5243 b0b5 0e64 04b6
00000200: 482f b835 9ada a935 ad72 7e35 06c8 ebb5
00000210: e1ff 7fb5 b7e8 0338 c1d7 57b3 84fe c1bb
00000220: 2d44 a23b 353d cc3a f12f 243a 3a57 f939
00000230: 9f0d 65ba 9f5b f8b9 082c 59bc f536 d2bc
00000240: f59b 05ba 5c70 c33a 6e13 82b9 6637 ecb9
00000250: 06b3 b0b9 f9da 233a ceef b139 ccea 6bbc
00000260: bc20 72bc 90ff 0cb8 65da 3637 2e93 9237
00000270: 75f9 6c37 667d 3137 4f75 a4b7 8491 32b7
00000280: 867d 9839 c5d6 deb5 2ef5 653b b8ad 413b
00000290: 6448 91ba d040 0fbb dfc0 d8ba 4893 473b
000002a0: 0e7a d83a 9032 21bd b04d 9a3d 1492 bcb7
000002b0: 6b27 ff36 0001 f537 2263 5c37 1498 2437
000002c0: 00c9 98b7 28f1 25b7 5313 9139 7da8 a833
000002d0: a928 bb38 308a 2438 7444 8eb8 8060 81b8
000002e0: c3ed 41b8 9d9d b338 8003 4338 fec0 bfba
000002f0: 7992 9db8 5aea 103c 0bee 16bc b4c6 bdba
00000300: 0ff0 e4b9 00ac aeb9 9cfa 1f3a 9560 ad39
00000310: b9e4 bc3c f99b 643b 4d1f ecb5 c602 bfb5
00000320: 301b a635 a4a6 bc35 3c52 8d35 abed 02b6
00000330: 0429 8eb5 60b5 0a38 de1c f9b5 1026 08bc
00000340: bbfa 8fba b808 233b fc17 783b 3aae 3a3b
00000350: 6f78 acbb 092e 3bbb 1f39 bb3d 9ffd 573d
00000360: 403a 3fb5 4f15 a334 1bf6 7d34 3019 8c34
00000370: 3bc0 5134 8872 c2b4 c220 53b4 4d2c c536
00000380: c157 1f35 6b8c 4338 d8bf 3c37 a845 f2b7
00000390: 4252 ecb7 a108 b1b7 1604 2438 be15 b237
000003a0: 6564 31ba f6ac bdba c72f aebb 6bbb 7cbb
000003b0: 059e a63b 71e4 913b 269f 5a3b e885 cabb
000003c0: 23e4 5bbb a25c dc3d 735c 633e 11e8 e63a
000003d0: e477 8e3b 383c 0cbb d487 3bbb 7cd5 0cbb
000003e0: 0b46 823b 8e69 0d3b 5686 9fbd 4ea2 72b9
000003f0: 514e 443b 7ba2 553c 9a0c a5bb 5d97 e9bb

exp_avg_sq f4 [128, 9]
0.00079652574 0.00018070603 0.000110349705 9.192693e-05 0.002135885 0.00012275878 3.019184e-05 4.0460753e-05
0.0006991989 0.0024073813 0.00034844945 0.00015818061 0.000121857105 0.0009525731 0.00012651028 7.363413e-05
0.009073999 0.048845526 0.001186474 8.3876155e-05 7.219357e-05 5.7947862e-05 0.0003348032 4.502331e-05
3.6236423e-05 4.019309e-06 1.2999885e-06 0.009640622 0.0022032468 0.0009308394 0.00070441887 0.009080419
0.0007554973 0.0003327001 0.016552003 0.8536973 0.0015859912 0.0003245728 0.00016783072 0.00013679462
0.0016674558 0.00014578512 3.260195e-05 0.24574684 0.00028701674 0.000273184 4.3697586e-05 1.4085107e-05
1.3961886e-05 8.1576516e-05 1.1656765e-05 8.756659e-06 2.7747194e-05 0.001369919 0.0028742845 0.0002708754
0.00017200512 0.00018299361 0.0034958457 0.00022637311 8.457988e-05 0.00022339236 8.123211e-05 0.00011376912
1.650171e-05 1.0567923e-05 1.1298822e-05 0.0003000043 1.549463e-05 3.3359652e-06 1.0392423e-05 0.0016714504
0.00050123665 8.582157e-05 4.4005068e-05 5.9416452e-05 0.0016357445 8.865814e-05 1.7309118e-05 2.8081551e-05
2.6529313e-05 0.0016277763 9.575013e-05 0.00011314173 0.00012082833 0.0023483506 0.00016425972 5.7457484e-05
3.7483995e-05 2.897366e-05 0.0004312788 3.3878365e-05 2.8838134e-05 2.2311606e-05 0.00016620544 1.683497e-05
1.2484019e-05 2.1376436e-05 2.383468e-06 0.024891108 0.005554508 0.0025185104 0.0021222036 0.024115574
0.002693141 0.0007078625 3.1560376 3.1363583 0.0075145466 0.0010386802 0.0006401106 0.00046554807
0.004785458 0.00042852294 0.00018969759 0.2865764 7.3145246e-05 0.0004879883 0.00013411304 6.2483516e-05
5.386479e-05 0.0011964396 7.6517535e-05 1.2892306e-05 0.00085953117 0.00016729135 0.0019434025 0.00018287616
0.0001550086 0.00014294789 0.0023968695 0.00021577471 8.272032e-05 8.178957e-05 1.5095803e-05 0.0049615283
0.0009801121 0.0004546081 0.00037122387 0.004742763 0.0004566031 0.000105551786 0.5563169 0.37863168
0.0004807516 0.0001427601 7.107159e-05 4.8157268e-05 0.0006638402 4.4551147e-05 1.681661e-05 0.0034489494
0.05756715 0.0003049208 7.633879e-05 4.74965e-05 4.251818e-05 0.0011031477 6.4902706e-05 1.2429794e-05
8.94602e-05 3.3393208e-05 0.044294663 0.0100522395 0.0045313546 0.003771488 0.04652672 0.004824549
0.0013055605 4.34868 6.1544294 0.0010092972 0.00020276596 0.00011502159 8.0726684e-05 0.0013824359
6.0375023e-05 2.045008e-05 0.00014737641 2.1402404e-06 0.0052900077 0.0012433449 0.0005048639 0.00038179287
0.0061512073 0.00033797426 0.00013253673 0.0033451903 0.0022163412 0.0024220697 0.00048608842 0.00023984187
0.00019723576 0.0026428928 0.00022009182 5.972311e-05 0.15735728 0.26557648 0.0032391772 0.0006473198
0.00034943855 0.00022811671 0.0032282942 0.000117537886 4.9152797e-05 0.0013109263 0.003944141 0.019402988
0.003943392 0.0017376282 0.0014334898 0.016414288 0.0015483332 0.0004404521 1.8611207 1.5820833
0.00018998967 4.3232772e-05 3.0766965e-05 3.0435187e-05 0.0008235077 4.709066e-05 7.1970726e-06 4.5310673e-05
0.0001753158 0.011507516 0.0033164015 0.0012176293 0.0009983319 0.019145524 0.001270417 0.00040828544
0.019227976 1.0927958 0.018258402 0.0036499933 0.0016118122 0.0012956222 0.018350234 0.0015063601
0.00062143867 0.06376435 1.3699406 0.006139607 0.0012524603 0.00059758103 0.0004626016 0.005630031
0.00051733723 0.00014328564 0.68012285 0.00020653983 0.011062196 0.0023931768 0.0010501676 0.00087991974
00000000: f0cd 503a e87b 3d39 8c6b e738 e5c8 c038
00000010: 34fa 0b3b cfb8 0039 7c44 fd37 67b4 2938
00000020: 724a 373a 28c5 1d3b 18b0 b639 49dd 2539
00000030: 898d ff38 19b6 793a d8a7 0439 066c 9a38
00000040: 1cab 143c 3f12 483d 7683 9b3a abe6 af38
00000050: a166 9738 0b0d 7338 8688 af39 69d7 3c38
00000060: 90fc 1738 9add 8636 447b ae35 b3f3 1d3c
00000070: 5964 103b 9303 743a c0a8 383a 0ac6 143c
00000080: 910c 463a 406e ae39 1198 873c e88b 5a3f
00000090: 09e1 cf3a 6c2b aa39 b7fb 2f39 8770 0f39
000000a0: 888e da3a e5dd 1839 14be 0838 0fa5 7b3e
000000b0: bc7a 9639 233a 8f39 ed47 3738 134f 6c37
000000c0: d83d 6a37 0f14 ab38 6d91 4337 90e9 1237
000000d0: a5c2 e837 db8e b33a 7e5e 3c3b 4804 8e39
000000e0: 465c 3439 f9e1 3f39 8f1a 653b 925e 6d39
000000f0: 7a60 b138 6e3e 6a39 285b aa38 5597 ee38
00000100: 276d 8a37 e24c 3137 1290 3d37 e549 9d39
00000110: 77fa 8137 72df 5f36 1e5b 2e37 9214 db3a
00000120: 6c65 033a 1bfb b338 1592 3838 ee35 7938
00000130: 7a66 d63a faed b938 0c33 9137 ac90 eb37
00000140: 448b de37 1c5b d53a 76cd c838 8146 ed38
00000150: 3765 fd38 c9e6 193b 223d 2c39 81fe 7038
00000160: 2238 1d38 760c f337 431d e239 9e18 0e38
00000170: 6ce9 f137 cf29 bb37 6f47 2e39 d338 8d37
00000180: 7472 5137 8c51 b337 abf3 1f36 70e8 cb3c
00000190: 9702 b63b 980d 253b ab14 0b3b 068e c53c
000001a0: 697f 303b d98f 393a 85fc 4940 18ba 4840
000001b0: 963c f63b 5324 883a 18cd 273a ce14 f439
000001c0: 55cf 9c3b 60ab e039 8fe9 4639 24ba 923e
000001d0: 8e65 9938 aed8 ff39 b2a0 0c39 9509 8338
000001e0: e1ec 6138 dad1 9c3a 0a78 a038 084c 5837
000001f0: 2952 613a ee6a 2f39 c4b9 fe3a 72c2 3f39
00000200: ce89 2239 48e4 1539 cc14 1d3b 9541 6239
00000210: 227a ad38 7186 ab38 fb43 7d37 5194 a23b
00000220: 1b77 803a 7758 ee39 d3a0 c239 2e69 9b3b
00000230: 3b64 ef39 af5b dd38 c96a 0e3f 03dc c13e
00000240: 630d fc39 dfb1 1539 450c 9538 79fc 4938
00000250: 9005 2e3a 6edc 3a38 6511 8d37 c507 623b
00000260: 88cb 6b3d c7dd 9f39 1318 a038 fb36 4738
00000270: 8c55 3238 7f97 903a 601c 8838 8f89 5037
00000280: 949c bb38 af0f 0c38 526e 353d 26b2 243c
00000290: c27b 943b 122b 773b cd92 3e3d 4017 9e3b
000002a0: 571f ab3a 6328 8b40 16f1 c440 654a 843a
000002b0: 939d 5439 bf37 f138 cf4b a938 da32 b53a
000002c0: 303b 7d38 368c ab37 0e89 1a39 0da1 0f36
000002d0: cd57 ad3b bbf7 a23a d858 043a 5f2b c839
000002e0: 1190 c93b 2332 b139 8ff9 0a39 fb3a 5b3b
000002f0: 0940 113b 96bb 1e3b afd9 fe39 107e 7b39
00000300: 12d1 4e39 6234 2d3b 73c8 6639 337f 7a38
00000310: 4422 213e a4f9 873e 6048 543b e5b0 293a
00000320: d934 b739 9d32 6f39 ca91 533b ac7e f638
00000330: 6a29 4e38 63d3 ab3a da3d 813b 04f3 9e3c
00000340: 9237 813b 21c1 e33a f0e3 bb3a 4277 863c
00000350: 71f1 ca3a 7bec e639 3439 ee3f b581 ca3f
00000360: f737 4739 d654 3538 c70b 0138 114f ff37
00000370: abe0 573a 3683 4538 627e f136 f70b 3e38
00000380: fad4 3739 058a 3c3c fc57 593b dc98 9f3a
00000390: 76da 823a 13d7 9c3c 1f84 a63a 250f d639
000003a0: fd83 9d3c bce0 8b3f a592 953c ba34 6f3b
000003b0: 7143 d33a ded1 a93a 3b53 963c 0f71 c53a
000003c0: 0be8 223a e296 823d 375a af3f c22e c93b
000003d0: 9829 a43a fca6 1c3a 5689 f239 207c b83b
000003e0: ea9d 073a f23e 1639 881c 2e3f 9d92 5839
000003f0: 373e 353c d8d6 1c3b c7a5 893a 6aaa 663a

exp_avg f4 [128]
-5.567964e-09 -0.00014209113 1.883134e-09 -0.00011857313 0.00084864395 5.6212193e-06 -4.332229e-08 5.6454518e-08
1.7725198e-06 8.411724e-07 5.5561475e-08 -0.009680438 -0.001855817 -5.428217e-06 1.2655104e-06 0.00062632473
-0.00045054703 1.4124779e-05 -0.0021858714 1.3136103e-05 -6.169174e-05 -0.00043666415 1.4055589e-06 0.0037856102
2.609535e-07 -2.817169e-05 0.0044522807 -0.00286149 -0.00712864 1.0866085e-08 0.0014314902 -0.009775877
-0.0042760745 0.0030870168 -4.8290774e-05 -6.134497e-05 2.3683422e-06 0.00690708 0.0002503995 -0.0012621289
-0.0056348825 3.9353588e-07 -0.0005343188 -0.0022019227 3.1636164e-06 7.834552e-06 3.372473e-06 0.002975585
4.5270554e-06 2.0097182e-09 6.7498085e-08 -0.00021696535 -0.0009877038 -0.00091930735 0.0011078377 0.0007020657
9.930712e-06 0.0030125803 -1.635608e-07 0.00080401637 0.0050528115 4.1838816e-06 -2.6641444e-05 -0.00023535341
1.1136423e-05 -6.314818e-08 -9.242894e-07 -0.00036302002 -0.0046389815 -0.00096250203 0.00013291837 -0.0029274535
6.8996895e-05 2.267471e-06 8.032992e-05 -0.00061730976 0.004202628 5.5268767e-09 7.488173e-07 0.0021398023
-0.00029031056 6.445277e-05 -0.01390801 -0.009451913 -0.006461677 -0.004968699 5.513325e-05 0.0016075561
1.2400946e-07 -9.939858e-06 6.437782e-08 0.00014991357 -1.3956965e-05 -0.0005424713 0.001730318 -0.0018352042
-2.6933853e-07 3.8446327e-08 4.94842e-06 0.001693341 1.3518408e-08 0.0069922544 0.0030259131 0.0038549858
-1.9625755e-05 -0.004910038 1.0306629e-06 0.0013972118 -0.0062541785 -0.00040435212 -0.0056680166 -2.014629e-06
0.0018678753 6.9286665e-09 0.00085548486 0.002404373 -0.008602118 -0.0013461324 -0.0004614186 -6.939131e-08
1.5328483e-06 -0.004631166 -1.870414e-05 3.620608e-11 0.000118847194 6.225197e-05 -1.33548035e-08 -0.008006073
00000000: 5450 bfb1 4cfe 14b9 7268 0131 77aa f8b8
00000010: 8877 5e3a e89d bc36 5d11 3ab3 6678 7233
00000020: 51e7 ed35 edcc 6135 7da2 6e33 b39a 1ebc
00000030: e33e f3ba 0724 b6b6 9bda a935 f12f 243a
00000040: 6637 ecb9 77f9 6c37 d640 0fbb 2263 5c37
00000050: 8060 81b8 12f0 e4b9 a3a6 bc35 0018 783b
00000060: 2d19 8c34 3e52 ecb7 70e4 913b d687 3bbb
00000070: 5e97 e9bb 8cad 3a32 d7a0 bb3a 002b 20bc
00000080: 501e 8cbb 8c4f 4a3b d38b 4ab8 54a6 80b8
00000090: cfef 1e36 c954 e23b 0d48 8339 056e a5ba
000000a0: d2a4 b8bb 2947 d334 8711 0cba 224e 10bb
000000b0: 844e 5436 2571 0337 a552 6236 0802 433b
000000c0: 1ce7 9736 561b 0a31 77f3 9033 3181 63b9
000000d0: d775 81ba acfd 70ba dd34 913a d50a 383a
000000e0: 159c 2637 b66e 453b 409f 2fb4 a0c4 523a
000000f0: 0e92 a53b 4563 8c36 117c dfb7 33c9 76b9
00000100: 93d6 3a37 149c 87b3 af1c 78b5 b953 beb9
00000110: 9902 98bb 6b50 7cba 0160 0b39 85da 3fbb
00000120: 6db2 9038 db2a 1836 cc76 a838 f5d2 21ba
00000130: 33b6 893b ece6 bd31 5502 4935 ed3b 0c3b
00000140: d334 98b9 d12a 8738 6cde 63bc 32dc 1abc
00000150: 7abc d3bb 78d0 a2bb e03e 6738 a2b4 d23a
00000160: 7627 0534 5dc3 26b7 1540 8a33 1e32 1d39
00000170: b528 6ab7 a234 0eba d6cb e23a 3c8b f0ba
00000180: 9b99 90b4 2f20 2533 9b0a a636 18f3 dd3a
00000190: 963e 6832 481f e53b 664e 463b eea3 7c3b
000001a0: fda1 a4b7 62e4 a0bb 4f55 8a35 a622 b73a
000001b0: daef ccbb 39ff d3b9 c5ba b9bb 1033 07b6
000001c0: 7fd3 f43a 3211 ee31 9e42 603a af92 1d3b
000001d0: e6ef 0cbc b570 b0ba 8eea f1b9 4704 95b3
000001e0: 44bc cd35 09c1 97bb d6e6 9cb7 6c3c 1f2e
000001f0: 9a3d f938 468d 8238 0c6f 65b2 e72b 03bc

exp_avg_sq f4 [128]
9.192694e-05 0.000121857105 5.7947855e-05 0.00070441887 0.00013679464 1.3961884e-05 0.00018299361 1.1298822e-05
5.9416452e-05 0.00012082833 2.2311608e-05 0.0021222036 0.00046554807 5.386479e-05 0.00014294789 0.00037122387
4.815726e-05 4.251818e-05 0.0037714876 8.072667e-05 0.0003817929 0.00019723579 0.00022811671 0.00143349
3.0435187e-05 0.0009983319 0.0012956223 0.0004626016 0.00087991974 0.0005539262 0.0008156725 0.0012298112
0.0017064934 0.0009190891 0.00086441264 0.00019514767 8.543247e-06 0.00049848977 0.0017517115 0.00045279114
0.0014376927 6.564319e-05 0.0002843958 0.0006947665 6.5595978e-06 1.3724967e-05 6.0504313e-05 0.0013230494
7.303676e-05 9.4888936e-05 0.00017113355 2.225073e-05 0.00066533656 0.0006299936 0.0016477546 0.00086236524
3.5781188e-05 0.0004782088 6.453287e-05 0.0008943302 0.0007870693 5.4034426e-05 7.183179e-05 0.00030772173
1.138517e-06 0.00038578376 7.054021e-05 0.001613175 0.001330547 7.1903094e-05 0.00010925923 0.0010819675
4.1828443e-05 6.785665e-05 1.3959764e-05 0.00053854106 0.001273807 3.6567155e-05 5.529178e-05 0.001113825
0.00022575805 9.986379e-05 0.0028206513 0.0010168554 0.0017000545 0.00062388286 2.1199909e-05 0.00023541816
0.0002376683 0.00016710695 1.3591629e-05 9.924201e-06 0.0001237201 0.00058453187 0.0013941402 7.4843156e-05
2.8294526e-05 1.0093833e-05 6.5111562e-06 0.00040795357 2.7631548e-05 0.00081016327 0.00030379795 0.003110037
0.00014207463 0.0004242839 0.00010653366 0.00047167897 0.00071801804 0.00047591838 0.00066231145 0.0010059875
0.0010355277 0.00011758724 3.9879746e-05 0.00041256502 0.0026575308 0.00039400684 4.2086776e-05 6.242283e-05
1.1430454e-05 0.0011404487 8.379675e-06 0.0002071131 5.9843263e-05 0.0008551533 0.00012033626 0.0010167584
00000000: e6c8 c038 898d ff38 090d 7338 c0a8 383a
00000010: 8870 0f39 d63d 6a37 f9e1 3f39 1290 3d37
00000020: ee35 7938 3765 fd38 d029 bb37 ab14 0b3b
00000030: ce14 f439 e1ec 6138 48e4 1539 d3a0 c239
00000040: 77fc 4938 8c55 3238 102b 773b cd4b a938
00000050: 602b c839 14d1 4e39 9d32 6f39 f1e3 bb3a
00000060: 114f ff37 76da 823a dfd1 a93a 5689 f239
00000070: 6aaa 663a 5c35 113a dbd2 553a 9e31 a13a
00000080: 6bac df3a 07ef 703a c099 623a 8ea0 4c39
00000090: f754 0f37 15ad 023a af99 e53a 9964 ed39
000000a0: f670 bc3a eba9 8938 f51a 9539 fe20 363a
000000b0: 841a dc36 4944 6637 03c6 7d38 2c6a ad3a
000000c0: 502b 9938 1cff c638 5072 3339 14a7 ba37
000000d0: fb69 2e3a 2826 253a 78f9 d73a 5a10 623a
000000e0: c213 1638 19b8 fa39 d255 8738 7c71 6a3a
000000f0: 5453 4e3a 06a3 6238 66a4 9638 b655 a139
00000100: 25cf 9835 0543 ca39 fdee 9338 2c71 d33a
00000110: c065 ae3a aeca 9638 1a22 e538 ced0 8d3a
00000120: f370 2f38 434e 8e38 bb34 6a37 e12c 0d3a
00000130: dff5 a63a af5f 1938 19e9 6738 c4fd 913a
00000140: 77b9 6c39 f76d d138 adda 383b 0148 853a
00000150: 5dd4 de3a 128c 233a 75d6 b137 95da 7639
00000160: 9936 7939 6e39 2f39 9a07 6437 1e80 2637
00000170: ddba 0139 453b 193a 95bb b63a 1df5 9c38
00000180: 085a ed37 af58 2937 687a da36 9ae2 d539
00000190: 4cca e737 2361 543a 1247 9f39 c3d1 4b3b
000001a0: def9 1439 6c72 de39 d36a df38 ae4b f739
000001b0: 6039 3c3a af84 f939 f89e 2d3a 57db 833a
000001c0: 8bba 873a 2b99 f638 8d44 2738 8a4d d839
000001d0: f829 2e3b b492 ce39 5586 3038 00e9 8238
000001e0: 6dc5 3f37 1c7b 953a 6e96 0c37 802c 5939
000001f0: 3700 7b38 5e2c 603a 0a5d fc38 c044 853a
