VirtualAquarium/results/VirtualAquarium/VirtualAquarium/VirtualAquarium-457.onnx (onnx, 74005 bytes, 7 tensors)

action_model._continuous_distribution.log_sigma f4 [1, 3]
-0.0071592587 -0.002829872 -0.011275877
00000000: 3798 eabb 6075 39bb 75be 38bc

action_model._continuous_distribution.mu.bias f4 [3]
-0.0004039831 0.0007136585 -0.00090351526
00000000: b2cd d3b9 d014 3b3a e2d9 6cba

action_model._continuous_distribution.mu.weight f4 [3, 128]
0.013827386 0.0069936896 -0.015697258 -0.010850325 0.023334697 -0.002211574 0.00055958435 0.012326408
-0.03932387 0.0068924506 0.014545977 -0.0052522477 -0.010215423 0.021650704 0.005751092 0.013790934
0.008027968 0.01248122 0.005205552 0.003989388 0.02467176 -0.034072686 0.016363686 0.015802203
-0.019492034 0.003059084 0.015576451 -0.04249604 -0.009974573 -0.009264602 0.0367279 0.01675418
-0.012504115 -0.002441822 0.019894326 -0.012239908 0.051556136 0.027703933 0.0030628557 0.012690476
0.017733617 -0.012522967 0.008746412 -0.010648939 0.0017866156 0.00050992705 0.009393072 0.018229743
0.016214268 -0.010020521 -0.01142492 0.004654731 0.0009672036 0.011722 0.0017377321 -0.0135245565
-0.0042572743 0.016220681 -0.0037468756 -0.019419782 0.0069917347 0.013186348 0.021134896 0.028144907
0.021345453 -0.006338792 0.0012705104 0.009208617 0.0038694958 -0.045202907 0.012289681 0.016500013
-0.0009446819 -0.0051662996 -0.006266557 0.007844457 -0.009539029 0.007366652 -0.005097281 -0.010583583
-0.009620512 0.00348797 -0.004724433 0.016034605 -4.3822838e-05 0.003598167 -0.008301393 -0.015918445
0.007333182 -0.00039591666 0.0005926298 0.026739208 -0.008393785 -0.021440823 -0.036492467 -0.006373988
-0.011477076 0.002595877 -0.023630777 -0.0150897205 -0.021825168 -0.021088937 -0.015467757 -0.016059007
0.013448683 -0.0073170555 -0.0299355 0.0401587 0.03267668 0.001986134 -0.010791616 0.03109429
-0.0010971319 -0.017315187 -0.00052769034 -0.01590846 -0.021299912 -0.058542386 -0.0031928117 -0.03484853
0.0054343073 0.009286805 -0.00429215 -0.0073080505 0.026560873 0.023503365 -0.04077435 -0.013168284
-0.0030330147 -0.004070227 0.009502352 0.001286229 -0.008787793 0.036901932 0.025660258 0.0048867427
-0.006111889 0.0011084032 0.008793364 -0.028807199 -0.038286667 0.021612648 -0.002544431 -0.0017209705
-0.024046006 0.0061906106 -0.024573313 -0.02241816 -0.016934685 0.03433365 -0.0019012134 0.016114676
0.0038083177 0.009328812 -0.005938565 0.003403871 -0.033098526 -0.0016014387 0.0036653224 0.007155803
-0.01791219 0.026176091 0.0036749234 -0.022696448 0.003577199 0.010168576 0.018225322 -0.0037079118
-0.024733894 0.039407764 -0.022689167 0.009615046 0.00029703038 0.0085446695 0.006011497 -0.0054552834
0.0030337884 -0.027112486 -0.006280146 -0.009915974 -0.0012770155 -0.009506469 0.029581731 -0.007780066
-0.0075863516 0.007209045 -0.0066371798 0.033491798 -0.0012008408 0.019103665 0.0052271336 0.001981156
0.045220245 0.0080852555 0.021480452 0.015403698 0.012398983 0.02487924 0.010057094 0.011050802
-0.01592476 0.024412375 -0.011240432 -0.008892963 -0.0054809838 0.0534026 -0.02325423 0.0016460139
-0.019072749 0.0049410267 0.005283431 0.019001437 0.0077832076 -0.011916148 0.010237934 0.0011722511
0.0110087395 -0.0056522116 -0.01158308 -0.013963584 0.0073209875 -0.0133863725 0.035510823 0.023414074
0.023977214 -0.00551587 0.015424966 -0.00030265425 -0.0074803927 0.0075577223 -0.008118203 0.005569587
-0.010449378 0.0057145315 -0.015927775 0.01983054 -0.018598821 0.017819347 -0.0030139687 0.024339058
0.0045743682 0.014425959 -0.0011149744 -0.01487761 -0.013457088 0.027763234 -0.015453166 -0.003140706
0.007448187 0.0024106572 -0.014489755 -0.0009703016 0.0023660911 -0.008563815 0.014276233 -0.008123529
00000000: 438c 623c 522b e53b 8997 80bc 90c5 31bc
00000010: 6828 bf3c 0ef0 10bb 12b1 123a b4f4 493c
00000020: 1112 21bd 11da e13b 4052 6e3c 0c1b acbb
00000030: 975e 27bc d15c b13c a873 bc3b 5ff3 613c
00000040: bd87 033c 087e 4c3c 5693 aa3b 69b9 823b
00000050: 6e1c ca3c cd8f 0bbd 230d 863c 9f73 813c
00000060: c2ad 9fbc ea7a 483b 5f34 7f3c 5410 2ebd
00000070: 646c 23bc 8fca 17bc ff6f 163d 1040 893c
00000080: 0fde 4cbc fa06 20bb 6df9 a23c e589 48bc
00000090: 872c 533d 5cf3 e23c 31ba 483b b7eb 4f3c
000000a0: 1746 913c 212d 4dbc 1c4d 0f3c e378 2ebc
000000b0: df2c ea3a a0ac 053a 66e5 193c 8b56 953c
000000c0: c9d3 843c 1c2d 24bc 962f 3bbc b786 983b
000000d0: ef8b 7d3a a20d 403c 9dc4 e33a 1a96 5dbc
000000e0: 9b80 8bbb 3ce1 843c 248e 75bb 3c16 9fbc
000000f0: ec1a e53b 8d0b 583c 1723 ad3c 2690 e63c
00000100: a9dc ae3c a4b5 cfbb 4187 a63a bddf 163c
00000110: 5e97 7d3b af26 39bd a85a 493c 092b 873c
00000120: 87a4 77ba 104a a9bb b157 cdbb 0a86 003c
00000130: 9649 1cbc f563 f13b 1807 a7bb c466 2dbc
00000140: 5a9f 1dbc 6d96 643b 6bcf 9abb 015b 833c
00000150: 6ace 37b8 3acf 6b3b 9102 08bc 6667 82bc
00000160: 304b f03b 0993 cfb9 b65a 1b3a 2f0c db3c
00000170: 1686 09bc aaa4 afbc 2079 15bd e3dc d0bb
00000180: 590a 3cbc 971f 2a3b 5595 c1bc e03a 77bc
00000190: b2ca b2bc b5c2 acbc 7a6c 7dbc 2e8e 83bc
000001a0: dd57 5c3c e9c3 efbb 4b3b f5bc 737d 243d
000001b0: fbd7 053d cd29 023b 51cf 30bc 74b9 fe3c
000001c0: a3cd 8fba 94d8 8dbc b354 0aba 7552 82bc
000001d0: 277d aebc 24ca 6fbd 7e3e 51bb 55bd 0ebd
000001e0: 4612 b23b af27 183c 2aa5 8cbb 5f78 efbb
000001f0: 3096 d93c 218a c03c 0103 27bd c9bf 57bc
00000200: 8bc5 46bb 8a5f 85bb c1af 1b3c af96 a83a
00000210: adfa 0fbc 7b26 173d 7635 d23c f820 a03b
00000220: 3e46 c8bb d747 913a 0b12 103c 13fd ebbc
00000230: 7bd2 1cbd 020d b13c 78c0 26bb 3092 e1ba
00000240: 21fc c4bc 9bda ca3b f94d c9bc 4aa6 b7bc
00000250: 9cba 8abc 71a1 0c3d 2332 f9ba ed02 843c
00000260: f894 793b e0d7 183c 4b98 c2bb 7b13 5f3b
00000270: 5292 07bd 5ee7 d1ba e835 703b 3a7b ea3b
00000280: 96bc 92bc 3e6f d63c fcd6 703b e7ed b9bc
00000290: 716f 6a3b 199a 263c 454d 953c 7000 73bb
000002a0: bc9e cabc 096a 213d a2de b9bc 6d88 1d3c
000002b0: beba 9b39 f1fe 0b3c 18fc c43b 3cc2 b2bb
000002c0: 86d2 463b 011b debc afc9 cdbb 9c76 22bc
000002d0: 8861 a7ba 05c1 1bbc 6355 f23c edef febb
000002e0: ee96 f8bb da39 ec3b b37c d9bb b22e 093d
000002f0: 8865 9dba 4a7f 9c3c 6048 ab3b 48d6 013b
00000300: dd38 393d 0578 043c c6f7 af3c cb5f 7c3c
00000310: 1b25 4b3c 8ccf cb3c 82c6 243c 6c0e 353c
00000320: a474 82bc 76fc c73c ca29 38bc cab3 11bc
00000330: d399 b3bb afbc 5a3d a87f bebc 10bf d73a
00000340: 743e 9cbc 56e8 a13b a220 ad3b e7a8 9b3c
00000350: 470a ff3b f23b 43bc 02bd 273c 38a6 993a
00000360: 005e 343c 3036 b9bb f5c6 3dbc 84c7 64bc
00000370: e5e4 ef3b 8452 5bbc cc73 113d dfce bf3c
00000380: dd6b c43c 79be b4bb ffb8 7c3c 91ad 9eb9
00000390: 151e f5bb c5a6 f73b 3602 05bc 1581 b63b
000003a0: de33 2bbc f740 bb3b f77a 82bc a873 a23c
000003b0: 8e5c 98bc e1f9 913c 0186 45bb b462 c73c
000003c0: 95e4 953b dc5a 6c3c 5524 92ba 38c1 73bc
000003d0: 1e7b 5cbc b96f e33c 472f 7dbc 4ed4 4dbb
000003e0: ec0f f43b 1efc 1d3b 7066 6dbc d75b 7eba
000003f0: 6c10 1b3b 3e4f 0cbc dce6 693c 8d18 05bc

network_body._body_endoder.seq_layers.0.bias f4 [128]
-7.999009e-05 7.915531e-06 2.8924944e-06 0.00054746174 -1.741589e-06 -6.808597e-06 1.834691e-05 0.0004101417
0.00021581314 0.00011012424 -0.0013408138 0.0001886435 -1.811811e-05 0.0015091728 -0.0028545596 0.0010180444
-0.0017944934 -1.4794829e-05 0.00023447345 -0.0039984104 4.098045e-06 0.00055511313 -0.00087568484 0.000817321
-0.0020316963 -0.0012106773 0.00033038817 0.00053891307 2.155085e-05 0.00041792542 -0.00086804904 -0.0007434421
-0.00030397318 0.00041668757 0.005141816 0.00047387872 -0.002539806 -0.006250884 -0.00040607422 0.0007202954
-0.0005261777 -0.00092118676 -1.0484044e-06 -3.8936858e-05 3.5349567e-05 -0.0009484512 -0.003234932 -0.0036813908
-0.0006670381 -0.0019478726 -0.0005550772 -0.00234617 -0.00047539285 0.00032610737 0.0067215906 0.005164425
-0.0026385107 -0.0024402398 0.00019295533 1.11023355e-05 0.0022492148 0.0005163194 0.00057574845 -0.0011523047
0.00033619613 7.365784e-06 -0.0008523267 -0.00079074444 0.00037066537 -0.0005479146 0.0073169847 -0.0013656922
0.002217706 -0.0019734015 -2.5314923e-06 -1.1755769e-05 -0.00030618336 -0.00079537014 -0.0020314865 -0.00018181314
-2.6893544e-05 -9.443661e-06 -0.0022532854 1.1879833e-05 -0.00077044364 -0.0012421713 -1.3889333e-05 -8.0931255e-05
0.0028868604 0.00035643482 -0.00054609525 0.0058321417 -0.0011661454 -0.003495833 -0.0024615536 -6.773069e-06
-2.0738242e-05 0.0005388349 -0.0021435085 -0.0066003175 0.00090329244 7.0332017e-06 5.2072533e-06 -0.0009397615
-0.00078696903 -0.0018689189 0.00069096853 0.0004181126 0.0019894298 -0.0011121803 -0.00019357468 -0.00033967666
0.00067277893 -8.223889e-06 -0.0016003288 0.005571102 -0.0014292039 -0.0021434438 0.0030800586 6.476802e-05
-0.0004661475 0.0026037595 -0.0014819546 -0.0007042678 0.00077689963 -0.0044182697 -0.0017234884 -0.0013310382
00000000: 5ac0 a7b8 f2cc 0437 ad1c 4236 8983 0f3a
00000010: 8bc0 e9b5 6775 e4b6 b0e7 9937 4a08 d739
00000020: e64b 6239 80f2 e638 3fbe afba 9bce 4539
00000030: 58fc 97b7 70cf c53a 9013 3bbb e76f 853a
00000040: 3535 ebba 4f37 78b7 fddc 7539 1905 83bb
00000050: f081 8936 0385 113a 378e 65ba 7c41 563a
00000060: 3526 05bb 97af 9eba f337 ad39 d845 0d3a
00000070: 19c8 b437 001d db39 c98d 63ba 8ee3 42ba
00000080: 975e 9fb9 dc76 da39 ae7c a83b ed72 f839
00000090: e072 26bb 37d4 ccbb 5ce6 d4b9 35d2 3c3a
000000a0: 30ef 09ba cc7b 71ba e7b6 8cb5 2250 23b8
000000b0: 4f44 1438 7ca1 78ba 2701 54bb 7d43 71bb
000000c0: 2bdc 2eba c24f ffba 9a82 11ba 33c2 19bb
000000d0: 263e f9b9 64f9 aa39 ca40 dc3b 563a a93b
000000e0: ddea 2cbb 6eec 1fbb 0d54 4a39 2b44 3a37
000000f0: 9067 133b 9c59 073a d3ed 163a ee08 97ba
00000100: 7b43 b039 9a27 f736 ad6e 5fba f649 4fba
00000110: dd55 c239 eda1 0fba 51c3 ef3b 0701 b3ba
00000120: ef56 113b 2f54 01bb b5e2 29b6 a53a 45b7
00000130: 3c87 a0b9 6380 50ba b022 05bb 18a5 3eb9
00000140: 7299 e1b7 3770 1eb7 dbab 13bb 7f4f 4737
00000150: 99f7 49ba 5ad0 a2ba 3b06 69b7 a3b9 a9b8
00000160: 7b31 3d3b dfdf ba39 d527 0fba 8d1b bf3b
00000170: 59d9 98ba 581a 65bb 0452 21bb 3844 e3b6
00000180: 09f7 adb7 9940 0d3a 1b7a 0cbb 7a47 d8bb
00000190: eeca 6c3a befe eb36 f7b9 ae36 545a 76ba
000001a0: 994c 4eba 83f6 f4ba 1d22 353a 2036 db39
000001b0: 1861 023b 94c6 91ba 4ffa 4ab9 a116 b2b9
000001c0: 6e5d 303a 56f9 09b7 20c2 d1ba ca8d b63b
000001d0: 2054 bbba 0579 0cbb cfda 493b 11d4 8738
000001e0: 4265 f4b9 d6a3 2a3b 253e c2ba 9d9e 38ba
000001f0: daa8 4b3a 22c7 90bb ade6 e1ba 3b76 aeba

network_body._body_endoder.seq_layers.0.weight f4 [128, 8]
0.5616291 -0.63426167 -0.45348862 0.56398183 -0.44479176 0.08113955 -0.13536623 0.33043537
0.6834217 0.4321558 -0.11063766 -0.0008762752 -0.5004923 0.0839381 -0.22137012 -0.32828546
0.27004254 -0.07015462 -0.30301815 0.6324689 -0.19074775 -0.31985396 0.10613435 -0.32058564
-0.33663794 0.6494966 0.4002225 -0.6856769 0.20289439 0.47492552 0.029545734 0.025155244
0.1564089 -0.031059057 0.22049357 -0.41035593 0.45297337 0.040467124 0.0940701 -0.45440438
0.9082639 0.14221154 0.4098606 0.4017001 0.08702545 0.046996746 0.04045773 -0.33131698
0.08281643 -0.084739685 -0.29346648 -0.2487396 0.19610704 0.13256887 0.70879275 -0.58256805
0.25606856 0.69261664 0.29050726 -0.3752919 0.477867 -0.26263776 0.350876 -0.26786345
0.042507693 -0.30042538 -0.46183777 -0.1665585 0.259491 -0.4094109 0.0072700656 0.2201518
-0.26604557 -0.2747327 -0.38978305 0.13804415 0.36404777 0.025464132 0.5872555 0.04703805
-0.41332668 0.15002316 -0.035933245 0.64815676 -0.32768396 -0.22420205 0.26343194 -0.3022879
0.46506536 -0.26387307 -0.5738874 -0.08614884 -0.05722474 -0.16139558 0.48721638 -0.22554313
-0.7113119 0.1623935 0.18827744 0.19524634 0.7103373 -0.07691093 0.8984217 -0.48658925
0.41581684 0.5753471 -0.22228675 0.46233827 -0.20918801 0.28381696 0.13682246 -0.009336925
0.15570258 -0.324243 0.23457965 0.25354552 -0.44637033 -0.32949442 -0.29422665 0.25257072
-0.15373361 0.18274072 0.7814222 -0.11361118 -0.14417607 -0.07891867 -0.008554882 -0.13504809
0.026205044 -0.34473008 -0.046930097 0.08878422 -0.081897914 -0.107026815 -0.031671096 0.28406152
0.4512633 0.16405997 -0.33783647 0.23327056 0.36619765 0.1652762 -0.5650501 -0.46876672
0.14480513 0.12707165 -0.39552006 -0.017837895 -0.055346597 0.06501686 0.16784787 -0.051265065
0.166097 -0.056019593 -0.11535094 0.4114514 0.08802915 0.2693437 0.09557693 0.008111077
-0.014940001 0.36924726 0.34531492 -0.14220187 0.14689249 0.75771666 -0.29322317 -0.33387065
-0.17073841 0.82818425 -0.0834279 0.3763188 -0.05590864 0.5522394 -0.4505535 0.7729807
-0.5374217 -0.33341724 -0.5811067 0.2023417 0.8150497 -0.10022011 -0.3923353 0.006547244
-0.10035643 -0.020225469 0.42938396 -0.4316236 -0.1804801 0.27091032 0.74909943 -0.290305
-0.31260717 -0.35412863 -0.48820707 -0.093798995 0.16886525 0.3097778 0.103646316 -0.017408935
0.16963597 -0.08358546 0.17345169 0.19943367 0.059584964 -0.056894626 -0.11948592 0.083358474
-0.37623826 0.006588133 0.11695384 0.19528505 -0.19742171 -0.52948433 0.28105763 0.48241615
-0.1626648 -0.20917122 0.043637622 0.5630828 -0.14288738 -0.013590536 -0.6452492 0.45882353
0.44781625 -0.0680773 0.101975605 -0.3588167 -0.48650917 0.41969028 -0.33878744 0.06359664
-0.23297459 0.724365 -0.01710462 0.583189 0.3709289 0.2076105 0.10449431 0.09145299
0.47637954 0.27717793 -0.08734028 -0.0397413 -0.23056716 0.4285328 -0.27074674 0.04666832
0.074444465 -0.017216677 0.32488745 -0.08144271 -0.32664385 0.08541684 -0.23825595 0.24880236
00000000: edc6 0f3f f95e 22bf a92f e8be 1d61 103f
00000010: bfbb e3be 7e2c a63d 729d 0abe d32e a93e
00000020: b9f4 2e3f 8643 dd3e ff95 e2bd d5b5 65ba
00000030: 4320 00bf bde7 ab3d d9ae 62be 0815 a8be
00000040: 0443 8a3e 3aad 8fbd 3225 9bbe 7be9 213f
00000050: 6153 43be e6c3 a3be f75c d93d cd23 a4be
00000060: cf5b acbe 6945 263f f7e9 cc3e 8588 2fbf
00000070: 8cc3 4f3e 7029 f33e e509 f23c 5f12 ce3c
00000080: a829 203e 906f febc 11c9 613e 2c1a d2be
00000090: 20ec e73e dbc0 253d d3a7 c03d b1a7 e8be
000000a0: fc83 683f e79f 113e 40d9 d13e a3ab cd3e
000000b0: 663a b23d a97f 403d 01b7 253d 61a2 a9be
000000c0: a99b a93d 008c adbd 3d41 96be 98b5 7ebe
000000d0: 49d0 483e 22c0 073e 7173 353f 2e23 15bf
000000e0: 6b1b 833e 534f 313f 5ebd 943e 4326 c0be
000000f0: fcaa f43e 7578 86be 05a6 b33e 6625 89be
00000100: 8c1c 2e3d 5bd1 99be 0076 ecbe 508e 2abe
00000110: 01dc 843e 4e9e d1be bb39 ee3b 796f 613e
00000120: 2037 88be c4a9 8cbe a591 c7be 725b 0d3e
00000130: 7864 ba3e 289a d03c 6056 163f f8aa 403d
00000140: 8e9f d3be ac9f 193e bd2e 13bd 9aed 253f
00000150: 31c6 a7be 3995 65be 8de0 863e 7bc5 9abe
00000160: 0c1d ee3e 5f1a 87be 49ea 12bf ce6e b0bd
00000170: 7d64 6abd e244 25be 6d74 f93e c7f4 66be
00000180: 8918 36bf 7b4a 263e cdcb 403e a8ee 473e
00000190: aad8 353f 7a83 9dbd f7fe 653f 3a22 f9be
000001a0: f2e5 d43e f349 133f 239f 63be 9ab7 ec3e
000001b0: 6235 56be 7550 913e 301b 0c3e e7f9 18bc
000001c0: 7f70 1f3e 2e03 a6be a635 703e b8d0 813e
000001d0: a78a e4be 7eb3 a8be e0a4 96be f350 813e
000001e0: 586c 1dbe 6220 3b3e 490b 483f faac e8bd
000001f0: e4a2 13be 1da0 a1bd c729 0cbc 0c4a 0abe
00000200: f6ab d63c 7680 b0be c639 40bd 80d4 b53d
00000210: 18ba a7bd e030 dbbd 8db9 01bd 8370 913e
00000220: fc0b e73e 56ff 273e e7f8 acbe 7ade 6e3e
00000230: 427e bb3e 2a3e 293e 20a7 10bf 3102 f0be
00000240: cc47 143e 121f 023e 9b81 cabe c720 92bc
00000250: 1db3 62bd 8f27 853d 50e0 2b3e 51fb 51bd
00000260: 5515 2a3e cd74 65bd 1d3d ecbd c2a9 d23e
00000270: a148 b43d 6be7 893e d6bd c33d 53e4 043c
00000280: e8c6 74bc fa0d bd3e 1ecd b03e 5e9d 11be
00000290: fc6a 163e b8f9 413f 5921 96be 18f1 aabe
000002a0: 0dd6 2ebe e203 543f 3fdc aabd dcac c03e
000002b0: 7500 65bd 905f 0d3f f3ae e6be 10e2 453f
000002c0: 7894 09bf aab5 aabe 69c3 14bf aa32 4f3e
000002d0: 19a7 503f 3340 cdbd 2ce0 c8be 438a d63b
000002e0: ac87 cdbd e2af a5bc 37d8 db3e c5fd dcbe
000002f0: c6cf 38be c2b4 8a3e fbc4 3f3f dba2 94be
00000300: 0c0e a0be 5950 b5be 47f6 f9be b019 c0bd
00000310: 03eb 2c3e 329b 9e3e 8544 d43d 2f9d 8ebc
00000320: 0db5 2d3e db2e abbd 529d 313e 5738 4c3e
00000330: 5d0f 743d 570a 69bd 09b5 f4bd d9b7 aa3d
00000340: 4da2 c0be 44e1 d73b 7f85 ef3d cef8 473e
00000350: eb28 4abe 498c 07bf c9e6 8f3e 40ff f63e
00000360: 9a91 26be fb30 56be 5dbd 323d 3226 103f
00000370: 1251 12be d7aa 5ebc 0d2f 25bf ebea ea3e
00000380: 2c48 e53e 1d6c 8bbd 96d8 d03d d3b6 b7be
00000390: bb17 f9be a5e1 d63e 8c75 adbe f53e 823d
000003a0: e490 6ebe fc6f 393f fd1e 8cbc e04b 153f
000003b0: 65ea bd3e d997 543e 1d01 d63d b54b bb3d
000003c0: 05e8 f33e 44ea 8d3e 76df b2bd c6c7 22bd
000003d0: cc19 6cbe a768 db3e 519f 8abe 4827 3f3d
000003e0: 5776 983d fd09 8dbc a657 a63e 6fcb a6bd
000003f0: dd3d a7be 06ef ae3d 5ef9 73be 0cc6 7e3e

network_body._body_endoder.seq_layers.2.bias f4 [128]
-0.0023340322 -0.00017247922 0.00063422305 -5.329227e-05 -0.0010399368 0.0022217396 -0.00024105719 0.0005126687
4.7896656e-06 -0.001487518 7.169088e-19 0.0005748122 -0.0012080612 0.00036171474 -0.0017466686 0.0002653755
-0.00060958305 -0.0006440109 0.0009441937 -0.00041209668 -0.0025842707 0.00076763786 -0.0012536693 0.0006119208
-7.491414e-06 -0.0009326221 -0.00094108115 -0.00029993613 -0.0012203562 -0.0014258176 -0.0011386813 -0.002687716
-0.0008794795 0.0005035503 0.00017602179 0.00037108746 -0.00030296296 0.001973151 -2.994307e-09 -0.0035762615
-1.0335304e-05 2.2593887e-09 -0.0010355187 -1.8718148e-12 4.9560775e-05 -0.0009531329 -0.0005658609 -0.0023463548
-0.0015351365 -0.0011808011 0.00026950333 -0.0006463873 -9.857147e-05 -0.0031243025 -0.0024956418 0.0005207514
-0.0015205921 -0.002091645 -0.0018905487 0.003331021 -0.0015353949 0.00063692476 0.00047905993 -0.00045518094
4.3933494e-05 0.00058218493 -0.001039317 0.00039110956 -0.003625449 0.00025915392 -2.7690244e-13 0.001863104
-0.0024594918 -0.00054254435 -0.0014639839 -0.0011522865 0.0003908742 0.0007064139 -1.0145339e-09 -6.188875e-05
-0.0036246153 0.00042046217 0.00065521727 0.0013254966 0.00036826244 -0.003130916 0.0008350841 0.00032566252
-0.0028106803 -0.0029107572 -0.0017705038 -1.0750815e-05 -0.0027071647 -0.001791688 0.00080167264 5.537531e-05
-0.002405126 0.00026939847 0.00067091035 0.00025316715 6.000864e-06 0.0015311822 1.096504e-10 0.002046907
-0.0016219156 0.00025810333 1.5924037e-05 -0.0004315762 -0.00073504983 -1.3446984e-05 -0.0016767432 -2.295541e-05
0.0005229874 -6.660187e-05 -0.0017754318 -0.0016400957 0.0001037647 0.00048388995 -0.0003293727 0.00024455733
-0.0012057032 0.0006448368 0.0002677122 0.00081079314 0.0003915383 -0.0006536901 -0.00014294854 0.000509343
00000000: 90f6 18bb 8adb 34b9 fd41 263a 2486 5fb8
00000010: 7d4e 88ba 9b9a 113b 4cc4 7cb9 9d64 063a
00000020: eab6 a036 d2f8 c2ba 1998 5321 feae 163a
00000030: cf57 9eba 88a4 bd39 79f0 e4ba 1922 8b39
00000040: 6dcc 1fba d7d2 28ba c483 773a ae0e d8b9
00000050: de5c 29bb 4e3b 493a 2952 a4ba 4f69 203a
00000060: c25e fbb6 367b 74ba e3b2 76ba bf40 9db9
00000070: 5cf4 9fba 80e2 baba ce3f 95ba 6424 30bb
00000080: df8c 66ba b000 043a 7d92 3839 848e c239
00000090: 00d7 9eb9 fb4f 013b 68c4 4db1 b65f 6abb
000000a0: cb65 2db7 9643 1b31 3eba 87ba 9eb7 03ac
000000b0: 7adf 4f38 abdb 79ba 4856 14ba 4dc5 19bb
000000c0: a236 c9ba 1cc5 9aba 204c 8d39 5172 29ba
000000d0: 28b8 ceb8 19c1 4cbb ec8d 23bb 0983 083a
000000e0: 9b4e c7ba fb13 09bb 4acc f7ba 424d 5a3b
000000f0: 4e3f c9ba 4cf7 263a 562a fb39 5aa5 eeb9
00000100: 3b45 3838 c59d 183a b139 88ba d60d cd39
00000110: f198 6dbb 0ddf 8739 d9e1 9baa 6533 f43a
00000120: 6d2f 21bb 8939 0eba 26e3 bfba 5208 97ba
00000130: 3fee cc39 a22e 393a bd6f 8bb0 45ca 81b8
00000140: f48a 6dbb 7a71 dc39 e3c2 2b3a 49bc ad3a
00000150: 5913 c139 0e30 4dbb 8ce9 5a3a afbd aa39
00000160: 6433 38bb 67c2 3ebb 4010 e8ba 665e 34b7
00000170: b06a 31bb 13d7 eaba 5727 523a c942 6838
00000180: 529f 1dbb 0d3e 8d39 08e0 2f3a 85bb 8439
00000190: 075b c936 f3b1 c83a b01f f12e 6725 063b
000001a0: 7596 d4ba 0b52 8739 9c94 8537 2d45 e2b9
000001b0: 5cb0 40ba 5b9a 61b7 2ac6 dbba 5e90 c0b7
000001c0: 1719 093a 9bac 8bb8 9bb5 e8ba 7bf8 d6ba
000001d0: 409c d938 9cb2 fd39 a8af acb9 ee37 8039
000001e0: b008 9eba 440a 293a b95b 8c39 688b 543a
000001f0: 6247 cd39 665c 2bba 75e4 15b9 6e85 053a

network_body._body_endoder.seq_layers.2.weight f4 [128, 128]
-0.060665578 0.046379454 0.06273823 0.10238996 -0.043490376 -0.10425499 -0.039545737 0.101287074
-0.066148326 -0.0034829427 -0.101182684 -0.094475865 0.041732173 0.030380473 -0.08038042 0.08395537
-0.051162906 0.027231961 0.013667133 0.18180938 0.053652838 -0.08038313 0.04495486 0.007943121
-0.1603201 -0.11918095 0.16814849 0.1398372 0.055863615 0.10025953 -0.022280926 -0.034614824
-0.11687003 -0.028616842 -0.10426973 0.090654776 -0.085238285 0.023502564 0.040843 -0.09648837
-0.025426954 0.10811376 -0.048143808 -0.06978328 0.023061292 -0.117714986 0.12569663 0.091062896
-0.07308474 0.16988672 -0.030661158 -0.049952324 -0.0687907 -0.0022153934 -0.014834194 0.059216797
-0.09129959 0.020762447 -0.05075953 -0.037984688 0.09630905 0.032034893 -0.077946045 -0.07447478
0.011075908 -0.007940548 -0.084693134 -0.098061256 0.027621431 -0.10526962 -0.08108655 0.016324352
0.06465239 -0.1395776 -0.1394502 0.10651652 0.025641147 -0.027568806 0.06068745 0.07359678
-0.11360428 0.047874067 0.04857677 -0.019607063 0.20141573 -0.05318793 -0.046804104 -0.06665715
-0.04407459 0.023593247 0.13888328 -0.20875275 -0.050890032 0.049981803 -0.063347705 -0.044033427
-0.019021975 -0.048855714 -0.107010216 0.048204605 -0.087507606 -0.0889004 0.06282772 -0.036433797
-0.08435059 -0.050025135 -0.045447238 -0.08916026 0.04441338 -0.039043892 0.063240334 0.040252145
0.038434178 -0.07360675 0.0023976455 0.08800691 0.005978207 -0.09702379 -0.13175723 0.14016604
-0.010281102 -0.015407777 -0.03707924 0.11593148 0.05688085 -0.062222693 0.1087563 -0.049027797
-0.17281961 0.12530154 -0.028234573 -0.12738869 -0.049827814 -0.035649717 0.05497046 -0.013995528
0.12688006 -0.0032965704 0.03774187 0.1176523 -0.09875766 0.004232977 0.2389022 0.010231803
-0.015584475 -0.030364417 0.085913695 0.046473097 0.003038679 0.13827376 0.2634664 0.01290672
0.21528378 0.099092126 0.06821749 -0.06722802 0.05498034 -0.05798087 0.050772388 -0.030437171
-0.0642305 0.102963075 0.038215518 -0.1452123 0.11345616 0.04217759 0.012570514 0.01817113
-0.0816357 -0.26214665 0.081240185 0.04308428 -0.051332887 0.00057211576 -0.040467374 -0.13314885
-0.18485107 -0.16477592 0.12323566 0.015076563 0.07031792 0.06674583 0.025905814 -0.062199917
0.17388496 0.04087893 0.017639773 0.14288263 0.05993766 0.018359976 -0.08582606 0.10657657
0.07778687 -0.023246838 -0.009451374 0.030395303 0.18197769 0.028002234 -0.0030614384 0.031567372
-0.110298075 0.17339732 0.035761192 0.030326266 0.024122376 0.16550238 -0.07234066 -0.013569494
-0.042181306 0.109385006 0.050551537 -0.10562364 -0.017553445 -0.077787764 0.15469319 0.032401696
0.06378867 0.057663396 0.12339988 -0.0755495 -0.14028999 0.042964824 -0.0655595 0.123191714
-0.028173419 0.216645 0.055200446 0.300622 -0.110999435 0.02228316 0.01425529 0.02011057
-0.055170484 0.15003115 -0.023757698 0.03857468 -0.027173525 -0.102366 0.043018304 0.113724716
-0.036782917 0.041390337 -0.033927944 0.002675911 -0.096519016 0.0031333638 0.06676331 -0.06521638
0.007060475 0.08138457 0.06783025 -0.0006361955 0.015713066 0.14266649 -0.06978055 -0.01454655
00000000: 787c 78bd 62f8 3d3d e77c 803d d4b1 d13d
00000010: f722 32bd a483 d5bd b6fa 21bd 996f cf3d
00000020: c678 87bd 1542 64bb de38 cfbd 907c c1bd
00000030: 5bef 2a3d 78e0 f83c 7d9e a4bd cbf0 ab3d
00000040: 3290 51bd 9015 df3c 1cec 5f3c 3d2c 3a3e
00000050: 14c3 5b3d e99f a4bd 9622 383d dd23 023c
00000060: f42a 24be 2415 f4bd 1e2f 2c3e 7c31 0f3e
00000070: 3fd1 643d de54 cd3d 7d86 b6bc 46c8 0dbd
00000080: 8e59 efbd de6d eabc 5e8b d5bd 36a9 b93d
00000090: 6991 aebd 7388 c03c fd4a 273d b29b c5bd
000000a0: 304c d0bc bf6a dd3d 7132 45bd 89ea 8ebd
000000b0: 09eb bc3c 8e14 f1bd 9eb6 003e 2f7f ba3d
000000c0: 74ad 95bd c9f6 2d3e 1c2d fbbc cf9a 4cbd
000000d0: 23e2 8cbd 2230 11bb 1f0b 73bc 508d 723d
000000e0: 48fb babd 0216 aa3c 3ae9 4fbd d595 1bbd
000000f0: ae3d c53d 0537 033d 2da2 9fbd 3c86 98bd
00000100: ba77 353c 1219 02bc 9873 adbd 57d4 c8bd
00000110: 5746 e23c 9997 d7bd b510 a6bd a6ba 853c
00000120: 7968 843d 6eed 0ebe 09cc 0ebe 5525 da3d
00000130: 620d d23c fad7 e1bc 6793 783d e9b9 963d
00000140: 5ca9 e8bd 9917 443d 6ff8 463d fe9e a0bc
00000150: ed3f 4e3e 96db 59bd a9b5 3fbd 8b83 88bd
00000160: 8f87 34bd a046 c13c 6b37 0e3e 48c3 55be
00000170: 1172 50bd b8b9 4c3d 71bc 81bd 655c 34bd
00000180: f9d3 9bbc ee1c 48bd 2c28 dbbd 3172 453d
00000190: 3037 b3bd 6a11 b6bd d2ab 803d 9b3b 15bd
000001a0: 01c0 acbd 28e7 4cbd e226 3abd a899 b6bd
000001b0: ceea 353d 7dec 1fbd 2684 813d 6fdf 243d
000001c0: 286d 1d3d 23bf 96bd d121 1d3b f83c b43d
000001d0: d6e4 c33b 69b4 c6bd 5eeb 06be b087 0f3e
000001e0: 1172 28bc e770 7cbc 67e0 17bd 7c6d ed3d
000001f0: e5fb 683d 39dd 7ebd 9fbb de3d 5fd1 48bd
00000200: a0f7 30be 0c4f 003e 314c e7bc 2e72 02be
00000210: 4018 4cbd 7005 12bd b428 613d 804d 65bc
00000220: d9ec 013e 460b 58bb 3897 1a3d b0f3 f03d
00000230: 7541 cabd c9b4 8a3b c7a2 743e 4ba3 273c
00000240: 0756 7fbc ccbe f8bc 85f3 af3d 935a 3e3d
00000250: 9324 473b a397 0d3e 11e5 863e b576 533c
00000260: 5a73 5c3e d0f0 ca3d 9db5 8b3d d8ae 89bd
00000270: 1133 613d 597d 6dbd b5f6 4f3d 6057 f9bc
00000280: 488b 83bd 4ede d23d e087 1c3d 88b2 14be
00000290: b45b e83d 69c2 2c3d 8ff4 4d3c 9fdb 943c
000002a0: 9e30 a7bd 1638 86be 4161 a63d 2479 303d
000002b0: 6f42 52bd 0afa 153a 1ec1 25bd 2c58 08be
000002c0: 9949 3dbe 05bb 28be fa62 fc3d b003 773c
000002d0: d702 903d 0ab2 883d 6e38 d43c 57c5 7ebd
000002e0: e60e 323e aa70 273d 4981 903c d34f 123e
000002f0: 3181 753d a967 963c 93c5 afbd d144 da3d
00000300: b94e 9f3d 2770 bebc f0d9 1abc 92ff f83c
00000310: 5c58 3a3e f164 e53c 6aa2 48bb ca4c 013d
00000320: f5e3 e1bd 118f 313e 547a 123d ca6e f83c
00000330: 4a9c c53c 7579 293e 5727 94bd 9552 5ebc
00000340: 4ec6 2cbd 3f05 e03d 210f 4f3d 3551 d8bd
00000350: 3ecc 8fbc 314f 9fbd e467 1e3e a4b7 043d
00000360: a2a3 823d 7430 6c3d 14b9 fc3d b2b9 9abd
00000370: 2ea8 0fbe e2fb 2f3d 0f44 86bd f04b fc3d
00000380: f1cb e6bc 30d8 5d3e dd19 623d 20eb 993e
00000390: ac53 e3bd 2c8b b63c 058f 693c ecbe a43c
000003a0: 72fa 61bd c4a1 193e 819f c2bc 7c00 1e3d
000003b0: 039b debc 44a5 d1bd f633 303d 81e8 e83d
000003c0: afa9 16bd ea88 293d 07f8 0abd 565e 2f3b
000003d0: c3ab c5bd 1f59 4d3b 34bb 883d 2a90 85bd
000003e0: 8f5b e73b f4ac a63d 96ea 8a3d 5bc6 26ba
000003f0: b0b8 803c 2a17 123e 1be9 8ebd a754 6ebc
