VirtualAquarium/results/VirtualAquarium/VirtualAquarium/VirtualAquarium-9302.pt (torch, 446879 bytes, 36 tensors)

network_body._body_endoder.seq_layers.0.weight f4 [128, 8]
00000000: 8c38 25be 7c96 f73d 0bca f0bc 71a7 873e
00000010: 61ca 0ebf 61da 5c3e 624c 8c3d d1d2 febd
00000020: 0af9 e1be e7d4 c6bd cb21 bc3e 9116 203f
00000030: c60a 383e b482 413e dce1 243f ee58 763d
00000040: b46f 123f a29e a93e 1cc0 923d e20c f5bc
00000050: 5260 db3e 1e66 abbe c18e f0be f9b6 9cbe
00000060: de3a 31be 225f 1e3e 45c1 d4be d173 ff3e
00000070: 7583 063f 37a5 de3e 6c14 0a3f c49b 9a3d
00000080: 0f52 533d 2cfa 8d3e b0da 133e 9eca 603e
00000090: 329e b7be da8b 843d 5c94 f9be 5259 00be
000000a0: 208b 26bf f28b b4be 1c49 903e 5990 a83e
000000b0: 3710 3bbe 503b 0fbf c533 e0be 6d94 a93e
000000c0: 75ee ecbe a59b 2c3e afc0 d2be 81e0 a03e
000000d0: fc04 b03e e74c f63d 9fe6 343d b7ac 5a3e
000000e0: 9ae7 b4bd 0a1c 11bf a084 bb3e 48c1 693e
000000f0: 078d 03be 1481 943e 069b 993e c841 af3e
00000100: 8d53 153f ccb1 04bf 14bc 0abf 9f42 03bf
00000110: c35d 5b3e 57bc 3e3e ca87 e2be 4497 b4be
00000120: 4414 01bf 49e5 22be 7eeb 0e3e f59b 92bf
00000130: 2b72 37be ea40 8e3e 732a 34bd 2663 5fbe
00000140: 2b0b 70be 67f0 79be 257d 4e3e 42e9 f03c
00000150: 6e5f 85be 9e84 103d 6173 e63e e319 d3be
00000160: 4775 14be acc7 c93e 8126 22be 904e c93e
00000170: d518 bcbc 79d3 0cbe 788e 883e d4d3 f93e
00000180: 8e49 dabe cb64 063f cc05 523e f427 1dbf
00000190: a5c0 bbbe 52c2 d93d 7a89 0b3e 12ae 2cbe
000001a0: 50bf c93e 96a6 51be 6a35 c93e a39d 1fbd
000001b0: bc78 34be bf44 bebd ca48 c73c 4b83 a5be
000001c0: 82fc 013f fa28 60be 0ddb 043f c0f9 63be
000001d0: 6102 9cbd 0e44 b8be aeec 3ebd 0f30 e3be
000001e0: 4233 ec3e bd39 c1bd c9d2 06bf 9bc4 f93d
000001f0: 7d01 223c 29eb e6bc 597f 55bc a5a9 8f3e
00000200: c8e5 80be 1c8b 73be 9a81 80be 85bd f7bd
00000210: 0f1d 8d3d 9760 783d d1ae 0fbf 6d57 c73e
00000220: f4e6 cb3d 1d85 fb3e bb15 3bbf e475 19be
00000230: 1e82 a4be f475 aebd d993 643c 67ab febc
00000240: 9424 3abf bd26 1fbb 2c04 013f ceb4 43be
00000250: 5955 cf3e 959f 2bbe e0ee 233f 1095 a63e
00000260: e87d 0fbf 1df7 663e 6774 f8bd e0ab 1f3d
00000270: 83d8 dc3e f596 013d f1d6 0dbf e33b 14bd
00000280: d12b 1b3d 6e1f df3c 30cb 5b3e 1aec b73e
00000290: 6730 3abf 318e 093f e3ca 163e 9371 573e
000002a0: 8a58 c7be 796a 213e f78b a2be 7f2a 1b3e
000002b0: 7b50 f8be 7695 d6be 7455 573e 02e0 133e
000002c0: 628e 8ebc beb4 d63e ea8d acbe 767b 9c3d
000002d0: 7ae0 483e e6e7 c23e 9419 af3e c9ad 27bf
000002e0: c861 833c 994e f83e 67ed 29be a551 02be
000002f0: b7d5 b83e d2a3 bd3e 3dba 12bf 587b 213e
00000300: 86ed f8bd 3d60 09bd baee 233f 7645 a03e
00000310: be87 81bd f1b0 e03d 963b ef3e e127 373e
00000320: c296 063d 6333 bdbe a37a 0fbf 3960 23bf
00000330: 8848 7e3e 2c61 213e d8e8 cabd 5433 443b
00000340: 3041 77be 613b 6b3e 0c2c 84be 8f56 1ebf
00000350: 76e2 f2bd a754 363d 6304 783e 3e13 613d
00000360: f073 86be edf1 15bf 1d8f d33e 470e 953e
00000370: a019 073e 01d8 053e a89a 81be f15c 813e
00000380: 3ccf 13be f26b 0fbf 88a9 31be ca8a 28be
00000390: 900e ec3e 3c9f 21be 2971 63be 4eab 253e
000003a0: b6fc aabe da7f cdbe f3b8 e5be 7bb3 773e
000003b0: bacb 2b3e 672a 943e 9cad 15be b497 803e
000003c0: 6546 3fbe 0274 ec3e a7a1 70be bec7 813e
000003d0: 24a2 0b3f e6e1 efbe f2a7 bebd 92e8 ae3c
000003e0: 5e1d 08be 1b95 a23e ca2b 783e e65e e4be
000003f0: b9c9 3d3a c8a9 483b 740f f93e 99fa 2f3f
-0.16134852 0.120892495 -0.029393217 0.26494935 -0.55777556 0.2156768 0.06850506 -0.12442554
-0.44135314 -0.09708577 0.36744532 0.62534434 0.1797286 0.18897516 0.64407134 0.060143404
0.57201695 0.3312884 0.07165548 -0.02991337 0.42846924 -0.33476347 -0.46983913 -0.30608347
-0.17307612 0.15465978 -0.41553703 0.49893048 0.5254434 0.43485424 0.5393741 0.07549241
0.05159193 0.27729928 0.14438891 0.21952292 -0.3586288 0.06471987 -0.48746002 -0.12534073
-0.6505604 -0.3526302 0.28180778 0.3292263 -0.18267904 -0.5594988 -0.43789497 0.33121052
-0.46275678 0.16856249 -0.4116263 0.31421283 0.34378803 0.12026387 0.04416525 0.21354948
-0.08833237 -0.5668341 0.36624622 0.22827637 -0.12846766 0.2900473 0.30001086 0.34229875
0.58330613 -0.51833797 -0.54193234 -0.5127353 0.21422486 0.18626533 -0.44244224 -0.35271657
-0.5042155 -0.15907778 0.1395702 -1.1453844 -0.17914645 0.277839 -0.043985795 -0.21815166
-0.2344176 -0.24408112 0.20164926 0.029408101 -0.2604937 0.035282724 0.45009902 -0.41230687
-0.14497863 0.3941015 -0.15835 0.3931775 -0.02296106 -0.13752545 0.26671195 0.48794425
-0.42634243 0.5249755 0.20510024 -0.6138909 -0.36670414 0.10632767 0.13626662 -0.16863278
0.39403772 -0.20473704 0.39298564 -0.038968693 -0.17624182 -0.09290456 0.0243267 -0.3232673
0.5077592 -0.21890631 0.51896745 -0.22263241 -0.07617641 -0.35989422 -0.046612434 -0.44372603
0.46132857 -0.09434841 -0.5266538 0.12195703 0.00988805 -0.028188305 -0.01303085 0.28059116
-0.2517531 -0.23783535 -0.25098878 -0.12096695 0.06890308 0.06063899 -0.56126124 0.38933888
0.0995616 0.49124995 -0.73080033 -0.14986378 -0.32130522 -0.085185915 0.013951265 -0.03108759
-0.72712064 -0.0024284564 0.5039699 -0.1911194 0.40494803 -0.16760094 0.6403637 0.325356
-0.5605149 0.22555204 -0.12131577 0.038982272 0.43133935 0.031638104 -0.554061 -0.036189925
0.037883583 0.027236667 0.21464229 0.3592232 -0.72730106 0.5373259 0.14725833 0.21039419
-0.38934737 0.15763272 -0.3174741 0.1515293 -0.48498902 -0.41910905 0.21028692 0.14440921
-0.017401878 0.4193477 -0.33702022 0.07640736 0.19616881 0.3806755 0.34199202 -0.6549955
0.016037837 0.48497465 -0.16594468 -0.12726457 0.3610055 0.37039047 -0.5731543 0.15769708
-0.12154679 -0.033539046 0.6403614 0.31302994 -0.06324719 0.10971249 0.46725148 0.17886306
0.032858618 -0.36953267 -0.56046504 -0.638187 0.24832356 0.15759724 -0.09907693 0.002993782
-0.24145961 0.2297187 -0.25814855 -0.6185083 -0.118596 0.044514325 0.24220423 0.05494999
-0.26260328 -0.58572274 0.41320124 0.29112455 0.13193369 0.1307068 -0.25313306 0.2526622
-0.14434522 -0.56024086 -0.17349827 -0.16459194 0.4610486 -0.157834 -0.22211136 0.16178629
-0.33395928 -0.40136606 -0.44867668 0.2418956 0.16776934 0.289386 -0.14617008 0.2511574
-0.18679197 0.46182257 -0.23499165 0.25347704 0.5454428 -0.46852034 -0.09309377 0.021351133
-0.13292453 0.31754383 0.24235454 -0.44603652 0.0007239837 0.0030618776 0.48644602 0.68741757

network_body._body_endoder.seq_layers.0.bias f4 [128]
00000000: 4070 8d3c 57bd 14bc 1f78 f3ba 13c8 47bc
00000010: fdda 71ba 106d bebc f299 d63a 3e75 923b
00000020: c86a fa3a 82c0 9d3b e9f7 f83a e609 d93b
00000030: da4b b03b 4864 f73a c767 faba 9e9f e53b
00000040: df0a 96bc 94d6 3bbd c7f7 2cbb 9b35 353c
00000050: fef1 8ebc ecf2 ed3b e69f faba 7f48 d4bb
00000060: 845a 59ba 889d 71bc 2cf3 3cbb 0964 0f3c
00000070: da88 803c 7402 393c bbc6 eabb fb8f f33b
00000080: 632c 84bc 7b48 803b 7643 b73b c1a0 faba
00000090: ae99 faba 7f93 0bbc 0b84 fa3a c40b 083c
000000a0: e972 4cbc 71a0 fa3a e2fb 63b9 d8ac 96bb
000000b0: 12e0 40bc 8946 8ebb f985 f53a 929c 383a
000000c0: b1d5 58ba 7a65 98ba bd28 cd39 3e6b 67bc
000000d0: ee8c 29bb 57de d73b a86f e2ba e467 7ebb
000000e0: e87a faba d593 99b8 c53a 44bc c256 573c
000000f0: 58e4 f93a 8c8c 6e3b f4b6 b83b 5dab c0ba
00000100: d170 beba e631 0c3b 19bb 6abc 20cd 073d
00000110: 56dd a43b f9c0 b7ba 0d5e e1bb 3c9f faba
00000120: e901 d33b e4ef 89bc bd7c fa3a 13a3 fa3a
00000130: ce7d 5bbc 6233 c6bc 8430 67bb a6c4 f6bb
00000140: 3994 9c39 efc4 f7bc 08a2 faba a487 fa3a
00000150: 2df0 a1bb 1192 f23b b207 1dbc 567b 51bc
00000160: cc95 f2ba 8b0b fd3a 8898 faba a569 e53b
00000170: 6baf 7e3b 24b2 a2bb be8a fa3a 0f37 b83a
00000180: 130b 48bc ca6d a9bb 1057 64b9 d67a dbbb
00000190: 7bab 2fbb b6c8 a2bc 17fe 18bc 304e 50bc
000001a0: ad67 29bc 9ba5 483b 9f0c 00bb 8e14 a3bc
000001b0: 9d5f 4dbc 07c6 53ba bb40 61bc 5ab1 913b
000001c0: 13ef 7cbc cfa5 4e3c 709b 15bc 9d98 7fbb
000001d0: fe17 72bc f495 0fbd aca9 71bb f3ca 1bbb
000001e0: d09c 79bb 7a3d 133b abce fa3a 609f fa3a
000001f0: f1ad d23c 04c6 00ba 528d e9bc 6599 f53a
0.017265439 -0.009078345 -0.0018575228 -0.0121936975 -0.0009226052 -0.023245364 0.0016372784 0.0044695428
0.001910531 0.0048142085 0.0018994781 0.0066234944 0.005380136 0.0018874491 -0.0019104414 0.0070075532
-0.01831573 -0.045858935 -0.0026392804 0.011060144 -0.017449375 0.0072616246 -0.001912114 -0.006478369
-0.0008291381 -0.014747031 -0.0028831465 0.008751878 0.015690256 0.011292089 -0.007164804 0.0074329353
-0.016134446 0.0039148903 0.005592759 -0.0019121395 -0.0019119286 -0.0085190525 0.0019112838 0.008303586
-0.012478569 0.0019121302 -0.0002174224 -0.0045982413 -0.0117721725 -0.0043419045 0.0018731944 0.0007042374
-0.00082715886 -0.0011626922 0.00039131 -0.01412469 -0.0025871354 0.0065877843 -0.0017275708 -0.0038819248
-0.0019110115 -7.3231444e-05 -0.011976902 0.013143243 0.0019065244 0.003639969 0.005637044 -0.0014699508
-0.0014529472 0.0021392046 -0.014326834 0.033154607 0.005031268 -0.0014019302 -0.006877667 -0.0019120942
0.0064394367 -0.016838022 0.0019110661 0.0019122086 -0.013396693 -0.024194423 -0.003527672 -0.0075307665
0.00029865073 -0.030245272 -0.0019121775 0.001911391 -0.0049419613 0.0074026664 -0.009584354 -0.012785753
-0.0018507778 0.0019305808 -0.0019118944 0.007001119 0.0038861881 -0.0049650837 0.0019114835 0.0014054495
-0.012209672 -0.0051705586 -0.00021776208 -0.006697993 -0.0026805091 -0.019871097 -0.0093379235 -0.012713954
-0.01033966 0.0030616287 -0.0019538773 -0.019907262 -0.012535003 -0.00080785196 -0.013748343 0.004446191
-0.015437859 0.012612774 -0.0091312975 -0.0039000877 -0.014776228 -0.035055116 -0.0036874814 -0.002377209
-0.0038087852 0.0022467063 0.0019135078 0.0019120984 0.025717707 -0.0004912319 -0.02850977 0.0018737732

network_body._body_endoder.seq_layers.2.weight f4 [128, 128]
00000000: 6231 003c 1dd4 f53c cc0d c43d 7fd9 543d
00000010: 3e3b 933c a085 ab3c a4af 823d 8bb2 293d
00000020: c0fe 953d e916 183e 9562 373c a42f 14be
00000030: b9d6 eebc db46 1d3e cf62 1ebe 4228 fabd
00000040: 9cba d0bc 95e6 10be 474a 0e3d 9855 813c
00000050: dc91 c03c c700 8cbd 6219 f43c 4ff8 abbc
00000060: a673 793d 88f9 0e3e 741e 43bd 0fb2 2abe
00000070: b23f abbd f584 813c f06b 403a 6654 f83c
00000080: 0640 8c3b 7622 e43d e292 0e3e 09b6 b03d
00000090: cfe2 493d 829a 6fbe 3432 0d3b 714e d3bc
000000a0: 594a d33c 5bc0 5dbc 2dc2 973d 6914 09bd
000000b0: 3017 45bb 48f2 adbd 51aa 0d3e 9a0e f6bc
000000c0: 3acd 583d 5240 ea3c c3c9 103c 5c0b 2f3e
000000d0: 27d6 fbbb 0bab 0e3d c579 43bd 74bd 84bc
000000e0: 9aec 1a3c a05a 5cbd da81 b4bb da6d 6f3d
000000f0: e68e ddbd c78c 6fbc 43e2 cbbd bd84 07be
00000100: e3d3 a6bc 3299 bbbd 8b3b 1abd 49a1 373b
00000110: 07c7 89bd 52bc 3e3d 1043 12be 9426 bf3c
00000120: b474 9c3d 58ea f0bd 2f8a 4dbc 36f1 7e3e
00000130: 3cb9 8a3d 2ec1 76be fa91 90bd 79fe 82bd
00000140: 1f1c 2f3e 475f 703d f62b ee3b d6b9 31be
00000150: 0a01 873d 3580 c5bb c368 0cbe 166a 9ebd
00000160: b726 4cbc a4fa 743d dfe1 02bd 751e 41bc
00000170: 0203 033e ab5a 45ba 7dee 8fbd f73b ae3c
00000180: 1af2 54bc 5bdb 3fbd 3602 e33b def7 313d
00000190: 9041 71bd cfbf 323e 7ae0 b3bd 0976 2dbd
000001a0: 158f 0b3d eced ac3d f578 98bc 20b7 d93c
000001b0: 35a6 bdbd d13d 98bd 1d0f 05ba 05b2 873d
000001c0: e81d e83d 6ae6 e73d ca62 243c 9501 0fbe
000001d0: b2b0 fbbc 702d f2bd 97c7 043d 6098 babd
000001e0: 0621 cabc b434 03be 1cef 083e d28a c2b9
000001f0: d74f b1ba 2be9 893d 9403 1b3d 6e37 25bd
00000200: 800a e23d 6e55 2a3e 25c0 98bd 9f5f 0abe
00000210: 5659 2dbe 6a5b bb3d 111c 30bd 409c f6bc
00000220: 34eb 9abc 17f3 103d a096 1c3d 0b17 a5bd
00000230: 0f63 a73d 95dc e43d 0948 85ba fc74 0bbe
00000240: d00e aabb 5417 073c bf21 873b a88f 4a3c
00000250: 0b2e efbd 24ed 70bb 9e2b 1fbe 4f40 54bd
00000260: 81dc 2a3d d6d2 f3bd 974c d03d 8557 cdbc
00000270: 26ee 273d f92c 8abd 53af cc3b ac26 d9bd
00000280: 47ec 69bd cacf 69bd 68e5 2ebd d88a 8fbd
00000290: 4709 c23d 583d 5ebd 7d62 ae3d 2252 15be
000002a0: 2820 953d 7edc 80bb 1db2 253c 201c 163c
000002b0: 3883 c43d 91d2 debd b7ae 81bc 8a81 873c
000002c0: b522 d6bd d80a a9bd 9e02 06be 2924 cb3c
000002d0: ccd6 c63d 7770 2abe 0e59 b03d 0197 003d
000002e0: 9828 04bd a764 433d 4c32 41bd dd61 aa3d
000002f0: 9ad0 793d deff f3bc 41ed e13a 3442 51bd
00000300: 403c a53d 824e 1fbe 52d9 8fbd 13e6 b1bd
00000310: dc82 1fbd 27ce febc 5790 33be a1c7 4bbe
00000320: 5bb4 483d e3fa 54be 3047 163d 8d7a 34bc
00000330: ce56 f83d 9d87 763d 2e08 76bb c6cb 1d3d
00000340: 4ef2 e1bd 3361 413e 02c0 8dbe 606a b6bd
00000350: 0ffd 76bd 5945 833d ed90 37bc cac6 57bd
00000360: 5bf3 503d 1618 87be 6504 6e3d 0be4 5fbb
00000370: db16 423d ae37 e7bd c21f c6bd dede 86bc
00000380: 39f2 0b3d dcc0 f9bc 4b02 b4bd 3b8c 24bd
00000390: 8f10 b33b cf6a 273d 5bf4 bdbd be21 0a3d
000003a0: be03 29be 1b42 0a3d a3bd 5a3c b804 f83d
000003b0: de10 813d 07c2 fe3c a7e7 cfb8 7099 b23d
000003c0: 44a9 e2bc 7667 d5bd 1f84 663d 27fd 6b3d
000003d0: 8527 fc3c b200 93bd d767 05be 045c 653e
000003e0: a0ad b2bd e81e 90bd d329 1b3e af06 233b
000003f0: 809d 643d dfb6 71bd 811c fd3a dbb2 f33c
0.007824274 0.03000837 0.09572944 0.051965233 0.017972585 0.02093774 0.06381157 0.041430037
0.0732398 0.1485249 0.011192937 -0.14471298 -0.029155122 0.1535906 -0.1546738 -0.1221471
-0.025479607 -0.1415046 0.034738805 0.015787885 0.023507051 -0.06836086 0.02979726 -0.020992426
0.060901307 0.13962376 -0.047636464 -0.16669486 -0.08361758 0.01581047 0.00073403027 0.030313682
0.004280093 0.111393854 0.13923219 0.086284705 0.049288567 -0.23398784 0.0021544816 -0.02579424
0.025792288 -0.013534631 0.07410083 -0.03346673 -0.0030073635 -0.08493477 0.13834502 -0.03003626
0.052930094 0.028595123 0.008837166 0.17094177 -0.007685441 0.034831088 -0.04772355 -0.01620362
0.009455824 -0.053797364 -0.0055086436 0.058454372 -0.10818271 -0.014620966 -0.099552654 -0.1323423
-0.020364707 -0.09160079 -0.03765444 0.0028019717 -0.067274146 0.046566315 -0.14283395 0.023333825
0.07639447 -0.117634475 -0.012545153 0.24896702 0.06773612 -0.2409713 -0.07059093 -0.06396193
0.17100571 0.058684614 0.007268424 -0.17356047 0.06591995 -0.0060272464 -0.13711838 -0.07735078
-0.012460402 0.059809342 -0.03195369 -0.011787047 0.12794116 -0.0007528464 -0.0702791 0.021268828
-0.012997175 -0.046840053 0.006927754 0.043449275 -0.058900416 0.17455982 -0.0878305 -0.042348895
0.034072 0.084438175 -0.018612364 0.026576579 -0.09260217 -0.074336655 -0.00050757994 0.066257514
0.11333829 0.11323245 0.010033319 -0.13965447 -0.030723903 -0.11825073 0.032416906 -0.091110945
-0.02467395 -0.12813073 0.13372463 -0.00037105993 -0.0013527822 0.067339264 0.03784521 -0.040336065
0.11037159 0.16634151 -0.07458524 -0.13513039 -0.1692861 0.09148295 -0.042995516 -0.030103803
-0.018910982 0.03538808 0.038229585 -0.08061036 0.08173191 0.11174885 -0.0010168563 -0.13618845
-0.005189754 0.008245308 0.004123896 0.012363352 -0.11678704 -0.003676244 -0.15543982 -0.051819142
0.041714195 -0.11905448 0.10170858 -0.025066147 0.0409986 -0.06746859 0.006246486 -0.10603079
-0.057110097 -0.05708293 -0.042699248 -0.07008904 0.09474426 -0.05425772 0.08514879 -0.14582112
0.07281524 -0.0039325347 0.010113266 0.009161979 0.095953405 -0.10880006 -0.01583038 0.016541261
-0.104558386 -0.082540214 -0.13086936 0.024797516 0.09708938 -0.16644464 0.08610736 0.03139401
-0.032265276 0.04770341 -0.047167107 0.08319447 0.060989954 -0.029785093 0.0017236845 -0.051088527
0.080681324 -0.15557292 -0.070238724 -0.08686461 -0.038943157 -0.03110416 -0.1753553 -0.19900371
0.049000125 -0.2079883 0.036688983 -0.0110155465 0.12125932 0.060187925 -0.0037541497 0.03852441
-0.11032544 0.18884735 -0.27685553 -0.08907008 -0.06029993 0.064097114 -0.011203987 -0.052679814
0.05101333 -0.26385564 0.05810966 -0.0034163024 0.047385078 -0.11289917 -0.09674026 -0.016463693
0.03416655 -0.03048747 -0.087895 -0.040172797 0.0054646204 0.040873345 -0.09275123 0.033723585
-0.16505334 0.03375445 0.013350877 0.12110275 0.06302045 0.031098379 -9.913678e-05 0.08720672
-0.027668603 -0.10420124 0.056278344 0.05761447 0.030780563 -0.07177867 -0.13027893 0.22398382
-0.087245226 -0.07037145 0.15152673 0.002487581 0.055814266 -0.05901229 0.0019310863 0.02974837

network_body._body_endoder.seq_layers.2.bias f4 [128]
00000000: 50ad ddbb 4bf3 28bb 4f59 0fbb a039 a239
00000010: 5918 4a3c 5dce ac39 1739 46bb 564e 0dbc
00000020: 0e1c 02bc 7deb cdba 586c 0b3b ac20 d53b
00000030: cb43 c539 e850 87bb 91ce e83a 98d1 1bbc
00000040: 3bbc cdba 4907 07bb 5560 6abb f033 ab3b
00000050: a190 213c 0763 093b a185 92bb 7d46 9ebb
00000060: fdc7 40b9 6bba 15bb 532e 60bb 249d 92bb
00000070: a709 7bbb d44e 02bb bd8f c336 5ad7 7dbb
00000080: 2464 45b8 f92f b0bb 3543 eaba 74dd 6e3b
00000090: af4b b3ba 56c4 c8bb f2b5 3dbb b57b 85b6
000000a0: 2278 79bb 6bcc 16bc 577f 8aba ea33 76bb
000000b0: 89ed abba 887d 4a3c e61e d03a 12ec 723b
000000c0: 5ec6 3dbb 47a6 d0bb bd4c 92bb b580 f43a
000000d0: 290f 30bc 44b7 78bb c686 6fbb 2fc6 fb3a
000000e0: c8f5 a33b cf80 3dbb bf63 6abb d913 183c
000000f0: 7189 faba 0afa c5bb 9182 cabb 71ef 4fbc
00000100: 9ccb 723b 4cf3 10bc a450 b13b f01d b73b
00000110: 63a5 1cbb 0e7e deb9 a6c6 06bb 7576 483c
00000120: 4ed6 d23a 4905 34bc 64db 6abc 5600 85b7
00000130: 9aa2 273c 547a fa35 2f38 27bc 6ca2 fa3a
00000140: bc41 16bc f411 e6ba 09f7 f03b 8cc7 9c3b
00000150: 8b5e 3dbc ebe3 f2bb d4cb 67bc 84d9 cc3b
00000160: 4d2b 49bc 87ac cbbb 0122 dc3b c579 a0bc
00000170: a3ec eeba d621 fa3a 7257 faba ffba 73bc
00000180: e7a3 faba ef97 a1bb 488e ab3b 9f57 b0bb
00000190: 044b 37bb 10e3 98b8 8c8e d8ba 5a94 8abb
000001a0: 28d6 94bb 3dbf fdbb 74ab 9ebb 554d 3ab6
000001b0: c3e9 213b acf1 223b 72a7 7abb e67d fcbb
000001c0: 3c54 e63b fae2 edbb c319 03bb c184 21bc
000001d0: 43b3 af3b 7ff2 8e3b 84d0 db3a 1752 31bc
000001e0: 1ae4 663a 9308 25bc afcc 15bb 2f12 ff3b
000001f0: 6265 e2bb 465d 64bb e3ec 97bb 3996 faba
-0.006765045 -0.002577978 -0.00218733 0.00030941982 0.0123349065 0.0003296015 -0.003024643 -0.008624634
-0.007941259 -0.001571044 0.0021274295 0.006504139 0.00037625278 -0.004129518 0.0017761757 -0.00951042
-0.0015696356 -0.0020603708 -0.0035762985 0.0052246973 0.009861142 0.0020963566 -0.004471496 -0.00483018
-0.00018385048 -0.002284671 -0.00342073 -0.004474299 -0.0038305314 -0.001988341 5.828186e-06 -0.0038733096
-4.7061723e-05 -0.0053768125 -0.0017872812 0.0036447914 -0.0013679172 -0.0061269207 -0.002894756 -3.9781103e-06
-0.003806599 -0.0092040105 -0.0010566515 -0.0037567564 -0.0013117056 0.012359031 0.0015878349 0.0037066978
-0.0028957347 -0.006367478 -0.0044647143 0.001865408 -0.010745802 -0.0037951032 -0.0036548837 0.0019208844
0.0050036646 -0.0028915887 -0.003576502 0.009282076 -0.0019114447 -0.00604177 -0.0061801155 -0.012691365
0.003704763 -0.008847069 0.0054112244 0.0055882856 -0.002390229 -0.00042437058 -0.002056518 0.012235274
0.0016085596 -0.010987588 -0.014334533 -1.5854992e-05 0.010231638 1.8662054e-06 -0.010206266 0.0019121892
-0.009170946 -0.0017552958 0.0073536676 0.00478453 -0.011558185 -0.007412424 -0.0141477175 0.006251516
-0.01227839 -0.006215635 0.006717921 -0.019589314 -0.0018228482 0.001908357 -0.0019099547 -0.014876126
-0.0019122333 -0.004931442 0.005235467 -0.005381539 -0.0027968297 -7.2902185e-05 -0.0016521974 -0.0042291107
-0.004542131 -0.0077437446 -0.004842216 -2.7761173e-06 0.0024705983 0.0024863286 -0.0038246778 -0.007705438
0.0070290845 -0.0072597237 -0.002000437 -0.009858311 0.005361946 0.004362404 0.0016770517 -0.010822794
0.00088077935 -0.010072845 -0.0022857597 0.00778415 -0.0069090584 -0.0034845634 -0.0046363934 -0.0019118256

action_model._continuous_distribution.log_sigma f4 [1, 3]
00000000: b861 9f3d 61f0 ab3d 96bd 243e
0.0778231 0.08395458 0.16087946

action_model._continuous_distribution.mu.weight f4 [3, 128]
00000000: 0356 66bc 6502 a8bc f060 873b cef5 693c
00000010: 3ace f23c 5016 b03c e304 683b b5e5 93bb
00000020: ff2e 9cbb 7fd9 7abc 14f4 ae3c 3839 30bc
00000030: ad6d b0bc 5a0a 7fba f895 83bc d2d2 9a3c
00000040: f39e 8abc 1051 8d3c 0e6c d9bb 0f2c b53c
00000050: af1b 223c c500 0abb 1ca2 f3bc 6b52 873c
00000060: 2ebd 3b3c defc dbba 53be 963b 9703 873c
00000070: fd7a 2a3c 1197 013c 7d70 b8bb f8e9 193c
00000080: ffda 1c3c 43ac 67bc 8532 a4bc 74b7 3a3c
00000090: e2e2 353c 6ae5 5dbb 72db 0ebb c200 27bb
000000a0: a3e9 efba bc63 0abc 9256 033d fc91 e2ba
000000b0: b8fd 36bc 0f7b 543d d25c 983c a0f5 aebc
000000c0: 7fbe aabc 6782 beb9 1c7a 8a3b ff67 aabc
000000d0: f77c 083c 33cd 7eba f89f 2ebc f3c3 5e3c
000000e0: 7b7f 933c 4bfc edbb 0cc2 c33b ca32 0f3d
000000f0: 7348 59ba 30fc 18bc 0a2d 61bc 7ca2 33bd
00000100: 0a22 0cbc c3ee 8abb 5719 233b 4c71 ec3c
00000110: 826e 8bbc 4651 91bb 88ec 643c 5944 2e3d
00000120: df3f 353c fdd0 b1bb 7041 d2bb e186 dcbb
00000130: 64f9 ad3c 2efc 5b3c 6d1a 92bc 7f37 84bc
00000140: 5f58 babc ab79 133d 8783 ca3c 0e1f 80bc
00000150: c83b 09bd 6289 60bb 88cc 87bc 8d89 0c3c
00000160: 565f 94bb 4d15 1dbd c183 dd3b f9bc 3fbc
00000170: 0f52 1abd cb54 6ebc 560f 843c 11bf 8c3b
00000180: a735 353d f186 ffbb 68f9 0cbd d32f 243b
00000190: 9e1e ca3b a993 0ebc 82d9 78bc fff3 c5bb
000001a0: b1ba 363c c026 963c a484 db3a 312a 1dbb
000001b0: 22dd b73c ade5 d7bc fa7f 91bb 302b 4d3b
000001c0: 7e56 f73c 23bd c43a 1956 a3bc 5a3f 88ba
000001d0: dbf8 a13c 2e54 ae3c c66b 813c c265 10bd
000001e0: d27c 02bd 69ce 523b 4749 303c 82d5 c13c
000001f0: 121c 67bc 46a9 633c aeb7 39bb 8f64 c33b
00000200: 1e60 76bb 028d 313c 49a6 95bc 3104 d3bc
00000210: 0450 95bc 705b 28bc c24b 5fbc 43d0 ce39
00000220: a17e 8a3c b937 16bc 08a9 bfbc 9c01 593c
00000230: 3f2b 4b3c 4f27 d13c 45c0 d23b 9913 15ba
00000240: 5bb3 46ba 612a 22bd 8c67 813b cc56 ca3b
00000250: cdf0 02bc d12a 25bb f449 12bc 3be4 8ebc
00000260: 644c 0139 3d35 f8bc 81a8 72b9 5538 863b
00000270: 28f1 dc3b d72c c43b 59a8 5d3c c24d 55bc
00000280: d91e 4d3c aa74 44bc fc47 8dba 13c5 f1bb
00000290: 0dc6 8cbb 1ee2 9cba 67d8 20bb cb2e a73c
000002a0: a83d 7f3c b221 9d3c d999 dc3c cf32 343b
000002b0: 4de5 d23b 02cb 61bc 8a31 8cba 916b 76bb
000002c0: b1e7 f83c d520 3cbc c6b5 2abc 83e4 41bc
000002d0: 4d56 c43b 54c1 59bc ac39 52bc cc19 4e3c
000002e0: 2283 95bc 1dc5 923a 8e45 413c bdcf 81b9
000002f0: c63f de3c 5bcc 39bb 7fdd 1dbb 0ee4 bc3c
00000300: 4f08 383d 0a3b ae3c f9cb 9abc 7260 3ebd
00000310: 2b25 db3c 9b81 063c ebbd ed3b 2e38 fdbc
00000320: d1b3 9db9 d944 5c3b 3300 a8ba d245 a93c
00000330: 143d 46bb d2bc 8c3a ae13 92bc 5e88 fcbb
00000340: 5d06 59bb 91d9 273a 141a fb3c 1c12 c2bb
00000350: 16f9 63b9 fc9c f8bb f8a2 ba3b 9bed 383b
00000360: 7e07 c7bc fc66 18bc 146c e0bc 912f 333b
00000370: 4b9a 44bc 2c10 47bc 3ddd a1bc 9aec 3cbc
00000380: 50f0 573b 64c8 b8bb 2d0d 063c faaf bf3b
00000390: ec3b d83c 4290 21bc 8070 c13c cff0 eb3b
000003a0: a3a9 25bd dbd9 163d c3f5 1038 8b5d 83bb
000003b0: ea29 9cbc d4cd 0cbd c01d 9abb a2e7 26bc
000003c0: 0cd1 323c 5df0 db3b 8607 80bc e38a 3bbb
000003d0: 89a1 a9bc 3817 c03b c9b4 cbbc b118 d8bb
000003e0: fc5c a73c 1f7d 02bc 5ca0 443d d6d7 28bc
000003f0: cf10 093c 93a7 a0bb 5a61 2e3b 3539 cb3b
-0.014058593 -0.020508954 0.004131429 0.014279796 0.029639352 0.021495014 0.0035403303 -0.004513467
-0.0047663446 -0.015310644 0.02135662 -0.0107558295 -0.021536672 -0.00097290205 -0.016062722 0.018899355
-0.016921496 0.017250568 -0.0066351956 0.022115735 0.009894296 -0.0021057588 -0.029740386 0.016518792
0.011458678 -0.0016783734 0.004600325 0.016481204 0.010405299 0.007909552 -0.005628644 0.009394161
0.009573697 -0.0141401915 -0.02004362 0.011396278 0.011101456 -0.0033858665 -0.002179828 -0.002548263
-0.0018303882 -0.00844663 0.03206498 -0.0017285938 -0.01116889 0.05187517 0.018598948 -0.021357358
-0.020842789 -0.0003633678 0.0042259824 -0.020801542 0.008330575 -0.0009719908 -0.010658257 0.013596523
0.018005123 -0.0072627417 0.00597406 0.034960546 -0.0008288689 -0.00933747 -0.013743648 -0.04385613
-0.008553037 -0.0042398884 0.002488693 0.028862618 -0.017020468 -0.0044347374 0.013972409 0.04254565
0.011062591 -0.0054265247 -0.006416492 -0.006729946 0.021237083 0.013426824 -0.017834866 -0.016139744
-0.022747217 0.036004703 0.02472092 -0.015639808 -0.033504277 -0.0034261574 -0.01657702 0.008577717
-0.0045279665 -0.038350392 0.006760091 -0.011702769 -0.037675913 -0.014546583 0.016120594 0.004295238
0.04424062 -0.0077980687 -0.03441754 0.002505292 0.0061682006 -0.008702197 -0.015188577 -0.0060410495
0.011152909 0.018329024 0.0016747904 -0.0023981447 0.022444312 -0.026354635 -0.004440305 0.003130626
0.03019261 0.001500998 -0.019938515 -0.0010394857 0.019771984 0.021280374 0.01579846 -0.035253294
-0.03185732 0.0032166487 0.010759658 0.023661379 -0.014105814 0.013895338 -0.0028338241 0.0059629153
-0.0037593911 0.010836842 -0.018267768 -0.025758835 -0.018226631 -0.010275707 -0.013628902 0.0003944655
0.016906084 -0.009168559 -0.02339603 0.013245013 0.012400447 0.02553144 0.0064316117 -0.0005686819
-0.00075798266 -0.039591197 0.0039491113 0.006174898 -0.007991982 -0.0025202523 -0.008928765 -0.017442813
0.00012330856 -0.030298823 -0.00023141691 0.004096071 0.0067426153 0.0059867906 0.013528907 -0.013019027
0.012519562 -0.0119907055 -0.0010778899 -0.0073782294 -0.0042960704 -0.0011969244 -0.0024543048 0.020408055
0.015578665 0.019181106 0.026928829 0.0027496105 0.006436026 -0.013781311 -0.0010695916 -0.0037600736
0.030383917 -0.011482437 -0.010419315 -0.011834267 0.005991733 -0.013290722 -0.012831133 0.012579393
-0.018251006 0.001119766 0.011796368 -0.00024759574 0.027130019 -0.0028350565 -0.002408832 0.023057964
0.0449298 0.021268386 -0.01889609 -0.046478696 0.026751122 0.008209611 0.007255306 -0.030910578
-0.00030079347 0.0033610372 -0.0012817442 0.020663176 -0.0030248808 0.0010737425 -0.01783165 -0.007706686
-0.0033115365 0.00064029644 0.030652083 -0.005922569 -0.00021741199 -0.0075870734 0.005695697 0.0028217796
-0.024295565 -0.009301897 -0.027395286 0.0027341584 -0.011999677 -0.012149852 -0.019758815 -0.01153102
0.0032949634 -0.005639123 0.008181852 0.0058498355 0.02639576 -0.009861054 0.023613214 0.0072003375
-0.04044498 0.036828857 3.456116e-05 -0.004008954 -0.019062955 -0.03437598 -0.0047032535 -0.0101870615
0.0109140985 0.006712003 -0.015628587 -0.0028616718 -0.020706909 0.005862143 -0.024866479 -0.0065947403
0.02043008 -0.0079644015 0.048004493 -0.010305366 0.008365824 -0.004902789 0.002660832 0.006201888

action_model._continuous_distribution.mu.bias f4 [3]
00000000: 8412 6b3c aba1 16bb 3298 cc3b
0.014347676 -0.0022984545 0.006243729

exp_avg f4 [128, 8]
00000000: 2667 8c37 1038 acb6 6164 3b35 508e 69b6
00000010: 2158 7d37 5110 5f36 98f1 5836 2875 63b9
00000020: 831e 84b9 3b59 a037 062d 2eb7 4275 5937
00000030: 6669 0439 b020 bab9 4857 90b7 4e9f 703b
00000040: 5f13 55b1 a9f1 9530 fbbc abaf f858 4b30
00000050: 72cf 8e31 7536 80b0 992c fbae e15a 2033
00000060: f6ae d739 caf1 b5b8 f55c 0338 ccbe 76b8
00000070: 8c95 edb9 b30f f238 cb92 0db8 071a a1bb
00000080: cf90 41b6 3c54 5935 f358 02b3 b85d 1335
00000090: 3b74 53b6 f59c 20b6 7a92 4cb4 4cea d937
000000a0: fcb4 5639 b82e 13b9 a3ba 2039 3d9a c7b8
000000b0: 92f6 acba 0fd8 15b9 5c19 65b9 7611 b5bb
000000c0: 25e8 0fba e0f1 3039 2772 b1b8 06f7 ef38
000000d0: 0f81 0b3a a337 6bb8 3abf d038 00ec f13b
000000e0: e233 37b9 e0eb 9838 fd36 a8b8 a762 4f38
000000f0: 82fc 993a 7e00 6639 3dc0 2d39 1f08 423b
00000100: 2517 632d f723 9fac f48e b42b c6d1 57ac
00000110: 3aaa a2ad 06cc 8a2c d36d 5a2b 4d78 a3b0
00000120: 59e2 c833 d9e3 9bb2 aad5 db31 4a69 53b2
00000130: 1429 54b2 b8d2 95b3 e52e d4b2 18c3 2cb5
00000140: ff8c 30ae 15da 1d2d b358 2eac 6712 d62c
00000150: 5ba4 fb2d 9d19 b42d 3940 ed2c e5b9 97af
00000160: d12f 1dba 3b2d 4039 f06b eab8 934f 0239
00000170: a435 733a 9721 8fb8 f530 0d39 2d20 123c
00000180: e7ed 8ab3 6518 3233 f3cd beb2 6b86 f132
00000190: 37de fb32 30ff 0bb4 e419 0cb2 6d55 be35
000001a0: 585d 182e 7393 97ad 5724 d82c 8f8f 4dad
000001b0: 80e1 ddad 52da 1a2e 26d6 3f2c 56d5 deb0
000001c0: bdb6 062a 6ffd 48a9 94e6 7128 7549 08a9
000001d0: 7ae3 2baa c187 6229 a827 e527 b77b 91ae
000001e0: 7315 edb9 4af9 b538 ff5b 48b8 f3c8 7638
000001f0: 3afd 453a e91a 31b9 5c84 a138 9ff1 b63b
00000200: 1c82 9836 4a93 ccb7 cb81 17b6 d4b7 8ab7
00000210: 2c96 f539 0a80 7bb7 c7bd 0938 3a33 45b9
00000220: 1c49 f7b8 4753 5038 6bdb 96b7 ca42 0d38
00000230: 2116 1fb9 0968 40b8 7b60 acb6 9b23 0f3b
00000240: 8fdb 6ab9 013c 0539 0417 fcb8 cfaf b438
00000250: 91bf 893a ba91 1d39 dbb4 2e39 a48a ab3b
00000260: d3ee feb8 e5d5 6538 f07f e1b7 b3d8 1b38
00000270: 014f 243a 6e46 35b9 7c63 58b8 7a68 0d3b
00000280: deb8 8db9 4084 7538 75d4 c5b7 c67a 2638
00000290: dd3d 9939 1782 87b8 0d5b f237 7e38 5a3b
000002a0: ef86 33ba 484e 6b39 6f60 30b9 448e 1f39
000002b0: 4247 be3a 5af5 31b9 c870 4139 76d7 3f3c
000002c0: a55c baa5 2b01 c724 6ed3 eea3 d1f0 8624
000002d0: 0c20 5c25 f07e cf24 0968 6024 6a31 80b0
000002e0: dbe4 f839 4330 22b9 adf5 0e39 fdf3 dbb8
000002f0: 904f 92ba d3df 7c39 25ab 1db9 8088 12bc
00000300: 1b34 0539 2084 91b8 b045 7a38 bc57 45b8
00000310: 28b1 fdb8 eb0f 4c39 5cc6 ceb6 c573 83bb
00000320: a3e9 8137 e023 b735 ec27 ecb6 905d 7835
00000330: d625 c4b7 89a0 34b7 0055 1637 93a2 063a
00000340: c7a5 c6b9 78f0 9938 a7ba cab7 07c4 5038
00000350: a90c 9138 a50a a9b9 370e 37b7 650c b13b
00000360: e231 bfb9 3234 3939 e773 21b9 5a2a fb38
00000370: 67d5 d73a f6b0 b239 949c 8839 70d0 ce3b
00000380: 8f06 5e39 71a3 bdb8 15b0 1c38 fa96 80b8
00000390: 5832 d8b8 a8f9 81b8 ab5d b5b7 c87e 52bb
000003a0: 1c6c c7b9 0b42 2739 18f7 1db9 f9d3 e238
000003b0: 1475 863a 5dc0 65b9 53b9 1039 07b9 0f3c
000003c0: 1ed2 133a a6b4 3cb9 2c45 2239 14ea ffb8
000003d0: dcaa b2ba 141d 6a39 58b6 36b9 bbd5 25bc
000003e0: 6e9c 29ba b8c0 9c39 de52 8db9 d494 5439
000003f0: 21aa f83a 6b6b 58b9 d9d4 8539 7892 7a3c
1.6737333e-05 -5.132526e-06 6.9809e-07 -3.4802542e-06 1.5100494e-05 3.3239087e-06 3.2327134e-06 -0.00021692051
-0.00025199735 1.9115038e-05 -1.0381691e-05 1.2961509e-05 0.00012627765 -0.0003550104 -1.7206781e-05 0.0036716047
-3.100659e-09 1.0909861e-09 -3.1238997e-10 7.39774e-10 4.1563277e-09 -9.328703e-10 -1.14220806e-10 3.7335557e-08
0.00041138352 -8.675789e-05 3.1319407e-05 -5.8828664e-05 -0.00045315584 0.000115423834 -3.375373e-05 -0.004916433
-2.884353e-06 8.0961377e-07 -3.0348883e-08 5.4898146e-07 -3.1509105e-06 -2.393322e-06 -1.9052268e-07 2.5977519e-05
0.00020476052 -0.00014036417 0.00015328317 -9.5177886e-05 -0.0013196042 -0.00014290235 -0.00021848589 -0.005525763
-0.00054896093 0.00016874773 -8.46128e-05 0.0001144242 0.00053216604 -5.6080182e-05 9.9538316e-05 0.0073828697
-0.00017471568 7.29186e-05 -8.0211066e-05 4.9444523e-05 0.0011748227 0.00021934693 0.0001657018 0.0029606891
1.2908595e-11 -4.5230447e-12 1.2829447e-12 -3.0669785e-12 -1.8492863e-11 3.944847e-12 7.760157e-13 -1.1894002e-09
9.354398e-08 -1.8147988e-08 6.3980297e-09 -1.2305756e-08 -1.2349364e-08 -6.976683e-08 -2.4701373e-08 -6.435889e-07
-4.0142997e-11 8.972841e-12 -2.4776125e-12 6.084289e-12 2.8608385e-11 2.0475005e-11 6.7430753e-12 -2.7598826e-10
-0.00059962 0.00018327397 -0.000111780944 0.0001242741 0.00092777074 -6.825028e-05 0.00013465046 0.008918804
-6.4694e-08 4.146604e-08 -2.2212566e-08 2.8117219e-08 2.9321297e-08 -1.303822e-07 -8.154959e-09 1.4180965e-06
3.4643705e-11 -1.7232193e-11 6.1431238e-12 -1.1684777e-11 -2.5224933e-11 3.5209453e-11 2.7261609e-12 -1.621326e-09
1.1964991e-13 -4.462874e-14 1.3428186e-14 -3.026178e-14 -1.5266773e-13 5.029983e-14 6.3603264e-15 -6.615813e-11
-0.00045220144 8.677186e-05 -4.7769394e-05 5.883812e-05 0.00075526873 -0.0001689006 7.701732e-05 0.0055830027
4.5450997e-06 -2.4387282e-05 -2.2576303e-06 -1.6536484e-05 0.00046841928 -1.4990577e-05 3.284009e-05 -0.00018806467
-0.000117914955 4.9668623e-05 -1.7983568e-05 3.367922e-05 -0.00015171665 -4.5873257e-05 -5.1372313e-06 0.002184129
-0.00022397771 0.00012706222 -0.000120205834 8.615816e-05 0.0010509362 0.00015026974 0.00016661307 0.005235033
-0.00012156148 5.479706e-05 -2.6881666e-05 3.7156697e-05 0.0006267876 -0.00017287742 -5.1591065e-05 0.0021577165
-0.00027031353 5.853572e-05 -2.3583163e-05 3.9691826e-05 0.00029228526 -6.461533e-05 2.8891047e-05 0.0033297832
-0.0006848415 0.00022440508 -0.00016820592 0.0001521642 0.0014517086 -0.00016971436 0.00018447929 0.011709085
-3.2328635e-16 8.630447e-17 -2.5893556e-17 5.8521195e-17 1.9092816e-16 8.998698e-17 4.866038e-17 -9.32727e-10
0.00047472757 -0.00015467503 0.00013633697 -0.0001048818 -0.0011162627 0.00024115974 -0.00015036443 -0.008943677
0.00012703279 -6.938749e-05 5.9669546e-05 -4.705017e-05 -0.00012096978 0.00019460886 -6.1623705e-06 -0.0040116035
1.5486794e-05 1.3645003e-06 -7.0379956e-06 9.252335e-07 -2.338264e-05 -1.0766214e-05 8.960487e-06 0.000513592
-0.00037889017 7.340399e-05 -2.4167193e-05 4.977363e-05 6.916497e-05 -0.00032242123 -1.091096e-05 0.005403089
-0.00036467524 0.00017662419 -0.00015397333 0.00011976501 0.0016466797 0.00034082652 0.000260566 0.006311469
0.00021174013 -9.0426656e-05 3.7357288e-05 -6.131637e-05 -0.0001030906 -6.1977014e-05 -2.1620499e-05 -0.0032119025
-0.00038036786 0.00015950964 -0.00015064736 0.00010816003 0.0010258281 -0.00021910803 0.00013801949 0.008772141
0.0005638915 -0.00017996374 0.00015475292 -0.00012202948 -0.0013631242 0.00022326811 -0.00017424801 -0.010121758
-0.0006470148 0.00029898225 -0.00026955357 0.00020273338 0.0018971601 -0.00020639382 0.0002552632 0.01529371

exp_avg_sq f4 [128, 8]
00000000: 0e76 1c32 1079 7a30 4a82 a42f 9754 e62f
00000010: 5afb f731 03b6 4030 f9d9 952e 21df 1e4e
00000020: 33f7 1b38 32f3 5136 63d4 ed35 f110 c135
00000030: 0579 8637 f906 b935 b43a ba34 994e 343c
00000040: 49ee a32f 4434 a22e 520b 652c e128 152e
00000050: e33e c02f 4ba5 b12e cdd4 8129 e128 154d
00000060: 1cc0 b737 8762 f135 cc81 8135 0ef9 5d35
00000070: 5574 1c37 32e2 4235 0dac 4d34 7146 d23b
00000080: e323 e031 9af0 b030 ca04 0c2f f0b5 2230
00000090: 40b1 ed31 7a5f b230 f5e3 c32d 1ba0 0e4f
000000a0: b7a5 5238 fcae 8f36 bf5f 2236 e820 0436
000000b0: 79de b237 eddb 1d36 5590 0835 12a3 783c
000000c0: 3ec3 c337 826c f835 923c 8535 1372 6435
000000d0: 1d4e 2937 2ac7 5d35 4a19 6734 4e4a d83b
000000e0: b318 4038 203b 8f36 4f43 2736 4cb6 0336
000000f0: d7a2 a637 9929 2336 655d 1635 28e0 763c
00000100: 5274 1d30 ec5c 1b2f d8a5 db2c 63de 8e2e
00000110: 379c 3630 0b23 282f eb26 fc29 63de 8e4d
00000120: ace2 f42d a726 e12c e733 b22a 460b 4f2c
00000130: 17a2 012e cf22 e32c 4aa5 c328 d8ed 4b4b
00000140: eec6 9a31 6c0c 9930 fd2c 582e 7fbd 0c30
00000150: 100c b531 0429 a730 bdc8 752b 7fbd 0c4f
00000160: f094 1c38 6de4 4236 bbcc c335 2138 b335
00000170: fab1 8037 042f a935 738a ab34 7044 2c3c
00000180: c929 df30 190e c72f 89c2 b52d 050c 372f
00000190: ebb2 f330 1a41 d62f f650 4c2c c35e 304e
000001a0: e754 a430 c649 a22f 615a 652d b13c 152f
000001b0: 1e3e bf30 4048 b02f 3a23 832a b13c 154e
000001c0: 3559 4b2c 4c39 482b 25aa 0d29 441f b82a
000001d0: a0d9 692c 2eb9 562b 672c 2426 441f b849
000001e0: b1f5 2638 baf4 6c36 bb57 1136 5be6 d935
000001f0: 76bb 9837 3ba7 d835 1b13 da34 4e38 493c
00000200: e61b cb36 a62b 2435 91bd d434 c7f7 9634
00000210: 0b9b 3136 de54 b634 c108 9433 4779 0b3b
00000220: 7bef 8535 1f4a d433 6794 aa33 9d37 4333
00000230: f079 8735 ec15 5a33 772f 6e32 7897 724f
00000240: a564 df37 cef8 2c36 2aae d135 bb0f 9f35
00000250: 1ab9 5837 db5f c835 a0e6 b634 48e7 133c
00000260: a285 f736 832c 0535 6ee3 9a34 a6ed 7434
00000270: d699 3836 9af1 8134 2049 8133 4e96 4a4f
00000280: 23b1 ee36 7dc4 2935 f251 cb34 781d 9c34
00000290: 93af 6336 1934 9534 f859 9833 dd36 0f3b
000002a0: a158 4e38 16b3 9236 dd26 2936 e9e6 0636
000002b0: 8837 a737 2cea 1536 f2a3 0b35 162a 7a3c
000002c0: 69e0 0630 7bda 052f bec4 bc2c 9f2d 762e
000002d0: c40d 2030 e675 142f 9623 d329 9f2d 764d
000002e0: c19d c137 b796 0836 324f ae35 7735 7b35
000002f0: f72a 1937 10b9 8835 a124 8034 c547 e53b
00000300: 875c 7037 4570 a735 3b66 3b35 14f9 1935
00000310: 3678 be36 0d0b 1c35 23fe 1b34 9281 8e3b
00000320: 2e9c 2437 9203 7a35 aa2c 3c35 69e8 e534
00000330: 1fe6 ad36 c2b1 fa34 ea46 f533 39b4 533b
00000340: 589e 7c37 c5d5 b235 5584 5435 0c74 2435
00000350: 2067 d536 cca0 2735 d0e4 2034 0c76 983b
00000360: d3a1 f838 553f 2537 866d ad36 53f5 9736
00000370: 2eb8 5238 4ff5 a636 dd67 9e35 14e4 113d
00000380: 2115 a236 0cbf 0135 9b3b 9834 f09f 6e34
00000390: cef8 1536 04c5 8b34 b3cb 8533 a732 db3a
000003a0: 75e3 f937 eb60 3836 e31b d935 f98c a935
000003b0: 440c 4837 d9c4 c935 37f6 b434 8c63 1b3c
000003c0: d154 f037 5d2a 2b36 b1fa da35 8866 9d35
000003d0: 580a 3437 ad33 b335 fce8 a234 c08b 103c
000003e0: 8c05 8838 e62d c536 bf17 6a36 7652 3536
000003f0: 7a3a e937 6df9 5636 aab0 4235 05fe a83c
9.107238e-09 9.112151e-10 2.9924002e-10 4.189686e-10 7.2172215e-09 7.010785e-10 6.814455e-11 6.663558e+08
3.7185102e-05 3.1284985e-06 1.7719689e-06 1.4384551e-06 1.6030399e-05 1.3785603e-06 3.4687912e-07 0.011005067
2.981884e-10 7.376191e-11 3.2549141e-12 3.3914985e-11 3.496928e-10 8.07839e-11 5.765666e-14 1.5640526e+08
2.1904758e-05 1.7984574e-06 9.649025e-07 8.269134e-07 9.32541e-06 7.259979e-07 1.9154704e-07 0.0064170887
6.523338e-09 1.2874068e-09 1.2734627e-10 5.9193805e-10 6.917759e-09 1.2978341e-09 2.2270167e-11 2.3928573e+09
5.0222236e-05 4.282103e-06 2.4195613e-06 1.9688687e-06 2.132285e-05 2.3522837e-06 5.087398e-07 0.015175598
2.3336728e-05 1.850902e-06 9.9269e-07 8.510262e-07 1.0091372e-05 8.261874e-07 2.1522752e-07 0.0066006547
4.579937e-05 4.268615e-06 2.4924118e-06 1.9626632e-06 1.986457e-05 2.4313106e-06 5.601526e-07 0.015068091
5.728157e-10 1.413018e-10 6.2427667e-12 6.496916e-11 6.643321e-10 1.5291961e-10 1.1197799e-13 2.9961738e+08
2.7840251e-11 6.399176e-12 3.1655166e-13 2.9422727e-12 2.947517e-11 6.4555926e-12 2.1721032e-14 1.3364696e+07
4.5046056e-09 1.1135746e-09 4.915267e-11 5.1200993e-10 5.2691647e-09 1.2162507e-09 8.7320065e-13 2.361229e+09
3.7332007e-05 2.9041214e-06 1.4588217e-06 1.3352875e-06 1.5341666e-05 1.2605165e-06 3.1951967e-07 0.010514364
1.6237262e-09 3.6207906e-10 2.0663709e-11 1.6648023e-10 1.7731429e-09 3.897263e-10 2.9035086e-12 7.397501e+08
1.1956701e-09 2.9520048e-10 1.3037211e-11 1.3573033e-10 1.3914734e-09 3.206555e-10 2.3294718e-13 6.2594566e+08
2.8897555e-12 7.113379e-13 3.1455866e-14 3.270666e-13 3.3232098e-12 7.628506e-13 5.6959106e-16 1.5083285e+06
3.9806302e-05 3.530919e-06 2.165775e-06 1.6234802e-06 1.8207105e-05 1.6141925e-06 4.0619565e-07 0.0122814905
6.0531193e-06 6.115828e-07 3.9626005e-07 2.811996e-07 2.6465302e-06 3.396189e-07 6.8933794e-08 0.0021282004
9.97897e-07 9.885502e-08 7.943236e-08 4.5452555e-08 1.0093772e-06 5.0777018e-08 1.38642156e-08 4.070013e+09
2.6630538e-05 2.577482e-06 1.5622402e-06 1.1851001e-06 1.2917701e-05 1.4929059e-06 3.4067943e-07 0.00902731
7.3767305e-06 4.9611134e-07 2.8850212e-07 2.2810727e-07 2.750768e-06 2.420391e-07 6.020332e-08 3.398848e+09
7.113574e-06 6.3243334e-07 3.787132e-07 2.9078706e-07 3.3927834e-06 2.779132e-07 7.094417e-08 0.002185277
4.919677e-05 4.3719874e-06 2.5205584e-06 2.0101963e-06 1.993381e-05 2.2339036e-06 5.2020107e-07 0.015268823
4.906782e-10 1.21739e-10 5.365124e-12 5.5974444e-11 5.8227223e-10 1.3502408e-10 9.3764555e-14 2.5813656e+08
2.3080853e-05 2.0353307e-06 1.2987059e-06 9.358259e-07 9.129514e-06 1.018665e-06 2.386851e-07 0.006997081
1.4326658e-05 1.2475144e-06 6.9811693e-07 5.73594e-07 5.6764356e-06 5.813061e-07 1.4527954e-07 0.004348942
9.811525e-06 9.3137453e-07 7.010045e-07 4.2823675e-07 5.1825914e-06 4.6695465e-07 1.1421601e-07 0.0032303466
1.5057238e-05 1.3324249e-06 7.916872e-07 6.126363e-07 6.3599e-06 6.244634e-07 1.4984403e-07 0.004652744
0.000118557036 9.849512e-06 5.168552e-06 4.52871e-06 5.0239432e-05 4.975743e-06 1.1802146e-06 0.035617903
4.830436e-06 4.8334255e-07 2.8355575e-07 2.2223662e-07 2.2347554e-06 2.6034115e-07 6.230348e-08 0.001672347
2.9789031e-05 2.747455e-06 1.6175876e-06 1.263251e-06 1.1923785e-05 1.5032957e-06 3.3706758e-07 0.009484183
2.8649725e-05 2.5505644e-06 1.6315227e-06 1.1727252e-06 1.0731244e-05 1.3351579e-06 3.034437e-07 0.0088223815
6.4860185e-05 5.876401e-06 3.488254e-06 2.70191e-06 2.7802995e-05 3.203367e-06 7.252771e-07 0.020628938

exp_avg f4 [128]
00000000: 4e8e 69b6 6275 5937 f958 4b30 c8be 76b8
00000010: b75d 1335 3f9a c7b8 02f7 ef38 a362 4f38
00000020: c6d1 57ac 4869 53b2 6812 d62c 924f 0239
00000030: 7686 f132 8e8f 4dad 7549 08a9 f1c8 7638
00000040: dcb7 8ab7 c942 0d38 cbaf b438 b6d8 1b38
00000050: c47a 2638 458e 1f39 d1f0 8624 fdf3 dbb8
00000060: be57 45b8 845e 7835 07c4 5038 542a fb38
00000070: fb96 80b8 f8d3 e238 13ea ffb8 d394 5439
00000080: 934e 83b8 4a09 5ab5 2cac 0a39 ba0d ab2b
00000090: 17f6 a620 9fd5 69b8 a233 ff9d 33cc 4c39
000000a0: 2e17 feb8 f595 0aaa ab5a 4c30 4ca0 e4b7
000000b0: 726f 8f39 17a7 6236 7093 baad c7dc 7e33
000000c0: e6f4 e031 7622 03b8 7a36 0e39 6bc2 5437
000000d0: ee2c ad37 c788 fb38 5454 c632 6ce7 2d37
000000e0: b48d 29aa b774 9039 31e3 5fb8 7991 c737
000000f0: e395 a5a4 b482 9637 0f7a 2334 7540 98b3
00000100: 0726 1d38 cf4c 88af 6586 2439 835d c9b8
00000110: f21c c135 dcdc 1531 5db0 2639 41c5 6223
00000120: 2523 9f39 ea64 9638 6455 c426 2208 14a0
00000130: 1e55 5936 ac3a ed38 8a44 b135 6ed8 36b9
00000140: c2b9 c2b2 da4f 5c38 d1fb 459f 9a21 3f2d
00000150: a416 dd35 c8c5 9e38 13c7 eeb8 a9ab 9437
00000160: 37b3 1faf 9734 012c b45e e1ab abb3 0eb8
00000170: bc3d e2b2 4336 ea37 b30e 8da5 af3b 2038
00000180: c673 2a38 72de 12b4 ba99 8f37 e531 1039
00000190: 1506 9c30 461b 8838 b465 57b8 272c afb7
000001a0: e137 bbb7 6d93 8538 862f 132b 84f0 b236
000001b0: e996 c7b8 aef9 fe31 41af 20b8 bc65 33b7
000001c0: eea6 c637 7a2d b1b6 0692 9138 5e46 0339
000001d0: 390b 0037 c2c1 d037 a71a 10b4 ade4 beb7
000001e0: b4ec fdb2 2987 0039 9b68 3fab 2ea9 1d20
000001f0: 2650 b2b3 c40e a536 d979 2338 a731 8b39
-3.4802538e-06 1.2961538e-05 7.397741e-10 -5.882865e-05 5.489814e-07 -9.51779e-05 0.00011442417 4.944451e-05
-3.0669785e-12 -1.2305755e-08 6.0842893e-12 0.00012427408 2.8117238e-08 -1.1684776e-11 -3.026178e-14 5.883811e-05
-1.6536498e-05 3.3679218e-05 8.615813e-05 3.7156708e-05 3.969182e-05 0.00015216421 5.8521195e-17 -0.0001048818
-4.7050176e-05 9.252474e-07 4.977363e-05 0.00011976497 -6.131638e-05 0.00010816002 -0.00012202947 0.00020273337
-6.261202e-05 -8.1224846e-07 0.00013224845 1.2154091e-12 2.8284342e-19 -5.575048e-05 -6.7551325e-21 0.00019531026
-0.000121159814 -1.2308889e-13 7.4343615e-10 -2.7254362e-05 0.0002735812 3.3773883e-06 -2.1211227e-11 5.933978e-08
6.5470998e-09 -3.1264928e-05 0.0001356247 1.2681451e-05 2.064413e-05 0.000119940894 2.3088582e-08 1.0365486e-05
-1.5059378e-13 0.0002755278 -5.337893e-05 2.379039e-05 -7.181126e-17 1.7942257e-05 1.5224963e-07 -7.089776e-08
3.7467133e-05 -2.4792832e-10 0.00015690325 -9.601845e-05 1.4388045e-06 2.1807898e-09 0.00015896694 1.2293255e-17
0.00030353028 7.171354e-05 1.3623377e-15 -1.2538779e-19 3.2385065e-06 0.00011311969 1.3207475e-06 -0.00017437499
-2.2669045e-08 5.2526455e-05 -4.192467e-20 1.0864554e-11 1.6472372e-06 7.570867e-05 -0.00011385805 1.772291e-05
-1.4524636e-10 1.8361196e-12 -1.6013497e-12 -3.4022767e-05 -2.6337936e-08 2.7920241e-05 -2.4469562e-16 3.8202557e-05
4.063898e-05 -1.3678235e-07 1.7118513e-05 0.00013751497 1.1352222e-09 6.4900654e-05 -5.1354713e-05 -2.0882186e-05
-2.2318158e-05 6.3693944e-05 5.2290843e-13 5.332813e-06 -9.517169e-05 7.4207582e-09 -3.831019e-05 -1.0692918e-05
2.3681172e-05 -5.2803052e-06 6.941338e-05 0.00012519347 7.6320075e-06 2.4885758e-05 -1.3420741e-07 -2.275625e-05
-2.9560717e-08 0.00012257382 -6.8002e-13 1.3354394e-19 -8.30335e-08 4.919102e-06 3.8975708e-05 0.0002654914

exp_avg_sq f4 [128]
00000000: 9754 e62f f210 c135 e128 152e 10f9 5d35
00000010: f2b5 2230 e720 0436 1372 6435 4cb6 0336
00000020: 63de 8e2e 460b 4f2c 7cbd 0c30 2138 b335
00000030: 040c 372f b13c 152f 421f b82a 5be6 d935
00000040: c7f7 9634 9e37 4333 bb0f 9f35 a4ed 7434
00000050: 781d 9c34 e9e6 0636 9f2d 762e 7735 7b35
00000060: 16f9 1935 6ae8 e534 0d74 2435 53f5 9736
00000070: f09f 6e34 f98c a935 8666 9d35 7652 3536
00000080: 1622 3735 9ad5 9a2f 9cbd 3836 f04b b62f
00000090: 42d4 332d 902a 8435 061e a12b 5be4 4436
000000a0: c0aa c735 565c 782e 65ea f22f ef8e ee35
000000b0: 248e 2e36 c390 8f2f 2e17 e12e f721 d72f
000000c0: 35c8 3f2f 9b8e d935 c654 ee35 dbe6 3834
000000d0: 86c7 1634 d46d 0136 48ff 0931 6c22 5835
000000e0: a198 7330 3a60 d635 56f8 3235 5757 fd31
000000f0: e2d3 1229 067f 4434 0409 3e2d 3fad b02b
00000100: f8d3 e535 18d2 c82d ad35 8335 d2ff 0e34
00000110: fd5a 8530 6049 332e 537f fe35 7fef 3b2e
00000120: b804 a336 12f4 4935 4084 562b 8505 1530
00000130: 9db5 dc31 4471 4e35 13a8 2f2f 8ac5 8435
00000140: 05e6 aa2f 5a6d f133 5988 502f 7db7 b62f
00000150: 25f9 6e34 955a 8235 ecec 7535 fcab c433
00000160: d63c 012d 89f4 992e 8a4e a52d f64b 5d34
00000170: 4f79 b22f 1cea 0133 5f48 ff2b 3dd3 4035
00000180: 35e3 5334 a5e6 da2e 151b 3e32 4ba7 b135
00000190: 9954 272c 0392 b834 39fd 2f35 0082 a134
000001a0: aa97 d935 8a9a 5135 9485 3f2f 8cc0 2932
000001b0: 1a8e d135 6a49 202f 6fa1 3935 5d0d 2833
000001c0: 384b 1235 de00 b832 ce9c c635 1a27 ea35
000001d0: 8dae 5230 ea4c f431 406f 392e e43a 0a34
000001e0: 50de a72e d482 4a35 17ea 212f 7983 452e
000001f0: 3465 852d 07c9 be36 1619 4a34 886b a036
4.189686e-10 1.4384552e-06 3.3914985e-11 8.269135e-07 5.9193817e-10 1.9688684e-06 8.510262e-07 1.9626632e-06
6.496916e-11 2.9422727e-12 5.1200977e-10 1.3352875e-06 1.6648022e-10 1.3573033e-10 3.2706655e-13 1.6234802e-06
2.811996e-07 4.545256e-08 1.1851001e-06 2.2810724e-07 2.9078706e-07 2.0101963e-06 5.5974444e-11 9.358259e-07
5.735941e-07 4.2823677e-07 6.1263637e-07 4.52871e-06 2.2223662e-07 1.263251e-06 1.172725e-06 2.70191e-06
6.8222414e-07 2.816421e-10 2.7528504e-06 3.3159564e-10 1.0222103e-11 9.847154e-07 1.1448071e-12 2.9339196e-06
1.487635e-06 5.6470682e-11 4.418609e-10 1.7773981e-06 2.6010757e-06 2.6114408e-10 1.0235933e-10 3.9132406e-10
1.7442477e-10 1.6209264e-06 1.7757054e-06 1.722032e-07 1.4042425e-07 1.9286426e-06 2.0081234e-09 8.051636e-07
8.8619784e-10 1.5972248e-06 6.6671544e-07 7.3731985e-09 3.260229e-14 1.8300133e-07 1.08022515e-11 1.2553638e-12
1.7123521e-06 2.2830668e-11 9.775882e-07 1.3317847e-07 9.702884e-10 4.0765058e-11 1.8961531e-06 4.2731593e-11
4.858328e-06 7.5233504e-07 7.6211606e-13 5.421373e-10 6.4234897e-09 7.6905803e-07 1.5975869e-10 9.892258e-07
3.1086259e-10 1.1242328e-07 1.896593e-10 3.3235983e-10 2.2256116e-07 9.712118e-07 9.161438e-07 9.158245e-08
7.346309e-12 7.0010726e-11 1.8793207e-11 2.0609863e-07 3.2464206e-10 3.0248074e-08 1.8138927e-12 7.1832966e-07
1.9733564e-07 9.954463e-11 1.1065613e-08 1.3236216e-06 2.3779089e-12 3.4378908e-07 6.556107e-07 3.0083174e-07
1.62119e-06 7.808345e-07 1.7418805e-10 9.880875e-09 1.561307e-06 1.4577997e-10 6.915279e-07 3.9127702e-08
5.4498696e-07 2.1420814e-08 1.4797786e-06 1.7445739e-06 7.6645607e-10 7.1100787e-09 4.216294e-11 1.2873676e-07
7.6337714e-11 7.5441244e-07 1.472603e-10 4.4909385e-11 1.5165293e-11 5.685844e-06 1.8821842e-07 4.78089e-06
