VirtualAquarium/results/VirtualAquarium/VirtualAquarium/VirtualAquarium-597.onnx (onnx, 74005 bytes, 7 tensors)

action_model._continuous_distribution.log_sigma f4 [1, 3]
0.012049407 0.006209755 0.01448171
00000000: e06a 453c 337b cb3b b244 6d3c

action_model._continuous_distribution.mu.bias f4 [3]
-0.00021281178 0.0015959531 0.0012090927
00000000: 3a26 5fb9 4d2f d13a 6b7a 9e3a

action_model._continuous_distribution.mu.weight f4 [3, 128]
-0.0012644446 0.0044674277 -0.0041293334 -0.014781158 0.010681515 -0.010096566 -0.0059795086 -0.0026068795
-0.020393955 0.028576067 -0.0021997516 -0.02866863 0.010210227 0.0059229406 0.01772464 -0.004466916
-0.028910467 0.007899173 0.01044273 -0.027510796 -0.017072106 -0.01862284 -0.017662698 0.0064067254
-0.02058593 0.012145528 -0.03324667 0.018358603 -0.030242536 0.026302287 0.026253993 -0.011365719
0.014711339 -0.0070728343 -0.0067828293 0.0052124844 -0.0057543344 -0.011964494 -0.03771123 -0.0073836315
-0.0020917223 0.02630789 -0.017509567 -0.0056055943 0.0005601096 -0.021635346 -0.0073609683 -0.0050770673
-0.0058799004 -0.040092327 -0.0074854647 0.009182725 0.0031583821 -0.031473238 -0.0024662765 -0.007597366
-0.00077882054 0.009339735 0.0027453296 0.039941896 0.006761613 -0.032498326 0.01821054 0.00957553
-0.006930318 -0.0058296956 -0.010869306 -0.018733554 -0.00045995333 -0.037274916 -0.003290701 -0.019378884
0.015944645 0.0056573977 0.012752744 0.013760391 0.029390331 0.0042064963 -0.004123605 0.023253415
0.006384387 0.0076762736 -0.009652046 -0.011766666 -0.02509513 -0.007477088 -0.027930398 0.020388937
0.006852843 0.036187187 0.0012573277 0.005419719 0.015771842 0.02097881 -0.0044814195 -0.015414683
-0.008698528 -0.03653046 0.00769956 -0.03171119 -0.017637156 -0.003517433 -0.0063088187 0.023426069
-0.028638117 -0.019506762 -0.0013224288 -0.006796555 -0.0070001027 -0.003064862 0.012343448 -0.0022437111
-0.008794482 0.024458906 0.022987 0.00923987 -0.022892889 -0.014057949 0.013816797 -0.0014420669
0.0052093426 -0.006684116 0.03168568 -0.048192497 -0.022121632 0.0053921887 -0.018536955 0.009895102
-0.0060486877 -0.0022711866 0.018032894 0.009966577 -0.017250784 -0.03210232 0.009587042 -0.0026604305
0.004922149 -0.020980682 -0.016666902 -0.004242168 0.010921827 0.008091428 0.005599511 0.016936617
0.007077201 -0.02289113 -0.006501132 0.018332751 -0.018839817 0.004693104 0.0011412399 -0.008965653
-0.027513504 0.03282463 -0.013949132 -0.0028802 0.032297622 0.007510707 -0.0051928894 -0.0046512135
0.002563793 0.005622349 0.0014407674 -0.03004448 0.016992424 -0.0042152978 0.0063955877 -0.027303329
-0.015754297 0.009639282 0.015817719 -0.009740295 0.010323801 -0.012366778 0.0053398362 0.010104777
0.0049549066 -0.0012217984 -0.012553212 0.0046614762 -0.006580934 -0.0019638406 -0.012223641 -0.029448794
0.023569418 -0.0059060375 -0.0050300276 0.032854088 -0.012808453 0.003775529 -0.026655735 -0.019346107
-0.00017188313 -0.02004792 0.012023748 -0.021218449 0.014012557 0.046568133 -0.010816758 -0.01134923
0.005210546 0.027621375 -0.006929823 0.020095628 -0.022749024 0.015369089 0.01996369 -0.018827599
-0.04227974 -0.011302441 -0.03006277 -0.015759902 0.011828981 0.0030935307 -0.010674134 -0.030020729
-0.0056751706 -0.0069781523 0.013718988 0.020981234 -0.0057061543 0.0033426073 0.018006492 -0.01864389
0.019490276 -0.005222638 -0.02556377 0.01768059 0.014157678 0.012407253 -0.012388015 -0.0067811706
0.0061632427 -0.023543991 -0.006420687 0.019102218 -0.018433554 0.010663796 0.0050371923 -0.006635786
-0.030496472 0.044810075 -0.006273506 -0.022474162 0.048301216 0.0006569526 0.021493783 0.034624342
0.034100886 0.026169773 0.0027578943 0.013627074 -0.014619546 0.020279517 -0.03344535 -0.011579599
00000000: b8bb a5ba 8063 923b 5c4f 87bb ac2c 72bc
00000010: 8501 2f3c 116c 25bc c1ef c3bb 2ed8 2abb
00000020: 3911 a7bc 5b18 ea3c b529 10bb 7ada eabc
00000030: cc48 273c 3a15 c23b 4433 913c 355f 92bb
00000040: a5d5 ecbc 886b 013c fc17 2b3c 525e e1bc
00000050: cdda 8bbc ed8e 98bc 5db1 90bc 82ef d13b
00000060: d3a3 a8bc 09fe 463c a92d 08bd c864 963c
00000070: 32bf f7bc e577 d73c 9d12 d73c 4837 3abc
00000080: d407 713c 3cc3 e7bb 7f42 debb 7dcd aa3b
00000090: db8e bcbb ba06 44bc 1777 1abd 64f2 f1bb
000000a0: 4715 09bb a583 d73c 3970 8fbc 22af b7bb
000000b0: 52d4 123a 9c3c b1bc 4734 f1bb 875d a6bb
000000c0: 2eac c0bb da37 24bd a148 f5bb 2473 163c
000000d0: dcfc 4e3b 15ea 00bd 41a1 21bb 53f3 f8bb
000000e0: c329 4cba b005 193c fdea 333b 1d9a 233d
000000f0: 8590 dd3b f71c 05bd 452e 953c afe2 1c3c
00000100: b917 e3bb 0807 bfbb 2c15 32bc 1c77 99bc
00000110: e425 f1b9 95ad 18bd cda8 57bb 77c0 9ebc
00000120: 589e 823c b161 b93b e3f0 503c 4373 613c
00000130: fec3 f03c a6d6 893b 4e1f 87bb f27d be3c
00000140: 1f34 d13b 4089 fb3b 9d23 1ebc f9c8 40bc
00000150: 4d94 cdbc 5c02 f5bb 4ace e4bc b306 a73c
00000160: d08d e03b 0439 143d ebcc a43a e697 b13b
00000170: f333 813c c1db ab3c dfd8 92bb de8d 7cbc
00000180: 4584 0ebc f7a0 15bd 974c fc3b 98e3 01bd
00000190: cc7b 90bc bc84 66bb 35ba cebb 07e8 bf3c
000001a0: 7c9a eabc a5cc 9fbc 5955 adba a3b5 debb
000001b0: 1e61 e5bb dadb 48bb 2c3c 4a3c 3a0b 13bb
000001c0: bb16 10bc 0b5e c83c 3c4f bc3c d362 173c
000001d0: de89 bbbc 5053 66bc d95f 623c bc03 bdba
000001e0: 22b3 aa3b 6e06 dbbb d8c8 013d 7f65 45bd
000001f0: 6d38 b5bc f5b0 b03b d0da 97bc 111f 223c
00000200: 1234 c6bb 30d8 14bb b8b9 933c db4a 233c
00000210: 8451 8dbc b97d 03bd f812 1d3c 9e5a 2ebb
00000220: fa49 a13b aedf abbc 0789 88bc e201 8bbb
00000230: 76f1 323c e991 043c 1a7c b73b a9be 8a3c
00000240: dde7 e73b 2e86 bbbc 7307 d5bb 912e 963c
00000250: f655 9abc 9cc8 993b a895 953a ade4 12bc
00000260: 0064 e1bc 1f73 063d e68a 64bc bdc1 3cbb
00000270: 834a 043d 601c f63b 1d29 aabb 3569 98bb
00000280: 4f05 283b af3b b83b 22d8 bc3a d71f f6bc
00000290: b233 8b3c 7b20 8abb 1492 d13b 3bab dfbc
000002a0: 280f 81bc 14ee 1d3c 2994 813c c295 1fbc
000002b0: 2925 293c 079e 4abc cbf9 ae3b 828e 253c
000002c0: c55c a23b c024 a0ba fdab 4dbc 4cbf 983b
000002d0: e0a4 d7bb c7b3 00bb ab45 48bc 993e f1bc
000002e0: a714 c13c 6f87 c1bb eed2 a4bb 0292 063d
000002f0: 8cda 51bc de6e 773b 215d dabc ba7b 9ebc
00000300: 873b 34b9 893b a4bc 41ff 443c 50d2 adbc
00000310: ed94 653c 3abe 3e3d c538 31bc 1ff2 39bc
00000320: 3abd aa3b 3946 e23c 9213 e3bb 969f a43c
00000330: 295c babc a2ce 7b3c e48a a33c 563c 9abc
00000340: 852d 2dbd e02d 39bc 3346 f6bc e91a 81bc
00000350: 58ce 413c d5bc 4a3b 90e2 2ebc 08ee f5bc
00000360: c8f6 b9bb fca8 e4bb 9bc5 603c d6e0 ab3c
00000370: b1fa babb a50f 5b3b 5a82 933c 12bb 98bc
00000380: 12aa 9f3c aa22 abbb 1d6b d1bc e2d6 903c
00000390: 9bf5 673c ca47 4b3c 1af7 4abc 9534 debb
000003a0: 07f5 c93b 54df c0bc a064 d2bb 417c 9c3c
000003b0: f701 97bc 34b7 2e3c 080f a53b 0271 d9bb
000003c0: bdd3 f9bc c58a 373d fc91 cdbb bc1b b8bc
000003d0: 7fd7 453d 5837 2c3a bb13 b03c 41d2 0d3d
000003e0: 5fad 0b3d fe61 d63c cabd 343b 1744 5f3c
000003f0: d286 6fbc 3b21 a63c fefd 08bd 5cb8 3dbc

network_body._body_endoder.seq_layers.0.bias f4 [128]
0.0006136394 0.0014887983 0.0016797101 -0.0007412222 -0.002128789 0.0012137752 0.000872613 2.7027965e-05
0.0021438438 -0.0031179576 0.0045229886 0.00054123736 -0.0019749878 0.0049490444 0.0009542686 -0.0032491658
0.0019534894 -0.0018927533 0.0021754564 -0.0027028148 -0.00049862266 -0.003912792 -0.00024013389 -0.0012025683
0.00021637138 -0.0047845244 -0.0006034686 0.00039255474 -0.0017903515 -0.0019914026 -0.0020809565 0.0011722797
-0.0044892854 0.000758909 0.0014386793 -0.0012583104 -0.0024224408 0.001972702 0.0003536819 0.0015229488
-0.0017699432 -0.0010776849 -0.0012458403 0.0014781454 0.0021046174 -0.0019332167 -0.0017945719 -0.0033875052
0.00076470897 -0.0009486409 0.0001703462 0.0022235997 0.0014532971 -0.00038511216 -0.0037996238 -0.0022029208
0.0020593635 -0.0021376158 -0.00057070574 5.9685876e-06 -0.0012842504 -0.0016106679 0.0018195971 0.0008327513
-0.0024253998 0.0021697865 -0.0037897404 0.00075492077 0.0022524495 -0.0024904525 0.0020471488 -0.0018203786
0.0031653089 -0.002096299 0.00021185551 -0.002674707 0.0016723376 0.0005067435 0.003898603 -0.00024690744
-0.00072324864 -0.0013729649 -0.0019661828 -0.0014834277 -0.0025375714 0.0024676556 -0.0004661828 0.001316175
-0.002049141 -0.0002839878 0.0018236643 0.002029721 0.0011056969 -0.0017649502 -0.0039921724 -0.0038257316
-0.0024756042 -0.0018435047 -0.0020474829 0.0059986366 -0.002429365 0.0017360735 -0.0006085307 -0.0026997006
0.0016555347 0.0006613723 -0.0042885034 -0.0006853563 -0.0020273319 -0.0021625315 0.00038672154 0.0017845359
-0.0008838103 -0.0019210892 0.0022399838 0.0018567475 -0.0020744924 -0.0027714458 -0.00054652133 -1.090852e-05
0.0020307805 0.0010312372 0.0005648663 0.00028969845 0.0010245524 0.0010781718 -0.0017584699 -0.001558997
00000000: a5dc 203a c823 c33a b829 dc3a 944e 42ba
00000010: 2783 0bbb 8a17 9f3a 11c0 643a 1dba e237
00000020: bb7f 0c3b a656 4cbb 9435 943b d3e1 0d3a
00000030: cc6e 01bb 982b a23b e227 7a3a f5ef 54bb
00000040: 1d06 003b 4316 f8ba 1a92 0e3b b521 31bb
00000050: 00b6 02ba e136 80bb 73cc 7bb9 7f9f 9dba
00000060: c0e1 6239 80c7 9cbb 1832 1eba cecf cd39
00000070: 3aaa eaba 3182 02bb a860 08bb 2ea7 993a
00000080: db1a 93bb 85f1 463a 1192 bc3a e4ed a4ba
00000090: d0c1 1ebb 7348 013b 626e b939 af9d c73a
000000a0: 70fd e7ba 1b41 8dba 774b a3ba 54be c13a
000000b0: 9fed 093b fd63 fdba d737 ebba e800 5ebb
000000c0: c076 483a 37ae 78ba f69e 3239 d0b9 113b
000000d0: 8f7c be3a e1e8 c9b9 1c03 79bb e15e 10bb
000000e0: 63f6 063b 3e17 0cbb 6a9b 15ba c745 c836
000000f0: 4b54 a8ba 0c1d d3ba 8c7f ee3a fe4c 5a3a
00000100: 75f3 1ebb fa32 0e3b 4b5d 78bb e0e5 453a
00000110: d59d 133b dc36 23bb 7529 063b c599 eeba
00000120: 1271 4f3b 1062 09bb 8825 5e39 234a 2fbb
00000130: 5732 db3a fbd6 043a b47f 7f3b 5b73 81b9
00000140: 6598 3dba 0ff5 b3ba 13db 00bb 936f c2ba
00000150: 624d 26bb 64b8 213b ff69 f4b9 8183 ac3a
00000160: e24a 06bb 33e4 94b9 0508 ef3a 1105 053b
00000170: 08ed 903a e755 e7ba c5d0 82bb 20b9 7abb
00000180: bf3d 22bb c1a1 f1ba 102f 06bb 3690 c43b
00000190: fb35 1fbb f68c e33a ce85 1fba 76ed 30bb
000001a0: 87fe d83a f25f 2d3a 9386 8cbb 7ca9 33ba
000001b0: fcdc 04bb 42b9 0dbb e3c0 ca39 17e7 e93a
000001c0: 81af 67ba 0fcd fbba b1cc 123b 1c5e f33a
000001d0: 35f4 07bb 25a1 35bb 6d44 0fba bd03 37b7
000001e0: d816 053b 942a 873a 8913 143a abe2 9739
000001f0: 464a 863a 7151 8d3a 757c e6ba 4257 ccba

network_body._body_endoder.seq_layers.0.weight f4 [128, 8]
-0.15619962 -0.08138018 -0.23464139 -0.37719142 -0.09418538 -0.637427 -0.713605 0.20965926
0.07997532 0.5613458 0.0066629085 0.63927513 0.21264197 -0.1762471 0.11896715 -0.2135303
0.02580278 -0.3502494 -0.14520854 0.03904895 -0.34098756 -0.14330825 0.112626 0.35007772
0.005705462 0.42209533 0.16210584 0.57195413 0.123664744 0.29116604 -0.15990989 0.015797745
-0.35298738 -0.37965026 0.35463938 0.40859374 -0.22582275 0.0094452305 0.24027057 -0.0114429165
0.88595396 -0.021930503 -0.08627646 0.6908832 -0.05347466 -0.32189006 -0.17316167 0.36536264
-0.37567848 0.21075796 -0.5916523 -0.19526853 -0.034832552 0.098408796 -0.095954284 -0.4725589
0.48623976 0.43949935 0.7390615 0.12066213 0.037655234 0.33117992 -0.3669775 0.052981652
0.19364981 -0.034237888 -0.39074102 0.15176374 -0.16953634 -0.18998554 -0.2855292 -0.27619535
0.3028147 0.66748166 0.64142853 0.12812926 -0.14162366 -0.31591743 0.21005103 0.43353876
-0.27175793 -0.10160022 -0.8516985 -0.33052653 0.46611074 0.0076009682 -0.0643638 -0.22916634
0.16216654 0.2264174 -0.051733833 -0.40206754 -0.72700053 0.14243947 0.14623822 0.3373341
0.48699874 -0.18024775 -0.18079704 -0.4348193 -0.2112718 -0.039733358 -0.18809505 0.31911078
-0.10149631 0.43476042 -0.5611169 -0.32122892 -0.24314082 0.16458702 0.03807049 -0.1061605
0.09088453 -0.32354325 -0.24823278 -0.099573776 0.21997602 -0.47741246 0.22504078 0.23197515
0.038529944 -0.01755483 0.1921341 -0.011279964 0.017408544 0.45460483 0.97058994 0.103785366
0.34232143 -0.50053453 0.05456223 -0.040985923 -0.04280304 0.19839814 0.1736733 0.10964826
-0.46349525 -0.2671788 -0.35384867 -0.053264752 0.35328734 -0.71738493 0.2492985 -0.30386084
-0.010290857 0.44579265 -0.7336915 -0.5764407 -0.18269722 0.09041232 -0.2631861 0.0021365336
0.13826862 0.43003076 -0.32738444 0.47234532 0.21481374 0.30671337 0.5670877 0.31447414
0.5243862 0.40261745 -0.095583126 0.63905275 -0.14560279 -0.24102367 -0.24935086 -0.18265794
-0.32243416 0.7268355 0.09152025 -0.39914513 0.13312693 -0.8141966 0.2608572 0.13068745
0.08208465 -0.2724703 -0.2855742 -0.09912193 -0.16208643 -0.12552105 -0.48976925 0.36573493
0.27667707 -0.058013175 -0.5371931 -0.18444625 0.025132803 0.25267714 0.275993 0.05632921
-0.14765865 -0.36090457 0.15661506 0.10199716 -0.31687444 0.3600914 -0.26477665 -0.5737597
-0.54886794 0.4508364 -0.24338013 -0.6334927 0.02586993 -0.07614067 0.124638066 0.551419
-0.064248286 -0.13144857 0.00945281 -0.36312982 -0.2729195 -0.47213554 -0.090342835 0.5041175
0.5669215 -0.12120687 -0.40578103 -0.08526138 0.41954732 -0.4502202 -0.15205596 0.26735964
-0.10565676 -0.5175255 0.030611997 -0.1482729 0.1202648 0.22768138 0.04690566 0.07036421
0.45060018 -0.0077983653 -0.043003548 -0.16593702 0.12142094 -0.37560838 0.33613312 -0.29045135
-0.1631921 0.32330593 -0.20312823 -0.07643893 0.5388369 -0.1283946 0.031862207 0.6068542
-0.5834012 -0.43339965 0.19181985 0.76827836 -0.115692586 -1.4285853 -0.07903937 -0.12731835
00000000: cbf2 1fbe a7aa a6bd d545 70be 3c1f c1be
00000010: 44e4 c0bd 6a2e 23bf d1ae 36bf ebb0 563e
00000020: 1aca a33d 5cb4 0f3f 8754 da3b 89a7 233f
00000030: d1be 593e 1f7a 34be 0da5 f33d b0a7 5abe
00000040: 5a60 d33c e453 b3be 8cb1 14be cbf1 1f3d
00000050: ec95 aebe 66bf 12be 76a8 e63d 633d b33e
00000060: e2f4 ba3b e11c d83e 13ff 253e 966b 123f
00000070: f143 fd3d b713 953e 6bbf 23be 466a 813c
00000080: c3ba b4be 8561 c2be 4b93 b53e 3333 d13e
00000090: 143e 67be 2bc0 1a3c 7d09 763e 127b 3bbc
000000a0: e1cd 623f 99a7 b3bc b6b1 b0bd b9dd 303f
000000b0: 3f08 5bbd c6ce a4be 4b51 31be d010 bb3e
000000c0: ee58 c0be efd0 573e 8676 17bf 79f4 47be
000000d0: 94ac 0ebd 8d8a c93d ae83 c4bd 3df3 f1be
000000e0: 6bf4 f83e 0f06 e13e 2233 3d3f b51d f73d
000000f0: 603c 1a3d 6a90 a93e 7ae4 bbbe 4a03 593d
00000100: 234c 463e 073d 0cbd 350f c8be f467 1b3e
00000110: ef9a 2dbe 928b 42be e230 92be 7a69 8dbe
00000120: 870a 9b3e 14e0 2a3f a934 243f 5134 033e
00000130: cb05 11be eebf a1be 9e17 573e cbf8 dd3e
00000140: db23 8bbe c713 d0bd ea08 5abf c63a a9be
00000150: 11a6 ee3e 8b11 f93b 2bd1 83bd 95aa 6abe
00000160: fc0e 263e f7d9 673e dbe6 53bd ccdb cdbe
00000170: b51c 3abf a7db 113e 79bf 153e 0eb7 ac3e
00000180: e657 f93e de92 38be dc22 39be a3a0 debe
00000190: a257 58be 72bf 22bd fd9b 40be 7d62 a33e
000001a0: 4cdd cfbd eb98 de3e 5ba5 0fbf 1e78 a4be
000001b0: e8f9 78be 8089 283e cdef 1b3d ad6a d9bd
000001c0: ab21 ba3d 76a7 a5be bc30 7ebe 56ed cbbd
000001d0: 6541 613e 686f f4be 1771 663e e58a 6d3e
000001e0: 93d1 1d3d 26cf 8fbc cdbe 443e 99cf 38bc
000001f0: 5d9c 8e3c f7c1 e83e 9578 783f 6c8d d43d
00000200: c144 af3e 0823 00bf a57c 5f3d dbe0 27bd
00000210: 3e52 2fbd e228 4b3e 6ad7 313e 448f e03d
00000220: 404f edbe a9cb 88be a72b b5be 242c 5abd
00000230: 14e2 b43e 8aa6 37bf 1b48 7f3e a693 9bbe
00000240: fc9a 28bc ef3e e43e 35d3 3bbf 9e91 13bf
00000250: fb14 3bbe 182a b93d 54c0 86be 1605 0c3b
00000260: 4a96 0d3e fe2c dc3e ef9e a7be 3fd7 f13e
00000270: 22f8 5b3e 8909 9d3e a92c 113f c102 a13e
00000280: 2d3e 063f e023 ce3e 16c1 c3bd f698 233f
00000290: e618 15be e9ce 76be d555 7fbe af0a 3bbe
000002a0: 1716 a5be e411 3a3f f86e bb3d c05c ccbe
000002b0: 6d52 083e 306f 50bf 138f 853e eed2 053e
000002c0: ff1b a83d 3a81 8bbe c836 92be 7000 cbbd
000002d0: fcf9 25be 9788 00be 09c3 fabe 9c41 bb3e
000002e0: 9ea8 8d3e 399f 6dbd 7d85 09bf 7adf 3cbe
000002f0: 4fe3 cd3c e65e 813e f44e 8d3e 75b9 663d
00000300: d433 17be 7cc8 b8be b35f 203e e3e3 d03d
00000310: 5e3d a2be e65d b83e ce90 87be eae1 12bf
00000320: 9c82 0cbf 07d4 e63e a438 79be 942c 22bf
00000330: 2ded d33c a4ef 9bbd 3e42 ff3d cc29 0d3f
00000340: 9b94 83bd 749a 06be f5df 1a3c 27ec b9be
00000350: 1bbc 8bbe c0bb f1be aa05 b9bd d80d 013f
00000360: c421 113f 4f3b f8bd 88c2 cfbe 859d aebd
00000370: e8ce d63e 4383 e6be 8fb4 1bbe 5de3 883e
00000380: 9262 d8bd 8d7c 04bf 03c6 fa3c dad4 17be
00000390: 644d f63d 4f25 693e 2620 403d 1c1b 903d
000003a0: 11b5 e63e 6e89 ffbb 7d24 30bd 65eb 29be
000003b0: 8bab f83d be4f c0be a419 ac3e 0ab6 94be
000003c0: d41b 27be 5b88 a53e d900 50be 048c 9cbd
000003d0: 37f1 093f e079 03be f281 023d cc5a 1b3f
000003e0: c859 15bf 8fe6 ddbe 6c6c 443e e4ad 443f
000003f0: 3cf0 ecbd e2db b6bf 65df a1bd be5f 02be

network_body._body_endoder.seq_layers.2.bias f4 [128]
0.0001033569 0.00060275284 0.0011413753 -0.001368841 0.0017409098 0.0007244357 -0.002316411 3.8848464e-07
-0.0032830099 -0.0019331292 0.0017411278 -0.0026554742 9.9611185e-05 0.0010876539 -0.0002637731 0.0028968204
-0.0009144213 -0.001343707 -0.0032124557 0.0003414844 -0.0016302434 -0.0019563988 0.000114346505 -0.0030572533
-0.0020558066 9.526879e-05 -0.0017373732 -0.001939954 0.0020085531 -0.0026201324 -0.0013003886 -0.0013524072
0.0003766324 -0.00012503251 -0.002157957 -0.0016899353 -0.0022381549 -0.0014568802 7.9699574e-05 -0.0022510553
-0.0018663581 7.865644e-05 -0.00032554887 -3.7677044e-05 -0.001542022 -0.00044810827 0.00035828876 0.0020995701
-0.0011581152 0.00023702085 -0.003874472 -0.0031761748 -0.0036337338 0.00011321361 -0.0022147482 0.0012708947
-0.00037338294 0.0027526102 2.1072533e-06 -0.00026295346 -0.0028460422 -0.0022347707 -0.001903585 -0.00069453067
-0.0057723704 0.0006611059 -0.00020053769 -0.001487163 -1.3662487e-09 0.00074632594 -0.002921387 0.0015486705
0.00083084794 -0.0020642814 -0.0020340714 -0.0018628131 0.001831804 -0.0028617627 3.5509867e-05 0.0019153652
-0.00054399716 0.0028490813 -0.0021980894 -0.0034743338 0.0012064836 -0.0026473945 0.00019064997 -0.0012329522
-0.001759351 -0.0011312127 -0.00084096263 -0.0013611674 -0.00010064784 -0.0019114322 0.002608147 -0.0032606765
-0.0019836165 -9.371407e-05 0.0018552437 0.0013023147 -0.0028199612 5.9500482e-05 -0.0019266743 0.0013824854
0.0006850981 -0.001299723 0.00283642 -0.002510718 -0.0017948663 -0.00067292084 -0.0019330825 -0.0020954364
2.6968794e-10 -7.58703e-05 0.0011666811 0.0017863666 0.0030050229 -0.0025727195 0.0025237796 -0.0022456755
-0.002033602 -0.00036462976 -0.00010067982 -0.0026577143 -0.0010014533 -0.00027968234 -0.0015215734 -0.0019257842
00000000: 50c1 d838 0f02 1e3a 339a 953a af6a b3ba
00000010: 3d2f e43a 0fe8 3d3a edce 17bb ec90 d034
00000020: c427 57bb 0d61 fdba 8e36 e43a 7707 2ebb
00000030: 59e6 d038 9c8f 8e3a 074b 8ab9 95d8 3d3b
00000040: c6b5 6fba 531f b0ba 1088 52bb 4309 b339
00000050: e4ad d5ba ed36 00bb 50cd ef38 335c 48bb
00000060: b6ba 06bb 0bcb c738 92b8 e3ba 0e46 feba
00000070: eea1 033b 87b6 2bbb cd71 aaba 4143 b1ba
00000080: bf76 c539 291b 03b9 836c 0dbb d280 ddba
00000090: 02ae 12bb caf4 beba 6224 a738 7186 13bb
000000a0: 96a0 f4ba 5bf4 a438 6eae aab9 6b07 1eb8
000000b0: ac1d caba 13f0 eab9 b4d8 bb39 f198 093b
000000c0: e6cb 97ba cd88 7839 dbea 7dbb 5f27 50bb
000000d0: f023 6ebb 186d ed38 4f25 11bb 2694 a63a
000000e0: 9cc2 c3b9 2365 343b 566a 0d36 04dd 89b9
000000f0: aa84 3abb 3b75 12bb b781 f9ba 2a11 36ba
00000100: 2726 bdbb 114e 2d3a 6d47 52b9 e9ec c2ba
00000110: 9ac6 bbb0 16a5 433a be74 3fbb c2fc ca3a
00000120: 43cd 593a e548 07bb 0e4e 05bb a329 f4ba
00000130: 2519 f03a 698c 3bbb 6ef0 1438 fe0c fb3a
00000140: 089b 0eba a7b7 3a3b d20d 10bb a6b1 63bb
00000150: df22 9e3a e97f 2dbb 36e9 4739 039b a1ba
00000160: 069a e6ba 3345 94ba 0c74 5cba 3369 b2ba
00000170: e612 d3b8 0689 faba 72ed 2a3b 13b1 55bb
00000180: 90ff 01bb 5c88 c4b8 a62b f33a 6eb2 aa3a
00000190: 19cf 38bb 2890 7938 7688 fcba 8334 b53a
000001a0: 2898 333a 785b aaba 3be3 393b dc8a 24bb
000001b0: b841 ebba f466 30ba 7c5f fdba 9753 09bb
000001c0: 3443 942f 8f1c 9fb8 52eb 983a 8424 ea3a
000001d0: ebef 443b 129b 28bb ff65 253b 2f2c 13bb
000001e0: 2e46 05bb c72b bfb9 1124 d3b8 0c2d 2ebb
000001f0: 3243 83ba 54a2 92b9 886f c7ba 986a fcba

network_body._body_endoder.seq_layers.2.weight f4 [128, 128]
0.19526665 -0.020984827 -0.15986723 -0.09376045 0.16122514 0.10305978 -0.017940493 -0.13176537
0.050228227 0.2013618 -0.03905229 -0.03241198 -0.122968964 0.08975952 0.1324891 -0.034520056
0.012981362 0.010276822 -0.007547486 -0.010084334 -0.024742635 0.012181224 -0.0986687 -0.0016907146
-0.0510376 -0.011034795 0.092792 -0.030369097 -0.1378493 -0.084294215 0.016670767 -0.087793745
0.0952118 0.11419717 0.28180832 0.0034898827 0.09772319 0.0397229 0.028783496 -0.04434506
-0.15385917 -0.2116039 0.10863997 -0.03353138 0.21463491 0.13494623 -0.03772149 -0.11865175
0.08168901 -0.053290937 -0.045054913 0.03259196 -0.098087944 -0.032010842 0.18521476 0.10664168
-0.1506059 0.10406704 0.16706683 -0.09428388 0.090634614 0.046233762 -0.03988125 -0.10144942
0.13251664 0.11594704 -0.106855236 -0.10672009 0.09030193 0.05136868 0.033963364 0.045433704
0.054978304 -0.046341218 -0.10719158 -0.025264395 -0.053765535 0.015460242 -0.20086737 0.09951312
-0.10122619 0.0011076742 0.04716181 -0.016733637 -0.06225078 0.12955537 -0.006586042 0.036583755
0.029455531 -0.18288757 -0.061307613 0.044182856 0.11611418 -0.038628507 0.076730765 -0.030499486
-0.05661331 0.043359477 0.081610076 -0.070335485 0.08631559 -0.20921662 0.033993322 -0.040027227
0.0600936 -0.010309475 0.05423317 0.09717599 -0.058844704 -0.04547589 0.10458843 -0.064198226
-0.01973962 0.068579555 0.032009695 -0.044664886 -0.107961774 0.101469114 -0.037423998 0.00580435
-0.16091709 0.014019075 0.016298732 -0.030090414 0.19820382 -0.041047987 -0.07383191 -0.04676431
-0.12550367 -0.16042516 0.019007059 0.009380676 -0.054819796 0.03514051 -0.04519523 0.1646755
0.094136626 -0.022138106 -0.15301934 0.033952814 -0.009067151 -0.16893859 0.009833493 0.060765382
-0.044121668 0.14209437 0.123438366 0.13120076 -0.030649887 -0.010696066 -0.017043244 0.18356794
0.08802059 0.06746799 0.15822484 -0.18306501 0.08817115 -0.1318301 -0.028075969 -0.052713238
-0.019900719 -0.109246805 -0.0402244 0.043725494 -0.0851017 0.14066538 -0.076893665 -0.090672165
0.06094859 -0.03156724 -0.11157598 -0.12058683 0.056045976 -0.031243287 -0.10001862 -0.064360335
-0.031762395 0.00092826755 -0.033596616 -0.12918201 0.03501951 -0.079967484 0.05836247 -0.14739053
-0.04147835 -0.026590949 -0.047139537 0.05255029 0.012852216 0.21162526 0.021424657 0.11614527
0.068394735 0.1613108 0.038801633 0.12562774 0.05885922 -0.020426141 0.08618848 -0.11140412
0.060340773 -0.061986133 0.13575883 0.040071037 0.14823215 -0.094384156 0.11013994 0.004548322
-0.095533945 -0.19844201 0.05117136 0.11512558 -0.08337351 0.06839494 -0.049875803 0.009660672
-0.00863938 -0.02715663 -0.08607684 -0.03740106 0.06006515 -0.027562289 0.022808177 0.08856121
0.086423464 -0.04105378 0.13369024 0.028673148 -0.08414683 0.022158798 -0.071815796 -0.1247049
-0.09757662 -0.12292339 0.09577245 -0.10597875 0.04879471 0.079827085 -0.13153525 -0.023531206
0.09422593 -0.018019198 0.11120317 -0.055790678 -0.13235843 -0.110120855 0.015804011 -0.22357179
0.023417944 -0.00017850749 -0.056643795 -0.06530777 0.18890835 -0.10109933 0.08171878 0.029325452
00000000: fbf3 473e 5fe8 abbc 3cb4 23be 7b05 c0bd
00000010: 3418 253e 0211 d33d f1f7 92bc 80ed 06be
00000020: 1dbc 4d3d ca31 4e3e 4bf5 1fbd 6dc2 04bd
00000030: 27d7 fbbd d7d3 b73d 39ab 073e e764 0dbd
00000040: c7af 543c 1e60 283c e750 f7bb c338 25bc
00000050: 11b1 cabc c293 473c d112 cabd f89a ddba
00000060: cd0c 51bd 49cb 34bc bb09 be3d 9dc8 f8bc
00000070: 5e28 0dbe 72a2 acbd 2291 883c 35cd b3bd
00000080: 67fe c23d 35e0 e93d 2e49 903e 84b6 643b
00000090: 1923 c83d 7bb4 223d 5ecb eb3c 2aa3 35bd
000000a0: 428d 1dbe b1ae 58be a27e de3d 3358 09bd
000000b0: 41c9 5b3e 582f 0a3e d981 1abd b0ff f2bd
000000c0: 914c a73d 9947 5abd 808b 38bd 267f 053d
000000d0: 55e2 c8bd cd1d 03bd f0a8 3d3e f466 da3d
000000e0: 6f38 1abe 1a21 d53d 9113 2b3e e817 c1bd
000000f0: a49e b93d 9d5f 3d3d 865a 23bd b7c4 cfbd
00000100: 71b2 073e a475 ed3d ebd6 dabd 1090 dabd
00000110: 38f0 b83d f767 523d 2b1d 0b3d b118 3a3d
00000120: ee30 613d 4ad0 3dbd 4287 dbbd 47f7 cebc
00000130: 4039 5cbd f44c 7d3c 2db0 4dbe 89cd cb3d
00000140: ad4f cfbd 612f 913a be2c 413d fb14 89bc
00000150: adfa 7ebd 2aaa 043e bacf d7bb d9d8 153d
00000160: ba4c f13c e146 3bbe b11d 7bbd 15f9 343d
00000170: 45cd ed3d ed38 1ebd 0525 9d3d 0fda f9bc
00000180: 5ce3 67bd b599 313d 2f23 a73d 0d0c 90bd
00000190: 3ac6 b03d e23c 56be 953c 0b3d 97f3 23bd
000001a0: b524 763d 12e9 28bc 9a23 5e3d 3504 c73d
000001b0: 2507 71bd ed44 3abd 7532 d63d 5c7a 83bd
000001c0: fcb4 a1bc 7073 8c3d 991c 033d 87f2 36bd
000001d0: 101b ddbd 0acf cf3d e849 19bd 6b32 be3b
000001e0: 73c7 24be 43b0 653c eb84 853c 2c80 f6bc
000001f0: f1f5 4a3e ef21 28bd 2f35 97bd ef8b 3fbd
00000200: 0984 00be 7e46 24be b1b4 9b3c 68b1 193c
00000210: b98a 60bd 7fef 0f3d a21e 39bd b2a0 283e
00000220: b4ca c03d f95a b5bc 1ab1 1cbe 1b12 0b3d
00000230: 638e 14bc 3dfe 2cbe a91c 213c 1fe5 783d
00000240: ecb8 34bd 3081 113e 41cd fc3d 7e59 063e
00000250: 7915 fbbc 8d3e 2fbc 469e 8bbc 3cf9 3b3e
00000260: 2444 b43d a82c 8a3d b105 223e 6575 3bbe
00000270: 1393 b43d 78fe 06be 93ff e5bc d6e9 57bd
00000280: d506 a3bc cabc dfbd 57c2 24bd 8119 333d
00000290: cd49 aebd 960a 103e 6d7a 9dbd 54b2 b9bd
000002a0: 3ba5 793d a64c 01bd f381 e4bd 3af6 f6bd
000002b0: 7790 653d ecf1 ffbc 90d6 ccbd 5acf 83bd
000002c0: 4919 02bd fb56 733a 9b9c 09bd 4a48 04be
000002d0: 9e70 0f3d fec5 a3bd 7c0d 6f3d 8bed 16be
000002e0: 34e5 29bd 43d5 d9bc 6315 41bd f93e 573d
000002f0: 1a92 523c 4bb4 583e c382 af3c 92dd ed3d
00000300: 8a12 8c3d a92e 253e 76ee 1e3d 8fa4 003e
00000310: 5e16 713d b954 a7bc 9683 b03d d827 e4bd
00000320: e327 773d 2ce5 7dbd 5d04 0b3e 8721 243d
00000330: 2bca 173e 7b4c c1bd 0d91 e13d 170a 953b
00000340: 4da7 c3bd 6234 4bbe 0f99 513d f6c6 eb3d
00000350: bbbf aabd a512 8c3d 924a 4cbd cc47 1e3c
00000360: 308c 0dbc 9577 debc 0e49 b0bd db31 19bd
00000370: e006 763d 4fca e1bc 37d8 ba3c 945f b53d
00000380: c9fe b03d 0228 28bd 18e6 083e f3e3 ea3c
00000390: 2c55 acbd 5e86 b53c 2914 93bd 4865 ffbd
000003a0: 40d6 c7bd 42bf fbbd 5924 c43d 630b d9bd
000003b0: f6dc 473d 627c a33d 2db1 06be 84c4 c0bc
000003c0: 86f9 c03d ff9c 93bc 7dbe e33d c484 64bd
000003d0: f888 07be 0b87 e1bd 6a77 813c 01f0 64be
000003e0: fdd6 bf3c bd2d 3bb9 5303 68bd 15c0 85bd
000003f0: 3171 413e 2a0d cfbd 2d5c a73d ee3b f03c
