VirtualAquarium/results/VirtualAquarium/VirtualAquarium/VirtualAquarium-4243902.onnx (onnx, 75037 bytes, 7 tensors)

action_model._continuous_distribution.log_sigma f4 [1, 4]
00000000: b713 27c0 67f7 febf 59c1 cfbf a586 b0bf
-2.6105783 -1.9919251 -1.623088 -1.379109

action_model._continuous_distribution.mu.bias f4 [4]
00000000: fc1c b63e 2bd7 0ebe a7f5 c63e 9fc9 15be
0.35568988 -0.13949268 0.38859293 -0.14627694

action_model._continuous_distribution.mu.weight f4 [4, 128]
00000000: 1988 d0bc 7cad 39bd 40ea 05bd 6acd 85bc
00000010: 5886 c73c bc85 19bd 14fb 563b b270 0fbd
00000020: 65e7 bb3c a759 06bd 52f7 6cbd 4489 22bd
00000030: c47d 96bb eed8 9bbd 835c 0cbd b56b 4b3c
00000040: 199e a9bd 3575 e2bd a79c 17bd 9d69 803c
00000050: 97fe 0b3d d9ea 5dbd 6ce8 933d 6dd2 863d
00000060: e3ca f0bc d1fd 823a ffe3 5e3d 47b1 263c
00000070: 5773 13bd e786 473c ce0d d8bc e8ee 17bd
00000080: eb95 893c 64cd bbbc 1f99 953d 7550 c8bd
00000090: bacf aebb 8696 35bc 3868 2c3c b93f 0ebd
000000a0: 1b1f 17bd b9e4 2ebe 8530 30bd b979 febc
000000b0: fb45 d53d 27c9 6f3d 6514 173c a137 9fbc
000000c0: 33fd 0e3d bc71 6cbb d68d 3c3d f8a1 c0bd
000000d0: 1fd1 d9bd e721 03bd 5793 03be 1b3f 673d
000000e0: fa6f 44bd d684 04bc 84ea a8bd 9c3f 843d
000000f0: 4c9b f93c 54cf e93d b544 70bd a2a4 98bd
00000100: e292 17bd bcc5 88bd 4bab 013b 5ab7 833c
00000110: d178 0cbc 2ed2 053e 7263 60bd bf3f 4fbd
00000120: 4e91 853d 6eeb b73b 23d7 8ebd c484 80bd
00000130: 9c40 8c3d c7af 6ebc a629 3c3c ca97 eb3c
00000140: 115b b03c f428 9ebc d2f6 aa3c 1047 7abd
00000150: d9e6 71bd 58e7 20bd 85a5 6abb 773a 5bbc
00000160: c5c1 e9bd 7812 1a3e ce42 dc3c 5b71 ad3d
00000170: 1b25 803d 2772 0cbd 1485 c23c ab15 dc3c
00000180: cfc3 f9bb cbfc a4bd 6cd9 be3c d864 90bd
00000190: 169b 6bbc 548e a13c f954 14be 5d69 5d3c
000001a0: 8726 bfbb 465f a4bd aaa8 02be 73c3 21bd
000001b0: c531 023e 6800 823c a4a7 ddbc e84f 8d3d
000001c0: 0782 b2bc 3f30 803c 3ae9 ddba 3c65 ba3c
000001d0: 95cd 993c 9471 0d3d 2147 7bbd aec9 08ba
000001e0: 8a59 99bd 0055 d8bb 7bac 8ebd 0385 123d
000001f0: b621 03be b471 d3bd 7494 aabc 0728 86bd
00000200: 5d1d 5abd 599e 77bd 7d01 89bc 2dff 883c
00000210: 87fc 86bd 3cdb a03c e854 a0bd f20e f1bd
00000220: 9f7d 36be 696f a1bd 25c5 ffbd 57fa e5bd
00000230: 1826 07bc f31c c8bd ca45 40bd c9f7 813d
00000240: 8c05 993d 8c8e 86bd b1b0 4c3c 29ae 443e
00000250: 37ce c13d 5ffe 27bd 2861 58bc ee2a 0ebd
00000260: 5fcb b53c 5c40 30be 2750 0a3e f11f 10be
00000270: b3d4 093e 35bc 343e e787 763c a706 f3bd
00000280: 52b6 9cbd 7b6e cd3c becb 17be f468 dcbb
00000290: 7e9b 113c 3a50 ea3d edf0 2ebd 54d8 7d3c
000002a0: d01b 813d ff28 9fbc 861e bdbc 4c9f dbbc
000002b0: 527c 2e3d afa2 3cbe 7adc 14be 9091 31be
000002c0: 9eaa 5f3e c020 b73d 0079 34bd bd59 4c3d
000002d0: d663 40be 68cb b9bd 58d8 73bc acc6 14be
000002e0: b761 7abd e08a a73d db63 a93b 4ffd b3bd
000002f0: 37fb fa3d 2dbc 893c 9eaf babd e65b 2c3e
00000300: 4e3b cebc f37c ddbc bfd3 dbbd 9655 81bd
00000310: ff8e a2bd 46a1 2c3e f220 26bd 60a3 47be
00000320: 86a1 6cbd 47e5 abbd 4a87 00be f1b1 e9bd
00000330: 8e82 02be 6b1c ddbd aa13 babb 07bc 8bbe
00000340: 4bef 60bd 3fc3 1abd b6e6 0a3e 538b ac3d
00000350: 1c3e 56be d893 83bc 16f5 c3bd 376a 9a3c
00000360: f25b 89bd 58d3 0cbe a7ed e6bd eeb0 e5bd
00000370: 904a db3d 01af d3bd f0fd a6bc e669 66be
00000380: 21b5 863d b2e7 0d3e e714 143d 5864 02bd
00000390: ab01 3f3d eb10 01bd d191 e4bd 1e22 08be
000003a0: 4afe 813d ca86 30be 9a60 dbbd ce92 b83c
000003b0: eb9a 0dbe a957 ad3d a32c 093d 9491 eebd
000003c0: 87df 63be 40c8 58bd 46c6 02be 370e 78bc
000003d0: 980e 3c3b 35b3 dabd 3416 0fbe a117 c9bb
000003e0: 9b9a 053d 4d86 d5bd 0c17 edbd b1a8 b6bd
000003f0: 7d44 39be ce6f 223e 8ba5 43be a72f aeba
-0.025455521 -0.045331463 -0.0326941 -0.0163333 0.024356052 -0.037481055 0.0032803463 -0.035019584
0.022937486 -0.032800343 -0.05785305 -0.039681688 -0.004592629 -0.076097354 -0.034267914 0.012415816
-0.08282108 -0.11057512 -0.03701463 0.01567536 0.034178343 -0.054179046 0.07222065 0.06583104
-0.029393619 0.0009993856 0.054416653 0.010174102 -0.03599867 0.012178159 -0.02637377 -0.037093073
0.01679512 -0.022925086 0.07304596 -0.09780971 -0.0053348215 -0.011083251 0.010522895 -0.03472874
-0.0368949 -0.17079438 -0.04301502 -0.031063901 0.10413738 0.058541443 0.009221171 -0.019435706
0.03490944 -0.0036078533 0.046033703 -0.09405893 -0.1063559 -0.032014754 -0.12849174 0.056456666
-0.04795835 -0.008088311 -0.08247855 0.06457445 0.03046956 0.11416498 -0.058659274 -0.07453276
-0.037005313 -0.0667834 0.0019785936 0.01607864 -0.008573727 0.13068458 -0.05478234 -0.050597902
0.06521855 0.005612782 -0.06974628 -0.06275323 0.06848261 -0.014568276 0.011484539 0.028758902
0.021527799 -0.019306637 0.020869646 -0.061102927 -0.059058044 -0.039283127 -0.0035804224 -0.013380638
-0.11413912 0.15046108 0.026887324 0.084688865 0.06257077 -0.03428855 0.023745097 0.0268658
-0.007622219 -0.08056029 0.023297034 -0.070504844 -0.014380237 0.019721188 -0.1448554 0.01351389
-0.0058334502 -0.080259845 -0.12759653 -0.039493036 0.12714298 0.015869334 -0.027057476 0.069000065
-0.021790517 0.015648006 -0.0016930469 0.02275335 0.018774787 0.034532145 -0.06134713 -0.0005218041
-0.07487781 -0.0066019297 -0.06966492 0.03577138 -0.12805828 -0.103244215 -0.020822741 -0.06550603
-0.05325066 -0.060453746 -0.016724342 0.01672324 -0.065911345 0.01963579 -0.078286946 -0.11770429
-0.17821358 -0.07882578 -0.12488774 -0.11229389 -0.008248828 -0.097711466 -0.046941556 0.063460894
0.07471761 -0.065701574 0.012493298 0.19207062 0.094631605 -0.04101407 -0.013206758 -0.03470891
0.022191701 -0.17212051 0.13507138 -0.14074685 0.13460045 0.1764992 0.01504705 -0.11866503
-0.07651962 0.025077095 -0.14823815 -0.0067263786 0.00888717 0.11441083 -0.042710233 0.015493471
0.06304133 -0.019428728 -0.023085844 -0.026809357 0.04259903 -0.18421434 -0.1453723 -0.17340684
0.21842429 0.089417934 -0.044060707 0.04989027 -0.18788084 -0.09072 -0.014883123 -0.14528912
-0.061128344 0.08180785 0.0051693744 -0.08788549 0.12254947 0.016813362 -0.091155276 0.16831931
-0.025174763 -0.02703712 -0.10733747 -0.06315152 -0.079374306 0.16858396 -0.040558763 -0.19495916
-0.05777123 -0.083933406 -0.12551609 -0.11410893 -0.12745115 -0.10796436 -0.0056786137 -0.2729189
-0.054915708 -0.037783857 0.13564572 0.084250115 -0.2092213 -0.016061708 -0.09568231 0.018849475
-0.0670699 -0.13752496 -0.11275797 -0.11215387 0.10707581 -0.10336114 -0.020384759 -0.22501335
0.06577516 0.13857916 0.036152747 -0.031833977 0.04663245 -0.031510275 -0.11160625 -0.13294265
0.0634733 -0.17238918 -0.10711785 0.02253094 -0.13828628 0.084639855 0.033489835 -0.116488606
-0.22253238 -0.05292535 -0.12770948 -0.015140108 0.0028695222 -0.10678712 -0.13973314 -0.00613685
0.032618146 -0.104260065 -0.115766615 -0.08918894 -0.18092532 0.15862963 -0.19106118 -0.0013289348

network_body._body_endoder.seq_layers.0.bias f4 [128]
00000000: c4c4 08be 9d21 b0be c41a a7bd f968 09bc
00000010: 95a0 8d3d d6f1 23be 36d2 acbd 01c7 97be
00000020: a4da 58bd a1a6 2fbe 97ec 81be d143 15be
00000030: 8c10 5abe b227 ba3d f768 48be 6ff2 18be
00000040: 4f35 85be dcf5 c4bb 6eb8 94be 99eb b5be
00000050: 1778 b03d ecd8 f9bd 785f 843c 93e9 39bd
00000060: 4c81 3ebe d3a0 96bd ea4f 25be bf5a 483d
00000070: ee33 a2be 3b41 f8bd 9efb ac3d ed87 f2bd
00000080: 7ccb 8ebe a554 3c3e 54dd 4ebc 8c08 5cbd
00000090: 2910 48be 702a c4bd d889 25be bf4b 86bd
000000a0: fb7c a4be 62a5 66bd 42be 7fbe 6eff 77bc
000000b0: 8928 8dbe c53d 6ebe 9e64 82be e961 8cbd
000000c0: d08d ffbd ea18 13be 3786 33be db89 8abe
000000d0: 6295 b23d 8c9f 84be 21ef c7be 6053 acbc
000000e0: 3770 c4be 3f6e 443a a7f9 59be 191e a9be
000000f0: 4798 a03d 3490 b9be dc81 9ebd 7fb1 2b3e
00000100: 5912 12bf 6db0 d7bd d9dc aebc 7a0d 8ebd
00000110: 71cb 5dbe d4e7 123b 1df0 813d a571 bfbd
00000120: 9495 a6bc ddf6 90be bace a4be ff86 fdbd
00000130: 3222 123e 4342 a6bb 17ae 73bd 337d 7f3d
00000140: e6d1 77be bb39 b6be 8e57 83be 7fe2 a0be
00000150: b3da 23be b15b 8bbe 6696 83be d2a8 0c3c
00000160: a547 82be ccb9 5ebe e306 f7be 1cc5 9abd
00000170: ce29 a4bc b895 0e3e 0994 d3bd 88ba 1ebe
00000180: c93c 02be 88ea 9cbe 3cc8 bfbe 3dc8 f4bd
00000190: 1fd8 fcbd 72cf b23d c2cf bcbc e1fb a9bd
000001a0: 7e19 b2bd 41a8 1a3d 574b 973d 5e93 7ebe
000001b0: 9c3b d2bd 9e47 56bc 88bd adbd 0981 72bd
000001c0: 0dfa efbd 4c03 04be 751b 30be 9215 06be
000001d0: a911 88be 9533 e33d 4044 f83b 2a02 16bd
000001e0: 1ec5 68bd 60eb 80be 4c46 90bd 839b a0be
000001f0: 7105 f0bd 80f4 64be 1dc0 fa3d 1155 0b3d
-0.1335631 -0.34400645 -0.08159402 -0.008386844 0.06915394 -0.16010222 -0.08438532 -0.29644015
-0.052942887 -0.17153408 -0.25375816 -0.14576651 -0.21295375 0.090896025 -0.19571291 -0.14936231
-0.26017234 -0.006010754 -0.2904696 -0.3553131 0.08616655 -0.12199578 0.016158804 -0.04538877
-0.1860401 -0.073548935 -0.16143766 0.048914667 -0.31680244 -0.12121817 0.0844643 -0.11842332
-0.2788962 0.18391664 -0.012626011 -0.05371909 -0.19537415 -0.09578407 -0.16165864 -0.06557416
-0.32126603 -0.056310065 -0.24974921 -0.015136583 -0.27569988 -0.2326575 -0.2546739 -0.068546124
-0.124782205 -0.14364973 -0.17531668 -0.270583 0.08719899 -0.25902975 -0.39049628 -0.02103585
-0.38366863 0.00074932346 -0.21286641 -0.33030775 0.078415446 -0.3624283 -0.077396125 0.16766928
-0.57059246 -0.105316974 -0.021345543 -0.06936164 -0.21659638 0.0022416012 0.06344626 -0.09347848
-0.020334996 -0.28313342 -0.3218897 -0.12379264 0.14270857 -0.005073817 -0.059492197 0.06237526
-0.24201164 -0.3559092 -0.25652736 -0.31422803 -0.16001396 -0.27218392 -0.25700682 0.008585172
-0.25445285 -0.21750563 -0.48247442 -0.07557127 -0.020039465 0.139243 -0.1033097 -0.15500844
-0.127185 -0.30647683 -0.37457454 -0.11952255 -0.12345909 0.08730973 -0.023048285 -0.08299995
-0.086962685 0.037758116 0.07387417 -0.24860904 -0.10265276 -0.013078598 -0.08483416 -0.05920509
-0.11717615 -0.12891883 -0.17197974 -0.13094166 -0.26575974 0.11093823 0.0075764954 -0.036623158
-0.05682861 -0.25179577 -0.07044658 -0.31368646 -0.11719788 -0.22358894 0.12243674 0.034016673

network_body._body_endoder.seq_layers.0.weight f4 [128, 9]
00000000: 2d83 c13e dfaf 5e3d 8dff e63e b799 453d
00000010: 6538 66bd 23e2 22bf 7269 a3be 9c53 3cbf
00000020: 0fb8 0cbe 5cca cebe 3cdc cfbe f8ba a83d
00000030: fc8c 7d3d 92c5 863e a070 b7be 0c00 923e
00000040: 6de2 c4bd 3857 633c f919 20be a80f 3f3d
00000050: 6fb0 8fbe 01ff adbe 6493 af3e a96e 52be
00000060: 636d ae3e 4cca 48bf 08ae 50bf a048 d0bd
00000070: 0014 aabe d104 59be 0b92 3c3d b8d9 033e
00000080: 7851 443b f5ac 8e3e 9da6 1ebf 72d8 143e
00000090: 8875 fd3d 10ed 343e ca6f 023e 514e de3d
000000a0: 38ad babe 1888 643e 327b 42be 8a70 493d
000000b0: 392e f7be aa3d e8bc 9d75 c93e aac6 4e3e
000000c0: e0e5 d7be c232 0f3d fd9b fa3e 2104 e53c
000000d0: 59cb ccbe aab6 61bd 5094 d4be e86c 01bc
000000e0: 9c59 dabd 0850 913e f556 f5bc ef27 c4be
000000f0: 6311 b0be dacb 34bf f3fd 22bf b25a 443d
00000100: f141 f23d 4f4b 61bf f96a 13bf ee30 a9be
00000110: 61e9 0f3e ed4d 19bd e7ec 23bf 3e8e 12bc
00000120: 97d1 cabd 1c2c 133f 8c9c 57bd 5513 5ebf
00000130: 60d8 bbbe 14bc 26be 9e67 75bb 5e89 c3be
00000140: 3ba8 96be b97c 4ebe 4a07 c3bd 0222 7fbe
00000150: c4e6 e3bc 08a5 b0be a31b b4bd d12a 89be
00000160: 228d e1be 8385 84be c97c 7dbd e285 53be
00000170: cbec bd3c 8419 1fbf beb1 bb3e 510c cbbe
00000180: 9759 4b3c fc17 a5be a859 0abf 8bc2 b7be
00000190: e269 e83e aeac 32bf 789c 6cbe 7b2b a73e
000001a0: f467 a73e bf58 fabe f258 23be cd20 d93e
000001b0: 859d 06bd 75cf 213f 0140 9a3e 9cdc 643e
000001c0: c5c8 ae3e 633a 80be 943f 18be 0231 bcba
000001d0: 83e4 5fbf 9273 3b3e a618 663e 68b8 8f3e
000001e0: b6e3 093f 91cd 22bf d8fe 243e 4953 0f3e
000001f0: 4517 bfbe a078 b0be 0eef c33c 15da 48be
00000200: 4728 33bf 255c c33e 3819 c33c 90b2 7fbf
00000210: 88e8 38bf e7f3 02bf b3a3 bdbe 19c4 50bf
00000220: 6b0d 083f 28af a5be 2dc1 b53e 0bd4 d13e
00000230: f04d 4c3c 38cb 853e f758 343e 2856 983d
00000240: cdd3 d23d 026f dcbd a8b6 18be 2542 adbe
00000250: e32f 373d ea53 e1be dd6e ce3e 755b 1ebe
00000260: f750 233d 9a83 f23d 00ab cabc b370 0abe
00000270: 1685 d63e d828 83be 6963 d13d 066e 1a3d
00000280: 2319 64be 3698 91be a1f7 a63b eb37 fabd
00000290: 1c7a 81be 9258 99be 9405 463e d4f8 26bd
000002a0: 0c54 fe3e f97e 94be 814d cf3e b2e9 173e
000002b0: 2e50 7b3d 1d9a 5e3e a3aa e83e 9fe2 213c
000002c0: 9739 9abe 7e0b 133e df81 6ebe d4f0 4cbf
000002d0: 8ed1 44bc a2f8 42bf 3cba 833e d151 073f
000002e0: 6c18 88be d9f3 903e 475a 753e e455 91be
000002f0: a6ff 47be b6a4 f73e 5eec af3e c827 81be
00000300: a1e4 a13e 1d6e e73d 8db3 a4bd c2d0 bdbc
00000310: 19e1 45be d43c 793e 79ef 9f3e 9509 79bf
00000320: 4557 2e3d 2e46 173d e06a 983c 15cf 2d3e
00000330: 811a 8a3e cc71 d8be b3c5 0fbe b34f 8fbe
00000340: ef58 7abf d2c7 8cbe 7d9f 8a3d b2e8 863e
00000350: f574 c93d d728 d83e b1e1 873e d209 14be
00000360: 9426 963e 02bc df3e 1d95 733d 9356 35be
00000370: f785 34be 8f83 04be e636 4e3d a6e5 e4be
00000380: ed58 e7bd 1ba4 f1bd e14f bcbe fc50 f3bd
00000390: d6a5 f1bd 6942 b7be 3875 18bf d5e3 8d3d
000003a0: 185d 26bf ba61 253e 96a6 34bf 3abd babe
000003b0: dc14 2cbe 36de 07bf 996d 203d 8798 9ebe
000003c0: df99 9fbe 72d3 1cbf 3a61 853e 341a 803d
000003d0: 339a 923e a9f1 cb3d b4c5 803e 0ba3 b33b
000003e0: 0fe9 65be def8 003d 4488 353d 24b1 4bbf
000003f0: c14e b5be 61ff 103e f492 17bf 3b8b b7be
0.37795392 0.054366942 0.45116845 0.048242297 -0.056206126 -0.6362631 -0.31916386 -0.7356508
-0.13742088 -0.40388763 -0.40597713 0.082387865 0.06190203 0.2632261 -0.35828114 0.2851566
-0.096135 0.013875775 -0.15634908 0.04664579 -0.28064296 -0.33983615 0.34292138 -0.20550026
0.3406783 -0.7843368 -0.8151555 -0.10170102 -0.33218384 -0.21193244 0.046037715 0.12876022
0.0029955786 0.2786633 -0.6197298 0.14535692 0.12375933 0.17668557 0.12737957 0.108547814
-0.3646028 0.2231754 -0.18992308 0.04917959 -0.48277453 -0.028349716 0.39347544 0.20192972
-0.42167568 0.034960516 0.48947135 0.02795607 -0.39998892 -0.055105843 -0.41519403 -0.0078995
-0.10661623 0.28381371 -0.02994869 -0.38311717 -0.34388265 -0.7062355 -0.63668746 0.047938056
0.118289836 -0.88005537 -0.575851 -0.33045143 0.1405387 -0.03742783 -0.6403336 -0.008945046
-0.09903257 0.5748918 -0.05263953 -0.8674825 -0.3668852 -0.16282684 -0.0037445794 -0.3819074
-0.29425225 -0.20164765 -0.09522875 -0.24915317 -0.027819999 -0.3450091 -0.08794334 -0.2679048
-0.44052988 -0.2588311 -0.061886583 -0.20656541 0.0231842 -0.6214831 0.36659044 -0.39657834
0.012411497 -0.3224486 -0.54043055 -0.35890612 0.45393282 -0.6979474 -0.23106563 0.3265036
0.32696497 -0.48895833 -0.15951899 0.42407838 -0.032865066 0.6320718 0.30126956 0.22349781
0.3413755 -0.25044546 -0.14868003 -0.0014357867 -0.87458056 0.18305805 0.2247034 0.28070378
0.53863084 -0.6359492 0.1611284 0.13996615 -0.3732244 -0.3446703 0.023917701 -0.19614442
-0.69983333 0.38156238 0.023815736 -0.9988184 -0.72229815 -0.51153415 -0.37038955 -0.8154922
0.53145474 -0.32360196 0.35498944 0.40982088 0.012469754 0.26131606 0.17612062 0.07438308
0.10294304 -0.107633606 -0.14913428 -0.33839527 0.044723403 -0.44009334 0.40318957 -0.15464576
0.039872136 0.11841507 -0.024739742 -0.13519554 0.41898412 -0.256171 0.10224039 0.037702583
-0.22275214 -0.2843644 0.0050954376 -0.12217697 -0.25288475 -0.29950386 0.19338065 -0.040764645
0.49673498 -0.29003122 0.40488818 0.14835241 0.061355762 0.21738477 0.45442685 0.009880691
-0.30122063 0.14359853 -0.2329173 -0.80054975 -0.012012852 -0.76160634 0.25728023 0.52859217
-0.26581132 0.2831104 0.2396022 -0.28385842 -0.19531116 0.48367852 0.3436002 -0.25225663
0.31619743 0.11300299 -0.08042059 -0.023170833 -0.19324149 0.2433961 0.3123739 -0.97280246
0.042563695 0.036932163 0.01860565 0.16973527 0.26973346 -0.4227432 -0.1404026 -0.27990493
-0.9779195 -0.274962 0.06768701 0.26349407 0.09836761 0.42218658 0.26539376 -0.14456871
0.29326308 0.43698126 0.059468377 -0.17708807 -0.17629229 -0.1294081 0.050345324 -0.44706458
-0.11296258 -0.11798879 -0.36779693 -0.11880681 -0.11799209 -0.35792854 -0.5955386 0.06928221
-0.649858 0.16150561 -0.7056669 -0.36472493 -0.16804832 -0.5307344 0.03916702 -0.30975744
-0.31172082 -0.6126014 0.2605074 0.06254998 0.2863327 0.099582024 0.25150836 0.0054820827
-0.22452186 0.03148734 0.044319406 -0.7956717 -0.35411647 0.1415992 -0.5920861 -0.35848412

network_body._body_endoder.seq_layers.2.bias f4 [128]
00000000: 1059 07bf ba71 a8be 4949 17bf a5f7 87be
00000010: cbd4 c0bd f18a 9cbd 0bf4 77be 1c0d 2abe
00000020: b99a 02be c2cd 6ebe 273d 63bd e81f 7bbe
00000030: eadd 3bbe 5b63 adbe 3d45 453d 9039 913c
00000040: 4d12 81be ee7b dbbd e3df debe f323 54be
00000050: 3b99 9dbd a0a0 9cbe de4e 24bc 2619 5abd
00000060: da11 00bf d5d7 60be a7bf 37be d721 35be
00000070: f2f8 f03c 2cf6 3abe d1fd 89be c9dd 87be
00000080: f454 40be 05f8 6dbe 6fd8 25bd 29db 77be
00000090: 2173 fabd 262c 8dbe d04b 27be 9197 b6be
000000a0: 6a06 6abe ef2f 4dbe 7ef3 f1bd 6d34 f0be
000000b0: e31f c2bd b8aa f9bc 0860 99bd 4707 68be
000000c0: db96 1dbd e6d8 16be a2b3 14be 8b41 1bbe
000000d0: a829 a3be 3b18 4ebe 6e97 8ebe 850d cebc
000000e0: c733 bcbe 5ce0 75be 4187 dbbe b11d 29be
000000f0: acd8 43be 7c6e f9bb c6de 89be 78d5 63be
00000100: 20e9 fbbe 7f57 acbe 0d61 d1bd 9aca c5be
00000110: 469b cdbd a1d3 3f3e b3a8 8cbe eb56 7fbe
00000120: 4d82 5cbd 924d bebe ca61 33be eac7 a6be
00000130: c9a3 4bbc 9310 32be f8ea 63be 2e2b 993c
00000140: e1c9 8bbd cb75 a6be 9711 20be 8660 1cbe
00000150: 8c9e 31be 53f5 cebe c365 00be 2454 9abe
00000160: 7786 9abe ff22 d63d aa75 4fbe c604 31bd
00000170: 76f1 6cbd 21a1 f8be 3b03 bcbe 055b 2bbe
00000180: e015 d43c 39fb 31be b332 04be 3705 1dbe
00000190: 3ce6 80be ff80 5ebe daa6 3bbe c42d 2bbe
000001a0: a99a 55be 28bc bcbd c5a4 a0be ee28 efbe
000001b0: 6e08 e13d 78c9 a1bc 740e d1be ecd4 9ebe
000001c0: d932 f7bc f663 5dbe 790c fbbd a8de ddbd
000001d0: 5121 81be e9e3 bcbc e58c 12be 445f d7be
000001e0: 2d84 0dbf e4d8 bfbd 280c 9dbe 93bd 36be
000001f0: 8ff8 16be 8a8d 17be 0197 c5be 30fc 06bf
-0.52870274 -0.32899266 -0.590962 -0.26556125 -0.09415587 -0.076436885 -0.24214189 -0.16606563
-0.12754335 -0.23320678 -0.05547824 -0.2452389 -0.18346372 -0.33864865 0.048161734 0.017727643
-0.25209275 -0.10716997 -0.43530187 -0.20716839 -0.07695242 -0.30591297 -0.010028569 -0.05324664
-0.5002724 -0.21957333 -0.17944203 -0.1768869 0.029415581 -0.1825797 -0.2695146 -0.26536396
-0.18782407 -0.23239143 -0.04048961 -0.24204697 -0.1222899 -0.27572745 -0.16337514 -0.3566251
-0.2285401 -0.20037816 -0.118140206 -0.46914998 -0.09478738 -0.030476913 -0.0748902 -0.22659026
-0.038473945 -0.14731178 -0.1452165 -0.15161721 -0.3186772 -0.2012643 -0.27849907 -0.025152931
-0.36758253 -0.24011368 -0.42876628 -0.16515233 -0.19125623 -0.0076120477 -0.26927775 -0.222494
-0.49201298 -0.33660504 -0.10223589 -0.38631135 -0.10039382 0.18733074 -0.27472457 -0.249355
-0.053835202 -0.37168556 -0.17517772 -0.32574397 -0.012429186 -0.17389135 -0.22257602 0.018697347
-0.06825615 -0.32511744 -0.1563171 -0.15271196 -0.17345637 -0.40421543 -0.12538819 -0.3014232
-0.30180714 0.10455894 -0.20259729 -0.043217443 -0.057847463 -0.48560432 -0.36721215 -0.1673394
0.025889337 -0.1738099 -0.12909965 -0.1533402 -0.25175655 -0.21728896 -0.18325368 -0.16716677
-0.2085978 -0.092155755 -0.3137571 -0.46710914 0.10987936 -0.019749388 -0.4083134 -0.31021821
-0.030175613 -0.21620163 -0.12258238 -0.10833484 -0.2522073 -0.023057895 -0.1431156 -0.4206487
-0.5527981 -0.093675405 -0.30673337 -0.17845754 -0.14743255 -0.14800087 -0.3859177 -0.5272856

network_body._body_endoder.seq_layers.2.weight f4 [128, 128]
00000000: 2276 51be 8732 89be e989 e63d 85b3 863e
00000010: af4a 37bd db97 fa3d 7114 40be f427 393e
00000020: b7b2 de3e 6478 7f3d 1f58 90be 8292 25be
00000030: 3afd 4ebe b80a d4bd 1523 263c a809 e0be
00000040: 5cd2 46be 24c5 a33d 2ef3 1e3e 8005 9ebe
00000050: d0bf 00be 5205 55be a8f6 46bc 8ae1 86be
00000060: a64b 503e 63c4 d7bd 2429 843c 6057 78be
00000070: 804e 3cbd 71b6 763d a445 d5be 5259 dfbe
00000080: 5304 b93d 0a50 86be e08b 5f3e f132 35be
00000090: ca20 f63e 75bd 19be 43bc 603e 47b9 b8be
000000a0: d09f 4b3e 503b 693e 5a99 a1be 23ea 413e
000000b0: 373e b03d 3a97 503c 2930 503e d7b8 91bd
000000c0: 5418 8c3d f1c9 1f3e 4882 d13d 28b2 f13c
000000d0: fc40 39be 0aeb 20be 13ae 7c3e 0a7b 3bbe
000000e0: e023 ae3e 4458 87be 302f 97bd 85eb bbbd
000000f0: e198 b5be aa8d 5f3c 6cb2 863e 176c 93bd
00000100: 0980 c03e 8348 093e 935d e4bd 501d 9bbe
00000110: 0de2 843d 0f22 1cbe 0908 aa3d 02a4 e6be
00000120: 173c 87be 5132 b93e f842 373e e423 923d
00000130: 458e 8fbe cb7f 023e 8f11 f13c 4c30 a1be
00000140: e19b 62be 7713 e0bc a4ee 8b3d 9c83 5abe
00000150: f943 9dbe 73a9 96bc c2b2 4f3d 0bc9 09be
00000160: 40c1 4fbe 0606 88be c7b3 63bd 3858 133e
00000170: 401e e3bd b9ee efbd 87b9 1a3e c1b6 5b3b
00000180: ac1d 203e 5957 393e 1295 243e 1a9b 3fbe
00000190: 52e2 a7bd 7363 fcbc 1a5a c6be bbf3 7fbe
000001a0: 1629 d1bd 9804 b2be 11ff b63e 598c 11bd
000001b0: 2ef3 b6bd 85d6 8b3e 39c6 dcbd a187 eabe
000001c0: 209e 4bbe 6163 1a3c 7fb5 19be c6a7 85be
000001d0: 1ebf 26bc 040e e1bd 17c9 25be 3bc1 6dbe
000001e0: 089c a43e 437c 08be c61d 6b3d 053e fe3d
000001f0: e9da 5dbe 9108 44be 7122 0e3e d67b d3be
00000200: 872b 3f3d 8db7 9dbd 700d 92bd 747e 733c
00000210: f7f4 09be d7a6 5c3e 01ca 16be 19a5 aa3e
00000220: ff3d d13e b97f 6e3d 61b2 3f3d 3881 6fbe
00000230: 2436 01bd 6b5c c5be feb1 093e 0be6 9abe
00000240: e05b 68bd 0f0e 95bd bf89 edbd 9d1b ecbd
00000250: 4fdf 3ebd 626b 29be 11c4 0abe 17f4 ffbd
00000260: f6d7 f6bd 81ef f0bd 9e04 c3bd 663b 1f3b
00000270: 9a80 823d 2b9a 78be f700 bfbe e0cf 833d
00000280: 4296 cd3d 66cd bcbe 018d 17be 6848 45be
00000290: 9617 60bc b346 68be 2f82 a73e 0458 25be
000002a0: 84c0 503e 3b60 8b3e 4bf2 39bd c4a4 a9bc
000002b0: 2f94 013e a39b c43d 40a8 da3d e0ff 36be
000002c0: 5076 853e fe51 6f3e a5e2 803e a0d7 46bb
000002d0: cd6d abbe 95e6 81be 82e1 703e d1cc 03be
000002e0: 2d01 c23c 3072 93be 971e 94bd 7ee8 13bd
000002f0: 5f67 afbd edf5 c4bd f1ca 5a3d 8097 933d
00000300: 2d86 ba3d fa61 aebd 38ea 17bd 623a 3c3d
00000310: 5b64 a73d 4557 f5be a982 c83d 0652 f4bc
00000320: 2d8a 963d 73d8 fc3d b0a4 2c3d 66be 1abc
00000330: 3c93 38bd b246 6abd 5994 a5bd 9e60 05be
00000340: d6e8 753b 8627 8dbd 9df7 3bbd 9a55 e13d
00000350: beb7 88be 823c 163d b1b9 133e 3628 9dbd
00000360: ea10 183e 1aed 2fbe 294f 1bbd 4f33 adbd
00000370: 484e 72bd a416 84be a9fe 963e e2ca 3fbd
00000380: 8175 ddbd 5177 913d e2ef 123e f402 9abd
00000390: 0152 51be 2518 5b3d 2207 febd da2d 4ebe
000003a0: c5ad 193d f13c 13be ece0 433e 7c8f c23a
000003b0: 1cbc 4bbe 55e1 113e e183 81be 258a 8ebc
000003c0: df68 cbbe dd50 2c3e 341f 86be f661 b2bd
000003d0: 6ccd 48bd 98d6 dcbd 74ac f8bd 3dfb 75be
000003e0: 06c4 59be 5bd8 2c3c 8591 ca3d 1790 a23d
000003f0: f976 4dbe c591 c3bc 4622 c1be 78d6 b7be
-0.2045522 -0.26796362 0.11256773 0.26308838 -0.04474896 0.122359954 -0.18757798 0.18081647
0.43495724 0.062370673 -0.2819223 -0.1616917 -0.20213786 -0.10353607 0.0101402 -0.43757367
-0.19416183 0.07996586 0.15522453 -0.3086357 -0.1257317 -0.20802811 -0.012143768 -0.26343948
0.20341358 -0.10535505 0.016132899 -0.24252081 -0.0459733 0.060232583 -0.41654694 -0.43622833
0.09034028 -0.2623294 0.21830702 -0.17695214 0.4807189 -0.15013678 0.21946816 -0.36078855
0.19885182 0.22776532 -0.3156231 0.18936972 0.086056165 0.012731368 0.20330872 -0.071153335
0.06840578 0.15604378 0.10229927 0.029503897 -0.18091196 -0.1571466 0.24675779 -0.18308654
0.34011745 -0.2643453 -0.07382047 -0.09175781 -0.354682 0.013644615 0.26308 -0.07198351
0.37597683 0.13406567 -0.1115066 -0.302958 0.06488428 -0.15247367 0.08302314 -0.45047003
-0.26413032 0.361712 0.1789664 0.07135752 -0.2803823 0.12744062 0.029427318 -0.3148216
-0.22129776 -0.027353032 0.068326265 -0.21339267 -0.30715922 -0.018391347 0.050707586 -0.13455598
-0.20288563 -0.26567096 -0.05559137 0.14389122 -0.11089754 -0.117154546 0.15109836 0.0033525678
0.15636319 0.18099727 0.16072491 -0.1871151 -0.08197464 -0.03080914 -0.38740617 -0.2499532
-0.10212915 -0.3476913 0.35741475 -0.035534237 -0.089331016 0.27312103 -0.107799955 -0.45806602
-0.19884539 0.009423108 -0.15010642 -0.26104563 -0.010177402 -0.109890014 -0.16189991 -0.23218243
0.32150292 -0.13328652 0.05740144 0.12414173 -0.21665539 -0.19143893 0.13880326 -0.41305417
0.04667237 -0.07701025 -0.07131469 0.014861692 -0.13472353 0.2154802 -0.14725496 0.33329085
0.40867612 0.058227275 0.046800975 -0.23389137 -0.031545773 -0.38547072 0.13446805 -0.30253634
-0.056728244 -0.07278072 -0.115985386 -0.11528704 -0.046599682 -0.1654487 -0.13551356 -0.12497728
-0.1205291 -0.11764432 -0.09522365 0.002429688 0.06372185 -0.2427756 -0.37305424 0.064361334
0.10038425 -0.36875457 -0.14799882 -0.19265902 -0.013677498 -0.2268322 0.3271651 -0.16146857
0.20385939 0.27221856 -0.045397084 -0.02070845 0.12654184 0.09599998 0.106766224 -0.17871046
0.26066828 0.23371121 0.25172916 -0.0030340925 -0.3348221 -0.25371233 0.23523524 -0.128711
0.023682201 -0.28798056 -0.07232397 -0.036110394 -0.08564638 -0.09617219 0.053416196 0.07206631
0.09107623 -0.08514781 -0.037088603 0.045954116 0.08173438 -0.47918144 0.097905464 -0.029824268
0.07350574 0.12345972 0.042149246 -0.009444809 -0.04506229 -0.057196327 -0.08084936 -0.13025138
0.0037522814 -0.06892304 -0.04589044 0.11002655 -0.26702684 0.0366788 0.14426304 -0.07673685
0.14850202 -0.17180291 -0.03791729 -0.08457052 -0.059156686 -0.25798523 0.29491165 -0.046824344
-0.10813428 0.07102836 0.1434932 -0.075200945 -0.20441438 0.053489823 -0.12403704 -0.20134678
0.037519235 -0.14378716 0.1912877 0.0014843787 -0.19895977 0.14246114 -0.25295928 -0.017399857
-0.39728448 0.16827722 -0.2619568 -0.08710091 -0.04902403 -0.10783118 -0.12142268 -0.24021621
-0.21266183 0.01054963 0.09891037 0.07937639 -0.20064916 -0.02387322 -0.3772146 -0.35905814
