VirtualAquarium/results/VirtualAquarium/VirtualAquarium/VirtualAquarium-93917.pt (torch, 451487 bytes, 36 tensors)

network_body._body_endoder.seq_layers.0.weight f4 [128, 9]
000000 68 1c c5 be 39 f6 76 3f a7 d4 b9 bd b9 94 1d 3e
       -0.38498235 0.96469456 -0.09073763 0.15388764
000010 2e 61 e6 bd f2 2a 88 3c 9c c2 46 3e eb 14 69 3e
       -0.11249004 0.01662204 0.19410175 0.22761886
000020 8b 04 42 bd 47 71 f8 bd 30 d4 80 3e 33 25 28 bb
       -0.047367614 -0.12130981 0.25161886 -0.0025656938
000030 ce e8 bc 3e 2e 0d 49 3d b0 ef 38 be a2 48 ce be
       0.36896366 0.049084835 -0.18060184 -0.4028979
000040 d6 8b 33 be d2 46 89 be bc 29 14 bf ef a9 b7 3d
       -0.17533812 -0.26811844 -0.5787618 0.08967959
000050 7e 0a aa 3e f6 29 2f bc fd 2b c9 3d b6 df 64 3e
       0.3321113 -0.010691157 0.09822843 0.22350964
000060 5d f3 95 be 84 db 46 be 85 9a 93 3e be c2 a9 3e
       -0.29287234 -0.19419676 0.28828827 0.3315639
000070 4d 09 26 bf 59 a7 a1 3e 72 8b bd be ea 7a 52 be
       -0.6485794 0.3157299 -0.3702045 -0.205547
000080 0b 80 66 be 07 b4 13 3e 5f 84 03 3f 18 6c a1 3d
       -0.22509782 0.14424144 0.5137386 0.07881945
000090 9a c3 02 3d 43 06 ee be b9 e7 04 3f bf 0c 4a 3e
       0.03192482 -0.46489152 0.5191608 0.19731425
0000a0 08 0c de be 3d 05 56 be 52 f0 ff be 4c 2a 29 3d
       -0.43368554 -0.20900436 -0.49988037 0.041300103
0000b0 fb 3e b7 3e ea 1c cb bd 70 c1 cf 3e 75 05 0a bf
       0.35790238 -0.09917624 0.4057727 -0.53914577
0000c0 00 10 89 be a0 60 a9 be d0 8f 0c 3e bd f0 9c 3e
       -0.2677002 -0.33081532 0.13726735 0.3065242
0000d0 71 05 89 3d bc 39 02 3f 90 e5 1b bf 6d cf b1 bd
       0.06690491 0.50869346 -0.6089716 -0.086821415
0000e0 9b 04 99 bd fb d6 6b bd 09 30 ad 3e 3f 38 a5 3e
       -0.074715815 -0.05757807 0.3382571 0.32269475
0000f0 27 a2 64 3e f6 0d 58 3d 52 59 f2 be 6a 41 99 3d
       0.22327481 0.05274769 -0.4733377 0.0748318
000100 37 8e cd 3e a9 f9 c1 3e 07 c1 2b bf 99 9e d1 3d
       0.40147564 0.37885788 -0.6709141 0.10235328
000110 fd 35 c1 be 11 1d b6 3d 8a 18 d2 be 4f f0 11 be
       -0.37736502 0.08892263 -0.41034347 -0.14251827
000120 1c 46 97 3e df 4c 7f 3e 4f dc 0a 3f c2 f4 45 3e
       0.29545677 0.24931668 0.54242414 0.19331649
000130 39 dd 76 bd ea 54 1e bf db 3c 1e 3f 3f fd 12 3e
       -0.060269568 -0.6184832 0.6181161 0.14354418
000140 73 52 75 3e 91 7f 7d 3e 63 52 5b 3e 5d 97 5a bd
       0.23957233 0.24755694 0.21418147 -0.053367008
000150 52 5c 69 be 91 d8 2a be a0 32 98 3e 40 8b 36 3f
       -0.22789124 -0.16684176 0.29726124 0.7130623
000160 29 9a 13 bf 6b 2f d3 3d 84 24 4c 3e 5e 1b ff be
       -0.57657105 0.10311779 0.19935805 -0.49825567
000170 bc 49 cb be c6 59 d8 3e 0f 48 b7 be 3c bc 80 be
       -0.39704692 0.42255992 -0.35797164 -0.2514361
000180 7c 44 a8 be 1a eb 05 3f 8c de 88 be b8 50 0f 3e
       -0.3286475 0.5231186 -0.2673229 0.13995636
000190 d0 89 13 bd ae 6f f8 bd 84 7c 24 3f 0c e7 d2 bd
       -0.0360201 -0.12130676 0.64252496 -0.10297975
0001a0 17 54 05 3d 41 30 a3 3e 12 0f c8 be 04 fc a2 3e
       0.032550897 0.31872752 -0.39073998 0.31832898
0001b0 3e 0b 25 bd 45 79 40 3e 27 19 7d 3e 69 f4 62 be
       -0.040293925 0.1879626 0.24716626 -0.22163548
0001c0 3f 70 1a be 2a 3f 18 bd 39 18 5b be 9b 6c 5a 3f
       -0.15081881 -0.037169613 -0.21395959 0.8532197
0001d0 c2 25 10 3f 2b 7e 92 bd 76 89 41 3d 7e c7 05 be
       0.56307614 -0.07152971 0.047250234 -0.13064381
0001e0 55 20 c8 be a9 6e 00 3e e2 a6 f5 3d 0e 4e 20 bf
       -0.39087167 0.12542213 0.11994721 -0.626191
0001f0 6d 72 91 be 3b 9d fc be df 5c a2 bc ad 0a 52 bf
       -0.28407612 -0.49338707 -0.019819675 -0.8204754
000200 67 2b a4 3e e6 2c 6e 3c 74 0d ff 3e e3 bf 22 be
       0.32064363 0.014537072 0.4981495 -0.15893511
000210 46 9b f2 bd 50 4f 6e bd 63 fa a3 3e 8f 2d a2 3d
       -0.11846022 -0.058181107 0.32026967 0.07918846
000220 b8 91 67 bf 75 f7 09 be b1 8e a3 bc 70 49 d0 3d
       -0.90456724 -0.13473304 -0.019965502 0.10170257
000230 ce df 53 bd f8 54 a4 3d e2 79 04 3e a9 d0 78 3e
       -0.05172711 0.08024019 0.1293712 0.24298348
000240 90 c5 b3 3e b3 1e 3e 3f e0 a2 b9 be af 46 b9 be
       0.35111666 0.74265593 -0.36257076 -0.3618674
000250 73 9c 29 bd c7 97 9c 3e b8 9e 49 bd e2 14 89 3e
       -0.041408967 0.30584547 -0.04922363 0.26773745
000260 d4 45 30 3e 9a 27 4c bd a8 fa c8 be 75 e3 a8 3d
       0.17214137 -0.049842454 -0.39253736 0.08246509
000270 09 41 db be d2 bd e6 3e 8d b3 8f be fd 2f ad be
       -0.42823055 0.45066696 -0.28066674 -0.33825675
000280 87 be ec be ce 82 a3 be 7b 1a 9e be a5 3a 8b 3e
       -0.4623911 -0.31935734 -0.30879578 0.2719318
000290 f0 b4 09 be 74 0d e2 bd 53 6e 97 3e b4 16 d1 3d
       -0.13447928 -0.11037722 0.29576358 0.102094084
0002a0 73 dc 06 3f 36 1a b4 3e 66 63 91 3e e3 20 8e bc
       0.5268013 0.35176247 0.28396147 -0.017349666
0002b0 79 1b 7e bd 8f 06 b6 bd 37 bb 8c be ab ca ee 3e
       -0.06203792 -0.0888797 -0.27486584 0.46638998
0002c0 3c ba 5f be d6 00 7d 3e dd e5 93 be a0 59 ee 3e
       -0.21848387 0.2470735 -0.2888631 0.46552753
0002d0 92 2f cf be 7d fe 9b be 7c b1 aa be fb 2f b3 be
       -0.4046598 -0.30467597 -0.33338535 -0.34997544
0002e0 6e 4c 0c be 60 42 32 bf c0 70 54 3d 60 2a 90 3e
       -0.1370103 -0.6963253 0.05186534 0.2815733
0002f0 32 61 10 be d0 c4 63 bf 20 0f 67 3e ea 4c 6a be
       -0.14099577 -0.8897219 0.22564363 -0.22880903
000300 24 18 12 3d 83 e1 b6 3e e8 f1 c3 bc cb 31 27 be
       0.035667554 0.35718927 -0.02391906 -0.16327588
000310 72 e5 e6 3d 9c b8 e6 bd 2c cc 43 3e 67 bb 9a 3a
       0.11274232 -0.1126568 0.19120854 0.0011805118
000320 87 ea ca 3e 89 df 34 be c3 6f 76 be 25 da 5b bd
       0.39632055 -0.17663397 -0.24066071 -0.053674836
000330 c2 3f 7f 3c fc ea 69 3d c9 2a 48 3e 26 0c 3f bd
       0.015579166 0.057108864 0.19547571 -0.046642445
000340 ff 47 01 3d f8 31 51 be 63 b2 91 be 8e 49 8b bd
       0.0315628 -0.20429218 -0.2845641 -0.06801139
000350 d1 86 89 be 55 b9 18 bf a2 2f 40 3e e4 df c7 be
       -0.2686067 -0.59657794 0.1876817 -0.39038002
000360 14 8d d1 bd 3d 33 db 3e 9a 04 d0 3d f2 5a 95 3e
       -0.10231987 0.4281253 0.10157128 0.29170948
000370 cb 57 1b 3f f8 b3 6a bb 02 75 80 be d9 15 39 be
       0.60680836 -0.0035812836 -0.2508927 -0.1807474
000380 3d 8d 93 be d9 41 50 3f 49 99 e9 3e 11 51 c2 3e
       -0.28818694 0.81350476 0.4562476 0.37952474
000390 96 d7 3b 3e db 87 a9 be 77 c4 5c be da 9d a5 3e
       0.18343958 -0.33111462 -0.2155932 0.32346994
0003a0 50 ee 9c 3e c0 77 a0 3d 44 54 98 3d 26 01 c2 bd
       0.30650568 0.078353405 0.074379474 -0.09472875
0003b0 54 98 b6 3d 8b d9 34 3e a4 ea b6 3d 18 58 9a 3e
       0.08915773 0.17661111 0.08931473 0.30145335
0003c0 a3 0e 86 be 8f 38 b3 3e 9d a1 37 be aa f5 a7 3e
       -0.26183042 0.35004088 -0.17932744 0.32804614
0003d0 54 f7 6a 3d d5 96 1e be 89 a9 de bc dd 86 99 3d
       0.057364777 -0.15487225 -0.02718045 0.07496426
0003e0 f1 98 00 3e fe 01 8e be 89 5a ca 3d 83 d0 1c 3e
       0.12558343 -0.27735895 0.098805495 0.15313916
0003f0 90 ea 07 3f 71 68 93 3e dc 56 8f 3e 19 88 34 3f
       0.5309229 0.2879062 0.27995956 0.7052017

network_body._body_endoder.seq_layers.0.bias f4 [128]
000000 b9 a0 81 bc 3c d9 99 3c ef b6 88 3c f6 89 4b bd
       -0.015823709 0.018780343 0.016688792 -0.049692117
000010 13 03 58 bd 4b fb 17 bd 75 07 e5 3c 5b fa 7e bb
       -0.052737307 -0.037104886 0.027957657 -0.0038906548
000020 ab 9d 37 bd e2 de f2 bb 14 b2 52 bc 5f a6 6b 3d
       -0.0448281 -0.0074118236 -0.01285984 0.05753171
000030 68 74 d5 bc 5c 17 bc 3b d6 78 ee b9 fb 56 81 bd
       -0.026056483 0.0057400893 -0.00045484927 -0.06315418
000040 d7 04 fb bc 30 f3 97 3b 8d 7e c4 bd d1 56 00 3d
       -0.030641956 0.0046371445 -0.0959445 0.031332795
000050 21 aa 98 bc b9 74 8b 3c 76 8a 90 bc c7 18 55 bd
       -0.018635811 0.017023431 -0.017644148 -0.052025583
000060 80 7c 50 3b 29 1c 16 bd 83 4f 2e bd cf b1 28 bd
       0.003181249 -0.03664795 -0.042556297 -0.041185196
000070 ae ee 5d bc 93 58 80 3d f7 23 09 bc 02 f4 cc bc
       -0.013545675 0.06266894 -0.008370391 -0.025018696
000080 3b 3e 42 bd 2e cc 8d bb b3 5a d5 bc 48 ea 5a bd
       -0.04742263 -0.0043273186 -0.026044225 -0.053446084
000090 ee 0f a1 bb 54 0f 92 3c 3a 1b 78 3d 36 a1 e4 bc
       -0.004915229 0.017829575 0.06057284 -0.027908903
0000a0 c6 2e a9 bd 5d e9 89 ba 04 3f 18 bd b0 14 56 bb
       -0.082608745 -0.0010521818 -0.03716947 -0.003266614
0000b0 fb 57 1e bd 2f ad 5d bd 5f c7 89 bc 81 15 0b be
       -0.038658123 -0.05412024 -0.0168187 -0.13582422
0000c0 a3 b2 05 bd 63 97 8f 3c 1d 7e 50 bd 0e f8 f9 3c
       -0.032641064 0.017528242 -0.05090152 0.03051379
0000d0 08 bc 86 39 dc 9e a1 3c fe ea 06 be eb 2e 0d bc
       0.00025698566 0.01972907 -0.1317558 -0.008617143
0000e0 65 62 a8 bc c0 4b cd bc dc e5 e0 3b e5 eb af bb
       -0.02055473 -0.025060534 0.006863339 -0.005368697
0000f0 37 12 55 bc de 80 9b bb 0f 12 f4 3c 66 28 16 bd
       -0.013004831 -0.004745587 0.029793767 -0.03665962
000100 0e a6 58 3b fc a6 cc 3a 10 bf 7a bc db b1 38 bd
       0.003305796 0.001561373 -0.015304342 -0.04509149
000110 c2 7b 3b bc 39 69 f1 bc 83 48 b8 3b 49 0f ee 3c
       -0.01144308 -0.02946912 0.0056238784 0.029060023
000120 dd e9 7d bd 53 d8 fc bc 37 2d dc 38 82 c4 7d 3c
       -0.061990608 -0.03086487 0.000104988394 0.015488746
000130 c9 db c5 3d b6 17 5e 3d c8 a6 83 bc b1 40 12 3b
       0.09661061 0.05422183 -0.016070738 0.002231639
000140 67 d0 c4 3b 70 07 a1 3b 6f 11 de bb 42 20 c8 3d
       0.006006289 0.0049142167 -0.0067769806 0.09771778
000150 d6 d1 1f bd 54 05 2e bd 5d 2e 33 3d 8f f2 19 3b
       -0.039018475 -0.04248555 0.043745387 0.0023490523
000160 92 36 84 3d df 87 e0 bc b7 f0 ab bc b4 9a 11 bc
       0.06455721 -0.027408538 -0.020988805 -0.008886982
000170 fb e7 59 3d 56 b4 33 bd 61 b9 a6 3d f5 be 88 bd
       0.05319975 -0.043873154 0.08140827 -0.06677047
000180 09 17 67 b9 5e 9c 91 bb 52 c8 45 bd 5a c1 1d bd
       -0.00022038458 -0.0044436892 -0.048286743 -0.038514473
000190 39 32 4a bc bd 9d 1c bc d2 9b 4b bd 29 b7 62 bd
       -0.012341076 -0.009559092 -0.04970915 -0.055350456
0001a0 21 6e 9a bc c2 9b f8 bc 0e 07 b2 3c ec 3c ba bb
       -0.018851342 -0.030347709 0.02173188 -0.005683532
0001b0 ec 60 b5 bc fa 58 0e bd 6d 13 24 3c b5 1f 29 3c
       -0.022140943 -0.034752823 0.010014397 0.010322501
0001c0 cf 3f 37 3c e4 5b e6 bb 28 b2 f0 bc af bd 84 bd
       0.011184647 -0.007029997 -0.029381827 -0.06481492
0001d0 70 db 99 bd d2 cc 97 bd d3 4d 10 bd 9c 79 4b bd
       -0.075125575 -0.07412113 -0.03523047 -0.049676523
0001e0 57 da 10 bd 4f 69 4e bd 78 88 9b 3b c2 73 62 bb
       -0.035364475 -0.0503934 0.004746493 -0.003455386
0001f0 a3 30 79 bb e2 0c 16 bd 24 4d 9a 3c ac 9e 8d 3c
       -0.0038023375 -0.03663338 0.018835612 0.017287575

network_body._body_endoder.seq_layers.2.weight f4 [128, 128]
000000 dd bd c7 3d 5a 5a 45 bd bc 21 cf bd 8f a1 47 bd
       0.097530104 -0.04818187 -0.10113856 -0.04873806
000010 c8 65 c0 bc fe 3e 01 be a9 e6 e3 3d a1 fb 02 bc
       -0.023486033 -0.12621686 0.11127979 -0.007994563
000020 46 ec ad 3d 59 d4 10 bd 42 6e 30 bd a9 cc 8d bd
       0.08492331 -0.03535876 -0.0430739 -0.069238015
000030 7f b2 49 3d cc 13 9a bd 9a 7e 95 3c c0 da 60 3d
       0.049242493 -0.07523307 0.018248845 0.054896116
000040 d6 4f 3c 3d 79 f0 cd bc ae de 32 bd 53 30 11 3e
       0.045974575 -0.02513908 -0.043669395 0.1417859
000050 e1 bf cb 3d 69 ef 47 3e dd 6e 83 be d2 b1 c2 bd
       0.09948707 0.19524921 -0.2567052 -0.09506573
000060 5c 3a 16 bc 4c f1 4b 3c a8 e6 a4 bd 38 16 8e bd
       -0.009169187 0.012447666 -0.08051807 -0.06937832
000070 bb a1 42 bd b8 00 57 3e 48 d8 b5 3d 9d 63 c6 3d
       -0.04751752 0.20996368 0.08879143 0.096869685
000080 83 b8 34 be 56 88 17 be 9f bd ea bc 94 78 84 bd
       -0.1764851 -0.14798102 -0.028654872 -0.06468311
000090 6d 4e ae bc 7b 7c 0d be 3a ee a6 bd ab 18 2d 3e
       -0.02127763 -0.13817017 -0.08150907 0.16903941
0000a0 eb 5c 32 bd 35 26 e4 3d 35 45 8c 3c 27 b4 23 3d
       -0.043545645 0.111401 0.017122844 0.03996673
0000b0 9d d8 23 bc 54 1e ad 3a b5 0e a9 3d 2b 08 f6 3b
       -0.010000375 0.0013207891 0.08254758 0.007508298
0000c0 8d 5c 4f 3d 72 ec 10 bd ff 01 6e 3c 9f 42 80 bd
       0.050625373 -0.03538174 0.014526843 -0.06262707
0000d0 c7 3a c3 bd 96 50 32 3e d0 39 bc bc 78 93 f5 3c
       -0.09532695 0.17413554 -0.022976786 0.029977545
0000e0 3a 9a 90 bd 6f f8 1d be 3b 69 d2 3d 40 c7 b5 bd
       -0.070606664 -0.15426801 0.10273977 -0.088758945
0000f0 92 c0 6c 3d ad 7a 55 bd 3f 75 6a bd a1 0d 1e bd
       0.057800837 -0.052118946 -0.05724072 -0.038587216
000100 9e b3 3d bd dc a8 cc bd 76 18 a8 bd 51 7e ab 3d
       -0.046313874 -0.09993145 -0.082077906 0.08373702
000110 67 b0 b9 bd da 32 48 bc 2f bb c4 bd 79 cb 89 bd
       -0.09066849 -0.012219155 -0.09606015 -0.067282625
000120 02 4c 2d 3d a2 05 1f 3d 1c 65 5a bc d3 e1 bf 3d
       0.042308815 0.03882373 -0.01332977 0.093692444
000130 04 a0 81 3c 9f 1b 7a 3a 14 8e 2b be 5d 1d 40 bc
       0.015823372 0.0009540859 -0.16753417 -0.011725751
000140 36 59 43 bc 24 97 99 bd 6d cd 7b 3d c8 ca 7d 3d
       -0.011923125 -0.07499531 0.061475206 0.061960965
000150 31 f7 5b 3d 56 b5 c6 bd 95 00 0e bd 41 a4 bf 3c
       0.053702537 -0.09702556 -0.034668524 0.023393752
000160 c4 bb ca 3d 9a 77 af 3d e1 59 92 bd 35 9c e0 bc
       0.09899095 0.08567734 -0.07146049 -0.027418235
000170 03 a2 3c bd e4 5b d1 bc b2 0b c0 bd b6 01 10 be
       -0.046052944 -0.025556512 -0.09377231 -0.14063153
000180 8c c2 da 3d 26 23 bc 3c 22 2b fd 3c 79 ae 47 be
       0.10681638 0.022965979 0.030904356 -0.1950015
000190 04 aa 17 be ec 88 0c 3c 98 dd 28 bc 0c 1f 25 bd
       -0.1481095 0.008577567 -0.010306738 -0.04031281
0001a0 cd 33 f4 bc c7 45 05 3e 5c ba 54 bd e5 c6 16 bd
       -0.029809857 0.13014899 -0.05193554 -0.036810774
0001b0 45 2d 64 be a1 7e be bc 10 c6 75 3b 8d ef 00 bd
       -0.22282894 -0.02325374 0.0037502088 -0.031478453
0001c0 5d a6 86 3d e6 fa a6 3c 54 bc 86 3d 7f 8b 07 bc
       0.065747 0.02038331 0.065788895 -0.008273005
0001d0 b6 6d 01 bd 9a 52 40 3d b5 2f dc bd 4c 7a 26 be
       -0.03159877 0.046953775 -0.10751287 -0.1625759
0001e0 4a 63 3d be f5 ca a6 3c 46 e2 48 bb 68 fb f1 bd
       -0.18494907 0.02036045 -0.0030652448 -0.1181553
0001f0 30 13 bf bd b8 e9 a6 bd b9 4b 36 be 87 33 39 3d
       -0.093298316 -0.08150047 -0.17802323 0.045215156
000200 68 c7 5c ba 80 59 5f 3d cc 2c 20 3d 0e 5d d9 bd
       -0.0008422048 0.054528713 0.03910522 -0.10613452
000210 0e 05 29 3e cc 8c 9c bd 76 c8 a8 3b 86 e6 4d bd
       0.16505834 -0.076440424 0.00515085 -0.050268672
000220 e7 62 9d 3d d2 b3 82 3d 96 31 39 bd b8 88 ef 3b
       0.0768488 0.06381954 -0.045213304 0.0073099993
000230 c0 29 82 3d 3b 5a 16 be 78 92 21 3d 56 49 63 bc
       0.063556194 -0.14682858 0.039446324 -0.013872465
000240 f3 1a 29 3c f3 63 dd 3d e4 f2 ae bd bd 21 ff 3d
       0.010321367 0.108100794 -0.085424215 0.12457607
000250 0d 3d 27 be 38 9c b0 bd c3 78 2b bd 35 b6 c8 b9
       -0.16331883 -0.08623546 -0.041863214 -0.00038282727
000260 ae c9 82 3d 8d 0f 34 3b 4e 37 dd 3d 58 5d 80 be
       0.063861236 0.002747509 0.10801564 -0.25071216
000270 cd 69 7d 3d b3 9b 02 be 10 20 21 3d e7 6b c6 3d
       0.061868478 -0.12754707 0.039337218 0.096885495
000280 ec 76 2f bc 5e db aa bd aa 57 16 be 48 ef 02 3e
       -0.0107095055 -0.08342622 -0.14681879 0.12786591
000290 f8 04 de 3b fc 93 48 3c 3f d7 05 bd ed b6 38 be
       0.0067754947 0.0122423135 -0.032675978 -0.1803853
0002a0 42 6c 63 3d aa 69 84 bc 87 3a 6b 3d 4b 03 ab bd
       0.055523165 -0.016163666 0.057428863 -0.083502375
0002b0 c0 1c a2 3d f1 2a 5c 3d 2f 50 7f 3c 86 df 51 bd
       0.0791564 0.05375189 0.015583082 -0.05123856
0002c0 c1 22 26 be 62 40 11 3e a3 d4 80 bb ec 2e 80 bc
       -0.16224195 0.14184716 -0.0039315983 -0.015647374
0002d0 20 f7 79 bc 5d 58 15 3e e8 97 8c 3d 86 ea d8 bd
       -0.015256673 0.14584489 0.06864911 -0.10591607
0002e0 7c 19 6a bd 30 49 02 bd 82 cf 12 be 1e 43 82 bc
       -0.05715321 -0.03180808 -0.1433697 -0.015901145
0002f0 c6 59 e0 bd 37 b6 87 3d 6c de 9c 3b f0 2c 62 3d
       -0.10954623 0.066265516 0.004787257 0.055218637
000300 c6 1f c8 3d 56 ee df 3d b6 c4 d0 bd 0f 0d 58 bd
       0.09771685 0.10934131 -0.1019377 -0.05274683
000310 f5 c1 50 bd 6a ca 34 bd 84 fd 63 3d 1d 92 39 be
       -0.05096622 -0.04413835 0.055661693 -0.18122144
000320 6c 17 41 bd 08 45 2e 3d 92 30 a7 3d 52 5a 32 be
       -0.047141477 0.042546302 0.08163561 -0.17417267
000330 22 c8 ae 3d 1e 18 10 be 18 33 2b bd 6e bb 29 be
       0.08534266 -0.140717 -0.041796774 -0.16575405
000340 47 c2 dc 3b 12 0f b2 bc 56 d2 58 bd aa 4e c4 3c
       0.006737027 -0.021735702 -0.052934967 0.023963291
000350 a9 19 df 3d f0 28 43 3d e7 d6 20 bd 51 1e 00 3d
       0.10893566 0.047646463 -0.039267447 0.031278912
000360 55 63 2f 3c da a9 82 3c da 21 ae 3c d4 ff e0 bc
       0.010704835 0.015950132 0.021256376 -0.027465738
000370 87 de ba bd de 0c 97 bc d0 57 2d be 12 2e 85 3d
       -0.09124475 -0.018438753 -0.16928029 0.06502928
000380 c1 4a 9c 3d f4 bf 9f 3d f3 7d 05 be d9 61 92 bd
       0.07631446 0.07800284 -0.13036327 -0.07147569
000390 6e f0 18 bd 1d d1 89 3d e6 e6 cb bd fb 7c 1a 3e
       -0.037338667 0.06729338 -0.0995615 0.15086739
0003a0 27 ac c9 bd 60 52 03 bd ae 38 ca bd d7 f5 56 3c
       -0.098472886 -0.03206098 -0.09874092 0.013120136
0003b0 f5 61 8d bd 9d 1a c6 bc 5b a0 17 be 2f 1a 5e bd
       -0.069034494 -0.024182612 -0.14807265 -0.05422419
0003c0 cd 81 0e 3d 8e 4d 01 bd cf 4f 19 3e fd f2 22 3e
       0.034791756 -0.031568103 0.14971851 0.15913005
0003d0 88 5f a8 bd 38 32 b3 3d 29 75 3a bb 9c 43 d5 3c
       -0.08221346 0.08749813 -0.002845118 0.026033215
0003e0 dc ff e6 3d 96 17 3f 3b 19 3f a8 bc 85 62 09 be
       0.1127927 0.0029158345 -0.0205379 -0.13416488
0003f0 89 a7 69 3d a3 51 ac 3c f8 fc 00 bc a8 d3 32 bd
       0.05704454 0.021035021 -0.007872812 -0.043658882

network_body._body_endoder.seq_layers.2.bias f4 [128]
000000 54 3c 37 bc 90 04 87 bc 3a ab 85 bb d9 9f 28 3c
       -0.011183817 -0.016481668 -0.0040792497 0.010292017
000010 af 16 8d bb 5a 5a 3d bb 7f ad 7e 3c 69 f6 44 bc
       -0.0043056826 -0.0028892965 0.015544294 -0.012021639
000020 ae 75 91 bc c0 95 33 bd a0 74 85 bc ac 14 21 bb
       -0.01775631 -0.043843985 -0.016290963 -0.0024578972
000030 4b 75 00 3c 66 c3 5a bc 05 b3 60 bc 70 1e b1 3b
       0.007840465 -0.013352251 -0.013714557 0.0054052398
000040 28 ea 31 3c c7 d2 cd bb 9b ab 06 3c f1 50 c9 b6
       0.01085905 -0.00628123 0.008219625 -5.9996896e-06
000050 3f 15 b4 3b 31 23 99 bc 57 be c8 3a 78 46 33 bc
       0.005495697 -0.018693538 0.0015315515 -0.010942094
000060 7c 3c 8a bc 5f be 1a aa d5 b4 d5 bc 5c 2c 01 bc
       -0.016874544 -1.3743996e-13 -0.026087204 -0.007884111
000070 cc 1a 20 3c 8c 7c be bc a2 8e 5b 3a 25 73 91 bc
       0.009772014 -0.023252748 0.0008375441 -0.0177551
000080 a7 4a 9d bc 36 0b ad 3a 99 95 2a bc 34 9d f9 bb
       -0.019200636 0.0013202194 -0.010411643 -0.007617617
000090 78 4d 2b 35 b5 82 f4 bc 88 de cb bc 2e 7c 9c bc
       6.3815196e-07 -0.029847482 -0.024886385 -0.019102182
0000a0 4f 01 70 bc 20 8f de bc 6d 36 c0 3b 2e 91 2f ba
       -0.0146487495 -0.027167857 0.005865863 -0.00066973537
0000b0 88 34 c0 bc 10 bc b2 bb 10 a9 05 bd ad a0 6f b3
       -0.023462549 -0.0054545477 -0.032631934 -5.5792658e-08
0000c0 f2 b2 1a bc 4d 87 73 bc 34 89 81 bc 96 5f 41 bb
       -0.009442078 -0.014863801 -0.015812494 -0.0029506437
0000d0 fb ec a5 bc ec 53 14 3c e2 2f 0c b9 f4 da 93 bc
       -0.020254603 0.009053212 -0.00013369278 -0.01804874
0000e0 02 79 d4 bc 9f 4c f8 bc d3 d4 57 bc 5f 48 8d ba
       -0.025936607 -0.030309973 -0.0131733 -0.0010779015
0000f0 21 24 37 bd 75 22 f3 bc db b7 7c bc 80 f5 8f bc
       -0.04471219 -0.029679516 -0.015424694 -0.017573118
000100 2d 26 03 bc b5 d5 f5 ba 62 c8 4e bb 44 fc 4b b9
       -0.008004707 -0.0018755706 -0.0031552543 -0.00019453565
000110 a0 cd c7 bc 7a 6a 8f bc 10 a3 ea 3b 8a 32 b3 bc
       -0.024390042 -0.017506827 0.007160552 -0.021874685
000120 13 58 3d bc f4 6a 32 bc 34 28 54 bc 69 ae b9 ba
       -0.011556643 -0.010889757 -0.012949038 -0.0014166358
000130 ea aa f7 ba 88 94 2d bc 94 8d 49 bc ad ef 5a 3b
       -0.0018895541 -0.010594495 -0.012301821 0.0033407018
000140 5a 4d 9a bb 6c 9d af bc 62 47 10 bc 51 29 83 bc
       -0.004708928 -0.02143737 -0.0088060815 -0.016010912
000150 0a dc 0a 3b c0 48 fc bc c3 70 3d 3b 5f 43 b8 bb
       0.0021188282 -0.030796409 0.0028906323 -0.0056232656
000160 4e 3b 81 38 dd d3 b9 bc d4 7b ce ba d9 1f 73 bc
       6.162246e-05 -0.022684032 -0.0015753456 -0.014839136
000170 ff 99 c6 39 2a fa 32 bc a2 30 87 bc eb 4d 17 bc
       0.0003788024 -0.010923902 -0.016502682 -0.009234886
000180 f5 4c ca bc fe 20 b2 bc 4c 76 a2 bb 51 fb d3 bb
       -0.0246949 -0.021744248 -0.0049579497 -0.0064691682
000190 c3 0c c1 bb bc 14 8d bc 91 12 84 bc 9d e3 4c bb
       -0.005891414 -0.017221801 -0.016122134 -0.0031263598
0001a0 f7 91 60 bc ac 49 4f bc ce eb e3 3a 62 79 8f 3b
       -0.013706676 -0.012651842 0.0017389001 0.0043784836
0001b0 ee 05 56 bb 8b 8b b5 bc 8c 9e 5b 3b 40 54 84 3c
       -0.0032657343 -0.022161266 0.003351125 0.016153455
0001c0 54 b0 dc bc 51 33 80 b8 40 e6 d2 bb f2 c3 91 bc
       -0.026939549 -6.113074e-05 -0.0064361393 -0.01779363
0001d0 ec a2 cf bb ae 25 d5 32 68 a3 2a 3b 49 b5 08 bb
       -0.0063365605 2.4813598e-08 0.002603734 -0.0020860007
0001e0 7d 43 3d bc 4b 72 2f bc 73 f0 7a bc 11 c3 0b bd
       -0.011551735 -0.010708402 -0.015316117 -0.034121577
0001f0 ff d8 9c 3a 9f 23 09 3c 35 af ed 3b a0 07 1a bb
       0.0011966525 0.008370309 0.0072535523 -0.002350308

action_model._continuous_distribution.log_sigma f4 [1, 4]
000000 02 fd a2 3e ce 58 45 3e 9c d1 2c bb d1 39 04 3f
       0.31833655 0.19272158 -0.0026370054 0.5165072

action_model._continuous_distribution.mu.weight f4 [4, 128]
000000 aa 1b 8b bc 48 f7 04 bd db f1 ae bc 6b 7a 6e bc
       -0.016980965 -0.03246239 -0.02135556 -0.014555554
000010 37 33 45 bb 83 06 02 3c 41 a0 c2 bc 0d 0d c4 3b
       -0.003009034 0.007936123 -0.023758056 0.005983001
000020 df 0e a5 bc b8 3d d7 bb 1d c7 b3 bb 12 43 07 bd
       -0.020148693 -0.0065686367 -0.0054863826 -0.033022948
000030 b5 c4 8c bb 9b a1 01 3b 3f b0 0d bd 68 3b df ba
       -0.0042959102 0.0019780162 -0.03459191 -0.0017031254
000040 be 50 82 3c 2a a1 90 3c 86 7c 4f 3c 5d 0c 7d bc
       0.015907642 0.017654974 0.012663966 -0.015444842
000050 6e 2a 0a bd 07 19 93 bc 7a a6 fe bc f3 53 cc bc
       -0.03373187 -0.01795627 -0.031085242 -0.024942374
000060 0c 57 0f bd 06 9f 83 bc e0 c9 13 bb 20 0f 90 3c
       -0.034995124 -0.01606704 -0.0022550747 0.017585337
000070 56 d8 0d bd 68 45 b6 3c 03 04 2a bd b7 c8 68 bc
       -0.034630142 0.022249892 -0.041507732 -0.01420801
000080 d8 92 9e bb bd c9 e1 bc d9 82 33 3d 9f 5c 90 bb
       -0.0048392825 -0.027562017 0.043825958 -0.0044055725
000090 01 29 d4 bc fc f9 b4 ba 49 f6 cd bb 9e bb 2f 3c
       -0.025898458 -0.0013807411 -0.006285463 0.010725884
0000a0 1a 5a 55 39 20 e1 f9 3b 92 c6 8b bd 62 02 b7 bc
       0.00020346828 0.007625714 -0.06824984 -0.022340003
0000b0 07 cf aa ba 82 69 94 bb 99 e8 56 3b 4e 59 05 3c
       -0.001303167 -0.004529179 0.0032792448 0.008138968
0000c0 2e f2 98 3c f6 65 d8 bc cd f9 e6 bb 85 99 0d bd
       0.018670168 -0.026415806 -0.0070488215 -0.034570236
0000d0 9b ae 59 3d 7c cc 86 3c 7d cd 7c bb fa dc 37 bd
       0.053145032 0.016454928 -0.003857463 -0.044888474
0000e0 07 87 49 bc 97 31 9e 3c 71 99 22 3d d3 95 bf bc
       -0.012300259 0.019310756 0.039697114 -0.023386871
0000f0 d9 8f 49 3c 9b 93 7a bb b4 3a 48 bb 1b e3 a6 bc
       0.012302362 -0.0038234952 -0.0030552568 -0.020371964
000100 0f 32 fd 3b fa ba 06 3d 0a 4f f1 bc e1 28 c9 3c
       0.0077269147 0.03289316 -0.029456634 0.024555625
000110 ad a3 6b bc 16 40 0b bd 3e 95 14 bd e7 12 0a bc
       -0.014382285 -0.033996664 -0.03627514 -0.008427358
000120 f0 84 59 bd 07 c7 6f 3c 2c 49 d4 3a 83 40 42 bb
       -0.053105295 0.014634854 0.0016196123 -0.0029640503
000130 77 22 9c bb 46 bb 21 ba be 49 42 bc 9e 5f 28 3b
       -0.0047648507 -0.00061695685 -0.011858402 0.0025691758
000140 7f a8 6b bc f7 78 51 bc 96 8d af bc 10 8f f4 3d
       -0.014383434 -0.012785188 -0.021429818 0.119413495
000150 19 a1 1c 3d db 3c 8b bc e2 e7 8f bc 6a 1b c8 3c
       0.038239572 -0.016996792 -0.017566625 0.024427135
000160 1d c8 1b 3d 50 ac 8e 3c 32 66 9a 3c 72 05 3b bc
       0.03803264 0.01741615 0.018847559 -0.0114148725
000170 a8 73 4e bc 0b 57 2c 3b ef 23 5b 3c 3f 5d d5 bc
       -0.012600817 0.0026297 0.013375266 -0.02604544
000180 bf 84 e3 3c 50 54 89 bc e4 f3 01 bd 1a e6 aa 3c
       0.02777326 -0.016763836 -0.031726733 0.020861674
000190 09 6f 9b bc 80 e4 d0 3c 36 52 71 bc 66 73 0e 3c
       -0.018973844 0.025499582 -0.014729073 0.008694505
0001a0 c2 d0 17 bd d0 9c 0f bd 7c 0e 94 3c fc 60 df bc
       -0.03706432 -0.035061657 0.018073313 -0.027267925
0001b0 6f 77 6a bc 68 21 7e 3b 02 1c dc bc 1d a7 07 bd
       -0.014310702 0.0038777236 -0.026868824 -0.033118356
0001c0 33 1c eb 3c e2 51 6c bc 8c e9 3d 3c 6a fa ed ba
       0.02869997 -0.014423819 0.011591326 -0.0018156294
0001d0 50 90 cf 3b d4 7d c0 ba 39 64 20 bd f3 b0 5d 3b
       0.006334342 -0.0014685937 -0.03915808 0.0033827394
0001e0 79 c3 09 bc fc 27 e8 3a bc b3 53 3c db 99 e0 3c
       -0.008408421 0.0017712112 0.01292127 0.027417114
0001f0 75 22 85 bc 43 d7 ff 3c 69 79 37 bd b0 b9 a8 3a
       -0.016251782 0.031230574 -0.04479352 0.0012872722
000200 03 67 24 bc ee f5 c6 3b 48 2f a4 3a 5a fa d4 3c
       -0.0100343255 0.0060717976 0.0012526298 0.025998283
000210 91 e1 de 3c 05 2e 23 3c 54 a6 83 3a bc d0 d8 3b
       0.027207168 0.009959702 0.0010044076 0.00661668
000220 84 f5 0d 3c 38 7d a7 bc 83 18 11 3c 35 4a bb 3c
       0.0086644925 -0.020445451 0.008855942 0.022862533
000230 f8 e6 80 3c b0 38 b8 bb 99 a1 36 3c 0c b4 f5 3c
       0.015735134 -0.005621992 0.011146926 0.02999308
000240 a3 5f ae 3c cd 69 d1 3c d3 36 2c 3d ee a7 80 bc
       0.021285838 0.025563145 0.042044472 -0.015705075
000250 6e c7 97 3c 32 0c f6 3c 2a df ea bc 98 82 fb 3c
       0.018527713 0.030035112 -0.028670866 0.03070192
000260 cb f6 ef bb f0 6b 00 3c 50 e2 3b bb 9d 25 5a 3d
       -0.007323121 0.007838234 -0.0028668828 0.053258527
000270 75 ff 3d 3c 53 5c d5 bb 19 53 9c 3c 17 66 b2 3c
       0.01159655 -0.00651125 0.019082593 0.021777196
000280 36 3d c7 3b 01 e0 54 bc 91 d5 2a 3c 82 55 2e 3c
       0.006080295 -0.01299286 0.010426895 0.010640504
000290 5b 7b 93 3c 0a 3a 9a bb df a2 4b 3c 97 07 a9 39
       0.018003156 -0.004706626 0.012428968 0.00032239847
0002a0 13 7c 31 3d f6 27 cb ba 9d b4 93 3c 2d d8 24 bc
       0.043331217 -0.001549958 0.018030459 -0.010061306
0002b0 db fc a9 bc 94 d2 2f 3a ca 16 35 3b e1 c4 7b bb
       -0.020750454 0.0006707099 0.0027631992 -0.003841691
0002c0 e4 fb 82 ba f8 10 d6 39 89 f8 69 3c fd d2 9e bc
       -0.0009993282 0.00040829903 0.014280447 -0.019387716
0002d0 95 47 11 3d c4 95 92 3c 2a b5 3f b9 76 0a 6e 3a
       0.035468657 0.01789368 -0.00018282668 0.00090805383
0002e0 15 c3 9e 38 85 0b c2 bb 8b 63 d7 3b 03 74 11 bd
       7.570364e-05 -0.0059217834 0.0065731457 -0.035511028
0002f0 b3 76 c3 bb 10 d5 32 bc 1e f4 e2 ba c0 a0 08 bd
       -0.005965078 -0.010915056 -0.0017315184 -0.03335643
000300 7d f4 fd 3c 18 62 8e 3c 3f d7 c6 3c d3 a1 94 3c
       0.03100037 0.01738076 0.02427256 0.01814357
000310 36 a8 93 3b 18 4b 0c bd 05 00 a3 bc 20 9d 68 3b
       0.0045061363 -0.034251302 -0.01989747 0.0035494044
000320 c0 58 ab bc c8 22 49 3c 0b db f9 3b 44 19 9d 3c
       -0.020916343 0.012276359 0.007624989 0.019177087
000330 ea 04 5a 3c 66 a8 e6 3c ca 24 5b bb 9f 36 a7 bb
       0.013306836 0.02815647 -0.0033438676 -0.005102947
000340 a0 e9 b2 3c 3c 8d 13 3c e2 7d 24 bd 51 f7 00 3c
       0.021839917 0.009005841 -0.040159114 0.007871465
000350 40 8a ad bb 28 18 5c 3c 48 36 0e 3d ba 9a 5e 3c
       -0.0052960217 0.013433494 0.034719735 0.013586694
000360 85 4c 81 3b 74 00 4e bc 4a 4f 87 3c f0 e3 a3 3c
       0.0039458894 -0.01257335 0.0165173 0.02000615
000370 6f 04 ec bc f0 7e 02 3d 23 01 a8 bc 9a ef 57 3d
       -0.028810708 0.03185934 -0.020508355 0.052718736
000380 a6 99 5c 3c b3 7f b6 bc 67 a2 00 3c 77 b6 cd 3c
       0.013464367 -0.022277689 0.00785122 0.02511142
000390 69 83 4e 3b ca db 72 3b 4e d2 3b 3b b4 c8 1c bd
       0.0031511432 0.0037057274 0.0028659287 -0.038277343
0003a0 00 a1 a2 3c 9e 56 ae bb 1b 71 98 bd 0f fc 6c 3c
       0.019852161 -0.005320384 -0.07443448 0.014464392
0003b0 20 4e 51 bc 48 cc a6 ba 63 b4 86 3c 6c 69 37 3c
       -0.012774974 -0.0012725675 0.016443437 0.011194568
0003c0 36 0a 09 bc 99 c3 72 bc 3e a2 85 3c e7 ee 2c 3c
       -0.008364251 -0.014817142 0.016312715 0.010555006
0003d0 a0 96 f0 bb ee 25 a2 3c 17 e3 37 bc 9f ac 00 3c
       -0.0073421746 0.019793477 -0.011223576 0.007853656
0003e0 53 61 ed bb e1 f9 3f 3b 89 49 5e 3c 14 16 39 3b
       -0.007244268 0.0029293227 0.013567337 0.002824192
0003f0 b7 fe 9c 3c f5 c5 8a 3a 8e 08 2e 3c 1a 3b 71 bc
       0.019164426 0.001058756 0.010622157 -0.014723564

action_model._continuous_distribution.mu.bias f4 [4]
000000 02 54 2c bc 67 9c 2b 3a 9b 02 c6 bc 4c e2 75 3c
       -0.010518076 0.0006546438 -0.024171164 0.015007567

exp_avg f4 [128, 9]
000000 5d 49 68 3a ad 0a 93 39 90 44 01 b8 1b db 79 39
       0.00088610296 0.0002804598 -3.081985e-05 0.00023828114
000010 19 fc b3 b9 d3 a6 74 39 fc ff a3 b8 ba 58 b6 3c
       -0.00034329368 0.000233318 -7.8201265e-05 0.022259105
000020 e6 bb 94 3c 64 ad 6f ad 3f 43 c0 ac f0 1e 12 ac
       0.018156003 -1.36240776e-11 -5.464434e-12 -2.0765022e-12
000030 0b de 1a ac 98 cc 73 2c ec 10 13 2c 2c 99 8d ab
       -2.2007975e-12 3.464595e-12 2.089935e-12 -1.0061166e-12
000040 ce 12 1b af 93 21 77 ae 88 fa e9 b9 3c 81 9a b9
       -1.4103849e-10 -5.6191118e-11 -0.00044627883 -0.00029469456
000050 96 c1 fc 38 67 51 11 b9 81 f3 99 b9 38 76 68 b9
       0.000120523546 -0.00013858602 -0.0002936386 -0.00022169284
000060 78 e6 88 b8 15 58 43 bc e5 1a 43 bc a8 29 1c b9
       -6.5279135e-05 -0.011922856 -0.011908268 -0.00014892837
000070 61 12 26 39 20 c8 2b b9 13 88 4b 38 71 3f 4e 39
       0.0001583784 -0.00016382383 4.85257e-05 0.00019669325
000080 eb a1 32 38 6e 7f 85 b7 9a 86 ce 3b dc 88 cf 3b
       4.2589305e-05 -1.5914175e-05 0.006302667 0.0063334536
000090 2b 3a 01 ba 53 8b 05 b9 fb 41 c5 b8 ee be 06 b8
       -0.0004929627 -0.0001273577 -9.405982e-05 -3.2125907e-05
0000a0 61 e0 af b9 0e 56 69 b9 01 5b 8c 38 29 00 f6 ba
       -0.00033545776 -0.0002225267 6.692671e-05 -0.0018768358
0000b0 f9 f5 49 bb 7c cf 26 3a 96 9f b6 39 29 72 5b b8
       -0.0030816777 0.0006363315 0.00034832646 -5.231999e-05
0000c0 b3 8c 25 39 8c 2f c2 b9 97 69 49 39 23 d4 63 b9
       0.00015788041 -0.0003703799 0.00019208189 -0.00021727434
0000d0 be 47 88 3c 80 17 3b 3c 19 aa 7b 34 95 78 d2 b4
       0.016635772 0.011419177 2.3438078e-07 -3.9203283e-07
0000e0 61 39 ec 33 14 84 30 b4 90 eb 68 b5 66 5a 88 b4
       1.10000435e-07 -1.6439327e-07 -8.6769523e-07 -2.5397748e-07
0000f0 f1 13 5b 33 8a 80 87 b7 bb cb 8a b6 1c 96 93 26
       5.1008048e-08 -1.615311e-05 -4.136438e-06 1.0240861e-15
000100 54 67 ce 25 ba 25 0d 25 20 d6 f5 24 e5 b6 b3 a5
       3.5805321e-16 1.2242583e-16 1.06614555e-16 -3.1175484e-16
000110 43 66 51 a5 24 87 86 24 1f ad 00 28 72 f7 21 27
       -1.8162508e-16 5.8342174e-17 7.142967e-15 2.2477379e-15
000120 87 04 15 ba 6f a0 c1 38 b5 0e d0 b8 eb db 00 b8
       -0.00056845736 9.23284e-05 -9.920952e-05 -3.0722393e-05
000130 a1 97 32 b8 eb db d5 b8 fd 07 4c 38 2f 2c 21 bb
       -4.2579723e-05 -0.000101975944 4.864483e-05 -0.0024592986
000140 8a d9 5b bb e1 fa 1a 24 d7 ec fe a6 92 e8 9b 26
       -0.0033546411 3.360593e-17 -1.7688986e-15 1.0818324e-15
000150 b2 79 73 27 1a d7 88 a7 96 34 a7 a6 17 8a f3 26
       3.3788996e-15 -3.7980796e-15 -1.1602206e-15 1.6898942e-15
000160 77 a0 53 2a 1a 8b a3 2a 34 01 3e 39 1b 1d 16 b9
       1.8796237e-13 2.9051138e-13 0.0001812026 -0.00014315957
000170 7a 3e 27 38 e7 44 cc 37 12 37 39 38 c8 c9 5a b8
       3.987409e-05 2.435078e-05 4.4158725e-05 -5.2163174e-05
000180 46 28 03 39 01 77 45 3a 48 5e 22 3b 44 68 1c 39
       0.00012508137 0.00075326866 0.0024775434 0.00014916161
000190 42 ac fd 38 2f 71 9a b6 38 9a 69 38 c2 4f fc 38
       0.000120960656 -4.602734e-06 5.5695156e-05 0.000120311524
0001a0 80 a4 6f 38 1b d5 26 38 06 16 8a 3b 3c d6 ae 3b
       5.7135243e-05 3.9775954e-05 0.004214051 0.0053355973
0001b0 6b 49 62 39 2b 7d 3b b8 3d e7 7a b8 0a 76 34 b7
       0.0002158039 -4.4700846e-05 -5.9820002e-05 -1.0756319e-05
0001c0 ac 72 5e b9 ce 44 e3 b7 ee c0 eb b8 df 69 e1 3a
       -0.00021214288 -2.7092548e-05 -0.00011241609 0.001719769
0001d0 75 6f 09 3b 58 4d f7 a3 2d 07 3c a3 ed 0c 8c a2
       0.0020970975 -2.681255e-17 -1.019302e-17 -3.796076e-18
0001e0 47 c7 89 a2 40 a0 07 23 7e 1b a2 22 ea b3 04 a2
       -3.7344918e-18 7.352299e-18 4.3939296e-18 -1.7984582e-18
0001f0 ef 00 8b a5 62 38 d1 a4 fe f7 1d 39 fd e2 4a b8
       -2.411329e-16 -9.073482e-17 0.00015065071 -4.8371952e-05
000200 bd 49 ad 38 54 3e 91 b8 34 7d 12 b8 03 d1 ea 37
       8.263018e-05 -6.925748e-05 -3.4925717e-05 2.7992302e-05
000210 77 40 c0 b8 7d 93 bc bb a1 d0 1f bb 87 f7 df 38
       -9.167281e-05 -0.0057548867 -0.0024385827 0.00010679574
000220 c1 96 0c b9 04 88 54 b8 f3 c8 66 b8 1d 9d a7 39
       -0.000134076 -5.0671413e-05 -5.502342e-05 0.0003196978
000230 cc 51 91 b8 7c 0c f5 b6 06 a6 78 bb 01 e5 89 ba
       -6.929375e-05 -7.3030224e-06 -0.0037940755 -0.0010520519
000240 63 06 ea 39 e3 06 b5 b8 e4 7e 3a 37 ba c7 e3 37
       0.00044636716 -8.632035e-05 1.1116008e-05 2.7153514e-05
000250 95 d2 55 b8 92 66 30 38 25 6c 07 b8 f8 d1 44 3b
       -5.0979277e-05 4.2057196e-05 -3.2287226e-05 0.0030032378
000260 71 a9 20 3b a3 fd 39 a0 4a a6 86 9e 00 7e 0c 1e
       0.0024515057 -1.5754031e-19 -1.4256577e-20 7.4375945e-21
000270 18 d4 cb 1e 00 87 c4 1f 7b 52 4f 1f 6e fa f0 1c
       2.1581181e-20 8.323257e-20 4.390218e-20 1.5946602e-21
000280 fb 57 9e 21 e2 0d 6d 21 57 0d c9 b9 84 1a 1c b8
       1.0729785e-18 8.0317097e-19 -0.00038347646 -3.7217993e-05
000290 5c a1 63 b8 25 5d 19 37 0e f4 75 b8 92 fb c0 b8
       -5.4271295e-05 9.141198e-06 -5.8639846e-05 -9.202132e-05
0002a0 88 af 98 38 b8 6e 88 3a 28 68 04 3b 28 46 4a ba
       7.28062e-05 0.0010408973 0.0020203684 -0.00077161426
0002b0 97 0b 23 b9 c6 b2 88 36 d5 b1 20 b9 77 f9 99 b9
       -0.00015549209 4.073928e-06 -0.00015325037 -0.000293683
0002c0 59 b5 97 b9 1e 70 84 37 36 c4 5b bc 65 66 5c bc
       -0.0002893608 1.5787835e-05 -0.01341348 -0.013452147
0002d0 0c 18 4d 3a df 86 78 39 d0 cf 3b b7 94 a4 b1 38
       0.00078237127 0.00023701366 -1.1194454e-05 8.470673e-05
0002e0 91 69 a1 b9 85 5b 98 39 91 02 90 b9 a0 e2 2a 3c
       -0.00030786966 0.00029059887 -0.00027467732 0.010430008
0002f0 d2 37 04 3c ca 1b 33 39 1f 85 b0 b9 b2 ae f1 38
       0.008069949 0.00017081122 -0.0003366852 0.00011524315
000300 96 5d 21 b8 cf a3 95 39 13 e4 34 b8 75 23 e9 36
       -3.847255e-05 0.00028541542 -4.3127755e-05 6.948069e-06
000310 27 76 9b bb e9 11 9e bb 97 c6 a5 b7 6f ec 8d b9
       -0.0047443095 -0.0048239124 -1.9762008e-05 -0.00027069772
000320 71 2a c0 38 0c 25 fc b8 08 ce 8d 37 5d bc 34 b8
       9.163179e-05 -0.00012023197 1.690445e-05 -4.309077e-05
000330 74 1e 90 b7 0f 19 37 bc 46 00 1e bc 3a 19 c8 38
       -1.7180319e-05 -0.011175408 -0.00964362 9.541442e-05
000340 40 f7 2c 36 a5 0f a8 37 46 5f ba 36 fc 39 9c 38
       2.5773916e-06 2.0034446e-05 5.5543233e-06 7.44946e-05
000350 c6 e7 9d 35 8d 3e c1 b6 db ad 02 3a 23 8b 1e 39
       1.1764866e-06 -5.75913e-06 0.0004985013 0.00015119887
000360 c3 b9 d6 ac e6 33 c6 ab 08 dc 54 ab 77 9b 12 a8
       -6.1028695e-12 -1.4083151e-12 -7.5622885e-13 -8.138339e-15
000370 19 42 6a 2c 29 2b b8 2b c8 cc 53 aa 93 3b 92 aa
       3.3290092e-12 1.3085966e-12 -1.8811612e-13 -2.5976148e-13
000380 92 99 d7 2c ea 9a 94 b9 c6 99 1b 39 fc 47 7d b8
       6.1277173e-12 -0.0002834418 0.00014839237 -6.038694e-05
000390 72 d8 0c b8 5f d6 46 39 f3 89 01 b7 02 92 c9 38
       -3.358018e-05 0.00018962611 -7.721118e-06 9.611623e-05
0003a0 96 94 90 bb 93 e7 64 bb 1c 84 11 b8 34 f9 26 39
       -0.004412244 -0.0034928068 -3.469373e-05 0.00015923829
0003b0 be 3f db b8 ea 95 23 37 e7 0e d6 39 26 eb 10 38
       -0.00010454607 9.750462e-06 0.00040828364 3.4551274e-05
0003c0 c1 ee f1 b7 3a 84 1c 3b fa 6d 21 3b c5 34 17 38
       -2.8840617e-05 0.0023882524 0.0024632202 3.605035e-05
0003d0 39 2c eb b8 19 e5 10 b7 a8 f1 7f b8 fe a1 56 b9
       -0.0001121391 -8.63641e-06 -6.1021798e-05 -0.00020468977
0003e0 0e 91 5d b8 ef 32 db b8 04 60 7a bb 1c 69 14 bb
       -5.28256e-05 -0.00010452221 -0.0038204202 -0.0022645658
0003f0 33 bf ba 38 f3 de 86 37 f9 93 4f b7 d6 9e 46 38
       8.904785e-05 1.6077864e-05 -1.2372614e-05 4.7354806e-05

exp_avg_sq f4 [128, 9]
000000 e2 2f 9e 36 e0 8c 7c 35 76 ba 80 34 c0 61 cc 34
       4.7143412e-06 9.4082316e-07 2.3977526e-07 3.8069084e-07
000010 e9 8f 8a 36 a1 93 d1 34 4c 02 02 34 a3 de 2d 3b
       4.129474e-06 3.9036698e-07 1.2108029e-07 0.0026530407
000020 d9 3e e8 3a 39 f0 2b 21 64 a9 d2 1f 4f f7 ab 1e
       0.0017718925 5.8254986e-19 8.921869e-20 1.8207614e-20
000030 62 5c d3 1e f1 b1 8c 20 79 51 d1 1e 51 96 cc 1d
       2.2378703e-20 2.3834674e-19 2.2162432e-20 5.4153774e-21
000040 df a3 19 3d 63 5c a5 23 0d 71 2b 36 25 bc db 34
       0.037509795 1.7928463e-17 2.554679e-06 4.0928822e-07
000050 49 11 04 34 f7 5c 58 34 b3 1e 17 36 0a c0 76 34
       1.2299746e-07 2.0150388e-07 2.2518623e-06 2.2980399e-07
000060 8b 30 85 33 e3 ec d9 3d e3 d5 9d 3a b8 e1 38 36
       6.202125e-08 0.10640886 0.0012041893 2.7549522e-06
000070 a5 16 03 35 f5 d3 e5 33 92 7c 64 34 17 0a 07 36
       4.8834255e-07 1.0702198e-07 2.1279473e-07 2.012244e-06
000080 c0 36 70 34 dc 81 76 33 38 c3 bc 3a ff 57 86 3a
       2.237166e-07 5.7394445e-08 0.0014401441 0.0010249614
000090 0e a3 c7 35 13 d3 99 34 36 6f 96 33 29 68 eb 33
       1.487411e-06 2.8652047e-07 7.0051485e-08 1.0961987e-07
0000a0 ff 16 a6 35 8f dd 12 34 41 06 15 33 2e 81 3b 3a
       1.2374657e-06 1.3677912e-07 3.4697454e-08 0.0007152733
0000b0 30 c1 f9 39 10 61 13 36 b9 08 e4 34 27 de e3 33
       0.00047636917 2.1961205e-06 4.2474656e-07 1.06109205e-07
0000c0 06 50 33 34 3e 21 db 35 7a d9 4a 34 fd 3f 65 33
       1.6699786e-07 1.6326446e-06 1.8891834e-07 5.3376414e-08
0000d0 1a d9 99 3a 43 a4 38 3a 30 5e 18 31 d4 bf af 2f
       0.0011737675 0.000704352 2.217245e-09 3.1968617e-10
0000e0 01 6e de 2d 84 7c 75 2e e3 6f 79 30 dd 99 92 2e
       2.528733e-11 5.5817143e-11 9.0744673e-10 6.666643e-11
0000f0 e3 0b c5 2d 9e b8 ea 34 ca 60 e5 32 ba db 17 21
       2.2401586e-11 4.3720223e-07 2.6703123e-08 5.1451596e-19
000100 b3 c5 e2 1d 0d dd 22 1e bd 2a 64 1e 4b 89 96 1f
       6.002612e-21 8.621921e-21 1.20790576e-20 6.37546e-20
000110 65 d6 c7 1e b4 53 2b 1c bd 2a 64 3d e2 62 90 23
       2.1158616e-20 5.668734e-22 0.05570482 1.565439e-17
000120 e8 3f 89 35 04 0c 3b 34 94 92 3e 33 4b 10 9b 33
       1.0225895e-06 1.7420103e-07 4.4371134e-08 7.2207136e-08
000130 d0 9e 4a 35 d5 a7 bd 33 27 0f b7 32 29 6d f9 39
       7.5481967e-07 8.831527e-08 2.1310894e-08 0.00047574312
000140 07 a2 ad 39 d5 e1 f0 1f 34 2d 2c 1d 9e 5f 6a 1d
       0.0003311785 1.0201756e-19 2.278738e-21 3.1019075e-21
000150 59 17 af 1d 4f 7d 85 1f 46 20 8e 1c 3d 49 ae 1a
       4.6346255e-21 5.6534997e-20 9.405114e-22 7.2083036e-23
000160 29 a7 ae 3c 4f e9 e0 22 15 48 07 36 42 e8 c4 34
       0.021319943 6.0962347e-18 2.0158525e-06 3.6676835e-07
000170 6b 1c d7 33 f1 e4 21 34 d5 10 ce 35 64 3d 37 34
       1.0016887e-07 1.5077582e-07 1.5353095e-06 1.7065537e-07
000180 18 57 43 33 bd 72 88 3a 3e b9 36 3a 28 6c 92 34
       4.5481187e-08 0.0010410171 0.0006970352 2.7273313e-07
000190 60 ef 23 33 45 92 26 32 3b 76 aa 32 9e 8c 6c 34
       3.8169105e-08 9.6957296e-09 1.984437e-08 2.2030369e-07
0001a0 53 62 c3 32 d8 f4 eb 31 f8 cc b0 3c 2a 0b 18 39
       2.27457e-08 6.8672357e-09 0.021582112 0.00014500009
0001b0 3f 8d 8e 36 62 7f 50 35 f7 3a 51 34 30 d7 b5 34
       4.248373e-06 7.7671405e-07 1.9486093e-07 3.3870447e-07
0001c0 93 df 55 36 97 c3 ba 34 e5 74 cb 33 85 19 18 3b
       3.186961e-06 3.478751e-07 9.474187e-08 0.002320857
0001d0 36 5d d6 3a a5 44 9c 20 a1 ee 60 1e 78 f0 b4 1d
       0.0016354683 2.6472853e-19 1.19078086e-20 4.7894242e-21
0001e0 ec de 08 1e 20 9b 84 20 6a 48 9b 1e 99 f9 54 1b
       7.245879e-21 2.2464323e-19 1.6441213e-20 1.7616878e-22
0001f0 ec de 08 3d 70 f1 2e 23 2e ac 2a 36 81 af f9 34
       0.03341572 9.483685e-18 2.5432196e-06 4.650756e-07
000200 cf 56 09 34 b5 75 4e 34 91 e5 0a 36 bb 5f 5b 34
       1.27907e-07 1.9228067e-07 2.0697228e-06 2.0430791e-07
000210 df cf 82 33 59 13 04 3c 5a 49 54 3a 47 1e 3e 36
       6.091408e-08 0.0080612535 0.00080980884 2.832983e-06
000220 a7 a5 01 35 96 e2 0f 34 3a da 5e 34 e2 49 0e 36
       4.82973e-07 1.3400344e-07 2.0754752e-07 2.1202654e-06
000230 f0 14 69 34 44 fd 7c 33 d9 47 c7 3a a3 a0 67 3a
       2.1707433e-07 5.8903666e-08 0.0015203907 0.00088358874
000240 27 20 9c 35 1d b9 6e 34 c0 62 6d 33 aa 54 bc 33
       1.1632263e-06 2.2232821e-07 5.5270675e-08 8.7698325e-08
000250 36 13 82 35 48 c9 d3 33 3b b1 f9 32 53 da 17 3a
       9.691346e-07 9.862066e-08 2.906801e-08 0.0005792726
000260 37 4f dd 39 8e d4 88 20 41 e9 75 1d d6 37 7e 1d
       0.00042211424 2.3179953e-19 3.254607e-21 3.3645487e-21
000270 0a ef af 1d 4d 69 19 1f ec 9a 58 1e 1d 31 9d 1b
       4.6569275e-21 3.2486113e-20 1.1466982e-20 2.600521e-22
000280 0a ef af 3c c6 0d df 22 92 6e f4 34 a2 1b a2 33
       0.021476287 6.0458854e-18 4.5528992e-07 7.548739e-08
000290 7b 89 a9 32 f9 be 03 33 64 0c af 34 6d 80 0e 33
       1.9736708e-08 3.0674503e-08 3.2605305e-07 3.3178754e-08
0002a0 f8 fd 21 32 22 81 65 39 f4 5a f7 38 29 06 5e 36
       9.429179e-09 0.00021887248 0.00011794819 3.3084164e-06
0002b0 65 df 1b 35 23 ab 1f 34 a6 a0 92 34 f5 4a 43 36
       5.806708e-07 1.4870288e-07 2.7311506e-07 2.9100895e-06
0002c0 b4 7b a1 34 33 d8 bf 33 f6 f0 6c 3d 68 e9 ca 3a
       3.0078593e-07 8.933457e-08 0.057846986 0.0015480937
0002d0 e5 b4 59 36 68 d7 28 35 8e 3f 20 34 c4 51 87 34
       3.2440814e-06 6.2898334e-07 1.4924282e-07 2.5205202e-07
0002e0 94 82 2d 36 6a 40 a1 34 fa 8f a9 33 1e a1 eb 3a
       2.5855015e-06 3.0035454e-07 7.895865e-08 0.0017977094
0002f0 5d 5c 8c 3a 5d ce 0a 36 fb 96 f4 34 6b 22 df 33
       0.0010708679 2.0683722e-06 4.5558394e-07 1.0390507e-07
000300 66 2b 34 34 bd f6 de 35 8e 1a 43 34 82 3e 69 33
       1.6779595e-07 1.6612099e-06 1.8170451e-07 5.430639e-08
000310 83 86 9d 3a 3b eb 24 3a 02 d2 30 35 83 74 03 34
       0.0012018237 0.00062911556 6.587071e-07 1.2242712e-07
000320 b9 c9 f9 32 e0 ca 46 33 20 1d 0f 35 5e 07 6f 33
       2.9079148e-08 4.628498e-08 5.3314034e-07 5.5653224e-08
000330 8f 28 81 32 31 19 a6 39 42 a2 62 39 da b4 3d 34
       1.503602e-08 0.00031680756 0.00021613485 1.766779e-07
000340 38 a7 37 33 e0 fd 1a 32 1c 01 30 32 db fc eb 33
       4.2760092e-08 9.021704e-09 1.0244801e-08 1.09890344e-07
000350 56 00 4f 32 f8 d2 79 31 40 6d a9 38 e1 7a 66 37
       1.2049062e-08 3.635419e-09 8.0788974e-05 1.3737678e-05
000360 58 ff 6b 22 90 f9 52 21 1a c7 77 1f 77 2a 07 20
       3.1983617e-18 7.148106e-19 5.2468977e-20 1.1448995e-19
000370 b6 31 3e 22 6b 97 0b 20 fa 2e f6 1e 00 ce 0a 3d
       2.5776118e-18 1.1823858e-19 2.6065692e-20 0.033887863
000380 6f 89 a7 24 c0 f3 99 35 b2 88 56 34 f7 7d 65 33
       7.2657527e-17 1.1470329e-06 1.9980033e-07 5.343278e-08
000390 20 21 b0 33 54 3e 7e 35 b3 b7 d3 33 df b7 ce 32
       8.201664e-08 9.4713073e-07 9.858868e-08 2.4065171e-08
0003a0 6f 5e 10 3a ee 48 d0 39 9b d6 3f 36 ea a8 e5 34
       0.0005507236 0.00039727188 2.8586135e-06 4.2777475e-07
0003b0 88 d7 fd 33 36 2e 5d 34 4b a7 05 36 67 a3 6c 34
       1.18204355e-07 2.059904e-07 1.9915922e-06 2.2038658e-07
0003c0 d6 d4 80 33 04 09 ae 3a a4 db 8f 3a 2e 7f 25 36
       5.999179e-08 0.0013277833 0.0010975492 2.4660944e-06
0003d0 b1 2e ec 34 9a b4 f9 33 b8 c8 43 34 56 ef fe 35
       4.3992398e-07 1.1627817e-07 1.8233811e-07 1.8994131e-06
0003e0 99 22 57 34 ab d6 6d 33 a7 26 ae 3a e1 4b 40 3a
       2.0036022e-07 5.5376102e-08 0.0013286666 0.00073355256
0003f0 38 39 5e 35 c0 5e 25 34 d8 31 23 33 8b 8e 83 33
       8.278471e-07 1.5401292e-07 3.7996728e-08 6.126091e-08

exp_avg f4 [128]
000000 1b db 79 39 0b de 1a ac 66 51 11 b9 17 88 4b 38
       0.00023828114 -2.2007975e-12 -0.00013858601 4.8525715e-05
000010 f0 be 06 b8 b1 8c 25 39 17 84 30 b4 22 d6 f5 24
       -3.2125914e-05 0.00015788038 -1.6439331e-07 1.0661457e-16
000020 ec db 00 b8 b3 79 73 27 e3 44 cc 37 39 9a 69 38
       -3.0722396e-05 3.3788998e-15 2.4350773e-05 5.569516e-05
000030 17 76 34 b7 47 c7 89 a2 54 3e 91 b8 ef c8 66 b8
       -1.0756331e-05 -3.7344918e-18 -6.925748e-05 -5.5023407e-05
000040 b8 c7 e3 37 18 d4 cb 1e 24 5d 19 37 d4 b1 20 b9
       2.715351e-05 2.1581181e-20 9.141197e-06 -0.00015325035
000050 8d a4 b1 38 96 5d 21 b8 0c 25 fc b8 43 5f ba 36
       8.470668e-05 -3.847255e-05 -0.00012023197 5.554322e-06
000060 7e 9b 12 a8 71 d8 0c b8 da 95 23 37 a8 f1 7f b8
       -8.138345e-15 -3.3580178e-05 9.750447e-06 -6.1021798e-05
000070 d5 9e 46 38 8a 42 ed b8 e0 4f a7 31 b3 ae ab b8
       4.7354803e-05 -0.000113134345 4.8694204e-09 -8.186456e-05
000080 12 1b 3b 38 26 dd fa 37 6d 66 1d b7 4c 26 a2 b8
       4.4609485e-05 2.9905303e-05 -9.381777e-06 -7.731895e-05
000090 e1 ff 40 b8 ef d3 80 38 49 35 20 b9 26 07 57 38
       -4.6014673e-05 6.142991e-05 -0.0001527864 5.1266652e-05
0000a0 d7 5b 09 37 7e e5 98 ac 64 1d 04 39 e9 d4 10 39
       8.1872195e-06 -4.3455786e-12 0.0001259945 0.00013812225
0000b0 2a 18 de b7 2e d5 ca 37 69 d6 af b6 54 36 ab 37
       -2.6475715e-05 2.4179546e-05 -5.240367e-06 2.0410087e-05
0000c0 7e f6 98 34 0d 81 5a a2 7b 31 23 b9 57 e9 4b b7
       2.8491553e-07 -2.9612828e-18 -0.00015563324 -1.2154072e-05
0000d0 e5 58 82 25 80 1d bf b0 7e c2 46 39 36 1b a7 38
       2.2611642e-16 -1.3905463e-09 0.00018955205 7.968249e-05
0000e0 61 ab 92 9e be 54 4a 39 bb 94 97 b7 c5 f2 4e 9c
       -1.5529232e-20 0.0001929579 -1.806986e-05 -6.8473455e-22
0000f0 64 7c 2e b2 43 f4 90 2d 66 10 d5 38 47 5d 4d b7
       -1.0156416e-08 1.6479379e-11 0.00010159686 -1.224067e-05
000100 96 ac 99 a4 d9 f5 2b 1e 39 bc a9 b8 2c f4 d0 b8
       -6.6645545e-17 9.103505e-21 -8.093607e-05 -9.9636934e-05
000110 10 2f 88 26 8d 39 cb 35 fb b1 93 b8 3f b8 94 b7
       9.449652e-16 1.5141428e-06 -7.042658e-05 -1.7728771e-05
000120 ac bc bb 38 45 81 72 38 08 7a e2 92 af 86 06 35
       8.951998e-05 5.7817688e-05 -1.4292688e-27 5.011488e-07
000130 10 29 76 b8 8d db 81 b8 b8 ca 78 25 97 25 44 a8
       -5.8689213e-05 -6.192094e-05 2.1579255e-16 -1.0888337e-14
000140 83 d4 de 1f 6d 21 8e b8 62 4a bb 37 9b 16 3b b7
       9.437223e-20 -6.777314e-05 2.2326774e-05 -1.1151332e-05
000150 89 7d d1 b8 cb 2c 5f ae 3c 9b 21 39 db 5a 84 89
       -9.989279e-05 -5.0744114e-11 0.00015411986 -3.1863284e-33
000160 71 62 ca b7 2f 2c 01 b9 58 6b 0b b9 66 3a 1d ab
       -2.4126117e-05 -0.00012318858 -0.00013296062 -5.585865e-13
000170 dd 50 be 38 9e 9e 0e 39 42 6c 3e b7 b8 e0 25 b9
       9.074968e-05 0.00013601265 -1.1350088e-05 -0.0001581934
000180 92 f9 36 ab d4 c0 c0 2f 62 17 32 39 67 0f d2 38
       -6.500574e-13 3.506161e-10 0.00016984114 0.00010016449
000190 4e 45 75 b8 d4 a7 af 25 91 a9 62 b6 73 f5 c4 b6
       -5.8477097e-05 3.0471386e-16 -3.3775325e-06 -5.8698292e-06
0001a0 5a e3 b9 37 78 66 86 2f 59 08 03 30 a3 b5 2e 38
       2.2159587e-05 2.4447266e-10 4.7669385e-10 4.1653995e-05
0001b0 b6 ce e9 b8 b0 c0 49 ae 46 6e 40 b9 5d de 7a 9d
       -0.00011148809 -4.587325e-11 -0.00018351627 -3.3202184e-21
0001c0 ca 40 cf ab c7 66 a6 36 dc 14 5a 38 33 9a 6a 38
       -1.4726217e-12 4.9591504e-06 5.1994677e-05 5.5933557e-05
0001d0 ac e4 a9 38 90 be b5 32 3d 10 5b b0 17 0f 55 b7
       8.1011414e-05 2.1157831e-08 -7.969481e-10 -1.2699303e-05
0001e0 f3 a1 1f b7 49 a8 1c 36 d1 75 ac b8 e3 4d 86 38
       -9.514845e-06 2.3343766e-06 -8.223544e-05 6.4041255e-05
0001f0 aa 27 28 2d 3c b5 9e 37 ef 20 74 b8 b5 89 26 2d
       9.5585016e-12 1.8919462e-05 -5.8204805e-05 9.466585e-12
