VirtualAquarium/results/VirtualAquariumReproducao8/VirtualAquarium/VirtualAquarium-729.onnx (onnx, 101016 bytes, 12 tensors)

action_model._continuous_distribution.log_sigma f4 [1, 3]
0	0xbb808417	-0.0039219963
1	0x3b3c044b	0.0028689082
2	0xbc081f6d	-0.008308274

action_model._continuous_distribution.mu.bias f4 [3]
0	0x397f3949	0.00024340035
1	0xbb9678fe	-0.00459206
2	0xb9a80624	-0.00032048032

action_model._continuous_distribution.mu.weight f4 [3, 128]
0	0xbc0b4ead	-0.0085026445
1	0xbcf1d821	-0.029522004
2	0x3c069382	0.00821388
3	0x3c98a100	0.018631458
4	0xbca42365	-0.020036409
5	0xbd41168e	-0.04714065
6	0x3c163113	0.009166974
7	0xbc3ee931	-0.011652277
8	0xbbd9f767	-0.006651807
9	0xbd3d0e2e	-0.0461561
10	0x3bb0c2c1	0.00539431
11	0xbc103a5a	-0.008802975
12	0x3c8ea90f	0.017414598
13	0x3c5357a6	0.012899315
14	0xbc3b0a6a	-0.011416057
15	0xbb64ba0f	-0.0034900939
16	0xbc077e87	-0.008269913
17	0x3c5a3368	0.01331792
18	0x3cc42462	0.02394313
19	0x3d2e8f6b	0.042617243
20	0xbcd6d9b0	-0.026226848
21	0x3bff1d5c	0.0077854823
22	0xbaa7581d	-0.0012767349
23	0xbd0e8a37	-0.03479978
24	0xbc2e73cc	-0.010647725
25	0xbbaef783	-0.0053395643
26	0xbc4117e7	-0.011785484
27	0x3a9fbde9	0.0012187335
28	0xbd104dbc	-0.035230383
29	0xbc1f2b9e	-0.009714989
30	0x3bf810b2	0.0075703496
31	0x3c0bccf7	0.008532754
32	0x3c7be5a3	0.015374574
33	0x3cdece22	0.027197901
34	0x396826f9	0.00022139763
35	0x3cf4644a	0.029832978
36	0xbbacc2bf	-0.005272239
37	0x3cf3d9a7	0.02976687
38	0x3cb8b18a	0.022545595
39	0xbaa2b558	-0.0012413664
40	0x3c91f4de	0.017816957
41	0xbc397c5d	-0.011321154
42	0xbc58eb07	-0.013239629
43	0xbb68ee44	-0.0035542408
44	0x3c7c21b5	0.015388896
45	0xbd00f1d3	-0.03148062
46	0xba7b9b39	-0.000959802
47	0x3b9c96cd	0.004778719
48	0xbb418f99	-0.0029535054
49	0x3a015671	0.000493384
50	0x3b2d84ae	0.0026476788
51	0xbc24a1f0	-0.0100483745
52	0xbc12610c	-0.008934271
53	0xbcbd4c0d	-0.023107553
54	0xbb6d758b	-0.003623339
55	0xbba2768c	-0.0049579795
56	0xbc81969b	-0.015818885
57	0xbbd90b45	-0.006623658
58	0xbc9140ba	-0.01773106
59	0x3c2ce839	0.010553413
60	0xbc2c74c5	-0.010525887
61	0xba4d8074	-0.00078392704
62	0x3ad00343	0.0015870113
63	0xbc5e5af1	-0.013571487
64	0x3c0e5bac	0.0086888485
65	0x3c4811a6	0.012211239
66	0xbccdebca	-0.025136847
67	0xbbf3023d	-0.0074160383
68	0xba98c361	-0.0011654907
69	0x3a91dbeb	0.0011128163
70	0xbc7ebeac	-0.015548389
71	0xbc8c4947	-0.017124785
72	0xbc07d122	-0.008289607
73	0xbd151501	-0.036396984
74	0xbcd61367	-0.026132299
75	0xbc7a5403	-0.015278819
76	0xbc55872f	-0.013032719
77	0xbb90c55a	-0.0044180574
78	0x3c7fa39e	0.015602974
79	0xbd0dcaac	-0.03461711
80	0xbc065a0a	-0.008200178
81	0x3a252ff6	0.0006301397
82	0x3b802d82	0.003911675
83	0x3c25441d	0.01008704
84	0xbbcb3666	-0.006201553
85	0xbbaeeef1	-0.0053385426
86	0xbceac78c	-0.028659604
87	0xbc5e4d8c	-0.013568293
88	0x3cada929	0.021198826
89	0xbaf5c734	-0.0018751384
90	0xba35f37c	-0.0006940884
91	0xbb0a76b3	-0.002112788
92	0xbc59a471	-0.013283835
93	0x3c7cfd12	0.015441196
94	0xbaf51c9c	-0.0018700543
95	0xbbd418f3	-0.0064727007
96	0xbc7404a5	-0.0148936855
97	0x3c2f50e9	0.010700443
98	0x3b9ac5bf	0.00472328
99	0x3c7fbe54	0.015609343
100	0x3bb60572	0.0055548484
101	0x3cb4e240	0.02208054
102	0x3b2e663a	0.0026611225
103	0x3caf5a1d	0.021405274
104	0xbc34afbd	-0.011028227
105	0xb965e6dc	-0.00021925144
106	0xbca1cb59	-0.019750284
107	0x3d37a8b8	0.044838637
108	0xbc13304b	-0.008983682
109	0x3cb852da	0.022500444
110	0x3c6ae374	0.014336456
111	0x3bbe9ceb	0.005817046
112	0xbc4c2a0d	-0.012461198
113	0xbc4ba56e	-0.012429578
114	0xbc4853f5	-0.012227048
115	0x3c999d12	0.018751655
116	0x3c2b3ca1	0.010451467
117	0x3c4556d3	0.012044626
118	0xba7963ec	-0.0009513486
119	0x3d2f7804	0.042839065
120	0x3cb3d265	0.02195091
121	0xbced8a2b	-0.028996548
122	0x3afacaa9	0.0019133884
123	0xbb2f9a7f	-0.0026794968
124	0x3b7b547e	0.0038349922
125	0xbc4f38c3	-0.01264781
126	0xbbdc7ec0	-0.006728977
127	0x3c807480	0.015680552
128	0x3c0c4b65	0.008562897
129	0x3a51631c	0.0007987486
130	0xbae95618	-0.0017802147
131	0xbd2608b9	-0.040535662
132	0x3ac25ae9	0.0014828119
133	0xbbae84e0	-0.0053258985
134	0xb8842307	-6.300775e-05
135	0x3ba747af	0.005104981
136	0xbc27e3b4	-0.01024716
137	0xba815237	-0.0009866421
138	0xb9dc9033	-0.00042069107
139	0xbd4259a8	-0.047448784
140	0x3c5962e2	0.013268204
141	0x3c2f5b51	0.010702924
142	0xbd22354e	-0.039601617
143	0xbc9f654d	-0.019457484
144	0xbc5a35cc	-0.01331849
145	0xbb914ef8	-0.0044344626
146	0x3cf0c195	0.029389182
147	0x3c4300b9	0.011902028
148	0xbbdb94bb	-0.0067010797
149	0x3c816a5f	0.015797792
150	0xbd1aa496	-0.037754618
151	0xbcb97f69	-0.022643762
152	0x3c969bea	0.018384892
153	0x3c7c068e	0.015382422
154	0xbc4b436d	-0.012406212
155	0x3ccdf84e	0.025142815
156	0xbce36ffb	-0.027763357
157	0x3babda86	0.005244556
158	0x3b910239	0.004425314
159	0xbb8a6454	-0.004223386
160	0x3c894908	0.016758457
161	0xbbe97d62	-0.0071255425
162	0xbb803c29	-0.0039134216
163	0x3c4645c5	0.012101595
164	0xbb6829f6	-0.0035425401
165	0x3ca121f6	0.019669514
166	0x3cb9e55a	0.022692371
167	0xbc1a9967	-0.009435988
168	0x3a8fa29a	0.0010958493
169	0x3b88be97	0.0041731107
170	0xbc29c6cc	-0.010362338
171	0xbbad7a2e	-0.005294106
172	0x3c6890b8	0.01419466
173	0x3ca633d0	0.020288378
174	0xbb86b7c5	-0.0041112625
175	0xbcb5dd74	-0.022200324
176	0x3c65a4cd	0.014016342
177	0x3c02ade5	0.00797603
178	0xbcb3c398	-0.021943852
179	0x3bcc8f53	0.0062426715
180	0x3c9b5c82	0.01896501
181	0x3ced5259	0.02896993
182	0xbcd4a37e	-0.025956865
183	0xba7d23ef	-0.00096565386
184	0x3d686874	0.05674024
185	0xbb18faec	-0.002334292
186	0xbca0dd96	-0.01963691
187	0x3b5bed7e	0.0033558304
188	0x3b903ed1	0.0044020195
189	0xbcaa1827	-0.02076347
190	0x3cb221f8	0.021744713
191	0x3c43e7d4	0.011957128
192	0xbb219da5	-0.0024660614
193	0x3cf260f7	0.029587252
194	0x3c0eb989	0.008711227
195	0x3b52c3a8	0.0032160077
196	0x3a7b6938	0.0009590569
197	0xbba6d100	-0.0050908327
198	0x3af90026	0.0018997237
199	0xbc953c76	-0.018217307
200	0xbca0f824	-0.019649573
201	0x3c990bf4	0.018682458
202	0xbc237dea	-0.009978751
203	0xbc5bf013	-0.013423937
204	0x3b99fdc0	0.004699439
205	0x3ce6f81f	0.028194485
206	0xbb378952	-0.0028005433
207	0x3adc6124	0.0016813618
208	0x3d156118	0.03646955
209	0x3c893b27	0.016751839
210	0xbc32ef35	-0.010921289
211	0x3c095dfc	0.008384224
212	0xbc3e0204	-0.01159716
213	0xbd01aa55	-0.031656582
214	0xbbac9aba	-0.0052674683
215	0x3c2a819a	0.010406876
216	0xbba20bea	-0.004945268
217	0x3bde0cc1	0.0067764227
218	0xbc09263d	-0.008370933
219	0xbc4db97a	-0.012556428
220	0x3c925a2a	0.01786526
221	0xbd1a4015	-0.03765877
222	0x3b9182cd	0.0044406415
223	0xbc873973	-0.016506886
224	0x3c43b1eb	0.011944274
225	0x3c97bb3f	0.018521903
226	0x3bbe9a19	0.0058167097
227	0x3b96f2e0	0.0046065897
228	0x3cc39500	0.02387476
229	0xbcc40c6d	-0.023931706
230	0x3caafd68	0.020872787
231	0xbb42cd76	-0.0029724515
232	0x39e6b57c	0.00044004235
233	0xbb792b07	-0.003802003
234	0x3ccc97ce	0.02497473
235	0x3c70756f	0.014676436
236	0x3a34b3de	0.00068932574
237	0x3c057c54	0.008147318
238	0xbc876d74	-0.016531684
239	0xbc14d24b	-0.009083341
240	0x3cd41a0a	0.025891323
241	0xbc645390	-0.0139359385
242	0x3c8d7ae6	0.017270517
243	0x3cbd77d4	0.023128428
244	0x3ce34c35	0.0277463
245	0x3c62adcf	0.0138353845
246	0xbc9a5a70	-0.018841952
247	0x3c427739	0.011869245
248	0x3b010842	0.001968876
249	0x3c9f0513	0.0194116
250	0x3d17f21b	0.037096124
251	0xbc87c067	-0.016571237
252	0x3c941ecc	0.018081091
253	0x3ca02026	0.01954658
254	0x3c6aa5be	0.014321743
255	0xbbcf4b33	-0.006326103

action_model._discrete_distribution.branches.0.bias f4 [2]
0	0x3b4edf69	0.0031566268
1	0xbb4edf64	-0.0031566257

action_model._discrete_distribution.branches.0.weight f4 [2, 128]
0	0xb6f6c448	-7.3542215e-06
1	0xbbbfd94c	-0.005854761
2	0x3b5bcfa3	0.003354051
3	0x3b4451bc	0.0029955944
4	0xbbf9cd6c	-0.007623365
5	0x3c3f3123	0.01166943
6	0x39e75c6e	0.0004412862
7	0xbb3cab30	-0.002878856
8	0x390aba51	0.00013230114
9	0xbb7f2122	-0.003892966
10	0x3b57d6ea	0.0032934495
11	0xbc1db617	-0.009625933
12	0x3a36c9a7	0.00069727976
13	0xbc0ff90d	-0.008787406
14	0xbb22ac73	-0.0024822026
15	0x3a512670	0.0007978445
16	0x3a3e043b	0.0007248555
17	0xbc26bdcb	-0.010177086
18	0xbc8b2d25	-0.0169893
19	0xbb6b116e	-0.0035868543
20	0x3b69cf2d	0.0035676465
21	0x3c531a12	0.012884634
22	0xbba7a420	-0.005116001
23	0xbbbe6ff4	-0.0058116857
24	0xbca9fb5c	-0.02074974
25	0x3a8d9322	0.0010801295
26	0x3c601c77	0.013678662
27	0x3b074079	0.0020637794
28	0x3bcdc558	0.0062796287
29	0x3c03110c	0.00799967
30	0xbb14cb6c	-0.0022704257
31	0xbc3bbf96	-0.011459252
32	0x3b0e5aa7	0.0021721513
33	0xbbc687cc	-0.0060586687
34	0xbbee2c23	-0.007268445
35	0xbaf02b15	-0.0018323386
36	0x3a4d703f	0.00078368554
37	0x3c55d3ee	0.013051016
38	0xbc6026ae	-0.013681097
39	0xbc46bd6d	-0.012130124
40	0xb8309d94	-4.2108426e-05
41	0x3bdae924	0.0066806246
42	0xbb14c9c1	-0.0022703263
43	0xbc2563b7	-0.010094575
44	0xbc3df6b0	-0.011594459
45	0x3be4a3b1	0.0069775213
46	0x3bc26eec	0.005933633
47	0xbc35586b	-0.011068444
48	0xbc96c4c3	-0.01840437
49	0x3c21169b	0.00983205
50	0x3bd66162	0.0065423707
51	0xba955ef1	-0.0011396093
52	0xbba953f8	-0.0051674806
53	0x3b899f0f	0.0041998695
54	0xbc4f795b	-0.012663211
55	0x3b9eddce	0.0048482185
56	0x3bba2f9e	0.005681946
57	0xbc201f00	-0.009773016
58	0xbb6a6129	-0.0035763478
59	0xbbb37dc5	-0.0054776394
60	0xb9dc0bd2	-0.00041970477
61	0x3c52b6c5	0.012860958
62	0x3ba3b168	0.0049955137
63	0x3bb5174a	0.005526458
64	0x3c041d72	0.008063661
65	0x3b14d4a5	0.0022709754
66	0xba182973	-0.0005804516
67	0xbc614aa7	-0.013750709
68	0xbc0ec94a	-0.008714983
69	0x3a27be35	0.00063988875
70	0x3af97c4c	0.0019034236
71	0x3bbb4715	0.0057152607
72	0x3c1b1cae	0.009467287
73	0x3ca5c38f	0.020234851
74	0xbc058338	-0.008148961
75	0x3b8c70bf	0.0042859013
76	0xbb678c9f	-0.003533162
77	0xbbac6973	-0.005261594
78	0x3c03f2c0	0.008053482
79	0xbb7476cb	-0.0037302251
80	0xbc8678c9	-0.016415017
81	0x3b5df73d	0.003386929
82	0x3c8ddc1a	0.017316867
83	0x3b8d8b21	0.004319564
84	0xbc94ea3f	-0.018178103
85	0x3c4f9f37	0.012672237
86	0x3c30c68c	0.010789525
87	0x3b6f6e55	0.003653427
88	0x3baf40fe	0.005348324
89	0x3bb0ef33	0.0053996085
90	0xbb8f4564	-0.0043722857
91	0xbbc1526f	-0.0058997194
92	0xbafbd414	-0.0019212984
93	0xbc6d02d6	-0.014466008
94	0xbc165791	-0.009176151
95	0xbcc5f348	-0.024163857
96	0xbb5e7f2d	-0.0033950314
97	0x3ae6914b	0.0017590908
98	0x39b3c464	0.00034287863
99	0x3bbb370a	0.0057133483
100	0x3bbe1d46	0.0058018295
101	0xbc1d7f5a	-0.0096128825
102	0x3ae704b5	0.0017625304
103	0xbbc395ed	-0.0059688003
104	0x3bd2570c	0.006419068
105	0xbbb155c2	-0.0054118345
106	0x3bb3e3d8	0.0054898076
107	0x3c571aea	0.013128975
108	0x3cacc580	0.02109027
109	0xbb35ba39	-0.0027729406
110	0x3cb8255e	0.022478756
111	0xbb9d3f4d	-0.004798806
112	0xbbb4256c	-0.005497625
113	0x3b0f6ec7	0.0021886097
114	0xbc73b88a	-0.0148755405
115	0x3b93993a	0.00450435
116	0xbbb80676	-0.0056160046
117	0x3a324ac9	0.0006801305
118	0x3c96af11	0.018394025
119	0x3c8eda67	0.017438127
120	0x3b3fd661	0.0029272067
121	0xbbef4a0b	-0.007302528
122	0x3c345a95	0.011007925
123	0xbbfe8418	-0.0077672116
124	0xbc4fe8f1	-0.012689815
125	0xbc400336	-0.011719516
126	0x3ad304be	0.0016099436
127	0xbb9c11f9	-0.0047628847
128	0xbbe2e044	-0.006923707
129	0x3c96fa60	0.018429935
130	0xbc2395c9	-0.009984442
131	0x3a3da57f	0.00072344387
132	0x3bf0bea1	0.0073469435
133	0x3c1549a0	0.009111792
134	0xbb1b9d8f	-0.0023745035
135	0xbbb09a30	-0.0053894743
136	0x3bde7061	0.006788299
137	0x3b0dd093	0.0021639213
138	0xbc6a9ca1	-0.01431957
139	0xbcc61313	-0.024179017
140	0x3b008611	0.001961116
141	0x3b9547c2	0.0045556733
142	0x3b38ff19	0.0028228222
143	0x3c272944	0.01020271
144	0xbc6799dc	-0.014135804
145	0x3b5c417b	0.0033608365
146	0x3aa0f3b9	0.0012279666
147	0x3c4cc6a6	0.012498533
148	0xbc1ad36c	-0.009449821
149	0x3b2d81dd	0.002647511
150	0x3bd4fe38	0.006500032
151	0x3c224fd8	0.009906732
152	0xbada63ac	-0.0016661785
153	0xbb81ffc8	-0.003967259
154	0x3c5d233f	0.013497173
155	0xbc94d406	-0.018167507
156	0x3b973314	0.0046142433
157	0x3b9f26b5	0.004856909
158	0xbc64ac4e	-0.013957096
159	0x3adbfa5b	0.0016782986
160	0x3acfe655	0.0015861491
161	0xbc5bde16	-0.013419649
162	0xbbcab8a5	-0.006186562
163	0xbc0e72e1	-0.008694381
164	0xbb88b982	-0.004172505
165	0x3bc8e213	0.006130466
166	0xbc6af666	-0.0143409725
167	0x3c6fd4be	0.014638124
168	0xbb832ac9	-0.004002903
169	0x3c337c9b	0.010955001
170	0xbc37ae83	-0.01121104
171	0x3c1210c0	0.008915126
172	0xbb1844e6	-0.0023234426
173	0x3b873f4d	0.004127419
174	0x3c8120b7	0.01576267
175	0x3c3db013	0.011577624
176	0xbcc7d5ab	-0.024393877
177	0xbc0db86a	-0.008649925
178	0xbc3dc2aa	-0.011582056
179	0xbb35e841	-0.0027756842
180	0x3c893783	0.016750103
181	0x3b4202a3	0.0029603622
182	0x3b9e0d9f	0.004823401
183	0x3c31b89c	0.010847237
184	0xbc76c669	-0.015061953
185	0x3bb085bd	0.0053870366
186	0x3b4af48e	0.003096852
187	0x3bc17498	0.0059037916
188	0xbc64f138	-0.013973527
189	0xbb392728	-0.0028252099
190	0x3b934e35	0.004495407
191	0x3c67ecf5	0.014155616
192	0xbc0f3308	-0.008740194
193	0xbae7b6ce	-0.0017678381
194	0xbbbac981	-0.0057002907
195	0x3b54d641	0.0032476338
196	0xba022c32	-0.0004965692
197	0x3c627939	0.013822847
198	0xbae2e451	-0.0017310475
199	0xbbd88c07	-0.0066084894
200	0x3b2d8145	0.0026474756
201	0xbb9899b2	-0.004656994
202	0xbbd40763	-0.006470607
203	0xba6e3056	-0.0009086182
204	0xbcb90459	-0.022585081
205	0xbb0d6b05	-0.0021578681
206	0x3bf051ae	0.0073339557
207	0xbb0071af	-0.001959901
208	0xbae44501	-0.0017415584
209	0x3a4fa3bf	0.00079208234
210	0xbbc9a61c	-0.006153835
211	0x3b5ae171	0.0033398534
212	0xba210d05	-0.00061436027
213	0xbc09caf6	-0.008410206
214	0x3c80f7bf	0.015743135
215	0x3c9ba1a4	0.018997975
216	0x3c152899	0.0091039175
217	0x3c7ad3c0	0.015309274
218	0x3ca896a1	0.020579638
219	0x3bb16f9b	0.0054149157
220	0x3ccfbc23	0.025358265
221	0x3bb44b2e	0.005502126
222	0x3bc66231	0.006054186
223	0xb8ca1126	-9.635305e-05
224	0xbbda5c41	-0.0066638296
225	0x3c952457	0.018205805
226	0x3a8d181a	0.0010764629
227	0xbb08b993	-0.0020862564
228	0x3c31cd25	0.010852133
229	0x3a84867a	0.0010110878
230	0x3c5c9e7d	0.013465521
231	0xbc25c36d	-0.010117394
232	0xbb89213e	-0.004184871
233	0x3c77995c	0.015112247
234	0xbc32e72d	-0.010919374
235	0x3b2bef2b	0.0026235085
236	0xbb63abde	-0.0034739892
237	0x3b6a477f	0.0035748181
238	0x39e00388	0.0004272724
239	0x3c69deb9	0.014274293
240	0x3beed6cb	0.007288789
241	0xbc15cb15	-0.009142657
242	0x3a1efc50	0.0006064819
243	0xbc188b72	-0.00931059
244	0xbc7ce912	-0.015436428
245	0x3c553e87	0.013015396
246	0x3c837680	0.016047716
247	0xbc65dcb4	-0.0140296705
248	0x3c86803c	0.016418569
249	0xbba18389	-0.0049290103
250	0x3c649b51	0.013953046
251	0xbc883cf5	-0.01663063
252	0x3c4e1ad0	0.012579635
253	0x3b8273ae	0.0039810752
254	0xba66491d	-0.00087846984
255	0xbabbc547	-0.0014325761

action_model._discrete_distribution.branches.1.bias f4 [2]
0	0x3bd94031	0.0066299667
1	0xbbd94031	-0.0066299667

action_model._discrete_distribution.branches.1.weight f4 [2, 128]
0	0xbaf15c9e	-0.0018414443
1	0x3b8cc8c2	0.004296393
2	0x3c241efd	0.010017154
3	0xbc8fa6f2	-0.01753566
4	0xbc999549	-0.018747943
5	0x3c40b597	0.011762044
6	0x3c140297	0.009033821
7	0xbc77d671	-0.01512681
8	0x3c613bbd	0.013747153
9	0xbbe3dc97	-0.0069537866
10	0xbc98e437	-0.018663509
11	0x3ab51dc1	0.0013818071
12	0xbc98e952	-0.018665943
13	0x3cc56b5e	0.024099048
14	0xbaac3199	-0.001313734
15	0xbc7a79a0	-0.015287787
16	0xbc1ec622	-0.009690793
17	0x389999b7	7.32424e-05
18	0xbca05b66	-0.019574832
19	0xbc0ec9cf	-0.008715107
20	0xbbbed538	-0.0058237575
21	0x3b427460	0.0029671416
22	0x3b7f00d3	0.0038910403
23	0x3c4b4de6	0.012408709
24	0xbc41474b	-0.011796783
25	0xb9865368	-0.00025620614
26	0x3c6f940d	0.0146227
27	0xbca01168	-0.01953955
28	0xbc457fed	-0.012054426
29	0xbc2cecf5	-0.010554542
30	0xb99f9a39	-0.00030441748
31	0xbcc234de	-0.02370685
32	0xbc6a246e	-0.014290912
33	0xbc3840dc	-0.011245932
34	0xbaf975d1	-0.0019032304
35	0xbc3efebe	-0.011657415
36	0x3c70a799	0.014688396
37	0x3b1898eb	0.0023284506
38	0x3961fbf0	0.00021551526
39	0xbc3f2820	-0.011667281
40	0xbc19e2e2	-0.009392472
41	0x3c5127ec	0.012765866
42	0x3c10299e	0.008798985
43	0xbb9531d0	-0.0045530573
44	0xb98ba506	-0.00026635098
45	0xbc4cf0ae	-0.012508554
46	0x3c494e72	0.012286769
47	0xbc6993d6	-0.014256438
48	0xbc04d860	-0.008108228
49	0xbb4c0989	-0.0031133613
50	0x3b2adae8	0.002607042
51	0xbc95489a	-0.018223096
52	0xbbd6f2f5	-0.0065597245
53	0xbc1931bf	-0.009350239
54	0x3c214539	0.009843164
55	0xbbc26bc1	-0.0059332554
56	0xbb899ccb	-0.0041995994
57	0xbc3da8bf	-0.011575877
58	0x3c53b31f	0.012921124
59	0xba3ce858	-0.0007206253
60	0xbb1b5543	-0.0023701943
61	0x3b1e98a5	0.002419987
62	0xbc6bb620	-0.014386684
63	0xbc57e195	-0.013176342
64	0xbbbeef98	-0.0058269016
65	0xbc246747	-0.010034389
66	0x3ab2130b	0.0013585998
67	0x3c39e9c5	0.011347239
68	0xbb8e13ce	-0.004335857
69	0xbad8df6e	-0.001654608
70	0xbaabcf96	-0.001310813
71	0xb7104d87	-8.60112e-06
72	0xba348101	-0.0006885678
73	0x3c2836f2	0.010267006
74	0x3bf2fbb9	0.0074152616
75	0xbc023cf9	-0.007949107
76	0x3c57b37d	0.013165352
77	0xbc2c9443	-0.010533395
78	0x3c3f9795	0.011693855
79	0xbbae2e4b	-0.005315577
80	0xbc055d71	-0.008139954
81	0x3c305b55	0.010763963
82	0x3cbf5a6a	0.023358542
83	0x3bafa7b1	0.0053605665
84	0xbb75e71d	-0.0037521787
85	0xbb9927ec	-0.0046739485
86	0xbcbd5f8e	-0.023116853
87	0xbc9ec5a1	-0.019381346
88	0x3c6096f1	0.013707862
89	0x3ac6dd1a	0.0015172095
90	0x3c14ba46	0.009077614
91	0xbba09a20	-0.0049011856
92	0xba65060c	-0.0008736558
93	0x3b6b70d7	0.0035925412
94	0xbc32d9a9	-0.010916152
95	0x3b38b869	0.002818609
96	0x3bbb8e13	0.0057237237
97	0x3b578485	0.0032885384
98	0x3c63b662	0.013898464
99	0x3bed22dc	0.0072368216
100	0x3b316928	0.0027070735
101	0xbc0d3606	-0.008618837
102	0xbc95b148	-0.01827301
103	0xbc8dd8f3	-0.017315364
104	0xbb07485a	-0.002064249
105	0xbb6ec3f7	-0.0036432722
106	0xbc873a15	-0.016507188
107	0xbbf27cc5	-0.0074001276
108	0x3a0cf433	0.00053769647
109	0xb9deadae	-0.0004247254
110	0x3ba73162	0.0051023224
111	0xbab2d859	-0.0013644799
112	0x3b91d906	0.00445092
113	0x3b32f219	0.0027304946
114	0xbbf0630e	-0.007336027
115	0xbaf0e972	-0.0018380119
116	0xbc195828	-0.009359397
117	0xbc012fed	-0.007884962
118	0xbc8cc155	-0.017182032
119	0xbbc152a0	-0.0058997422
120	0xbb65f195	-0.003508662
121	0xbc0f847f	-0.008759617
122	0xbb4c0b87	-0.00311348
123	0x3c422a0a	0.011850843
124	0xbb27cff1	-0.002560612
125	0x3b916e94	0.004438231
126	0xbc4280d0	-0.011871532
127	0xbbeb9a22	-0.007190005
128	0xbc475f0d	-0.012168658
129	0x3b870c57	0.004121344
130	0xbc7768aa	-0.015100637
131	0x3c70a172	0.014686929
132	0x3c822dd4	0.015890993
133	0xbc9ba960	-0.019001663
134	0x3ac6c2e5	0.0015164284
135	0xba92194a	-0.0011146453
136	0x3bbc8c47	0.005754027
137	0x3a2ddfbe	0.00066327665
138	0x3c079ea8	0.008277573
139	0xbb8c1a58	-0.0042756014
140	0x3c889565	0.0166728
141	0x3c0676f0	0.008207068
142	0x3bb4426e	0.005501083
143	0x3ba96fa6	0.0051707802
144	0x3c05c60a	0.008164892
145	0x3c990728	0.01868017
146	0x3bf80fca	0.0075702416
147	0x3aec5c18	0.0018032817
148	0x3c5df4f8	0.013547175
149	0x3b8193e0	0.0039543957
150	0x3ab377b9	0.0013692296
151	0xbb857124	-0.0040723253
152	0xbb3eb8ab	-0.002910177
153	0x3cd12023	0.02552802
154	0xbab1c469	-0.0013562563
155	0x3c5f3ac9	0.013624855
156	0x3bc4f1e0	0.006010279
157	0xba7342f1	-0.00092796894
158	0xbc838ae6	-0.016057443
159	0x3ab1ff0d	0.0013580039
160	0x3ae2e6ed	0.0017311253
161	0x3c053dc4	0.008132402
162	0x3c93417b	0.01797556
163	0x3cc41a8f	0.023938445
164	0xbc081ee3	-0.008308145
165	0x3ac9c3af	0.0015393401
166	0x3c4f5a1a	0.012655759
167	0xbc8df805	-0.017330179
168	0x3c33ba8e	0.010969771
169	0x3cc01d4b	0.023451468
170	0xbc575b38	-0.013144307
171	0xbbb595a4	-0.00554152
172	0x3c709eee	0.014686329
173	0xba1945d4	-0.0005846892
174	0xbc62b81c	-0.01383784
175	0xbba37f86	-0.004989567
176	0x3c29a2b6	0.010353735
177	0x3a0bac40	0.00053280964
178	0xbb230020	-0.00248719
179	0x3b8e80e9	0.0043488634
180	0x3c008d2f	0.007846161
181	0xbc039ee8	-0.008033492
182	0x3a6e30d8	0.0009086258
183	0xbc148d6f	-0.0090669235
184	0xbb959d7b	-0.0045658923
185	0xba575030	-0.0008213548
186	0xbb66eee9	-0.0035237616
187	0x3ca132db	0.01967757
188	0xba8e51c5	-0.001085811
189	0x3b8f36fc	0.0043705683
190	0x3b4426aa	0.0029930272
191	0x3a0c86d0	0.0005360665
192	0xbc632c7f	-0.013865589
193	0x3cbe4116	0.023224395
194	0xbba1be76	-0.004936035
195	0xba5e926f	-0.0008490448
196	0xbb9b6da7	-0.004743296
197	0xbbe56411	-0.0070004542
198	0x3c4ef545	0.012631719
199	0x3b96e5c4	0.004605027
200	0x3c7e7041	0.015529693
201	0xbabbd3de	-0.0014330109
202	0xbbdaff25	-0.0066832476
203	0xbb86b0e3	-0.004110442
204	0x3c91c006	0.01779176
205	0x3ba26886	0.004956308
206	0x3bc2a6ed	0.0059403093
207	0x3a78c087	0.0009489138
208	0xbbd8f73f	-0.006621271
209	0xbb9d29cd	-0.004796243
210	0x3ac0444f	0.0014668795
211	0xbbece31e	-0.007229223
212	0xbc157f5e	-0.009124605
213	0x3c69eb20	0.01427725
214	0x3c23fa8b	0.010008465
215	0xba39c997	-0.0007087229
216	0xbbd99f61	-0.006641314
217	0x3bfa1fc2	0.0076331804
218	0xbc6f6a81	-0.014612795
219	0x3bcd6ea5	0.0062692934
220	0xba8be2dd	-0.0010672469
221	0xbbf70f09	-0.007539634
222	0x3b9ee71a	0.004849327
223	0x3b2b15c9	0.0026105514
224	0xbbb99790	-0.0056638196
225	0x3bc3b48e	0.0059724515
226	0x3aea88ed	0.001789359
227	0x3ba470d5	0.0050183334
228	0x3ca7260c	0.020403884
229	0x3a3fed28	0.0007321411
230	0x3bfe1dbb	0.007755009
231	0xbbe52ad2	-0.00699363
232	0x3c251679	0.010076159
233	0x3c47e2c1	0.012200058
234	0x3c6ea187	0.014564878
235	0x3c3166cc	0.010827731
236	0xbca62012	-0.020278964
237	0xbab6c3f9	-0.0013943902
238	0x3c139f20	0.009010106
239	0x3c43d8cc	0.011953544
240	0x3af222af	0.0018473471
241	0xbcb1f8ce	-0.021725085
242	0x3cb92845	0.02260221
243	0x3c8e3837	0.01736079
244	0x3c0e6be6	0.008692717
245	0x3be03dc6	0.0068433015
246	0x3b661a1a	0.0035110773
247	0xbc509795	-0.0127314525
248	0x3bbf91ac	0.005846223
249	0x3c9cc163	0.019135183
250	0xbc2aa7ab	-0.010415952
251	0xbc3a1e2d	-0.0113597335
252	0xbb3199cb	-0.0027099724
253	0xba4684de	-0.00075728993
254	0x3c7705b8	0.015077047
255	0xbb93b729	-0.0045079184

discrete_action_output_shape f4 [1, 2]
0	0x40000000	2.0
1	0x40000000	2.0

network_body._body_endoder.seq_layers.0.bias f4 [128]
0	0xbb10df0c	-0.0022105603
1	0xbaa2c99c	-0.0012419703
2	0xbb11e641	-0.0022262486
3	0x3ba1d6bf	0.00493893
4	0x3b846075	0.004039819
5	0x39aa1525	0.0003244068
6	0x3b584573	0.003300038
7	0x3bd7e149	0.0065881354
8	0xbba3920e	-0.0049917763
9	0x3b218d63	0.0024650923
10	0xb9c6585a	-0.0003783133
11	0xba826603	-0.0009948615
12	0xbb868902	-0.004105688
13	0x3a8d67df	0.0010788402
14	0x39cb0a9c	0.00038727082
15	0x3bf37061	0.007429168
16	0xbb1301e3	-0.0022431544
17	0xbc285062	-0.010273071
18	0x3b38a7de	0.0028176229
19	0xbac14e03	-0.0014747981
20	0xbba62054	-0.005069772
21	0xb9a5d5fb	-0.0003163068
22	0x3ba6c2c4	0.005089136
23	0xbba59656	-0.005053322
24	0x3b3edd88	0.0029123742
25	0xbb1e5bac	-0.0024163527
26	0xbb680982	-0.0035406058
27	0xbbb6dfc0	-0.0055808723
28	0x3a6bcfde	0.0008995513
29	0xbbc645f2	-0.0060508186
30	0x3a22f169	0.00062157825
31	0xbad4f7f6	-0.0016248215
32	0x3ab76acf	0.0013993623
33	0xbb33f33d	-0.0027458214
34	0x3bcb6fcf	0.006208397
35	0x38dfe9ae	0.00010676995
36	0xbb8d279a	-0.0043076994
37	0xbbc03aec	-0.005866399
38	0xbb702f4c	-0.0036649285
39	0xbb17e5eb	-0.0023177813
40	0xbb15f304	-0.0022880444
41	0x3b4483ec	0.0029985858
42	0xbc3c2244	-0.011482779
43	0x3abaae0f	0.0014242547
44	0xba991a1e	-0.0011680757
45	0x3b53a38d	0.0032293529
46	0x3af01bf5	0.0018318879
47	0x3bc7ed40	0.0061012805
48	0x3b1ef6bd	0.0024255954
49	0x3b0b6194	0.0021267878
50	0x3a7579e5	0.0009364172
51	0xba602af0	-0.000855132
52	0xbadbfdb8	-0.0016783988
53	0xbae48016	-0.0017433192
54	0xbc09f2df	-0.008419721
55	0x3b711b1a	0.0036789835
56	0x3bcdbecb	0.006278848
57	0x3b82dee8	0.0039938577
58	0x3a98ca26	0.0011656925
59	0x3b8701c8	0.0041200854
60	0xba012eee	-0.00049279525
61	0xbb4471ef	-0.0029975136
62	0x3a189f9b	0.0005822123
63	0xbba2a2df	-0.0049632634
64	0xb989cb23	-0.00026282025
65	0xbb41d449	-0.0029575995
66	0x3b8d797b	0.00431746
67	0x3b2bcbd3	0.0026214018
68	0xbbbc8a98	-0.0057538263
69	0x3b841b33	0.0040315627
70	0x3bb6a8c5	0.005574318
71	0xbbd3cd00	-0.006463647
72	0x3a6e5e57	0.0009093037
73	0x3ae00e3f	0.0017094089
74	0x3b8d75dd	0.004317029
75	0x3b42f7e4	0.0029749805
76	0xbac9377c	-0.0015351619
77	0xba97943a	-0.0011564561
78	0xbb3f9df4	-0.0029238435
79	0xbaf2719d	-0.0018496994
80	0xbb920b77	-0.004456933
81	0x3b81b2ab	0.0039580665
82	0xbbea9642	-0.0071590254
83	0xbb4cea50	-0.003126759
84	0xbb962ff2	-0.0045833522
85	0xb617df9a	-2.2630907e-06
86	0x3c07f5f2	0.008298384
87	0x3a3cdf85	0.0007204938
88	0xba3c3b2b	-0.00071804476
89	0xbab3f257	-0.0013728839
90	0x39822869	0.0002482564
91	0x3957c7f0	0.0002057848
92	0xbb85f209	-0.0040876907
93	0xbb642285	-0.0034810614
94	0x3ae2759a	0.001727748
95	0xbb314f16	-0.0027055196
96	0x3b1a574b	0.0023550566
97	0xbb56d1b7	-0.0032778808
98	0x3b80d46b	0.003931572
99	0xbb8ed542	-0.0043589184
100	0x3b4f208d	0.0031605095
101	0xbb02e460	-0.0019972548
102	0xbb442bbf	-0.0029933301
103	0xbb4204b2	-0.002960485
104	0x3b9d9646	0.0048091738
105	0x3c41475c	0.011796799
106	0xbb87aefc	-0.004140733
107	0xbb830719	-0.003998649
108	0xbace89af	-0.0015757586
109	0xbb8b0b6f	-0.0042433063
110	0xbb8e13df	-0.004335865
111	0xbb1cf632	-0.0023950455
112	0xbbb0fea8	-0.005401451
113	0x396fff04	0.00022887817
114	0x3b40b75f	0.0029406173
115	0xbbabd019	-0.005243313
116	0xba99cba9	-0.0011733669
117	0x3b930be9	0.004487504
118	0xba96590a	-0.0011470628
119	0xb9a0c65d	-0.0003066537
120	0xbb5bcbfa	-0.0033538328
121	0xbb36f097	-0.0027914399
122	0x3afc7673	0.0019261375
123	0xbbd4b617	-0.0064914334
124	0x3bc3dcc4	0.005977245
125	0x3a3f2a4d	0.0007292375
126	0x3b506d3f	0.0031803397
127	0x3b1619bf	0.002290353

network_body._body_endoder.seq_layers.0.weight f4 [128, 53]
0	0xbd3b6ecc	-0.04575996
1	0x3eb79c4a	0.35861427
2	0xbe1e87b0	-0.15481448
3	0xbe57d7e3	-0.21078448
4	0x3e1a8ec4	0.15093523
5	0xbdc13512	-0.094339505
6	0xbde5f999	-0.112292476
7	0x3d6922e5	0.056918044
8	0xbe1c0ef6	-0.15240082
9	0xbe419b4a	-0.18906894
10	0x3c9fbdf1	0.01949975
11	0x3c94d098	0.018165872
12	0x3ceeed01	0.029165747
13	0xbcd0b465	-0.025476644
14	0xbdda50c9	-0.1065994
15	0x3e1157a6	0.14193591
16	0xbbc0305e	-0.005865141
17	0x3e73fdb0	0.23827243
18	0x3e5a4a78	0.2131747
19	0x3e968b59	0.2940319
20	0x3c85316c	0.016258918
21	0xbe326483	-0.17421155
22	0xbe296741	-0.16543294
23	0x3b287b07	0.0025708096
24	0x3e2d43c6	0.16920385
25	0xbdbbdd0c	-0.09173021
26	0xbc6d7851	-0.014494018
27	0xbe1dd8e0	-0.15414762
28	0xbdaddde1	-0.08489586
29	0xbdac4319	-0.08411235
30	0xbd308ee8	-0.043105036
31	0x3d9224d7	0.07135933
32	0x3b14407c	0.0022621443
33	0xbcfa6b7d	-0.030568833
34	0xbd0d10b3	-0.034439754
35	0xbdeb3105	-0.11483959
36	0x3e9be556	0.30448407
37	0xbe29e1e4	-0.16590077
38	0x3e1084fb	0.14113228
39	0xbd1da0b8	-0.03848335
40	0x3d6bdb5d	0.057582248
41	0xbd160b66	-0.036631964
42	0xbe7263ec	-0.2367093
43	0xbe3ce1d0	-0.18445516
44	0x3e1a9770	0.15096831
45	0x3de08ce8	0.10964376
46	0x3d4f58a1	0.050621632
47	0xbca559d8	-0.020184442
48	0xbc6d9d86	-0.014502889
49	0xbda6a6fa	-0.08137317
50	0xbe8b7065	-0.27234188
51	0x3db8e10c	0.09027299
52	0xbe106a48	-0.14103043
53	0xbe6f3335	-0.23359378
54	0xbe1d67e1	-0.15371658
55	0x3ddec322	0.108770624
56	0x3d261cbe	0.040554754
57	0xbbecc859	-0.0072260317
58	0x3e5c425f	0.21509694
59	0xbd5e493d	-0.054269064
60	0x3d857689	0.065167494
61	0x3d7e2290	0.06204468
62	0xbe2d257b	-0.16908829
63	0x3d83b9f6	0.064319536
64	0xbe778690	-0.24172425
65	0x3d8edc4d	0.06975613
66	0x3e6a4695	0.22878487
67	0x3e0392d0	0.12848973
68	0x3cf945c1	0.030428769
69	0x3db143e8	0.0865553
70	0xbd81fc98	-0.063470066
71	0x3dc51ddd	0.096248366
72	0xbe42c1e5	-0.19019277
73	0xbe2f0c2f	-0.17094491
74	0x3e5a4073	0.21313648
75	0x3e2a9147	0.16656981
76	0xbd08ded7	-0.03341564
77	0xbdda8fcc	-0.10671958
78	0xbe1d4f74	-0.1536234
79	0xbe377ae0	-0.17917967
80	0xbd86f748	-0.06590134
81	0xbd0a409a	-0.033753015
82	0x3e236cfe	0.15959546
83	0x3e6fbdac	0.23412198
84	0x3e455c5b	0.19273512
85	0xbdea7c51	-0.11449493
86	0xbcb6adc9	-0.022299664
87	0x3cc69054	0.024238743
88	0x3c641c33	0.013922739
89	0x3d01566f	0.03157657
90	0x3cc97f4a	0.024596829
91	0x3ca738ce	0.020412829
92	0xbce3c422	-0.027803484
93	0x3d9f7104	0.07785228
94	0x3e6ea795	0.23306115
95	0xbc0239a9	-0.007948318
96	0x3cb2d356	0.021829288
97	0x3e0a7ea7	0.13524877
98	0x3ddd6386	0.10809998
99	0xbd68983b	-0.056785803
100	0xbe0257f9	-0.12728871
101	0x3dd17cfc	0.10228917
102	0x3e2ef531	0.1708572
103	0xbdd350c2	-0.10318138
104	0xbd725f62	-0.059172995
105	0xbe031d8f	-0.12804244
106	0xbbced6f2	-0.0063122446
107	0x3d50306f	0.05082744
108	0xbd29b35f	-0.041430827
109	0x3e87394b	0.264109
110	0x3c7cc35a	0.015427435
111	0xbd92d4d2	-0.071694985
112	0x3c0b2c7c	0.008494493
113	0xbcf76192	-0.030197892
114	0x3d08c7a8	0.033393532
115	0xbd4e33b4	-0.050342277
116	0x3d87b1a5	0.0662568
117	0xbee750d5	-0.45178857
118	0x3cb290a8	0.021797493
119	0xbe87a87d	-0.26495734
120	0xbba3f821	-0.0050039445
121	0x3ea66f0d	0.325066
122	0xbda40ad7	-0.0800988
123	0xbe8530ad	-0.260137
124	0x3ca8b90a	0.020596046
125	0xbc38e132	-0.0112841595
126	0xbcb1107f	-0.021614311
127	0x3e9ef306	0.31044787
128	0x3d6509e5	0.05591764
129	0x3ddcc485	0.107796706
130	0xbe7bc606	-0.24587259
131	0x3e701a19	0.23447455
132	0xbc89e617	-0.016833348
133	0x3dd252ec	0.10269722
134	0xbe3bcd88	-0.18340123
135	0x3bf70cd6	0.007539372
136	0x3df7d2d9	0.12100763
137	0x3dc9ba96	0.098500416
138	0x3d37dc70	0.04488796
139	0xbe8de101	-0.27710727
140	0x3e442f67	0.19158708
141	0xbdb62288	-0.08893305
142	0xbd53d1df	-0.05171382
143	0x3e5ffcab	0.21873729
144	0xbe35d72e	-0.17757866
145	0x3d8e252e	0.06940685
146	0x3d35393e	0.044244044
147	0x3d3ab89a	0.045586206
148	0xbb14a8d9	-0.002268365
149	0x3e14ae46	0.14519605
150	0xbdbed876	-0.093186304
151	0x3da84e7e	0.08218096
152	0x3de1b6d4	0.110212
153	0xbd755f73	-0.05990548
154	0x3e0cbf9c	0.13744968
155	0x3e29ae16	0.16570315
156	0xbe68be32	-0.22728804
157	0x3de00142	0.1093774
158	0xbe3407b2	-0.1758106
159	0xbd33987b	-0.04384659
160	0xbe1adca9	-0.15123238
161	0xbe052448	-0.13002121
162	0x3edb2856	0.4280421
163	0x3dce5adb	0.10075923
164	0x3daf1f16	0.08550851
165	0xbde9fdf4	-0.11425391
166	0xbd3afe55	-0.045652706
167	0xbcfb49b5	-0.030674795
168	0x3e2ec58a	0.17067543
169	0xbe0cc3e6	-0.13746604
170	0xbe30d42d	-0.17268439
171	0xbd9bac3c	-0.076012105
172	0xbdd955a3	-0.10612037
173	0x3d69f320	0.057116628
174	0x3d62c985	0.055367965
175	0x3db7a4a3	0.08966949
176	0x3ce4d6ad	0.027934397
177	0xbd8aff9a	-0.067870334
178	0x3de0eb4e	0.10982381
179	0xbd3f1fb8	-0.04666111
180	0x3e2b9bf9	0.16758718
181	0xbe095bc8	-0.13413918
182	0xbd9a8b74	-0.0754613
183	0xbe93837a	-0.28811246
184	0x3d607175	0.0547957
185	0x3de3b25d	0.111180045
186	0xbe29b82f	-0.16574167
187	0x3e6f47ff	0.23367308
188	0x3dec8bf3	0.11550131
189	0xbe14e56e	-0.14540645
190	0x3e1b2fa7	0.15154897
191	0xbd2904c8	-0.041264325
192	0xbda43de0	-0.08019614
193	0x3dc1a3f6	0.09455101
194	0xbe235d6a	-0.15953603
195	0x3e3987b5	0.18118174
196	0x3dd27df9	0.102779336
197	0x3e06f368	0.1317879
198	0xbd52915c	-0.051408157
199	0x3d2628d7	0.04056629
200	0xbdebb937	-0.11509936
201	0xbe14b2d5	-0.14521344
202	0xbdf36ae4	-0.11885622
203	0x3d9f74b3	0.077859305
204	0x3d7eec72	0.06223721
205	0xbce43306	-0.027856361
206	0xbe284aca	-0.1643478
207	0x3e27ec07	0.16398631
208	0xbdb5adb0	-0.08871019
209	0x3e2ed972	0.17075136
210	0xbc9c0fc5	-0.019050488
211	0x3d8a284c	0.06745967
212	0xbcfafa52	-0.03063694
213	0x3e2ffad6	0.1718553
214	0xbe320984	-0.17386442
215	0x3e94d83b	0.2907122
216	0x3bc92080	0.0061379075
217	0x3dcdd29f	0.100499384
218	0x3d8e4442	0.06946613
219	0xbd473ebb	-0.04864381
220	0x3d1caf95	0.038253386
221	0x3d46c2f1	0.048525754
222	0x3e2ba179	0.16760816
223	0xbd9ccea3	-0.076566
224	0x3ded7c63	0.115959905
225	0x3e0b5f31	0.13610531
226	0xbc099007	-0.008396155
227	0x3e1a6387	0.15077029
228	0x3da785d2	0.08179821
229	0xbc6af7ff	-0.014341353
230	0xbdd424a9	-0.10358555
231	0x3e17d5cd	0.14827652
232	0xbba2b474	-0.0049653593
233	0xbd2ba4ab	-0.041905086
234	0x3c8ebf3e	0.017425176
235	0xbbd50f20	-0.006502047
236	0xbe3c4e19	-0.18389167
237	0x3cd74e99	0.026282595
238	0x3e13e726	0.14443645
239	0xbdf33c1c	-0.11876699
240	0x3d833db7	0.064082555
241	0xbdfc6619	-0.12324161
242	0x3d99978d	0.07499609
243	0x3d2c721d	0.042101014
244	0xbe82634b	-0.2546638
245	0x3cffe647	0.031237734
246	0x3cbe98c3	0.023266202
247	0xbd8deb6c	-0.06929669
248	0x3caef94a	0.021359105
249	0x3d693e81	0.056944374
250	0x3e05e3c3	0.13075165
251	0x3cccf477	0.025018914
252	0xbe128b6c	-0.14310998
253	0xbd7ae2a2	-0.06125129
254	0xbd0b5bfa	-0.034023263
255	0x3ea9a824	0.33136094

network_body._body_endoder.seq_layers.2.bias f4 [128]
0	0xbae26ba6	-0.0017274513
1	0xbb0c82d0	-0.0021440275
2	0x3ba60d17	0.0050674784
3	0xbabd3744	-0.0014436026
4	0xbb292682	-0.0025810306
5	0x3aa8a24b	0.001286575
6	0xb8eb2abe	-0.000112136346
7	0x3b65fc4d	0.003509301
8	0x3ac3627d	0.0014906671
9	0x3bbd574d	0.0057782293
10	0xba949013	-0.0011334441
11	0x3b99ea1d	0.004697098
12	0x3a0d3204	0.0005386176
13	0xbb6fe9bb	-0.003660782
14	0x3af56a47	0.001872369
15	0x3be94b69	0.0071195853
16	0x3a1c507e	0.0005962922
17	0xbb817b24	-0.003951447
18	0xbb1c1d5e	-0.0023821215
19	0xbb1a7d09	-0.0023573062
20	0xbb3353a0	-0.0027363077
21	0xbb83131b	-0.0040000803
22	0x3a931222	0.0011220614
23	0x3b8dfea3	0.0043333336
24	0xbbbbf0a5	-0.005735474
25	0xbab546bb	-0.0013830283
26	0x3b142299	0.002260363
27	0xbbf1918f	-0.0073720883
28	0x3b025b69	0.001989091
29	0xbb2f13c4	-0.0026714662
30	0x3b500aea	0.0031744787
31	0x3b6eebdc	0.00364565
32	0xbbdc83a3	-0.0067295595
33	0xbb03c007	-0.002010347
34	0x3a4a48eb	0.0007716554
35	0xbb2c6cec	-0.002631004
36	0x3b4646f4	0.0030254694
37	0xba98fc3a	-0.0011671849
38	0xbb84dba4	-0.0040545035
39	0x3bbcbcd6	0.0057598157
40	0xbbb9b06b	-0.0056667826
41	0xbc03d1af	-0.008045598
42	0x3c03d682	0.008046748
43	0x3c27aaf7	0.010233632
44	0xb84ba912	-4.855643e-05
45	0xba1b77a7	-0.00059306104
46	0xba7021a3	-0.00091602857
47	0x3a82d725	0.0009982331
48	0xba6a7bf9	-0.0008944865
49	0xbb87ed97	-0.004148196
50	0x3ba09889	0.004900996
51	0xbbaa1099	-0.005189967
52	0xbb3ddee1	-0.0028971958
53	0x3b896d21	0.0041939174
54	0x3ae8a4e8	0.0017749341
55	0x3a20643d	0.00061184523
56	0xbb76b570	-0.0037644766
57	0x3c28ed71	0.010310517
58	0x3b4aee1d	0.003096468
59	0xbbd3c3d3	-0.006462553
60	0xbb32bd59	-0.0027273505
61	0x3b048fd6	0.0020227334
62	0xbb29247f	-0.0025809107
63	0xbbf44440	-0.007454425
64	0x3b0689a0	0.0020528808
65	0xbc1ba2ce	-0.009499265
66	0xbb0c5e51	-0.0021418522
67	0xba3702bc	-0.00069813034
68	0xba99e607	-0.0011741527
69	0xb8a508ca	-7.86945e-05
70	0xbb948d83	-0.004533471
71	0x3b1c0626	0.0023807376
72	0x3a593e4c	0.0008287176
73	0xba083ccb	-0.0005197047
74	0x3a879145	0.0010342976
75	0x3bd11825	0.006381052
76	0xba929ef9	-0.0011186294
77	0xba9c8d4d	-0.0011943966
78	0x3a20e6d6	0.0006137913
79	0x3a6a3896	0.00089348236
80	0xbbf6a1cc	-0.007526612
81	0xbadbfcc1	-0.00167837
82	0x3b92c4e8	0.0044790395
83	0xbb9c896e	-0.004777125
84	0xb9065ebb	-0.00012814526
85	0xbb6613d9	-0.0035107045
86	0xbab4d50c	-0.0013796403
87	0xba6d0407	-0.00090414326
88	0x3b0de028	0.00216485
89	0xbaf4b7a4	-0.0018670452
90	0x3b86e44d	0.004116571
91	0x3b3c530e	0.0028736028
92	0xbb64a95a	-0.003489098
93	0x3b852714	0.0040634964
94	0x3b8c4bfc	0.004281519
95	0xb92003f6	-0.00015260265
96	0xba112412	-0.0005536686
97	0x3a4e4551	0.00078686053
98	0xbb08efb4	-0.0020894827
99	0xbb0c7b3a	-0.0021435753
100	0xba388942	-0.0007039496
101	0x3b92e37f	0.004482686
102	0xba8a9204	-0.001057208
103	0xbad590d3	-0.0016293771
104	0xbb83855b	-0.0040137
105	0x3b615cf8	0.003438769
106	0x3b1b0a02	0.0023657088
107	0xbbcb04bd	-0.006195633
108	0x3b7298c9	0.0037017337
109	0xbb43c46c	-0.0029871715
110	0x3b2506ae	0.0025180983
111	0x3b070d56	0.0020607314
112	0x3ba35440	0.0049844086
113	0x3b9dca2d	0.004815361
114	0xbb8f95f8	-0.0043818913
115	0xbbd6a629	-0.0065505696
116	0xbbb4f166	-0.005521941
117	0xbb3b0e02	-0.0028542285
118	0x3a972938	0.001153267
119	0x3a3ac2f9	0.000712439
120	0xb9bda04c	-0.0003616832
121	0x3b6d27b8	0.0036187004
122	0xbb7a3601	-0.0038179161
123	0x3bfc5675	0.007700736
124	0xbbd680c7	-0.006546113
125	0xbb82277e	-0.003971993
126	0xbb99ee51	-0.004697599
127	0x397cac15	0.00024096698

network_body._body_endoder.seq_layers.2.weight f4 [128, 128]
0	0xbc8825ae	-0.01661953
1	0xbda29054	-0.07937685
2	0x3d60d440	0.054889917
3	0xbd6f7c0d	-0.058467913
4	0x3cf89879	0.030346142
5	0xbbaade73	-0.0052145063
6	0xbd98f835	-0.07469217
7	0x3a80619c	0.0009794715
8	0x3d3a2c1d	0.045452226
9	0x3d31b3b0	0.043384254
10	0x3de5c400	0.11219025
11	0xbdbf7908	-0.09349257
12	0x3d939103	0.07205393
13	0xbcf2fe65	-0.02966232
14	0x3d0b0d23	0.033948075
15	0x3dd64bc5	0.10463671
16	0xbcc74a3a	-0.024327386
17	0x3e582cce	0.21110842
18	0xbe6467ea	-0.22305265
19	0x3d2e8130	0.04260367
20	0xbc4dda1a	-0.0125642065
21	0xbde88dc2	-0.11355163
22	0x3cc2946c	0.023752414
23	0xbdcef359	-0.10105009
24	0xbe1a5bf4	-0.1507414
25	0xbe061227	-0.13092862
26	0x3e888eea	0.26671535
27	0x3d1aaf9c	0.03776513
28	0xbe0f1780	-0.13973808
29	0x3db98fbf	0.090606205
30	0x3d516d12	0.05112941
31	0xbc0ae866	-0.00847826
32	0x3e2c5cd8	0.16832292
33	0x3dd3ce09	0.103420325
34	0x3cdd4584	0.027010687
35	0xbd0aa7f0	-0.033851564
36	0xbc515891	-0.0127774635
37	0x3e3abeb8	0.18236816
38	0x3de98b34	0.11403504
39	0xbe7f604b	-0.24939077
40	0xbc049dc2	-0.008094253
41	0x3e0d6b44	0.1381045
42	0xbce5921d	-0.028023774
43	0x3d8d5ba1	0.069022425
44	0xbe57abbe	-0.21061608
45	0x3e0e9829	0.13925232
46	0xbd6bf5cf	-0.05760747
47	0x3db29ddf	0.08721518
48	0xbdf1a97b	-0.11799904
49	0x3d97027e	0.07373522
50	0x3daad9c9	0.083423205
51	0x3cc57995	0.024105826
52	0xbdedc699	-0.11610145
53	0xbd270a1f	-0.040781137
54	0xbd38bce1	-0.045102004
55	0xbad96d8c	-0.0016588434
56	0xbcf2918b	-0.029610416
57	0xbd120f7f	-0.03565931
58	0xbdcd54ee	-0.10025965
59	0xbd091eb1	-0.033476535
60	0xbd86c85b	-0.065811835
61	0x3c8c78fe	0.017147537
62	0xbd983d1e	-0.07433532
63	0xbccdd2e1	-0.025124969
64	0xbe104bdb	-0.14091437
65	0xbdd9d1ee	-0.10635744
66	0xbdc45a44	-0.09587529
67	0x3e0b61af	0.13611482
68	0x3d512853	0.051063847
69	0xbd1c4504	-0.038151756
70	0xbda96d09	-0.0827275
71	0xbdca44f4	-0.09876433
72	0x3dec569b	0.11539956
73	0xbcc5ce30	-0.02414617
74	0xbe02f460	-0.12788534
75	0x3dbdce9d	0.09267924
76	0xbe00707e	-0.12542912
77	0xbd8a49c6	-0.067523524
78	0x3d5daece	0.054121785
79	0x3dc8bf2e	0.0980209
80	0x3c66a1a0	0.01407662
81	0xbd1f3251	-0.038866345
82	0xbbf3a3ff	-0.0074353213
83	0xbded0090	-0.11572373
84	0x3cc70a75	0.024296978
85	0xbd67a99d	-0.05655824
86	0x3db2b02c	0.08725008
87	0x3da1d7c1	0.0790248
88	0xbd4d1352	-0.050067253
89	0xbc0bf845	-0.008543079
90	0xbca23be7	-0.019803954
91	0xbdabc369	-0.08386881
92	0x3c3056a7	0.010762847
93	0xbbb8a9b2	-0.0056354636
94	0xbd76efbb	-0.06028722
95	0xbe339020	-0.17535448
96	0xbd0dbe20	-0.034605145
97	0xbd82d0d5	-0.06387488
98	0xbcf11b6e	-0.029432025
99	0x3e13064d	0.14357872
100	0xbda09510	-0.078409314
101	0xbbd55689	-0.00651056
102	0xbdd3eeeb	-0.10348304
103	0xbc2078f8	-0.009794466
104	0x3d90d4f5	0.07071868
105	0x3d88fc9d	0.06688807
106	0x3c6d01a1	0.01446572
107	0x3e6ea1a5	0.2330385
108	0x3e24b1c4	0.16083437
109	0x3dc23c07	0.094841056
110	0x3adaaf0f	0.0016684252
111	0x3d10f8f7	0.03539368
112	0x3e83c854	0.25738776
113	0xbe100223	-0.14063315
114	0x3d482c15	0.048870165
115	0x3dffeb5b	0.12496062
116	0x3dc7c353	0.09754052
117	0xbd5e937c	-0.05433987
118	0xbdb4eba8	-0.0883401
119	0x3c84f792	0.016231332
120	0xbdc3a3bc	-0.09552714
121	0x3b30e473	0.0026991635
122	0x3e15454d	0.14577217
123	0x3d8a8506	0.067636535
124	0xbdf7d3bc	-0.12100932
125	0xbd1444d2	-0.036198445
126	0x3db49ad4	0.088185936
127	0xbe1220d1	-0.14270331
128	0x3bb8fb89	0.0056452197
129	0xbca7d0e6	-0.020485353
130	0x3d2a796d	0.041619707
131	0x3d09bab6	0.033625327
132	0x3e17cd9e	0.1482453
133	0x3d862293	0.06549563
134	0x3cc85e47	0.024459017
135	0xbcda0b57	-0.026616735
136	0xbda4b5c6	-0.08042483
137	0x3dca528a	0.09879024
138	0xbdb9b1ba	-0.09067102
139	0xbd5d2fc7	-0.054000642
140	0xbe48413f	-0.1955614
141	0xbc558b97	-0.013033769
142	0xbda140d8	-0.07873696
143	0x3dfd9d9e	0.12383579
144	0xbdf123f3	-0.11774435
145	0xbd1c7133	-0.038193893
146	0x3e11552f	0.14192651
147	0xbdc159c9	-0.09440953
148	0x3da05654	0.07828966
149	0xbcef061d	-0.02917772
150	0x3d9a5918	0.075365245
151	0x3b9f44ef	0.0048605124
152	0x3d2da77d	0.042396057
153	0xbd8637b3	-0.065535925
154	0x3cfc6261	0.03080863
155	0x3e23069e	0.15920493
156	0xbd2be66a	-0.041967787
157	0xbe09f934	-0.1347397
158	0xbc96345b	-0.018335512
159	0xbe0edeb5	-0.13952143
160	0x3d3e6e63	0.04649199
161	0x3df12af8	0.11775774
162	0x3d9e8260	0.07739711
163	0xbdba0050	-0.09082091
164	0x3bd53de4	0.006507622
165	0xbd961472	-0.073281184
166	0x3cca5722	0.024699751
167	0xbe0f2ff3	-0.13983135
168	0x3d61962d	0.05507486
169	0x3d1454b1	0.03621358
170	0xbba5a290	-0.0050547794
171	0x3dc6c228	0.09705001
172	0x3d897985	0.06712631
173	0x3dd37e46	0.10326819
174	0xbd1507a9	-0.03638426
175	0xbd3dc41c	-0.046329603
176	0x3df4ccac	0.119531006
177	0x3c9ef873	0.01940558
178	0xbbb6c66b	-0.0055778525
179	0xbdf10366	-0.11768226
180	0xbd8076c9	-0.062726565
181	0x3de656c0	0.11247015
182	0x3ce5498a	0.027989168
183	0xbd478d12	-0.04871852
184	0x3d15206f	0.036407884
185	0xbe2ecc40	-0.17070103
186	0x3c92b8ae	0.017910328
187	0x3e32fc54	0.17479068
188	0x3d8d8a83	0.06911185
189	0x3e1f691a	0.15567437
190	0xbdac814a	-0.084230974
191	0xbe01b3fc	-0.12666315
192	0x3d9f1388	0.07767397
193	0xbda5128c	-0.08060178
194	0x3de8d684	0.113690406
195	0x3d8d65a7	0.06904154
196	0x3ce2722c	0.027642332
197	0x3c8ab6de	0.016932901
198	0x3d65cbf5	0.05610271
199	0x3df22131	0.11822737
200	0x3d6759c6	0.0564821
201	0xbdac6836	-0.08418314
202	0xbd3a6340	-0.04550481
203	0xbdb0fbb2	-0.08641757
204	0xbd4e013e	-0.050294153
205	0xbd55d660	-0.052206397
206	0x3e53777b	0.20651047
207	0x3d08c0ea	0.033387102
208	0x3d977135	0.073946394
209	0xbd8853b9	-0.06656594
210	0xbdad276e	-0.08454786
211	0x3bf8a6f6	0.0075882627
212	0x3e3d5f78	0.1849345
213	0xbbe0e839	-0.0068636206
214	0x3d0412f8	0.032244653
215	0x3d83b36e	0.06430708
216	0xbdf0d6a5	-0.1175969
217	0xbda08efe	-0.078397736
218	0x3c2d0528	0.010560311
219	0xbd71c89c	-0.059029207
220	0x3bf08820	0.007340446
221	0xbabacc45	-0.0014251551
222	0x3df2bfad	0.118529655
223	0xbdcf6ea4	-0.10128525
224	0xbe028b18	-0.12748373
225	0x3e1e7688	0.15474904
226	0xbdd616de	-0.1045358
227	0xbc839c13	-0.016065633
228	0xbcb5f536	-0.022211652
229	0xbdd04806	-0.101699874
230	0xbd2665a2	-0.04062427
231	0x3d1b836d	0.037967134
232	0x3c6791ac	0.014133852
233	0x3adde834	0.0016930164
234	0xbd793d11	-0.060849253
235	0xbd2295a5	-0.039693493
236	0x3bbec8eb	0.005822291
237	0x3e19741d	0.149857
238	0xbc89b12e	-0.016808119
239	0x3c88f87e	0.016720053
240	0xbd28a3f4	-0.041171983
241	0x3d0365cf	0.032079514
242	0xbca08bde	-0.019597944
243	0x3c2fe582	0.010735871
244	0x3d4a64a4	0.049412385
245	0x3dae1ef5	0.08501998
246	0xbd3a6244	-0.04550387
247	0xbd4a87e8	-0.049446017
248	0xbc3eb722	-0.011640342
249	0x3c021394	0.007939238
250	0x3db7c0b9	0.08972306
251	0xbe1a287f	-0.1505451
252	0x3d9533ac	0.07285246
253	0xba34c9af	-0.0006896508
254	0x3d97723d	0.07394836
255	0xbb789a8f	-0.003793392
