VirtualAquarium/results/VirtualAquariumReproducao10/VirtualAquarium/VirtualAquarium-38806.pt (torch, 595711 bytes, 49 tensors)

discrete_act_size_vector f4 [1, 2]
00000000: 0000 0040 0000 0040
2.0 2.0

network_body._body_endoder.seq_layers.0.weight f4 [128, 53]
00000000: dd38 6dbd dd5b 063e b65f a13d 9e37 b13b
00000010: 4950 2abd 0a1d 653c 7191 7f3c 81da c03d
00000020: 3ef9 903e 05d3 99bd 1a61 8cbc 3422 69be
00000030: 1e05 913d b7ba 243e 4cd1 373e 63cf 6d3d
00000040: d09b 8a3e 8d6b aa3d 3ba4 98bd 612e 06bd
00000050: 8e52 29be 8f4a 54be c8b9 60bd 69b2 1f3d
00000060: a3c6 0cbc c034 2bbe 0917 3ebe 9e11 f8bd
00000070: 53d9 2bbe 9b8f b33d 2a53 06be 7cc9 b0bd
00000080: 58ed b93d 2bf4 783e 066c 3cbd 5305 10bd
00000090: 2062 db3d 4313 543e 72d3 c53d c5f7 883e
000000a0: e220 8f3d fa04 fcba d8a8 0b3e 461a 1c3e
000000b0: 2038 ec3d 632c debc fd97 94bd 43ed 72bc
000000c0: 9a32 aabc 8333 823e 77b3 383e e0d2 34bd
000000d0: e26b 353c 9433 bf3c f3d5 593e a8e1 0c3e
000000e0: 7144 023e 9a72 dabd 552a 98bb 0275 74bd
000000f0: 0784 9e3e fdad 8b3e 6798 72bd 4ce8 603d
00000100: 8710 a53d d8a4 b0bd 2198 24be b1d5 28be
00000110: 0cff ad3b 4986 1ebd 07ef 4fbe 2c79 563e
00000120: 0f95 8b3d 006e 8bbd 4d3b 2a3d c10c 4f3e
00000130: d612 553e 2b43 a0bc deaf 213e ceb9 3f3e
00000140: 43ba 743c 0b21 1a3b bf0a 023d e341 053e
00000150: 13b9 643e bfcc 7fbd 1fc4 b9bd c5e5 b63d
00000160: e2b8 a0bd b8f7 843e c35c 173e 217b 9d3d
00000170: 6b5a 2a3b 6eb8 19bd 0186 513e 8562 16be
00000180: 0b45 8d3e 0707 073d 8717 69bd 2519 fb3d
00000190: 8b6e 95bc ba0d ebbc 475f d53d 7f8a d53d
000001a0: fbb8 433e 4420 98be 7aad ecbd 1741 813a
000001b0: 71b3 c4be 9b84 153e 069f 60be 11d9 013e
000001c0: 3cbe a63c b740 5abe a793 35be 9426 a33d
000001d0: 9ed1 0b3e a4cd 8c3d 6624 1b3e ee5b 3dbd
000001e0: c1e3 973d 9c06 0fbd 6032 003e f008 43be
000001f0: 1cc0 1a3c 6cea 013e 9be7 213e 5a9a c8ba
00000200: 7b42 50be ef68 36bd 62f9 4abe 4f4f b53d
00000210: c2e0 783e e083 efbd 3f02 083e 55bb bf3d
00000220: 0dd7 693e 47fc a5be 216a 7dbc c331 23be
00000230: 009d 30be bdb4 a53d 90b9 0bbe 7394 d4bd
00000240: 27f1 d8bd e357 b4be 8f20 30bd b2b4 4e3d
00000250: 257c 97be 8f74 e33c 6a09 73be a5a5 7c3e
00000260: 337f 4a3c 0191 a3bc 95b2 803c 4a76 41bd
00000270: ec0a 7b3e 7907 cd3c 39d7 c5bd 858f aebe
00000280: 2795 743d a574 a7bd 954f 2dbe fd81 53be
00000290: 1cef 4abe dc4c 153e 12d1 8cbd 29ba 2e3e
000002a0: 8aca c0bd 30c6 2dbe 8df3 53be 3c0c 8bbe
000002b0: 5df5 d6bd 4203 483e a764 be3d 503f 7dbe
000002c0: 0a8d 20be ea35 96bd 4558 78bd 8753 6abe
000002d0: 4ba2 e7bd c6d2 373e 934b f538 079f 4a3e
000002e0: b347 543d 46af a0bd c102 52bd bad8 c93a
000002f0: bd11 063e eb7b 0cbd b548 9b3b 1ed5 88be
00000300: 3674 1e3e 9c02 3e3e d11f 1b3e af99 7c3e
00000310: 7df9 9abe e79d 733e 85e3 3cbd 3510 0cbe
00000320: 77fe a1bd 1e92 933d e877 153e c364 e2bc
00000330: 0239 06bd 1302 dabd 8390 293d c1dd 70bd
00000340: 697d 4cbe bb60 74be b977 5dbe ebc1 1a3e
00000350: 4556 d8bb f55d b43d d2f9 b4bc 7151 53be
00000360: bbd2 1cbd 707e dbbd ba67 87bd 3373 0c3e
00000370: cd52 e5bc 87cb d03d b992 073d a376 7f3e
00000380: daea 05be 7f92 5dbc 63bb 883d ae5b d03d
00000390: 589c 073e 8055 febd 538b 3fbd 9876 923d
000003a0: 0a4d 9f3e 4a20 dbbd 74f3 95be ed0a 19bd
000003b0: c2ef 3b3b 35e5 143e 6e32 203d 27d3 ba3d
000003c0: 3050 8f3d a2f9 513e c786 d33d 84e1 c23d
000003d0: d1ae e3bd ccac 0cbe 9720 a1bc d279 7fbe
000003e0: 0ace c33e 5444 45bd 44f5 fa3c d017 b3bc
000003f0: fcea 58be 6f38 503e 7616 3b3d b79a 72bd
-0.057915557 0.1312098 0.078795835 0.0054082414 -0.041580472 0.013983974 0.015598641 0.09416676
0.28315157 -0.07510952 -0.017136145 -0.22766954 0.07081054 0.16086851 0.17950934 0.058059108
0.27072 0.08321295 -0.074531995 -0.032759074 -0.16535398 -0.20731567 -0.054864675 0.038988505
-0.008592281 -0.16719341 -0.18563475 -0.12112735 -0.16782121 0.08767625 -0.13117662 -0.0863218
0.09078473 0.24311893 -0.046001457 -0.035161328 0.10712075 0.20710473 0.096594706 0.26751533
0.06988694 -0.0019227557 0.13638628 0.15244398 0.115341425 -0.027120775 -0.07255552 -0.014827075
-0.020776082 0.25429925 0.1803721 -0.04414642 0.011073085 0.023340024 0.21273021 0.13757956
0.12721421 -0.1066639 -0.0046437182 -0.0596819 0.30960104 0.2728118 -0.059227373 0.054909036
0.08059793 -0.086251915 -0.16073658 -0.16487767 0.005309945 -0.038702283 -0.20306025 0.20944661
0.0681554 -0.0680809 0.04156046 0.20219709 0.20807967 -0.019563278 0.15789744 0.18723223
0.014936986 0.002351823 0.03174853 0.13013415 0.22336225 -0.06245112 -0.0907061 0.08930544
-0.078477636 0.25970244 0.1478148 0.076895006 0.0025993835 -0.0375294 0.20461275 -0.1468602
0.27591738 0.032965686 -0.056907203 0.12260655 -0.018241188 -0.028693069 0.10418563 0.10426807
0.19113533 -0.29712117 -0.115565255 0.0009861317 -0.38418153 0.14601366 -0.21935663 0.1268046
0.020354383 -0.21313749 -0.17732106 0.079663426 0.13654181 0.0687516 0.15150604 -0.04623025
0.074164875 -0.034918413 0.12519217 -0.19046378 0.0094452165 0.12687081 0.15811007 -0.0015304789
-0.2033786 -0.044533666 -0.19821694 0.088530175 0.24304488 -0.11695075 0.13282107 0.093619026
0.22835942 -0.32419035 -0.015467198 -0.15936951 -0.17247391 0.08091114 -0.13645005 -0.10379877
-0.10592871 -0.35223302 -0.0429998 0.050465293 -0.29586902 0.02776554 -0.2373406 0.24672563
0.012359428 -0.019966604 0.015710155 -0.04723195 0.24515885 0.025027977 -0.09660191 -0.34093872
0.059712555 -0.08176545 -0.1692489 -0.20655055 -0.19817775 0.14580101 -0.068758145 0.17063202
-0.09413631 -0.16970134 -0.20698376 -0.27157772 -0.10496018 0.19532493 0.09296542 -0.24731183
-0.15678802 -0.07334502 -0.060631055 -0.22883426 -0.11310252 0.17951497 0.00011696587 0.19787227
0.05182619 -0.07845931 -0.051272158 0.0015399673 0.13092704 -0.034297865 0.004738892 -0.26725096
0.15474018 0.18555683 0.15148856 0.24668 -0.3026847 0.23790704 -0.046115417 -0.13678057
-0.079098634 0.07205604 0.14596522 -0.027635938 -0.03276921 -0.10644927 0.041397583 -0.05880523
-0.19969715 -0.23865025 -0.21627702 0.15113036 -0.006602081 0.088069834 -0.02209178 -0.20636536
-0.038286906 -0.107174754 -0.06611581 0.1371582 -0.027993584 0.1019507 0.03309891 0.249476
-0.1307787 -0.013523697 0.06676366 0.101737365 0.13243234 -0.124186516 -0.04676373 0.07151526
0.31113464 -0.10699518 -0.29287302 -0.037363935 0.0028676842 0.1454056 0.039110593 0.09122305
0.069977164 0.20505384 0.10328441 0.0951567 -0.11117328 -0.13737792 -0.01966886 -0.24948815
0.38243133 -0.048160866 0.03063453 -0.02186194 -0.2118339 0.20334028 0.045675717 -0.05922958

network_body._body_endoder.seq_layers.0.bias f4 [128]
00000000: 9d93 c93c 5872 233d 625a 2abb 803b 81bb
00000010: 0c29 95bc c28e 283c 659d 4a3d bfd7 d43c
00000020: 3645 313d c762 2b3b 3537 af3c 2b08 5b3c
00000030: b5d5 e9bc aa25 88bb 2860 dd3c 209f 3c3d
00000040: e86c 8a3c 0ee7 0cbd d46a 83bc 3788 acbd
00000050: 45e0 dcbc 6157 0e3d 3084 5cbc 4c88 abbc
00000060: e4f1 e4bc 4af0 303b 7e23 14bd c40f 193d
00000070: 5780 c03c 7c4f a1bd cde5 073d b999 383d
00000080: 3609 c7bb fd32 2e3d dc57 f1bc 0c8b 103d
00000090: aaad ba3c e6d4 843c 8712 01bb 3d82 ee3b
000000a0: 497c 7fbd be72 ed3c 8015 bfbc ca5d 013c
000000b0: f767 6abc e2e4 66bd 4549 08bd 25da ca3c
000000c0: de66 16bc 4dff c439 896a 84bd a18b 743d
000000d0: c084 143d 46a4 543d e887 91bd 622f 8b3c
000000e0: 9d4e 8dbd 2c0f 433d 5f5c 873c 2761 13bd
000000f0: 9a48 b13b 30c6 f03b 4fc5 d63c a6d0 a53d
00000100: 8864 3b3d 05f1 eabb e6fb 05bc 45fa 163d
00000110: f98d 6b3c ceee 8bbd 46cb 4d3d d01c b83c
00000120: 4eed 1f3d b3c8 843b c6b1 403d 0a78 a83d
00000130: 907c 95bd 9747 70bd 223c 823c 0bb2 623d
00000140: c313 ffbc 5e6f 95bc 2693 1d3d a489 89bd
00000150: 53a0 b9bb 2362 433d 30aa c1bc 072a a63d
00000160: a3c3 403c ed00 69bd 0943 4a3d e736 7c3c
00000170: 1cd7 723c ada5 1f3c a20f b9bc a233 693d
00000180: 1ea7 1d3d 6a20 e43c de34 4e3d 2ad7 6dbb
00000190: 5f42 993b 8266 d2bc 7411 823c 6754 963b
000001a0: c722 d23c e8e0 8f3d 6fc6 de3d aba7 183d
000001b0: ece4 373d f4fb 503d 87f5 23bc c28b 0e3d
000001c0: ca55 7dbd 977e cebc b0bd 3b3d 2c4d a13d
000001d0: 557d 903d 1e53 f23c 0fcd 433d 70a9 033a
000001e0: 4a62 30bc b821 013c feee 403d 8f1b ec3a
000001f0: 2fc1 133d 1c73 413d 21bb a43c 589b 46bd
0.02460652 0.03990397 -0.0025993814 -0.0039438605 -0.01820805 0.010287942 0.04946651 0.025981782
0.043278895 0.0026151405 0.02138863 0.013368647 -0.028544286 -0.0041548805 0.02702339 0.04605019
0.016897634 -0.03440004 -0.01604215 -0.084244184 -0.026962409 0.0347513 -0.01345925 -0.020939015
-0.027947374 0.0026998692 -0.03616666 0.03736855 0.023498697 -0.078764886 0.03317814 0.045068476
-0.006074096 0.042529095 -0.02946084 0.035288855 0.022787888 0.0162148 -0.001969488 0.007278709
-0.062374387 0.028985377 -0.023325682 0.007895896 -0.014307014 -0.056370623 -0.033273 0.024762223
-0.009179799 0.00037574247 -0.064656325 0.059703473 0.036259413 0.051914476 -0.07106 0.016990367
-0.0689976 0.04762189 0.016523538 -0.035981324 0.005410266 0.0073478445 0.026217131 0.08096437
0.04575017 -0.007169845 -0.008177733 0.03685977 0.014377111 -0.06832658 0.050242685 0.022474676
0.03904467 0.0040522455 0.047044538 0.08226021 -0.07299149 -0.058662023 0.015897814 0.055345576
-0.031137353 -0.01824158 0.03847041 -0.06715706 -0.005664864 0.047701012 -0.023640722 0.08113485
0.011765393 -0.05688565 0.049380336 0.015393949 0.014821794 0.00974409 -0.022590462 0.056934007
0.038489453 0.027847487 0.050343387 -0.0036291578 0.0046771015 -0.025683645 0.015877463 0.0045876983
0.025651349 0.07025319 0.10877692 0.037269276 0.04489605 0.05102153 -0.010007269 0.034801252
-0.061849393 -0.025206847 0.045835197 0.078760475 0.07055155 0.029580649 0.04780298 0.00050225016
-0.010765621 0.007881574 0.04710292 0.0018013584 0.036072906 0.047228917 0.020108761 -0.04848799

network_body._body_endoder.seq_layers.2.weight f4 [128, 128]
00000000: 1bc8 9a3d 3d0c d33d 056a 423e 15ed 16be
00000010: bda8 2a3d 23d6 17be cf57 e93d 36f4 31be
00000020: 7341 39bd 7f61 1abe 6e59 c93d 687a e23d
00000030: 3f87 12be 9630 453c b492 7dbd 0189 82bd
00000040: 428b 053e 32a1 e5bc 318c 493d 7eb9 303e
00000050: 198f 15be 329d 2bbe 3d35 613d 35f9 6fbd
00000060: e528 7d3d aecc 00be 674d 573d a608 283d
00000070: df66 523d 9e70 03be 96e2 ddbd 84d6 0b3d
00000080: ca8c 22be e458 c5b9 bc3e 9cbd c165 bfbd
00000090: 3074 ccbd 16f7 3e3d d97a 573e aa13 1a3d
000000a0: 78a6 6f3c 59b1 e13b cb17 fc3d d25b 863d
000000b0: 5a92 edbd 8c11 7dbd 6963 fc3d 8d81 abbc
000000c0: decd a0bd 1f53 1e3d 5321 0bbd ca3c b03d
000000d0: f103 2bbe 527b c43d 9e2f 073e 2edd db3d
000000e0: 8bfc 38bc af6f 94bb 580d 1ebd d939 ad3d
000000f0: 01ae 04be f31a 0abe a01c 94bc 34b0 e63c
00000100: dd8b 5a3e 6084 e53b 9012 dabb b502 4ebd
00000110: 3b3a 06bd 72f4 8fbc 4b6d c73c 2e23 98bd
00000120: b27c 5b3d eb97 75bd 5bac 793d b80d 053d
00000130: 6064 a93d ad3d 14bc 82b0 153d 8c78 52bd
00000140: 0d58 8d3d a5bc 9abb cff6 54bd e709 5b3c
00000150: 486b 303d b3d4 103d 8618 57bd 0a41 43bb
00000160: c7b6 30be e590 983c de99 03bc 95c0 0abd
00000170: 0ee8 94bc 25ce f83c bac3 883d f6da 1abd
00000180: cea3 aa3c dc23 b8bd ab6e 233c 7f6f c63d
00000190: 1cb8 50be 8c2a 943d 64a9 8d3d 7dbe 80bd
000001a0: 7c79 2bbe a056 14be 81c1 8ebb 0798 13be
000001b0: 8eac 313d 4068 433e 26c8 19bd 92d1 8e3d
000001c0: aebb 2b3e fa44 ebbd 4b47 a33d d25e 17bc
000001d0: bcf1 f8bd 8e37 6cba 4a7f 1c3d e053 4c3d
000001e0: 8736 01be c0a6 fc3c 60b6 f6bc 5127 ca3d
000001f0: ac94 17be c817 8fbc a4eb 823b fef3 febc
00000200: 7b34 1fbe 8071 07be 3235 3c3d 4f4c 3b3d
00000210: 6c9b b9bd 2a89 5ebe 2d3a 9bbd 0428 59be
00000220: d687 1b3d 3f8d 0fbe b455 0dbe c3f3 b23b
00000230: 6643 b13d e8d8 e3bd ad6e 7ebd 283a bcbd
00000240: cd10 3dbb b9c6 b73d df8f 673d 4471 1b3d
00000250: cc16 83bd 67d7 71bd cd1e 963a d8c6 40be
00000260: 3a5f cb3d de58 573d 6e7a 08bd 30a2 383d
00000270: dc6e ccbc f4d4 483e a6c9 d93d cc3d 393c
00000280: 058e f7bd b8d3 0abe 8530 bcbd a6d3 9bbd
00000290: 46f0 1f3d 93b6 d9bd c39a 973d 3346 8fbb
000002a0: 1c3c 6abd b82e 213d af84 0cbd 1560 0fbc
000002b0: 5a9d 61be eeda 89bd af4b 63bd 2bbc 0d3d
000002c0: e5ff fd3c bc64 b93d 950c 81bc 3d2a 9ebd
000002d0: 8d1e 93bd 9ffe 30bd aed2 babd 5416 1dbd
000002e0: 1c92 5b3d b0e4 253e 644c ff3d 72d7 423e
000002f0: 942a 833d a075 263d 9a8b bb3c 2c55 11be
00000300: 5c61 393d 50a3 023d b94e 9d3d 5f1f 83bd
00000310: f52d eb3c b66e a8bd e07d 7fbd e0e7 acbd
00000320: f425 d03d 9c61 bebd e5c5 63bc 7b9a 64bc
00000330: fff8 08bd ce7c 863d 2031 1abe 2594 743a
00000340: 3069 11bd f2e8 dbbc 9137 babd 075c 8cba
00000350: c7dc 823d 70fd 3dbd 729c c63d 4b0f 9b3d
00000360: bf42 67bd 6c4a eabd 559f 85be 6986 49be
00000370: 0700 6abd 1af8 923d 665f d93b a13b 403c
00000380: ec55 56bd be84 82bd 5a99 093e b7df 313d
00000390: 0e44 80bd 2597 aebd 761c 603d 28a6 3d3d
000003a0: 6464 723d cc10 87bd 45e5 debd 3e26 34be
000003b0: f9a1 153e fecb 76bd 70d4 963d a236 91bd
000003c0: 564e 9c3d dbcf ad3c 0e6a 283e 5711 4b3d
000003d0: 7a28 313c 34e6 7cbd 2441 2dbd a33e a2bd
000003e0: 0124 233e 7c11 67bd edf5 b6bc e9e9 333d
000003f0: e47a 56bc 549d fabc 0732 02be 23dc 2dbe
0.07557698 0.10305069 0.18985756 -0.14738877 0.041664828 -0.1482778 0.11393701 -0.17378315
-0.045228433 -0.15076254 0.098315105 0.110585034 -0.14309405 0.01203551 -0.061907485 -0.06373788
0.13041404 -0.028030965 0.049205963 0.1725826 -0.14605369 -0.16759184 0.054982413 -0.05858727
0.06180658 -0.12578079 0.05256405 0.041023873 0.051367637 -0.12835929 -0.108342335 0.034140125
-0.1587402 -0.00037640997 -0.07629153 -0.0934558 -0.099830985 0.04662236 0.21042956 0.03761641
0.014627092 0.0068875966 0.12309226 0.06560482 -0.1160018 -0.061784312 0.123236485 -0.020935798
-0.07851766 0.03865349 -0.033967327 0.086053446 -0.16700722 0.09593834 0.13201758 0.10735546
-0.01129068 -0.0045299153 -0.038586944 0.08458299 -0.12957002 -0.13486843 -0.018080056 0.028160192
0.21342416 0.0070043057 -0.006655045 -0.05029555 -0.032770377 -0.017572615 0.024344107 -0.07428585
0.053585716 -0.059959333 0.060955387 0.032483786 0.08271098 -0.009047908 0.036545284 -0.051384494
0.0690156 -0.004722195 -0.051993188 0.01336906 0.04307106 0.035359096 -0.05251362 -0.0029793405
-0.17257224 0.018623779 -0.00803229 -0.033875067 -0.018177059 0.030371735 0.06677957 -0.037806474
0.020830061 -0.08991215 0.009975116 0.09689235 -0.20382732 0.07234678 0.06917074 -0.06286333
-0.16745561 -0.1448617 -0.0043565636 -0.14413463 0.04337745 0.19082737 -0.037544392 0.06973566
0.16770813 -0.114877656 0.079725824 -0.0092389155 -0.12155482 -0.0009010964 0.03820733 0.049884677
-0.12618457 0.030841231 -0.03011626 0.0987078 -0.14802808 -0.017467394 0.0039953757 -0.031122204
-0.15547363 -0.1322689 0.04594917 0.04572707 -0.090628475 -0.21732011 -0.075794555 -0.21206671
0.03797134 -0.14018725 -0.13802224 0.0054611876 0.08655433 -0.11125356 -0.062117267 -0.0919078
-0.0028849125 0.0897345 0.05653369 0.037949815 -0.064008325 -0.059043314 0.0011453271 -0.18825853
0.099302724 0.052574985 -0.033319883 0.04507655 -0.024955206 0.19612485 0.106341645 0.011306237
-0.12087635 -0.13557327 -0.09188942 -0.07608728 0.039047502 -0.106305264 0.07402565 -0.004372382
-0.05718623 0.039351195 -0.034306224 -0.008750935 -0.22032681 -0.06731211 -0.0554921 0.03460328
0.03100581 0.09052417 -0.01575307 -0.077229 -0.071835615 -0.043211576 -0.09122215 -0.038351372
0.053606138 0.16200519 0.12465742 0.19027498 0.064046055 0.04063952 0.022893716 -0.14192647
0.045258865 0.03189403 0.07681031 -0.06402468 0.028708437 -0.082242414 -0.062375903 -0.08442664
0.10163489 -0.09295961 -0.013902162 -0.013952847 -0.033440586 0.06566773 -0.15057802 0.00093299366
-0.035500705 -0.026844475 -0.0909263 -0.0010708579 0.06389766 -0.046384275 0.09697808 0.07571276
-0.05646014 -0.11439976 -0.26098123 -0.1968018 -0.057128932 0.07176228 0.006633687 0.011732967
-0.052328035 -0.06372975 0.13437405 0.04342624 -0.062629804 -0.08524922 0.054714642 0.046301037
0.05917777 -0.065950006 -0.108835734 -0.17592713 0.14612569 -0.060253136 0.07364738 -0.070904985
0.07632129 0.021217277 0.16446707 0.049577083 0.010812873 -0.061742976 -0.04229845 -0.07922103
0.15931703 -0.05641316 -0.022334063 0.043924246 -0.013090823 -0.030592598 -0.12714396 -0.16978507

network_body._body_endoder.seq_layers.2.bias f4 [128]
00000000: b478 cd3c a6a6 b13c 139e 00bc 4014 b1bc
00000010: f34e 56bd 4e63 b0bc 4301 3f3b 13cb b43d
00000020: 32e1 26bd ef92 dbbb 06b8 09bd b9f6 24bb
00000030: 595c 013b db25 72bc dcd5 abbc bda8 ab3c
00000040: 5a73 ecbb 570c 853d dfe6 c9bc 4d2c f43c
00000050: 30a1 25bc 4612 663c fae9 e9bc da93 ad3c
00000060: d810 513d 714b 353c d00d 6b3d 4bf4 263d
00000070: 5b43 ecbc 4b23 51bc 4f45 a3bb 417a 33bc
00000080: 0421 933d f88a 033c cdae 583d 1775 c33c
00000090: 487b f63c 69e9 84bb 08dc 92bc 8869 e43c
000000a0: 8451 6e3c fdca e33a c38d 8cbc 5449 ffbc
000000b0: e0fa cd38 9be0 bb3c baf7 d1bc 19a7 ed3b
000000c0: b407 8dbb c6a3 b6bc 5d78 163b 6d7f 013d
000000d0: ea24 05bd 04af 2abc 292a 5fbb 6ae6 a2bb
000000e0: b983 8b3c 83d3 09bd 8cb0 10bd c14d bdbc
000000f0: 34d6 41bd 6db9 1bbd 79cd a93b 2e60 cd3c
00000100: 1608 a8bb 9c70 8cbc cfc8 573d a5dc 1f3d
00000110: 06b1 943d 59dc e8bc 7581 5abb 481f c0bc
00000120: 30c3 c33b 9024 0dbd 6dbf b9bc 0fcf cabc
00000130: 8be6 0c3d 7d68 3fbc c1c7 45bc 3b2b 543c
00000140: cd64 123d 9646 0abd 2495 fe37 89e3 0abd
00000150: ef6d 8cbd 8d26 633d 8f5a b3bc bf51 113d
00000160: 3b5c a93c c0bf 0a3c 77aa 8bbc bdec e6bc
00000170: cfe2 f3bc 0cf1 1abb 82fb 133c 84bf eb3c
00000180: ee49 aabc 04b6 503c 556a 5cbd fb0a 23bd
00000190: c7fe 493d d628 4c3d 318c 4fbd 4958 863d
000001a0: aac6 063d 0d40 c03b 59ad 683d 762d e13c
000001b0: 53c2 0d3d 7f8f 493d 2dde 063d 9222 c1bc
000001c0: 44de 3f3a 7930 af3d 75c7 4e3c e049 9e3c
000001d0: 4120 3b3d 9085 43bb 643a ecbc de85 aa3b
000001e0: 1efb b939 4099 f5ba c745 c1bc 8356 01bb
000001f0: 8434 5a3b 460f 58bc ff61 1c3d 15c5 693d
0.02508197 0.02168591 -0.007850188 -0.021616101 -0.052321386 -0.021531727 0.002914504 0.08827796
-0.040742107 -0.0067008655 -0.033622764 -0.0025171472 0.0019738881 -0.014779533 -0.020976 0.020954484
-0.0072158994 0.06496494 -0.02464622 0.02980628 -0.010109231 0.014042443 -0.028553952 0.021188665
0.051041454 0.01106535 0.05738622 0.04076032 -0.028840711 -0.012764762 -0.0049826275 -0.010954441
0.071840316 0.008028738 0.052901078 0.023859544 0.030088082 -0.004056145 -0.017927185 0.027882352
0.014545802 0.0017379221 -0.017157441 -0.031162895 9.821891e-05 0.022934249 -0.02563082 0.0072525856
-0.004303897 -0.02229489 0.0022959926 0.031615663 -0.032505907 -0.010417704 -0.003405223 -0.004971315
0.017030584 -0.03364898 -0.03532462 -0.023108365 -0.04732342 -0.038018633 0.005181965 0.025070276
-0.005127917 -0.01714354 0.05268174 0.039028782 0.07260327 -0.028425382 -0.0033341323 -0.023452416
0.005974196 -0.034458697 -0.022674287 -0.024756936 0.03439955 -0.011682627 -0.012071551 0.01294976
0.035740662 -0.033758722 3.0348609e-05 -0.0339084 -0.06856906 0.055456687 -0.021893768 0.03547835
0.020673862 0.008468568 -0.017049057 -0.028189057 -0.029771237 -0.002364221 0.009032132 0.028777845
-0.020787206 0.012738708 -0.053812344 -0.039805394 0.04931524 0.04984363 -0.050670806 0.06559808
0.032904305 0.0058670104 0.056805942 0.027487498 0.03460915 0.049209114 0.032926727 -0.023576055
0.0007319192 0.08554167 0.012620796 0.019322336 0.045685057 -0.0029834248 -0.028836437 0.0052039465
0.00035473047 -0.0018737689 -0.023592843 -0.0019735403 0.0033295462 -0.013187235 0.038179394 0.057072718

action_model._continuous_distribution.log_sigma f4 [1, 3]
00000000: d2c0 85be 9c6a 83bd 4a57 a4bd
-0.26123673 -0.064168185 -0.080244616

action_model._continuous_distribution.mu.weight f4 [3, 128]
00000000: 60e6 13bd f6a2 d2bd 407a d7bc cac2 853d
00000010: 0dac b4bb 75e0 94bc 816b 15bd f39b 2c3c
00000020: 7bb5 01bc bc13 19bd c875 6bbb 13e9 29bd
00000030: 7fd3 5ebd 6680 aa3c 86e2 a23b faf7 8abd
00000040: 8701 0dbd ae22 3f3c dd16 56bd 1158 89bd
00000050: 273e 2cbc 039b be3b c896 9abb 2ea9 16bd
00000060: 4210 85bb 65b3 febb 1673 733c 7e33 283b
00000070: 6a59 44bb 45ab 20bc da85 00bd 8ca6 2abb
00000080: cba8 223c 3b9a d8bc 48c6 5cbb 2973 d3bc
00000090: 4038 5dbd e661 ddbb a69d ddbc e654 64bd
000000a0: a446 183c 0ca5 933b 6534 26bb 36b4 4d3c
000000b0: a232 92bd f580 a6bc 71b9 523c 1bb7 b9bd
000000c0: 9c2b f3bc bfaa efbc 235b 7ebc 964a 8bbb
000000d0: 99a2 8e3a 75e2 1cbd 5299 26bd 884b 25bd
000000e0: 9dc1 15bd 8e4e 06bc d6b5 bbba 997f 693c
000000f0: 1082 afbc 5400 7cbc a274 68bd 9d9f 12bd
00000100: 14eb 5c3c 752b 0c3c 8dbd 28bd 45b5 8cbb
00000110: d950 193c 8d2c 0b3c 7f6a f7bb 8027 b2bc
00000120: 746e 323c 7fae 39bb 8d89 24bd 8ebd f63a
00000130: 7587 ce3b d4ed 2bbd 9234 8b3b d4b9 81bc
00000140: 1a8b 213c c2b8 9fbc a8ea 50bd 2429 19bd
00000150: 1f75 b03a 09d4 6abc 7a04 a93c 5862 03bd
00000160: 6f44 35bd f443 373c deb2 5ebb 3a5e a23b
00000170: 7931 1abd 57f7 12bd cab5 f83c d86c 16bc
00000180: 4d3d cfbc b6ce a8bc 8a10 b7bb 4bd4 c5bc
00000190: b7e0 37ba 543c 83bc 8fb7 57bc 0e14 823c
000001a0: 88cf 81bc 9fc7 37bc fd9b b4bc 5227 14bc
000001b0: 8033 0abd 670c 68bb 95fb d83c c59d 46bb
000001c0: 9a0e 29bd 3e5b 50bc a74f 94bd eeee 133c
000001d0: 9eb4 0bbd 506c 49bd 396b 77bc 774b 40bd
000001e0: 7472 0abd b94f 293c 5783 d83c 2548 8fbd
000001f0: c761 5fbd 2ce7 46bd 9c48 a5bc 09cc 90bc
00000200: 9f64 963d a58b 9e3d d92f 773d 10a0 863d
00000210: 014b 593d 9d6e 083d fbf7 983d 6cfa 83bc
00000220: cb23 483c 76b3 c13d 64c7 1a3d 4b5f a43d
00000230: 805f e93d 3d48 1e3d 2f7d c33c 8b78 d83d
00000240: be2c f13c d16f 49bd e6be 263d 8196 383d
00000250: 86b9 953d 9849 023c 634b 393d 7b62 253d
00000260: 0853 a0bc 6a7e 8fbc 7e30 84bc ab5c 0bbd
00000270: 31b3 af3c d7c0 d03c e3a4 793d 16fe 733c
00000280: 588c 21bd 1591 9b3d f076 13bd ea72 3e3d
00000290: 1557 8e3d 230a 233d 5f24 bf3c ae56 ab3d
000002a0: 7de8 d73c 31c2 623c 5107 2a3c b087 a63c
000002b0: cee6 a13d a8eb c53c 2bc6 a93b 7d3a 233d
000002c0: e834 bf3d 2a51 383d 2835 c63b 97e7 183d
000002d0: 4e46 073d dcbf d93d a377 813d e27c 453d
000002e0: 1279 b63d bf75 b43c 7cc0 4c3d 6e6c b43d
000002f0: c04a 513d 43e6 333d 4281 923d ef24 923d
00000300: d71b 203c b551 9c3b 07d0 af3c 1c06 243c
00000310: baf5 eebc a4ea 563d 5dd0 763d 8948 4c3d
00000320: ffd9 923d 3b9b e73c 2a1b b63d 14d3 b93d
00000330: 4e62 ccbb 4917 623d f08f dfbb d7f8 023d
00000340: c0e6 70bc 9fec f73c 20e0 973d b381 d53d
00000350: 96f4 723c e69c f63c ec8d 213d 4e50 173d
00000360: c2c2 ac3d ffd7 a0ba 9113 f13c 0e38 503c
00000370: a70e 833d 587f 933d 1ea2 813c 7aec bfbc
00000380: 0432 893d 3bdd 8d3d 4ba5 203c cf47 c13d
00000390: 44bb 34bd 6be5 31bd 0488 503d 48bd 7cba
000003a0: d523 a93d b292 763d 03cf 853c 22d8 843d
000003b0: 7e49 ac3c d5e5 81bc a9cc 8abd 0fd1 ed3c
000003c0: 510e 823d a83e 06bd cbf6 523d ded2 64bc
000003d0: 8494 b93a 2ba7 623d 677b 603d 2da6 ac3d
000003e0: 00ea 053a 406a f23b 0095 a83d 04b5 4d3d
000003f0: b5cf 8a3d d921 a23d 13d9 b1bc d813 8d3d
-0.036108375 -0.102849886 -0.02630341 0.06531294 -0.005513674 -0.018173436 -0.036479477 0.010535228
-0.0079168035 -0.037372336 -0.0035928357 -0.041482043 -0.054400917 0.020813178 0.0049708514 -0.06785579
-0.034425285 0.011665983 -0.052267898 -0.067062505 -0.010512865 0.0058168187 -0.0047176816 -0.036782436
-0.004060776 -0.0077728503 0.014858982 0.0025665457 -0.0029960521 -0.009806459 -0.03137765 -0.002603921
0.009927939 -0.02644073 -0.003368752 -0.025811749 -0.054008722 -0.006756055 -0.027052712 -0.055745028
0.009294186 0.004505759 -0.002536082 0.012555173 -0.07138564 -0.020325163 0.0128615955 -0.09068128
-0.02968388 -0.029256223 -0.015524658 -0.0042508347 0.0010882198 -0.038301904 -0.04067356 -0.040355235
-0.036561597 -0.00819744 -0.0014321159 0.014251613 -0.021424323 -0.015380938 -0.056751855 -0.03579675
0.013483781 0.008555283 -0.041196395 -0.00429407 0.0093576545 0.008494508 -0.007550537 -0.02174735
0.010890592 -0.0028332768 -0.04017024 0.0018824802 0.006302769 -0.041974857 0.00424821 -0.01583568
0.009859825 -0.01949728 -0.051005036 -0.03739275 0.0013462639 -0.01433278 0.020632017 -0.03207621
-0.044254716 0.011185635 -0.0033981125 0.0049550803 -0.037644837 -0.035880413 0.030360121 -0.009181224
-0.025297785 -0.02060638 -0.0055866884 -0.02414908 -0.0007014381 -0.016019978 -0.013166322 0.015878703
-0.015846029 -0.011217027 -0.022047037 -0.009042578 -0.03374052 -0.0035407783 0.026487151 -0.003030644
-0.04127369 -0.012717066 -0.07241755 0.009029133 -0.034107797 -0.04917556 -0.0151012475 -0.04694697
-0.033800557 0.010333949 0.026429815 -0.06996182 -0.054536607 -0.048560306 -0.020176224 -0.017675417
0.07343411 0.07741479 0.060348365 0.06573498 0.053050045 0.033308614 0.074691735 -0.016110621
0.012215565 0.094580576 0.03778781 0.08025988 0.11395168 0.03864311 0.023863403 0.10569867
0.02944028 -0.049178902 0.0407094 0.045065407 0.073107764 0.007952116 0.04523791 0.04037712
-0.019570842 -0.017516334 -0.016136404 -0.034023922 0.02144775 0.025482578 0.060948264 0.014892122
-0.039440483 0.075960316 -0.0360021 0.04649631 0.06950203 0.03980459 0.023332773 0.08366142
0.026355976 0.013840244 0.010377721 0.020328373 0.079053506 0.024160221 0.005181094 0.0398507
0.09336263 0.04499928 0.006048817 0.037330236 0.033026032 0.106322974 0.06321647 0.0482148
0.08909811 0.022028802 0.049988255 0.08809744 0.051096678 0.043920767 0.0715356 0.07135951
0.009772263 0.0047704824 0.0214615 0.010011222 -0.029169906 0.052469864 0.060257304 0.049873862
0.07170486 0.028272262 0.088919 0.09073463 -0.006237305 0.055197988 -0.0068225786 0.031975593
-0.014703453 0.030264197 0.07415795 0.10425129 0.014828822 0.030104112 0.039441988 0.03694182
0.084355846 -0.0012271403 0.029428275 0.012708677 0.06399279 0.07202023 0.015824374 -0.02342819
0.06698993 0.06926962 0.009805034 0.094375245 -0.044123903 -0.04343168 0.050910965 -0.0009641242
0.082587875 0.060198493 0.016334062 0.064865366 0.021031138 -0.015856663 -0.06777317 0.029030351
0.06350387 -0.032774597 0.05150489 -0.01396629 0.0014158641 0.055335205 0.054805186 0.08430133
0.0005108416 0.00739792 0.082315445 0.050221458 0.06777898 0.07916612 -0.021709954 0.068885505

action_model._continuous_distribution.mu.bias f4 [3]
00000000: 990f c03c 26f1 85bd 3e79 06bb
0.023444938 -0.06540136 -0.0020519043

action_model._discrete_distribution.branches.0.weight f4 [2, 128]
00000000: cb7d 9c3d 5783 c33d 2b20 d93d 157e 813d
00000010: 4e0c e33d 06db f63d 11f6 c23d 59cc 4fbd
00000020: 20b6 063d 02c8 b93d c04d ea3b 2544 bc3d
00000030: 33bb da3d 64d6 493c 6a29 533d 80f6 ea3d
00000040: af73 893d 5209 03bd 795b 393d a271 943d
00000050: 83ec 9e3d 8c1f 683d 9b37 ae3c cac9 603d
00000060: bb96 f9bc 6153 473c 08b0 a5bc 612a 0dba
00000070: 13a9 d93d 8767 853d 7f59 a33d e423 073d
00000080: 8ef2 39bd 0d7c a83d 1c12 4bbd 9756 a23d
00000090: 4b70 873d f9aa bc3d 7ce8 803d 0915 c63b
000000a0: e1d7 67bc d7e5 8c3c d44e b83b 584e 923d
000000b0: af2b 963d f838 3d3d c636 fd3c 4c7b b93d
000000c0: 0245 9e3d 40aa ae3d 500b a1bc 7181 733d
000000d0: cd1c 0a3d c22a d73d 08cb a13d ae67 6a3d
000000e0: 9343 af3d 673f 633d 7843 db3d b5e9 f83d
000000f0: 87d7 b83d 3230 e93d 46d7 013e 17fe 503d
00000100: 833e 293c 72cf 5ebc dc82 16bd 1c10 763a
00000110: 4d11 0ebd 6afc 2f3d fba8 ed3d 6dfd b23d
00000120: ffb8 da3d b1dd 053e 6fb1 de3d 4444 193d
00000130: 8b63 4bbc a751 b73d d1a3 493a 6633 03bd
00000140: 5d29 80bb 3c98 103e 309c b13d 794b 143e
00000150: f860 393d ccb1 833d cb64 473d b5db d93c
00000160: 065d 983d 6687 253d bf25 4b3d 48b9 4a3d
00000170: 6eac 593d 7c08 163d c965 933d 00eb 1bbc
00000180: 459d d23d b05a ee3d f71f bb3c 25a6 f43d
00000190: 063b 7ebc 3005 36bd a4ff c53d ba0f 5cbd
000001a0: b700 1d3d cc32 f13d d374 8d3d 5ded 513d
000001b0: 0ae8 a0bb 2708 2a3c 5cfe 4a3c c7f5 953d
000001c0: a1ed d13d 3227 83bd 6946 d53d d780 d23c
000001d0: 1e00 ddbc e9d7 d03d 7971 f23d f183 d43d
000001e0: c11d 49bb 4124 153d 5a9b cd3d d575 fc3d
000001f0: c37c 003e 19eb e93d 84fb a9bb 7adf 103d
00000200: 4440 78bd b749 adbd 464f dabd aa92 8cbd
00000210: 6677 d7bd 97c8 0cbe 1680 d0bd 36e5 7b3d
00000220: 90e1 09bd f1ae acbd 7a2f 8fbb e5e1 c8bd
00000230: d6c0 c4bd 6476 01bc 99fd 29bd fc65 e7bd
00000240: 1294 8bbd 76c1 2c3d 92ad 42bd f3b6 cfbd
00000250: d900 9bbd d2b0 82bd dfcc 9cbc c1a6 0cbd
00000260: 4931 923c 7866 1abd fc4d b83c 12c7 98bb
00000270: d206 c1bd 319a 24bd 865c b3bd 287f 29bd
00000280: 3f41 043d 53ca 94bd b90b 493c 0bb6 98bd
00000290: 74b0 9dbd d02a acbd 4b18 52bd dd16 a7bc
000002a0: 9212 993c 78a3 0abd 5e1c 46bb 3bf8 8bbd
000002b0: a8bb b4bd 2283 f9bc 86a7 0ebd 49b6 a8bd
000002c0: 8c1f a1bd 517a 53bd 166b 8e3c 9ab2 9dbd
000002d0: 3244 4fbd f609 bfbd d12f 96bd a2e1 8bbd
000002e0: 0e14 c4bd 7af3 49bd b3f1 debd 7a39 f3bd
000002f0: 44b6 bbbd 5375 07be 0008 08be 1047 57bd
00000300: c825 29bc 1d39 393b 8bec 7b3c 50d2 7a39
00000310: e6b6 253d bd42 49bd c192 05be 5aac 94bd
00000320: 8664 b6bd ac5a 0cbe 9de5 d2bd 38ce 1dbd
00000330: 38aa a83b 1866 cabd 8e67 f33b 6765 e53c
00000340: 6935 44bc a2fe 11be bad7 98bd 2fa6 0fbe
00000350: fae5 4dbd 0b2a 5abd 8ffe 86bd cd35 1fbd
00000360: 3239 8abd c588 24bd 9902 55bd a124 efbc
00000370: f833 99bd 0753 6cbd aaad 76bd 0015 493c
00000380: 50e9 dcbd 7907 e8bd e3ee d6bc 614e f7bd
00000390: e4ce 173c e86f a93c 5bc3 bbbd c9a1 593d
000003a0: e9e7 58bd b100 f9bd e683 16bd 0029 09bd
000003b0: e382 1f3c 1aed 0cbc 56a4 2cbc 3f25 84bd
000003c0: 1fd9 b6bd f013 513d 5313 c5bd fce9 33bc
000003d0: 93dc b53c 24b9 aabd 5bd8 d6bd afdf b4bd
000003e0: 8e8f c23a b9af 3cbd 6881 c7bd a2fc 0ebe
000003f0: 27f3 bbbd d21c d0bd 8e2e ffbb c5c4 23bd
0.076411806 0.095465355 0.10601839 0.06322876 0.11086331 0.12053494 0.0951959 -0.05073199
0.03288853 0.090713516 0.007150382 0.09192685 0.10680237 0.012319181 0.051553167 0.114727974
0.06711518 -0.03199131 0.04525325 0.07248236 0.07759955 0.05667071 0.02126675 0.05487994
-0.030467382 0.012165875 -0.02022554 -0.0005385038 0.106279515 0.06513887 0.079760544 0.032993212
-0.045397334 0.08226786 -0.049577817 0.07926672 0.06613215 0.09212298 0.06294343 0.006044988
-0.014150591 0.01719944 0.0056246314 0.07143849 0.07332551 0.046196908 0.030909907 0.0905672
0.07728006 0.08528566 -0.019658715 0.059449617 0.033718873 0.10506202 0.07900053 0.057227783
0.08557811 0.055480387 0.10706228 0.12153951 0.090254836 0.11386146 0.12679777 0.05102357
0.010329845 -0.0135992635 -0.03674589 0.0009386556 -0.034684468 0.04296533 0.11604496 0.087397434
0.106798165 0.1307285 0.108736865 0.03741862 -0.01241387 0.08951121 0.0007691952 -0.03203144
-0.003911181 0.14120573 0.086723685 0.14481916 0.045258492 0.064303964 0.048680108 0.026594022
0.07439618 0.04041233 0.049596544 0.049493104 0.053142957 0.036629185 0.07197148 -0.009516478
0.10283903 0.11638391 0.02284239 0.11945752 -0.015517002 -0.04443854 0.096679 -0.053725936
0.03833076 0.11777267 0.06907048 0.051251758 -0.0049104737 0.01037792 0.012389746 0.07322269
0.10250402 -0.0640396 0.1041382 0.025696201 -0.026977595 0.101974316 0.118380494 0.10376728
-0.00306879 0.036411528 0.100393966 0.12327162 0.12547593 0.114217944 -0.0051874537 0.035369374
-0.060608163 -0.084613256 -0.106596515 -0.068639114 -0.1052082 -0.13748394 -0.101806805 0.06149789
-0.03366238 -0.08431805 -0.0043696733 -0.09808711 -0.09607093 -0.007901762 -0.041501615 -0.11298749
-0.068153515 0.042176686 -0.04752881 -0.10142317 -0.07568521 -0.06381382 -0.019140659 -0.034338716
0.017845767 -0.037695378 0.022498123 -0.004662403 -0.09425129 -0.04018611 -0.08757882 -0.04138103
0.032288786 -0.07265153 0.012270861 -0.07456597 -0.076996714 -0.08406603 -0.0512927 -0.020396644
0.018685613 -0.033847302 -0.003022931 -0.068344556 -0.08824855 -0.030458037 -0.03482773 -0.08237893
-0.07867345 -0.051630322 0.017385047 -0.07700081 -0.050602145 -0.09328072 -0.07333339 -0.068301454
-0.09574138 -0.049304463 -0.10885944 -0.11876197 -0.09165624 -0.1322835 -0.13284302 -0.052558005
-0.010323949 0.0028262802 0.01537622 0.00023920205 0.04045763 -0.049135912 -0.13044263 -0.07259436
-0.08905892 -0.13706464 -0.102977015 -0.038526744 0.005147245 -0.09882754 0.007428116 0.028002454
-0.011975625 -0.14257291 -0.074630216 -0.14028238 -0.05026815 -0.05326275 -0.06591522 -0.038869668
-0.067491904 -0.040169496 -0.05200443 -0.02919227 -0.074806154 -0.05769637 -0.060224213 0.012273073
-0.10786688 -0.1132955 -0.026236957 -0.120754965 0.009265635 0.020683244 -0.091681205 0.053132806
-0.05295554 -0.12158335 -0.036746882 -0.033486366 0.009735796 -0.008601451 -0.010537228 -0.06452417
-0.08928131 0.051044405 -0.096228264 -0.010981079 0.022199905 -0.08336094 -0.10490485 -0.08831727
0.0014843808 -0.04606602 -0.09741479 -0.1396356 -0.09177237 -0.10161747 -0.007787532 -0.039982576

action_model._discrete_distribution.branches.0.bias f4 [2]
00000000: 9dc3 a3bd 9ec3 a33d
-0.07996295 0.079962954

action_model._discrete_distribution.branches.1.weight f4 [2, 128]
00000000: 21f0 da3d d5cb a33d e210 dc3d 2b8b 8c3d
00000010: f680 aa3d 0e12 753d a9c8 aa3d a920 efbd
00000020: 4c5c 5a3c e5cb 0d3e dabb 8ebc a3bd ed3d
00000030: afe7 e83d 3998 ba3c 2d40 703d 4ab3 aa3d
00000040: 984c a53c fa51 2ebd a3a7 d53d c018 d53d
00000050: bd0a 913d 5d60 6cbd 023a 333d 316b ee3d
00000060: d7aa 1abd ee6b 223c 37d0 96bc 3583 abbc
00000070: efcb 273d b585 1b3d 44bc 9f3d 7aa9 413d
00000080: 0f52 38bd 737e cb3d f2d9 68bc 5d30 033e
00000090: 983e 323d 790d be3d 4a72 b83d 4af2 a53d
000000a0: 9daa 94bc 76c5 163d 963d 8ebc 9dd4 383d
000000b0: f9e7 033e 7ce7 073e c2b5 843c 3d96 063e
000000c0: 079d 4f3c 7147 cc3d 3a5d ed3b c928 d43d
000000d0: 6c6e 513d 374b 823d 4ae1 fb3d 60c0 c23d
000000e0: 358c 8f3d a158 603d 95eb 693d ef12 b63d
000000f0: 706d d53d fefa 9a3d e2b1 0d3e fe85 113e
00000100: 3b71 be3b 6c33 213c 9fe9 8f3d d106 543d
00000110: 98ac 51bd c743 743d b384 853d a354 743d
00000120: a30c 163e 1fd8 9a3d f711 b43d a31a 153c
00000130: 32f7 913c df09 d23d cc3b 183b cb4c ac3c
00000140: 7992 333c 3062 723d 9cd0 043e 9bc2 a93d
00000150: 32de 523c 411b dd3d 83a7 783d a22a d83d
00000160: eaab 9c3d 7d08 4d3d e34f 613d 3d41 f73c
00000170: bb64 c23d cb1c 763d 0251 8c3d 3c77 7bbc
00000180: 3acb b23d 017d e13d 545e b33c 286c a23d
00000190: 7260 eebc 8c8c 2ebd 51f0 573d 629f 31bd
000001a0: 440c ff3d f38a a53d a85a 813d f11e 093e
000001b0: 9a73 d23d bbc2 3ebc 4b64 103d 14e1 5d3d
000001c0: 9cf6 9b3d a6e0 8ebd 7c4b d93d ba21 1d3d
000001d0: 0b25 8d3d a6ce f03d e38f 9b3d 4b69 003e
000001e0: 541e bdbc 1584 273d da78 443d 9e13 853d
000001f0: d39a 853d e512 f43d 1fce 173c 8475 a63d
00000200: 17a8 13be 6bb0 98bd 4a10 c3bd e093 7cbd
00000210: 92b7 9fbd 8e44 acbd 1bbb c4bd dbc3 003e
00000220: d0ca c8bc c4df e9bd 9379 243b a88b efbd
00000230: 04fe cbbd 349a 63bb 489d 6ebd 1fad a8bd
00000240: 93b3 28bd e73c 793d b727 cabd 9e71 d3bd
00000250: 8b80 95bd e3fc 863d ca98 94bc b496 0cbe
00000260: 00fb 823c 56d6 0dbd d182 6e3c 39a6 143d
00000270: 80cd febc 06b5 5fbd e41d a8bd c7ad 1fbd
00000280: 4920 0b3d de8c 99bd 8f83 593d 1f9a f2bd
00000290: b60b 3fbd ca26 9abd 325b 80bd 44b4 97bd
000002a0: beef f93c 1f5b 2fbd 1b56 ad3b 561e 06bd
000002b0: 0571 03be 6a30 04be 3e5e 47bd ca35 08be
000002c0: 2580 bebc 0999 cabd 2b27 a33a b563 d1bd
000002d0: 865f 7bbd 7bd4 8ebd 2bcc e8bd dae4 bebd
000002e0: c884 9fbd 6312 46bd 266f 53bd 8e00 c8bd
000002f0: a9fe a7bd b2ea acbd 9d3e 0cbe 0257 02be
00000300: d74c 41bb 530e a5bc dd99 a0bd 9717 88bd
00000310: 2526 843d 9efa 0cbd 294b 97bd 5b6a adbd
00000320: 79e2 ffbd 1138 6dbd 4072 c1bd f8c5 71bc
00000330: a2ec bfbc ae8c b8bd 61b8 733b c625 ddbc
00000340: 90b7 dbbc 5ab0 9dbd d146 1bbe 499f cbbd
00000350: 84af 87bc 7cfb c3bd a31f 76bd 650f d4bd
00000360: be3c 95bd 1012 45bd d7c8 5abd 444a 04bd
00000370: 8c9d bcbd 1955 51bd 5965 abbd ea19 9d3c
00000380: f281 aebd 74ed 08be 3ef1 2dbc 44c0 a3bd
00000390: ce5f cc3c 56a1 ad3c 9334 80bd 11ba 4e3d
000003a0: 6e62 eebd 4c76 99bd cf63 9abd e456 04be
000003b0: 0658 cdbd cd0f 1b3a 0d35 61bd d1bb 72bd
000003c0: 090b 98bd ec67 813d 20ec dabd 0392 f8bc
000003d0: 75b5 86bd 2e3a f3bd 5dc0 9ebd 06d2 04be
000003e0: d115 b53b 91be 3dbd 7014 54bd 45a1 aebd
000003f0: 4052 7cbd 30af fcbd 455a 413b 9a05 97bd
0.10690332 0.07997862 0.10745408 0.06862482 0.083253786 0.05983167 0.08339054 -0.11676151
0.013327669 0.13847311 -0.017423559 0.11608436 0.11372315 0.022777664 0.058654953 0.08334978
0.020178124 -0.042558648 0.10432365 0.10405111 0.07082126 -0.057709087 0.043756492 0.11641539
-0.03776058 0.009913428 -0.018409831 -0.020936588 0.04096597 0.03796931 0.07799581 0.047280766
-0.045000132 0.09936228 -0.014212118 0.12811418 0.043516725 0.092799135 0.09006174 0.081028536
-0.018147761 0.036809407 -0.01736335 0.04512464 0.1288146 0.13271898 0.01619995 0.13143249
0.012671716 0.09974564 0.0072437795 0.10359342 0.051130697 0.06362002 0.1229883 0.09509349
0.07009164 0.054772023 0.057109434 0.0889033 0.10421264 0.07567404 0.13837388 0.1421127
0.005811838 0.00983892 0.070269816 0.051764313 -0.05118999 0.05963495 0.06519451 0.05965103
0.14653258 0.07560753 0.08792489 0.009100589 0.017818067 0.10255789 0.0023229 0.021032711
0.010960215 0.05917567 0.12970203 0.08289071 0.012870358 0.10796214 0.060706627 0.105550066
0.076499775 0.050056923 0.055007827 0.030182475 0.09491869 0.060086053 0.068513885 -0.015348252
0.08730169 0.11010171 0.021895565 0.079307854 -0.029098723 -0.042614505 0.052719418 -0.04336489
0.12453511 0.08083143 0.063161194 0.1339071 0.102759555 -0.011643107 0.035251897 0.05416973
0.076153964 -0.06976442 0.106101006 0.038362242 0.06891831 0.11758165 0.075958036 0.12540166
-0.02308575 0.040897448 0.047966816 0.06497882 0.06523671 0.11917666 0.009265452 0.08127883
-0.1441959 -0.07455524 -0.09524591 -0.061664462 -0.07798685 -0.08411513 -0.09606 0.12574713
-0.024510771 -0.11419633 0.0025096878 -0.11696559 -0.09960559 -0.0034729363 -0.058255464 -0.08236145
-0.04118688 0.060849097 -0.09870856 -0.10324405 -0.07299908 0.06591203 -0.018139262 -0.13729364
0.015988827 -0.034628235 0.014557556 0.036291335 -0.03110385 -0.054615997 -0.08208826 -0.038984086
0.033966336 -0.074975714 0.05310398 -0.118458025 -0.046642028 -0.0752693 -0.06267394 -0.0740743
0.030509826 -0.04281151 0.0052898056 -0.032743774 -0.12836082 -0.12909093 -0.04867386 -0.13301769
-0.023254463 -0.098924704 0.0012447586 -0.10224096 -0.061370395 -0.06974121 -0.11367067 -0.09320994
-0.07788998 -0.04835738 -0.05161967 -0.09765731 -0.082028694 -0.08443202 -0.1369576 -0.12728503
-0.0029495263 -0.020148432 -0.07841847 -0.066451244 0.06452588 -0.034418695 -0.073873825 -0.08467551
-0.12494368 -0.057914797 -0.094456196 -0.014756672 -0.023428265 -0.090112075 0.0037188756 -0.02699555
-0.026820928 -0.07699652 -0.15163733 -0.099424906 -0.016563185 -0.09569451 -0.060088765 -0.10354499
-0.07286976 -0.04811293 -0.053414192 -0.032297388 -0.09209737 -0.051106546 -0.0836894 0.019177396
-0.08520879 -0.13371831 -0.010616599 -0.07995656 0.024948027 0.021195095 -0.06260028 0.050470416
-0.11639868 -0.074932665 -0.07538568 -0.12923771 -0.10026555 0.0005915135 -0.054982234 -0.059261147
-0.0742398 0.0631865 -0.106895685 -0.030343061 -0.06577579 -0.11876331 -0.07751534 -0.12970743
0.0055262824 -0.046324316 -0.051777303 -0.085268535 -0.061601877 -0.12338102 0.0029503268 -0.07374115

action_model._discrete_distribution.branches.1.bias f4 [2]
00000000: 4ae6 8fbd 4de6 8f3d
-0.07026346 0.07026348

exp_avg f4 [128, 53]
00000000: 94c0 3a39 d5a4 f4b5 59dd 8d97 8ddc e338
00000010: 3445 df38 6c68 3439 cadf f4b5 c4a2 3119
00000020: 354f 1539 e39d 1039 371e 3539 d9a4 f4b5
00000030: 8c5c 8d97 96a4 9838 5b78 9a38 e950 bab8
00000040: 9ca5 fcb5 685c 1197 d7c0 0639 e8f6 0c39
00000050: 89e0 ad38 6ba5 ffb5 7d2e 8d97 7094 dcb7
00000060: 9d25 c6b7 f68d 0db9 b71b aab6 e1ef 8717
00000070: 332c 2e39 aae2 3739 459c 7038 c9f8 35b5
00000080: d4e1 8b97 d6a3 bbb7 1d44 a4b7 7cc2 f3b8
00000090: 4161 83b6 fc70 ec96 4c78 ad39 110e ab39
000000a0: 447d a938 114d 36b5 28e4 8d97 a52e 2cb8
000000b0: 5939 19b8 3c83 9538 0542 4cb8 57b5 a9b8
000000c0: c183 aa3b 247a 6539 77d5 483a 35ef dc39
000000d0: 19f7 083a 5380 5838 8848 36b5 c880 d195
000000e0: d626 50b9 c23e 4fb9 0458 2838 e4bd 36b5
000000f0: 454b e098 04d1 46b9 763c 47b9 ae5a e1b5
00000100: 8848 36b5 83df cc95 ff08 84b8 0f7e 8eb8
00000110: 625c b7b7 d4ff 77b5 6b7d ef95 1172 4eb9
00000120: 861b 4cb9 f32a 08b9 1acb 7bb6 6d54 7f95
00000130: cb27 c4b8 cb0c c0b8 1b5f e536 fb84 2735
00000140: d29f 1016 e03d 65b9 b9d6 60b9 a175 98b5
00000150: c744 7cb6 bf1b 8595 5cf6 a8b8 1a02 b0b8
00000160: 1cf5 7db7 a7e1 9036 d467 4c16 93e9 2cb9
00000170: 81e4 2ab9 7ec7 92b8 d44d 7cb6 dd38 8c95
00000180: d190 1db9 20e4 1ab9 f8bd 36b8 550e 51b9
00000190: 8689 0336 ba26 093a 2fd4 c3b8 3770 52b9
000001a0: 1474 6db8 6846 54b9 23c8 e0b8 1084 2ab7
000001b0: c24f 1b95 ad17 f438 3a10 fd38 0edb d1b8
000001c0: dcc4 2ab7 afa8 b19a e1f4 e038 1051 ec38
000001d0: f2bd cdb8 0c84 2ab7 1639 8194 385f f638
000001e0: 3719 f838 cd03 5639 067f c2b7 40fc 9c96
000001f0: b328 0d39 1950 0639 4c8e 2a39 648b 2fb6
00000200: f8df c394 8d71 3b37 43a8 6137 54b9 4439
00000210: 167c 14b8 0449 f018 cfea e538 ccef d238
00000220: c937 bb38 1595 62b5 419d 8514 9326 8937
00000230: 6561 b137 7787 5839 0390 2fb8 402c 2018
00000240: 3049 74b8 fbcb 68b8 95f1 cc38 49aa 67b5
00000250: 3bd6 4395 27e3 bf38 2153 bf38 2a57 8137
00000260: f6c3 2239 bf36 6339 3158 e93b 57e2 4f39
00000270: 7505 c239 24de c139 e8c7 9c39 827c 8438
00000280: 4210 90b4 5b09 3195 1370 aab7 e3eb 9fb7
00000290: 6473 8138 3d4c 90b4 9565 ac97 5bea 53b7
000002a0: 137c 35b7 0d82 5d38 4310 90b4 708d 2c95
000002b0: f9c9 9eb6 4e71 74b6 8ccd 99b6 7a25 b5b5
000002c0: 3009 0895 dc9a a4b7 baf6 77b7 a2a3 cbb7
000002d0: 0ba2 35b4 9c94 2695 f527 6137 4e42 7837
000002e0: 5a89 47b7 c439 76b6 3e1f 2e16 058a 54b7
000002f0: ebbb c9b6 0cf1 f5b6 538a ac34 5dcc 1e95
00000300: 5e41 58b7 358a 37b7 3250 69b7 1c73 76b6
00000310: 3ecb 8e15 501e ad38 843e ac38 f514 fab6
00000320: 345a ad34 2e0e 2c95 09a1 a6b6 3821 56b6
00000330: 03aa 1538 c370 bcb8 c1a7 17b8 7d89 e83a
00000340: 7beb b338 1300 5639 196d 2f39 ed6a 7e39
00000350: 7f8f 66b7 7eab 84b2 4746 5e16 4201 a6b7
00000360: 9bbb a9b7 6e16 6eb7 5e54 88b2 7309 fc98
00000370: ae23 a1b7 5bb2 a3b7 d58b 40b7 feab 84b2
00000380: c0a0 6016 7dc1 20b7 55da 35b7 8909 ec35
00000390: 1a17 6ab5 61bf b015 5109 a7b7 ebb7 adb7
000003a0: 2445 89b7 7d9c 1135 b822 4f16 7a44 81b7
000003b0: 84d4 82b7 b63b 1ab7 f521 d1b5 a9e6 2917
000003c0: e9c6 26b7 8567 36b7 16ce 9eb6 479d 0935
000003d0: bca6 4e16 d403 92b7 c455 95b7 7f59 a4b6
000003e0: 85a8 f6b5 1fc8 a716 4cda cdb7 8eaf d1b7
000003f0: 4013 b7b7 1075 0a35 bb73 4e16 39e3 1db7
0.00017810083 -1.8227389e-06 -9.167787e-25 0.00010865284 0.00010646359 0.00017205038 -1.8244548e-06 9.183556e-24
0.00014239254 0.00013791728 0.00017272761 -1.8227394e-06 -9.135274e-25 7.278581e-05 7.36571e-05 -8.884242e-05
-1.8823662e-06 -4.696866e-25 0.00012851074 0.0001344342 8.291106e-05 -1.9047123e-06 -9.123647e-25 -2.6295165e-05
-2.3620954e-05 -0.00013499692 -5.0696212e-06 8.784724e-25 0.00016610399 0.00017536679 5.7365996e-05 -6.7789784e-07
-9.0396715e-25 -2.236843e-05 -1.9582041e-05 -0.000116233685 -3.915426e-06 -3.819916e-25 0.0003308676 0.00032626142
8.0818805e-05 -6.791243e-07 -9.169506e-25 -4.1051437e-05 -3.653145e-05 7.129318e-05 -4.8698876e-05 -8.092325e-05
0.0052036946 0.00021884643 0.0007661203 0.00042139893 0.00052248087 5.1617924e-05 -6.790583e-07 -8.461761e-26
-0.00019850893 -0.00019764437 4.0136292e-05 -6.807661e-07 -5.7978646e-24 -0.00018960616 -0.00019000642 -1.6790198e-06
-6.790583e-07 -8.2747583e-26 -6.295926e-05 -6.794568e-05 -2.1858319e-05 -9.238695e-07 -9.6729206e-26 -0.00019688184
-0.0001946521 -0.0001298597 -3.7520135e-06 -5.156344e-26 -9.35342e-05 -9.157656e-05 6.8358036e-06 6.240586e-07
1.1682658e-25 -0.00021862192 -0.00021442295 -1.1359117e-06 -3.759096e-06 -5.376205e-26 -8.056752e-05 -8.3927254e-05
-1.5137044e-05 4.317804e-06 1.6511751e-25 -0.00016490211 -0.00016297588 -6.998981e-05 -3.7596228e-06 -5.6635264e-26
-0.00015026635 -0.00014771568 -4.3569104e-05 -0.00019937132 1.960057e-06 0.0005231906 -9.337847e-05 -0.00020068964
-5.661331e-05 -0.00020244124 -0.00010718431 -1.0163538e-05 -3.136492e-26 0.000116392366 0.000120670025 -0.00010006699
-1.01786245e-05 -7.347801e-23 0.000107267646 0.00011268456 -9.810542e-05 -1.0163534e-05 -1.3048188e-26 0.0001174793
0.00011830258 0.00020410046 -2.3185752e-05 -2.5362351e-25 0.0001346197 0.00012809075 0.00016265473 -2.6158168e-06
-1.9778308e-26 1.1172507e-05 1.3450222e-05 0.00018761057 -3.5401514e-05 6.2112273e-24 0.000109633074 0.00010058246
8.927246e-05 -8.4408504e-07 1.3491594e-26 1.6349635e-05 2.1145397e-05 0.0002064983 -4.1857373e-05 2.0701856e-24
-5.8242294e-05 -5.5503082e-05 9.772476e-05 -8.6302003e-07 -3.9548934e-26 9.1499e-05 9.123074e-05 1.5418587e-05
0.00015522525 0.00021668801 0.007121109 0.00019825377 0.0003700663 0.00036977336 0.0002990358 6.317442e-05
-2.683392e-07 -3.5752246e-26 -2.0317768e-05 -1.906412e-05 6.1726925e-05 -2.687756e-07 -1.1140882e-24 -1.2631145e-05
-1.0817329e-05 5.2811625e-05 -2.6833922e-07 -3.4846698e-26 -4.7322796e-06 -3.6424785e-06 -4.583684e-06 -1.3496458e-06
-2.747223e-26 -1.9622436e-05 -1.4779793e-05 -2.4275683e-05 -1.691589e-07 -3.3640665e-26 1.3420348e-05 1.479739e-05
-1.1893304e-05 -3.669048e-06 1.4065466e-25 -1.266832e-05 -6.0121433e-06 -7.3296305e-06 3.213814e-07 -3.206906e-26
-1.2889823e-05 -1.0939829e-05 -1.3906554e-05 -3.672386e-06 5.7674e-26 8.254929e-05 8.2132436e-05 -7.4530203e-06
3.2289392e-07 -3.474631e-26 -4.9659325e-06 -3.190782e-06 3.5682704e-05 -8.985542e-05 -3.615744e-05 0.001774117
8.579247e-05 0.00020408658 0.00016729943 0.0002426316 -1.3742479e-05 -1.5444808e-08 1.7955193e-25 -1.9789328e-05
-2.023373e-05 -1.4191128e-05 -1.587085e-08 -6.5150015e-24 -1.920931e-05 -1.9514167e-05 -1.1476649e-05 -1.5445035e-08
1.81453e-25 -9.581793e-06 -1.0839275e-05 1.7586145e-06 -8.720541e-07 7.1387777e-26 -1.991229e-05 -2.070885e-05
-1.6363869e-05 5.424443e-07 1.6732282e-25 -1.5409885e-05 -1.5596168e-05 -9.193018e-06 -1.5581596e-06 5.489798e-25
-9.940683e-06 -1.0872148e-05 -4.7327585e-06 5.1265346e-07 1.669316e-25 -1.7406339e-05 -1.7802122e-05 -4.8979996e-06
-1.8377474e-06 2.71066e-25 -2.4539557e-05 -2.499649e-05 -2.1824264e-05 5.1579354e-07 1.6677066e-25 -9.410834e-06
