VirtualAquarium/results/VirtualAquariumNew/VirtualAquarium/VirtualAquarium-1999993.pt (torch, 559887 bytes, 42 tensors)

network_body._body_endoder.seq_layers.0.weight f4 [128, 43]
-0.23727144 -0.08238092 0.20639141 0.18457113 -0.0011899297 -0.15750144 -0.031116797 0.105740964
-0.037551314 -0.15841186 -0.031783365 -0.097070895 0.18235515 0.15260093 0.22047709 -0.091818966
-0.050333057 0.07424301 0.11854047 0.1275659 -0.12844376 -0.13318159 0.046725307 -0.10818365
0.22178549 0.23981567 -0.16545865 0.20099524 0.21240447 0.09115933 0.18659964 -0.39441055
-0.16369516 -0.2850013 0.20697291 0.14325835 -0.1256309 0.29478696 0.16361642 -0.41369015
-0.40683535 -0.20053546 0.17298007 -0.08560315 -0.021480832 -0.15460026 -0.21762 0.14521064
0.09302321 -0.03729302 0.018089296 0.036143202 -0.16772254 0.030817064 -0.3153835 0.0295612
-0.17676657 -0.24326874 0.012043657 -0.0356151 -0.11600082 -0.29994762 -0.23044173 -0.093898155
-0.15340807 -0.064236574 -0.4271635 -0.110842295 -0.0987489 -0.2935917 -0.3002414 -0.25584534
0.012051067 -0.19159597 0.22403519 0.02733476 0.06598381 -0.032139897 -0.34575123 0.21400732
-0.23311117 -0.4372275 -0.21861558 -0.06665945 -0.12272901 -0.2317098 0.016826248 -0.20285648
-0.2417364 -0.12244164 0.05548704 -0.060005885 -0.3989946 -0.19932698 -0.043384746 -0.13863967
-0.84596133 -0.11613074 -0.17571352 -0.053373203 -0.2419982 0.054702044 0.053098734 0.028277874
-0.43022075 -0.27032325 0.26062578 0.06710949 0.16565567 0.35749242 0.14094973 0.11081396
-0.099163175 -0.07837966 0.029606834 0.013010028 0.035703726 -0.061358877 0.09236866 0.19910912
-0.28837577 -0.07331734 -0.049617663 -0.30004123 -0.45269307 0.21885104 -0.04660045 0.13642563
0.17944527 -0.086260006 -0.12083997 -0.07271148 -0.032927077 0.022409802 -0.01659441 -0.45470732
0.0020532922 0.043547478 0.08890891 -0.20049316 -0.17100434 -0.16299307 0.24142851 0.08157395
-0.15023284 0.12595056 0.0045323935 -0.27944738 -0.21887101 -0.07102857 0.39283434 -0.09961186
0.22659242 0.042650897 -0.018706456 0.13721137 -0.25911766 -0.020566309 -0.25066787 -0.034029067
-0.15328413 -0.04282396 -0.011300128 -0.10923987 -0.19797297 -0.07819849 -0.072664484 -0.4432429
0.045273375 -0.07388441 0.0018048123 0.15009147 0.04950779 -0.60895884 -0.05797166 -0.19857772
0.26439926 0.2660493 -0.08930072 0.05589098 0.1170406 -0.26383096 0.13274853 0.048952013
0.08318188 -0.09007963 -0.35770747 -0.04688762 0.067055054 -0.06317433 0.14458424 0.0017434919
-0.28852725 -0.020195862 -0.22352044 -0.20726353 -0.03517947 0.11188905 -0.04632143 -0.29471424
0.10955415 0.2900463 -0.034252837 -0.38358653 0.06267239 -0.075572826 -0.31842867 -0.47689566
0.25991446 -0.10313147 -0.9361836 0.3190726 -0.18290287 0.03309267 -0.2607785 0.039716683
0.23768646 -0.19588935 0.15913792 -0.14447154 0.111163534 0.06379274 0.075629756 0.13984518
0.28535327 -0.28534666 0.050731495 0.03380017 -0.21913396 0.10414952 0.31180188 0.056913856
0.08994794 -0.11993097 -0.057869066 -0.15820262 0.012942673 -0.009127533 -0.11990637 0.092801444
-0.2155888 -0.13454333 -0.19855756 0.22342502 -0.29196504 0.23084979 0.17481394 -0.33547324
-0.07643035 0.21542124 0.32293877 -0.24640858 -0.09063432 -0.41244465 0.08116121 0.030356558
00000000: 49f7 72be 54b7 a8bd 4558 533e 3700 3d3e
00000010: 6af7 9bba 0f48 21be a7e8 febc b88e d83d
00000020: 68cf 19bd b836 22be 462f 02bd 1bcd c6bd
00000030: 4fbb 3a3e 6b43 1c3e bfc4 613e 950b bcbd
00000040: 092a 4ebd b80c 983d 59c5 f23d a3a0 023e
00000050: c386 03be c160 08be 0963 3f3d 648f ddbd
00000060: bc1b 633e 3d92 753e fe6d 29be b2d1 4d3e
00000070: 8f80 593e beb1 ba3d fa13 3f3e 2ef0 c9be
00000080: b49f 27be b1eb 91be b5f0 533e 51b2 123e
00000090: 63a5 00be 51ee 963e 108b 273e 32cf d3be
000000a0: b94c d0be 2b59 4dbe b021 313e b450 afbd
000000b0: 92f8 afbc 884f 1ebe c7d7 5ebe 19b2 143e
000000c0: f482 be3d 91c0 18bd 0130 943c e50a 143d
000000d0: 75bf 2bbe 1174 fc3c f279 a1be 542a f23c
000000e0: 4c02 35be 711b 79be c252 453c 24e1 11bd
000000f0: d791 edbd bc92 99be ebf8 6bbe ad4d c0bd
00000100: 0117 1dbe 778e 83bd 2db5 dabe 4901 e3bd
00000110: dd3c cabd a751 96be 3eb9 99be 29fe 82be
00000120: d771 453c bc31 44be 7b69 653e 26ed df3c
00000130: 8522 873d 20a5 03bd 4e06 b1be bc24 5b3e
00000140: b2b4 6ebe 48dc dfbe c3dc 5fbe c084 88bd
00000150: 5959 fbbd 5545 6dbe 33d7 893c 9cb9 4fbe
00000160: bf89 77be afc2 fabd 6146 633d bbc8 75bd
00000170: 0549 ccbe 5f1c 4cbe 34b4 31bd 8ff7 0dbe
00000180: ec90 58bf f4d5 edbd 3fee 33be dc9d 5abd
00000190: 60ce 77be 400f 603d 0f7e 593d 00a7 e73c
000001a0: e545 dcbe cf67 8abe be70 853e b370 893d
000001b0: a4a1 293e 3f09 b73e 2055 103e 6ef2 e23d
000001c0: 1016 cbbd 8485 a0bd 088a f23c 0328 553c
000001d0: 123e 123d 7253 7bbd c82b bd3d 43e3 4b3e
000001e0: fda5 93be 6727 96bd e43b 4bbd 019f 99be
000001f0: 63c7 e7be 7d1a 603e 1de0 3ebd 29b3 0b3e
00000200: 80c0 373e 16a9 b0bd f27a f7bd c2e9 94bd
00000210: 8bde 06bd c394 b73c 00f1 87bc 66cf e8be
00000220: 8790 063b d75e 323d e015 b63d 144e 4dbe
00000230: c31b 2fbe a8e7 26be 0939 773e 3e10 a73d
00000240: a3d6 19be 2ff9 003e 7984 943b ba13 8fbe
00000250: b91f 60be 6d77 91bd 9521 c93e 4e01 ccbd
00000260: d807 683e b5b2 2e3d 483e 99bc 2381 0c3e
00000270: 12ab 84be ad7a a8bc 8a57 80be 1062 0bbd
00000280: 84f6 1cbe 2d68 2fbd 2c24 39bc 27b9 dfbd
00000290: 6db9 4abe 8826 a0bd 1ed1 94bd bcf0 e2be
000002a0: 9370 393d b650 97bd 748f ec3a 94b1 193e
000002b0: aec8 4a3d bae4 1bbf b173 6dbd f557 4bbe
000002c0: 575f 873e 9d37 883e 4ce3 b6bd f1ed 643d
000002d0: fbb2 ef3d da14 87be 3bef 073e e881 483d
000002e0: 435b aa3d ab7b b8bd 6f25 b7be 3c0d 40bd
000002f0: 2954 893d 8b61 81bd e40d 143e e185 e43a
00000300: d8b9 93be cb71 a5bc 8be2 64be e43c 54be
00000310: 5918 10bd 1626 e53d 8abb 3dbd c9e4 96be
00000320: ed5d e03d f380 943e b44c 0cbd 7465 c4be
00000330: 625a 803d edc5 9abd 1509 a3be ab2b f4be
00000340: 8213 853e 9836 d3bd baa9 6fbf 7c5d a33e
00000350: e44a 3bbe 2e8c 073d c284 85be f6ad 223d
00000360: 1464 733e 3897 48be 0df5 223e 59f0 13be
00000370: b5a9 e33d c5a5 823d c6e3 9a3d 9333 0f3e
00000380: d319 923e f518 92be d4cb 4f3d 0c72 0a3d
00000390: a764 60be 584c d53d 7fa4 9f3e 811e 693d
000003a0: a036 b83d 5e9e f5bd 1d08 6dbd deff 21be
000003b0: 810d 543c a68b 15bc 7991 f5bd af0e be3d
000003c0: 4fc3 5cbe bac5 09be ac52 4bbe 87c9 643e
000003d0: 717c 95be e363 6c3e 6d02 333e 26c3 abbe
000003e0: 8487 9cbd 6397 5c3e 3b58 a53e 8852 7cbe
000003f0: 7d9e b9bd f22b d3be d937 a63d 51ae f83c

network_body._body_endoder.seq_layers.0.bias f4 [128]
-0.012278638 -0.18240273 -0.010591997 -0.08421096 -0.26446912 -0.031063458 -0.011391883 -0.09096388
-0.30279177 -0.22257349 -0.036185548 0.032644488 -0.17047226 0.06423211 -0.20727189 -0.031603336
-0.34700236 -0.1920277 -0.28584388 0.10196968 0.06340913 0.058953825 -0.025912207 0.068500936
0.07233917 -0.106346 -0.26201418 -0.18869273 -0.2393708 -0.12219083 -0.14756498 0.025284033
-0.023116583 -0.114591725 -0.004828861 -0.041170634 0.044717114 0.010562865 0.07151076 -0.011036782
0.011369334 -0.2289997 0.041297846 -0.020693995 -0.0628488 0.12433838 0.021026066 -0.02060933
-0.012214859 0.06118231 0.027525533 -0.18604489 0.07501236 -0.074307725 -0.061660446 -0.052625123
-0.041595478 -0.29502666 0.026345862 -0.0057163388 0.034756813 -0.075064726 0.0131261805 -0.24152431
-0.06521299 -0.2290689 0.0225636 0.019674504 -0.006621728 -0.21419738 -0.19785447 0.11266402
-0.06266858 0.03496838 -0.031550344 -0.07465699 -0.2929836 -0.3681367 -0.04120622 0.1002651
0.06484508 -0.11122427 -0.18184325 0.05078075 -0.06307321 -0.012174525 -0.05477668 -0.15346675
-0.02237322 -0.20194171 -0.038631696 0.12514709 0.020831196 0.111783616 -0.34131336 0.01280075
-0.0084242085 -0.23759648 0.0185714 -0.06426941 -0.22310744 -0.045622848 -0.12905052 -0.13831238
-0.18079473 -0.22316478 0.025869174 -0.15315111 -0.04048108 0.008204689 -0.07209488 0.03391697
-0.24025339 -0.20453735 -0.28259042 0.11288983 0.047121316 -0.017838338 0.009212415 -0.31213775
-0.16653392 0.09937931 0.004491955 0.0064382455 0.0037989218 0.06772712 0.08887211 -0.022417529
00000000: 572c 49bc c8c7 3abe 0e8a 2dbc cc76 acbd
00000010: 7f68 87be cb78 febc 05a5 3abc 454b babd
00000020: 8607 9bbe 4eea 63be 4c37 14bd 3ab6 053d
00000030: 4890 2ebe 208c 833d 153f 54be 8072 01bd
00000040: 4baa b1be e9a2 44be 215a 92be 7bd5 d03d
00000050: a5dc 813d 9179 713d d645 d4bc 384a 8c3d
00000060: 8f26 943d efcb d9bd b926 86be ab38 41be
00000070: 9e1d 75be 303f fabd 461b 17be 7620 cf3c
00000080: fd5e bdbc 11af eabd 6c3b 9ebb 8aa2 28bd
00000090: 4b29 373d de0f 2d3c 3c74 923d 9ed3 34bc
000000a0: 7146 3a3c e67e 6abe ee27 293d 7486 a9bc
000000b0: dfb6 80bd 1fa5 fe3d db3e ac3c e6d4 a8bc
000000c0: d520 48bc 4d9a 7a3d 3a7d e13c 8d82 3ebe
000000d0: 15a0 993d a62e 98bd aa8f 7cbd 718d 57bd
000000e0: 0560 2abd bc0d 97be 47d3 d73c 2050 bbbb
000000f0: 295d 0e3d 89bb 99bd 310f 573c 2652 77be
00000100: 638e 85bd 0a91 6abe 4dd7 b83c 6d2c a13c
00000110: 15fb d8bb 8f56 5bbe 5d9a 4abe 65bc e63d
00000120: 6258 80bd 013b 0f3d ef3a 01bd c4e5 98bd
00000130: f201 96be 6a7c bcbe dac7 28bd ca57 cd3d
00000140: 7fcd 843d 8dc9 e3bd 1e35 3abe 7aff 4f3d
00000150: 872c 81bd a977 47bc 835d 60bd 6326 1dbe
00000160: 0b48 b7bc cfc9 4ebe 453c 1ebd 8f26 003e
00000170: 2fa6 aa3c cfee e43d a0c0 aebe 3dba 513c
00000180: b105 0abc 7e4c 73be 0c23 983c ae9f 83bd
00000190: 4776 64be 06df 3abd d225 04be c3a1 0dbe
000001a0: 4122 39be 4f85 64be 97eb d33c a5d3 1cbe
000001b0: 7dcf 25bd f66c 063c 7ba6 93bd 85ec 0a3d
000001c0: fc04 76be 3d72 51be b1af 90be c832 e73d
000001d0: 4802 413d b521 92bc abef 163c 85d0 9fbe
000001e0: de87 2abe 6187 cb3d 4031 933b ebf7 d23b
000001f0: 55f7 783b 84b4 8a3d 9502 b63d f7a4 b7bc

network_body._body_endoder.seq_layers.2.weight f4 [128, 128]
0.05262499 -0.03403245 -0.031202823 -0.35101423 -0.022320742 -0.10588 0.055659156 -0.24710803
-0.03268828 0.17399402 -0.25107777 0.014663262 -0.2777131 0.09170459 0.06594935 -0.13871376
-0.092180796 0.05139493 0.05177546 0.12010195 0.046141956 -0.15936595 0.14628166 0.3477921
0.25855118 0.015336123 -0.11905054 -0.05950371 -0.045466688 -0.01610949 0.083944164 -0.10541833
-0.024792379 -0.06476284 0.0028646907 0.049620207 -0.040703513 0.07908292 -0.30135626 -0.14927778
-0.019094845 -0.17039575 0.038044885 0.06363292 0.012186214 -0.15402335 -0.07892505 -0.057229854
0.037250467 -0.07448104 0.16052037 -0.045752548 -0.06164065 -0.092580736 0.20096517 0.04416848
-0.10729208 0.03694742 0.033530477 -0.18652964 0.18800075 0.04554165 -0.1127696 -0.036943976
-0.14843735 0.15684558 -0.11409392 -0.014219909 -0.24034743 0.26380694 -0.102339074 0.041991334
-0.10569461 -0.11429189 0.10792374 -0.016508494 0.030210074 0.12506324 -0.12560943 0.022710077
-0.04692246 0.06709588 -0.09173396 0.15723383 -0.032017037 -0.31952184 -0.25014243 -0.12506047
0.053462446 0.012833068 -0.019740155 -0.06756259 -0.07506204 -0.11238743 0.043850318 -0.13976711
-0.060318623 -0.19915889 0.14174221 -0.323159 -0.14114392 -0.11461471 -0.18738797 -0.23933221
-0.10171086 -0.045777224 0.22799097 -0.09623079 -0.13803336 0.029372327 -0.39215314 -0.03634305
-0.026900167 -0.03698884 -0.025542777 0.09419287 0.4456537 -0.23253867 0.063156694 0.08046854
-0.054599673 0.09044897 0.011629983 -0.15162462 -0.09155824 0.02303377 0.19082336 0.05128275
-0.08531082 -0.1290167 -0.24595883 -0.079301015 -0.061403893 0.024336195 0.30235896 -0.10234537
-0.1326388 -0.23832561 -0.20412664 -0.2123667 0.30493647 -0.17944603 0.020865412 -0.36121395
-0.0023492137 -0.14232263 0.12330664 -0.2020034 -0.10465975 0.19100495 0.15796976 0.11265697
-0.024647774 0.106890835 -0.10961797 -0.11936802 -0.16797324 0.058243003 0.05014421 0.048680454
-0.10497082 0.08209925 -0.283419 -0.27548414 -0.07104896 0.0324525 -0.056874022 -0.13133675
0.22499584 -0.17224368 -0.14936951 -0.3118642 0.054715242 0.009926354 0.11680176 -0.21573019
0.05698509 0.03950611 -0.45218465 -0.14819467 0.08834959 -0.24768727 -0.08041439 0.023196314
0.14276503 -0.15397301 0.022445537 -0.063592926 0.10789438 0.13549197 -0.100590415 0.05964868
-0.028309131 -0.034738425 0.041914873 -0.11598291 -0.15983202 -0.12959261 -0.20692039 0.18787521
-0.011782194 0.13824739 -0.2567125 -0.100528546 -0.05612079 -0.1750523 0.09167867 -0.17854042
-0.13836186 -0.024738206 -0.13473874 -0.06963723 -0.19294222 -0.06532712 0.15044546 -0.29106227
0.18643765 -0.14889023 -0.049434073 0.446048 -0.12320031 0.06409966 -0.09491142 0.11856116
-0.117995046 -0.107737504 0.061659895 0.21238512 0.044409506 -0.12681106 -0.14690468 -0.07253146
0.053976823 -0.08921852 -0.29018533 -0.1679675 0.024899103 0.24344549 -0.032903533 -0.07581882
-0.029008187 -0.0995383 -0.010698298 0.11521207 0.11749661 -0.098690785 0.06256156 0.20042227
-0.24871238 0.13327375 0.22164872 -0.1151675 -0.3970257 0.10572256 0.011133481 -0.32451767
00000000: 4d8d 573d 9c65 0bbd 109d ffbc 23b8 b3be
00000010: fdd9 b6bc 9dd7 d8bd dbfa 633d e309 7dbe
00000020: 25e4 05bd 7d2b 323e 448d 80be 2e3e 703c
00000030: 6930 8ebe 9ecf bb3d 7410 873d fb0a 0ebe
00000040: 49c9 bcbd 7d83 523d 8112 543d 03f8 f53d
00000050: 59ff 3c3d d430 23be dcca 153e ce11 b23e
00000060: d260 843e 5d44 7b3c c5d0 f3bd 2aba 73bd
00000070: 473b 3abd 0df8 83bc ebea ab3d 91e5 d7bd
00000080: 6319 cbbc 61a2 84bd 89bd 3b3b 8f3e 4b3d
00000090: bab8 26bd 3af6 a13d 5e4b 9abe 46dc 18be
000000a0: cb6c 9cbc 397c 2ebe f4d4 1b3d fa51 823d
000000b0: b0a8 473c 4cb8 1dbe 75a3 a1bd da69 6abd
000000c0: f293 183d 8489 98bd 745f 243e 0667 3bbd
000000d0: e87a 7cbd f89a bdbd d0c9 4d3e 02ea 343d
000000e0: f3bb dbbd 2e56 173d 4157 093d a001 3fbe
000000f0: 4583 403e e289 3a3d bff3 e6bd 9152 17bd
00000100: f6ff 17be 219c 203e 13aa e9bd 9ffa 68bc
00000110: a31d 76be b411 873e 2697 d1bd 1bff 2b3d
00000120: 6a76 d8bd de11 eabd 1f07 dd3d d23c 87bc
00000130: 1e7b f73c 9410 003e c29f 00be 7c0a ba3c
00000140: c431 40bd 9169 893d 04df bbbd e801 213e
00000150: 4c24 03bd 5e98 a3be ab12 80be da0f 00be
00000160: 70fb 5a3d ca41 523c 1bb6 a1bc 415e 8abd
00000170: 20ba 99bd 622b e6bd 649c 333d 1c1f 0fbe
00000180: a910 77bd 4ff0 4bbe df24 113e 1975 a5be
00000190: 0888 10be 1ebb eabd a2e2 3fbe 8113 75be
000001a0: c94d d0bd e680 3bbd 7776 693e a614 c5bd
000001b0: 9e58 0dbe 3c9e f03c 4cc8 c8be 73dc 14bd
000001c0: bd5d dcbc 9c81 17bd 163f d1bc 31e8 c03d
000001d0: b92c e43e 9e1e 6ebe 4c58 813d b1cc a43d
000001e0: e8a3 5fbd 4f3d b93d af8b 3e3c 7c43 1bbe
000001f0: e382 bbbd 51b1 bc3c 3367 433e dc0d 523d
00000200: 70b7 aebd f41c 04be a2dc 7bbe 9268 a2bd
00000210: a682 7bbd b35c c73c cbce 9a3e 739a d1bd
00000220: 77d2 07be a10b 74be 9306 51be a876 59be
00000230: a220 9c3e b3c0 37be f1ed aa3c 09f1 b8be
00000240: 44f5 19bb 06bd 11be 3188 fc3d fbd9 4ebe
00000250: da57 d6bd cd96 433e d3c2 213e b3b8 e63d
00000260: 21ea c9bc 95e9 da3d 637f e0bd 3877 f4bd
00000270: 2d01 2cbe 3790 6e3d 0464 4d3d 2865 473d
00000280: f1fa d6bd a723 a83d 4c1c 91be 420c 8dbe
00000290: 1e82 91bd eaec 043d bcf4 68bd 247d 06be
000002a0: 4f65 663e a660 30be 52f4 18be aaac 9fbe
000002b0: 171d 603d 25a2 223c c335 ef3d 60e8 5cbe
000002c0: 3369 693d 29d1 213d bf84 e7be 58c0 17be
000002d0: a1f0 b43d bba1 7dbe 4db0 a4bd 3206 be3c
000002e0: ff30 123e 1aab 1dbe b4df b73c 023d 82bd
000002f0: bbf7 dc3d 68be 0a3e 5902 cebd 2d52 743d
00000300: 8de8 e7bc e149 0ebd eeae 2b3d 7388 edbd
00000310: 01ab 23be edb3 04be f0e2 53be 5c62 403e
00000320: 1a0a 41bc b990 0d3e d26f 83be e9e1 cdbd
00000330: eade 65bd e940 33be 07c2 bb3d 4dd3 36be
00000340: bbae 0dbe c7a7 cabc f4f8 09be f79d 8ebd
00000350: a592 45be 3aca 85bd 600e 1a3e 1d06 95be
00000360: 83e9 3e3e ae76 18be 627b 4abd 6760 e43e
00000370: 7250 fcbd af46 833d eb60 c2bd 32d0 f23d
00000380: 63a7 f1bd 7ba5 dcbd 168f 7c3d 7c7b 593e
00000390: bee6 353d c2da 01be 2e6e 16be 608b 94bd
000003a0: cd16 5d3d 33b8 b6bd 2c93 94be acff 2bbe
000003b0: 34f9 cb3c c649 793e dbc5 06bd e646 9bbd
000003c0: 94a2 edbc bcda cbbd ea47 2fbc 4ef4 eb3d
000003d0: 10a2 f03d 651e cabd 4620 803d 7f3b 4d3e
000003e0: 75ae 7ebe ea78 083e e2f7 623e f0dc ebbd
000003f0: f446 cbbe 1285 d83d 3469 363c 2e27 a6be

network_body._body_endoder.seq_layers.2.bias f4 [128]
0.058143687 0.046432916 0.10451885 -0.18992653 -0.16093092 -0.33378872 -0.1757235 0.005766992
0.05288912 -0.24966118 0.054010276 -0.11859827 -0.14601092 -0.057653107 -0.07077615 -0.2843999
0.06271974 -0.07069251 0.04111317 -0.42795917 -0.095901236 -0.10963747 -0.046367902 0.1835296
-0.20521575 -0.32954684 0.015326144 -0.20507298 -0.1804067 0.051972155 -0.22168352 -0.3630235
0.028830133 0.051265508 -0.30734554 -0.18489905 -0.111878596 -0.11214167 -0.0323856 -0.18901505
-0.021632437 -0.17073795 -0.20909213 -0.07133775 -0.18665127 -0.1943613 -0.015882747 -0.25391772
-0.02826966 0.00010618069 -0.11367735 0.035404928 -0.15473501 -0.33082673 -0.1425864 -0.0039179483
-0.02231837 -0.07257045 -0.18961321 -0.24354734 -0.33024356 0.077130675 -0.18303852 -0.07373708
-0.16426775 -0.24986532 0.0018227341 3.7276986e-05 -0.24338901 -0.015541495 0.14398356 0.0948395
-0.22416101 -0.07790188 -0.13023339 -0.00459792 0.07667116 -0.23092747 -0.03585029 -0.079317555
-0.20472948 -0.06171484 -0.04936233 0.02137891 -0.31142387 0.021998705 0.053362686 0.03075319
-0.10976342 -0.01797208 0.044064492 -0.22352602 -0.06689425 -0.05821123 -0.13072902 -0.25430086
0.050534017 -0.45102012 -0.04031618 0.0030058792 0.051248454 -0.01340221 -0.014987747 -0.35311273
-0.14319424 0.010342657 -0.021289574 -0.11933661 -0.0011183725 0.038974777 0.116006166 -0.29200935
-0.13235462 0.056250807 -0.04070384 -0.15451817 0.009397864 -0.080974035 -0.12555434 -0.044188153
-0.046813644 -0.009712207 -0.10849872 -0.08731444 0.1075259 -0.1452674 -0.30534422 -0.23483767
00000000: 1328 6e3d 7130 3e3d fb0d d63d 1a7c 42be
00000010: 13cb 24be 5be6 aabe dcf0 33be 09f9 bc3b
00000020: 43a2 583d 2ea7 7fbe e139 5d3d a6e3 f2bd
00000030: e383 15be aa25 6cbd 16f3 90bd dd9c 91be
00000040: 3573 803d 3cc7 90bd 4966 283d 771d dbbe
00000050: de67 c4bd 9c89 e0bd 45ec 3dbd 2fef 3b3e
00000060: 1424 52be 5dba a8be 821a 7b3c a7fe 51be
00000070: 89bc 38be c1e0 543d 0101 63be 37de b9be
00000080: 2c2d ec3c c8fb 513d 655c 9dbe 2d56 3dbe
00000090: 9b20 e5bd 88aa e5bd c3a6 04bd 298d 41be
000000a0: 8236 b1bc eed5 2ebe 3f1c 56be 8719 92bd
000000b0: 8321 3fbe a606 47be 891c 82bc 8101 82be
000000c0: c695 e7bc 53ad de38 accf e8bd c204 113d
000000d0: db72 1ebe 1f62 a9be 2b02 12be 2262 80bb
000000e0: 04d5 b6bc d19f 94bd f729 42be 7964 79be
000000f0: af15 a9be b0f6 9d3d 736e 3bbe 7703 97bd
00000100: ce35 28be b2dc 7fbe cfe8 ee3a dc59 1c38
00000110: f83a 79be c1a1 7ebc 6d70 133e 363b c23d
00000120: 778a 65be 058b 9fbd e75b 05be 26aa 96bb
00000130: c505 9d3d 4078 6cbe c1d7 12bd 3e71 a2bd
00000140: 9ba4 51be b3c8 7cbd 2830 4abd d322 af3c
00000150: f372 9fbe a136 b43c d592 5a3d 1dee fb3c
00000160: a5cb e0bd 2f3a 93bc f87c 343d 01e4 64be
00000170: daff 88bd e66e 6ebd d4dd 05be b933 82be
00000180: c2fc 4e3d 1cec e6be 9422 25bd 49fe 443b
00000190: e6e9 513d f194 5bbc 2b8f 75bc 31cb b4be
000001a0: 83a1 12be 3f74 293c 7967 aebc c166 f4bd
000001b0: 5b96 92ba 04a4 1f3d a494 ed3d 4082 95be
000001c0: f887 07be 3f67 663d 12b9 26bd 033a 1ebe
000001d0: 80f9 193c b7d5 a5bd 5191 00be a3fe 34bd
000001e0: aabf 3fbd f31f 1fbc 9434 debd ead1 b2bd
000001f0: 8a36 dc3d fac0 14be 1456 9cbe 4979 70be

action_model._continuous_distribution.log_sigma f4 [1, 3]
-0.44049054 -0.38281706 -0.4537753
00000000: fa87 e1be 9900 c4be 3c55 e8be

action_model._continuous_distribution.mu.weight f4 [3, 128]
-0.077595174 -0.13441984 0.008820612 -0.066432826 -0.028603699 -0.035994295 0.012398586 0.16284005
0.15607747 -0.023073053 -0.09173139 -0.057578117 -0.083306774 0.07860996 -0.12141602 0.056642655
-0.07979161 0.023814911 -0.02634544 0.051963367 0.0077882777 0.048748523 0.06160757 0.028186625
-0.07474095 -0.019271396 -0.099564455 -0.09661878 -0.10291478 -0.0236921 -0.095428854 0.0028597245
-0.06736123 -0.08086403 -0.076700084 -0.064953335 -0.076858304 -0.10585108 -0.15436964 -0.092394166
-0.17677432 -0.10345833 -0.07838147 -0.18585587 -0.034359507 -0.081117846 -0.07572645 -0.039221298
-0.06963318 -0.13159342 -0.15481086 -0.1136391 -0.09693348 0.03234657 -0.12104536 0.0082543
-0.15406936 -0.086804934 0.09405607 -0.058497082 -0.027151773 0.07297965 -0.105795525 -0.06964809
-0.016989036 -0.037578274 -0.11299266 -0.0145331435 -0.04631396 0.036146928 0.12060916 -0.016537884
-0.06904327 -0.079059884 -0.038883585 -0.12632512 0.09708242 -0.07148962 0.06790544 0.051824927
-0.13734247 -0.08835778 -0.016019253 -0.25653383 -0.018264003 -0.016195115 0.007819029 -0.14573291
-0.022294445 0.102207035 -0.18502961 -0.08787326 -0.15382247 0.10184776 -0.09683309 -0.091071896
0.04409305 -0.024497341 0.012661624 -0.078086354 0.08208892 -0.15685421 0.13487159 -0.0462962
-0.06410656 -0.14372686 -0.031190328 0.030886631 -0.11574669 -0.010927537 -0.12150003 -0.01636691
-0.10214864 -0.14130932 0.01572582 0.065008946 0.055256832 -0.10229349 -0.09827933 -0.011217116
0.06590623 1.2850993e-05 -0.09617809 -0.11289926 0.12364407 -0.015274436 0.029184762 -0.03329324
0.01379759 0.0024500291 0.04924196 -0.064478315 -0.103520416 0.028364852 0.103871815 0.121071
0.17029849 0.05856609 0.051896606 0.03383273 0.032360602 -0.050229754 -0.03825052 -0.032363314
0.04220844 0.08024786 -0.11642663 0.13084681 0.043263625 0.091273606 0.1570193 -0.19061989
0.0062040617 0.015660616 -0.21678855 -0.022824816 0.03429799 -0.13845213 -0.028401235 -0.03864426
-0.14086814 -0.1860635 -0.005211894 0.042568915 0.08176552 0.05229498 -0.004105017 0.012744294
0.021926567 -0.07633654 0.023387656 0.0056167217 -0.11139577 0.0013032892 -0.031166276 0.07951322
0.010869256 0.06531445 0.005059656 0.06812614 0.0238326 0.06494085 -0.015572876 0.07530606
0.07289319 0.03182428 0.07985822 -0.0083505465 0.05766668 -0.10987204 -0.032191366 0.11119638
0.1376622 -0.016791489 0.02883668 -0.09571029 0.028268587 0.03489197 0.074329585 -0.18032692
-0.03823035 0.14987722 0.05207109 -0.012040415 0.019800765 0.00071957783 0.15135616 0.05839709
-0.0046510934 0.103668965 0.034680903 0.06736983 -0.013369605 -0.07949878 0.031862013 0.07973297
0.0066394014 0.10913503 0.005143762 0.049192864 0.0674411 0.08744372 -0.07196285 -0.044468753
-0.14159681 -0.06980356 -0.010498665 -0.16175018 -0.1694643 0.038337186 0.07282705 -0.045879226
0.06095961 0.05202934 0.084373534 0.16234048 0.058185738 -0.056096613 -0.035328113 0.07221141
-0.06351766 0.033827774 0.026302114 0.13803184 0.14911345 0.09029539 -0.00842277 0.08190462
-0.09827738 0.09997952 0.08141145 0.0111137545 -0.20084299 -0.041985143 0.005232286 0.10540556
00000000: 38ea 9ebd 5ba5 09be 5484 103c ef0d 88bd
00000010: 4e52 eabc c16e 13bd 7023 4b3c 8bbf 263e
00000020: c6d2 1f3e b303 bdbc abdd bbbd 08d7 6bbd
00000030: be9c aabd 42fe a03d f6a8 f8bd 2102 683d
00000040: c969 a3bd 7d17 c33c 64d2 d7bc 8ad7 543d
00000050: cf34 ff3b 88ac 473d 3858 7c3d a3e7 e63c
00000060: c811 99bd 0cdf 9dbc 73e8 cbbd 11e0 c5bd
00000070: fcc4 d2bd ef15 c2bc 3470 c3bd 376a 3b3b
00000080: aff4 89bd 0a9c a5bd ef14 9dbd 4106 85bd
00000090: e367 9dbd 73c8 d8bd 1313 1ebe 2739 bdbd
000000a0: 5404 35be f6e1 d3bd 7786 a0bd 0051 3ebe
000000b0: 8ebc 0cbd 1d21 a6bd 7816 9bbd 83a6 20bd
000000c0: d79b 8ebd 6dc0 06be bd86 1ebe 9ebb e8bd
000000d0: 0f85 c6bd d67d 043d a1e6 f7bd 0b3d 073c
000000e0: 5cc4 1dbe c9c6 b1bd 78a0 c03d a39a 6fbd
000000f0: 656d debc 5b76 953d 53ab d8bd a8a3 8ebd
00000100: 972c 8bbc adeb 19bd b268 e7bd 6c1c 6ebc
00000110: b5b3 3dbd cd0e 143d ef01 f73d 757a 87bc
00000120: 8f66 8dbd 26ea a1bd 6544 1fbd 5f5b 01be
00000130: 26d3 c63d 2669 92bd 0212 8b3d 6046 543d
00000140: 81a3 0cbe ecf4 b4bd cf3a 83bc 6758 83be
00000150: 649e 95bc 9eab 84bc 621b 003c 023b 15be
00000160: d7a2 b6bc ec51 d13d 6778 3dbe e5f6 b3bd
00000170: a383 1dbe 8f95 d03d 6d50 c6bd e783 babd
00000180: ea9a 343d a6ae c8bc b372 4f3c bdeb 9fbd
00000190: 3c1e a83d 649e 20be c71b 0a3e 16a1 3dbd
000001a0: 4d4a 83bd 222d 13be dc82 ffbc f605 fd3c
000001b0: 9a0c edbd 6a09 33bc 02d5 f8bd e613 86bc
000001c0: 4e33 d1bd 64b3 10be 6fd3 803c 6923 853d
000001d0: fd54 623d 407f d1bd ac46 c9bd ffc7 37bc
000001e0: d8f9 863d 989a 5737 05f9 c4bd ba37 e7bd
000001f0: 1a39 fd3d a141 7abc e214 ef3c 7e5e 08bd
00000200: 490f 623c ab90 203b f0b1 493d 350d 84bd
00000210: 8302 d4bd 685d e83c bfba d43d 13f4 f73d
00000220: ba62 2e3e ffe2 6f3d 8991 543d 3094 0a3d
00000230: 8d8c 043d b7bd 4dbd 94ac 1cbd 658f 04bd
00000240: c2e2 2c3d fd58 a43d 1671 eebd b5fc 053e
00000250: 3335 313d a8ed ba3d abc9 203e dc31 43be
00000260: 714b cb3b b14a 803c d1fd 5dbe 1cfb babc
00000270: 0d7c 0c3d 65c6 0dbe b5a9 e8bc 7249 1ebd
00000280: bd3f 10be 6e87 3ebe 89c8 aabb be5c 2e3d
00000290: ae74 a73d 4333 563d 6183 86bb 71cd 503c
000002a0: 589f b33c 5556 9cbd 7897 bf3c 7a0c b83b
000002b0: 7723 e4bd 21d3 aa3a 6b50 ffbc d4d7 a23d
000002c0: f714 323c 95c3 853d 79cb a53b b885 8b3d
000002d0: 963c c33c b5ff 843d 6025 7fbc 103a 9a3d
000002e0: 0649 953d 2d5a 023d b58c a33d bbd0 08bc
000002f0: e633 6c3d 9804 e1bd 18db 03bd edba e33d
00000300: 52f7 0c3e 4e8e 89bc e73a ec3c c203 c4bd
00000310: 8693 e73c e2ea 0e3d 1c3a 983d 9fa7 38be
00000320: 6d97 1cbd 6a79 193e 7f48 553d 2945 45bc
00000330: 3735 a23c 0da2 3c3a 1cfd 1a3e c931 6f3d
00000340: 3368 98bb 6550 d43d 900d 0e3d 32f9 893d
00000350: 300c 5bbc 42d0 a2bd be81 023d 0a4b a33d
00000360: 568f d93b 3082 df3d 018d a83b 757e 493d
00000370: 8f1e 8a3d b115 b33d 4261 93bd de24 36bd
00000380: c1fe 10be 2bf5 8ebd 9802 2cbc d7a1 25be
00000390: 0d88 2dbe 7407 1d3d 5926 953d dbeb 3bbd
000003a0: c9b0 793d b81c 553d 08cc ac3d 953c 263e
000003b0: 2b54 6e3d 90c5 65bd 36b4 10bd 93e3 933d
000003c0: 8c15 82bd fe8e 0a3d 8877 d73c 3858 0d3e
000003d0: 32b1 183e caec b83d a8ff 09bc 9cbd a73d
000003e0: a745 c9bd 10c2 cc3d 0cbb a63d 7716 363c
000003f0: c9a9 4dbe 9df8 2bbd 9973 ab3b dfde d73d

action_model._continuous_distribution.mu.bias f4 [3]
0.01358 -0.076767035 0.13807742
00000000: a67e 5e3c 0938 9dbd 2b64 0d3e

action_model._discrete_distribution.branches.0.weight f4 [2, 128]
-0.021140125 0.09037902 0.1488987 0.02950916 -0.08957908 -0.08825851 -0.04507822 0.15964761
-0.04316613 0.02359513 -0.18202686 -0.12783138 -0.08903867 0.08449732 -0.09176237 0.10305208
-0.15161683 -0.062100306 0.018401647 -0.13450131 -0.14283757 -0.17919284 0.015849607 0.0677799
0.025014905 0.044084 0.0051054726 0.0037345479 -0.008470817 -0.09391544 -0.07554152 -0.030827794
0.008028124 -0.0015216628 -0.13862431 -0.08921506 -0.20192218 -0.07810285 -0.09683635 -0.21915416
-0.1906713 -0.010513245 -0.09361578 -0.055993553 -0.0745573 0.05994508 0.030658903 -0.16003682
-0.2992394 -0.293292 -0.0027527893 -0.27318043 0.02215053 -0.07158396 -0.22975098 -0.07079015
-0.13954829 -0.14476982 -0.110979564 0.052950542 -0.1370674 -0.177996 0.08769669 -0.18496498
-0.096986674 -0.02479294 -0.111467786 0.05782047 -0.018340444 0.08209518 0.09027871 0.21323393
-0.018272245 -0.0065329117 0.028023222 0.027888564 0.17607032 0.072841026 0.032862503 0.021135813
0.04859538 -0.16673018 0.0007517696 -0.115976274 0.011478226 -0.088346355 0.17393364 -0.20180693
-0.046775952 0.14998129 -0.1820458 -0.10768736 -0.16143973 0.058838002 -0.006931437 -0.06658704
-0.04103749 -0.0034787524 0.21074766 -0.00607361 0.042255744 -0.17782836 0.08572417 -0.040586617
-0.09170868 -0.07207926 0.026533285 -0.039014738 -0.18343921 0.14164893 0.0076768296 -0.07248457
-0.23624945 -0.030278541 -0.18923686 -0.051214293 0.19136663 -0.07151534 0.022225969 -0.10652857
0.02377416 -0.108290195 -0.0128163695 -0.09984378 -0.18114398 -0.011067856 -0.00917485 -0.06943993
0.016369728 -0.089794554 -0.17209171 -0.012753896 0.095599495 0.11007507 0.036719974 -0.1720308
0.0349482 -0.030775176 0.18123469 0.12934558 0.10198994 -0.0789555 0.09478445 -0.10318955
0.16310905 0.051488124 -0.018614778 0.1172104 0.13799103 0.16998015 -0.00024709827 -0.070854336
-0.051163644 -0.04269524 0.009912296 -0.011419088 0.015704954 0.09508825 0.09477311 0.03787977
-0.002967957 -0.009044955 0.15251821 0.064788096 0.20013912 0.101065755 0.067934684 0.19135943
0.19640869 0.019297952 0.0838222 0.046248134 0.07756078 -0.042938303 -0.022063278 0.14160322
0.29001784 0.28301144 0.005619521 0.2838524 -6.78358e-05 0.06515992 0.2335876 0.055869907
0.13546003 0.1278087 0.10940282 -0.043316793 0.12562521 0.18979137 -0.0946026 0.17926988
0.12323059 0.021249322 0.09029613 -0.08100669 0.011378783 -0.07359251 -0.10324038 -0.21149898
0.015060861 0.0011782366 -0.029724017 -0.012247376 -0.17324513 -0.065387115 -0.022077201 -0.042465903
-0.057708167 0.16312802 -0.013074683 0.107383795 -0.0033475293 0.09155614 -0.16384979 0.18099114
0.059955582 -0.13470918 0.18042882 0.110284396 0.17066273 -0.04723252 -0.0006437974 0.063976265
0.04525053 -0.013155566 -0.20477684 -0.010918119 -0.039105188 0.16168275 -0.11267907 0.051386952
0.09637084 0.07694174 -0.020079773 0.030392038 0.16969019 -0.12749942 -0.016385272 0.07919475
0.23558939 0.02356356 0.17835614 0.056528397 -0.16802824 0.088369586 -0.022517981 0.09028285
0.0035986055 0.08662457 0.013773664 0.10670547 0.17894898 0.002528332 0.0058043106 0.05537313
00000000: 0e2e adbc a318 b93d e778 183e 32bd f13c
00000010: 3d75 b7bd e1c0 b4bd f1a3 38bd aa7a 233e
00000020: f8ce 30bd 934a c13c 4065 3abe 3be6 02be
00000030: e859 b6bd ee0c ad3d e9ed bbbd f80c d33d
00000040: 7141 1bbe e45c 7ebd 0dbf 963c b6ba 09be
00000050: 0344 12be 547e 37be 09d7 813c 30d0 8a3d
00000060: 0fec cc3c 6d91 343d cf4b a73b 51bf 743b
00000070: 2ec9 0abc bd56 c0bd 83b5 9abd 928a fcbc
00000080: 6588 033c 8872 c7ba 88f3 0dbe 63b6 b6bd
00000090: b0c4 4ebe 63f4 9fbd 2352 c6bd f369 60be
000000a0: 563f 43be bf3f 2cbc a1b9 bfbd 7f59 65bd
000000b0: 7fb1 98bd f988 753d 6128 fb3c b1e0 23be
000000c0: e835 99be 5e2a 96be 2468 34bb 4ede 8bbe
000000d0: 0775 b53c 9c9a 92bd d743 6bbe 6dfa 90bd
000000e0: bfe5 0ebe 8a3e 14be 4149 e3bd abe2 583d
000000f0: 665b 0cbe 9544 36be 529a b33d 7667 3dbe
00000100: f3a0 c6bd 901a cbbc 3949 e4bd 28d5 6c3d
00000110: b33e 96bc 8521 a83d 0be4 b83d ff59 5a3e
00000120: adaf 95bc 0912 d6bb f590 e53c 8f76 e43c
00000130: c74b 343e ad2d 953d d59a 063d 0325 ad3c
00000140: f30b 473d 51bb 2abe 6712 453a f884 edbd
00000150: 2b0f 3c3c efee b4bd a91b 323e 7aa6 4ebe
00000160: 2498 3fbd b294 193e 376a 3abe 318b dcbd
00000170: 7550 25be 1e00 713d 1c21 e3bb c95e 88bd
00000180: ed16 28bd c8fb 63bb 3cce 573e 2205 c7bb
00000190: 5c14 2d3d a318 36be 2790 af3d 273e 26bd
000001a0: c3d1 bbbd 4b9e 93bd 555c d93c ebcd 1fbd
000001b0: 7dd7 3bbe 6b0c 113e ea8d fb3b ca72 94bd
000001c0: 60eb 71be b40a f8bc 4fc7 41be 14c6 51bd
000001d0: 9df5 433e a276 92bd 3c13 b63c a72b dabd
000001e0: 07c2 c23c 40c7 ddbd c0fb 51bc e57a ccbd
000001f0: cf7d 39be f455 35bc 1c52 16bc 8636 8ebd
00000200: cf19 863c 35e6 b7bd cf38 30be b8f5 50bc
00000210: abc9 c33d 0a6f e13d af67 163d d828 30be
00000220: d825 0f3d 391c fcbc 9695 393e 2b73 043e
00000230: 1ae0 d03d 6cb3 a1bd 5a1e c23d 0b55 d3bd
00000240: 0f06 273e 36e5 523d 057e 98bc 020c f03d
00000250: 854d 0d3e 470f 2e3e f88c 81b9 141c 91bd
00000260: f890 51bd 34e1 2ebd 2f67 223c 2017 3bbc
00000270: ada7 803c a1bd c23d 6718 c23d d127 1b3d
00000280: 0e82 42bb 4a31 14bc bc2d 1c3e 9faf 843d
00000290: 45f1 4c3e 90fb ce3d 5721 8b3d baf3 433e
000002a0: 5c1f 493e bd16 9e3c f9aa ab3d af6e 3d3d
000002b0: 30d8 9e3d 13e0 2fbd 0cbe b4bc 6f00 113e
000002c0: 387d 943e e0e6 903e f523 b83b 1a55 913e
000002d0: 1143 8eb8 9072 853d 9631 6f3e d8d7 643d
000002e0: 09b6 0a3e 49e0 023e 960e e03d f36c 31bd
000002f0: e5a3 003e ab58 423e 02bf c1bd 8692 373e
00000300: 5260 fc3d 0f13 ae3c 2ded b83d d6e6 a5bd
00000310: 136e 3a3c abb7 96bd b16f d3bd 3093 58be
00000320: d4c1 763c 0f6f 9a3a c87f f3bc 38a9 48bc
00000330: 2c67 31be aee9 85bd 3fdb b4bc baf0 2dbd
00000340: 665f 6cbd 080b 273e 3237 56bc 09ec db3d
00000350: 3962 5bbb c981 bb3d 3dc8 27be be55 393e
00000360: fc93 753d 34f1 09be 55c2 383e c9dc e13d
00000370: 36c2 2e3e e376 41bd 83c4 28ba fd05 833d
00000380: 9f58 393d 718a 57bc 05b1 51be e9e1 32bc
00000390: c32c 20bd 2a90 253e 49c4 e6bd 207b 523d
000003a0: 135e c53d a293 9d3d 567e a4bc b9f8 f83c
000003b0: 44c3 2d3e 358f 02be 683a 86bc db30 a23d
000003c0: 583e 713e 5e08 c13c fea2 363e 528a 673d
000003d0: 980f 2cbe 1dfb b43d a177 b8bc 37e6 b83d
000003e0: 95d6 6b3b 3968 b13d efaa 613c 6688 da3d
000003f0: 673e 373e 5fb2 253b 1632 be3b efce 623d

action_model._discrete_distribution.branches.0.bias f4 [2]
-0.042749148 0.042749137
00000000: bb19 2fbd b819 2f3d

exp_avg f4 [128, 43]
0.0 4.8028313e-12 0.0011223216 0.000807803 0.0 -6e-45 0.0018472705 0.0016641467
0.0 6e-45 0.002281656 0.0018337219 0.0 -6e-45 0.0016006354 0.001354534
0.0 6e-45 0.00061951595 0.00034629714 0.0 -6e-45 -6.806846e-06 1.8304638e-05
0.0 -6e-45 0.0027690951 0.002260909 0.0 6e-45 -0.0005116953 -0.00078198925
0.0 6e-45 -0.0011746752 -0.0011816014 8.2268314e-05 -7.249276e-06 0.001428949 0.001872888
-0.003048885 -6e-45 -0.028102072 0.0 -2.979581e-13 -2.1516964e-05 -1.3667653e-05 0.0
6e-45 -2.5571147e-05 -2.2768378e-05 0.0 -6e-45 -5.3900323e-05 -4.210111e-05 0.0
-6e-45 -2.3614384e-05 -1.9180337e-05 0.0 -6e-45 -3.4062454e-05 -2.1239477e-05 0.0
6e-45 -5.6097397e-06 -3.0270019e-06 0.0 6e-45 -4.682638e-05 -3.585544e-05 0.0
-6e-45 -1.9145615e-05 -1.2628391e-05 0.0 6e-45 -6.787714e-06 -4.2488296e-06 6.7402645e-05
-0.000113366696 -3.6940637e-05 0.0001665632 0.0001059888 -6e-45 0.0010855607 0.0 -1.4447134e-11
-0.00084156945 0.0006267577 0.0 9e-44 -0.0024456817 -0.0015868403 0.0 -6e-45
-0.00095555466 0.00024105421 0.0 -6e-45 -0.0021245137 -0.001155765 0.0 6e-45
0.0035027068 0.004143934 0.0 6e-45 0.0044942372 0.0043156347 0.0 6e-45
-0.0024530895 -0.0011636281 0.0 -6e-45 0.00058353494 0.0010154556 0.0 -6e-45
0.0057765865 0.005906768 0.011378098 -0.00888088 -0.0027047724 0.003557348 0.013159739 6e-45
0.117063984 0.0 -9.563112e-12 0.0002962051 0.00086088205 0.0 7e-45 -0.00024544986
3.898425e-05 0.0 -6e-45 5.031675e-05 0.0005531058 0.0 -6e-45 -0.00014012564
0.00022791384 0.0 -6e-45 0.0018598138 0.0021453842 0.0 6e-45 0.002644823
0.0025668116 0.0 6e-45 -0.0006393335 -0.00011637968 0.0 -6e-45 0.0011346827
0.0012965183 0.0 -6e-45 0.004035922 0.0039985036 0.0041479347 -0.001810488 -0.00083371624
0.0009560849 0.004913764 -6e-45 0.04572562 0.0 2.5201046e-14 -1.9014644e-05 -1.7793718e-05
0.0 8e-45 -2.6024496e-05 -2.7394528e-05 0.0 -6e-45 -8.061345e-05 -6.6658045e-05
0.0 -6e-45 -2.232732e-05 -2.1446634e-05 0.0 6e-45 -5.9906793e-05 -4.6821595e-05
0.0 6e-45 2.7426875e-06 6.432191e-07 0.0 6e-45 -0.00011214291 -9.557465e-05
0.0 6e-45 1.1915479e-05 2.2364173e-05 0.0 -6e-45 5.8638652e-05 5.865016e-05
-8.625494e-06 -0.000120090415 -3.449094e-05 0.00010701556 0.00010489436 -6e-45 0.0009971277 0.0
-6.116128e-11 0.0038086488 0.0040830406 0.0 -2.27e-43 0.0033094417 0.0035086514 0.0
6e-45 0.0034625032 0.0038034134 0.0 -6e-45 0.0032376726 0.0035920788 0.0
6e-45 0.005637974 0.005580074 0.0 6e-45 0.0067286445 0.0066153496 0.0
6e-45 0.004244882 0.0045316615 0.0 6e-45 0.0036169053 0.0033088997 0.0
-6e-45 0.0036800588 0.0039466857 0.004560675 -0.002139065 -0.00053694245 0.009739759 0.009337119
00000000: 0000 0000 0ffc a82c dd1a 933a bec2 533a
00000010: 0000 0000 0400 0080 1d20 f23a 7f1f da3a
00000020: 0000 0000 0400 0000 d687 153b 7f59 f03a
00000030: 0000 0000 0400 0080 69cc d13a 9e8a b13a
00000040: 0000 0000 0400 0000 0367 223a 378f b539
00000050: 0000 0000 0400 0080 5d66 e4b6 e98c 9937
00000060: 0000 0000 0400 0080 b579 353b c22b 143b
00000070: 0000 0000 0400 0000 4a23 06ba 69fe 4cba
00000080: 0000 0000 0400 0000 8ff7 99ba f7df 9aba
00000090: 7787 ac38 cf3e f3b6 924b bb3a b17b f53a
000000a0: cdcf 47bb 0400 0080 5136 e6bc 0000 0000
000000b0: 4abc a7aa 547f b4b7 1f4e 65b7 0000 0000
000000c0: 0400 0000 9f81 d6b7 b8fe beb7 0000 0000
000000d0: 0400 0080 0813 62b8 b995 30b8 0000 0000
000000e0: 0400 0080 8117 c6b7 76e5 a0b7 0000 0000
000000f0: 0400 0080 48de 0eb8 6e2b b2b7 0000 0000
00000100: 0400 0000 4c3b bcb6 7f23 4bb6 0000 0000
00000110: 0400 0000 7167 44b8 7c63 16b8 0000 0000
00000120: 0400 0080 e59a a0b7 87de 53b7 0000 0000
00000130: 0400 0000 05c2 e3b6 2b91 8eb6 855a 8d38
00000140: 48bf edb8 b5f0 1ab8 78a7 2e39 4e46 de38
00000150: 0400 0080 5f49 8e3a 0000 0000 1b28 7ead
00000160: c59c 5cba ff4c 243a 0000 0000 4000 0000
00000170: bb47 20bb 86fd cfba 0000 0000 0400 0080
00000180: 307e 7aba 7fc3 7c39 0000 0000 0400 0080
00000190: 6d3b 0bbb 0a7d 97ba 0000 0000 0400 0000
000001a0: ab8d 653b d7c9 873b 0000 0000 0400 0000
000001b0: 6544 933b 2b6a 8d3b 0000 0000 0400 0000
000001c0: 03c4 20bb e184 98ba 0000 0000 0400 0080
000001d0: 5ef8 183a 0919 853a 0000 0000 0400 0080
000001e0: 8549 bd3b 908d c13b 346b 3a3c 1c81 11bc
000001f0: 8d42 31bb 6522 693b f29b 573c 0400 0000
00000200: 3ebf ef3d 0000 0000 6d3c 28ad fa4b 9b39
00000210: d1ac 613a 0000 0000 0500 0000 b9af 80b9
00000220: 0583 2338 0000 0000 0400 0080 330b 5338
00000230: 4dfe 103a 0000 0000 0400 0080 b1ee 12b9
00000240: 28fc 6e39 0000 0000 0400 0080 ffc4 f33a
00000250: 9399 0c3b 0000 0000 0400 0000 c454 2d3b
00000260: f437 283b 0000 0000 0400 0000 f298 27ba
00000270: dd10 f4b8 0000 0000 0400 0080 a2b9 943a
00000280: efef a93a 0000 0000 0400 0080 c43f 843b
00000290: e105 833b 66eb 873b e54d edba c08d 5aba
000002a0: c6a1 7a3a a403 a13b 0400 0080 ca4a 3b3d
000002b0: 0000 0000 a8fd e228 a381 9fb7 b843 95b7
000002c0: 0000 0000 0600 0000 2e4f dab7 4dcd e5b7
000002d0: 0000 0000 0400 0080 040f a9b8 c4ca 8bb8
000002e0: 0000 0000 0400 0080 8e4b bbb7 4ce8 b3b7
000002f0: 0000 0000 0400 0000 6e44 7bb8 4e62 44b8
00000300: 0000 0000 0400 0000 030f 3836 aea9 2c35
00000310: 0000 0000 0400 0000 442e ebb8 406f c8b8
00000320: 0000 0000 0400 0000 98e8 4737 b29a bb37
00000330: 0000 0000 0400 0080 c6f2 7538 21ff 7538
00000340: 37b6 10b7 0dd9 fbb8 5daa 10b8 8b6d e038
00000350: bbfa db38 0400 0080 0eb2 823a 0000 0000
00000360: bd7e 86ae 869a 793b 07cb 853b 0000 0000
00000370: a200 0080 38e3 583b 67f1 653b 0000 0000
00000380: 0400 0000 2aeb 623b b042 793b 0000 0000
00000390: 0400 0080 222f 543b 1569 6b3b 0000 0000
000003a0: 0400 0000 c1be b83b 0ed9 b63b 0000 0000
000003b0: 0400 0000 f67b dc3b 93c5 d83b 0000 0000
000003c0: 0400 0000 a718 8b3b 557e 943b 0000 0000
000003d0: 0400 0000 9a09 6d3b 20da 583b 0000 0000
000003e0: 0400 0080 242d 713b 3353 813b b771 953b
000003f0: 8e2f 0cbb 99c1 0cba 8393 1f3c b7fa 183c

exp_avg_sq f4 [128, 43]
0.0 1.832238e-08 0.0008081028 0.0008218951 0.0 2.114048e-07 0.00080967974 0.00082080753
0.0 7.3293185e-14 0.00081941346 0.00083176617 0.0 2.380089e-08 0.0008350725 0.00084481353
0.0 5.6764165e-18 0.0009011491 0.00091211835 0.0 1.0075712e-08 0.0009641833 0.0009715883
0.0 6.202372e-11 0.0010845566 0.001088184 0.0 1.1258097e-17 0.001085495 0.0010908224
0.0 2.0131439e-14 0.0012039964 0.0012071914 0.00028347375 0.00093788945 0.000102452956 0.00082038407
0.0013788176 7e-43 0.12248221 0.0 1.978753e-11 4.2168793e-08 4.725836e-08 0.0
3.663232e-10 4.1967862e-08 4.6202086e-08 0.0 3.519771e-17 4.1022755e-08 4.6483482e-08 0.0
2.0214283e-11 5.414337e-08 5.757042e-08 0.0 7.305635e-23 6.025468e-08 6.605059e-08 0.0
1.1583491e-11 9.3950476e-08 9.776379e-08 0.0 3.456833e-14 1.8435416e-07 1.8850447e-07 0.0
1.6648078e-22 2.1743716e-07 2.204396e-07 0.0 2.3904847e-16 3.8452055e-07 3.862249e-07 1.07710825e-07
3.9258458e-07 4.4070084e-08 3.382291e-07 5.279715e-07 7e-43 4.0505784e-05 0.0 1.4926556e-07
2.0356909e-05 7.058691e-05 0.0 2.2142453e-06 3.95147e-05 8.253405e-05 0.0 5.506375e-13
2.068145e-05 7.400624e-05 0.0 3.6617118e-07 0.00013839258 0.00017574988 0.0 9.698655e-19
0.00034393807 0.00039495056 0.0 2.0177268e-07 0.000804247 0.00084047 0.0 1.4770193e-10
0.0014205229 0.0014445228 0.0 5.5233725e-17 0.0016733323 0.0016903466 0.0 7.0683537e-12
0.0022807673 0.002295009 0.00057641405 0.0027185802 0.0002024282 0.0024506168 0.0035359259 7e-43
0.29684106 0.0 2.445279e-08 1.4561373e-05 2.2952816e-05 0.0 2.711621e-07 1.648037e-05
2.3549992e-05 0.0 1.3803867e-13 1.4747572e-05 2.3635239e-05 0.0 5.2354086e-08 2.9047349e-05
3.547883e-05 0.0 7.5653906e-18 5.3490847e-05 6.2494924e-05 0.0 5.174862e-08 0.00013315091
0.00013944256 0.0 2.4743204e-11 0.00022495106 0.0002299746 0.0 4.5813717e-15 0.0002776513
0.00028105572 0.0 1.030636e-12 0.00040460363 0.00040748293 0.00010082848 0.0004991334 3.9394894e-05
0.0004556649 0.00064826984 7e-43 0.054875687 0.0 6.0152864e-12 2.3365129e-07 2.4341875e-07
0.0 9.447093e-10 1.9767187e-07 2.0539441e-07 0.0 1.5698902e-16 2.4787607e-07 2.5782205e-07
0.0 5.920605e-11 2.0799955e-07 2.1337807e-07 0.0 1.5095931e-20 3.155804e-07 3.220486e-07
0.0 5.966757e-12 2.613424e-07 2.6650562e-07 0.0 2.0699352e-14 4.119138e-07 4.1543368e-07
0.0 2.2889848e-19 3.6297232e-07 3.6632395e-07 0.0 4.226372e-17 5.4368826e-07 5.449922e-07
2.498448e-07 4.8794095e-07 7.494767e-08 4.8320004e-07 8.125336e-07 7e-43 5.5200988e-05 0.0
5.78256e-07 0.00034187874 0.00037215053 0.0 1.5720719e-06 0.00035469423 0.00037669894 0.0
4.8890205e-13 0.00034550123 0.00037482532 0.0 9.360584e-08 0.00043050674 0.00045147957 0.0
2.5486515e-16 0.0006123443 0.0006336001 0.0 3.1674443e-09 0.00080852525 0.0008166921 0.0
4.261561e-11 0.001119146 0.0011266106 0.0 7.722999e-15 0.0011523151 0.0011565333 0.0
1.0581476e-11 0.001478265 0.0014809209 0.00038246476 0.0013092265 9.303635e-05 0.0011882691 0.0017998654
00000000: 0000 0000 5763 9d32 dcd6 533a 7274 573a
00000010: 0000 0000 82fe 6234 b040 543a 762b 573a
00000020: 0000 0000 a50a a529 e8cd 563a e20a 5a3a
00000030: 0000 0000 b672 cc32 c4e8 5a3a 7a76 5d3a
00000040: 0000 0000 3d6c d122 183b 6c3a 3a1b 6f3a
00000050: 0000 0000 7319 2d32 3fc1 7c3a 30b2 7e3a
00000060: 0000 0000 4064 882e ae27 8e3a 65a1 8e3a
00000070: 0000 0000 dcac 4f23 2b47 8e3a edf9 8e3a
00000080: 0000 0000 f053 b528 6acf 9d3a 9f3a 9e3a
00000090: 349f 9439 b2dc 753a 03dc d638 0b0f 573a
000000a0: 71b9 b43a f401 0000 f4d7 fa3d 0000 0000
000000b0: 8e0d ae2d 141d 3533 1ef9 4a33 0000 0000
000000c0: 6863 c92f 2740 3433 bb6f 4633 0000 0000
000000d0: 1f52 2224 ff30 3033 21a5 4733 0000 0000
000000e0: 85ce b12d 448b 6833 5943 7733 0000 0000
000000f0: b1a3 b01a 5c65 8133 b2d7 8d33 0000 0000
00000100: 68c7 4b2d d2c1 c933 36f2 d133 0000 0000
00000110: 92ae 1b29 e3f2 4534 b767 4a34 0000 0000
00000120: 4e43 491b ac78 6934 fab1 6c34 0000 0000
00000130: 54cd 8925 1a70 ce34 595a cf34 a74e e733
00000140: 6ac4 d234 9247 3d33 db95 b534 edb9 0d35
00000150: f401 0000 c1e4 2938 0000 0000 ce45 2034
00000160: 21c4 aa37 0f08 9438 0000 0000 7298 1436
00000170: 96bc 2538 2116 ad38 0000 0000 9dfd 1a2b
00000180: 137d ad37 cc33 9b38 0000 0000 2f96 c434
00000190: 7a1d 1139 8049 3839 0000 0000 7c20 8f21
000001a0: 9652 b439 5e11 cf39 0000 0000 daa6 5834
000001b0: 1ad4 523a fd52 5c3a 0000 0000 6666 222f
000001c0: d730 ba3a 2456 bd3a 0000 0000 79b8 7e24
000001d0: b753 db3a 9f8e dd3a 0000 0000 12b2 f82c
000001e0: ed78 153b dd67 163b 7e1a 173a 352a 323b
000001f0: e842 5439 879a 203b feba 673b f401 0000
00000200: 8dfb 973e 0000 0000 410c d232 9f4c 7437
00000210: cc8a c037 0000 0000 3c94 9134 533f 8a37
00000220: 398d c537 0000 0000 f06a 1b2a 576c 7737
00000230: 4a44 c637 0000 0000 eddb 6033 b5aa f337
00000240: 1bcf 1438 0000 0000 8c8e 0b23 5c5b 6038
00000250: b50f 8338 0000 0000 3642 5e33 6d9e 0b39
00000260: 5437 1239 0000 0000 bea4 d92d d7e0 6b39
00000270: 5625 7139 0000 0000 b20f a527 ba91 9139
00000280: a95a 9339 0000 0000 930c 912b fb20 d439
00000290: 6fa3 d539 e173 d338 47d8 023a f23b 2538
000002a0: 4fe6 ee39 a7f0 293a f401 0000 54c5 603d
000002b0: 0000 0000 e2a4 d32c 94e1 7a34 38af 8234
000002c0: 0000 0000 01d7 8130 a13f 5434 638a 5c34
000002d0: 0000 0000 fbfe 3425 d413 8534 cb6a 8a34
000002e0: 0000 0000 0b32 822e 7b56 5f34 eb1c 6534
000002f0: 0000 0000 b993 8e1e 0a6d a934 06e6 ac34
00000300: 0000 0000 c5ef d12c a04e 8c34 4114 8f34
00000310: 0000 0000 7571 ba28 0025 dd34 c508 df34
00000320: 0000 0000 291e 8720 89de c234 2eab c434
00000330: 0000 0000 32e8 4224 f9f1 1135 944b 1235
00000340: 6822 8634 0cfb 0235 ebf2 a033 41b5 0135
00000350: e21c 5a35 f401 0000 9c87 6738 0000 0000
00000360: 7339 1b35 303e b339 331d c339 0000 0000
00000370: fbff d235 41f6 b939 ad7f c539 0000 0000
00000380: 1b9d 092b 6424 b539 3484 c439 0000 0000
00000390: 5b04 c933 a3b5 e139 90b4 ec39 0000 0000
000003a0: 75eb 9225 bb85 203a 2f18 263a 0000 0000
000003b0: 45aa 5931 36f3 533a 4717 563a 0000 0000
000003c0: e96c 3b2e 4fb0 923a c7aa 933a 0000 0000
000003d0: 0c20 0b28 4709 973a d196 973a 0000 0000
000003e0: bb26 3a2d 58c2 c13a 761b c23a 8d85 c839
000003f0: 5a9a ab3a 831c c338 b2bf 9b3a 76e9 eb3a

exp_avg f4 [128]
-0.0030488851 0.0001059888 0.013159738 0.0049137645 0.00010489437 0.009337119 -0.0023567895 0.005707238
-0.000106336905 -9.4313684e-05 0.018429326 -0.003796075 -5.621559e-05 -0.0010987915 -5.5771965e-05 0.011673104
-8.40103e-05 2.5422942e-05 -0.00030702873 -0.0018964395 -0.00082127133 -0.0038030888 0.0015044784 -0.0036753328
-0.0013459845 -0.0028795993 -0.00015449297 -0.000175886 0.00052787154 0.0034770975 0.0001660142 0.0027490975
0.0005663847 -0.0037368764 0.012453375 -0.007951908 -0.004084384 0.000109675304 -0.0029950286 0.0016065766
-0.0035164293 -2.7498858e-05 -0.005883376 0.0003082419 -0.0016323192 -0.0013285094 0.0023780956 -0.0022413044
-5.393034e-05 -0.003094574 -0.0024061396 1.3550198e-05 -0.0026992036 0.003514836 -0.00011417699 -0.0054603983
0.004413284 -6.219431e-05 -0.00096937426 0.0013717915 -0.00037922902 -0.002026584 0.014453672 -0.000112954505
0.009970533 -5.4048985e-05 9.115442e-05 -0.0023207802 0.0036245608 -3.157986e-05 -8.516885e-05 -0.008296498
0.0017404702 0.0015973755 -0.0007924014 0.0028201377 2.4603341e-05 -9.69652e-05 0.0037143307 -0.007449106
-0.0055882763 -0.0017195483 -0.0002907012 0.002495246 0.0007377389 0.012337401 0.0012025104 0.0064153234
0.0033252619 0.00032690432 0.00038676563 -0.0009955579 -0.00031410734 -0.0002898822 -0.0006262562 0.017259978
0.0020468014 -0.00053096586 -0.00044156247 0.0028979275 -6.560161e-05 -0.0011588179 -0.00010786567 -0.00016485211
-0.00021906605 4.8302798e-05 -0.0019335818 0.0036795738 0.0020527602 0.012975457 0.013530069 -0.0006912089
-0.0028184438 5.0481118e-05 0.00032848885 0.0060736514 -0.0011774183 -0.010259635 0.00070714403 -0.0003598733
1.7320232e-05 -0.01804497 -0.0058483533 -0.006051668 0.0049241083 0.0012820277 -1.22006795e-05 0.0001123655
00000000: cecf 47bb 4e46 de38 f19b 573c a503 a13b
00000010: bcfa db38 b7fa 183c 5e74 1abb c803 bb3b
00000020: 3101 dfb8 46ca c5b8 19f9 963c 92c7 78bb
00000030: 08c9 6bb8 5305 90ba b1ec 69b8 8c40 3f3c
00000040: b02e b0b8 5a43 d537 b3f8 a0b9 f391 f8ba
00000050: 964a 57ba 3e3d 79bb eb31 c53a dadd 70bb
00000060: bf6b b0ba a9b7 3cbb 64ff 21b9 0a6e 38b9
00000070: dc60 0a3a 04e0 633b 1914 2e39 342a 343b
00000080: 6f79 143a 62e6 74bb 3e09 4c3c b848 02bc
00000090: 4cd6 85bb 7b01 e638 3e48 44bb c493 d23a
000000a0: e573 66bb 59ad e6b7 56c9 c0bb 879b a139
000000b0: 8bf3 d5ba 6121 aeba d3d9 1b3b d9e2 12bb
000000c0: 4333 62b8 56ce 4abb 53b0 1dbb a855 6337
000000d0: 1fe5 30bb 2a59 663b 4e72 efb8 24ed b2bb
000000e0: 4f9d 903b 516e 82b8 9b1d 7eba afcd b33a
000000f0: 42d3 c6b9 70d0 04bb 18cf 6c3c fde1 ecb8
00000100: 725b 233c a8b2 62b8 282a bf38 3b18 18bb
00000110: 0a8a 6d3b 9e74 04b8 ae9c b2b8 09ee 07bc
00000120: 7d20 e43a 075f d13a 28b9 4fba 0fd2 383b
00000130: 4663 ce37 cc59 cbb8 216c 733b a117 f4bb
00000140: dc1d b7bb 7762 e1ba 4169 98b9 4887 233b
00000150: d264 413a cf22 4a3c 8e9d 9d3a a237 d23b
00000160: a3ec 593b 5b64 ab39 cec6 ca39 617d 82ba
00000170: c6ae a4b9 55fb 97b9 582b 24ba cc64 8d3c
00000180: a123 063b 8430 0bba 8381 e7b9 28eb 3d3b
00000190: 9993 89b8 7ae3 97ba f135 e2b8 27dc 2cb9
000001a0: 18b5 65b9 bc98 4a38 3d70 fdba 0125 713b
000001b0: 9a87 063b 0397 543c 39ad 5d3c 3e32 35ba
000001c0: a4b5 38bb b0bb 5338 0739 ac39 7b05 c73b
000001d0: 9a53 9aba 0718 28bc a25f 393a 60ad bcb9
000001e0: ea4a 9137 0cd3 93bc 8ba3 bfbb 124d c6bb
000001f0: 6a5a a13b b609 a83a 85b1 4cb7 c5a5 eb38

exp_avg_sq f4 [128]
0.0013788175 5.279715e-07 0.0035359259 0.0006482699 8.125336e-07 0.0017998654 0.00016072385 0.0018052611
4.0300208e-07 4.1272293e-07 0.0039597717 0.00080731657 7.5914622e-06 0.0001234602 4.4525711e-07 0.0023927835
1.8449973e-07 2.3450598e-06 9.344084e-07 0.0001599353 0.00032465428 0.00045771908 0.0003309075 0.0001845519
0.0002531813 0.0004808259 4.530443e-07 1.1239133e-06 4.8266893e-06 0.0008647969 1.370908e-06 0.0011548076
1.2164209e-05 0.00021433286 0.0022968359 0.0011480825 0.0002926648 5.97852e-05 0.00019035125 0.00062190235
0.00011707801 1.6038362e-07 0.0012571751 1.0649429e-05 3.1555515e-05 3.8132777e-05 0.00089227484 0.00030787662
1.6006541e-05 0.0004525625 0.00084331766 8.253009e-07 0.00028874117 0.00011422248 6.983246e-05 0.00032366667
0.00021488278 2.2862028e-07 8.287431e-05 0.0008301576 4.2650798e-05 0.00039491427 0.0020381066 1.8047506e-07
0.0010343638 2.901001e-07 6.646812e-05 0.000631681 0.0007382404 5.068711e-07 4.8076583e-07 0.0007847465
2.2223256e-05 0.00028168812 0.0001554206 0.00017600755 1.6971657e-07 1.8800854e-07 0.00019141195 0.00072043925
0.00028365946 0.00022538024 1.54243e-06 0.0002763922 5.572064e-06 0.0020764617 8.841757e-05 0.00043846693
0.00040473914 1.7544534e-06 6.0896225e-05 0.0019541606 6.7169545e-05 2.2548815e-05 2.3901162e-06 0.004049391
0.00036312127 3.1473687e-06 0.0005668017 0.00032515518 7.762295e-07 9.4808405e-05 3.0438687e-07 1.0881657e-06
1.4068146e-06 2.9113576e-07 0.00023952819 0.00027489907 0.00037472966 0.0026567155 0.0029002777 0.00016373815
0.0001463812 8.0898053e-07 3.848947e-06 0.00076095527 9.738706e-05 0.0020487136 5.0048955e-05 1.6078252e-06
2.4223945e-07 0.0061102943 0.00041678222 0.000803054 0.0013222153 0.0015501982 0.00010338996 1.1688488e-05
00000000: 70b9 b43a edb9 0d35 feba 673b a8f0 293a
00000010: e21c 5a35 76e9 eb3a fb87 2839 839e ec3a
00000020: 2f5c d834 3594 dd34 f9c0 813b 19a2 533a
00000030: 2aba fe36 1875 0139 ac0b ef34 3fd0 1c3b
00000040: e61a 4634 d25f 1d36 0ed4 7a35 4eb4 2739
00000050: 5c36 aa39 04fa ef39 a77d ad39 4684 4139
00000060: 6bbd 8439 5c17 fc39 ef39 f334 5ed9 9635
00000070: f2f4 a136 8ab3 623a 0a00 b835 ea5c 973a
00000080: e114 4c37 8abe 6039 8386 163b 427b 963a
00000090: ce70 9939 dfc1 7a38 0699 4739 2907 233a
000000a0: c787 f538 ea35 2c34 ccc7 a43a f3aa 3237
000000b0: 7a5a 0438 c2f0 1f38 8de7 693a 806a a139
000000c0: c945 8637 e945 ed39 1712 5d3a 3f8a 5d35
000000d0: 2f62 9739 ba8a ef38 0473 9238 ceb1 a939
000000e0: 2852 6139 aa7a 7534 cecc ad38 ef9e 593a
000000f0: f2e3 3238 7f0c cf39 c191 053b 9bc8 4134
00000100: 7d93 873a 0ebf 9b34 cd64 8b38 6597 253a
00000110: 7986 413a eb0f 0835 fa0d 0135 72b7 4d3a
00000120: 146c ba37 8aaf 9339 66f8 2239 ab8e 3839
00000130: 563b 3634 65df 4934 c1b5 4839 dcdb 3c3a
00000140: 21b8 9439 0c54 6c39 7e05 cf35 bce8 9039
00000150: aaf7 ba36 3f15 083b d26c b938 09e2 e539
00000160: 2b33 d439 8f7a eb35 d36a 7f38 6011 003b
00000170: 60dd 8c38 3627 bd37 e265 2036 c1b0 843b
00000180: 5061 be39 6237 5336 6b95 143a 9779 aa39
00000190: 165e 5035 e0d3 c638 9d6a a334 170d 9235
000001a0: c8d1 bc35 654d 9c34 dc29 7b39 5420 9039
000001b0: 5d77 c439 4a1c 2e3b 9612 3e3b 20b1 2b39
000001c0: e77d 1939 b828 5935 3426 8136 d87a 473a
000001d0: 483c cc38 b643 063b a8eb 5138 74cc d735
000001e0: 230d 8234 dd38 c83b 9083 da39 0b84 523a
000001f0: 2f4e ad3a 0530 cb3a 10d3 d838 ac19 4437
