VirtualAquarium/results/VirtualAquariumNew/VirtualAquarium/VirtualAquarium-21871.onnx (onnx, 89943 bytes, 9 tensors)

action_model._continuous_distribution.log_sigma f4 [1, 3]
000000 2c e3 92 bd fd ff 1e 3c e5 0d c4 bd
       -0.07172236 0.009704587 -0.09572963

action_model._continuous_distribution.mu.bias f4 [3]
000000 52 12 4b 3b 56 02 77 bc b7 62 06 3d
       0.0030986262 -0.0150762405 0.032808986

action_model._continuous_distribution.mu.weight f4 [3, 128]
000000 f5 f8 40 bd 55 09 89 3c a5 b7 b2 bc 42 97 fb b9
       -0.047112424 0.016728083 -0.021816084 -0.00047987147
000010 26 2b 3e bc 24 86 76 39 1e 45 63 bb c2 5e 38 3d
       -0.011606967 0.0002351036 -0.0034678648 0.045012243
000020 cd 25 8e 3b d7 4e 5b 3c 8d 44 45 bc 56 4f 01 bb
       0.0043380023 0.013385496 -0.01204027 -0.0019731126
000030 da d1 99 ba f5 46 b2 3c 6b 62 16 bc bf f1 a9 bc
       -0.0011735514 0.02176235 -0.009178738 -0.020745156
000040 03 be b1 bb e6 2c 81 bb 67 2b 90 bc 84 f6 2a bc
       -0.0054242625 -0.00394212 -0.01759882 -0.0104347505
000050 52 a3 8a 3c 00 78 06 bc 8f 45 e4 bc 13 48 9a bb
       0.01692358 -0.008207321 -0.0278652 -0.004708299
000060 3c 74 aa bc 40 38 32 bc d5 e9 cf 3b 08 36 92 3c
       -0.020807378 -0.010877669 0.0063450136 0.01784803
000070 c8 83 f5 bb 69 07 eb 3b 42 15 54 bd bf 2b 08 3d
       -0.007492516 0.007172514 -0.051778086 0.033244845
000080 6a f3 01 3c d8 e7 56 bc 27 2e 00 3d df d3 5d bd
       0.00793157 -0.013116799 0.031294014 -0.054157134
000090 45 08 c9 bc 71 d6 9b 3c 49 4a 69 bc f1 05 19 bd
       -0.024540076 0.019023152 -0.014238902 -0.03735918
0000a0 86 66 d2 bc 0e f9 e4 bc 91 54 01 3d 35 2f 2d 3c
       -0.025683653 -0.02795079 0.03157479 0.010570337
0000b0 ad e2 d8 bb ed be aa 3b d5 ba e2 bb 27 ab 4b b9
       -0.0066188187 0.0052107484 -0.006919245 -0.00019423348
0000c0 19 ca ef bc 7a 35 01 bc 7a 3d b5 38 d7 ef 34 bc
       -0.029271172 -0.007886285 8.6422035e-05 -0.01104351
0000d0 09 c2 3e bc 83 ba 19 3b a2 7d 0d 3d 3c af dd bc
       -0.011642941 0.0023457117 0.03454364 -0.027061097
0000e0 62 40 da 3c 27 aa 94 ba 1f 9d db bb 7f 8f 1a 3d
       0.026642028 -0.0011342213 -0.00670208 0.037734505
0000f0 5b df 03 3d f8 27 26 bd f0 c4 64 bc 69 fd 24 bd
       0.03219543 -0.04056546 -0.013962969 -0.040280733
000100 2c 18 c8 b8 25 58 b8 bc 14 b3 da bc e0 d6 cf bc
       -9.5412455e-05 -0.022502968 -0.02669672 -0.025371015
000110 f2 8e 4d bc 39 a5 81 3c f1 ca 6f bc 61 bc 71 3a
       -0.012546288 0.015825855 -0.014635787 0.0009221491
000120 d5 eb 04 bd bf 3c 95 bc 11 67 98 3c 53 27 89 bc
       -0.03245147 -0.018217443 0.018603833 -0.016742384
000130 67 29 aa 3c c9 fc bc bc 21 1a b7 bb 09 2c 3b 3c
       0.020771695 -0.023069756 -0.0055878316 0.011424073
000140 7e b4 80 bc d6 5b b8 bc 03 2b 06 3c 4a 37 13 bc
       -0.015711065 -0.022504728 0.008188966 -0.00898535
000150 2a 5d 16 bd dd c2 32 bd b3 e5 1f bd 6a fc a3 3c
       -0.036709942 -0.043642867 -0.039037418 0.020017821
000160 5f 16 9b bc 01 eb 03 bd ee 38 cc 3c b6 a3 71 3c
       -0.018931566 -0.03220654 0.02492949 0.014748504
000170 41 26 0c 3d ca 12 cb bc dc ed dd 3b a4 51 b4 3c
       0.03421617 -0.024789233 0.00677274 0.022011586
000180 36 99 ed 3c c2 49 d4 bb 54 4f 68 bc ca 04 91 3c
       0.02900372 -0.006478519 -0.01417907 0.017702479
000190 75 c1 aa bc 0d 6d ba bc a7 ef 74 bb 56 5f 4f bb
       -0.0208442 -0.022757078 -0.003737429 -0.0031642518
0001a0 98 75 10 bd 73 bb 30 bc 75 38 67 bc 7a 40 f1 b9
       -0.035268396 -0.010786879 -0.0141125815 -0.0004601514
0001b0 e8 27 0e 3c a8 ea c2 bb 31 58 0f bd a1 bd 85 3c
       0.008676507 -0.0059483834 -0.034996215 0.016325774
0001c0 3e 3d 81 bc 9c 94 03 3d 40 71 e8 bc 08 a6 e1 3b
       -0.015776273 0.032124147 -0.028374314 0.0068862475
0001d0 0e ce f8 bc 0a e4 41 3c 69 fb 01 bc ed c4 da bb
       -0.030371692 0.011834154 -0.007933476 -0.0066763074
0001e0 d6 06 64 3d 21 80 02 bc 27 ef a1 bc 3c d9 7f 3c
       0.05567058 -0.007965119 -0.019767357 0.015615758
0001f0 d6 4d 0f bd a3 56 3a bd 88 bd cf 3b b3 a9 fc bb
       -0.03498634 -0.04549278 0.0063397326 -0.0077106594
000200 06 14 ce 3c 91 a3 af bc e4 d3 1e bd 7b 1d cd 3a
       0.025156032 -0.0214403 -0.038776293 0.0015649045
000210 63 3c 13 3c e0 f9 11 bc a9 84 fe bc 14 af 1e bb
       0.008986565 -0.0089096725 -0.031069117 -0.0024213241
000220 4b 49 ab bb c2 b6 bb 3c cf f9 91 3c b2 32 07 bc
       -0.005227243 0.022914294 0.017819313 -0.008251833
000230 30 e4 56 bc 52 05 16 bc 51 a0 c7 3c 47 71 6c bd
       -0.013115928 -0.009156542 0.024368437 -0.057725217
000240 75 bd f5 3c 2d 1f 54 bc db 6d 8c bc b3 c5 82 3c
       0.029997567 -0.012946886 -0.017142227 0.015963411
000250 1f 3d a3 3c bd 8c eb 3c 90 30 2d bd c0 04 f4 3c
       0.019926606 0.028753633 -0.04228264 0.029787421
000260 5c 16 63 3c a4 68 fe 3c 8c 84 07 bc 6f 15 15 3c
       0.013860311 0.031055756 -0.008271348 0.009099348
000270 72 d9 24 3c 82 10 8d 3c fc 9c 71 bb a6 4c 6b 3c
       0.010061609 0.017219786 -0.0036867252 0.014361536
000280 81 07 b7 bc 7a b6 68 3b 70 ea 23 3c 87 cc 73 bd
       -0.022342445 0.0035509155 0.010004625 -0.059521224
000290 a0 cc b2 bc 12 b4 2a bd 45 ff 56 3b 0e 48 d3 bc
       -0.021826088 -0.041675635 0.003280596 -0.025791194
0002a0 f6 8a 17 bc 8e 59 7d 3c 9f e8 ab 3a 8c c0 05 bd
       -0.009249439 0.015463246 0.0013115591 -0.03265433
0002b0 b8 f0 cd 3c fb d0 22 3c c1 ba c1 3c 52 b9 86 3c
       0.025139198 0.00993752 0.023648622 0.01644579
0002c0 d4 fb 94 3a bd fe 35 bd 85 1a 91 bb 08 3d f1 3b
       0.0011366555 -0.04443239 -0.00442821 0.007362012
0002d0 47 4a 59 3c bb 88 42 bc 3a 81 55 bc f6 84 1f bd
       0.013262338 -0.011873419 -0.013031298 -0.03894516
0002e0 40 85 0d 3d d2 e7 82 bc 98 ae c4 3c 15 ec 6a 3c
       0.034550905 -0.015979681 0.024009034 0.014338513
0002f0 39 3a 33 3d 97 93 c0 3b 16 8d 23 3c 30 5a a0 3c
       0.043756697 0.005876969 0.009982368 0.019574255
000300 08 d8 0f bd f4 df 71 bc 09 e9 82 3c 0a 01 2b bc
       -0.035118133 -0.014762867 0.01598026 -0.010437259
000310 fa e5 95 3c cf d1 b5 3c 4e 16 19 3c 9b 93 8f 3d
       0.018298138 0.022194771 0.009343697 0.070105754
000320 3f 95 ac bb aa 8e 90 b9 16 6c 39 3c 02 aa e9 b7
       -0.005266815 -0.00027572113 0.011317274 -2.785493e-05
000330 95 7b 47 bb ff 61 4d 3c 24 b2 50 b9 85 9a 82 3d
       -0.003043865 0.012535571 -0.00019902788 0.063771285
000340 9c 35 17 3d fe 42 e7 3c f4 81 79 bc 5e 12 29 bc
       0.03691636 0.028230187 -0.015228737 -0.0103193205
000350 78 a0 47 bd 6c 75 03 bd c9 61 87 3b d3 44 86 bb
       -0.04873702 -0.032094404 0.00413153 -0.00409756
000360 9d ee e6 bc b1 78 4b 3d e1 36 52 bd 63 2e bb 3c
       -0.028189952 0.049675647 -0.051321868 0.022849267
000370 34 2f bc 3b b9 5c ad 3c 93 09 75 bb 1d 05 8c 3c
       0.0057429317 0.021162378 -0.003738974 0.017092282
000380 28 cb 9c 3b e8 db e3 3b 21 88 1b bc 9a 53 c5 3c
       0.0047849603 0.006953705 -0.009492905 0.024087716
000390 ea d8 0f 3c ad c0 61 3c b4 4d fb 3c 53 b7 48 bc
       0.008779744 0.013778848 0.0306767 -0.012250739
0003a0 e0 83 6b 3b 74 a1 b3 3a 91 7d 88 3c c1 9e 9b 3c
       0.0035936758 0.0013704733 0.016661437 0.018996598
0003b0 2a c2 cd 3c f8 f4 a9 3b 66 a6 37 bc da b9 dd 3c
       0.025116999 0.0051866733 -0.011209106 0.02706616
0003c0 47 26 0e 3c fa 61 28 bc 9a 87 d5 3c 23 87 de 3c
       0.008676118 -0.010277266 0.026065636 0.027164048
0003d0 5c 8f 91 bd 41 9e 09 bd 6e f4 e1 3c 9c a9 d4 3c
       -0.07107422 -0.03359819 0.027582373 0.025959782
0003e0 f9 e5 c5 3b de 93 a4 3a 93 a6 34 bd 06 56 9e 3c
       0.006039378 0.0012556275 -0.04410417 0.019328129
0003f0 51 bd f4 3b 35 f1 0c bd b8 f0 12 3d 8f d7 17 3d
       0.0074688573 -0.03440972 0.0358741 0.037070807

action_model._discrete_distribution.branches.0.bias f4 [2]
000000 83 27 fb 3c 85 27 fb bc
       0.03065849 -0.030658493

action_model._discrete_distribution.branches.0.weight f4 [2, 128]
000000 d2 e1 09 3d a5 c8 e4 bc f3 b6 91 3c 6e de 65 bd
       0.033662625 -0.027927706 0.017787432 -0.05612033
000010 9d 4d 18 bd 0e 6c e0 3b 52 5a 04 3d 55 67 cd bc
       -0.037183393 0.0068488186 0.0323127 -0.025073687
000020 8a c7 b4 3c 03 37 1f bd 93 5c 2a bd 60 d6 e9 3c
       0.022067804 -0.038870823 -0.041592192 0.028544605
000030 e6 cb a9 3c de 7c 25 3d dd ff c7 bc 5a 30 94 3c
       0.02072711 0.040402286 -0.024413997 0.018089462
000040 7f 26 2f bd 0d 91 d5 3c 6f 83 65 3d 86 34 c5 bc
       -0.042761322 0.026070142 0.056033548 -0.024072897
000050 70 67 79 bc 8c b1 21 bd 4e 38 4c 3c f2 29 bf 38
       -0.015222415 -0.039475963 0.012464596 9.115403e-05
000060 6c 00 ed bc 23 49 55 bc 91 16 05 3d cf 5d 39 bd
       -0.028930865 -0.013017925 0.032492224 -0.04525548
000070 24 b3 8c bd b4 dd 2d bd 08 e7 f5 bc 72 11 55 bc
       -0.06870106 -0.04244776 -0.03001739 -0.013004648
000080 9b 65 3e 3d 61 1c 35 bd 03 e5 dc bc ed 0e 28 3c
       0.046483617 -0.044216517 -0.02696467 0.010257465
000090 78 25 c8 3c 44 74 16 3d 1c ea a7 b9 a7 5a 1b bc
       0.024431929 0.036731973 -0.00032027147 -0.009482062
0000a0 b7 4b 0a 3d bd 53 5b bd ed c9 6b 3c 09 2f 74 3d
       0.033763614 -0.053546656 0.014391405 0.05961517
0000b0 af cf a1 3b 20 a5 68 bb a5 fc 1c bd 9d 2d 40 bd
       0.004938088 -0.0035498813 -0.038326878 -0.0469185
0000c0 d6 07 25 bc 2e 76 28 bc 12 66 16 bc 49 52 23 bd
       -0.010072669 -0.0102820825 -0.009179609 -0.039873395
0000d0 05 bc 6a bd 0a 19 4f 3d cb 25 a6 3c 17 8e df 3b
       -0.057308216 0.05056099 0.020281693 0.0068223584
0000e0 7a 53 ad bc cf 4a 3c 3c 43 bf 02 3c 79 6c 86 bc
       -0.021157969 0.011492445 0.007980171 -0.016409146
0000f0 04 67 21 bc fe 95 59 bd e2 2a 3f bd 79 64 eb bc
       -0.009851221 -0.05312156 -0.046671756 -0.028734433
000100 cf c4 f3 3c 9e 84 06 bd d8 c7 86 bc 95 56 a9 bd
       0.029756932 -0.032841317 -0.016452715 -0.08268467
000110 a0 34 b6 3b 5e c1 aa bd cb b7 ff 3c 51 19 06 bd
       0.0055604726 -0.08337663 0.031215569 -0.032738987
000120 2a c3 82 bc 1d 13 16 bd 4a ee 22 bd 7a 8e 14 3c
       -0.015962202 -0.03663932 -0.03977803 0.009067172
000130 72 5a 8b bc dd 1a 3d bd 8b bb ac bc 85 fc 73 bd
       -0.017010901 -0.046168197 -0.021085521 -0.059566993
000140 ed d3 b6 ba a6 6c de bc 56 8a 41 3d a7 5f 04 3d
       -0.0013948657 -0.027151417 0.047251068 0.032317784
000150 73 b1 23 3c c2 d9 ca 3b bf 17 9d 3c f9 d8 1f bd
       0.009991038 0.0061905095 0.019176362 -0.03902528
000160 fd 32 1b bd 1e c2 19 bd 93 60 88 3d d3 0d 22 bd
       -0.037890423 -0.03753864 0.06659045 -0.039563965
000170 0e 60 35 bc 4f 65 9f 3b 3c 9a fe 3c f1 3b 4c bd
       -0.0110702645 0.004864372 0.031079404 -0.049861852
000180 c4 9d 27 3d 69 5a 18 bc 67 bf a6 3c 0d 06 21 bd
       0.04092194 -0.009298899 0.02035494 -0.03931241
000190 d7 de 1a bd 73 fb 4e bd d5 df e3 bc 5e 29 33 bd
       -0.037810173 -0.05053277 -0.027816692 -0.043740623
0001a0 89 a9 7f bd 26 ab 9e bc 43 95 2f bd f0 a5 25 3d
       -0.06241754 -0.01936872 -0.042866956 0.040441453
0001b0 ae 24 39 bd 78 80 58 bd a7 0d 2f bd 80 fe cd 3b
       -0.045200996 -0.052856892 -0.04273763 0.0062864423
0001c0 e7 8a 3a bd 71 64 00 3d 21 fb 8d bd 68 67 77 bb
       -0.045542624 0.03134579 -0.06932665 -0.0037750844
0001d0 12 21 01 3c 4a 1e 6c 3d 87 52 a2 bc 94 ef 27 bd
       0.00788142 0.057646073 -0.019814743 -0.040999964
0001e0 13 df 88 3c 96 e9 29 bd 79 c0 0c bb e3 5e 8e bc
       0.016707933 -0.04148253 -0.0021477027 -0.01737923
0001f0 bf 1b 7b bd 57 e0 84 bc 74 14 1a bd 40 45 4c bd
       -0.061305758 -0.016220255 -0.037617162 -0.04987073
000200 0f a1 1c bd aa a2 c3 3c d4 ad 81 bb 8b e0 3d 3d
       -0.038239535 0.023881275 -0.0039574895 0.04635672
000210 97 e7 02 3d 53 7e 29 bc 22 86 15 bd a9 e9 d2 3c
       0.031959143 -0.010345059 -0.036504872 0.025746183
000220 c2 37 bb bc 44 6b cf 3c 23 3f eb 3c a7 6e 1f bd
       -0.022853736 0.025319703 0.02871663 -0.038923886
000230 ba 51 20 bd 9a e2 42 bd 84 a1 12 3d 27 fb 4c ba
       -0.03914044 -0.047579385 0.035798565 -0.0007819407
000240 21 ce 37 3d 98 f2 f6 bc af 60 d7 bc 1f aa db 3c
       0.044874314 -0.030144975 -0.02629122 0.026814518
000250 49 2c 12 3d 0a bb 14 3d 7e 84 a8 bc b3 49 4f 3c
       0.035686765 0.036311187 -0.02057099 0.012651849
000260 4a 91 4b 3d f3 59 f6 3b e0 c8 70 bd e2 2b 3f 3d
       0.049699105 0.007518047 -0.05878532 0.04667271
000270 4b c2 72 3d d2 53 4a 3d 7a 9a b8 3c 1a 4b 15 3d
       0.059267323 0.049396344 0.022534598 0.036448576
000280 03 02 27 bd 64 cb 69 3d 32 15 a4 3c fc b3 7b 3c
       -0.040773403 0.057078734 0.020029638 0.015362736
000290 03 da 9d bc b6 91 22 bd 74 1e 78 3c e5 03 99 3c
       -0.019268995 -0.039689742 0.015143979 0.018678615
0002a0 ff 61 05 bd 19 96 33 3d 64 c8 37 bc bb a2 45 bd
       -0.03256416 0.043844316 -0.01121721 -0.048250895
0002b0 22 0a e9 3b a1 32 78 bc 24 2a 47 3d c1 64 17 3d
       0.0071118036 -0.01514879 0.048624173 0.03696132
0002c0 47 3d 2d bb 66 25 05 bc 4d e8 c7 3c 03 8e 1e 3d
       -0.002643423 -0.008126592 0.024402762 0.03870965
0002d0 36 19 4f 3d d7 72 1d bd 5d 3f c9 bc 30 d9 93 bb
       0.050561152 -0.038439598 -0.024566347 -0.0045119748
0002e0 48 f9 bc 3c 88 b5 11 bd 32 0d 17 3c 7c 63 7b 3c
       0.023068085 -0.035573512 0.009219455 0.015343543
0002f0 4e 7e d3 3c ab db fc 3c ae 84 1c 3d 6c e5 58 3c
       0.025817063 0.030866465 0.03821247 0.013238292
000300 26 3f eb bc 76 42 25 3d 91 bf f7 3c 6d 7b 84 3d
       -0.028716635 0.040346585 0.030242713 0.06468854
000310 ca 28 19 bc 97 ff ae 3d cd 45 53 bc 9c 28 f0 3c
       -0.009348104 0.08544844 -0.01289506 0.029316239
000320 cd b4 38 bc 5b e3 f5 3c bd c6 3a 3d 90 4f 83 bc
       -0.011273575 0.030015638 0.045599688 -0.01602915
000330 4d ef c5 3c 8f db 23 3d 08 1a 20 3d 6b 2a 50 3d
       0.024161959 0.04000431 0.039087325 0.050821703
000340 d1 b8 8e 3c bd 4a cb 3c 24 92 10 bd e4 7c 62 bd
       0.017422112 0.024815911 -0.03529562 -0.055294886
000350 fe 27 4f bc 02 ed a7 bc 54 37 8f bc ef a6 55 3d
       -0.012643812 -0.020498756 -0.017482437 0.052161153
000360 e3 39 35 3d 3b b2 35 3d e1 04 7a bd 08 35 14 3d
       0.04424466 0.044359427 -0.06103981 0.036183387
000370 d9 74 4f 3c db 0c cf 3b 99 6b 2f bc 97 e1 85 3d
       0.012662136 0.006318671 -0.010706806 0.065371685
000380 3d f8 24 bd 99 a5 73 3c c2 28 29 bd 2a 01 50 3d
       -0.0402758 0.0148710245 -0.041298635 0.05078236
000390 90 2c 4f 3d 94 c6 88 3d 45 70 19 3d fb b3 cb 3c
       0.050579607 0.06678501 0.037460584 0.024866095
0003a0 20 be 4c 3d a8 d4 22 3d 93 1f 3e 3d 06 a9 8b bc
       0.049986005 0.039753586 0.04641683 -0.01704837
0003b0 ad e6 73 3c 1e 22 49 3d a3 d9 3e 3d ff a5 33 bc
       0.01488654 0.049104802 0.046594273 -0.0109648695
0003c0 7a 39 25 3d c7 00 4c bd 99 ee 85 3d 82 f9 0c bc
       0.040338017 -0.04980543 0.065396495 -0.008604409
0003d0 3a 8b 1a 3c db 27 31 bd b6 1a c2 3c 19 be 78 3c
       0.009432608 -0.0432509 0.023694377 0.015182042
0003e0 de f3 c7 bc 04 d4 fe 3c 11 7c 88 bc 23 83 ef 3c
       -0.024408277 0.031106956 -0.016660722 0.029237336
0003f0 f7 d6 5f 3d 51 65 e6 3c 93 3c 4b 3d 98 6c 23 3d
       0.054648366 0.028124483 0.049618315 0.039898485

network_body._body_endoder.seq_layers.0.bias f4 [128]
000000 31 af 81 ba 96 cd 05 bd c3 c7 ce ba e5 be 24 bd
       -0.000989413 -0.032666765 -0.0015776086 -0.040221114
000010 90 91 c7 3c 93 d9 78 3c de 69 b7 bc 10 b4 03 3c
       0.024361402 0.0151885925 -0.022389349 0.008038536
000020 5d 68 d5 bc a6 63 e3 3b d1 6c a1 3c fc 93 f2 bb
       -0.02605074 0.0069393693 0.019705208 -0.007402895
000030 75 b7 82 3c 41 0d b6 3c 64 83 37 bc 86 39 4b bb
       0.01595662 0.022223117 -0.01120076 -0.0031009628
000040 a9 31 96 3b 98 56 25 3b 01 95 bc bb 2e 9f a8 3a
       0.0045835567 0.0025228616 -0.0057550673 0.0012864822
000050 e9 c1 b4 3c 02 b1 86 3b 5f 7f e3 bb a6 c4 3f bb
       0.02206512 0.0041104564 -0.006942674 -0.0029261499
000060 ae 4d 09 bc 52 51 fa bc 0d dc 3f 3d 84 87 43 3c
       -0.008380337 -0.030556355 0.046840716 0.011934165
000070 20 81 67 3c 55 b5 8b 3c c1 b9 be bc d1 b2 5c 3b
       0.014129907 0.01705424 -0.023281934 0.0033675919
000080 76 a2 04 bc cb b4 3e 3c a1 ff a9 bb c7 ba 17 bb
       -0.008095374 0.011639784 -0.005187944 -0.00231521
000090 16 49 47 3c 8a 80 46 3c d6 b0 09 bd ad 7b 7b 3c
       0.012163421 0.012115607 -0.03361591 0.015349311
0000a0 96 37 bd bb ae f7 9e ba 6b 25 f0 3c c3 30 da bc
       -0.0057744486 -0.0012128258 0.029314717 -0.02663458
0000b0 6f b2 36 3c 42 1a 55 bc f0 01 b6 bc 4a 60 78 3d
       0.01115094 -0.013006749 -0.02221772 0.060638703
0000c0 71 ab 23 bc 59 b5 1b 3c 50 03 e1 3c 40 25 b1 bc
       -0.009989605 0.009503686 0.0274674 -0.021624207
0000d0 4e d4 3e 3b 0c 4e 95 3c e1 21 bf bc 70 d3 d0 bc
       0.0029118243 0.018225692 -0.023331584 -0.025491446
0000e0 ae 71 5d bb c8 0b 4a 3d 02 4d 3e bd 45 55 96 3a
       -0.0033789682 0.04932764 -0.04646016 0.0011469504
0000f0 76 43 82 bc 6a 16 4e bb d5 37 1e bb 37 b9 fe 3b
       -0.015901309 -0.0031446465 -0.0024142165 0.007773544
000100 cb bd 38 bc 0e b0 9b 3c 6f 6e 24 bb 80 b2 cc 3a
       -0.011275719 0.019004848 -0.0025090238 0.0015617162
000110 c0 e6 04 3d 87 38 fc 3b b6 eb b2 3b 95 95 0b b9
       0.032446623 0.0076971683 0.005460228 -0.00013311797
000120 32 64 d1 bc fb 31 d2 3c 71 c1 61 ba 61 1d 56 bc
       -0.025560472 0.025658598 -0.0008611894 -0.013068528
000130 85 ff ba bc fc 00 fe bb 00 d4 e5 3b b0 f6 99 3c
       -0.02282692 -0.007751582 0.0070137978 0.018794388
000140 49 ba c4 bc 1a 6a f1 bc e1 ff 0d 3a 30 ab 2a bc
       -0.024014609 -0.029469538 0.0005416852 -0.010416791
000150 a2 44 12 bc 8b 25 2f bc 8f 9e 92 3c a8 8a 2d bc
       -0.008927496 -0.010690103 0.017897872 -0.01059214
000160 c1 43 f8 3c ec 53 8e 3c 92 24 13 3c 1a 2b 8c 3c
       0.030305745 0.017374001 0.008980887 0.017110396
000170 df 12 28 3c 69 8c 29 bc 0d c6 60 3d 77 a4 23 bc
       0.0102584055 -0.010348418 0.054876376 -0.009987942
000180 6c 92 6c 3c fb 22 9d bc d1 0c 94 3c 04 b8 a4 3c
       0.014439207 -0.019181719 0.018072518 0.020107277
000190 f8 57 a6 3c d2 05 c1 3c 0c ba 5d 3c 4d fe 88 bc
       0.020305619 0.023562346 0.013533127 -0.016722823
0001a0 6d 73 9b 3c 66 f9 ab 3c 49 79 fd bc 01 70 0a bb
       0.018975938 0.020992946 -0.030941622 -0.0021123888
0001b0 0e 37 77 b9 1d 60 80 3b 6f d6 b0 3b 5f 64 26 3b
       -0.00023576265 0.0039177076 0.005396656 0.0025389416
0001c0 45 be 78 bb 81 be 9a 3c 60 4f c7 3b 64 60 8b 3b
       -0.0037955206 0.018889667 0.0060824603 0.004253434
0001d0 54 de 44 3c 62 59 81 bc 7d 2c 0e bd ee 01 fe bc
       0.012015898 -0.015789691 -0.034710396 -0.03100678
0001e0 aa 5a 4b 3d 73 9f 77 3a cb 3b 8c bb 7d 6e 11 3b
       0.04964701 0.0009446062 -0.004279589 0.00221911
0001f0 05 c2 93 bb 20 dd 35 bb 75 19 eb 3b ba 0a 55 bc
       -0.004509213 -0.002775021 0.0071746656 -0.013003046

network_body._body_endoder.seq_layers.0.weight f4 [128, 35]
000000 10 80 d0 3c 8a b2 95 bc 27 2e c4 bd 16 a3 db bc
       0.02545169 -0.01827361 -0.09579115 -0.026811164
000010 e2 59 11 3d 00 3c c0 3d f0 2a 18 3d 58 9c f2 3d
       0.03548611 0.09386444 0.037150323 0.118462265
000020 01 6c f7 3d 42 1e 4a be b2 5e 1b bd ae 72 53 be
       0.12081147 -0.19738105 -0.037932105 -0.20649216
000030 d0 a5 01 be a4 e6 49 be d0 63 4f be db 34 6c bd
       -0.12660909 -0.19716889 -0.20252919 -0.057667594
000040 0c 81 e7 3b 28 bf 3a 3e 4a ab 30 be 73 d4 6b 3e
       0.007064944 0.18236983 -0.17252842 0.23030262
000050 ba 50 c4 bd ec d1 aa 3e 93 a0 f9 3d 0c c3 60 be
       -0.0958571 0.33363283 0.1218883 -0.21949404
000060 fe 34 13 3d e5 e3 60 be 76 ef d6 3d 2f 80 0c be
       0.03593921 -0.21961935 0.10494892 -0.13720773
000070 d6 3c 27 be 10 97 12 be 15 8b 66 3e a1 54 3b be
       -0.16331801 -0.14315438 0.22513993 -0.18294002
000080 04 94 89 3e 45 a4 f6 3b e0 26 c9 3e a7 77 f9 3d
       0.2687074 0.0075269067 0.39287472 0.12181025
000090 d5 e3 a7 be 16 59 df be 24 63 eb 3b 2f 21 01 be
       -0.3279101 -0.43622655 0.0071834493 -0.12610315
0000a0 fc 46 ba 3e ec 4f 81 bc 1d 73 0d be b5 d9 0a 3e
       0.36382282 -0.01578518 -0.13813443 0.13559611
0000b0 33 e2 c5 bd 79 14 86 bd 6c 87 d8 bd 3a 22 07 bd
       -0.09662285 -0.065468736 -0.10572705 -0.032991625
0000c0 46 19 8c 3d 20 6e 07 3e b5 6a f2 bd e4 9f 73 3e
       0.06840758 0.13225603 -0.11836759 0.23791462
0000d0 61 d7 e5 39 ac 72 ea bd dd 5f 46 be 7a 24 22 3e
       0.00043838753 -0.11447653 -0.19372506 0.15834227
0000e0 e3 6f 0d 3e 61 c9 2a 3e ab b7 d4 be 41 c3 c5 3d
       0.13812213 0.16678382 -0.41546378 0.09656382
0000f0 c7 51 fa bd 31 52 0f be 34 25 3a be dc 45 4d 3d
       -0.12222629 -0.13996197 -0.18178254 0.05011545
000100 e4 51 93 bd de 54 84 bd 7e 82 6c bd dc db bd bd
       -0.07193354 -0.064615 -0.057741635 -0.092704505
000110 54 12 c4 3d 64 d5 b4 bd 34 6f d2 bd 95 40 03 3d
       0.09573808 -0.088297635 -0.102751166 0.032044012
000120 e5 9a f9 bd d0 7b 8d bd 8a b1 fe 3d 81 39 8c 3e
       -0.12187747 -0.06908381 0.12436207 0.27387622
000130 b5 df a4 be ea a2 f0 ba e1 40 a9 bb ce fa 8a bd
       -0.32201925 -0.0018359099 -0.005165205 -0.067861184
000140 a8 51 88 be db 0a 1c 3e 22 df 5c 3e b0 80 4c 3d
       -0.266248 0.15238516 0.21569493 0.049927413
000150 85 3a 88 bd 33 ba 10 3e 63 bd 1d 3e f2 c2 51 3e
       -0.06651787 0.1413353 0.15404277 0.20484522
000160 51 5c 05 3c d8 34 72 be 81 23 3f be bf 3c b2 bd
       0.008139686 -0.23652971 -0.18665887 -0.08702993
000170 4e ac e8 3d 07 94 fc bd a9 b5 8b be 56 94 48 3d
       0.113609895 -0.123329215 -0.27287033 0.04896959
000180 cc b5 71 be 81 10 ca 3d 94 09 7d be b9 60 07 3e
       -0.23604506 0.09866429 -0.24710685 0.1322049
000190 e4 b0 28 3e 02 5a 98 3d 1e e7 d4 bd 08 b2 26 bd
       0.16473728 0.07439043 -0.103956446 -0.040697128
0001a0 53 0a 49 be ad 90 7a bd 1f 1e b6 bc e9 77 95 3e
       -0.19632845 -0.06117313 -0.02223116 0.29193047
0001b0 8b 6f 3e bd 2f f5 d7 bd 88 78 b6 ba 92 27 0a be
       -0.046493094 -0.10544812 -0.0013921419 -0.13491657
0001c0 bc ca 63 bd 41 ed 33 be 5e d6 9a bd 82 a5 10 3e
       -0.055613264 -0.17570974 -0.075604185 0.14125636
0001d0 42 be 4b be 15 26 2b be f3 91 55 3b 66 90 24 be
       -0.19896796 -0.16713746 0.0032588213 -0.16070709
0001e0 b8 48 81 3e 24 b3 90 3d a7 85 68 bd a7 de 35 be
       0.25250793 0.07065418 -0.056768086 -0.17760716
0001f0 ba 4d 91 be 98 8b 83 3d b1 32 02 3c bb 2e 92 be
       -0.28379613 0.0642311 0.007946656 -0.28551278
000200 51 55 c4 bd 02 34 90 ba 31 bf 28 be aa fa 1f be
       -0.09586585 -0.0011001828 -0.16479184 -0.15622965
000210 92 88 07 be dd a4 a4 bd ba 0f db bc 53 d9 13 3e
       -0.13235691 -0.08039258 -0.026740897 0.14438371
000220 48 ce 3a 3e 77 5d fc 3b f1 17 67 3e 1e 58 b9 bd
       0.18242753 0.0077015716 0.22567727 -0.0905001
000230 8e 73 e0 bc 05 9d fa 3c a7 75 72 bd b4 82 5d 3e
       -0.02739885 0.03059245 -0.059194233 0.2163189
000240 b1 a2 0f 3e f6 4a 12 bc c0 9d 2c 3e e2 9f 0e bd
       0.14026906 -0.008929005 0.16857052 -0.034820445
000250 3e f7 b3 bd 25 27 b6 bd 23 d2 27 be 74 75 b3 3d
       -0.08787392 -0.08894185 -0.16388755 0.08762637
000260 52 ec e7 bc be 82 49 be f9 d2 a5 3e 81 2b 33 3e
       -0.028310928 -0.1967878 0.32387522 0.17497064
000270 14 7f 15 be 5d 7b 32 3e 13 64 8b 3d d7 73 01 3d
       -0.14599258 0.17429872 0.06806197 0.031604614
000280 2c 8d 8b bc ff 4d e1 bd 6e 36 47 bd b1 08 47 bc
       -0.01703509 -0.11001205 -0.048635893 -0.012148068
000290 e8 89 46 be 36 f1 45 3d 8d fb dd be e1 7e 0c 3e
       -0.19388545 0.04832574 -0.4335598 0.13720275
0002a0 a8 28 75 be 37 13 b7 be a7 19 c6 3b 5e 22 60 3d
       -0.2394129 -0.35756847 0.0060455385 0.054720275
0002b0 f3 95 85 3d 34 5c 97 bd 5e 70 05 bd 0a 1a a8 bc
       0.06522741 -0.07390633 -0.032577865 -0.020520229
0002c0 03 e9 8e bd b2 35 54 3e 12 d7 9a 3d 26 f4 33 bd
       -0.06978037 0.20723608 0.07560553 -0.04393401
0002d0 1b cd 15 3e dc 43 6a 3e 27 dc 62 3e 2a 57 37 be
       0.14629023 0.22877449 0.22154294 -0.17904344
0002e0 cf a2 4f bd 95 e1 a7 3d aa c5 7e bc 40 b1 2d 3e
       -0.050692376 0.08197323 -0.0155500565 0.16962147
0002f0 25 83 9b bd ef 47 65 3e 1f 21 54 bd 91 2f 58 be
       -0.07593373 0.22390722 -0.0517894 -0.21111895
000300 7f c6 3c bc d3 c3 00 bc 64 51 34 3d 7f 8d 7e 3d
       -0.0115219345 -0.007859188 0.044022933 0.06214666
000310 e2 7c 72 be 5c be 40 bd 7b 98 5e b8 c8 9e 9b 3c
       -0.23680452 -0.04705654 -5.3070933e-05 0.018996611
000320 03 cd 36 be b8 f8 da 3c 1a 49 e6 3d 01 dc d7 bd
       -0.17851643 0.026729926 0.11244412 -0.10540009
000330 6d d1 6c be c1 6c 49 ba d8 71 ed 3d b9 ed e0 bd
       -0.23126765 -0.0007683747 0.115939796 -0.10982842
000340 b7 1d a6 bc 6f 91 b1 bd 73 73 e7 be 15 48 4c bd
       -0.020277841 -0.086703174 -0.45205268 -0.04987343
000350 78 c2 87 bc fb 7b 1a be fa f7 52 bd 96 28 4a 3e
       -0.016572222 -0.15086357 -0.05150602 0.19742045
000360 ed 3e 8e bd 0a 51 18 3d 5d 74 27 be 01 34 44 be
       -0.06945596 0.03718666 -0.16352983 -0.19160463
000370 33 71 af bd 3f 46 42 bd 72 93 a4 be 7f 3c 1c 3e
       -0.08566513 -0.047430273 -0.32143742 0.15257452
000380 e8 b8 00 3e fa c3 18 be 08 ce b5 bd 54 88 79 be
       0.12570536 -0.14918509 -0.08877188 -0.24368411
000390 bd e5 06 be 47 1f 26 3c 91 fd 59 3e 96 5e 00 be
       -0.13173576 0.010139293 0.21288134 -0.12536082
0003a0 22 37 28 3e 90 f7 89 3c ea 79 e1 be 8f e8 7a 3d
       0.16427281 0.01684168 -0.44038326 0.06125694
0003b0 67 f4 06 3e e9 fe ed 3d a1 b1 76 be 6c b6 ec 3e
       0.1317917 0.11620886 -0.24091198 0.46232927
0003c0 92 b7 3b 3e c6 0a 11 be 37 79 23 3e e7 fe 24 be
       0.18331745 -0.14164266 0.15964209 -0.16112863
0003d0 05 c4 c7 3d 4d ef 5d be 0e cf dc 3d 94 db 99 bd
       0.09754185 -0.21673317 0.1078168 -0.07512584
0003e0 4b a0 a7 bd 61 56 dc 3d 0b c2 2e 3d bf 8e 86 3d
       -0.0818487 0.10758663 0.042665523 0.065701954
0003f0 c4 ae d0 bc 52 3f f4 bc 1a 1c bb be ce 93 b5 3c
       -0.02547396 -0.02981535 -0.36544877 0.022165205

network_body._body_endoder.seq_layers.2.bias f4 [128]
000000 c5 c0 ce 3b 89 80 c3 bc 85 b3 48 3c 25 47 93 3c
       0.006309601 -0.023865001 0.012249832 0.01797826
000010 0d 1b d5 bb c1 03 e6 3b d2 2e ef 3c 10 6c da 3b
       -0.006503469 0.0070194905 0.02919713 0.006665714
000020 8d 72 ad bb 6d c3 f2 bc 53 f1 0f bc 45 22 c0 3c
       -0.0052931965 -0.029634202 -0.0087855635 0.023453841
000030 c0 c4 0e 3c b4 22 30 3c 24 86 0f bd 86 36 79 3c
       0.008713901 0.010750461 -0.035040036 0.015210753
000040 c4 7b 10 bc ab 42 10 3a 8e be 95 3c 63 a3 91 bc
       -0.0088185705 0.00055030984 0.01827934 -0.017778104
000050 71 15 49 bc 10 77 23 bc 00 66 71 3c e7 31 1a 3a
       -0.012273178 -0.009977117 0.014733791 0.000588207
000060 b8 e8 5c bc 49 4e f3 bc 70 ef 95 3c 15 08 66 bc
       -0.013483219 -0.029700415 0.01830265 -0.014040013
000070 ba 4e 91 3c c1 55 61 bb 8f ca 04 bc 98 bd d2 bc
       0.017737735 -0.0034383389 -0.008104934 -0.025725171
000080 f5 6b da 3c 15 10 db 3c 8c 8e 21 bc 44 f0 37 3c
       0.026662806 0.026741067 -0.009860646 0.011226717
000090 56 ea 25 3c 4b fd 5a 3c e7 02 bf bb fa 06 4a 3a
       0.010126671 0.013366054 -0.0058292034 0.0007706728
0000a0 86 0a 18 3c 08 f8 06 bc 23 72 e4 bb 5f 5a 7a 3c
       0.009279853 -0.008237846 -0.006971614 0.015280335
0000b0 79 9d 3a ba 06 db 91 bb e4 16 6c 3b c4 3c 65 bc
       -0.0007118802 -0.0044511585 0.0036024386 -0.013991538
0000c0 fd f8 a6 bc e3 5f a3 3c 6c df f2 bc 37 77 7a bc
       -0.020382399 0.019943183 -0.029647551 -0.015287212
0000d0 cd c9 89 bc dd 79 b7 3c ab c7 3c 3c ae 20 3e 3b
       -0.016819859 0.022396976 0.011522214 0.0029011178
0000e0 68 10 04 3a a9 ef 85 3c f0 65 ed 3b 99 18 9d bc
       0.0005037845 0.01634963 0.007244818 -0.019176768
0000f0 4f 8a 8d 3c 4b c9 40 bc e6 da fb 3b 80 89 1f 3b
       0.017277865 -0.011766742 0.007686007 0.002434343
000100 76 43 30 3c fd 64 d0 bb 00 63 81 bb cb d8 45 3b
       0.010758271 -0.006359695 -0.0039485693 0.0030189033
000110 b6 8f b5 bc 01 56 ee bb 51 8b 67 bc 26 fc dd 3c
       -0.022163253 -0.007273436 -0.014132337 0.027097773
000120 e6 5d 39 ba 4f d4 ec bb 80 6d 57 bb cf 0a 2c bc
       -0.0007071182 -0.0072274576 -0.0032871664 -0.010500624
000130 9f 98 2e bc 1f 07 bb bc 0c 21 fc bc c0 da 8e bc
       -0.010656505 -0.022830544 -0.030777477 -0.017438293
000140 4d 23 20 ba 3c 48 41 bc bd 69 3b 3c 84 c4 c5 3c
       -0.0006108776 -0.011797007 0.011438784 0.024141558
000150 66 ef 7e 3c a1 1d 52 3c 3f 90 5d bc 61 1c c4 bb
       0.015560007 0.012824447 -0.0135231605 -0.0059848283
000160 db f0 82 bb 47 6d 6b bc 23 1e f6 3c 68 78 64 bc
       -0.0039959974 -0.0143693155 0.030043667 -0.013944723
000170 dd 82 9e 3c e0 a7 d3 bb c1 38 f0 bb 94 b3 d3 bc
       0.01934951 -0.0064592212 -0.0073309843 -0.025842465
000180 be e7 72 3c 11 f1 b5 ba b8 cf 07 bb 25 ef a2 bc
       0.014825759 -0.0013881047 -0.0020723175 -0.019889424
000190 96 8f 4c bc 09 3a 8d 3b 78 6e d1 bc 60 9a 82 bc
       -0.012485405 0.004309897 -0.02556537 -0.015942752
0001a0 c9 8a 3b bb 9b 53 84 bc bf 3f 1d bc 8b 88 3d bc
       -0.0028616658 -0.016153147 -0.009597718 -0.011568199
0001b0 4e 77 57 bc 05 4b ef bb 04 1d b4 3b df 2d 56 bc
       -0.013151003 -0.007302644 0.005496623 -0.01307246
0001c0 20 62 83 bc 83 5c 9b 3c 43 85 7a bb 29 9f d9 bb
       -0.016038 0.018965011 -0.0038226403 -0.006641288
0001d0 3c 7b b8 3c 7d 7b f5 3c ad e3 f2 bc f9 48 ff 3a
       0.0225197 0.02996611 -0.02964958 0.0019476704
0001e0 be 5b 52 bb 4d 40 c1 bc 5b 16 d8 3b 05 35 f1 bb
       -0.003209814 -0.023590231 0.006594462 -0.0073610567
0001f0 58 88 3e 3c 11 97 09 3b 6a 56 8c bc 6c bc c6 3b
       0.011629187 0.0020994584 -0.01713105 0.006064942

network_body._body_endoder.seq_layers.2.weight f4 [128, 128]
000000 2a c8 0b 3e 9e 92 7b 3d ff 4b 8f 3d f0 05 2e be
       0.13650575 0.061419122 0.06996917 -0.16994452
000010 5c d9 7a 3c 18 35 4e 3d 2a 57 e0 3d 63 77 13 3e
       0.015310612 0.050343603 0.10954125 0.14401011
000020 e1 91 5c bc 90 7d 51 3e 8e e1 3a bd 2d 82 97 3c
       -0.013462515 0.20458055 -0.045625262 0.01849469
000030 da 41 7b 3d 6f c5 f3 3d ea c4 bc bd 7e 02 a5 bd
       0.061342098 0.11902892 -0.09217246 -0.08057116
000040 86 2b 32 be 1b fd 29 bd d6 28 8c bd 70 e6 1e 3d
       -0.17399415 -0.041501146 -0.06843726 0.03879398
000050 ca b6 1b 3e b8 78 1a bd 65 9a ac bd 50 b5 3d bc
       0.15206447 -0.037712783 -0.08427886 -0.011578873
000060 ce 33 eb bc fc 8b 99 3c a9 96 df bd 99 c3 af bd
       -0.028711226 0.018743508 -0.10917408 -0.08582229
000070 fd 7e 34 be 32 79 3e bb ba 98 d4 3d 49 fe 0c 3d
       -0.17626567 -0.0029063937 0.10380693 0.034422193
000080 36 f9 a8 3d f8 48 5d 3d c1 89 ce bd 68 72 2b bd
       0.08250658 0.054024667 -0.10084868 -0.041857153
000090 a5 f0 1d bd 30 f8 95 3d 59 e8 a6 3d 19 02 33 be
       -0.038559575 0.07322729 0.081497855 -0.17481269
0000a0 9e 32 04 be 17 dc f6 3d 50 da 04 be 2f bb bc 3b
       -0.12909934 0.120536976 -0.12973905 0.0057596187
0000b0 ab 06 1b 3e b6 8c d1 3d 50 d0 ac bd 91 88 ed 3d
       0.15139262 0.102319166 -0.0843817 0.115983136
0000c0 9d e3 84 be b1 0f f6 3d ab ef 19 3e 82 93 9c bc
       -0.25954905 0.12014712 0.15032832 -0.019113306
0000d0 d4 ba b8 3d f7 e5 17 3d 7c 87 5a bd 86 d8 3d bc
       0.0902001 0.037084546 -0.053351864 -0.011587268
0000e0 d8 13 c7 bc a2 1d 24 be d1 c9 57 3c 5d 5d 02 be
       -0.024301454 -0.16026929 0.013170675 -0.12730928
0000f0 07 ec fb bd b8 fe ec bd ad e9 b3 bb 39 6a 39 3d
       -0.12300878 -0.11572021 -0.005490503 0.045267317
000100 27 e4 cd 3d 51 65 97 bd c3 43 c8 3c e4 d2 d8 bd
       0.10053282 -0.073923714 0.024446374 -0.10587099
000110 9a c6 8f 3c 44 44 09 be f4 cb 61 3e e3 fb b7 3d
       0.017550755 -0.13404948 0.22050458 0.089835905
000120 60 19 be bd 87 78 a8 3d cc 3b 52 bc be 84 d5 bd
       -0.09282184 0.08226114 -0.0128316395 -0.10425709
000130 b8 5c 07 3d 5a 57 25 3d 36 b8 89 3d ea 69 9d 3d
       0.033047408 0.040366508 0.067245886 0.07686217
000140 9c 0a 8a bd 64 29 c6 3d 75 de 8b 3d 74 60 2c 3e
       -0.06740305 0.096758634 0.0682954 0.16833669
000150 88 6e 16 3d 70 7f ce 3c fe 14 7d 3d 25 bc 89 bd
       0.036726505 0.025207251 0.061787598 -0.06725339
000160 fc f7 16 3b 4f 7d 11 3e 81 09 cb bd 00 a2 54 bd
       0.0023035994 0.14207958 -0.09913922 -0.051912308
000170 bc 7b d9 3c 90 b7 10 3e d6 85 f3 3d 9a 1a 0f bd
       0.026548259 0.14132524 0.118907616 -0.03493748
000180 c8 7b 06 3e a2 49 a5 3d fd 57 3f 3d aa e6 90 bd
       0.13133156 0.08070685 0.04671477 -0.07075246
000190 e6 32 09 bd 1c 38 b8 3d 39 79 01 3e 56 58 3a bc
       -0.033495806 0.08995077 0.12643899 -0.0113736
0001a0 63 8c 85 3d 77 60 b7 bd 90 b2 4d 3d 37 e1 00 bd
       0.06520917 -0.08953946 0.05021912 -0.03146478
0001b0 d7 c8 0d 3d 04 32 16 bc 29 3a a6 bd 59 95 c5 bc
       0.034615364 -0.009167198 -0.08116562 -0.024119066
0001c0 d6 09 30 3d d6 6f dd 3d f2 35 63 3e 71 c6 2b bc
       0.04297813 0.10812347 0.22188547 -0.010484324
0001d0 04 cf 93 3d 1b eb 61 3c 6c 4e dd 3b 76 2a a1 bc
       0.072172195 0.013788964 0.0067537334 -0.019673567
0001e0 1f a4 6e 3d 9b b6 2f bc c6 6a 15 be 51 8c 28 bc
       0.058261987 -0.010724689 -0.14591512 -0.01028736
0001f0 9f 53 49 3d 53 06 c9 3d 7f fe 18 bd 0b d1 17 3e
       0.049152013 0.098156594 -0.03735208 0.14825837
000200 6e d5 68 bb 66 3c d4 3d 61 cf e9 bd 11 11 6b 3d
       -0.0035527605 0.103630826 -0.114165075 0.057389323
000210 8b 72 54 bd 95 b9 32 be 79 2c 19 3c 31 43 5f bd
       -0.05186705 -0.17453606 0.009348982 -0.054507438
000220 30 e9 94 bd 06 ca c9 3d 0f cc 1e be fa 12 ec 3b
       -0.072710395 0.09852986 -0.1550753 0.0072044106
000230 38 c6 cf bd 3b c5 f6 bc 2d 37 80 3c c4 0f db 3c
       -0.10145229 -0.030123344 0.01565131 0.026740916
000240 d2 60 0b bc 45 84 00 3e 3f 17 3b be 71 53 f3 3d
       -0.0085069705 0.12550457 -0.18270586 0.118811496
000250 db 6d 68 3d 94 29 33 be 52 70 18 3c 1c 24 1e be
       0.05674539 -0.1749633 0.009304123 -0.15443462
000260 04 bb 8e 3c 1d f1 4a be 51 50 1a be 92 ec 31 bd
       0.01742316 -0.1981854 -0.15069701 -0.0434385
000270 1e 5d a8 3c c2 a5 ac bd ce 5b 9b 3d 46 81 1c bd
       0.020552214 -0.08430053 0.0758587 -0.038209222
000280 33 56 cb 3d 88 25 58 be d8 89 10 3e b6 a3 b2 3d
       0.099285506 -0.21108067 0.14115083 0.08722632
000290 67 3f 29 3e 09 1b 9b bd a2 2c 76 3d b9 77 ac 3c
       0.16528092 -0.07573516 0.06010116 0.021053182
0002a0 1a 2d ea bd 15 a5 9a bd a9 f0 91 bd 70 23 3f 3d
       -0.11434384 -0.07551018 -0.071259804 0.046664655
0002b0 d4 06 7c 3d 86 02 a9 3d 79 a2 0f bd 87 f6 86 3d
       0.06152995 0.082524344 -0.035067055 0.0658999
0002c0 80 a5 60 bd 59 fa 8e 3d 8d b4 0e be 8f 01 7b 3d
       -0.054845333 0.06981344 -0.13936062 0.061280783
0002d0 09 77 ca 3d e0 4f d6 bb b7 4f a1 3c 0c 41 71 bc
       0.098859854 -0.0065402836 0.019691331 -0.014724981
0002e0 ad f0 0c 3d 06 b0 c8 bd 4d 81 fd 3c 3c 1f 0e 3c
       0.034409214 -0.09799199 0.030945444 0.008674439
0002f0 d9 41 97 3d 75 f7 d6 bd 9f 42 a2 bc fc 63 d4 bd
       0.07385606 -0.104964174 -0.019807158 -0.10370633
000300 17 09 3e 3d 8b fc 94 3c 47 68 06 bc 22 c8 cd bd
       0.046395388 0.018186828 -0.008203573 -0.10047938
000310 42 81 cc 3d 63 e6 33 bd ec e5 33 be 32 dd dd bd
       0.099855915 -0.043920886 -0.17568177 -0.10833205
000320 1a b1 fc 3d 24 9b 05 3d 3d 71 7c be b2 4e db bc
       0.12338467 0.032618657 -0.24652572 -0.026770923
000330 1a 7b 9b 3c c0 6e 74 3d 91 47 73 be 7b 30 b4 bc
       0.018979598 0.059675932 -0.23757769 -0.021995774
000340 ea d1 40 3d 00 fc d7 bd 4b 14 80 bd 6a c9 c9 3d
       0.04707519 -0.10546112 -0.062538706 0.0985287
000350 a5 19 d1 bd 84 11 64 bd e9 2c 64 bd 43 30 1f be
       -0.102099694 -0.055680767 -0.055706892 -0.15545754
000360 4a a8 c2 bd be 9e a9 3d a4 b1 61 bd be bd 9a bd
       -0.09504755 0.08282231 -0.055101052 -0.07555722
000370 b3 8a 81 bd 99 1b 5f 3d c6 b3 51 bd 26 95 9b 3c
       -0.06325283 0.05446968 -0.051196836 0.018992018
000380 a0 d8 5a bd 32 11 93 bc bb 0c 1c 3d bf b0 c0 bc
       -0.053429246 -0.017952535 0.03809808 -0.02352178
000390 9e a9 86 bd ae 0f cb bc 26 b1 5c be 6d ce 21 3e
       -0.06575321 -0.02478775 -0.21551952 0.15801401
0003a0 e7 0f de 3d 59 5a 87 bd f9 d4 5b 3c 97 61 e7 bd
       0.10842877 -0.06609029 0.013417476 -0.11297911
0003b0 60 05 86 bd cf 44 4c bc 3b 57 fa bd 3b d5 d1 3d
       -0.06543994 -0.012467577 -0.12223669 0.102457486
0003c0 aa 8a 01 3e df eb 0b bd 23 4e a0 bd 86 71 94 3d
       0.12650552 -0.03416049 -0.078274034 0.072482154
0003d0 00 cb 82 bc b5 1a 50 3d 82 e9 fc bd cd 5a cb bd
       -0.015965939 0.05080672 -0.123492256 -0.09929428
0003e0 bb a5 2c 3c 20 37 b5 3c 57 aa 45 3d e2 eb 92 3d
       0.01053756 0.022121012 0.04825815 0.07173897
0003f0 d5 7d 99 bc ce 58 86 3c fb a5 d7 bc 22 48 31 3c
       -0.01873676 0.016399767 -0.026324263 0.01082042
