VirtualAquarium/results/VirtualAquariumNew/VirtualAquarium/VirtualAquarium-4999979.pt (torch, 451487 bytes, 36 tensors)

network_body._body_endoder.seq_layers.0.weight f4 [128, 9]
0	0xbd0b1a89	-0.033960853
1	0x3d5a1133	0.05323906
2	0x3ee3cb11	0.44490865
3	0x3e5f7e6c	0.2182557
4	0x3c397007	0.011318213
5	0x3d18e761	0.037330035
6	0x3f0fcc03	0.5617067
7	0xbe3a6b6e	-0.18205044
8	0xbec30e0a	-0.38096648
9	0x3d687e4e	0.05676108
10	0xbe730ca9	-0.23735298
11	0x3dddffdf	0.10839819
12	0xbde2aa2f	-0.11067616
13	0x3dcaafee	0.09896837
14	0xbcd5626c	-0.026047908
15	0xbdeda004	-0.11602786
16	0xbea26462	-0.3171721
17	0x3d8373be	0.064185604
18	0x3d7fc6ad	0.06244533
19	0x3dfce4bb	0.123483144
20	0x3f1f8440	0.6231117
21	0x3dc48ad8	0.09596795
22	0xbe33354a	-0.17500797
23	0x3c97a1ae	0.018509712
24	0x3e87c12a	0.2651456
25	0x3e5e0a8b	0.2168371
26	0xbd63a9cd	-0.055581857
27	0xbe5d7ef4	-0.2163046
28	0x3f08e8f2	0.53480446
29	0xbe4fdf1e	-0.20299956
30	0x3e749a2a	0.23886934
31	0xbd86707d	-0.06564424
32	0x3eb04862	0.34430224
33	0xbe88719f	-0.26649186
34	0x3e81fc3a	0.25387746
35	0x3d108653	0.03528435
36	0xbdfa7142	-0.122286335
37	0xbcde6e54	-0.027152218
38	0x3ac96689	0.0015365641
39	0xbf4e3bd6	-0.8056005
40	0x3ebb8cae	0.36630768
41	0x3f16d422	0.5891744
42	0xbf187d18	-0.5956588
43	0x3ca45444	0.020059712
44	0xbec2d9fc	-0.38056934
45	0xbe8bd76d	-0.27312794
46	0xbe974ae1	-0.29549316
47	0xbeae7e87	-0.34080908
48	0xbdf546d5	-0.11976401
49	0x3f297a84	0.6620257
50	0x3d272afe	0.040812485
51	0xbeaf99c7	-0.3429701
52	0xbf19a5a6	-0.60018384
53	0xbd87ad62	-0.06624867
54	0x3f073fb6	0.5283159
55	0xbd1d95c4	-0.038472906
56	0xbebf1695	-0.37321916
57	0xbed3bf5a	-0.41356927
58	0x3dab5c2c	0.0836719
59	0xbeaf0dd4	-0.34190238
60	0xbe8fddbf	-0.28098866
61	0x3dfbdec8	0.122983515
62	0xbed4c7aa	-0.41558582
63	0x3dc5eed8	0.096646965
64	0xbe161c2b	-0.14659183
65	0x3de73545	0.11289457
66	0x3e48fb0a	0.19627014
67	0x3bb1eed1	0.0054300805
68	0xbe8874ae	-0.2665152
69	0x3f0aad02	0.5417024
70	0xbf5d8759	-0.8653465
71	0xbe1b7923	-0.15182929
72	0xbddbde6d	-0.10735784
73	0x3c6d8a2a	0.014498273
74	0xbe16daf6	-0.14731964
75	0xbe527ac7	-0.20554648
76	0xbc48ffa6	-0.012267983
77	0xbf12efa3	-0.57396907
78	0xbd40ae73	-0.047041368
79	0xbeef931b	-0.4679192
80	0x3c994b9f	0.018712817
81	0xbe3a768a	-0.18209282
82	0x3d518b2a	0.051158108
83	0x3eb24657	0.3481929
84	0xbf1c1515	-0.6096967
85	0xbd610015	-0.05493172
86	0xbe8ea046	-0.27856654
87	0x3eb91bcb	0.36154017
88	0x3dd8d989	0.105883665
89	0xbc8d3a74	-0.017239787
90	0xbedb100e	-0.42785686
91	0x3ee2c817	0.4429328
92	0xbeea29e6	-0.4573509
93	0xbf47fd35	-0.7812074
94	0x3ca791e4	0.020455308
95	0xbea896b1	-0.32927468
96	0xbe038d69	-0.12846912
97	0x3e90f727	0.28313562
98	0xbe542e40	-0.20720768
99	0xbe38a40d	-0.1803133
100	0x3e75a8a3	0.23990111
101	0xbdebe407	-0.11518102
102	0x3f208350	0.62700367
103	0xbe75a70c	-0.23989505
104	0x3ed75402	0.4205628
105	0x3eb0038c	0.34377706
106	0x3e950fc3	0.29113588
107	0xbf3fa8f5	-0.7486718
108	0x3e1707f7	0.14749132
109	0x3e8dec25	0.27719226
110	0xbdd8bfbe	-0.10583447
111	0xbeab54b8	-0.33463073
112	0x3edde6e9	0.43340233
113	0x3e6b74ee	0.22993824
114	0xbe98e806	-0.2986452
115	0x3eca0107	0.3945391
116	0xbf0ebabc	-0.55753684
117	0x3f083a6d	0.5321415
118	0x3ea05406	0.31314105
119	0xbbcf6bbb	-0.006329981
120	0xbe3fbb0e	-0.187237
121	0xbd7720a1	-0.06033385
122	0x3d91beab	0.07116445
123	0xbcf2b712	-0.02962831
124	0x3effbf7e	0.49950784
125	0x3de224f0	0.110422015
126	0xbe31835a	-0.17335263
127	0x3c612f91	0.013744251
128	0xbefa94fc	-0.4894179
129	0xbf27f76c	-0.6561191
130	0xbe7e5e7d	-0.24840732
131	0xbe64eaf8	-0.22355258
132	0xbe139a03	-0.1441422
133	0xbe84bad4	-0.2592379
134	0xbdef97fa	-0.11698909
135	0xbe9a90e2	-0.30188662
136	0xbe4efd02	-0.20213702
137	0x3d7d34aa	0.061817802
138	0x3f3c9461	0.7366391
139	0xbdec5b37	-0.11540835
140	0xbd00f7ab	-0.031486195
141	0x3c807a01	0.015683176
142	0x3e865ace	0.26241153
143	0x3d933db2	0.07189502
144	0xbcd05a67	-0.025433732
145	0xbe6e1d39	-0.23253335
146	0xbdeaa6eb	-0.11457618
147	0xbeb2487d	-0.3482093
148	0x3cf21e64	0.029555507
149	0x3b95cd81	0.004571617
150	0x3d70b313	0.05876453
151	0xbe548ac1	-0.20756055
152	0x3e31636b	0.17323081
153	0x3d9434bd	0.072366215
154	0x3eebfb8c	0.46090353
155	0x3ec03af4	0.37544978
156	0xbdbb6a58	-0.09151143
157	0xbeead808	-0.45867944
158	0xbec6da70	-0.3883853
159	0x3f0b39b7	0.5438494
160	0xbda71b4c	-0.08159503
161	0x3e960413	0.29299983
162	0x3cb12deb	0.02162834
163	0xbe3d5bb9	-0.1849202
164	0xbab453db	-0.0013757901
165	0x3c93a561	0.018023195
166	0x3c9e7303	0.019341951
167	0x3d84d3cb	0.06485709
168	0xbd99c945	-0.07509092
169	0xbf71abc1	-0.944027
170	0xbd12e7e7	-0.03586569
171	0x3de052ea	0.109533146
172	0xbe96fdc7	-0.29490492
173	0x3d30ad32	0.043133922
174	0xbeadc530	-0.33939505
175	0x3e87003e	0.26367372
176	0x3e4c7504	0.19966513
177	0x3e8b27d2	0.27178818
178	0x3d839d4a	0.06426485
179	0xbe35ff30	-0.17773128
180	0x3dfabdd6	0.122432396
181	0xbf141640	-0.5784645
182	0xbf37a5a4	-0.7173712
183	0x3e8b1a8b	0.27168688
184	0xbdf00c0d	-0.117210485
185	0x3d58fc57	0.052975025
186	0xbd1491d3	-0.03627188
187	0xbedd8552	-0.43265778
188	0xbe2331f2	-0.15937021
189	0xbded9f10	-0.116026044
190	0xbd715c20	-0.058925748
191	0xbe1aa3de	-0.15101573
192	0xbf2022a9	-0.6255289
193	0x3f6d0a24	0.925936
194	0x3eef9588	0.4679377
195	0x3d269d0e	0.040677123
196	0xbe8ad9c5	-0.2711927
197	0xbf44538b	-0.76689976
198	0x3f3b1709	0.73082024
199	0x3f3d5c9d	0.7396944
200	0xbd5315b8	-0.051534384
201	0xbf119cf5	-0.5688012
202	0xbea218b8	-0.31659484
203	0x3de2b068	0.11068803
204	0xbeacded0	-0.33763742
205	0xbee7a390	-0.45241976
206	0xbf2ef764	-0.6834624
207	0x3cf916e4	0.030406423
208	0xbe9f8a06	-0.3115999
209	0x3eafcf20	0.3433771
210	0x3de7590a	0.1129628
211	0x3dce00ff	0.10058784
212	0x3e581e63	0.21105342
213	0x3e63a5fd	0.22231288
214	0xbeb94bf3	-0.36190757
215	0xbe93fbf7	-0.2890317
216	0xbe2d2534	-0.16908723
217	0x3df1357a	0.11777778
218	0x3e3f1487	0.18660174
219	0x3c9a9c3c	0.018873326
220	0x3e7ba093	0.24572973
221	0xbd22958c	-0.0396934
222	0xbdcc019f	-0.09961247
223	0x3e84cfbf	0.25939748
224	0xbf1b7c2e	-0.6073636
225	0xbe922696	-0.28545064
226	0x3e965ff1	0.29370072
227	0xbe3f3411	-0.18672206
228	0xbd96dcf0	-0.07366359
229	0xbd8679b0	-0.06566179
230	0xbf05ff4d	-0.52342683
231	0xbe73096d	-0.23734064
232	0xbef6b93f	-0.48188207
233	0x3dc0bcf5	0.09411041
234	0xbe7b8aa4	-0.24564606
235	0xbeb05668	-0.34440923
236	0xbefd8ffa	-0.49523908
237	0xbe27e2db	-0.16395132
238	0xbe9b00c2	-0.30274016
239	0x3d98b27d	0.07455919
240	0x3ec1e0a0	0.37866688
241	0xbdd20279	-0.10254378
242	0xbf32b467	-0.6980652
243	0x3e875917	0.26435158
244	0x3e95ae1c	0.29234397
245	0xbe8b57b8	-0.27215362
246	0x3e8d4a15	0.27595583
247	0x3e0ff9b2	0.14060095
248	0x3f0d7c85	0.55268127
249	0x3efa9e28	0.4894879
250	0x3e254acd	0.16141815
251	0x3ce7fdaa	0.028319199
252	0x3d77bcc5	0.06048276
253	0x3eed6154	0.46363318
254	0x3d9f40b0	0.0777601
255	0x3ea63fb2	0.3247047

network_body._body_endoder.seq_layers.0.bias f4 [128]
0	0x3c893bbd	0.016752118
1	0xbe1c9d5c	-0.15294403
2	0xbd6670db	-0.05625997
3	0x3dba8414	0.09107223
4	0xbe565b12	-0.20933178
5	0xbdf90e21	-0.12160898
6	0xbee259ed	-0.44209233
7	0xbebf4947	-0.37360594
8	0xbe19b09d	-0.15008779
9	0x3d5f70d0	0.054550946
10	0xbd858517	-0.065195255
11	0x3decf17d	0.11569498
12	0x3d727951	0.059197728
13	0x3eee84a1	0.46585563
14	0xbeec9a25	-0.46211353
15	0x3dbda3b1	0.09259737
16	0xbd5e1aef	-0.054224905
17	0x3b7745d7	0.0037730837
18	0xbebb1ef3	-0.3654705
19	0xbdd50e6e	-0.10403143
20	0xbd5d3649	-0.05400685
21	0xbe85f620	-0.2616434
22	0xbe5ea68c	-0.2174322
23	0x3a404fd9	0.0007336117
24	0x3d4881f3	0.048952054
25	0xbe07c1fc	-0.13257593
26	0xbe911d94	-0.2834288
27	0x3da352c4	0.07974771
28	0x3e683027	0.22674619
29	0xbe62d937	-0.22153173
30	0xbe5b6073	-0.21423511
31	0xbe15c60b	-0.14626329
32	0xbd9e289c	-0.077225894
33	0xbba3cf5e	-0.0049990853
34	0xbed34c78	-0.4126928
35	0x3dfc3ffd	0.12316892
36	0xbf2059eb	-0.62637204
37	0xbe30299c	-0.17203373
38	0xbd2932e3	-0.041308295
39	0xbd94a2ba	-0.072576
40	0xbecb012a	-0.39649326
41	0x3e05b9e5	0.13059194
42	0xbea2f992	-0.31831032
43	0xbe4ab2d0	-0.19794774
44	0xbe0d29ee	-0.13785526
45	0xbdbfa734	-0.09358063
46	0xbe98b6e7	-0.29827043
47	0xbc042459	-0.008065307
48	0xbe94cf12	-0.29064232
49	0xbe2fe356	-0.17176566
50	0xbf048236	-0.51761186
51	0xbcfcf737	-0.0308796
52	0xbe8800b9	-0.2656305
53	0xbe805874	-0.25067484
54	0xbe0d665b	-0.13808577
55	0xbd555cba	-0.052090384
56	0xbd64d155	-0.055863697
57	0xbd86bd62	-0.06579091
58	0xbe0983d3	-0.13429193
59	0xbe169295	-0.14704354
60	0xbebfc2f6	-0.3745343
61	0xbe0d4734	-0.13796693
62	0xbd679ec8	-0.05654791
63	0xbdd31942	-0.10307552
64	0xbed38d1e	-0.413186
65	0xbdb73092	-0.08944811
66	0xbe61219b	-0.21985476
67	0x3ea36258	0.31910968
68	0xbd8b7872	-0.068100825
69	0x3db27daa	0.08715375
70	0xbe3d9686	-0.18514451
71	0xbe94502a	-0.2896741
72	0xbea85854	-0.3287989
73	0xbdff9552	-0.124796525
74	0xbe8490b2	-0.25891644
75	0xbe38e63c	-0.18056577
76	0xbdda4f63	-0.10659673
77	0xbe29314b	-0.1652271
78	0xbe80f1fc	-0.2518462
79	0xbdbea5de	-0.093089804
80	0xbddfcaf4	-0.10927382
81	0x3ea426d5	0.32060876
82	0x3e5c91ba	0.21539965
83	0xbe254236	-0.16138539
84	0x3cba4a48	0.022740498
85	0xbe12d491	-0.143389
86	0xbcf94783	-0.030429607
87	0xbe54c122	-0.207768
88	0xbdda4050	-0.10656798
89	0xbd0f18d0	-0.034935772
90	0xbcde1147	-0.027107848
91	0xbe0b3142	-0.13593009
92	0xbe99a87f	-0.30011365
93	0xbdf61cb1	-0.12017191
94	0xbeaf7969	-0.34272316
95	0xbe9b5104	-0.30335248
96	0xbe860dfd	-0.26182547
97	0xbe9b3aba	-0.30318242
98	0xbe37c484	-0.17946059
99	0xbe0ffd2a	-0.14061418
100	0x3d454447	0.048160817
101	0xbeffb5b9	-0.4994333
102	0xbe422cbb	-0.18962376
103	0xbdfaf166	-0.12253074
104	0xbe3db97a	-0.18527785
105	0xbe060e80	-0.13091469
106	0xbd8fed35	-0.070276655
107	0x3d81639b	0.06317826
108	0xbea3814f	-0.31934592
109	0xbdcb93ba	-0.09940286
110	0x3db33756	0.08750789
111	0xbe1193f5	-0.14216597
112	0xbe1f468f	-0.1555426
113	0x3cbfb633	0.023402309
114	0xbe960344	-0.29299366
115	0x3e83e19f	0.25758073
116	0xbeb080b2	-0.34473187
117	0xbe367e0f	-0.17821525
118	0xbe0edd38	-0.13951576
119	0xbea1ad42	-0.31577498
120	0xbdbaaf18	-0.09115428
121	0xbdac93d6	-0.08426635
122	0x3cf3cab2	0.029759739
123	0xbedb06e0	-0.42778683
124	0xbd65ca9f	-0.056101438
125	0xbdc3aea7	-0.09554797
126	0xbe87d504	-0.26529706
127	0xbe29d295	-0.16584237

network_body._body_endoder.seq_layers.2.weight f4 [128, 128]
0	0xbe0d6f82	-0.13812068
1	0x3d09abfb	0.03361128
2	0xbe97295e	-0.29523748
3	0xbe22d5e1	-0.15901901
4	0x3cbfb733	0.023402786
5	0xbe492444	-0.1964274
6	0xbcf9a91a	-0.030476142
7	0xbe38586a	-0.18002477
8	0xbe0adaf0	-0.1356008
9	0xbe6dd781	-0.2322674
10	0x3df82b65	0.12117652
11	0xbe6f7c29	-0.23387207
12	0xbc2a7d5f	-0.010405867
13	0xbe3b3b19	-0.18284263
14	0x3d831346	0.064001605
15	0xbedaebf0	-0.4275813
16	0x3e66a429	0.2252356
17	0xbe0faa04	-0.140297
18	0xbe62337f	-0.22089957
19	0xbe28e2ed	-0.16492815
20	0x3d989199	0.074496455
21	0x3ca33257	0.019921465
22	0xbe395a8c	-0.18100947
23	0xbd4fde2a	-0.05074898
24	0xbddb8ba8	-0.10719997
25	0xbdb6ff11	-0.08935369
26	0xbd6c14de	-0.057637088
27	0xbe05680d	-0.13027973
28	0xbe9ca30b	-0.30593142
29	0xbdd10d5e	-0.10207628
30	0xbe3f8bce	-0.18705675
31	0xbe6c7afa	-0.23093787
32	0x3dc9b133	0.09848251
33	0x3d4b0eff	0.04957485
34	0xbe471f13	-0.19445448
35	0x3c49a829	0.012308159
36	0xbc090dea	-0.008365134
37	0xbe830767	-0.25591585
38	0xbe4a0d3d	-0.19731613
39	0xbe0e076b	-0.13870017
40	0xbd8b5a1a	-0.06804295
41	0xbd50a8c6	-0.050942205
42	0x3e8f2c36	0.27963418
43	0xbd4b34ee	-0.049611025
44	0xbd9ac9d6	-0.075580284
45	0xbd70c465	-0.058781046
46	0x3d71bdd9	0.059018943
47	0xbd91bd69	-0.07116205
48	0x3e1f0264	0.15528256
49	0xbdf5f85e	-0.12010263
50	0x3de062ef	0.1095637
51	0xbe3032a2	-0.17206815
52	0xbcdfd56f	-0.027323453
53	0xbb4b7421	-0.003104456
54	0x3e4ba628	0.19887602
55	0x3e1a2eb7	0.15056883
56	0x3cd3ae49	0.025839942
57	0x3de2fbde	0.11083196
58	0xbe9157ab	-0.28387198
59	0xbe59be07	-0.21263896
60	0x3d876ad2	0.06612171
61	0x3e221caa	0.15831247
62	0xbead3266	-0.33827513
63	0xbc762669	-0.015023806
64	0x3dace465	0.08442
65	0xbd52adff	-0.051435467
66	0xbe94b41d	-0.29043666
67	0xbe91d2c1	-0.28481105
68	0xbebd57e5	-0.3698112
69	0x3c3ddc76	0.0115882065
70	0xbe7d9748	-0.2476474
71	0xbe09f391	-0.1347182
72	0x3d08163a	0.033224322
73	0xbd5f2d06	-0.054486297
74	0xbdf2d711	-0.11857427
75	0xbe86e07c	-0.26343143
76	0xbd3f5788	-0.046714336
77	0x3d9a058a	0.07520588
78	0xbde4ee7d	-0.111783005
79	0x3bb4b8f8	0.005515214
80	0x3c129a87	0.008947975
81	0xbeac37ee	-0.3363642
82	0xbebf1d38	-0.3732698
83	0xbd77421c	-0.06036578
84	0xbe4d161e	-0.20027968
85	0x3d0f3bce	0.034969144
86	0x3e561e4d	0.20909996
87	0x3cbbc0b4	0.022919036
88	0x3d344a53	0.044016194
89	0xbe9d9896	-0.30780476
90	0x3e825444	0.25454915
91	0x3d72158e	0.059102587
92	0x3e113d20	0.14183474
93	0xbe73b0a7	-0.23797856
94	0xbd641bfe	-0.055690758
95	0xbcb6ab70	-0.022298545
96	0x3d965699	0.07340736
97	0xbe2e0b48	-0.16996491
98	0xbe9b2e83	-0.30308923
99	0xbea8c8d2	-0.32965714
100	0xbe452136	-0.1925095
101	0xbe222c43	-0.15837197
102	0x3e428228	0.18994963
103	0xbe4b22f6	-0.19837555
104	0xbdb808dd	-0.089860655
105	0xbe82fb0e	-0.25582165
106	0x3db94401	0.09046174
107	0xbeb2753f	-0.34855077
108	0xbd9ed126	-0.07754736
109	0xbcae8d93	-0.021307742
110	0xbe775804	-0.24154669
111	0xbdae6de6	-0.08517055
112	0xbcd1fa0e	-0.02563193
113	0xbdd32904	-0.103105575
114	0xbe135a61	-0.14389946
115	0xbe54bfd1	-0.20776297
116	0x3e38cb16	0.18046221
117	0xbe86cd8c	-0.26328695
118	0x3e107f2c	0.14111012
119	0xbd34d2a2	-0.044146188
120	0xbdb74757	-0.08949154
121	0xbe0b8bec	-0.13627595
122	0xbe277d7f	-0.16356467
123	0x3dca11e7	0.09866696
124	0xbd30cc7d	-0.043163765
125	0xbe84e2e9	-0.2595437
126	0xbe3b4b61	-0.18290474
127	0xbc63e15e	-0.013908712
128	0xbe33a01f	-0.1754155
129	0xbe2bd020	-0.16778612
130	0xbec0f3fe	-0.3768615
131	0xbea6c762	-0.32573992
132	0xbe377662	-0.17916253
133	0x3decc89b	0.115617
134	0xbe6751e9	-0.2258984
135	0x3dfd6182	0.12372114
136	0xbc3affe1	-0.011413545
137	0x3d8662e2	0.06561829
138	0x3e2405f8	0.16017902
139	0xbe71e2c1	-0.23621656
140	0xbe14a3b9	-0.1451558
141	0xbe1f1dbb	-0.15538685
142	0xbdc56541	-0.09638453
143	0xbe7750e6	-0.24151954
144	0x3e381d05	0.1797982
145	0xbe8bc72d	-0.27300397
146	0xbc337ee6	-0.010955548
147	0xbd6fe3e5	-0.058566947
148	0xbe5eb409	-0.21748365
149	0xbd8a78bf	-0.06761312
150	0xbe6289e2	-0.2212291
151	0xbec1059d	-0.37699595
152	0xbdb9baec	-0.09068856
153	0x3cbf9ac2	0.023389224
154	0x3e51db86	0.20493898
155	0x397c3949	0.00024053933
156	0xbe917bb7	-0.284147
157	0x3db5c91a	0.08876248
158	0xbeaecf94	-0.34142745
159	0xbe656599	-0.22402038
160	0x3ca137d3	0.01967994
161	0x3eaa4371	0.3325458
162	0xbdd6b60d	-0.10483942
163	0x3e163f32	0.14672545
164	0x3dfb796e	0.1227902
165	0xbe382dcc	-0.1798622
166	0xbdf4a276	-0.119450495
167	0xbd63cc2e	-0.055614643
168	0xbe0779fd	-0.13230129
169	0xbea3bc33	-0.31979522
170	0x3d908b20	0.07057786
171	0x3d0e1813	0.034690928
172	0x3d12e828	0.035865933
173	0xbe051a10	-0.12998223
174	0xbe37ba06	-0.17942056
175	0x3c219fb6	0.009864738
176	0x3e449aef	0.19199727
177	0xbe0202da	-0.126964
178	0x3c7a5cbe	0.0152809005
179	0x3e79f7af	0.2441089
180	0x3e911b6f	0.28341243
181	0x3d8364df	0.06415724
182	0xbe27107c	-0.16314882
183	0x3e3d41d6	0.18482146
184	0x3d5c42d0	0.053774655
185	0xbd65fdf2	-0.056150384
186	0x3c91c045	0.017791877
187	0x3db71df3	0.08941259
188	0xbd1f648b	-0.038914245
189	0x3ec2e2ad	0.38063565
190	0xbeb0b448	-0.34512544
191	0xbe2c074a	-0.16799656
192	0x3d365331	0.04451293
193	0x3e25fa99	0.16208877
194	0xbe9e1d53	-0.30881748
195	0xbe62ace7	-0.2213627
196	0x3d0404b3	0.032231044
197	0x3e215e29	0.15758575
198	0x3bc28110	0.0059357956
199	0xbe16fb85	-0.14744385
200	0x3d4b3de8	0.049619585
201	0xbea6140f	-0.32437178
202	0xbe59960d	-0.21248646
203	0x3e022ed6	0.12713179
204	0xbe0d8367	-0.13819657
205	0x3e35098e	0.17679426
206	0xbe81ab91	-0.25326207
207	0x3d7e9682	0.062155254
208	0xbe301722	-0.17196324
209	0xbd5528a1	-0.0520407
210	0xbee7973e	-0.45232576
211	0xbdb3088f	-0.08741867
212	0x3d9ee4d8	0.07758492
213	0x3d70a683	0.058752548
214	0xbdd0414c	-0.101687044
215	0x3e06eaa4	0.13175446
216	0xbdd8c652	-0.105847016
217	0xbe52f576	-0.20601448
218	0x3e10bd3c	0.14134687
219	0xbdce89c1	-0.10084868
220	0x3d372a61	0.04471815
221	0xbe9b4cae	-0.3033194
222	0x3c13ab74	0.009013046
223	0xbe06a1b7	-0.13147627
224	0x3e867145	0.26258293
225	0xbea6d034	-0.3258072
226	0xbd7820be	-0.0605781
227	0xbe7fec34	-0.24992448
228	0xbddbfa3b	-0.10741087
229	0xbddbfe9a	-0.10741921
230	0xbdba0952	-0.09083809
231	0xbecedfa2	-0.40404993
232	0x3df44b4c	0.11928424
233	0x3d222f93	0.03959615
234	0xbdd04bc0	-0.10170698
235	0xbe89d64a	-0.26921302
236	0x3d29f446	0.041492723
237	0x3e10e919	0.1415142
238	0xbe5abd84	-0.21361357
239	0x3e9f0098	0.3105514
240	0xbe050297	-0.12989269
241	0xbe4c6cfd	-0.1996345
242	0xbe9508ee	-0.29108375
243	0x3c21e017	0.009880087
244	0xbd27edd1	-0.040998284
245	0xbe889f0a	-0.26683837
246	0x3da9e69f	0.082959406
247	0x3d1fa087	0.03897145
248	0xbe1a88ab	-0.15091197
249	0xbdc317d8	-0.09526032
250	0xbe93454e	-0.28763813
251	0xbe78220b	-0.24231736
252	0xbe153970	-0.14572692
253	0xbc49bb5e	-0.012312738
254	0xbe235bc9	-0.15952982
255	0xbd0d6e59	-0.034529064

network_body._body_endoder.seq_layers.2.bias f4 [128]
0	0xbedc9b97	-0.43087456
1	0xbec647f9	-0.38726786
2	0xbe26e777	-0.16299234
3	0xbe228638	-0.15871513
4	0xbe6044b1	-0.21901204
5	0xbe4c2b86	-0.19938478
6	0xbf0a8019	-0.5410171
7	0xbed18c5a	-0.40927392
8	0xbda85c73	-0.08220758
9	0xbe8bb091	-0.27283147
10	0xbe5ccfec	-0.21563691
11	0xbe8d81c5	-0.2763807
12	0xbe936c62	-0.28793627
13	0xbeba54a4	-0.363927
14	0x3b4fb1fa	0.0031691776
15	0xbe7e899d	-0.24857183
16	0xbe132b90	-0.14372087
17	0xbe15654a	-0.1458942
18	0xbead4a75	-0.3384587
19	0xbeb5a0dd	-0.3547429
20	0xbec92ea0	-0.39293385
21	0xbe175f98	-0.1478256
22	0xbe935c89	-0.28781536
23	0xbdfd8450	-0.12378752
24	0xbf039422	-0.5139791
25	0xbd9b93ee	-0.07596575
26	0x3bc03c25	0.005866545
27	0xbc1399d3	-0.0090088425
28	0xbe2f3bc8	-0.17112648
29	0xbdbb7b3d	-0.09154365
30	0xbe5564ba	-0.20839205
31	0xbea9e229	-0.3318036
32	0xbebfe8c8	-0.37482285
33	0xbe6b8139	-0.22998513
34	0xbd446791	-0.04795033
35	0xbe42126d	-0.18952341
36	0xbe5d2c43	-0.21598916
37	0xbda1d104	-0.07901195
38	0x3cc67478	0.024225459
39	0xbe562b12	-0.20914868
40	0xbe4c81f9	-0.19971456
41	0xbeae16a6	-0.34001654
42	0xbde4373f	-0.1114335
43	0xbebd3229	-0.36952332
44	0xbe034895	-0.12820657
45	0xbe95f340	-0.29287148
46	0xbda44457	-0.08020847
47	0xbecfbfe5	-0.4057609
48	0xbe676b63	-0.22599559
49	0xbdb9321a	-0.09042759
50	0xbdc4c517	-0.096079044
51	0xbeefd298	-0.46840358
52	0xbe779eac	-0.24181622
53	0xbe668005	-0.22509773
54	0xbe312dfe	-0.17302701
55	0xbe13f0cd	-0.14447327
56	0x3e0ebb41	0.13938619
57	0xbeeb7855	-0.45990244
58	0xbe032535	-0.12807162
59	0xbe7a30d4	-0.24432689
60	0xbdfd834f	-0.12378561
61	0x3d09503c	0.033523783
62	0xbeb45df7	-0.3522794
63	0xbe0089ca	-0.12552562
64	0xbe8e80a4	-0.2783252
65	0xbea4f732	-0.32219845
66	0xbe01f62a	-0.1269156
67	0xbe4dfdb5	-0.20116313
68	0xbe9703a3	-0.29494962
69	0xbdca9840	-0.09892321
70	0xbd86be3d	-0.06579254
71	0xbdde8133	-0.108644865
72	0xbdd3420b	-0.10315331
73	0xbe4867a3	-0.19570784
74	0xbdbe7954	-0.09300485
75	0xbe82e5c5	-0.25565925
76	0xbef7fc68	-0.48434758
77	0xbf214d65	-0.6300872
78	0xbe26a4ed	-0.16273852
79	0xbcab5a1a	-0.020916987
80	0xbedd7fd5	-0.4326159
81	0xbf13dc4d	-0.5775803
82	0xbddd3551	-0.10801185
83	0xbe1f255e	-0.15541598
84	0xbf18f4a2	-0.5974828
85	0xbd6d291a	-0.057900526
86	0x3c9480e4	0.018127866
87	0xbefe5a08	-0.49678063
88	0xbe0cf910	-0.13766885
89	0xbe8f530f	-0.27993056
90	0xbe8f8f88	-0.28039193
91	0xbdb9db4e	-0.09075032
92	0xbe7f07a0	-0.24905252
93	0xbdc006bf	-0.09376287
94	0xbe271837	-0.16317831
95	0x3cd6fef6	0.026244622
96	0xbe1da9ee	-0.15396854
97	0xbf03060b	-0.51181096
98	0xbeab06ea	-0.33403713
99	0xbeb2e5c7	-0.3494093
100	0xbedc5ddb	-0.43040356
101	0xbe13d85a	-0.14438
102	0xba590e00	-0.0008279979
103	0xbd22d2c5	-0.039751787
104	0xbd8b9a05	-0.06816486
105	0xbdaa9db3	-0.0833086
106	0xbe31bac7	-0.17356406
107	0xbe5e2550	-0.21693921
108	0xbe6f2319	-0.23353232
109	0xbc29e0f9	-0.010368579
110	0xbe11e1ce	-0.14246294
111	0xbe968783	-0.29400262
112	0xbd989f6f	-0.074522845
113	0xbeb5f2b2	-0.35536724
114	0x3c4e0051	0.012573318
115	0x3c870bbd	0.01648509
116	0xbe62d45f	-0.22151326
117	0xbe53bfb1	-0.20678593
118	0xbe5e5445	-0.21711834
119	0x3c9db701	0.019252302
120	0xbe11bc8d	-0.14232083
121	0xbd3b01aa	-0.045655884
122	0x3df9f2e7	0.12204533
123	0xbbf0fd20	-0.0073543936
124	0xbea7146e	-0.32632774
125	0xbeecb443	-0.4623128
126	0xbe864933	-0.26227722
127	0xbd7831e6	-0.06059446

action_model._continuous_distribution.log_sigma f4 [1, 4]
0	0xc03886e1	-2.8832324
1	0xc0028cc3	-2.0398414
2	0xc0145b30	-2.3180656
3	0xc00c6239	-2.193495

action_model._continuous_distribution.mu.weight f4 [4, 128]
0	0xbd8dc171	-0.06921662
1	0xbb9b6e7a	-0.0047433944
2	0xbcd5224c	-0.02601733
3	0xbd96446f	-0.073372714
4	0xbd40041f	-0.04687893
5	0xbd3aa6ab	-0.045569103
6	0xbd282126	-0.041047238
7	0xbde5ccf6	-0.11220734
8	0x3b647762	0.0034861197
9	0xbd90b025	-0.07064847
10	0xbd092880	-0.03348589
11	0x3b66780f	0.0035166775
12	0x3d6ce00b	0.05783085
13	0xbc8bf9f0	-0.017086953
14	0xbe0a6bee	-0.13517734
15	0xbcd2ef10	-0.02574876
16	0xbd605b06	-0.054774307
17	0xbd382bde	-0.04496371
18	0xbd022a59	-0.031778667
19	0xbcc0c982	-0.023533586
20	0xbc7a5c4f	-0.015280797
21	0xbdc1935d	-0.094519354
22	0xbd174dfb	-0.036939602
23	0x3d5da9cb	0.054117005
24	0xbc374609	-0.011186131
25	0xbdef2328	-0.116766274
26	0x3d6a4cfe	0.05720233
27	0xbd508a42	-0.050913103
28	0xbd077c06	-0.033077262
29	0xbdd0f4b8	-0.102029264
30	0x3d335627	0.043783333
31	0xbcdb106c	-0.026741229
32	0x3b4df164	0.0031424398
33	0xbc89ccdb	-0.016821316
34	0x3c5ba35d	0.013405648
35	0xbe194114	-0.14966232
36	0x3d2fc707	0.042914417
37	0xbd49078d	-0.049079467
38	0x3d3fa09c	0.04678403
39	0xbbf39da9	-0.007434566
40	0xbdba38d9	-0.09092874
41	0xbdc7c314	-0.09754005
42	0xbe34ddf4	-0.17662793
43	0x3d0ef6c9	0.03490332
44	0xbe1afbbe	-0.15135095
45	0xbd1bd23c	-0.038042292
46	0x3d0ba6d0	0.03409463
47	0xbce56ed9	-0.028006958
48	0xbd5c349f	-0.05376112
49	0xbe661fa9	-0.22473015
50	0xbdc08331	-0.09400023
51	0xbd83aca8	-0.06429416
52	0xbe03c763	-0.12869029
53	0x3d37a587	0.044835594
54	0xbdb9ed76	-0.09078495
55	0xbcbd519f	-0.023110209
56	0xbb22d979	-0.0024848862
57	0xbd8ad0fc	-0.06778142
58	0xbe42827e	-0.18995091
59	0xbd4e6fd7	-0.050399628
60	0x3d4fd618	0.050741285
61	0x3d3c8dcd	0.04603367
62	0xbd255547	-0.04036453
63	0xbd0a79bd	-0.033807505
64	0x3c95c7ea	0.018283803
65	0xbcadb89e	-0.021206196
66	0x3c47c360	0.012192577
67	0xbde3ca62	-0.11122586
68	0xbd8d8d94	-0.069117695
69	0xbe7002ca	-0.23438564
70	0xbd100755	-0.035163242
71	0xbe259832	-0.16171339
72	0xbc4e58c1	-0.012594403
73	0xbdaba0e2	-0.08380295
74	0xbe383a6f	-0.1799104
75	0xbb878b9a	-0.004136515
76	0x3ca33736	0.019923788
77	0xbb277195	-0.0025549878
78	0x3c1c1bd3	0.009528118
79	0xbd125ae3	-0.035731208
80	0xbd02b56f	-0.03191131
81	0xbbb1bfaa	-0.0054244595
82	0xbb2afb81	-0.002608985
83	0xbd16c9cb	-0.03681354
84	0x3bc19fb9	0.005908933
85	0xbe0e0f22	-0.1387296
86	0xbd5f32ea	-0.054491915
87	0x38f07a80	0.00011466909
88	0x3af760cf	0.0018873456
89	0xbde6a933	-0.11262741
90	0xbd8ea8b9	-0.06965775
91	0xbda78cbc	-0.0818114
92	0xbcec09ca	-0.028813262
93	0xbc5ff549	-0.01366932
94	0xbd231c63	-0.039821994
95	0xbd0dbbfd	-0.034603108
96	0x3ca96b90	0.020681173
97	0xbcd78d50	-0.0263125
98	0x3c2a3062	0.010387512
99	0xbd1be233	-0.038057517
100	0xbcbc608f	-0.022995261
101	0xbd8a2bd3	-0.0674664
102	0xbdd8a648	-0.10578591
103	0xbdba4f01	-0.090971
104	0xbd1b1471	-0.03786129
105	0xbc2ae977	-0.010431639
106	0x3c258ad4	0.0101039
107	0xbd8feb08	-0.070272505
108	0x3db02928	0.086016
109	0xbe51bd54	-0.20482379
110	0xbd828950	-0.063738465
111	0x3dea15de	0.11429952
112	0xbc9abfd1	-0.018890293
113	0xbd067162	-0.032822974
114	0x3d1b3aa7	0.037897732
115	0xbcdc2f0f	-0.026877908
116	0xbd367892	-0.04454858
117	0x3c8486c8	0.01617755
118	0xbd2100b0	-0.039307296
119	0x3c7b75fb	0.015347953
120	0xbd2f3f93	-0.04278524
121	0xbde5ea74	-0.11226359
122	0xbbc6e217	-0.0060694325
123	0xbd549268	-0.051897436
124	0xbc22695f	-0.009912818
125	0xbda2f94c	-0.07957706
126	0xbdd1d449	-0.10245568
127	0x3cc971fe	0.024590489
128	0x3d851258	0.064976394
129	0xbc7f9a51	-0.015600757
130	0xbd5a4c86	-0.053295635
131	0x3dc9bf8e	0.09850989
132	0xbe1bbdca	-0.15209118
133	0xbc9c948b	-0.0191138
134	0x3c979588	0.01850392
135	0x3d8e06bb	0.069348775
136	0xbdc260d1	-0.094911225
137	0xbc6341bf	-0.013870656
138	0xbdccd6ef	-0.10001933
139	0xbde2f3b8	-0.11081642
140	0x3e10b426	0.14131221
141	0xbd972816	-0.07380693
142	0x3cbed2ce	0.023293879
143	0xbdd542d9	-0.10413141
144	0xbe1e4dd1	-0.15459372
145	0xbc76b82f	-0.015058561
146	0xbd2342ac	-0.039858505
147	0xbdf2b04e	-0.11850034
148	0xbdd9c4eb	-0.10633262
149	0x3c836aa9	0.01604207
150	0xbd6a6eab	-0.057234447
151	0x3e5132eb	0.2042958
152	0x3cdf675e	0.027270969
153	0xbdd47aa4	-0.10374954
154	0x3e1f230d	0.15540715
155	0xbe070e8f	-0.13189147
156	0xbdad3b33	-0.08458557
157	0xbdc71256	-0.09720294
158	0x3df61f41	0.1201768
159	0xbd8536a0	-0.065045595
160	0xbc87a62c	-0.01655873
161	0xbd76ed6f	-0.060285028
162	0xbe0a272b	-0.13491504
163	0x3b8c0824	0.0042734314
164	0xbdcfdda6	-0.10149698
165	0x3d9a4b89	0.075339384
166	0xbce4369a	-0.027858067
167	0xbd5f99ba	-0.054589964
168	0x3d65e92f	0.056130584
169	0xbe1bf4cc	-0.15230101
170	0x3dd4828c	0.10376462
171	0xbdbc5f28	-0.09197837
172	0x3ca1ee5e	0.019766983
173	0xbd00592c	-0.03133504
174	0x3e7d1e86	0.24718675
175	0x3cdceac5	0.026967416
176	0x3c5b47c3	0.013383809
177	0x3d4de747	0.05026939
178	0xbd4908a8	-0.04908052
179	0xbd5c82d8	-0.05383572
180	0x3de30ba6	0.11086206
181	0xbe230fe6	-0.15924034
182	0xba9a71e0	-0.0011783205
183	0xbda11b2c	-0.07866511
184	0xbca112a9	-0.019662218
185	0xbd1d9f53	-0.03848202
186	0xbd8f514a	-0.069979265
187	0xbc5de8c4	-0.013544265
188	0x3c41bf0b	0.011825333
189	0x3d08bbf2	0.033382364
190	0xbccb12e1	-0.024789276
191	0x3c09e255	0.008415778
192	0x3d82250c	0.063547224
193	0xbdb01bcb	-0.08599051
194	0xbe37e171	-0.17957093
195	0x3de5d594	0.112223774
196	0xbd47affd	-0.04875182
197	0xbcf088d9	-0.029362129
198	0x393a0d23	0.00017743236
199	0xbe2ba9c5	-0.1676398
200	0xba4b3444	-0.00077516236
201	0x3ea8abca	0.32943565
202	0xbe9f477a	-0.3110922
203	0x3e078282	0.13233379
204	0xbd6cff04	-0.05786039
205	0xbcaa6b19	-0.020803021
206	0xbde1bef5	-0.1102275
207	0x3c9b4c23	0.018957203
208	0xbd188688	-0.037237674
209	0xbdca7fb5	-0.098876394
210	0xbdec1371	-0.11527146
211	0x3dd18a2b	0.102314316
212	0xbd8edc62	-0.069756284
213	0xbcd1cd28	-0.025610521
214	0x3d76772a	0.060172237
215	0x3c942c1f	0.018087445
216	0x3e6c721e	0.23090407
217	0xbd3669dd	-0.044534553
218	0xbe14fc8b	-0.14549462
219	0x3e30f9ed	0.17282839
220	0xbcba8185	-0.022766838
221	0xbcad70c6	-0.021171939
222	0xbd2e734a	-0.042590417
223	0xbd0ebc3d	-0.034847487
224	0xbcd07c11	-0.025449784
225	0xbc3e803d	-0.011627254
226	0xbcd0941c	-0.025461249
227	0x3d4f523d	0.050615538
228	0xbd0ee4e2	-0.03488625
229	0x3b775967	0.0037742497
230	0x3da2f0e5	0.07956103
231	0x3df4e4ed	0.11957727
232	0xbe148202	-0.14502719
233	0x3e920856	0.28521985
234	0xbd872ae9	-0.06599981
235	0xbe0e614f	-0.13904308
236	0x3d280969	0.0410246
237	0xbc189efc	-0.009315249
238	0xbe3a7691	-0.18209292
239	0x3df5713d	0.11984489
240	0x3d87b728	0.06626731
241	0x3b952507	0.004551533
242	0xbe525047	-0.20538436
243	0xbd85a54a	-0.06525667
244	0x3e36e714	0.17861587
245	0xbda84a91	-0.082173474
246	0xbd6905f7	-0.056890454
247	0xbe1c4179	-0.15259351
248	0x3d0e8ddc	0.034803256
249	0xbe32a0f8	-0.17444217
250	0x3dcab92c	0.098986
251	0xbe7cb101	-0.24676897
252	0x3d84a2df	0.06476378
253	0xbd3d0051	-0.04614288
254	0xbd80f13f	-0.06296014
255	0xbd9afd6e	-0.07567869

action_model._continuous_distribution.mu.bias f4 [4]
0	0x3d30fc09	0.04320911
1	0x3e3d8c9d	0.18510671
2	0xbe095879	-0.13412656
3	0x3ecb3250	0.39686823

exp_avg f4 [128, 9]
0	0x3c4d823c	0.012543257
1	0xbd43678c	-0.047706172
2	0xbc3dadbb	-0.011577065
3	0x3cbd7663	0.02312774
4	0x3b9dadfa	0.0048119994
5	0xbd31a5cb	-0.043371003
6	0x3cb42a02	0.021992687
7	0x3a7413f0	0.0009310832
8	0x3cd2a539	0.02571355
9	0x3c145bcb	0.009055088
10	0xbbc60100	-0.0060425997
11	0x3a5c400d	0.00084018783
12	0xbadf1b2e	-0.001702165
13	0xb9b9ab77	-0.000354137
14	0x3b51312d	0.003192018
15	0xbad427e2	-0.0016186202
16	0xbc95e23f	-0.01829636
17	0xbf01488c	-0.5050132
18	0x3cabcf7c	0.02097296
19	0x3caebc7a	0.021330107
20	0x3c1a9223	0.009434256
21	0xbba69db2	-0.0050847167
22	0xbc9f6660	-0.019457996
23	0x3cdbb322	0.026818816
24	0xbc475bba	-0.012167865
25	0x3ed8af5d	0.42321292
26	0xbc97d8bd	-0.018535966
27	0x3c42e3c5	0.011895125
28	0xbd278a5c	-0.040903434
29	0xbc3061cf	-0.010765507
30	0x3cc292a5	0.023751566
31	0x3a41425c	0.0007372254
32	0xbd264330	-0.04059142
33	0x3cab4c1c	0.020910315
34	0x3dd55251	0.10416091
35	0x3f4917e0	0.78552055
36	0xbb0ffdba	-0.0021971301
37	0x3b594cdd	0.0033157386
38	0x3a1f3a55	0.0006074061
39	0xbaf0aedc	-0.0018362659
40	0x39ee8ffc	0.00045502174
41	0x3b2e24e8	0.002657229
42	0xbab92597	-0.0014125583
43	0xbc9c8c9b	-0.019110015
44	0xbbad8b9e	-0.0052961847
45	0xbb92cab0	-0.0044797286
46	0x3bb6da15	0.0055801966
47	0x39d7ce07	0.00041161498
48	0xba233212	-0.00062254176
49	0xb907cf99	-0.0001295194
50	0x3a990491	0.0011674335
51	0xba1b2f95	-0.0005919871
52	0x3b89705d	0.004194303
53	0xbe234bd9	-0.15946902
54	0xbc4f4050	-0.012649611
55	0x3c3585f6	0.011079302
56	0x3aab946c	0.0013090498
57	0xbc090f45	-0.008365457
58	0x3ba77d1a	0.005111349
59	0x3c17937b	0.009251471
60	0xbbab30d5	-0.005224327
61	0xbe133c31	-0.1437843
62	0x3b8bda4d	0.004267967
63	0xbb653f8c	-0.0034980504
64	0x3bf66829	0.007519741
65	0x3ab12c6f	0.001351727
66	0xbb2a361f	-0.00259722
67	0xba0da626	-0.0005403481
68	0x3b9f9897	0.004870485
69	0xbb21db5f	-0.0024697406
70	0xbabcf2b9	-0.0014415599
71	0xbd8c2b79	-0.06844229
72	0xbc333638	-0.01093822
73	0x3cc2b47a	0.023767699
74	0x3b8d544b	0.004313027
75	0xbc04df97	-0.008109949
76	0xbadd2730	-0.0016872641
77	0x3c792c5f	0.015208333
78	0xbbfcb403	-0.0077118888
79	0x3c9ac12c	0.01889094
80	0x3ea08715	0.3135306
81	0xbc552a84	-0.013010625
82	0x3c8e3bb7	0.017362459
83	0x3b20609b	0.0024471644
84	0xbc11b728	-0.0088937655
85	0x3b2442d5	0.002506425
86	0x3c4e34b1	0.012585805
87	0xbbdc3bd7	-0.0067210007
88	0xbda79223	-0.0818217
89	0x3c2894cf	0.010289385
90	0x3ccf3765	0.025294969
91	0xbb8d026f	-0.0043032686
92	0x3b23185b	0.0024886343
93	0x3bebece1	0.007199869
94	0xbc6b885f	-0.014375775
95	0x3ab8a743	0.0014087934
96	0x3a087779	0.0005205791
97	0x3eb4d790	0.3532071
98	0x3ddf0e68	0.1089142
99	0x3c21b1ed	0.009869081
100	0xbc11b745	-0.0088937925
101	0xba38aaf9	-0.000704452
102	0x3bae6abd	0.005322783
103	0xbb8c3007	-0.0042781862
104	0xbba14ff2	-0.0049228603
105	0x3b3f0e7d	0.0029152923
106	0x3e06de7f	0.13170813
107	0xbc0636de	-0.008191792
108	0x3d2d89c9	0.04236773
109	0x3a2a13aa	0.00064879155
110	0x3bd265a1	0.0064208065
111	0x3c01a7ed	0.007913572
112	0xbccce746	-0.025012624
113	0x3c272351	0.010201291
114	0xbb4b1657	-0.0030988657
115	0x3f13d882	0.5775224
116	0x3e8512d8	0.2599094
117	0xbcba3bdc	-0.022733621
118	0x3d9a7829	0.0754245
119	0x3c86d9b2	0.016461227
120	0xbd013bfe	-0.031551354
121	0xbc2e0ae4	-0.010622714
122	0x3d80fb62	0.062979475
123	0xbd018412	-0.031620093
124	0x3dd5d1f9	0.1044044
125	0x3ecacf00	0.39611053
126	0x3a5bfa4c	0.0008391484
127	0xbb5c48f3	-0.0033612817
128	0xba5903ae	-0.00082784414
129	0x3ad57ed1	0.0016288405
130	0x39b1ab75	0.00033887816
131	0xbb482e3b	-0.0030545134
132	0x3acb0435	0.0015488925
133	0x3ae6e3d0	0.0017615501
134	0x3c838a49	0.01605715
135	0xbd66b7f7	-0.056327786
136	0x3db9f456	0.090798065
137	0x3c7ff79f	0.015623002
138	0xbd3868db	-0.045021873
139	0x3beded47	0.0072609517
140	0x3d8cebef	0.06880938
141	0xbd143775	-0.0361857
142	0xbebb9cf6	-0.3664319
143	0x3ea53503	0.32267007
144	0x3d30e7ea	0.04318992
145	0xbdffd08b	-0.12490948
146	0xbcddec73	-0.027090287
147	0x3d5d27f9	0.0539932
148	0x3c377e24	0.011199508
149	0xbdcf4c7b	-0.10122009
150	0x3d523f08	0.051329643
151	0xba100c14	-0.0005494964
152	0xbc15d35d	-0.009144631
153	0x3b23e031	0.0025005455
154	0x3b9e69d4	0.004834393
155	0x3b0ec355	0.0021783907
156	0xbb84f18d	-0.0040571154
157	0xbab03eef	-0.001344649
158	0x3c045b27	0.008078373
159	0xbb84f483	-0.0040574684
160	0x3b7c4cd9	0.0038497953
161	0xbe2fad3e	-0.1715593
162	0x3c4cca1c	0.0124993585
163	0xbd3c816e	-0.04602187
164	0xbc34feed	-0.011047107
165	0x3cb30728	0.021853998
166	0x3b94fc6f	0.004546694
167	0xbd27dcdc	-0.040982112
168	0x3caa3da3	0.020781344
169	0x3ac5429c	0.0015049758
170	0x3e651dd4	0.2237466
171	0xbb356cd8	-0.0027683284
172	0x3c1c6f75	0.009548058
173	0x3b0d93b0	0.0021602921
174	0xbbb79001	-0.0056018834
175	0x386af2ca	5.6016062e-05
176	0x3c1950e9	0.009357669
177	0xbb9e9a1c	-0.0048401486
178	0xbceba1cf	-0.02876368
179	0x3d6dda3a	0.058069445
180	0xbc9dcd6c	-0.019262992
181	0x3d626823	0.055275094
182	0x3c43a8ad	0.011942071
183	0xbcc0dc9c	-0.023542695
184	0xbba07f9d	-0.004898025
185	0x3d34d573	0.044148874
186	0xbcb76547	-0.02238716
187	0x3c259f0e	0.010108722
188	0xbe23ed51	-0.16008498
189	0x38521fa9	5.0097387e-05
190	0xb8aad13d	-8.145205e-05
191	0xb73df32a	-1.1321894e-05
192	0x377cca9a	1.5067542e-05
193	0x36525f9c	3.134809e-06
194	0xb7ed06b6	-2.8255727e-05
195	0x37706242	1.4327992e-05
196	0x370de641	8.457865e-06
197	0x39ee5dd0	0.00045464793
198	0x39ba5067	0.0003553659
199	0xbad20a98	-0.0016024886
200	0xb9d68035	-0.00040912782
201	0x3a587555	0.000825723
202	0x393422a7	0.00017179047
203	0xbacaf56f	-0.0015484522
204	0x3a4dd57e	0.0007851942
205	0xb90f145d	-0.00013645129
206	0xb8a638ac	-7.926053e-05
207	0x3a80ae3f	0.0009817554
208	0xbc3e79dd	-0.011625734
209	0xbb6371f0	-0.0034705363
210	0x3be7ba35	0.007071758
211	0x3ac0d799	0.0014712691
212	0xbc594686	-0.013261443
213	0x3bdc5a7f	0.006724655
214	0xbb08898c	-0.0020833937
215	0xbc4433a9	-0.011975207
216	0xbb8b8e6d	-0.004258922
217	0xbc31f33d	-0.010861215
218	0xbb64ad76	-0.003489343
219	0x3b707494	0.003669058
220	0x3b861525	0.004091876
221	0xbc23f483	-0.010007027
222	0x3b9dcad5	0.004815439
223	0xbd4e0a14	-0.05030258
224	0xbd3bb686	-0.045828365
225	0x3ac3d766	0.0014941513
226	0x3affa7c3	0.0019504953
227	0x3a8f83dd	0.0010949332
228	0xbb12b506	-0.002238573
229	0xb9f42d76	-0.00046573178
230	0x3b898ec0	0.0041979253
231	0xbb0b819e	-0.0021286975
232	0xbb0e87a6	-0.0021748333
233	0xbe9d1ca3	-0.3068591
234	0x3bc8c391	0.006126829
235	0xbcacf1de	-0.021111425
236	0xbba23147	-0.004949722
237	0x3c2146cd	0.00984354
238	0x3b05e130	0.0020428412
239	0xbc972de2	-0.018454496
240	0x3c1953d2	0.009358363
241	0x39a029f0	0.00030548824
242	0x3c1da3c7	0.009621567
243	0xbb94e0aa	-0.0045433836
244	0xbd145ade	-0.03621947
245	0xbc64d594	-0.013966937
246	0x3cf40065	0.029785344
247	0x3b4fd7fd	0.0031714432
248	0xbd5924ed	-0.05301373
249	0x3cde2608	0.027117744
250	0x3dd899aa	0.10576184
251	0x3fce8bd8	1.6136427
252	0xbbaf0c8b	-0.0053420714
253	0xbbbe4365	-0.005806374
254	0xbb9299d7	-0.0044739055
255	0x3c0c42dc	0.008560862

exp_avg_sq f4 [128, 9]
0	0x3b3bdc81	0.0028665366
1	0x3a7d92b0	0.0009673042
2	0x390fc153	0.00013709562
3	0x398efdb1	0.00027273365
4	0x3a08213b	0.000519294
5	0x3a6163f1	0.0008597961
6	0x39661e96	0.00021945903
7	0x3a5ce1f4	0.00084260036
8	0x3a270d32	0.00063725107
9	0x3c16e50a	0.009209881
10	0x3ba43cad	0.005012116
11	0x3a28477d	0.0006419344
12	0x3aa3134b	0.0012441663
13	0x3aa4b960	0.0012567453
14	0x3b7c7dfe	0.0038527246
15	0x3a803f6c	0.0009784526
16	0x3b4825fe	0.0030540223
17	0x3f296065	0.6616271
18	0x3d244190	0.040101588
19	0x3bb4486a	0.0055017965
20	0x3aed8119	0.0018120139
21	0x3b2f56c4	0.0026754597
22	0x3c967868	0.018367961
23	0x3bad3139	0.005285409
24	0x3aa7df80	0.0012807697
25	0x40aa11c7	5.31467
26	0x3f17f1bb	0.59353226
27	0x3d51b9da	0.051202632
28	0x3be4a0d9	0.0069771823
29	0x3b1e2a48	0.0024134088
30	0x3b49a2a0	0.0030767098
31	0x3c357c4f	0.011077001
32	0x3c0943d6	0.00837799
33	0x3b03f8b6	0.0020137257
34	0x3f8615bb	1.0475382
35	0x4050d7c3	3.263169
36	0x3bb141c3	0.0054094507
37	0x3a37770b	0.0006998635
38	0x39eb2818	0.00044852565
39	0x39dcabbc	0.00042089622
40	0x3b1789ae	0.0023122835
41	0x3a6046bc	0.0008555462
42	0x3972932e	0.00023133747
43	0x3f6dc380	0.92876434
44	0x3a0190fd	0.00049425644
45	0x3bb07d59	0.0053860364
46	0x3ab37f84	0.0013694619
47	0x3982f8a7	0.00024980793
48	0x39dac263	0.0004172503
49	0x3a583c14	0.00082486984
50	0x3ab08616	0.0013467695
51	0x39af834b	0.00033476422
52	0x3968c10c	0.0002219716
53	0x3ce5d443	0.028055316
54	0x3c14fcd0	0.009093478
55	0x3af9b818	0.0019052057
56	0x3a2a9f50	0.0006508725
57	0x3a60447b	0.0008555126
58	0x3bbafbf0	0.005706303
59	0x3ab658c7	0.0013911956
60	0x39b6bb81	0.00034853446
61	0x400e1d7d	2.2205498
62	0x3c30bb95	0.010786911
63	0x3ad69756	0.0016372006
64	0x3a804870	0.0009787213
65	0x38e9c5f8	0.0001114718
66	0x39660b78	0.00021938782
67	0x39e68df3	0.0004397478
68	0x3a30ff77	0.00067519344
69	0x39318755	0.0001693045
70	0x3787b4fb	1.617753e-05
71	0x3bbd6d65	0.005780863
72	0x3c3eb00d	0.011638653
73	0x3bbcc8b9	0.0057612327
74	0x39e46e45	0.00043569706
75	0x3aaa386b	0.0012986785
76	0x3a22b493	0.0006206717
77	0x3b927ba5	0.004470306
78	0x3a906812	0.0011017343
79	0x3abd9a00	0.0014465451
80	0x3e8be748	0.2732489
81	0x3d13489a	0.03595791
82	0x3b97a492	0.0046277726
83	0x3aa2c2ed	0.0012417712
84	0x3aedc4f3	0.001814036
85	0x3c254eaa	0.010089556
86	0x3b8c46e4	0.0042809118
87	0x3a8360ad	0.0010023318
88	0x4010e5a6	2.2640166
89	0x3f896a2d	1.0735527
90	0x3c93690c	0.017994426
91	0x3b12256d	0.002230014
92	0x3a28dbf8	0.00064414693
93	0x3a8956ad	0.0010478102
94	0x3bf2859a	0.0074011805
95	0x3b0776d6	0.0020670197
96	0x39fa46ee	0.00047736563
97	0x40075ec2	2.1151586
98	0x3e54c875	0.20779593
99	0x3cb7466a	0.022372443
100	0x3b4f14a1	0.003159799
101	0x3a9fa087	0.0012178578
102	0x3ad52482	0.001626149
103	0x3c3db826	0.011579549
104	0x3b42a07e	0.0029697712
105	0x3a53b7dd	0.0008076409
106	0x404d1e19	3.204962
107	0x3e21f982	0.15817836
108	0x3d720600	0.059087753
109	0x3bfe5762	0.0077618817
110	0x3b1bfeff	0.0023803113
111	0x3b6919a0	0.0035568252
112	0x3cb3cce7	0.021948291
113	0x3bdc6f23	0.0067271157
114	0x3ace3fcf	0.0015735569
115	0x40fa5d59	7.823895
116	0x3fd9d376	1.7017658
117	0x3d5ce7e3	0.053932082
118	0x3c5502eb	0.013001184
119	0x3b17b118	0.0023146328
120	0x3b8b3ae8	0.0042489655
121	0x3c9183c7	0.017763032
122	0x3c4f93dd	0.012669531
123	0x3b4428e7	0.0029931606
124	0x3fc6706d	1.550306
125	0x40358165	2.8360226
126	0x3a2736b6	0.0006378697
127	0x385a53ad	5.205318e-05
128	0x374c0532	1.2160557e-05
129	0x37a849dd	2.0061556e-05
130	0x37bf1565	2.2778937e-05
131	0x3888fb0a	6.531745e-05
132	0x376de4ec	1.4179601e-05
133	0x38901352	6.870054e-05
134	0x3a320cdd	0.0006792078
135	0x3d488c6b	0.048962038
136	0x3c86aefb	0.016440859
137	0x3b3e1599	0.0029004572
138	0x3ba7ea2d	0.0051243515
139	0x3c9d2f68	0.019187644
140	0x3c639c1c	0.0138922
141	0x3b655455	0.0034992893
142	0x408eaea7	4.45882
143	0x3fe7b251	1.8101293
144	0x3d3ece0d	0.046583224
145	0x3cd41460	0.025888622
146	0x3b1bc1c9	0.0023766628
147	0x3bc921aa	0.0061380463
148	0x3c186d43	0.009303394
149	0x3ca44e69	0.02005692
150	0x3ba26398	0.00495572
151	0x3eb0427e	0.3442573
152	0x402f2c9e	2.7370982
153	0x3c53e392	0.012932675
154	0x3b8d56f2	0.004313343
155	0x3a2fa4c6	0.00067002734
156	0x3aa609ea	0.001266775
157	0x3b81efc5	0.0039653503
158	0x3b77f4b6	0.0037835068
159	0x3a73dbd9	0.0009302474
160	0x3ea6cc92	0.3257795
161	0x3f1b7549	0.6072584
162	0x39c80f50	0.0003815838
163	0x3a8956fc	0.0010478194
164	0x3889f1b0	6.577687e-05
165	0x39650be2	0.00021843569
166	0x3902ed29	0.00012486115
167	0x3a438520	0.0007458497
168	0x39485bb2	0.00019107645
169	0x374863d9	1.1944177e-05
170	0x3c519941	0.012792886
171	0x3d03203b	0.03201316
172	0x3bbbf4ad	0.0057359547
173	0x3b03004b	0.0019989188
174	0x3b2ee2c4	0.0026685456
175	0x3c8b297a	0.016987551
176	0x3b922f20	0.004461184
177	0x3a90b01a	0.001103881
178	0x40e6c03e	7.210967
179	0x3d93f4c6	0.07224421
180	0x3a9b0e33	0.0011829793
181	0x3c015f71	0.00789629
182	0x39d8bd71	0.00041339875
183	0x3acf5bdd	0.0015820224
184	0x39830198	0.00024987455
185	0x3bb5e861	0.0055513834
186	0x3abaf1fa	0.0014262788
187	0x3940b5e2	0.00018378304
188	0x3d7232b8	0.0591304
189	0x3af62711	0.0018779953
190	0x398cb2f7	0.0002683622
191	0x38be4df3	9.074425e-05
192	0x388247f8	6.212288e-05
193	0x3a3828d2	0.00070251257
194	0x38faadff	0.00011953338
195	0x37b32299	2.1354574e-05
196	0x3972a771	0.00023141295
197	0x36015b75	1.9275733e-06
198	0x3b9e48fe	0.0048304787
199	0x3a0783d4	0.0005169485
200	0x396fb4c8	0.00022860162
201	0x39224f6c	0.00015479111
202	0x3a8ce1f9	0.0010748497
203	0x39533a6d	0.00020144293
204	0x383d28a1	4.509895e-05
205	0x3a2047d5	0.00061142194
206	0x37ab7982	2.044137e-05
207	0x3b996ce7	0.0046821716
208	0x3a532e32	0.0008055895
209	0x39849d0d	0.00025294014
210	0x39a83b85	0.00032087803
211	0x3a16a689	0.00057468616
212	0x3a6441e3	0.00087073277
213	0x39830f75	0.00024997783
214	0x39e1b681	0.0004305132
215	0x3909dde8	0.00013148005
216	0x3ca752d9	0.020425247
217	0x3b4c18e2	0.003114276
218	0x3a8630ca	0.0010237929
219	0x3abf7d3c	0.0014609466
220	0x3c31e7bb	0.0108584715
221	0x3b2d199d	0.0026412972
222	0x3a3078ee	0.0006731887
223	0x40563229	3.3468115
224	0x3e853e63	0.2602416
225	0x3c5c01f9	0.013428205
226	0x3b1f15d5	0.0024274488
227	0x39b45f1e	0.00034403143
228	0x3a3305c0	0.0006829165
229	0x3a74f08a	0.00093437044
230	0x3b10873a	0.0022053258
231	0x3a069465	0.0005133807
232	0x3b4ed7e9	0.0031561798
233	0x3e872aa1	0.2639971
234	0x3b61e186	0.0034466698
235	0x3a0e76df	0.0005434583
236	0x38b03af5	8.4033156e-05
237	0x3937d7dc	0.00017532654
238	0x3a77fead	0.0009460252
239	0x3a133470	0.0005615419
240	0x3909831e	0.00013114183
241	0x3c0f99e0	0.008764714
242	0x391c1e85	0.00014888689
243	0x3d40ad84	0.047040477
244	0x3c9b3686	0.018946897
245	0x3ba09dd4	0.004901627
246	0x3be61a59	0.007022184
247	0x3c84f99f	0.01623231
248	0x3ca00342	0.019532803
249	0x3ba2f569	0.004973103
250	0x3f5c83d4	0.86138654
251	0x40cad222	6.338151
252	0x3d629b05	0.05532362
253	0x3c2093ae	0.009800835
254	0x3b27471d	0.0025524565
255	0x3b6ec85f	0.0036435348

exp_avg f4 [128]
0	0x3cbd7662	0.023127738
1	0xbadf1b3e	-0.0017021669
2	0xbba69db3	-0.005084717
3	0x3cc292a5	0.023751566
4	0xbaf0aedc	-0.0018362659
5	0xba233212	-0.00062254176
6	0xbc090f46	-0.008365458
7	0xbb2a361f	-0.00259722
8	0xbc04df9b	-0.008109952
9	0xbc11b729	-0.008893766
10	0x3bebece1	0.007199869
11	0x3bae6abd	0.005322783
12	0x3c01a7ed	0.007913572
13	0xbd013bfc	-0.031551346
14	0x3ad57ed1	0.0016288405
15	0xbd3868db	-0.045021873
16	0x3d5d27f7	0.05399319
17	0xbb84f18d	-0.0040571154
18	0x3cb30728	0.021853998
19	0xbbb79001	-0.0056018834
20	0xbcc0dc9c	-0.023542695
21	0x377ccaa0	1.5067548e-05
22	0x3a587555	0.000825723
23	0x3be7ba35	0.007071758
24	0x3b707490	0.003669057
25	0xbb12b506	-0.002238573
26	0x3c2146cd	0.00984354
27	0x3cf40063	0.02978534
28	0x3c0c42db	0.008560861
29	0x3cb4ef67	0.022086812
30	0xbacd74cf	-0.001567507
31	0xbc01c5ab	-0.007920663
32	0x3cb5efc7	0.022209061
33	0xb860c7ac	-5.359172e-05
34	0x3c281fd3	0.010261494
35	0x3a4531ef	0.00075223943
36	0xbaadb17a	-0.0013251745
37	0xbb89a753	-0.004200855
38	0x3b04dd34	0.002027345
39	0x3bcb1031	0.0061969985
40	0xbc1fbd32	-0.0097496975
41	0xbc59bf50	-0.013290241
42	0x3b7307c2	0.0037083481
43	0x3cc040ef	0.023468463
44	0x3d824f8d	0.06362829
45	0xbc735755	-0.014852365
46	0x3bca855e	0.0061804494
47	0x3c018ba7	0.007906831
48	0x3d258cae	0.040417366
49	0x3c19930e	0.0093734395
50	0xbb2845f7	-0.0025676468
51	0xbb3ff440	-0.0029289871
52	0x3d35abeb	0.044353407
53	0x3d32d994	0.04366453
54	0xbc563b07	-0.013075597
55	0xbba984ba	-0.005173293
56	0xbc04aa10	-0.008097187
57	0x3aec9f5a	0.0018052862
58	0x3ccf69b3	0.025318956
59	0xbc981d18	-0.01856856
60	0xba449293	-0.0007498648
61	0x3c51269b	0.012765552
62	0xbbcf6f53	-0.0063304096
63	0x3b6cdfaf	0.0036144068
64	0xbc816b86	-0.015798341
65	0xba92206c	-0.0011148578
66	0xba917615	-0.0011097813
67	0x3b28e745	0.0025772613
68	0x39a4d647	0.00031440167
69	0x3bc45c4d	0.0059924484
70	0x3b439b43	0.0029847182
71	0x3ce92550	0.028460175
72	0xbbc74559	-0.006081265
73	0xbb7c4976	-0.0038495935
74	0x3c82769d	0.0159257
75	0x3ccd02b6	0.025025707
76	0xbb9c8b7c	-0.00477737
77	0x3b085015	0.0020799686
78	0xbc8cb231	-0.017174812
79	0xbb75025e	-0.0037385444
80	0x3b6d9dae	0.0036257314
81	0x3adccfcc	0.0016846596
82	0xbc9161f0	-0.017746896
83	0x3c16631a	0.009178901
84	0x3cc617e8	0.024181321
85	0x3c0ded53	0.0086625395
86	0x3b4f51bb	0.0031634409
87	0x3b7c8658	0.0038532224
88	0xbaa1cfa8	-0.0012345212
89	0x3b535ebb	0.0032252509
90	0x3b3db08d	0.0028944344
91	0xbb368bcf	-0.0027854329
92	0xbc741512	-0.014897602
93	0xbd237642	-0.0399077
94	0x3c18dedb	0.009330477
95	0x3c06aa5c	0.008219328
96	0xbb5d4b3c	-0.0033766767
97	0xba0faca4	-0.00054807425
98	0xbc63e9c2	-0.013910713
99	0xbc9da567	-0.019243909
100	0xbbe2d9ef	-0.0069229524
101	0xbb280d1c	-0.002564258
102	0xbb64b120	-0.0034895614
103	0x3b9c42a0	0.0047686845
104	0xbc00736b	-0.007840018
105	0x3bc34857	0.0059595513
106	0xbb4461cc	-0.0029965518
107	0x3a3acc7f	0.0007125809
108	0x3b8a418e	0.0042192405
109	0xbbc489ea	-0.005997886
110	0xba659c3b	-0.0008758937
111	0xbb22f6c0	-0.0024866313
112	0xbab2426b	-0.0013600116
113	0x3c05b7a5	0.00816146
114	0x3c47ac07	0.012187011
115	0xbc659a37	-0.014013818
116	0x3ad421cf	0.0016184392
117	0xbc496fd2	-0.012294726
118	0x3c1b3a78	0.009474389
119	0x3bb8ec37	0.0056433934
120	0xbc3f27b0	-0.011667177
121	0xbc30cbf1	-0.010790811
122	0x3c05e2ed	0.008171779
123	0x3ab197c8	0.0013549263
124	0x3b6aade6	0.0035809218
125	0xbcb5b59a	-0.022181321
126	0x3b29e29e	0.0025922428
127	0xba4f3e5b	-0.0007905715

exp_avg_sq f4 [128]
0	0x398efdb1	0.00027273365
1	0x3aa3134b	0.0012441663
2	0x3b2f56c4	0.0026754597
3	0x3b49a2a0	0.0030767098
4	0x39dcabbe	0.00042089628
5	0x39dac263	0.0004172503
6	0x3a60447b	0.0008555126
7	0x39660b78	0.00021938782
8	0x3aaa386c	0.0012986786
9	0x3aedc4f5	0.0018140363
10	0x3a8956ad	0.0010478102
11	0x3ad52482	0.001626149
12	0x3b6919a0	0.0035568252
13	0x3b8b3ae7	0.004248965
14	0x37a849dc	2.0061554e-05
15	0x3ba7ea2d	0.0051243515
16	0x3bc921aa	0.0061380463
17	0x3aa609ea	0.001266775
18	0x39650be2	0.00021843569
19	0x3b2ee2c3	0.0026685453
20	0x3acf5bdd	0.0015820224
21	0x388247f8	6.212288e-05
22	0x39224f6c	0.00015479111
23	0x39a83b85	0.00032087803
24	0x3abf7d3c	0.0014609466
25	0x3a3305c0	0.0006829165
26	0x3937d7db	0.00017532652
27	0x3be61a58	0.0070221834
28	0x3b6ec861	0.0036435353
29	0x3b279899	0.0025573133
30	0x3b8f3e9c	0.0043714773
31	0x39a41e5e	0.00031303143
32	0x3af48d58	0.0018657846
33	0x38f454d4	0.00011650627
34	0x39885455	0.00026002774
35	0x3b572b04	0.0032832036
36	0x3700f080	7.68539e-06
37	0x3933e53b	0.00017156165
38	0x39b80225	0.00035096813
39	0x398ad3a0	0.00026479084
40	0x3b13fcd0	0.0022581108
41	0x3b00dae5	0.0019661721
42	0x38c770cd	9.51007e-05
43	0x3b577f9e	0.0032882462
44	0x3b499d07	0.0030763762
45	0x3b1ec7fa	0.0024228082
46	0x3983e46d	0.00025156458
47	0x3ba81643	0.005129607
48	0x3ab9045a	0.0014115677
49	0x399fc5fe	0.0003047436
50	0x3a7a93ab	0.00095587474
51	0x381e1c7b	3.769666e-05
52	0x3c42021c	0.011841323
53	0x3b878ce5	0.004136669
54	0x3a9ad749	0.0011813428
55	0x39765e97	0.00023495626
56	0x3b3688c2	0.002785251
57	0x3b6cedb0	0.0036152415
58	0x3c015c14	0.007895488
59	0x3b56ab71	0.0032755996
60	0x38ae18e6	8.301604e-05
61	0x38e076a0	0.00010703248
62	0x3a1a82ce	0.0005894125
63	0x3ab4bc0c	0.0013788952
64	0x3a23cafb	0.0006248203
65	0x39ee18fc	0.00045413512
66	0x3b010207	0.0019685046
67	0x3b77a485	0.003778727
68	0x3a1952e0	0.0005848836
69	0x3a3754d6	0.00069935375
70	0x38387a30	4.3982815e-05
71	0x3b5a6d8c	0.0033329455
72	0x39401f77	0.00018322268
73	0x3aa4cb90	0.0012572873
74	0x39982459	0.0002901878
75	0x3c28c8f8	0.010301821
76	0x39b812f6	0.00035109342
77	0x3a31113e	0.00067545834
78	0x3aace2e7	0.0013190181
79	0x3a1b5ec1	0.00059269
80	0x3a1689c4	0.00057425746
81	0x3af98de1	0.0019039476
82	0x3b5d7e27	0.0033797116
83	0x3be5e820	0.007016197
84	0x3a2b02f0	0.000652357
85	0x3a100954	0.0005494554
86	0x39760e28	0.00023465662
87	0x39858b7f	0.0002547167
88	0x38fa9990	0.00011949532
89	0x3a45c9d5	0.0007545029
90	0x37f702c4	2.9445982e-05
91	0x3961e253	0.00021541984
92	0x3b46550b	0.0030263092
93	0x3ae26b20	0.0017274357
94	0x3902119f	0.0001240433
95	0x38c762a9	9.507436e-05
96	0x36f76a7d	7.3735705e-06
97	0x393d1d51	0.00018035366
98	0x3a22fad1	0.0006217184
99	0x3aff745a	0.0019489632
100	0x39ea32be	0.00044669764
101	0x39ee96a3	0.0004550713
102	0x3a1518bc	0.00056875846
103	0x39742505	0.00023283444
104	0x3a25a266	0.000631845
105	0x3b13792a	0.002250264
106	0x3a990c00	0.001167655
107	0x3a29bd20	0.000647502
108	0x38e5e581	0.00010962319
109	0x38b78287	8.7504326e-05
110	0x3ab7cb81	0.0014022441
111	0x3789d6e9	1.6431748e-05
112	0x38c1ecab	9.24704e-05
113	0x3b11a7ae	0.002222519
114	0x3a92495a	0.0011160776
115	0x3a23e1f9	0.0006251629
116	0x38090fb7	3.267798e-05
117	0x3b0ecdb7	0.0021790096
118	0x38ea0607	0.00011159112
119	0x3ab53e65	0.0013827799
120	0x3b62982d	0.0034575567
121	0x3b9eaa80	0.0048421025
122	0x3b9198d1	0.004443266
123	0x392bbc4c	0.00016377977
124	0x3ac1ed34	0.0014795423
125	0x3ae56e01	0.0017504097
126	0x3973987d	0.00023231092
127	0x384e9ec4	4.926209e-05
