VirtualAquarium/results/VirtualAquariumNew/VirtualAquarium/VirtualAquarium-0.onnx (onnx, 75037 bytes, 7 tensors)

action_model._continuous_distribution.log_sigma f4 [1, 4]
000000 00 00 00 00 00 00 00 00 00 00 00 00 00 00 00 00
       0.0 0.0 0.0 0.0

action_model._continuous_distribution.mu.bias f4 [4]
000000 00 00 00 00 00 00 00 00 00 00 00 00 00 00 00 00
       0.0 0.0 0.0 0.0

action_model._continuous_distribution.mu.weight f4 [4, 128]
000000 8a b1 9a bc 3c 3e c9 bb 33 3c 94 3a 66 9e bd 3c
       -0.018883485 -0.006141452 0.0011309445 0.02314682
000010 1d 35 7b bc c4 cf 44 3c c8 f0 6b 3c 23 29 05 3b
       -0.015332487 0.012012426 0.014400668 0.002031871
000020 97 b1 7e 3c 92 39 50 bc 43 70 a5 bc b7 74 e4 3b
       0.01554527 -0.012709038 -0.020195132 0.0069719213
000030 be 2f 31 3c fb d5 8a bc 5f 97 34 3c 2d bc c5 bc
       0.010814605 -0.016947737 0.011022418 -0.02413758
000040 93 26 4a 3c 23 a6 63 bc cf 40 fe 3b 37 2e 4c 3c
       0.012338298 -0.013894591 0.0077591906 0.01246219
000050 7b 39 14 bd 33 ce b4 bb 96 7e 34 3b 47 84 98 3b
       -0.03618763 -0.005517745 0.0027541271 0.0046544406
000060 9f a7 0f bc 88 b7 f8 bb 6a e0 56 3b ab c0 47 bc
       -0.008767991 -0.007590238 0.003278757 -0.012191932
000070 67 7f 32 3d bf 1c 7d bc 28 59 c4 bb aa 73 e0 3c
       0.04357853 -0.015448748 -0.0059920736 0.027398903
000080 49 c0 09 3d a6 ad 46 3a 8a b0 91 bc 3f d5 17 3c
       0.033630643 0.0007578976 -0.017784376 0.00926715
000090 8d a4 e1 3c da 52 78 bc 93 8e 76 3b 1d 07 4c 3c
       0.027544284 -0.015156472 0.0037621602 0.012452868
0000a0 7f b7 1b 3c 18 11 fa 3c 15 64 73 3b 33 db d8 3c
       0.009504198 0.030525729 0.003713851 0.02647171
0000b0 7b b6 fc bc 8f 7f 05 3b 5e 16 26 bc 8f b4 ee bc
       -0.030848732 0.002037022 -0.010137169 -0.029138831
0000c0 8b de 9b bc b4 77 af bc 5b 49 b9 3c 4a bb 23 3a
       -0.019027015 -0.021419384 0.022617986 0.0006245865
0000d0 1f dd 86 3c ba bd 0b 3c 3f 17 29 3c b7 d0 98 bc
       0.01646286 0.008529121 0.010320484 -0.01865421
0000e0 9f 75 05 3d 1f 6b 88 bb 68 45 f0 3c f0 cb 7d 3c
       0.032582875 -0.0041631605 0.02932997 0.015490517
0000f0 9b 9d 93 bc dd 19 14 3a c0 34 dc bc 8e 64 0d bc
       -0.018019488 0.0005649606 -0.026880622 -0.008629931
000100 47 7f 2f 3d 63 eb c2 3b 49 9d 85 3c 47 23 89 3c
       0.04284599 0.0059484704 0.016310351 0.016740454
000110 ae c6 3b 39 fe 54 85 bc f5 c2 08 3c 3a 68 96 39
       0.00017907724 -0.016275879 0.008347263 0.00028687884
000120 01 1b 83 3b 07 06 1c 3a 38 6e 4c 3c 7d 55 51 bc
       0.004001022 0.0005951826 0.01247745 -0.01277673
000130 c9 9c 18 bc a8 e6 06 bb bb 04 70 bc a2 41 f8 bc
       -0.009314724 -0.002058426 -0.014649565 -0.030304734
000140 e7 17 34 bb dc 59 2e 3c a8 fc fe 3c ca 5f ff 3c
       -0.0027480067 0.010641541 0.031126335 0.031173605
000150 f2 a2 68 3c 65 d0 15 3d 3a 81 da 3c b7 18 c3 3a
       0.014199005 0.036575694 0.026672948 0.0014884685
000160 0b 97 b4 3c fb 29 17 3c 07 84 35 3c 4e e3 1f 3c
       0.02204468 0.0092263175 0.011078841 0.0097587835
000170 23 c8 15 ba ff ba e7 bb 16 7e 2d 3d 10 8c 64 bc
       -0.00057137216 -0.007071852 0.042356573 -0.013949409
000180 4d 8a e7 3b b9 c9 3b bc 5a 6c 64 3b db f4 82 bc
       0.0070660473 -0.011461669 0.0034854622 -0.015985897
000190 ad 3c 2a bc 51 19 88 3c fc 5c 1b bc 43 46 26 39
       -0.010390443 0.016613634 -0.009482618 0.00015857168
0001a0 4a 6d 0b 3d 45 08 b5 bc 4c de 9f bb 47 34 3a 3c
       0.034039773 -0.02209867 -0.004878795 0.011365003
0001b0 bd 74 40 3c b7 e5 90 bb b9 0d 05 3c 55 6d 9a b9
       0.011746583 -0.0044219154 0.0081209475 -0.00029454628
0001c0 03 79 02 bc f9 51 88 3b 52 0c b8 3c 62 ba 90 bb
       -0.007963422 0.0041601625 0.022466812 -0.00441675
0001d0 47 37 57 3d 63 53 99 3c 7b fb 3b 3c 87 55 a4 3c
       0.05254295 0.01871652 0.011473532 0.020060314
0001e0 15 1e 9b bc d3 3f d4 3c 03 a7 e9 bc 53 e3 7f ba
       -0.018935243 0.02590934 -0.02852202 -0.0009761352
0001f0 89 c6 9e 3c 07 0d 6b 3c d6 18 c2 bc c7 ca 91 3a
       0.019381778 0.014346368 -0.023693483 0.0011123054
000200 eb fb dc bb 7a be cf 3b c8 bb 93 bc a7 c8 c6 3b
       -0.006743898 0.0063398452 -0.018033877 0.0060664
000210 52 3d 2b 3b 0f c7 0f bd ff 40 fa ba c1 a1 17 3b
       0.002612908 -0.035101946 -0.0019092857 0.0023137184
000220 45 c5 6b 3c 87 04 74 3c 2d 35 35 bc 53 18 c9 3c
       0.014390294 0.0148936575 -0.011060041 0.024547732
000230 19 b2 17 3c 39 55 a2 bc ae 7e 08 bc 32 08 94 bc
       0.00925877 -0.019816028 -0.008330984 -0.018070314
000240 6c d4 08 bd ff f3 39 3c d5 03 61 3c f3 5b 6d 3c
       -0.033405706 0.011349677 0.013733824 0.014487254
000250 b0 1f 69 bc 5c 4c 04 bc 62 41 52 3b 58 28 ce 3a
       -0.014228746 -0.008074846 0.0032082428 0.0015728576
000260 b3 10 bf 3c 8f c9 c2 bc 4a 80 c7 3c 10 2a 74 bc
       0.023323392 -0.023777751 0.024353165 -0.014902607
000270 dd db e5 3b 36 ec 8a bb bf 1e 4b bc 7f d9 81 3b
       0.007014735 -0.0042395843 -0.012397467 0.003962695
000280 a8 06 14 3d 8b 02 03 3d df 0c 80 3b a9 9e 97 3c
       0.03613916 0.031984847 0.0039077844 0.018508272
000290 c8 c0 9d 3c 95 5e c3 3b bb 89 fb 3c c7 3b d9 ba
       0.019256964 0.005962203 0.030705323 -0.0016573601
0002a0 05 1f c2 3a d3 b0 ac bc b5 5e 86 bb b3 c3 c4 bc
       0.001481027 -0.02108041 -0.0041006454 -0.024019098
0002b0 41 ca 06 3b f1 ed 82 bc 54 42 9f bc 20 5b 7f 3c
       0.002056733 -0.0159826 -0.019440807 0.015585691
0002c0 5d 03 72 3b 35 6d c8 bb fd b5 33 bd 92 af 6e bc
       0.0036928274 -0.006116534 -0.04387473 -0.014568226
0002d0 3c ff 36 3c 95 12 0c 3c 80 b2 72 bc 23 f8 76 bc
       0.011169251 0.008549352 -0.0148130655 -0.015073809
0002e0 23 33 47 3c fd 55 e9 bb 47 da a2 3c ef 72 4c 3b
       0.012158188 -0.0071208463 0.019879473 0.0031196435
0002f0 b0 75 dd 3c 12 1e c1 3b 13 69 30 bb 22 12 5f bb
       0.027033657 0.0058934772 -0.0026918098 -0.0034037908
000300 c7 3b 03 bd 87 dd 24 3b 2e 1d 05 bc 5f 16 f9 bc
       -0.03203943 0.0025156455 -0.008124633 -0.030406175
000310 77 2f 00 bc 43 24 c4 3c be 4b 2d bc 4e a9 bf 3b
       -0.0078238165 0.023943072 -0.01057714 0.00584904
000320 a7 76 8d 3b 8b cf 07 3c f5 21 ef bb 6f ef c3 bc
       0.004317123 0.008289228 -0.007297749 -0.023917882
000330 a3 1e ac bc 55 79 73 3c 3f f3 84 3c 1f 9a ac 3c
       -0.021010702 0.014860471 0.01622927 0.021069584
000340 38 c2 f3 3c a3 66 f6 3b 4a f8 3b 3b 2f e1 4e bc
       0.029755697 0.0075195595 0.0028681927 -0.01262693
000350 75 ab 71 3c 2f 01 18 bc c5 f2 e8 3c 87 2c c3 bb
       0.014750351 -0.009277626 0.028436074 -0.005956236
000360 10 7b e6 bb 94 04 ca bc 2a 08 7b 3c d6 f4 9d 3c
       -0.007033713 -0.024660386 0.015321771 0.019281786
000370 88 b3 e7 39 f3 e7 78 3c ef 72 61 bb 43 70 b2 bb
       0.00044193515 0.01519202 -0.003440078 -0.0054455115
000380 67 8d a4 3b 9b 7f 39 bc dd b8 96 bc 8f 3a 61 bc
       0.0050217393 -0.011321927 -0.018398697 -0.013746872
000390 50 ba 7d 3c 0c 22 35 bc f2 48 7a 3b aa f0 da 3c
       0.015486315 -0.011055481 0.0038190451 0.026726086
0003a0 c3 ed 85 3a e0 66 f2 bc bb 9c f2 bc 70 a3 55 3b
       0.0010217953 -0.02959007 -0.02961575 0.0032598637
0003b0 45 c3 de 3c 6d de 66 bc b8 e8 71 3b f7 69 ac ba
       0.027192721 -0.014091116 0.0036912393 -0.0013154139
0003c0 21 fb 31 bc 5d d4 3f 3c e3 be 06 bd b3 27 17 bc
       -0.010863096 0.011708346 -0.032896888 -0.009225774
0003d0 c5 87 b6 3c 9b 4d 68 bc 38 b0 8a 3b d8 cb 3d 3c
       0.022281537 -0.014178659 0.0042324327 0.011584245
0003e0 eb 31 0e bd 48 b1 42 3c 5d 77 72 bc e8 ab ba 3c
       -0.034715574 0.011883087 -0.014798966 0.02278705
0003f0 7b a3 67 bc ea 07 e9 3a 33 7d 76 3c 21 09 89 3b
       -0.014138098 0.0017778848 0.015044498 0.0041819965

network_body._body_endoder.seq_layers.0.bias f4 [128]
000000 00 00 00 00 00 00 00 00 00 00 00 00 00 00 00 00
       0.0 0.0 0.0 0.0
000010 00 00 00 00 00 00 00 00 00 00 00 00 00 00 00 00
       0.0 0.0 0.0 0.0
000020 00 00 00 00 00 00 00 00 00 00 00 00 00 00 00 00
       0.0 0.0 0.0 0.0
000030 00 00 00 00 00 00 00 00 00 00 00 00 00 00 00 00
       0.0 0.0 0.0 0.0
000040 00 00 00 00 00 00 00 00 00 00 00 00 00 00 00 00
       0.0 0.0 0.0 0.0
000050 00 00 00 00 00 00 00 00 00 00 00 00 00 00 00 00
       0.0 0.0 0.0 0.0
000060 00 00 00 00 00 00 00 00 00 00 00 00 00 00 00 00
       0.0 0.0 0.0 0.0
000070 00 00 00 00 00 00 00 00 00 00 00 00 00 00 00 00
       0.0 0.0 0.0 0.0
000080 00 00 00 00 00 00 00 00 00 00 00 00 00 00 00 00
       0.0 0.0 0.0 0.0
000090 00 00 00 00 00 00 00 00 00 00 00 00 00 00 00 00
       0.0 0.0 0.0 0.0
0000a0 00 00 00 00 00 00 00 00 00 00 00 00 00 00 00 00
       0.0 0.0 0.0 0.0
0000b0 00 00 00 00 00 00 00 00 00 00 00 00 00 00 00 00
       0.0 0.0 0.0 0.0
0000c0 00 00 00 00 00 00 00 00 00 00 00 00 00 00 00 00
       0.0 0.0 0.0 0.0
0000d0 00 00 00 00 00 00 00 00 00 00 00 00 00 00 00 00
       0.0 0.0 0.0 0.0
0000e0 00 00 00 00 00 00 00 00 00 00 00 00 00 00 00 00
       0.0 0.0 0.0 0.0
0000f0 00 00 00 00 00 00 00 00 00 00 00 00 00 00 00 00
       0.0 0.0 0.0 0.0
000100 00 00 00 00 00 00 00 00 00 00 00 00 00 00 00 00
       0.0 0.0 0.0 0.0
000110 00 00 00 00 00 00 00 00 00 00 00 00 00 00 00 00
       0.0 0.0 0.0 0.0
000120 00 00 00 00 00 00 00 00 00 00 00 00 00 00 00 00
       0.0 0.0 0.0 0.0
000130 00 00 00 00 00 00 00 00 00 00 00 00 00 00 00 00
       0.0 0.0 0.0 0.0
000140 00 00 00 00 00 00 00 00 00 00 00 00 00 00 00 00
       0.0 0.0 0.0 0.0
000150 00 00 00 00 00 00 00 00 00 00 00 00 00 00 00 00
       0.0 0.0 0.0 0.0
000160 00 00 00 00 00 00 00 00 00 00 00 00 00 00 00 00
       0.0 0.0 0.0 0.0
000170 00 00 00 00 00 00 00 00 00 00 00 00 00 00 00 00
       0.0 0.0 0.0 0.0
000180 00 00 00 00 00 00 00 00 00 00 00 00 00 00 00 00
       0.0 0.0 0.0 0.0
000190 00 00 00 00 00 00 00 00 00 00 00 00 00 00 00 00
       0.0 0.0 0.0 0.0
0001a0 00 00 00 00 00 00 00 00 00 00 00 00 00 00 00 00
       0.0 0.0 0.0 0.0
0001b0 00 00 00 00 00 00 00 00 00 00 00 00 00 00 00 00
       0.0 0.0 0.0 0.0
0001c0 00 00 00 00 00 00 00 00 00 00 00 00 00 00 00 00
       0.0 0.0 0.0 0.0
0001d0 00 00 00 00 00 00 00 00 00 00 00 00 00 00 00 00
       0.0 0.0 0.0 0.0
0001e0 00 00 00 00 00 00 00 00 00 00 00 00 00 00 00 00
       0.0 0.0 0.0 0.0
0001f0 00 00 00 00 00 00 00 00 00 00 00 00 00 00 00 00
       0.0 0.0 0.0 0.0

network_body._body_endoder.seq_layers.0.weight f4 [128, 9]
000000 52 90 86 3b f3 fa af 3e 23 56 4b 3f b8 51 77 be
       0.00410656 0.34371147 0.7942831 -0.24152267
000010 ab 6b 14 be c8 f6 f0 be a4 95 5b be cc 6a b7 3e
       -0.14494197 -0.4706328 -0.21443802 0.35823667
000020 24 97 94 3e 12 43 fe be 0f 28 ca 3e 5e 98 c8 3d
       0.2902156 -0.49660546 0.39483687 0.09794687
000030 d6 7b 2f be 5f 7b b3 be c0 1d c2 be f4 f8 e2 be
       -0.17137083 -0.35055062 -0.37913322 -0.4433056
000040 ef d5 ef 3e 50 de ad 3e d2 2b d8 be a4 ca 9b 3e
       0.46842906 0.33958673 -0.42220932 0.3042804
000050 03 9c f5 3e 2a bd 4f bc fc 11 e1 3c ca 25 ec be
       0.4797059 -0.012679378 0.027474396 -0.4612258
000060 da 01 c1 bd 4b ec 9a 3e 6f 94 b5 be 22 99 56 bd
       -0.09424181 0.30258402 -0.35464808 -0.052392133
000070 83 98 1f be 66 e8 a4 bd 80 58 eb be c3 91 04 3f
       -0.15585522 -0.08052139 -0.45965958 0.51784915
000080 af 03 c9 bc 09 3c 99 bd 74 16 40 bd 1a 2d 76 3c
       -0.02453789 -0.07482154 -0.046896413 0.0150254015
000090 42 8e 89 be 40 0c 08 3f a8 18 c1 be b0 9d 44 3e
       -0.26866347 0.5314369 -0.37714124 0.19200778
0000a0 a7 10 00 be 4c de 7a be 42 0e 82 bf 88 f6 a6 bd
       -0.12506352 -0.24498862 -1.0160601 -0.08152491
0000b0 50 6e 78 3d db 9e da 3d e8 13 42 3f cd 3a a4 be
       0.060652077 0.106748305 0.75811625 -0.3207611
0000c0 79 6b 16 be de 83 1f 3f cb 49 b2 3e 8c 5e 84 be
       -0.14689435 0.6231059 0.34821925 -0.25853384
0000d0 72 9a 58 be dc b6 ab be b4 1f ab 3e d7 35 0c bd
       -0.21152666 -0.33537948 0.33422625 -0.034231033
0000e0 d7 c0 64 3e 00 89 11 be d0 4d 91 bf 76 12 10 3a
       0.22339188 -0.14212418 -1.1351871 0.0005495915
0000f0 ee 5b 8c 3e 8a d6 2f 3e 93 ad ab 3e 94 dd 44 bd
       0.27413887 0.17171684 0.33530864 -0.048062876
000100 0f c5 5e 3e 0f a6 76 be 8c 74 e6 3e 7e 38 23 3e
       0.2175486 -0.24086784 0.45010793 0.15939519
000110 56 0d d4 bd 3f b0 81 be b8 5f 63 be 83 94 a5 3e
       -0.10354106 -0.25329778 -0.22204483 0.32339868
000120 df ab 2e be b0 e9 aa be 9b c2 de 3e a5 da 84 bf
       -0.17057751 -0.33381414 0.43507847 -1.0379225
000130 bf fd 45 bf f7 7a 32 bf fe db 51 be cf 0d 23 be
       -0.7734031 -0.6971888 -0.20494077 -0.15923236
000140 e0 e4 3b 3e 0e f5 95 3e de 8e 20 3f 96 06 33 be
       0.18349028 0.29288524 0.62718 -0.17482981
000150 56 19 65 3e ea a9 5c bd a7 26 ba be 27 7b 8d be
       0.22372946 -0.05387298 -0.36357614 -0.2763302
000160 4b 7b 4e 3d 2a e2 9b be 6a df 9d 3d 88 4c 80 be
       0.05041055 -0.30445987 0.077086285 -0.2505839
000170 3f 3c b3 bd 5a d9 32 3d 5b 08 98 be 62 f0 ec bd
       -0.087517254 0.043664314 -0.29693875 -0.11569287
000180 c2 4a 7e be 44 e1 f6 bd 47 c8 b7 3e 00 20 7a be
       -0.24833205 -0.12054685 0.35894987 -0.2442627
000190 b3 74 20 be aa 01 6e be 23 45 c3 3c cc 66 d1 bd
       -0.15669517 -0.23242822 0.023836678 -0.10224685
0001a0 c6 27 fb 3e 06 fe 2d 3d 87 16 eb 3c f3 32 01 bf
       0.49053782 0.042478584 0.028697265 -0.5046837
0001b0 0c c8 05 bf fb db 32 bd 24 2e 04 3f f0 06 59 bb
       -0.5225837 -0.04366682 0.51632905 -0.0033115707
0001c0 a3 c9 e5 3c 8a b4 41 be e6 fc af 3d 2c 1e a4 3e
       0.02805025 -0.18916526 0.085931584 0.3205427
0001d0 d3 9d c3 be 17 6a 26 be 52 df 3b 3d 08 32 d5 be
       -0.38206348 -0.16251408 0.04586727 -0.41639733
0001e0 8e eb 69 3d d8 c0 19 bf 84 c3 c6 3c ac da 8f 3d
       0.057109408 -0.6005988 0.024263151 0.0702413
0001f0 7a 62 0c be 52 a9 5d 3d f0 aa 91 3e e7 9e 1a 3d
       -0.13709441 0.054116555 0.28450727 0.037749197
000200 0b da 6c bd e6 15 2b be 64 8b 22 3e 4f f2 1b 3e
       -0.05782513 -0.16707572 0.15873486 0.15229152
000210 e3 de 5c 3f a2 00 34 be ac 4a 0f be 0b 69 e2 be
       0.862776 -0.17578366 -0.13993329 -0.44220766
000220 8f 85 31 be ac da b3 3e 06 12 c3 bd 4f 2a 1b be
       -0.17336105 0.3512777 -0.09524922 -0.15152858
000230 1a a6 b1 bc 7c 71 15 3d 9d 84 1f 3f 5a 4f aa 3e
       -0.021685649 0.03648518 0.62311727 0.33263665
000240 4e f8 9e 3c 8c 87 a0 3b 74 64 2a be 2a 7b 44 be
       0.01940551 0.004898971 -0.16639882 -0.19187608
000250 0e e1 1f be ce d0 b8 be 37 53 9d bd 74 be 6f 3e
       -0.15613195 -0.36096805 -0.076818876 0.23412496
000260 9e 7a 20 3e 27 14 4e 3d e8 05 6a 3e 16 a5 58 be
       0.15671775 0.050312188 0.22853816 -0.21156725
000270 20 9e fe 3d 25 af 9a bd ea 8e c1 be c3 40 c1 bd
       0.12432504 -0.075529374 -0.37804347 -0.094361804
000280 06 c7 7e bf 3f 10 4e 3e d4 55 b1 3d fa e8 5a bf
       -0.99522436 0.20123385 0.086589485 -0.85511744
000290 1a dc 76 be c4 46 cc 3e f6 9f 08 3f 2a 6f c9 bd
       -0.241074 0.3989774 0.5336908 -0.09835656
0002a0 66 00 d7 bc 12 07 a3 bd 1c 39 01 bf 14 e3 ff be
       -0.026245307 -0.07960333 -0.50477767 -0.49977934
0002b0 f8 89 b6 3d e5 f9 03 3e 58 ff 9c be be d6 aa 3d
       0.08913034 0.12888296 -0.30663562 0.0834174
0002c0 95 a4 82 be 5c a6 e8 3e 90 f0 8d be e0 82 9b be
       -0.2551619 0.45439422 -0.27722597 -0.30373287
0002d0 14 4d fb 3d 7c 75 13 bd 74 b1 38 bf 0c 70 82 3e
       0.12270561 -0.036000714 -0.7214577 0.2547611
0002e0 33 36 58 be 16 ac ec bd bf 1f 57 3e 28 39 90 be
       -0.21114425 -0.1155626 0.21008204 -0.28168607
0002f0 db a6 34 be 88 ae d4 3e f1 9c 9e bd 6a a6 fe be
       -0.17641775 0.41539407 -0.07744778 -0.4973634
000300 8a 09 10 3f 84 09 fe be 4e ca 57 bd 70 0c 05 bc
       0.56264555 -0.49616635 -0.052683167 -0.008120641
000310 fd 19 9b be 26 c3 07 3d b7 52 03 3f 12 73 7b be
       -0.30293265 0.033145092 0.5129809 -0.24555615
000320 67 62 b1 3c 0f cc 12 3e f9 ce 1e 3f 66 6b 9d be
       0.021653367 0.14335655 0.62034565 -0.30746
000330 c3 ce 84 be 00 6e 4a be 07 db c6 bb 68 8f d5 3e
       -0.25938997 -0.19768524 -0.0060685906 0.41710973
000340 6c 3e d0 bd 14 1e 81 bc 7b 9a d4 bc 65 ec 1b 3e
       -0.10168156 -0.015761413 -0.025952568 0.15226896
000350 3d 0f 88 3d 38 1a 94 be b2 e9 ff be 92 ed 34 3e
       0.066435315 -0.28926253 -0.49982983 0.17668751
000360 7a d2 8e be a8 6a 88 3b 7c 4e a6 3d 2e f9 2f bd
       -0.27894956 0.004163105 0.081204385 -0.042962246
000370 5f 37 e2 bd b6 63 1b be bb e2 90 3d 13 cf fb 3d
       -0.110457174 -0.15174755 0.070744954 0.12295356
000380 88 2a 19 3e 71 d7 22 3f 08 34 37 3d 0e 98 2c 3e
       0.1495763 0.6360999 0.044727355 0.1685488
000390 46 3b 09 be 60 ca 48 be 22 3e 4f 3e 54 c9 bf 3d
       -0.13401517 -0.1960845 0.20238546 0.09364572
0003a0 c4 c4 3c 3e c8 f4 b4 3e 18 21 28 3c cf 7c 54 be
       0.18434435 0.35343003 0.010261796 -0.20750736
0003b0 fe 54 c3 bc 23 8b 05 3f 52 d9 26 be 47 bf f7 be
       -0.023844238 0.5216543 -0.16293839 -0.4838812
0003c0 44 49 40 be ab c9 b4 be bc b3 2e bf 72 4c 9c 3e
       -0.18777949 -0.3531011 -0.68243 0.30527073
0003d0 ac 37 e3 bb 6f 88 9c 3e 0a 6d 9c 3e 66 b9 81 be
       -0.006934127 0.3057284 0.3055194 -0.2533676
0003e0 fe 89 34 3d 97 dd d8 be 60 ee 2b 3f b7 6e cf be
       0.044076912 -0.4235656 0.67160606 -0.40514156
0003f0 0a 6f 89 3f 0e bb c1 3d 6a ff 07 bf 32 43 8e 3e
       1.0737011 0.09459506 -0.53124106 0.2778564

network_body._body_endoder.seq_layers.2.bias f4 [128]
000000 00 00 00 00 00 00 00 00 00 00 00 00 00 00 00 00
       0.0 0.0 0.0 0.0
000010 00 00 00 00 00 00 00 00 00 00 00 00 00 00 00 00
       0.0 0.0 0.0 0.0
000020 00 00 00 00 00 00 00 00 00 00 00 00 00 00 00 00
       0.0 0.0 0.0 0.0
000030 00 00 00 00 00 00 00 00 00 00 00 00 00 00 00 00
       0.0 0.0 0.0 0.0
000040 00 00 00 00 00 00 00 00 00 00 00 00 00 00 00 00
       0.0 0.0 0.0 0.0
000050 00 00 00 00 00 00 00 00 00 00 00 00 00 00 00 00
       0.0 0.0 0.0 0.0
000060 00 00 00 00 00 00 00 00 00 00 00 00 00 00 00 00
       0.0 0.0 0.0 0.0
000070 00 00 00 00 00 00 00 00 00 00 00 00 00 00 00 00
       0.0 0.0 0.0 0.0
000080 00 00 00 00 00 00 00 00 00 00 00 00 00 00 00 00
       0.0 0.0 0.0 0.0
000090 00 00 00 00 00 00 00 00 00 00 00 00 00 00 00 00
       0.0 0.0 0.0 0.0
0000a0 00 00 00 00 00 00 00 00 00 00 00 00 00 00 00 00
       0.0 0.0 0.0 0.0
0000b0 00 00 00 00 00 00 00 00 00 00 00 00 00 00 00 00
       0.0 0.0 0.0 0.0
0000c0 00 00 00 00 00 00 00 00 00 00 00 00 00 00 00 00
       0.0 0.0 0.0 0.0
0000d0 00 00 00 00 00 00 00 00 00 00 00 00 00 00 00 00
       0.0 0.0 0.0 0.0
0000e0 00 00 00 00 00 00 00 00 00 00 00 00 00 00 00 00
       0.0 0.0 0.0 0.0
0000f0 00 00 00 00 00 00 00 00 00 00 00 00 00 00 00 00
       0.0 0.0 0.0 0.0
000100 00 00 00 00 00 00 00 00 00 00 00 00 00 00 00 00
       0.0 0.0 0.0 0.0
000110 00 00 00 00 00 00 00 00 00 00 00 00 00 00 00 00
       0.0 0.0 0.0 0.0
000120 00 00 00 00 00 00 00 00 00 00 00 00 00 00 00 00
       0.0 0.0 0.0 0.0
000130 00 00 00 00 00 00 00 00 00 00 00 00 00 00 00 00
       0.0 0.0 0.0 0.0
000140 00 00 00 00 00 00 00 00 00 00 00 00 00 00 00 00
       0.0 0.0 0.0 0.0
000150 00 00 00 00 00 00 00 00 00 00 00 00 00 00 00 00
       0.0 0.0 0.0 0.0
000160 00 00 00 00 00 00 00 00 00 00 00 00 00 00 00 00
       0.0 0.0 0.0 0.0
000170 00 00 00 00 00 00 00 00 00 00 00 00 00 00 00 00
       0.0 0.0 0.0 0.0
000180 00 00 00 00 00 00 00 00 00 00 00 00 00 00 00 00
       0.0 0.0 0.0 0.0
000190 00 00 00 00 00 00 00 00 00 00 00 00 00 00 00 00
       0.0 0.0 0.0 0.0
0001a0 00 00 00 00 00 00 00 00 00 00 00 00 00 00 00 00
       0.0 0.0 0.0 0.0
0001b0 00 00 00 00 00 00 00 00 00 00 00 00 00 00 00 00
       0.0 0.0 0.0 0.0
0001c0 00 00 00 00 00 00 00 00 00 00 00 00 00 00 00 00
       0.0 0.0 0.0 0.0
0001d0 00 00 00 00 00 00 00 00 00 00 00 00 00 00 00 00
       0.0 0.0 0.0 0.0
0001e0 00 00 00 00 00 00 00 00 00 00 00 00 00 00 00 00
       0.0 0.0 0.0 0.0
0001f0 00 00 00 00 00 00 00 00 00 00 00 00 00 00 00 00
       0.0 0.0 0.0 0.0

network_body._body_endoder.seq_layers.2.weight f4 [128, 128]
000000 6e b7 e4 bc 72 37 4b 3e 1a d1 d9 3d a2 5b ac 3c
       -0.027919497 0.1984537 0.10635586 0.021039788
000010 e9 88 87 bc ec 06 36 bc ae 36 99 3d 5f e2 42 be
       -0.016544776 -0.011110049 0.074811324 -0.19031666
000020 8c a8 85 3d 80 bc fa bd 36 61 2a bc 97 ad aa 3c
       0.065262884 -0.12242985 -0.010399153 0.020834727
000030 5e df 69 3e 37 80 24 3d e7 8a 89 3d 31 5c 69 bd
       0.22839114 0.040161338 0.06715947 -0.056972686
000040 5e 4b b6 bc c9 1c 6d bd 13 60 33 3e d1 03 df 3d
       -0.022252735 -0.05788878 0.17517118 0.108894
000050 77 30 a6 bc 1b 4a 9b 3d 74 6e 04 3e 4c e1 fa bd
       -0.020286782 0.07582494 0.1293276 -0.12250003
000060 3a bf b6 bd cd af 03 bc 74 05 bb 3c 42 4c 11 3e
       -0.08923192 -0.00803752 0.022829749 0.14189246
000070 c4 9f 57 bd 25 3a b9 3c b0 4f ef 3d af 68 af 3c
       -0.0526426 0.022610733 0.11685121 0.021412222
000080 17 46 58 3d 9b 3a c6 bc dc b0 a8 3d 33 72 86 bd
       0.052801218 -0.024197867 0.08236858 -0.065647505
000090 9f d7 02 bb 57 55 83 3c 15 42 b6 bd b0 12 88 bd
       -0.0019964946 0.016031904 -0.08899323 -0.06644189
0000a0 c8 e6 9e 3d 58 2f cc 3d 9e b5 78 bd 65 3a 05 be
       0.07758862 0.099699676 -0.06072008 -0.13010557
0000b0 44 dd 95 bd b6 f5 3f 3b 74 b4 6a be 60 24 e6 3d
       -0.07317594 0.0029290742 -0.229204 0.11237407
0000c0 80 05 a8 3d b5 84 7d bd 4a fa f2 3c 08 97 95 bd
       0.08204174 -0.061894137 0.029660363 -0.073041975
0000d0 bf 69 db bc bb da 0d be 82 8b 3e bd 86 45 54 bb
       -0.026783822 -0.1385297 -0.046519764 -0.0032390072
0000e0 2f 56 11 be 71 a1 66 bd 27 3e 82 bd 86 fd ff 3a
       -0.14193033 -0.056306306 -0.06359511 0.0019530512
0000f0 4b ad d6 bc 78 43 92 bd 08 7b 75 bd 20 ab d0 bc
       -0.02620568 -0.07141775 -0.059931785 -0.025472224
000100 8d 5b d2 3c c0 49 17 bb a5 c5 80 bc b8 fd 93 bd
       0.02567842 -0.002308473 -0.015719244 -0.072261274
000110 21 f4 fc 3d e7 ce 91 3c f2 29 2f be 90 21 59 bd
       0.123512514 0.017798854 -0.17105845 -0.053010523
000120 44 8a 2c bd 4a 8a dc bd 79 1c 8d 3c b7 79 8d bc
       -0.042124048 -0.10768564 0.01722549 -0.017269952
000130 b7 1d 29 bc 80 d5 21 bc ab 5e 5e bd 38 40 72 bd
       -0.010322026 -0.0098775625 -0.0542895 -0.059143275
000140 a7 d8 ff 3c d0 b7 22 3d 61 af 01 3e ac 99 94 3d
       0.031231238 0.03972608 0.12664558 0.07255873
000150 37 8e 30 3e a4 49 75 bd 7b 86 2a bd 35 da b4 b6
       0.1724175 -0.059884682 -0.041632157 -5.3898207e-06
000160 e3 c4 6c 3d be e5 05 bd d1 95 fb bc 0b 0c 17 3e
       0.057804953 -0.032689802 -0.030711086 0.14750688
000170 89 bb 9e 3d e3 a5 57 be d3 8a 57 bc 97 d9 3d 3c
       0.07750613 -0.21059375 -0.013155657 0.011587522
000180 1f 7f 1c bd 77 c8 a3 bd c2 83 0f bd 7b be 0b 3d
       -0.03820717 -0.0799722 -0.035037763 0.034117203
000190 83 dd c5 bc 7b d6 03 3d 22 86 33 bd 2f 74 e5 bd
       -0.024153477 0.032186966 -0.04382909 -0.11203801
0001a0 37 98 6d bd ff fb 20 be 84 f8 55 be 49 d2 1a 3e
       -0.05800649 -0.15721129 -0.20895582 0.1511928
0001b0 95 9d bf 3d f3 28 3d 3d 3c c4 60 bb ca 31 22 bd
       0.09356228 0.04618163 -0.0034296652 -0.039598264
0001c0 c2 c4 db bc da 98 bc 3d 23 ec 02 be b4 a0 d4 bd
       -0.02682722 0.092088416 -0.12785392 -0.10382214
0001d0 3c 94 bf 3d 2a 46 ef 3d 27 d5 80 bd c3 19 fc bc
       0.09354445 0.116833046 -0.062906556 -0.030774003
0001e0 b3 68 a5 bd f1 32 17 be b5 a6 96 bd 6a a1 9d bd
       -0.080766104 -0.14765526 -0.073560156 -0.07696803
0001f0 d4 6e f9 3b 87 d9 06 bc c5 c5 cc 3d 73 4e 48 bc
       0.0076120887 -0.0082305735 0.09998659 -0.012225735
000200 22 45 fe bd cd d1 60 bd 65 7f 1a bc 3f ad 6d 3d
       -0.1241553 -0.05488758 -0.009429787 0.05802655
000210 f9 e4 ef 3d 6a df 7a bc ef 39 9a 3d 82 66 98 bd
       0.11713595 -0.015312055 0.07530581 -0.07441427
000220 c5 f4 b0 3d 28 ce 23 bc 13 9e 1e ba fa a3 f6 3c
       0.08640436 -0.009997882 -0.00060507766 0.030107487
000230 e9 50 a0 3c 51 79 f2 3d bc f8 b6 bb 50 75 a2 3d
       0.019569831 0.118395455 -0.0055838507 0.07932532
000240 7a d7 c1 bd 04 25 6c 3d ba 7f 8c bb e9 b3 54 3c
       -0.09464927 0.05765249 -0.004287687 0.012982347
000250 7b 9b cf 3c 22 23 03 bd 9d aa 99 3c 07 6e db bd
       0.025342694 -0.032015927 0.018758113 -0.107143454
000260 c7 e6 86 bb c0 8b 9c 3d d3 63 47 bd a8 9e 82 bc
       -0.0041168663 0.07643843 -0.048679184 -0.015944794
000270 52 f9 5d bc 94 2e db 3d 45 0d df bd c9 eb 92 3d
       -0.013548212 0.107022434 -0.10891203 0.07173879
000280 e6 6a 4c 3d 96 9a 8b 3c 6b d8 19 3e 19 14 2c be
       0.049906634 0.017041486 0.15023963 -0.16804542
000290 e8 85 c9 3d f2 e8 52 bd 81 bc 11 be fb 42 74 3c
       0.09839994 -0.051491685 -0.14232065 0.0149085475
0002a0 5d 0d 8a 3b c5 41 6a 3c 56 a0 cb bc b2 8e aa 3c
       0.004213019 0.014297907 -0.024856728 0.020819996
0002b0 ba eb 24 bd 45 3b c8 39 c0 5b b2 3d 9c ab 80 bc
       -0.04026387 0.00038191132 0.08708906 -0.01570683
0002c0 f1 af b7 bc 9d c0 aa bc fc c1 f2 ba e7 5d 2f 3d
       -0.022422763 -0.020843798 -0.0018520947 0.04281416
0002d0 ad f9 dc 3c 1f 5c 4a 3d 3b 01 7e bd af 2b e7 bb
       0.026974523 0.04940426 -0.062012892 -0.007054768
0002e0 d1 fb 08 bc da 6b 63 bd be 6e 0e 3e 8f ed c9 3c
       -0.008360819 -0.055522777 0.13909432 0.02464941
0002f0 16 19 51 bd 4f 6e 38 bd 7f 56 f8 bd c3 f1 ec 3c
       -0.051049314 -0.045027073 -0.12125873 0.028923875
000300 42 11 fb 3d 47 82 05 be 83 d1 ad 3d a5 f4 2a 3d
       0.12259151 -0.13037978 0.08487227 0.041737217
000310 81 42 87 bd 9e f5 7a bd 18 ae 7f 3d bb a5 0b 3e
       -0.066044815 -0.061269395 0.062421888 0.1363744
000320 e0 81 b5 3d 3c 27 fb 3d 5a 1d 19 be 74 52 ab 3d
       0.08862662 0.12263343 -0.14952603 0.08365336
000330 42 d4 6f bd 02 1f bd bd 17 bd b0 3d de 57 d9 bd
       -0.058552034 -0.0923443 0.08629816 -0.106124625
000340 c7 58 ee 3d fd 03 1d 3e 51 d3 9d bd 95 9d 85 3c
       0.11638027 0.15333553 -0.07706321 0.016310493
000350 ea 18 e2 3d ff 2d ae 3c 97 d8 f6 bc ed 4a 31 3b
       0.11039908 0.021262167 -0.030132575 0.0027052716
000360 04 76 17 bd 4e 49 42 3d ad 17 37 3c c9 01 d3 bd
       -0.036977783 0.04743319 0.011175078 -0.10303075
000370 f2 68 e1 3d 97 49 d5 3d 8c a1 83 3d 29 5a 75 bd
       0.11006345 0.10414427 0.06427297 -0.059900437
000380 2f d6 68 be 4e ea c9 bc 35 8b df bd b2 00 44 3b
       -0.22737955 -0.024647858 -0.109152235 0.002990764
000390 f5 05 d4 3d 5e ae 1b be 9c e0 59 3d 75 43 1b 3d
       0.10352699 -0.15203235 0.05319272 0.03790613
0003a0 3e 79 30 be 9a 26 1e 3d 70 03 0d be 7c d9 a4 bc
       -0.1723375 0.038611032 -0.13770843 -0.020123236
0003b0 c7 2d 79 bd 90 57 2c bd 95 fa e6 3c ec ea 34 bd
       -0.060834672 -0.042075694 0.028195659 -0.04416935
0003c0 21 08 7e 3d 05 ba a0 bd 23 c9 db bd 25 58 ef 3d
       0.06201947 -0.078479804 -0.10731723 0.11686734
0003d0 6e 1d 7e bd 77 f3 09 3e cb 86 90 3d a2 9c 8c bd
       -0.062039785 0.1347178 0.0705696 -0.06865813
0003e0 15 cd ec bd f8 47 95 3b bb 04 67 3d 44 89 ab 3d
       -0.11562554 0.0045556985 0.056400996 0.08375791
0003f0 bc 80 b0 3c 17 1b 87 3d 17 66 bb bc 72 d5 d8 bd
       0.02154576 0.06596964 -0.022875829 -0.105875865
