VirtualAquarium/results/VirtualAquariumNew/VirtualAquarium/VirtualAquarium-2128.pt (torch, 451487 bytes, 36 tensors)

network_body._body_endoder.seq_layers.0.weight f4 [128, 9]
000000 76 ad 11 3d e3 2e a2 3e de 01 13 be 98 b1 90 3e
       0.035565816 0.31676397 -0.14356181 0.28260493
000010 bc 68 94 3d 7c 2a 48 3e 9f f1 86 be 37 c3 6f 3a
       0.07246539 0.19547457 -0.26356217 0.0009146216
000020 cb ee 1a bf 02 07 4b 3c f0 97 8b 3e 80 8d 1b 3f
       -0.6052062 0.0123918075 0.27264357 0.60762787
000030 2c d0 97 be 54 3d 57 3e 9b c7 65 3d 89 f2 96 3d
       -0.2965101 0.21019489 0.05609856 0.07370479
000040 cf 3f 17 bf 88 c0 85 3e 32 68 63 3f 41 ae c1 3d
       -0.5908174 0.26123452 0.88830864 0.094570644
000050 57 be 3c 3f c4 07 15 be d8 da 9e be e8 b3 4d 3e
       0.73727936 -0.14553744 -0.3102634 0.2008816
000060 90 a3 eb bc 07 92 f8 bd 17 f2 4b 3e 65 b5 28 be
       -0.028764516 -0.121372275 0.19916569 -0.16475447
000070 f3 ae 07 3f ae 7c e7 bd e9 8d 1b be f1 7c 6d 3d
       0.53001326 -0.11303078 -0.15190853 0.05798048
000080 c4 de 0f bf cc a0 bd 3e bc bb 17 be 70 05 23 bf
       -0.5619929 0.3703674 -0.14817709 -0.6368017
000090 39 ed 07 3e 91 34 84 be 80 42 38 3e 32 8c 80 3e
       0.13274087 -0.25821355 0.17994118 0.2510696
0000a0 97 5e 2b bf d8 37 d9 be e6 2c bb 3d cb 90 1f 3e
       -0.6694121 -0.42425418 0.09139423 0.15582578
0000b0 ef 63 5b be 9a 35 1d be 14 5e 54 be 9f 74 5b 3e
       -0.2142484 -0.15352479 -0.20739013 0.21431206
0000c0 da 42 d2 be aa a1 f1 be 66 a4 ba 3d 41 bc 07 bf
       -0.4106663 -0.47193652 0.09113388 -0.5302163
0000d0 fe 1f d7 bd 40 5f 91 bd 36 ed 5d 3e 69 f2 96 be
       -0.10504149 -0.070982456 0.2167252 -0.2948182
0000e0 75 74 fa 3e 05 9f d9 3e e8 c7 78 be ce 7a 1d 3f
       0.48916975 0.42504135 -0.24295008 0.6151551
0000f0 6c ba 52 be 9e 9a 5e 3d 76 32 b6 bd 91 56 26 bd
       -0.20578927 0.054346673 -0.088963434 -0.0406099
000100 3b d8 04 bf 6e f9 cf 3d 65 cf 08 3e bd f1 3c 3e
       -0.5189244 0.10154997 0.13360365 0.18451591
000110 ff 41 26 3d b8 37 aa be a3 a9 0b 3e 8c 71 22 bd
       0.040590283 -0.33245635 0.1363893 -0.039659068
000120 d2 29 05 3f 16 20 20 3f 55 af c4 bd 9d 65 0a bd
       0.5201694 0.6254896 -0.096037544 -0.033788312
000130 0d 46 97 be 44 78 80 3c 57 5c 5c be 03 5b fe bc
       -0.29545632 0.015682347 -0.215196 -0.031049257
000140 9d c3 96 be 84 82 72 bd a3 30 80 3e 09 7b 40 bf
       -0.29446116 -0.0592065 0.25037107 -0.75187737
000150 72 ee 00 3f 29 04 26 bf c6 94 42 3f 77 4e 9b 3e
       0.5036384 -0.648501 0.7600826 0.303333
000160 e9 9a 9d bd 62 dd cb 3d 20 36 7b 3f 10 05 93 bd
       -0.076955624 0.09954335 0.98129463 -0.071787
000170 9d 6f 8a 3d 28 7f 30 be 62 d3 c4 3e 72 c9 25 3e
       0.0675957 -0.17236006 0.38442522 0.16190127
000180 5e 7a d7 be 3c f4 ec bd 67 e4 c7 3d 2b bc 5a be
       -0.42085546 -0.115700215 0.09760361 -0.21360843
000190 d5 43 1f 3e 04 c8 b7 bd 54 1f cb 3e 9b 20 aa bb
       0.1555322 -0.08973697 0.3967234 -0.005191875
0001a0 d4 ee eb bd 9f 2f 23 bf d4 53 d2 3e ab 91 3f be
       -0.11520162 -0.6374454 0.4107958 -0.18707912
0001b0 d0 9a c1 be 76 b8 b3 be 2a 25 dc be 5d 56 9c 3e
       -0.37813425 -0.3510167 -0.42997104 0.3053464
0001c0 fb 0a ea 3c c1 97 c9 be 22 b8 e4 bd 24 7e 1f be
       0.028569689 -0.39373592 -0.11167933 -0.15575463
0001d0 2c 3f bf 3e ef c0 d2 be 5a 80 a6 bd 83 c3 d0 be
       0.37352884 -0.41162822 -0.0812995 -0.40774164
0001e0 92 46 79 3d cf e9 09 3f 97 2e dc 3c 0c 49 12 bf
       0.060858317 0.5387239 0.026877685 -0.5714271
0001f0 44 f9 94 3e 0e 15 fd 3d 6e 7b 43 3f 06 22 47 3c
       0.29096425 0.123575315 0.76360214 0.012154108
000200 d6 c9 c4 39 a1 c7 96 3c 68 36 54 be e4 55 91 be
       0.00037534413 0.018405737 -0.2072388 -0.28385842
000210 a7 64 74 3e 7a 06 4e 3b 54 8c 06 be 96 df 86 3d
       0.23866521 0.0031436966 -0.13139468 0.065856144
000220 c1 5a 0c bf 48 47 13 3f 50 a9 9e bc 19 4b 65 bd
       -0.5482598 0.5753064 -0.019367844 -0.05597982
000230 e7 4d 4f be 52 de 9e be e4 32 e7 3d 1c e4 15 3f
       -0.20244561 -0.31028992 0.112890035 0.5855119
000240 dc 39 8a bd 1e 05 2b 3f 10 ec 29 3e 08 a6 c7 bd
       -0.06749317 0.66804683 0.16593957 -0.09748465
000250 4f c6 29 3e 41 23 1e bd 36 b9 73 bd 96 4f 11 be
       0.16579555 -0.03860784 -0.059502803 -0.14190516
000260 a0 4e d3 be 9d a9 09 3f 88 f0 d8 be 19 31 14 bf
       -0.41270924 0.53774434 -0.4237101 -0.5788742
000270 89 14 d9 3d 7d 4f ba 3d 4a 5f 00 be 93 1b a7 be
       0.1059962 0.090971924 -0.1253635 -0.32638225
000280 bb f8 bb bc 1c a4 e1 3d ee 36 4d 3e 5b 9f c9 be
       -0.022945752 0.110176295 0.20040485 -0.3937939
000290 df 9f 14 bf c8 58 64 3f 2e f7 f8 3e 74 90 6d be
       -0.58056444 0.8919797 0.48626083 -0.23199636
0002a0 b7 3f 5c be 73 83 ff bd 38 5d a8 bd 75 dc fc bd
       -0.2150868 -0.12476244 -0.08220905 -0.12346736
0002b0 af f2 95 be 5b 6f 38 bc 2e ab b4 be 0d ef b7 3e
       -0.29286715 -0.011257018 -0.3528685 0.3592457
0002c0 13 fc f8 3e 4c 8c 0d bb 7e 13 cf bd 7a 94 06 3f
       0.48629817 -0.0021598516 -0.1011114 0.5257031
0002d0 a7 d6 98 3d c8 1e a0 3d 0d 3d 92 3e fb a1 dd be
       0.07462817 0.07818371 0.28562203 -0.43287644
0002e0 55 14 b9 bd 59 67 82 3c 4b 28 b6 3e c0 63 90 3e
       -0.09037081 0.01591842 0.35577616 0.28201103
0002f0 46 e1 69 3e 7a 81 c3 3d 08 b3 e6 3e eb ee e3 3e
       0.22839841 0.0954618 0.45058465 0.44518217
000300 16 5c cc 3e e8 61 c4 3d f9 87 83 3e 46 03 03 bf
       0.39914006 0.09588987 0.25689676 -0.5117687
000310 df fc cb bd c2 ac db bd 56 72 b5 3d d9 a9 07 3f
       -0.09960341 -0.1072631 0.088596985 0.5299354
000320 fb 93 b5 be 44 b6 7a be de bd aa be d6 48 2e bf
       -0.35464463 -0.24483591 -0.33347982 -0.6807989
000330 5f e3 cc be 87 c7 c4 be fa 3b 7e 3e 9d 9b b5 3e
       -0.4001722 -0.38433477 0.24827567 0.35470286
000340 e2 c4 da 3d 9c b6 4e bd 8f b7 b3 bd 70 86 c5 3e
       0.10682084 -0.05046712 -0.087752454 0.3857913
000350 cb 5e ca 3e e0 68 34 be 90 ab 83 bd 50 ae fa 3d
       0.39525446 -0.17618132 -0.06429207 0.12240279
000360 9a d5 5b 3e bd 8b 94 be c2 3b 1f 3e b8 9d 07 3f
       0.21468201 -0.29012862 0.1555014 0.52975035
000370 d1 1f 3c be 84 14 32 3d 2c 84 aa 3e 30 d2 81 be
       -0.18371512 0.043476596 0.33303964 -0.25355673
000380 d0 46 c2 3d 02 ec 98 3d 15 e9 9c be 7f 73 20 bf
       0.09486163 0.0746689 -0.30646577 -0.62676233
000390 7b d2 06 be f5 67 a5 3d 37 ad 5a 3e 9d 32 a3 be
       -0.1316623 0.08076469 0.21355139 -0.31874552
0003a0 d7 8c 08 3e ec 08 53 3e 49 2d d6 3e 53 47 2a bf
       0.13334976 0.20608872 0.41831425 -0.6651508
0003b0 9b e2 d3 be f1 19 7a 3e c2 89 f0 bd 0c 9e bc be
       -0.41383824 0.24423958 -0.11745025 -0.3683933
0003c0 3c 83 81 3e 3a 50 39 3f 14 37 a6 3e 51 aa 30 bd
       0.25295436 0.7238804 0.32463896 -0.043131176
0003d0 e9 a9 82 bd 8b 28 af 3e c7 e0 95 3d ab 2b 34 be
       -0.06380064 0.3421062 0.073182635 -0.17594783
0003e0 45 c8 2f bc 20 77 28 3d 86 19 f1 be 67 bd 8f 3e
       -0.0107289 0.04112923 -0.47089785 0.2807419
0003f0 f1 98 58 be 10 c8 88 3e 0e f0 b7 3d db 54 92 3e
       -0.21152093 0.26715136 0.08981334 0.28580365

network_body._body_endoder.seq_layers.0.bias f4 [128]
000000 b7 d4 4e bc bb 4e c4 bb e0 78 bc 3b 50 19 5e 3c
       -0.012623957 -0.0059908307 0.005751714 0.01355584
000010 ce 22 9d 39 e4 02 ac bc 23 52 e0 bb 90 59 49 3c
       0.00029971305 -0.020997472 -0.006845729 0.01228942
000020 9f 6d f6 bb aa 4c 5b 3a 2f 5a 3b 3c c7 32 ff 3b
       -0.007520392 0.0008365611 0.011435076 0.0077880356
000030 65 63 8c 3c 2b a9 b6 3b 33 7a 00 bc c3 f0 69 3c
       0.017137239 0.0055743656 -0.007841635 0.0142785935
000040 6b 6b fb bb 22 c1 b0 3b 61 a7 3e bb 90 69 9c 3c
       -0.0076727173 0.005394117 -0.0029091465 0.019093305
000050 5a cb a2 bb f6 b6 a1 bc 7f a6 1a 3c 44 72 15 ba
       -0.004968089 -0.019740563 0.00943911 -0.0005700926
000060 a5 8c 23 ba ca b6 94 bc e1 d2 66 3b e6 f3 fb bb
       -0.0006238914 -0.018153567 0.0035220908 -0.007688987
000070 dd 37 69 bb e8 9d 16 bb ab bf 07 3b 0f 16 ce bb
       -0.0035586276 -0.0022982303 0.0020713608 -0.0062892507
000080 f6 39 81 bb 19 44 8b 3c 8d d0 3e 3c 4d f4 f2 bb
       -0.003943677 0.017000245 0.011646402 -0.007414377
000090 5d 48 93 3b e9 61 1c 3a d1 1b 08 3c 59 5f 9e 3b
       0.0044947104 0.00059655175 0.008307413 0.0048331437
0000a0 1d 0c 15 3c df 94 1a 3c ce ae d2 3b 5e 4e 8d 3b
       0.009097126 0.009434908 0.0064295297 0.0043123206
0000b0 11 ca 62 b9 3c 8f 72 3c 11 18 98 ba 0c ad 3a 3c
       -0.00021628315 0.014804658 -0.0011603852 0.011393797
0000c0 b6 1e c3 bc b9 81 2f 3c 87 c1 16 bc 97 f6 67 3b
       -0.023818355 0.010712081 -0.009201414 0.0035394782
0000d0 6e b5 99 3c 18 c1 1a 3c 77 32 ac 3c 54 04 dd ba
       0.01876327 0.009445451 0.021020157 -0.0016862252
0000e0 98 4d c6 bb 66 4a c3 3b 32 24 a2 ba eb a8 0a bb
       -0.0060517304 0.0059597967 -0.0012370406 -0.0021157812
0000f0 0b 43 4d bc 8f c5 f7 bb 02 33 43 bc 1e 23 77 ba
       -0.012528191 -0.0075613926 -0.011914017 -0.0009427535
000100 7c c4 11 3b cd 0d ae 3b 5e 46 8e bc a7 af f4 bb
       0.0022242358 0.005311704 -0.017367538 -0.0074672285
000110 59 d4 45 3b 98 e3 b5 3b 3a cd 0e 3c eb 0d f4 ba
       0.0030186384 0.005550813 0.008715922 -0.001861987
000120 7e 43 73 3b 10 69 11 3b c7 70 f2 3b a9 18 0f bc
       0.0037119086 0.0022187866 0.007398698 -0.008733907
000130 4d aa 20 3c f8 68 33 3c 51 55 9e 3c f6 3d bb bb
       0.009806228 0.0109503195 0.019327791 -0.0057141734
000140 11 52 87 3c d9 c8 a3 3c e8 b1 85 3c b9 a6 2d bb
       0.016518624 0.019993233 0.016320184 -0.002649708
000150 15 b8 91 3c bb 06 69 b9 6b 6a 36 bc 71 7d 24 3a
       0.017787972 -0.00022223119 -0.01113377 0.0006274796
000160 67 40 21 3c 8b c9 00 bc ae 4c 14 3b 7d ae e6 b9
       0.009842015 -0.007860552 0.0022628712 -0.00043999022
000170 98 8d 51 bc 08 61 79 bc 34 6e 15 bc 85 c9 60 b9
       -0.012790106 -0.015220888 -0.009120513 -0.00021437377
000180 7a 4e 58 bc 7f 68 38 bc 21 d1 7c 3c c2 8c 63 3b
       -0.013202304 -0.011255383 0.01543072 0.003472135
000190 f9 cc 3c ba ae 8d fa 3a 51 ac 99 ba 1e 1d 25 3a
       -0.0007202174 0.001911571 -0.0011724328 0.0006298589
0001a0 fd 0e 1a 3c 9c 1e 34 bc 4c 7d 3e 3b e3 b0 b3 3c
       0.009402988 -0.010993626 0.0029066382 0.021934932
0001b0 8a 62 95 ba 5d 22 23 3b 9d bb 4d bb 7a 3c 28 3c
       -0.0011397165 0.0024892308 -0.0031392344 0.010268325
0001c0 21 45 82 3a e8 45 4c bc ed 2f 01 3c c2 47 31 bb
       0.0009938815 -0.012467839 0.007884962 -0.0027050828
0001d0 09 3c 1c 3b 17 c3 4b 3c 05 67 61 bc b4 c0 0d 3a
       0.0023839495 0.01243665 -0.013757472 0.0005407438
0001e0 fb c8 93 3c 3c 61 12 bc 1e 63 17 3c 30 02 9a bc
       0.01804017 -0.008934315 0.00923994 -0.018799871
0001f0 4c 52 1c bb 1f fd 0a bc 49 7d 49 3c 3e 0f 50 bc
       -0.0023852764 -0.0084832 0.012297937 -0.0126989465

network_body._body_endoder.seq_layers.2.weight f4 [128, 128]
000000 4f 4a 2f bb d2 bd 4b bd 7a ee 53 bd b2 74 1e be
       -0.0026747172 -0.049741574 -0.0517411 -0.15474203
000010 3b 00 95 3d 4b 12 4d bd 8c fd 7f bd b3 a7 33 bd
       0.072754346 -0.050066274 -0.06249766 -0.043861102
000020 cd 30 5e bc a9 36 5e 3d 36 ec 6e 3d be aa 45 3d
       -0.01356144 0.054251347 0.058330737 0.048258536
000030 d5 94 8d 3d 0b ff ad 3b a2 eb 9d 3d 22 00 e9 3d
       0.06913153 0.0053099445 0.07710959 0.113769785
000040 27 d3 a3 bd a1 67 82 3d 7c fb ab bb af 07 d9 3c
       -0.079992585 0.06367422 -0.005248485 0.026492922
000050 9f 3b f8 bc 59 80 2c be 0e 7b 8d 3b 32 ae 4f 3d
       -0.030301867 -0.16845836 0.004317648 0.050703235
000060 19 0a 47 3d 1c 43 98 3d 7d 65 ef 3b 46 a2 9f bd
       0.048593614 0.07434675 0.0073057995 -0.07794623
000070 6b 26 bd 3d 77 35 f3 bd 19 2b 1f 3d 9f 6e 78 bc
       0.09235843 -0.11875432 0.03885946 -0.015163093
000080 07 ff 05 3e 6e 84 c1 bc ab 8e 06 bd 9e c0 81 3c
       0.13085566 -0.023622718 -0.032850903 0.015838917
000090 e5 4e 87 3d 53 8f 96 3c ff 56 d0 3d d4 e4 00 3c
       0.06606845 0.01837889 0.10172843 0.007867057
0000a0 cb 53 7c bd d6 65 bf bc ea 5b a1 3d ea 90 46 3e
       -0.06160335 -0.023363989 0.07878859 0.19391218
0000b0 d3 2c 55 3d 7d fe 0a 3d da ea de bc c9 b9 19 3d
       0.0520447 0.033934105 -0.027211595 0.037530694
0000c0 79 7a 82 3d d7 75 ae bd 90 d8 f4 bd f5 98 b5 3c
       0.06371016 -0.0851857 -0.119553685 0.022167662
0000d0 1e a7 4a bd 3d 9d 41 bd 95 5a ca 3d 65 d2 2f 3e
       -0.04947578 -0.047269095 0.098805584 0.17170103
0000e0 73 2c f1 3d a1 f7 e7 bc 5c ed 04 be fb 9b fb bc
       0.11776056 -0.02831632 -0.1298117 -0.030714026
0000f0 22 59 1f 3e de 06 37 3e a4 ab c2 bd 68 83 a8 bb
       0.15561345 0.17873713 -0.09505394 -0.005142618
000100 55 ac a0 bd 8a e2 aa 3d ac 29 7d 3d 2f 28 e9 bd
       -0.0784537 0.0834399 0.06180732 -0.113846175
000110 37 c5 24 bd 11 74 29 3d ee 20 34 bd e6 18 fb bc
       -0.04022714 0.041370455 -0.043976717 -0.030651521
000120 22 3e 53 be 65 2b f0 3d a0 7e 53 bc 4d da 0f 3d
       -0.2062917 0.11727027 -0.012908608 0.035120297
000130 8d 0f ef bc 01 8f 3b 3e 3f 18 ca 3d 6d a9 ef bc
       -0.02918222 0.1831627 0.09867906 -0.029255593
000140 c0 64 9a ba 4f 53 44 bd ab a0 a8 3d 7d ba ab bd
       -0.0011779293 -0.04793101 0.0823377 -0.08385179
000150 ea af b5 bc 5b 7b 8a 3c 84 fe 68 bd 31 81 8c bd
       -0.022178609 0.016904524 -0.05688335 -0.06860579
000160 21 67 b5 bd bc e8 ab 3d 23 96 30 3c 81 d5 b9 bd
       -0.08857561 0.08394 0.010777983 -0.09073926
000170 02 71 43 bd d9 5b d0 bd 2d 96 99 bb 9e 38 02 be
       -0.047715195 -0.101737686 -0.004687092 -0.1271691
000180 c3 84 dd 3d 6b 61 2b 3e 02 74 87 3d 32 52 ea 3b
       0.10816338 0.16736381 0.066139236 0.0071509117
000190 de 0b 27 bd f6 46 1e bb b5 f1 53 3d a7 b8 94 bd
       -0.0407828 -0.0024151183 0.05174418 -0.07261782
0001a0 5f 0d e4 bc 86 df ad 3d 1e 8f 0c 3d f7 7c f5 bd
       -0.027838407 0.08489899 0.034316175 -0.11986726
0001b0 a7 d4 42 bd ff 5e 82 bd b7 2a 0a be 5b 3a 24 be
       -0.047566082 -0.06365775 -0.13492857 -0.16037886
0001c0 b8 8b b2 3c a9 ea d6 bd d6 d2 04 3e 7e f3 1e be
       0.021795139 -0.104939766 0.12971053 -0.15522572
0001d0 ae e0 fb bd 4d 8b 77 3d 36 97 e2 3d a3 a9 a7 3d
       -0.122987136 0.060435582 0.110639974 0.081866525
0001e0 6b 08 61 bc d7 c9 8b 3a c2 27 f4 bd e7 ed db bd
       -0.013734917 0.0010665011 -0.11921646 -0.10738736
0001f0 be 6a 30 3d b7 8f 3e 3d a1 4c 8a bb 10 dd 27 3e
       0.043070547 0.046523776 -0.0042205607 0.16392922
000200 cf e6 88 bd 45 be 96 3d 19 98 da 3a 18 ca 57 bc
       -0.06684648 0.0736051 0.0016677409 -0.0131707415
000210 10 fd 3e 3d c1 ea 72 3c 56 f3 45 3d 27 63 ad bc
       0.046628058 0.0148264775 0.048327766 -0.021165444
000220 83 e8 2b bd 4d fd c8 3d 21 ea d2 bd 37 a6 b3 3d
       -0.041969787 0.09813938 -0.10298563 0.08771937
000230 a3 9c 4c bd 7b ed 9b bd a2 0f 8d 3d 93 aa 04 3e
       -0.049954068 -0.07613655 0.06887747 0.12955694
000240 f7 e4 68 3b 8c 9d 89 3c 80 55 e3 bd eb 20 36 3d
       0.0035536864 0.016798757 -0.11100292 0.044464987
000250 55 4f c0 bd 0b 3c f8 ba 46 42 a5 bd 0c 6f c1 bd
       -0.093901314 -0.0018938793 -0.08069281 -0.09445009
000260 b9 3c 0e 3e 35 4a 5f 3d e8 4d 70 bd ca 9b b1 3d
       0.13890351 0.05451413 -0.058668047 0.086722925
000270 83 62 9f bd 9b bf f4 3d 27 61 d4 bd 12 47 58 3d
       -0.077824615 0.11950608 -0.10370093 0.052802153
000280 e3 7a 12 3e b2 71 e7 bc 38 31 86 bd 99 f5 db bc
       0.1430469 -0.028252456 -0.065523565 -0.026850509
000290 c5 64 3a 3e 80 6e 17 3c 6c 34 39 be 8f b2 e1 bc
       0.18202503 0.009242654 -0.18086404 -0.027550964
0002a0 0a 13 8c 3d 53 37 26 be 17 c6 8b 3d 38 71 f8 bc
       0.06839569 -0.16232042 0.06824892 -0.030327424
0002b0 71 74 18 3c 7f b4 73 3d 76 d4 1d 3e 63 8a 14 ba
       0.009305106 0.059498306 0.15413079 -0.0005666373
0002c0 b4 ce 87 bd 27 2c 3b 3c 86 d0 1d 3d b1 8e 8f bd
       -0.06631222 0.011424101 0.03852894 -0.07009638
0002d0 66 52 a4 bd cc 9e 3d 3d 17 c6 9c 3d bc 03 1c 3c
       -0.08023529 0.04629402 0.0765497 0.009522375
0002e0 7a d8 f0 bc 43 83 a2 3c 52 91 84 3c b2 86 9f 3d
       -0.0294001 0.019837981 0.016182575 0.07789363
0002f0 6e 88 59 bc ff 8c 80 3d 4c 86 ab bc 61 71 28 3e
       -0.013277156 0.06276893 -0.020938061 0.164495
000300 20 fe 9a bd aa 22 a4 bc 06 10 81 bd 82 0f 4d bd
       -0.07568002 -0.02003606 -0.06301884 -0.050063618
000310 9d f5 95 3c 73 7a ad bd 52 86 45 be 30 15 07 be
       0.018305594 -0.08470621 -0.1928952 -0.13191676
000320 04 ee bf 3d d4 a2 db 3d ef e1 d4 bc 4d 7f 99 3d
       0.0937157 0.107244164 -0.02598664 0.07494984
000330 c0 cc 59 3e e7 45 01 be 32 3b 5d 3d 79 b1 b3 bd
       0.21269512 -0.12624322 0.05401153 -0.087740846
000340 0c 6f 87 bd e9 41 3e bd 2e d2 bc bd b9 30 f8 bc
       -0.066129774 -0.046449576 -0.09219776 -0.03029667
000350 b2 49 07 3e 4e 7c 0f 3e 7a 34 f9 bc 5e fa 97 bd
       0.13211706 0.14012262 -0.03042053 -0.074208006
000360 ea 53 88 bc a6 a5 70 3e 8e 28 76 bd 00 75 2a bd
       -0.016641576 0.2350069 -0.06009727 -0.041615486
000370 6d c6 a3 bb 67 00 61 3d 8a 25 22 3d f9 0b 85 3d
       -0.0049980194 0.054932024 0.03958658 0.06496424
000380 65 e0 2e 3d 23 51 02 3e c0 c9 49 3e a1 a0 10 3b
       0.042694468 0.12726264 0.19705868 0.0022068399
000390 98 9c 45 be e1 b6 1e 3d 03 9f d0 3d bc 71 3c bd
       -0.19298017 0.038748626 0.10186579 -0.046006903
0003a0 05 37 c8 3d d9 65 17 be c7 f4 5c 3d 91 b2 7e be
       0.09776119 -0.14784946 0.053944375 -0.24872805
0003b0 97 30 2f bc 8c 1f ff 3d 1d 3e 65 3d cc 01 f0 bb
       -0.010692737 0.12457189 0.05596744 -0.007324433
0003c0 62 5b 02 3e 9a 5f 2e bb c1 a8 02 be 6c 03 d6 bd
       0.12730172 -0.0026607276 -0.12759687 -0.104498714
0003d0 2b 9d 50 3e 13 61 50 3e 92 81 9f 3d b6 12 4a bd
       0.20372455 0.20349531 0.077883855 -0.04933425
0003e0 2b 4b 6c be 08 98 a8 bc 9a fb a5 bd 9e 33 64 3c
       -0.2307555 -0.020580307 -0.0810463 0.013928322
0003f0 22 0f f2 bc b8 69 37 bd f6 37 b9 bd 50 75 28 be
       -0.029548232 -0.044778556 -0.09043877 -0.16451001

network_body._body_endoder.seq_layers.2.bias f4 [128]
000000 a9 9e 15 bc 87 02 8d bb 43 ed e3 3b d4 5c a6 3b
       -0.009132066 -0.00430328 0.006955774 0.005076984
000010 43 5a 93 3c 8b 28 00 3c 63 8c 7b 3c 2d b7 e1 bb
       0.017987376 0.007822166 0.015353295 -0.0068882913
000020 9c 56 03 bc ff be 2b bc 4c cb 09 bc 04 9e bd 3b
       -0.008016255 -0.010482549 -0.008410286 0.005786659
000030 70 b1 a4 3c 62 82 ce bb 48 72 76 bc a4 db 92 3c
       0.02010414 -0.006302164 -0.015041895 0.017926998
000040 fb 9f 6e b7 6c 75 1a bc 05 b4 25 bc 2c 7c 97 3c
       -1.4223154e-05 -0.00942741 -0.010113721 0.018491827
000050 cb 80 71 3b 10 97 06 bc db ef 09 bc ae 73 8b 3c
       0.0036850448 -0.008214727 -0.008419002 0.017022934
000060 7d f1 66 bc c8 42 5e bb b8 6f 82 bb 2f c0 1a bc
       -0.014095661 -0.0033914316 -0.003980603 -0.009445234
000070 ce 14 e2 bb a6 23 b2 3b 75 ad 9b bc 94 25 5d bc
       -0.006899453 0.0054363785 -0.01900361 -0.013497729
000080 23 dd 86 bc e9 40 78 3c 97 9a 27 3b 60 ce af bb
       -0.016462868 0.015152195 0.002557432 -0.005365178
000090 88 de 0f 3c f6 97 f7 3b bc 50 0e 3c 81 f0 f9 bb
       0.008781083 0.007555957 0.008686241 -0.0076275473
0000a0 59 1c 8c 3b a4 7b 1c bc 84 7b 08 3c 25 97 67 bc
       0.0042758402 -0.009550963 0.00833023 -0.014135157
0000b0 e1 d7 5f 3c 27 1b 01 bc cd 51 44 bc 81 0a 06 3b
       0.013662309 -0.007880009 -0.011982393 0.0020453038
0000c0 d2 08 5f ba 0b 26 72 3c 89 18 a2 3c 6c 0e 1d bc
       -0.0008508089 0.014779578 0.01978709 -0.009585958
0000d0 12 8e 09 bc 6c f3 46 bc 9a 28 19 bb a4 7b 97 3c
       -0.008395689 -0.012142997 -0.0023370148 0.018491574
0000e0 29 a3 4c bc d5 f7 98 bc 9b 79 2a 3c 32 5a 17 bb
       -0.012490072 -0.018672863 0.01040497 -0.0023094532
0000f0 0a dc e8 bb 46 2c e3 3b ef ee 58 bc a7 16 2d bc
       -0.007106309 0.006932768 -0.01324056 -0.010564483
000100 5c 43 c2 3b 9f 81 bb 3b 90 09 64 3c e4 58 89 b9
       0.00592844 0.005722239 0.0139182955 -0.00026196905
000110 a7 bd 9d ba f9 82 ac 3c 43 cb a4 3c b0 50 77 bc
       -0.001203467 0.021058546 0.020116454 -0.015094921
000120 4e 17 75 bc c8 6c 0e 3c b9 ab f5 bb 72 be 48 bc
       -0.01495917 0.008692928 -0.0074972776 -0.012252437
000130 5b c6 19 bc 82 c6 c9 3a e1 c0 bc b9 2d 82 11 3c
       -0.009385671 0.0015394243 -0.0003600186 0.008881134
000140 9a f0 11 bc b4 37 0e bb 0e 07 35 3c c6 32 6b 3b
       -0.008907462 -0.0021700682 0.011049045 0.0035888418
000150 58 5d 0b 3b 2d ed e5 3b 6d f1 ab bb 28 6f cc bb
       0.0021265354 0.007016799 -0.005247286 -0.006238837
000160 52 cd 2b 3b 74 aa a2 ba 41 4d 05 3c 51 36 83 bc
       0.002621491 -0.0012410418 0.008136095 -0.016017111
000170 49 80 2a bb 64 35 7a ba c4 16 d4 bb 34 a2 a1 bc
       -0.0026016405 -0.0009544699 -0.0064724404 -0.019730665
000180 41 79 9c 3c 42 11 7d 3a b7 98 ab bb ee 4e 17 bc
       0.019100787 0.00096537557 -0.005236711 -0.009235127
000190 c0 b3 8d 3c f9 10 83 3a 7e fc 83 3c d5 2f 01 3c
       0.017297626 0.0009999565 0.016111609 0.007884939
0001a0 ab 73 bf 3b 9d f8 51 3c 9f 74 22 3b 64 a0 0d bc
       0.005842646 0.012815622 0.002478875 -0.008644197
0001b0 e6 e3 90 3a 76 48 3d bc 1d d4 0b 3c 92 7f 0e 3c
       0.0011054247 -0.011552921 0.0085344585 0.008697407
0001c0 7d 87 7c ba c5 b8 6b bc bd 69 9e bc 10 f6 20 3c
       -0.00096332264 -0.014387314 -0.01933753 0.009824291
0001d0 c0 9a f4 bb 1a bd e2 3a c2 23 4e bc 3d 35 96 bb
       -0.0074647367 0.0017298788 -0.0125817675 -0.004583983
0001e0 17 68 1d bb b7 00 3e bc 14 d3 7c bc 92 05 e8 3b
       -0.0024018341 -0.01159685 -0.015431184 0.007080742
0001f0 ba 75 88 3a 72 3c 7f 3c 21 ef 9f 3b 10 f9 55 3c
       0.0010411062 0.015578376 0.0048808013 0.013059869

action_model._continuous_distribution.log_sigma f4 [1, 4]
000000 31 c2 ec 3a 6f 71 4a bc e7 c8 3d 3c 7c 3c 35 bb
       0.0018063245 -0.012356146 0.011583543 -0.002765446

action_model._continuous_distribution.mu.weight f4 [4, 128]
000000 65 0d a3 3b ea 42 2b 3d 8d e3 87 bb bf 45 e8 3b
       0.004975962 0.04181186 -0.004146999 0.0070883925
000010 85 32 50 bd 46 ee e0 bb de 12 55 bc 37 a7 b9 39
       -0.05082943 -0.006864342 -0.013004987 0.00035410534
000020 e1 09 53 3c 77 1d 16 bc 33 ba 4a 3d ba 48 16 bd
       0.012880773 -0.009162298 0.04949398 -0.03669045
000030 77 a9 8b bc 59 c3 ae bc ac d5 97 3c 28 21 20 bd
       -0.01704858 -0.021333383 0.018534504 -0.03909412
000040 22 22 4d bb 49 5d 09 3d d7 41 ba bb 02 04 e1 bc
       -0.0031300862 0.03353623 -0.0056841183 -0.027467731
000050 bd 7a c5 3c 4e d7 e0 3b 92 20 22 3d fa ea 60 bd
       0.024106378 0.006861604 0.039581843 -0.05491159
000060 41 93 be 3c 25 1a da bc 4d f1 9e bb 58 18 00 bc
       0.023263576 -0.026623795 -0.0048505426 -0.007818304
000070 3d 34 f8 3c 6c 5d 0b bd ea 4e c0 3c c8 b8 e1 bb
       0.030298347 -0.03402464 0.02347513 -0.0068884827
000080 db 4c 0d 3d 79 b6 00 bd 43 6b cc 3c 4a 99 5f 3c
       0.034497123 -0.03142402 0.02495349 0.013647387
000090 fb 89 cc 3c 39 cd 4d bc d2 54 90 bc 9c 3b 0a bd
       0.024968138 -0.012561136 -0.01761857 -0.033748254
0000a0 fd 97 03 3b 80 63 b7 bb 53 55 ab 3c 65 cc d9 3c
       0.0020079606 -0.005596578 0.02091471 0.02658672
0000b0 ea 79 00 3b df 70 28 3d 11 c1 4a bb 7f 02 76 bc
       0.0019603916 0.041123267 -0.003093783 -0.015015244
0000c0 eb fb e5 bc bb bb 23 bc 9f e6 0a bd 25 b5 f4 3c
       -0.028074225 -0.009993489 -0.033911344 0.029871533
0000d0 39 86 94 3c a7 4d eb 3b 7a a8 d8 3c 4b d4 ea bc
       0.018130409 0.0071808877 0.026447523 -0.028665682
0000e0 c6 3b 7a 3c 91 6e a9 3c 86 3b 18 bd e6 ba 4a 3c
       0.01527304 0.020682605 -0.03716614 0.012373662
0000f0 4c 7b 56 3d ba 0a 08 3b 38 e0 52 3c 22 f3 31 3c
       0.05236368 0.0020758347 0.012870841 0.01086119
000100 14 03 c9 bc 28 57 3d bc e3 09 84 bd ae 13 c4 3a
       -0.0245376 -0.011556424 -0.06447198 0.0014959478
000110 89 cb cc 3c 6b a2 cf bc 25 29 7a bc 47 c3 cd 3c
       0.024999397 -0.025346002 -0.015268599 0.02511753
000120 56 d7 1c 3d e6 a3 aa bc be c1 91 3b 0d e3 f4 3b
       0.038291298 -0.020830106 0.0044481447 0.0074733556
000130 a4 67 ae 3c c6 82 36 bc 73 34 b6 bc 79 77 b3 3c
       0.021289654 -0.011139577 -0.022241807 0.021907555
000140 1e 7e 1d 3d 4d a1 eb 3a d0 03 25 bd f6 a9 fa 3a
       0.038450353 0.0017977149 -0.04028684 0.0019124139
000150 ef 45 c6 bc 1b 59 86 3c a0 52 6e 3c 59 5f ac 3b
       -0.024203269 0.01639991 0.0145460665 0.0052603898
000160 14 55 8c bc 9f c0 fd bb de 9e fc bc 06 0e 21 3c
       -0.017130412 -0.0077439095 -0.030837473 0.009830004
000170 45 57 6d 3c ad 31 a6 3c 82 d6 f9 bc 05 db 61 3d
       0.014486139 0.02028736 -0.030497793 0.055140514
000180 77 da ea 3b 0b 34 a0 3c f5 f9 67 3c 56 0c 90 3d
       0.0071671563 0.019556066 0.0141587155 0.07033603
000190 a8 f3 3b bd e2 50 d3 39 75 64 0c bb 64 a6 95 3c
       -0.045886666 0.00040305319 -0.0021422182 0.018267818
0001a0 31 fa 84 3c 92 a1 26 bd 2e 56 0d 3d 41 50 e7 3c
       0.016232582 -0.04068143 0.034506015 0.02823651
0001b0 09 0d c6 bc 2d 0f 58 3c f4 1c 52 bd 9b d8 bc bc
       -0.024176138 0.013187212 -0.051297143 -0.023052504
0001c0 90 c1 f2 bb 97 75 d7 3c 9e c8 3b 3d 9d 97 85 bc
       -0.0074083284 0.026301188 0.04584562 -0.016307646
0001d0 a4 71 4a 3d 14 e4 99 bc ba 3f a7 3c 54 ee a5 bc
       0.049424782 -0.018785514 0.02041613 -0.020255245
0001e0 b3 11 3d 3d ad 02 1b 3d bb 06 52 3c d8 14 6b 3c
       0.046159457 0.03784435 0.0128189875 0.014348231
0001f0 82 06 99 bb 36 ee 26 bc 4c eb f3 bc ab ca 11 bd
       -0.0046699652 -0.01018863 -0.029775284 -0.03559367
000200 3f fc 88 3b 4f 87 f8 bc 7b 77 b5 bc c5 37 db bc
       0.0041804607 -0.030337958 -0.0221517 -0.026759991
000210 76 71 26 bc d4 72 a8 bc 9e e7 14 bd 69 2c c3 3c
       -0.010158887 -0.020562567 -0.0363537 0.023824887
000220 2f 6b 33 3c be 09 5c 3c db 00 31 3c a4 14 86 bb
       0.0109508475 0.013430057 0.010803427 -0.004091816
000230 9e e5 7d bc 6a 6b 0e 3c d9 ae fb 3c cf 56 9a bc
       -0.01549664 0.008692602 0.030723022 -0.018840222
000240 9c 9b 82 bb 1d c9 95 3b 5c f3 fb 3c f2 4a 06 bd
       -0.0039858352 0.0045710937 0.030755691 -0.032786317
000250 8f 7c c9 3a 4a 06 a3 3c 43 22 54 bb 8b f6 61 bb
       0.0015372204 0.01990046 -0.0032369054 -0.0034479226
000260 25 f4 98 3c ab 7f 84 3c 25 66 9c 3c 69 8b 80 3b
       0.018671105 0.016174158 0.019091675 0.003922869
000270 0b f1 11 bc 9f 11 20 3b 1c 02 1a 3d ed 73 a3 3c
       -0.008907567 0.0024424565 0.037599668 0.019952739
000280 86 f8 1a 3d 30 1b 63 bc 8e 94 62 bd 0c 6f 55 3c
       0.037834667 -0.0138614625 -0.055317454 0.013026964
000290 ef 44 c5 bc 4d 4c 38 3c 2b 99 85 bc 63 a3 22 3d
       -0.024080722 0.01124866 -0.016308388 0.0397066
0002a0 1f 23 5a 3b a0 30 31 3d ee ea 7c bc d6 6b 9d 3c
       0.0033285094 0.043259263 -0.015436871 0.01921646
0002b0 79 cd 2b bc a0 20 32 3c 89 d2 dd 3c 90 17 18 3b
       -0.010486 0.010872036 0.02707793 0.0023207404
0002c0 49 57 aa 3c 14 3e fb bc 8a b6 1d bd 71 fc 54 3c
       0.020793574 -0.03066925 -0.03850416 0.01299964
0002d0 1a 6b 0e 3d e5 ff 29 3d 86 5e 3e bc f6 aa 3a bc
       0.03477011 0.041503806 -0.011619216 -0.011393299
0002e0 d6 85 ce 3c c9 20 00 3d f1 c7 0a bc c3 2e 64 3c
       0.025210302 0.031281266 -0.008470521 0.0139271645
0002f0 28 44 d7 3b bf e9 9f bc 42 19 08 3c 4d 31 0e 3d
       0.006569404 -0.019520639 0.008306803 0.034714986
000300 2f 9c 04 bc 68 66 1f 3c 65 70 df bc 0a d4 aa 3c
       -0.008093878 0.009729005 -0.027275274 0.020853061
000310 cb 9a 22 39 57 09 17 bd 7f 55 f5 bc 2c 83 8a 3c
       0.00015507189 -0.03687414 -0.029947994 0.01690825
000320 e0 46 bf 3c ba d9 9f bc 5f 7c 9f 3c c6 83 37 3d
       0.023349226 -0.019513 0.019468484 0.044803403
000330 0c c4 2b 3c 94 d2 38 3c 16 67 19 3c 58 32 04 bd
       0.010483753 0.0112806745 0.0093629565 -0.032274574
000340 c2 dc 0c 3b 15 e1 0b 3c 05 b2 3a bc 81 78 87 bc
       0.0021493887 0.00853755 -0.011394982 -0.016536953
000350 b2 ad a0 bb 4c 69 9b bc c8 e9 90 3a cf 62 a7 3b
       -0.0049035186 -0.018971108 0.0011056 0.0051082144
000360 fd d8 c4 3b 21 45 95 3c f9 cc b5 bb 56 4a a2 3c
       0.0060073123 0.01822144 -0.0055481163 0.019810837
000370 3a 8a b1 bc 4b 4a 16 3c eb 79 6a 3d e9 53 43 3d
       -0.021672357 0.009172986 0.057245176 0.047687445
000380 31 b5 90 bc 07 e1 8c 3b 77 9f 21 3c 40 aa 75 3b
       -0.017664524 0.0042992863 0.00986468 0.003748551
000390 3f 57 21 bc 01 85 c9 3c f2 20 16 bd 2a 15 a2 bc
       -0.009847461 0.024599554 -0.036652513 -0.019785482
0003a0 fa 52 2e bc c1 6a a5 bc 6e 26 15 bc 03 cb 78 3c
       -0.0106399 -0.020192506 -0.009103401 0.0151851205
0003b0 bc b7 2c 3b 7e bb 15 3d 7a 9d 78 3c c5 58 b9 bb
       0.0026354631 0.03655576 0.015174264 -0.005656334
0003c0 77 c4 bd bb a3 29 e6 3a 93 7a 99 3d 0b 1a 96 bc
       -0.0057912427 0.0017560016 0.07494082 -0.018322965
0003d0 9d 72 0f bc 59 61 81 bb b4 43 78 3c d3 ca 00 3c
       -0.008755353 -0.0039483723 0.01515286 0.007860857
0003e0 ea 8d 96 3b 6c 22 2d 3c 47 78 e8 3c 14 78 47 bd
       0.004594554 0.010567289 0.028377665 -0.0486985
0003f0 60 2f 5a 3c 41 44 d8 bc ea b1 e5 3b 1d 24 89 bc
       0.013316959 -0.026399733 0.0070097344 -0.016740853

action_model._continuous_distribution.mu.bias f4 [4]
000000 fd cc 6b bc 3a 80 80 bc f7 7e 1e 3a 88 07 c4 bb
       -0.014392135 -0.015686143 0.0006046141 -0.005982343

exp_avg f4 [128, 9]
000000 9f 1b 17 38 c2 b6 00 b9 76 71 1a b7 49 25 84 16
       3.602693e-05 -0.00012275114 -9.2055325e-06 2.134928e-25
000010 56 6f 04 39 b6 bb 51 b8 00 00 00 00 00 00 00 00
       0.00012629977 -5.0004302e-05 0.0 0.0
000020 00 00 00 00 d9 cf 08 b8 d0 f3 49 38 4d 4f b1 b6
       0.0 -3.26185e-05 4.8149202e-05 -5.284243e-06
000030 bc 47 ae 94 60 79 e1 b8 45 25 fa b4 00 00 00 00
       -1.7597804e-26 -0.00010751444 -4.6593246e-07 0.0
000040 00 00 00 00 00 00 00 00 e1 6c 10 38 63 3d 15 b9
       0.0 0.0 3.4433677e-05 -0.00014232616
000050 cc 5e 14 b8 37 50 03 13 3a d0 ab 38 71 b0 9e 38
       -3.5374236e-05 1.6574074e-27 8.1927006e-05 7.566892e-05
000060 00 00 00 00 00 00 00 00 00 00 00 00 13 fc a2 35
       0.0 0.0 0.0 1.2143304e-06
000070 0a 45 d4 b7 76 f1 69 b6 d5 f2 da 95 e5 b8 12 38
       -2.5304518e-05 -3.4860254e-06 -8.843262e-26 3.498131e-05
000080 2c c8 5d 37 00 00 00 00 00 00 00 00 00 00 00 00
       1.3219233e-05 0.0 0.0 0.0
000090 26 6f 9e b7 76 ba 90 37 e4 79 62 b7 8d 75 a4 95
       -1.8886825e-05 1.7252965e-05 -1.349903e-05 -6.6424535e-26
0000a0 b1 4c f7 b8 fe cc f8 37 00 00 00 00 00 00 00 00
       -0.00011792163 2.965936e-05 0.0 0.0
0000b0 00 00 00 00 ea 47 c1 38 dd 2a 03 b9 5d 8b d0 b8
       0.0 9.216352e-05 -0.00012509101 -9.944171e-05
0000c0 af c2 44 16 43 0e 8f b9 f2 09 22 39 00 00 00 00
       1.5894185e-25 -0.0002728571 0.00015453229 0.0
0000d0 00 00 00 00 00 00 00 00 e6 4e 05 b8 f0 54 c0 38
       0.0 0.0 -3.178315e-05 9.171094e-05
0000e0 c3 de 07 38 b6 c2 b0 13 fa 10 06 b8 c9 7f da b8
       3.239397e-05 4.4620646e-27 -3.19639e-05 -0.00010418852
0000f0 00 00 00 00 00 00 00 00 00 00 00 00 ba 8e 16 b9
       0.0 0.0 0.0 -0.00014358285
000100 7a 5e ad b8 9c 6f 39 38 f6 95 be 95 b2 db cb 39
       -8.2668805e-05 4.421138e-05 -7.6976986e-26 0.00038882863
000110 e4 85 68 b8 00 00 00 00 00 00 00 00 00 00 00 00
       -5.5437806e-05 0.0 0.0 0.0
000120 c0 aa 3b 38 42 74 0d b9 69 06 44 b6 b7 52 35 16
       4.4743298e-05 -0.00013490117 -2.9210007e-06 1.4647164e-25
000130 2a e1 ec 37 f5 8a d1 37 00 00 00 00 00 00 00 00
       2.8238243e-05 2.4979448e-05 0.0 0.0
000140 00 00 00 00 c1 24 ac b7 e3 f5 23 39 fd 3b 1e b7
       0.0 -2.0521113e-05 0.00015636491 -9.431501e-06
000150 fe 82 6c 96 57 63 64 b7 e9 59 62 b8 00 00 00 00
       -1.9105262e-25 -1.3612988e-05 -5.3966334e-05 0.0
000160 00 00 00 00 00 00 00 00 cf 40 4f b8 c2 9d 59 b9
       0.0 0.0 -4.9413004e-05 -0.00020753502
000170 2d a9 42 b8 87 50 38 14 72 14 45 39 48 fb 49 39
       -4.641076e-05 9.305507e-27 0.00018795 0.00019262463
000180 00 00 00 00 00 00 00 00 00 00 00 00 90 0a 03 b7
       0.0 0.0 0.0 -7.810668e-06
000190 31 7f ae 38 94 f9 d9 35 eb e2 d0 95 39 cd 12 b9
       8.320658e-05 1.6240397e-06 -8.4368544e-26 -0.00014000096
0001a0 a9 00 9d 38 00 00 00 00 00 00 00 00 00 00 00 00
       7.486466e-05 0.0 0.0 0.0
0001b0 a7 cf b1 b7 36 8d 18 b9 c2 02 8e 38 d2 1e 78 96
       -2.119674e-05 -0.00014548455 6.771601e-05 -2.0043006e-25
0001c0 79 29 2a 3a 86 12 9d b8 00 00 00 00 00 00 00 00
       0.0006491165 -7.489794e-05 0.0 0.0
0001d0 00 00 00 00 68 d6 43 b8 d0 8a 25 b8 56 26 a3 37
       0.0 -4.6691304e-05 -3.9468345e-05 1.9448966e-05
0001e0 40 c6 ae 94 92 02 d1 39 2d 65 3b b8 00 00 00 00
       -1.7647706e-26 0.00039865501 -4.46785e-05 0.0
0001f0 00 00 00 00 00 00 00 00 3a 2f 37 39 cb 16 8b b9
       0.0 0.0 0.00017469833 -0.00026529128
000200 c0 30 b8 b8 af b3 7e 16 5c 1f 0a 39 ca 3c a3 38
       -8.782884e-05 2.0574655e-25 0.00013172388 7.7837685e-05
000210 00 00 00 00 00 00 00 00 00 00 00 00 c3 2a 03 b8
       0.0 0.0 0.0 -3.127266e-05
000220 fc 84 7d 39 9c d2 e4 38 e8 30 26 94 de a9 62 b7
       0.00024177501 0.00010911116 -8.390503e-27 -1.35102e-05
000230 78 6e 44 b9 00 00 00 00 00 00 00 00 00 00 00 00
       -0.0001873317 0.0 0.0 0.0
000240 bb ea 5b 38 6c 6d 17 39 0a 80 d6 37 f5 30 26 15
       5.243228e-05 0.00014441245 2.557041e-05 3.3562053e-26
000250 b7 e6 6c b9 7b 2d 00 b8 00 00 00 00 00 00 00 00
       -0.00022592662 -3.0559935e-05 0.0 0.0
000260 00 00 00 00 bf f5 2b b8 78 f0 51 b9 a6 e8 ef 37
       0.0 -4.0998446e-05 -0.00020021375 2.8599356e-05
000270 40 58 b8 96 7e b3 2c 3a b1 ef ef b8 00 00 00 00
       -2.9782497e-25 0.0006588026 -0.00011441054 0.0
000280 00 00 00 00 00 00 00 00 ce e6 17 b8 73 bd f5 b9
       0.0 0.0 -3.621616e-05 -0.00046871192
000290 dc d6 63 b8 98 fa 98 14 19 ac 31 3a 95 6f 7c 37
       -5.432112e-05 1.544692e-26 0.0006777659 1.504635e-05
0002a0 00 00 00 00 00 00 00 00 00 00 00 00 66 2d 40 b9
       0.0 0.0 0.0 -0.00018327459
0002b0 d5 af b0 38 1f c3 71 38 9c 15 64 96 80 76 fe 39
       8.425085e-05 5.76406e-05 -1.8424512e-25 0.00048534945
0002c0 01 dc 18 b8 00 00 00 00 00 00 00 00 00 00 00 00
       -3.644452e-05 0.0 0.0 0.0
0002d0 01 b4 2d 38 20 56 12 39 41 aa a4 b6 2f 79 73 15
       4.1414056e-05 0.00013955729 -4.907401e-06 4.9169056e-26
0002e0 f9 d2 b7 b9 db ba 7c 38 00 00 00 00 00 00 00 00
       -0.00035061667 6.0255505e-05 0.0 0.0
0002f0 00 00 00 00 8f 47 5f 38 43 bc 68 38 b7 78 14 37
       0.0 5.3233987e-05 5.5488443e-05 8.8495935e-06
000300 c8 d9 03 16 8e e7 72 b9 61 df 6d b7 00 00 00 00
       1.0650815e-25 -0.0002316518 -1.417831e-05 0.0
000310 00 00 00 00 00 00 00 00 37 b6 1c 38 05 7a ca 36
       0.0 0.0 3.7363e-05 6.034274e-06
000320 7b 0b 81 b6 4b c9 18 95 45 e2 14 b8 ea c0 c4 36
       -3.845836e-06 -3.0854948e-26 -3.549668e-05 5.8637133e-06
000330 00 00 00 00 00 00 00 00 00 00 00 00 4a 1c 82 b8
       0.0 0.0 0.0 -6.204152e-05
000340 3d f7 c6 b9 44 b1 ad b8 9e 80 9e 94 7b 96 e4 39
       -0.0003794971 -8.282301e-05 -1.6004653e-26 0.00043599666
000350 aa ae 1a 39 00 00 00 00 00 00 00 00 00 00 00 00
       0.00014751652 0.0 0.0 0.0
000360 51 4a 33 38 3f 5d e1 35 37 32 f1 36 a8 fc b5 15
       4.274614e-05 1.6790945e-06 7.1882055e-06 7.350394e-26
000370 ae 8e c3 38 8a df e6 b8 00 00 00 00 00 00 00 00
       9.324901e-05 -0.00011008892 0.0 0.0
000380 00 00 00 00 06 15 17 b8 85 26 8a b7 87 4e f5 35
       0.0 -3.6020785e-05 -1.6468819e-05 1.8276777e-06
000390 2a c2 b5 15 4b 4f f9 b5 5f d5 b3 38 00 00 00 00
       7.3411655e-26 -1.8575023e-06 8.5751286e-05 0.0
0003a0 00 00 00 00 00 00 00 00 30 10 58 b8 0b 97 1a b8
       0.0 0.0 -5.151349e-05 -3.685713e-05
0003b0 9f 80 20 38 6b db de 15 f7 85 9e 39 db f2 30 b8
       3.826676e-05 9.0011266e-26 0.0003023592 -4.2187847e-05
0003c0 00 00 00 00 00 00 00 00 00 00 00 00 9b 16 71 38
       0.0 0.0 0.0 5.747993e-05
0003d0 e0 30 8b 39 4b 4d 67 37 b6 7b d5 15 8c 7f de b9
       0.0002654856 1.3786669e-05 8.6225196e-26 -0.0004243817
0003e0 3d 34 9e b8 00 00 00 00 00 00 00 00 00 00 00 00
       -7.543757e-05 0.0 0.0 0.0
0003f0 8d 65 11 b8 7d f8 c6 b8 34 b2 14 b7 10 a0 89 95
       -3.466527e-05 -9.48766e-05 -8.862979e-06 -5.5586393e-26

exp_avg_sq f4 [128, 9]
000000 e6 99 e6 33 f1 9b 2c 34 27 ce c5 34 43 87 c3 33
       1.07382036e-07 1.607548e-07 3.6844105e-07 9.104999e-08
000010 b4 2d 65 34 8a 5c 89 34 00 00 00 00 00 00 00 00
       2.1343914e-07 2.558557e-07 0.0 0.0
000020 00 00 00 00 20 2c 9c 32 0f 30 5d 33 35 d4 53 33
       0.0 1.8180856e-08 5.149928e-08 4.9320267e-08
000030 cd 52 8a 30 c4 47 81 33 03 76 e2 32 00 00 00 00
       1.0064355e-09 6.020085e-08 2.6363528e-08 0.0
000040 00 00 00 00 00 00 00 00 1a 71 ca 32 1a 57 67 32
       0.0 0.0 2.3567328e-08 1.3465774e-08
000050 3a 4e c8 32 c3 93 1a 2f cd ff b9 32 9a e2 e8 32
       2.3318638e-08 1.4058714e-10 2.165316e-08 2.7111401e-08
000060 00 00 00 00 00 00 00 00 00 00 00 00 cb 78 1f 33
       0.0 0.0 0.0 3.7129933e-08
000070 ca bf 6a 33 4e 92 13 34 3b a8 fd 31 2a 23 08 34
       5.46568e-08 1.3743667e-07 7.3823947e-09 1.267878e-07
000080 da 1b 8d 32 00 00 00 00 00 00 00 00 00 00 00 00
       1.6427226e-08 0.0 0.0 0.0
000090 0e 0d 88 32 09 c5 2e 33 51 af 63 33 3a 1a 97 32
       1.583842e-08 4.0691734e-08 5.3012005e-08 1.759064e-08
0000a0 26 9a 1c 32 2d 8d 02 33 00 00 00 00 00 00 00 00
       9.115444e-09 3.0396382e-08 0.0 0.0
0000b0 00 00 00 00 b1 30 2e 33 8e c7 53 34 3c d0 33 34
       0.0 4.0556817e-08 1.9723504e-07 1.674643e-07
0000c0 1c d1 23 32 c4 df ca 33 04 25 2c 34 00 00 00 00
       9.535395e-09 9.447061e-08 1.6032214e-07 0.0
0000d0 00 00 00 00 00 00 00 00 fc 86 b5 33 08 51 3c 34
       0.0 0.0 8.453023e-08 1.7538343e-07
0000e0 8e 6d 43 34 b4 4e 64 33 47 b9 9c 33 73 d6 94 34
       1.8200646e-07 5.3156967e-08 7.298018e-08 2.772318e-07
0000f0 00 00 00 00 00 00 00 00 00 00 00 00 8c 62 85 33
       0.0 0.0 0.0 6.211221e-08
000100 85 cb 4d 34 a3 c1 3a 34 58 b4 e6 32 95 81 65 34
       1.9166153e-07 1.7393045e-07 2.6857535e-08 2.1374429e-07
000110 88 3a ef 33 00 00 00 00 00 00 00 00 00 00 00 00
       1.11399515e-07 0.0 0.0 0.0
000120 a2 f4 0b 34 77 a7 68 33 05 2e 9e 34 3e 08 08 32
       1.303438e-07 5.4169018e-08 2.9463277e-07 7.918116e-09
000130 9d 8e 0a 34 ca b1 65 34 00 00 00 00 00 00 00 00
       1.2904134e-07 2.1391966e-07 0.0 0.0
000140 00 00 00 00 0a 9b 88 34 ea af e1 34 0f 78 5c 35
       0.0 2.544478e-07 4.203751e-07 8.2131095e-07
000150 aa 53 04 34 9e 54 44 34 91 f1 71 35 00 00 00 00
       1.2323895e-07 1.8284706e-07 9.013102e-07 0.0
000160 00 00 00 00 00 00 00 00 27 10 81 34 a7 1f b6 34
       0.0 0.0 2.4039875e-07 3.3923172e-07
000170 6a 38 12 35 4b b2 02 32 70 6d 33 35 63 ee 93 34
       5.447133e-07 7.607535e-09 6.684195e-07 2.7554333e-07
000180 00 00 00 00 00 00 00 00 00 00 00 00 65 b0 97 32
       0.0 0.0 0.0 1.7658929e-08
000190 85 b3 42 33 6d b7 b5 33 86 98 13 32 a5 d0 55 33
       4.5332417e-08 8.461834e-08 8.591206e-09 4.9782688e-08
0001a0 cb e2 34 33 00 00 00 00 00 00 00 00 00 00 00 00
       4.2115783e-08 0.0 0.0 0.0
0001b0 57 79 1f 34 0d fe 42 35 52 69 4b 35 23 bb 9d 33
       1.4852172e-07 7.2640324e-07 7.5776654e-07 7.344922e-08
0001c0 68 79 47 35 37 e8 a4 34 00 00 00 00 00 00 00 00
       7.4309946e-07 3.071634e-07 0.0 0.0
0001d0 00 00 00 00 9b 22 1c 33 0a b8 04 34 4a 08 74 34
       0.0 3.6353054e-08 1.2360411e-07 2.2727286e-07
0001e0 21 5e 83 31 44 8d 30 34 1d 1a ec 33 00 00 00 00
       3.823303e-09 1.644267e-07 1.09943564e-07 0.0
0001f0 00 00 00 00 00 00 00 00 2c fb 91 34 ff b1 a2 34
       0.0 0.0 2.7191106e-07 3.030436e-07
000200 15 c2 21 35 07 e9 08 33 41 a2 02 35 e0 d9 9a 34
       6.02596e-07 3.1876905e-08 4.8664884e-07 2.884326e-07
000210 00 00 00 00 00 00 00 00 00 00 00 00 25 a1 02 33
       0.0 0.0 0.0 3.0414544e-08
000220 4f 81 10 34 95 df a9 33 82 c1 7c 32 d5 d8 e8 33
       1.3458087e-07 7.910345e-08 1.4712329e-08 1.08427834e-07
000230 74 10 4b 33 00 00 00 00 00 00 00 00 00 00 00 00
       4.7279585e-08 0.0 0.0 0.0
000240 98 e8 30 33 99 ad 30 33 1b af 0d 34 34 83 b8 31
       4.1189736e-08 4.113608e-08 1.3195351e-07 5.370021e-09
000250 ad 27 e3 33 5f 41 6c 33 00 00 00 00 00 00 00 00
       1.0577728e-07 5.5007487e-08 0.0 0.0
000260 00 00 00 00 ad 27 81 34 d3 55 e3 34 b4 5a 59 35
       0.0 2.405699e-07 4.234449e-07 8.097079e-07
000270 03 cf ed 33 48 67 09 35 b6 01 e8 34 00 00 00 00
       1.1073828e-07 5.118677e-07 4.3214612e-07 0.0
000280 00 00 00 00 00 00 00 00 53 8f af 34 33 63 2c 35
       0.0 0.0 3.2700572e-07 6.4219347e-07
000290 22 95 83 35 8f f5 69 34 11 39 68 35 7d c5 0c 35
       9.803664e-07 2.178915e-07 8.650978e-07 5.244145e-07
0002a0 00 00 00 00 00 00 00 00 00 00 00 00 2d d4 37 34
       0.0 0.0 0.0 1.7120392e-07
0002b0 70 f0 2c 35 52 fe 4a 35 06 56 56 33 fd 73 46 35
       6.4424876e-07 7.562095e-07 4.9903996e-08 7.3929533e-07
0002c0 d6 0f 11 35 00 00 00 00 00 00 00 00 00 00 00 00
       5.4039754e-07 0.0 0.0 0.0
0002d0 0a 3c 2b 33 b8 81 93 33 5f 33 d5 33 74 4e 0c 31
       3.9868645e-08 6.8688166e-08 9.92793e-08 2.0417277e-09
0002e0 3f e6 a1 33 70 f5 8f 33 00 00 00 00 00 00 00 00
       7.539028e-08 6.703601e-08 0.0 0.0
0002f0 00 00 00 00 4e 1b eb 32 9c cf 5a 33 66 23 d3 33
       0.0 2.7370017e-08 5.09459e-08 9.831892e-08
000300 d3 18 00 32 3c 82 a5 33 aa 61 88 33 00 00 00 00
       7.456225e-09 7.707101e-08 6.3507585e-08 0.0
000310 00 00 00 00 00 00 00 00 26 c2 7c 33 22 d1 88 33
       0.0 0.0 5.88499e-08 6.3710345e-08
000320 a6 89 ae 34 d6 c5 cb 31 64 f5 2b 34 b9 38 43 33
       3.2510178e-07 5.930569e-09 1.6014889e-07 4.5453564e-08
000330 00 00 00 00 00 00 00 00 00 00 00 00 88 a3 24 34
       0.0 0.0 0.0 1.5333183e-07
000340 d3 77 88 34 8c 96 f6 34 87 1b 94 32 f6 97 e6 34
       2.5419158e-07 4.5930608e-07 1.7241986e-08 4.2951405e-07
000350 c2 70 98 34 00 00 00 00 00 00 00 00 00 00 00 00
       2.8394248e-07 0.0 0.0 0.0
000360 81 44 f5 32 03 1b af 33 21 df d7 33 04 48 42 33
       2.8552906e-08 8.153986e-08 1.00523046e-07 4.5234643e-08
000370 1f 70 1c 33 92 6f ca 33 00 00 00 00 00 00 00 00
       3.6423554e-08 9.4266525e-08 0.0 0.0
000380 00 00 00 00 b0 61 fe 32 6f 72 e0 33 77 cf fe 33
       0.0 2.9613915e-08 1.0451628e-07 1.1865534e-07
000390 24 1a 97 32 8f 13 a4 33 ba ad c2 33 00 00 00 00
       1.7590601e-08 7.640403e-08 9.06543e-08 0.0
0003a0 00 00 00 00 00 00 00 00 5a b9 1d 33 dd f8 16 34
       0.0 0.0 3.6722987e-08 1.4060375e-07
0003b0 32 95 17 34 56 38 11 32 01 df 21 34 8a ce 73 33
       1.4117248e-07 8.45292e-09 1.5075422e-07 5.6765693e-08
0003c0 00 00 00 00 00 00 00 00 00 00 00 00 0a 96 76 33
       0.0 0.0 0.0 5.7412798e-08
0003d0 d0 f7 28 34 b0 d9 1a 34 a5 f6 8a 32 87 42 0d 34
       1.5736373e-07 1.4421562e-07 1.6177475e-08 1.3155851e-07
0003e0 af c1 f2 33 00 00 00 00 00 00 00 00 00 00 00 00
       1.1304234e-07 0.0 0.0 0.0
0003f0 7b 0f cd 32 61 e8 6d 33 ca 22 d5 33 7c 75 b1 32
       2.387218e-08 5.539221e-08 9.9249135e-08 2.0658938e-08

exp_avg f4 [128]
000000 9e 48 07 39 74 c9 59 b8 a0 6a 24 39 7a 7f b5 37
       0.00012901655 -5.192445e-05 0.0001567998 2.1636242e-05
000010 82 05 e7 b7 da ff cb 38 5e c2 cc b8 fe 0a 11 39
       -2.753991e-05 9.7274504e-05 -9.763682e-05 0.00013832372
000020 6f c3 f2 38 20 33 f6 b8 9e 7e 6d 39 58 c7 cd b8
       0.000115758616 -0.00011739717 0.0002264925 -9.8122924e-05
000030 a3 29 66 39 4b aa fd 38 24 6b 97 39 89 d6 88 b9
       0.0002195002 0.000120957 0.0002888079 -0.00026099783
000040 fa c8 42 b9 18 c7 9b 39 36 81 11 3a 42 a6 03 38
       -0.00018576151 0.0002971224 0.0005550565 3.1387674e-05
000050 d7 80 49 b9 14 4d e4 b8 d1 17 ad b7 af 8e ee 39
       -0.0001921685 -0.00010886244 -2.0634297e-05 0.00045501205
000060 1a f2 35 37 ce 95 0a 37 13 56 93 38 f4 76 a5 b9
       1.0844809e-05 8.26032e-06 7.025539e-05 -0.0003155988
000070 43 ae ea 38 33 0b a2 39 39 10 a9 39 68 a7 84 b9
       0.00011190448 0.00030907392 0.0003224628 -0.0002530173
000080 cb bd 86 b8 ea 4b 54 39 6f 6c d3 39 76 77 60 38
       -6.4249696e-05 0.00020246176 0.00040325845 5.351702e-05
000090 79 7b b6 b9 8e 68 88 38 80 19 5a b8 f8 e7 7f 39
       -0.0003480574 6.50446e-05 -5.1999e-05 0.0002440511
0000a0 6a 61 9d 39 43 46 8a 3a ec 75 a6 39 a9 d2 12 39
       0.00030017953 0.0010549504 0.00031749846 0.00014002122
0000b0 02 10 a8 b8 27 98 7b b7 fe 54 da b8 fc 2c 07 38
       -8.013846e-05 -1.4996192e-05 -0.00010410881 3.2228403e-05
0000c0 b3 dd be 38 a0 ca d3 b8 5f 15 bf b8 c2 d4 78 38
       9.101201e-05 -0.00010099006 -9.1115704e-05 5.9325954e-05
0000d0 a7 a0 e5 39 0f 1c 5d 38 d4 64 1b 39 5d a6 8f b7
       0.0004379798 5.2716638e-05 0.00014819513 -1.7124397e-05
0000e0 57 d1 c3 b8 83 cf 9a 37 4a e2 0b 39 ff c7 e4 37
       -9.337317e-05 1.845486e-05 0.00013340372 2.7272848e-05
0000f0 36 a8 00 b6 d4 e2 5a 39 f0 cb 19 b7 cf 21 0c 39
       -1.9171398e-06 0.000208746 -9.166994e-06 0.00013364035
000100 b4 4c 52 39 9c 17 94 38 53 fe 42 37 db 24 6e 38
       0.00020055735 7.0615875e-05 1.1622516e-05 5.6777946e-05
000110 31 9e 3d b9 cd 17 c5 39 2c 11 0f 3a 56 a0 38 39
       -0.00018083375 0.000375925 0.0005457576 0.00017607337
000120 d2 0c 8d 39 16 88 18 b9 3e 8c 99 38 ef 5a 11 38
       0.00026903168 -0.00014546546 7.321731e-05 3.4655382e-05
000130 6e 42 07 39 33 0b f5 b8 78 ef 88 39 9a d9 e1 38
       0.0001289935 -0.000116845964 0.0002611836 0.000107693675
000140 dd b9 3d 38 19 3b bb 38 8b 11 68 3a 48 62 be 39
       4.523421e-05 8.927863e-05 0.0008852712 0.0003631285
000150 e8 f8 4b 39 02 f4 71 38 70 87 46 39 b4 45 11 b9
       0.00019452313 5.7686128e-05 0.00018933206 -0.00013854244
000160 da bf 0b 37 c2 82 df b7 b3 b7 79 39 3c 1a b9 b8
       8.329715e-06 -2.664456e-05 0.00023814924 -8.826374e-05
000170 49 6a 18 b9 cf 60 b0 b8 2d c6 ec b7 b8 be 08 b9
       -0.00014535444 -8.410366e-05 -2.8225675e-05 -0.00013041019
000180 84 21 6e 38 d1 96 2f b9 81 d6 d5 b8 2b 9b 96 38
       5.6774836e-05 -0.00016745484 -0.00010196586 7.18146e-05
000190 be c5 81 39 58 26 d1 38 15 94 8c b8 a9 6c 41 38
       0.00024752127 9.973039e-05 -6.703303e-05 4.6115983e-05
0001a0 1f 3f 02 38 f3 a1 c8 b8 99 d5 28 b7 51 78 19 3a
       3.10532e-05 -9.5669086e-05 -1.0063312e-05 0.00058544154
0001b0 0b 4a 86 b8 6c c8 29 37 f2 ca bf 37 1a c6 14 b9
       -6.4034095e-05 1.0119849e-05 2.2863478e-05 -0.00014188178
0001c0 8a b9 cb 38 e9 81 61 b9 c3 85 c9 b9 ea be 99 b9
       9.714354e-05 -0.00021506067 -0.00038437368 -0.00029324676
0001d0 85 24 74 b9 49 11 05 38 08 da 7b b7 5f 60 78 b9
       -0.00023283258 3.172577e-05 -1.501153e-05 -0.00023687024
0001e0 94 64 a5 37 5f 15 c8 37 04 19 c7 39 ec f0 39 b8
       1.9716368e-05 2.385181e-05 0.00037974876 -4.4331813e-05
0001f0 53 0c 20 3a f2 cf 5a b9 a8 a1 08 37 b2 9f d2 37
       0.0006105352 -0.00020867566 8.14387e-06 2.5108315e-05

exp_avg_sq f4 [128]
000000 5b d6 2c 35 85 28 fd 33 be 67 84 33 3c 2b 77 34
       6.438692e-07 1.1788601e-07 6.1655996e-08 2.3019396e-07
000010 92 97 ec 33 83 fb d9 34 e5 25 ed 34 73 38 e6 34
       1.1017177e-07 4.06024e-07 4.4172262e-07 4.288191e-07
000020 ac a6 03 35 78 a5 c8 35 28 92 97 35 44 73 1f 34
       4.904384e-07 1.4949319e-06 1.1292914e-06 1.4849962e-07
000030 0d 90 d8 35 e3 6a ce 34 17 ed 9f 35 26 b7 82 34
       1.6135178e-06 3.844826e-07 1.1915425e-06 2.4347645e-07
000040 d8 6e 64 34 6f 40 c6 35 c6 b8 02 36 44 1f d4 35
       2.127448e-07 1.4770902e-06 1.9479062e-06 1.580433e-06
000050 be 62 5e 34 df de 3d 34 9c e4 f3 34 3e 76 67 35
       2.0711283e-07 1.7683077e-07 4.5428612e-07 8.622627e-07
000060 ab 90 62 34 9d 21 88 34 96 5a aa 34 14 5f be 34
       2.110052e-07 2.535643e-07 3.1730877e-07 3.5459436e-07
000070 ce 80 3e 34 f6 6b 85 34 d6 17 bf 34 8f 28 4c 34
       1.7741988e-07 2.4851732e-07 3.5593865e-07 1.9013736e-07
000080 9a 7a 53 34 6f d9 60 35 2b 3b 47 35 c0 5a 66 34
       1.9695509e-07 8.376291e-07 7.421938e-07 2.1453434e-07
000090 e7 90 78 35 e8 99 dc 33 0e 81 b3 34 c6 88 59 35
       9.259806e-07 1.0272544e-07 3.3435248e-07 8.103783e-07
0000a0 62 e3 ba 35 1e 3f 75 36 17 a8 2d 35 6f ee 38 35
       1.3924257e-06 3.6544584e-06 6.4692125e-07 6.889231e-07
0000b0 41 e1 8d 34 9d 68 9e 35 1d c4 10 35 f5 e8 48 34
       2.642719e-07 1.1802364e-06 5.392956e-07 1.8711201e-07
0000c0 d5 cd 59 34 f0 2e 8e 34 86 48 41 35 57 c8 85 34
       2.0284581e-07 2.6483713e-07 7.200364e-07 2.4918947e-07
0000d0 0c 2c 59 35 b7 1d 87 35 70 5a 98 35 32 ed bd 34
       8.0902896e-07 1.0066932e-06 1.1351203e-06 3.5376576e-07
0000e0 51 5d d4 34 09 50 09 35 10 08 01 34 3f fb a8 34
       3.9555974e-07 5.1152944e-07 1.2016994e-07 3.1475244e-07
0000f0 b1 d4 e1 33 2c 95 a2 34 44 85 4f 35 6c 21 d6 34
       1.0516067e-07 3.0283388e-07 7.7307436e-07 3.9884924e-07
000100 6a dc 96 34 4c 67 71 34 95 af 5e 34 53 4d 0e 34
       2.810005e-07 2.2482453e-07 2.0739238e-07 1.3252911e-07
000110 f6 95 81 34 e7 f9 81 35 fd d4 3a 35 30 1d a4 34
       2.4137233e-07 9.68398e-07 6.960034e-07 3.0568617e-07
000120 4c 49 38 34 3f e7 a2 35 c6 44 a9 34 bf 35 28 34
       1.7163e-07 1.2137242e-06 3.1528742e-07 1.5665772e-07
000130 60 04 c6 34 2b f3 92 35 60 0b 3e 35 9c 7f 61 34
       3.6883557e-07 1.0948619e-06 7.079707e-07 2.1001182e-07
000140 7b 2c 17 34 c3 8f 97 35 2d ec b1 35 5d 09 e3 35
       1.4079153e-07 1.1292217e-06 1.3256264e-06 1.6915543e-06
000150 5b f7 93 34 ff ee b1 34 90 81 2a 34 ec 86 37 34
       2.7560858e-07 3.3142712e-07 1.5879618e-07 1.7092287e-07
000160 d3 29 c6 34 c8 7d fb 34 f0 af 0a 35 65 6f a5 34
       3.6910805e-07 4.684391e-07 5.166503e-07 3.0814695e-07
000170 b1 d4 60 34 f1 61 d1 34 e1 e0 da 33 98 14 ab 34
       2.0939002e-07 3.9000545e-07 1.0192321e-07 3.1866216e-07
000180 13 91 27 35 c0 15 92 34 46 6e 26 35 c5 86 ff 33
       6.242346e-07 2.7210444e-07 6.200029e-07 1.1898877e-07
000190 5b 41 aa 34 cb 0d da 34 11 95 d3 33 71 e6 aa 33
       3.171252e-07 4.06157e-07 9.852568e-08 7.958159e-08
0001a0 38 c4 cd 33 ff b9 e5 33 9e 93 a0 34 60 cc af 35
       9.5817484e-08 1.0697476e-07 2.9909728e-07 1.3097997e-06
0001b0 97 a6 ee 33 b3 62 d3 34 51 e2 4c 34 b4 79 27 33
       1.1113041e-07 3.9373626e-07 1.9081314e-07 3.8993406e-08
0001c0 a9 c4 2c 35 10 2d c6 34 3d 22 9a 34 2a 7b ab 35
       6.436117e-07 3.691316e-07 2.8709647e-07 1.2776338e-06
0001d0 8f 77 09 35 7b 34 9b 34 84 b4 2a 34 3a fe 9a 34
       5.121046e-07 2.8909184e-07 1.5898155e-07 2.886971e-07
0001e0 25 12 e8 34 d6 e9 eb 33 f3 14 85 35 a5 38 c7 34
       4.322657e-07 1.0985575e-07 9.915369e-07 3.7107853e-07
0001f0 a8 24 8c 35 ce 1e cf 34 99 fd 5b 34 bc 16 60 32
       1.0441481e-06 3.8579168e-07 2.0488223e-07 1.3043685e-08
