VirtualAquarium/results/VirtualAquariumNew/VirtualAquarium/VirtualAquarium-57062.onnx (onnx, 74013 bytes, 7 tensors)

action_model._continuous_distribution.log_sigma f4 [1, 4]
000000 2b 37 cb bc f7 91 c5 bc 7b eb f3 bd 66 e8 52 be
       -0.02480658 -0.024117453 -0.11910149 -0.20596465

action_model._continuous_distribution.mu.bias f4 [4]
000000 8e 9a b9 bc 16 68 16 3a 32 89 ba bb 37 88 3d bd
       -0.022656705 0.0005737556 -0.0056926245 -0.046272483

action_model._continuous_distribution.mu.weight f4 [4, 128]
000000 61 d6 09 3c b5 71 75 bc 3d d0 09 bd 16 cc 9e 3c
       0.008412928 -0.014980723 -0.033645857 0.019384425
000010 c7 c9 d4 3a 5d bd 81 3a 4e d3 b8 bc 79 e3 1a 3c
       0.0016234451 0.0009898354 -0.022561695 0.009453648
000020 58 01 38 bb 85 0e c4 3c 68 d7 8b 3c 45 6e 8b 3c
       -0.0028076973 0.023932705 0.017070487 0.017020354
000030 79 3e b9 3c e9 82 ce 3c bc d2 84 3c 3b b2 0a 3d
       0.022612797 0.025208907 0.016213767 0.03386138
000040 28 62 79 bb 1f 9f d8 3c f7 5a 5f 3c 87 0f 25 bc
       -0.003805289 0.026443062 0.013632528 -0.010074503
000050 2d 63 dc bc 86 e8 01 3d 99 c0 bb 3c 6e 75 6c 3b
       -0.02690276 0.031715892 0.022918986 0.0036080736
000060 ec 6b bd bb 43 6a 63 3c 32 1c bf bc f1 51 cc bc
       -0.0057806876 0.013880315 -0.023328874 -0.024941416
000070 7f ff 91 3b ad c3 50 3b 5a e4 95 3c c4 2c 5a 3b
       0.0044555063 0.0031854913 0.018297363 0.0033290843
000080 88 bb 3d bc 79 df 7c 3c 46 39 96 3a 6b 3c 29 3c
       -0.011580355 0.015434139 0.0011461161 0.010329346
000090 c5 77 52 b9 fb 19 3c 3c 44 fe 17 3c bf 59 0d b9
       -0.00020071778 0.011480804 0.00927693 -0.00013480241
0000a0 04 b7 42 3b bb 27 6b 3b 8f d7 a6 3b 9e 37 ad bc
       0.0029711137 0.0035881836 0.0050916146 -0.021144684
0000b0 7b 1e ea bb db 06 a1 bb 4f 54 aa bc 81 62 19 bc
       -0.007144747 -0.0049141473 -0.020792155 -0.009361864
0000c0 3b 21 eb 3b 42 c5 ee 3b 7f 3d cf 3b bc 07 16 bb
       0.0071755922 0.0072866986 0.0063244696 -0.0022892794
0000d0 c3 68 50 3d 71 eb 0e bc 1f a3 8b 3b c1 f9 05 bc
       0.05088116 -0.008723126 0.004261389 -0.008177222
0000e0 90 2e 10 bc 26 90 f5 3b 9e f2 0d bc f0 68 5d 3b
       -0.008800164 0.0074939905 -0.0086638015 0.0033784471
0000f0 8a 5c 14 3c fe f4 4f bc fe a7 ab bb 32 a7 b3 3b
       0.009055266 -0.012692688 -0.005238532 0.0054825777
000100 8b 0a c7 bc 39 38 33 bb d9 aa f3 bc dd 04 94 3c
       -0.02429702 -0.0027346744 -0.029744552 0.018068725
000110 34 ea ee 3b b0 e6 44 3c ff aa aa bc f1 d0 fa 3b
       0.007291103 0.012017891 -0.02083349 0.0076543023
000120 63 7a d8 bc 09 e2 80 3c 15 df 97 bc a7 1a 16 bc
       -0.026425546 0.015732782 -0.018538991 -0.009161628
000130 6b 86 54 3b 14 88 be bb 46 5e 1c 3d 1f 1b ac bb
       0.0032428752 -0.0058145616 0.038175844 -0.0052522565
000140 0e 73 ba ba 1d de 2b bc 20 da 6d bb 5c 18 89 bc
       -0.0014224963 -0.010489968 -0.0036293343 -0.016735248
000150 3c 7c b2 bc d8 57 21 3c 84 42 8f 3b fe e1 f7 bb
       -0.021787755 0.009847604 0.004371943 -0.007564782
000160 1c df cd bb 28 c1 86 3c 97 f7 ee bc e0 0b 43 3c
       -0.0062827 0.016449526 -0.029170794 0.011904687
000170 e9 5b b7 bb c6 17 18 bd 75 b3 40 3c c9 b2 65 3c
       -0.0055956733 -0.037132047 0.011761536 0.0140196765
000180 60 9f bb bb 75 7e 3d bc 0c 7d fc bc ed 0f ca bb
       -0.005725786 -0.011565794 -0.030821346 -0.0061664493
000190 73 77 0c bc 24 d5 2d ba 80 bb 05 3b 4f 66 80 3c
       -0.008573401 -0.00066311867 0.0020405948 0.015673785
0001a0 58 d4 90 3c a8 c9 6d 3b a3 1e 18 bd ef ea 33 38
       0.017679378 0.0036283527 -0.037138592 4.2895725e-05
0001b0 a5 e8 98 ba b2 2b cf 3b c4 c1 1b 3c ad 85 70 bc
       -0.0011666013 0.0063223476 0.009506647 -0.014680308
0001c0 92 1d 0a 3d 9e 53 5b 3c e8 4c 14 bc 40 74 8d bc
       0.033719607 0.013386635 -0.009051539 -0.017267346
0001d0 d8 4c e0 ba cd 95 db bb d0 b6 20 bc 5b a2 c0 3c
       -0.0017112745 -0.0067012073 -0.009809211 0.023514917
0001e0 13 b2 9f bc db 1e 40 bc f8 a0 e6 bc b2 ed 14 3c
       -0.019494092 -0.0117261065 -0.028152928 0.009089874
0001f0 3b 68 11 bd a5 6c 8b bc a3 85 ab bc 21 ab 75 bb
       -0.035499793 -0.01701958 -0.020937746 -0.0037486034
000200 18 c8 40 bc 70 fa f1 3b bf 6b 84 bc ee d9 22 3b
       -0.011766456 0.007384591 -0.016164659 0.0024849134
000210 83 1d 7b 3c ba 06 7f 3b 04 94 0c 3c c6 77 96 3c
       0.01532686 0.0038913921 0.008580212 0.01836766
000220 71 42 11 3c 23 07 d0 bc 20 cb 5a 3c c1 6e b5 3c
       0.0088659385 -0.025394028 0.013354093 0.022147538
000230 a2 5b b1 3b a1 41 64 bc 01 fb 69 3c 08 4f c8 bc
       0.005412535 -0.013931663 0.014281035 -0.024451748
000240 3a 30 27 bb 0f e9 0b 3d 70 22 bf 3c 1d 46 0a bc
       -0.0025510923 0.03415781 0.02333185 -0.008439568
000250 88 17 82 bc 30 c1 76 3c f6 38 a5 bc 2f 89 9a 3b
       -0.015880361 0.015060708 -0.020168763 0.0047160606
000260 4e 91 a9 3a 3d 4d 4c bc b0 58 05 bb c5 d0 1c 3c
       0.0012936981 -0.012469587 -0.0020347051 0.009571259
000270 97 62 86 bc 70 8b 30 3b d6 e2 01 3c 47 a0 aa bc
       -0.016404433 0.002693858 0.007927617 -0.02082838
000280 7a 3c 1b 3d cb 92 bd 3c e1 10 33 bb fe de 8b 3b
       0.03789947 0.023141285 -0.0027323293 0.004268526
000290 41 d6 93 3c b3 0e 4b bb 1a a0 05 3d 13 b6 be 3b
       0.0180465 -0.0030984103 0.032623388 0.005820045
0002a0 af b6 61 bc 5e 2d 83 bb 33 a6 9d bb ae a0 45 3c
       -0.013776465 -0.004003211 -0.0048110723 0.012062235
0002b0 c7 49 08 bb 3d 0e 82 bd e3 c8 99 3c a2 c5 bd bb
       -0.0020795928 -0.06350372 0.018772548 -0.005791382
0002c0 40 92 27 bc ed cf 61 3b 75 f1 cc bc c7 ca 60 bb
       -0.01022774 0.0034456209 -0.02501748 -0.0034300552
0002d0 5b dd b0 bc c8 b6 ad bc c4 9c e9 3c 08 4b 93 3c
       -0.021589926 -0.021205321 0.028517134 0.017980114
0002e0 50 fd 24 bb f6 40 08 3d 87 35 da 3b ab a2 a3 3a
       -0.00251754 0.033265077 0.006659213 0.0012484392
0002f0 52 21 6d bc 4d b6 7e bc 99 df 9e bc 0d b5 23 ba
       -0.014473276 -0.015546394 -0.019393729 -0.0006244935
000300 a4 40 b3 3b eb e3 b1 3c e8 9e ed 3c 97 73 85 bc
       0.0054703522 0.021715125 0.029006436 -0.01629047
000310 b8 37 b6 bc cd 1b b0 bc ec bb f2 3c ae b5 87 bc
       -0.022243366 -0.021497631 0.029630624 -0.016566124
000320 1e ed b1 bc f9 26 40 3a 33 14 17 bc 4b 8b 23 bc
       -0.021719512 0.0007330026 -0.009221124 -0.0099819405
000330 92 2f 48 bc cc 39 cf bb 7a 29 36 3d c3 d8 08 3c
       -0.012218373 -0.0063240286 0.04447315 0.008352461
000340 a8 77 b2 3b 9c d5 48 bb 66 ca 1f bc 33 2f 99 39
       0.005446393 -0.00306449 -0.009752845 0.000292176
000350 11 1a 10 bd 0e 19 4a 3c f9 6d d9 3b 48 fa 47 3c
       -0.03518111 0.012335075 0.006635424 0.012205668
000360 51 74 37 3c 1d 55 88 ba f1 3e 05 bb bf 57 ac 3a
       0.011197166 -0.0010401342 -0.0020331705 0.0013148709
000370 8d 55 00 3c d6 37 2a bb 09 6a d6 bc 8c 8e a3 3c
       0.007832897 -0.0025973222 -0.026173608 0.019965433
000380 3d 95 d7 3b 85 88 22 3d 02 35 0f bd af 1d 6c bd
       0.00657907 0.039680976 -0.03496266 -0.057645496
000390 5b 97 dd 3b ed d5 9e bb 83 d9 a4 bb 16 c6 05 bc
       0.0067624277 -0.0048472793 -0.005030812 -0.008164903
0003a0 88 5a 58 bd 73 f9 f2 bb 4b 49 da bc a4 4e c7 3c
       -0.052820712 -0.0074149906 -0.026646277 0.024329491
0003b0 3f 71 a5 bb e6 3e 3d bc d9 f1 d2 bb 7e a6 5c bc
       -0.0050489004 -0.011550641 -0.006437522 -0.013467429
0003c0 e6 24 6f 3b f2 b2 23 bc b4 1b e3 3b 35 b5 55 bc
       0.00364905 -0.009991394 0.0069307927 -0.013043691
0003d0 d9 53 61 bd f6 13 08 bc 88 59 c1 bc ec 82 5f bb
       -0.055011604 -0.00830554 -0.023602262 -0.0034105135
0003e0 83 cd 50 3a 55 74 18 bc ae cd fc 38 a8 a8 fc bc
       0.0007965194 -0.0093050795 0.00012054607 -0.03084214
0003f0 cb 09 da ba 50 be d6 bb a3 ec 0c 3d 2b 94 b4 3b
       -0.0016634999 -0.0065534487 0.03440536 0.005510827

network_body._body_endoder.seq_layers.0.bias f4 [128]
000000 37 24 bf 3c 95 2d 3c bd 4b 7e fc 3c 7e e8 45 bd
       0.023332698 -0.045941908 0.03082194 -0.048317425
000010 c3 90 fc 3b 32 b9 26 bd b1 ec 18 3d 2a 91 17 bc
       0.0077076866 -0.04070396 0.0373351 -0.009250918
000020 37 f4 84 3c 6b 3d a5 3c 80 ed ff 3c 81 51 29 bd
       0.016229732 0.020170888 0.031241179 -0.041337494
000030 24 87 28 3d e7 55 24 bd 71 48 16 3b 2f 6f ec bc
       0.041144505 -0.040120985 0.0022931362 -0.02886161
000040 bd 6d b1 bb 02 e0 84 bc 81 5a b3 3c 07 95 f8 3c
       -0.005414693 -0.016220096 0.021893742 0.0303445
000050 3b 28 9a bc 94 6c 02 3d 2b ec d8 3d 2f fb 39 bd
       -0.018818012 0.03184183 0.105919205 -0.045405563
000060 9b 04 c1 3c 73 96 c8 3b 14 7f c6 3b a9 4a 2d bc
       0.023561766 0.0061214506 0.0060576294 -0.010576882
000070 c9 11 4d 3a f9 36 94 3c 1b 8a 03 3c a4 a5 dc bc
       0.00078227796 0.01809262 0.008028532 -0.026934452
000080 05 95 7d bd 9a ce 84 bc 78 1a 72 bc 2d 45 5c 3c
       -0.061909694 -0.016211797 -0.014776818 0.013444227
000090 cd b3 c2 bc 7f 55 95 bc 30 cd 50 3c ae 87 ee 3c
       -0.023767376 -0.018229244 0.012744233 0.029117431
0000a0 7c 7b 00 3c f8 2c a2 bc 06 c7 90 bd 46 db 50 bc
       0.007841941 -0.019796833 -0.07069211 -0.012747591
0000b0 bb b5 ca bc b7 85 b6 3c 84 7e 12 3d 8c 7d 39 3d
       -0.024744859 0.022280557 0.035765186 0.045285746
0000c0 2d e2 e9 3a 1f ba 8d bc 8d e3 91 bd e0 8d 46 3d
       0.0017843895 -0.017300664 -0.0712348 0.048475146
0000d0 b0 94 95 bc 65 a1 9b 3b ae 02 8b bb 87 5f 97 bd
       -0.018259376 0.0047494643 -0.004242263 -0.07391267
0000e0 97 4e 8f 3c 7e bd cd bc 18 29 29 bc ad bd d1 3b
       0.01749353 -0.025114771 -0.010324739 0.006400785
0000f0 fc 30 a5 bd 28 f7 5e 3d 62 99 26 bd 71 ce d7 3c
       -0.08065984 0.054434925 -0.04067362 0.026343556
000100 75 22 1e 3b fe 2c 6f bc eb 66 11 3d 3b 8e af bc
       0.0024129425 -0.014598129 0.03549854 -0.021430125
000110 ba 6e a8 ba 92 b8 77 bc 72 47 dc 3b 1a 06 34 3d
       -0.0012850382 -0.015119689 0.006722384 0.04395113
000120 52 db 2a bd f5 b2 d9 bc 5b 70 10 bc d2 55 60 bd
       -0.041713066 -0.026574591 -0.00881585 -0.054769345
000130 04 ba 0a bd c5 1d a7 bb 03 62 d2 3c e1 e0 a2 bd
       -0.033868805 -0.0050999844 0.025681501 -0.079530485
000140 f0 57 4f 3d 8d 75 ca 3c 70 e5 07 bd fb 64 55 3c
       0.050620973 0.024714256 -0.033177793 0.013024564
000150 e0 e4 c5 bc c2 c6 e6 bc 68 3a b8 3b f1 f6 8c bd
       -0.024156988 -0.028170947 0.005622197 -0.06883038
000160 8a a1 ac 3c 16 18 32 3c f4 30 9f bc d5 92 1c bb
       0.021073122 0.01087 -0.019432522 -0.002389123
000170 bd 01 82 3d e9 28 bc bb 4a 9d 85 3b 91 19 b9 bc
       0.06347988 -0.0057421816 0.004077588 -0.022595199
000180 40 5f 46 3b 7e 2f 08 37 1c 19 96 bc 53 a9 fd 3c
       0.0030269176 8.117289e-06 -0.01832252 0.03096453
000190 2d bb 07 3d bd a3 89 bb a8 d5 c9 bb 73 59 3d bc
       0.03313749 -0.0042004273 -0.006159503 -0.011556971
0001a0 5e e2 72 bc b7 a1 98 bd b9 42 e2 bb cc 72 a8 bc
       -0.014824478 -0.0745272 -0.0069049266 -0.020562552
0001b0 24 03 b2 bc 89 f0 14 3d 33 1c 05 bd 79 bd 85 bb
       -0.021730013 0.036362205 -0.032497596 -0.004081425
0001c0 26 08 dc ba 03 9c dd 3b c6 b9 03 bc 45 f4 10 bd
       -0.0016787096 0.006762983 -0.008039897 -0.035389204
0001d0 ff 31 a0 3d 14 72 87 3d 12 8e e8 bc 74 73 21 3b
       0.07822036 0.066135556 -0.028388057 0.0024635466
0001e0 93 81 e5 bc 38 e9 33 bd 82 78 35 bc ad 4f 84 3c
       -0.028015887 -0.043923587 -0.011076095 0.016151274
0001f0 70 f6 d6 bc 7d dc bd 3a 58 d8 cd 3b b3 66 67 3d
       -0.026240557 0.0014485266 0.0062818937 0.056494426

network_body._body_endoder.seq_layers.0.weight f4 [128, 7]
000000 77 45 be 3e f3 3d 4d bf cc f1 15 3e 3b 10 e4 be
       0.37162372 -0.8017265 0.1464302 -0.44543633
000010 c0 a7 2e be 33 0b 82 bd 33 ee 79 3d 65 4b 5c be
       -0.17056179 -0.06349792 0.06101818 -0.21513136
000020 01 4b d6 3e 53 41 94 3e fd 44 1c bf 7f d6 11 bf
       0.41854098 0.28956088 -0.6104277 -0.5696792
000030 4f c7 6f bd 4e 93 5b be 8f 52 ac 3e d3 c8 3a 3e
       -0.058539685 -0.21442911 0.33656737 0.18240671
000040 53 54 5a 3e da ec 4c 3d 85 f5 bb bc 9a 51 af 3e
       0.2132123 0.050030567 -0.022944221 0.34241945
000050 ef ad 84 39 00 b2 c8 3e 8e 02 de 3e 69 4a da be
       0.00025306593 0.39198303 0.43361324 -0.42634895
000060 2d 59 0c 3e 03 a1 44 be b2 d6 a9 3e 44 07 6c 3e
       0.13705893 -0.19202046 0.33171612 0.23049647
000070 97 c3 ef be b4 77 30 be 83 24 4f bf b3 ed 09 3e
       -0.4682891 -0.17233163 -0.8091509 0.13469581
000080 6f 74 70 be 8e d0 bd 3c 38 f5 b2 bd fa a3 5b be
       -0.23481916 0.023170736 -0.08738178 -0.21449271
000090 d6 cd 17 3e df ea 0f bd dd b6 aa be 3c a3 91 3d
       0.14824614 -0.0351361 -0.3334264 0.071112126
0000a0 94 94 94 3e 3a 7a bd be 39 b9 3f be 00 28 22 be
       0.29019606 -0.37007314 -0.18723 -0.15835571
0000b0 59 24 0e bf c5 e7 e2 bc b4 f9 d5 3e 1d 73 69 3f
       -0.5552421 -0.027698407 0.4179207 0.91191274
0000c0 75 83 be bc 16 88 58 be fc b7 bf be 10 78 6a 3e
       -0.023256043 -0.21145663 -0.37445056 0.22897363
0000d0 cd a4 8c 3e a3 08 f5 be cd f6 c6 bd eb b1 18 bf
       0.27469483 -0.47858152 -0.09715042 -0.5964648
0000e0 32 54 8d bd 2a 7e 91 3e 98 e9 bb be 77 00 9d be
       -0.069008246 0.28416568 -0.36701655 -0.30664417
0000f0 40 09 2e 3e e0 26 2c be 9e ba d3 3a f3 22 11 3d
       0.16995716 -0.16811705 0.0016153639 0.03543372
000100 56 bd ac bd 4c 37 5f 3e 94 71 88 be 3c 89 e2 3c
       -0.084345505 0.21798438 -0.26649153 0.02765333
000110 83 f0 aa bd c5 c9 f5 bc 41 5d 50 bb 30 52 82 be
       -0.08346655 -0.030003438 -0.0031793865 -0.2545333
000120 55 fa 67 be bb 13 8f 3c 61 8e 78 bd 8a db 14 3e
       -0.22654088 0.017465463 -0.060682658 0.14536873
000130 f7 a9 99 be 8c 79 00 bf 3d 66 99 bd d8 6e eb 3e
       -0.30012485 -0.50185466 -0.074902035 0.45983005
000140 ba 82 21 3d f0 9b b0 be 28 21 92 bf 18 2c 65 3e
       0.03943131 -0.3449397 -1.1416368 0.22380102
000150 20 ef 80 3f 93 c3 a4 be 05 94 d2 3c f3 e4 12 be
       1.0072975 -0.3218046 0.025705347 -0.1434515
000160 89 3d 5b 3e 61 6e 30 bf fd 3e 00 bf b1 be ad be
       0.21410193 -0.68918425 -0.5009611 -0.33934548
000170 9a a2 0a be 2d 73 8c 3d 95 35 ea 3c e9 4d 1c 3e
       -0.1353859 0.068579055 0.028590003 0.15264095
000180 0e 9a 91 3d 52 83 73 3f a3 ca 1c 3e 72 d4 05 be
       0.07109462 0.95122254 0.15311675 -0.13069323
000190 ca 33 de 3e e8 e0 0f 3f 4b f9 11 bf b0 62 2d 3f
       0.43398887 0.56202555 -0.57021016 0.6772871
0001a0 c0 ca 8b 3e d7 b8 6a 3d 41 1b 85 bd 1d c6 86 be
       0.27303123 0.057305183 -0.06499339 -0.26323023
0001b0 f2 e3 07 be a7 68 5d bf 3f 50 c3 3d bc 69 11 3e
       -0.13270548 -0.8648781 0.0953679 0.1420049
0001c0 f8 25 65 3e 5a c6 b2 3e 03 36 31 bd 05 ec bc be
       0.22377765 0.34916955 -0.0432644 -0.3689882
0001d0 52 66 f1 bc b2 50 a8 be fd 71 68 3d df 84 80 bc
       -0.029467735 -0.32874066 0.056749333 -0.015688358
0001e0 fa 13 1e 3c 9a e0 b3 3e 92 9e be 3c f0 09 84 3d
       0.0096483175 0.35132295 0.023268972 0.06447208
0001f0 73 9e 0d bf e3 1e a1 3d 30 e8 81 bc 66 8e e1 3e
       -0.553199 0.07867219 -0.015857786 0.44053954
000200 41 16 73 be 9b 48 a0 3e 97 3f cf be 0e 59 a4 3d
       -0.23738958 0.31305394 -0.40478203 0.08024798
000210 91 af 0b 3d 4d 3a d6 be 81 9d 10 bf 45 03 1b 3f
       0.03410298 -0.41841355 -0.5649033 0.60551864
000220 a3 eb 62 3f 18 5c 11 3f ea 50 63 bf d9 3c d1 bc
       0.88640803 0.5678115 -0.8879534 -0.02554171
000230 6f 8d c4 3e 3f d4 37 3d a9 76 d2 3d 6c 80 6e be
       0.38389155 0.044880148 0.10276539 -0.23291177
000240 06 b8 41 be af f3 55 3f aa 2b 18 3e 6f 1e c2 3e
       -0.18917856 0.83574957 0.14860407 0.37913844
000250 49 89 81 3e b6 5c 5d 3d a6 3c 67 3e 6d 24 9c 3e
       0.25300053 0.054043494 0.2258173 0.3049654
000260 03 2f ad 3d 7d 3a f7 3c dd 70 45 bf 0e fa 31 bf
       0.084562324 0.030179257 -0.7712534 -0.6952218
000270 05 15 35 bf 19 e5 1f 3f 3a 15 57 3c e9 b2 74 3d
       -0.707352 0.6245895 0.013127619 0.059740935
000280 9c 05 39 bd df bb f4 bc 6d 9c 0c 3f 44 00 3b be
       -0.045171365 -0.02987474 0.54926187 -0.1826182
000290 21 ef 50 bf 7b 3f 95 3e c9 ae bb be a3 ff 03 3f
       -0.8161488 0.29149994 -0.36656788 0.51561946
0002a0 8b 45 36 3e 81 dc a0 be 30 5e 42 bf b3 46 5c 3e
       0.17799966 -0.3141823 -0.7592497 0.21511345
0002b0 83 5e f9 be dc 89 ba be 85 6e 55 3e d8 58 bf be
       -0.4870492 -0.36433303 0.20842941 -0.3737247
0002c0 dc d8 5f be bc 97 b2 3e a0 c1 d2 be fd 1d ac 3e
       -0.21860069 0.3488139 -0.4116335 0.3361663
0002d0 77 9a 2e 3f aa 4d 89 3e e0 5e 27 bf 49 7d 03 3f
       0.68204445 0.26817065 -0.6537914 0.51363045
0002e0 c2 f7 0e 3f 69 33 f3 be c4 dc 18 bf b2 18 e0 bd
       0.558468 -0.4750016 -0.5971186 -0.1094221
0002f0 3c 41 c7 be aa 84 a3 be 42 64 dc be 1d f7 c0 bd
       -0.38916957 -0.31937152 -0.4304524 -0.09422133
000300 5e 1f b0 3d a7 73 9f 3e e0 92 f6 be c9 bd ed be
       0.08599733 0.31142923 -0.48158932 -0.46433857
000310 79 ce ee 3e 2d 90 37 3e 55 07 ec be eb 20 dc be
       0.466419 0.17926092 -0.46099344 -0.42993864
000320 d7 a2 27 be 46 70 91 be 64 c9 3f bf 62 62 dd 3e
       -0.16370712 -0.2840597 -0.7491667 0.43239123
000330 5a b9 ce 3d f0 aa 92 3e c6 16 86 be d0 f6 77 3d
       0.10093947 0.2864604 -0.2618925 0.060538113
000340 61 a5 0b 3e ef 65 b1 be fd 6e 04 3f 80 e5 14 3e
       0.13637306 -0.34648082 0.51731855 0.14540672
000350 eb 9a 62 bd 7c 88 f1 3c b0 a1 54 3d 1f c0 2f 3e
       -0.055323523 0.029484026 0.05191201 0.17163132
000360 10 a3 b1 3e 6c f8 d8 be 92 4c 14 3f 4d be 42 3d
       0.3469472 -0.4237703 0.5792934 0.047544766
000370 69 06 4c 3f ea 8b 86 be 9c ad 5b be 21 87 59 3f
       0.7969728 -0.2627862 -0.21452945 0.84971815
000380 e8 da 6c be 9f 08 0d 3e a3 24 dc 3e c0 63 b9 3e
       -0.23130381 0.1377282 0.42996702 0.36208916
000390 e0 46 e5 be 8a d3 c7 3e 5c b4 e3 3e d4 0c 34 3e
       -0.44780636 0.3902858 0.4447354 0.17583019
0003a0 d6 df 91 be c9 47 25 3e d1 59 44 bf fc 27 29 bf
       -0.28491086 0.16140665 -0.7669955 -0.66076636
0003b0 bb 0f 91 3e 68 8f 42 be 48 c7 69 be c7 21 9d 3e
       0.28332314 -0.19000018 -0.22829926 0.30689833
0003c0 22 0c 81 3e 25 22 54 3e d4 48 61 be eb e9 10 3f
       0.2520457 0.2071615 -0.22000438 0.5660693
0003d0 ed 73 87 bf 7f f9 ed 3e 14 28 1b be 86 dc 05 3f
       -1.0582253 0.46479413 -0.15152007 0.5228962
0003e0 58 a2 c3 be d2 ef 94 3e 68 ac a9 be 1b 4c c6 be
       -0.38209796 0.29089218 -0.33139348 -0.3872994
0003f0 7a ef 80 3e 1c c5 a4 be eb 07 8d 3d a7 7f 95 be
       0.25182706 -0.32181633 0.06886276 -0.29198954

network_body._body_endoder.seq_layers.2.bias f4 [128]
000000 96 ec 41 bd 63 80 b3 bc 0a 79 0e bc f4 28 43 bd
       -0.047344767 -0.021911805 -0.00869585 -0.047646478
000010 1d 0c 13 3c 7a cf e4 bc d8 50 8c 3c 49 f6 12 bd
       0.008975056 -0.027930964 0.017128393 -0.035879407
000020 29 83 a8 bc 3e 68 38 bd 23 20 25 bd cb 86 ef bc
       -0.020570355 -0.045021288 -0.04031385 -0.029239079
000030 01 4f f9 bc c2 c9 31 bd af 6a 07 bd 9a d7 bc bc
       -0.03043318 -0.043405302 -0.033060726 -0.023052026
000040 1d d2 f6 bb 0b 78 0e bd e4 fa 5f bc 1e 72 67 bd
       -0.0075323717 -0.03478245 -0.013670657 -0.056505315
000050 4f b6 6d 3a 81 d6 82 bd a0 5c 1f bb 11 a1 34 bd
       0.00090679986 -0.063885696 -0.0024316683 -0.044098917
000060 b9 67 03 bd 9f 94 d7 bc 83 f8 17 bc b5 34 27 bc
       -0.03208134 -0.026315985 -0.009275558 -0.010205437
000070 ed 9b 8a bd bb 7b 09 bd 1a 18 7b bc 94 e0 9b bc
       -0.06768022 -0.033565264 -0.0153255705 -0.019027986
000080 d7 d3 39 bc f9 57 2e bd bd 92 39 bd e0 d1 eb ba
       -0.01134201 -0.042564366 -0.045305956 -0.0017991625
000090 a6 ba 32 bd 56 19 6c bd 99 db 3a 3b 79 71 5b bb
       -0.043635033 -0.05764135 0.0028512238 -0.0033484383
0000a0 e6 3c ce bc 00 c9 31 bd e4 c5 9c bc 08 a3 64 3c
       -0.025175523 -0.04340458 -0.01913733 0.013954885
0000b0 56 07 58 bc 45 78 cc 3b cf 28 a4 3c 05 48 fe bc
       -0.013185343 0.006239923 0.02003899 -0.031040201
0000c0 9b 15 1d bd 0a db 3e bd 54 65 35 bd 7d e6 ff bc
       -0.038350683 -0.04659561 -0.044286087 -0.031237835
0000d0 84 69 37 bd 25 0b c2 bb 5f db 5e bd 54 95 84 3c
       -0.044778362 -0.0059217387 -0.054408427 0.016184486
0000e0 26 96 6e bc d3 e1 4b bc de b7 24 bd e4 5c 72 bc
       -0.014562165 -0.012443977 -0.040214412 -0.014792655
0000f0 00 76 40 bd 58 dc fc bc 0a 3b ad bc 7c a8 94 bc
       -0.046987534 -0.030866787 -0.021146316 -0.018146746
000100 78 55 d2 3a 24 26 c8 bb e9 c9 4b 3c 51 35 85 bd
       0.00160472 -0.0061080623 0.012438276 -0.0650431
000110 f3 85 88 bc 2b ab 10 bd 6b ed 89 bb 2f 64 f2 bc
       -0.016665434 -0.03531949 -0.0042092106 -0.029588787
000120 61 e2 bc bc ba b7 34 bd 97 cd 58 bc 02 a2 c1 bc
       -0.023057165 -0.044120528 -0.01323261 -0.023636822
000130 94 a3 18 bd bb fd 72 b9 dc 76 02 3c 54 f4 8b bc
       -0.037265375 -0.0002317344 0.007962909 -0.017084278
000140 39 8a 0c 3b 7b df a2 3b 90 64 5b bd 43 b7 91 bb
       0.0021444692 0.0049704886 -0.0535627 -0.0044468953
000150 b1 a1 f1 bb 75 e6 f8 bc 75 98 31 bd c9 b9 85 bc
       -0.0073740114 -0.030383328 -0.043358285 -0.01632394
000160 cf 4f ac bc a3 ef 38 bd 87 aa 4a 3c 24 3f 12 bd
       -0.02103415 -0.04515041 0.012369758 -0.035704747
000170 9c 6e 16 bd 71 04 27 3b 3b ed e7 bc 8c e3 02 bd
       -0.03672658 0.0025484825 -0.028311362 -0.031955287
000180 fd d3 ec bc ff df b6 bc 38 df 05 3c c2 2b 88 3c
       -0.028909678 -0.022323607 0.008170895 0.016622428
000190 2d 36 63 bd 77 1c 43 bd d0 6b 11 bd a8 84 4e bd
       -0.055471588 -0.047634568 -0.03550321 -0.05041948
0001a0 6c 3f 46 3c 13 61 e7 bc 91 36 ee 3b 3e 20 21 bd
       0.012100082 -0.02824453 0.0072696884 -0.03933739
0001b0 ef 1e 05 bd 9e 74 d6 bc 64 58 da 3b f7 ec a9 bc
       -0.032500204 -0.026178654 0.006663369 -0.020742876
0001c0 0e 17 54 bd 2e 36 50 bd 7c 25 b8 bc 2a 29 3c bc
       -0.0517798 -0.05083292 -0.022478811 -0.011484424
0001d0 65 c0 ef bc 48 52 71 bc e5 65 ae bc 1b d9 0e bd
       -0.029266546 -0.01472909 -0.021288821 -0.034875017
0001e0 de 36 ae bc cf 0a 02 bd 68 dd 74 bc c0 fb 8b 3c
       -0.021266397 -0.03174859 -0.0149453655 0.017087817
0001f0 96 50 bb 3b e8 60 64 bc 17 15 1c 3c 27 5f fd bc
       0.0057163937 -0.01393912 0.009526513 -0.030929161

network_body._body_endoder.seq_layers.2.weight f4 [128, 128]
000000 01 7e 5c be 0f f7 8f 3d eb b3 f0 3d b1 c5 f6 bb
       -0.21532442 0.070295446 0.11753067 -0.007530891
000010 22 22 ab 3c 3d d8 56 bd ba 8f af 3d 6e 17 90 3d
       0.0208903 -0.052452315 0.085723355 0.07035719
000020 da c1 82 3d 74 66 9a 3d e3 1e 6f 3d 9b 9d d5 3d
       0.063846305 0.07539073 0.058379065 0.104304515
000030 21 b5 ab 3d d4 04 81 bc 23 b5 4a be b9 7b 03 be
       0.08384157 -0.015749373 -0.1979566 -0.12840165
000040 c1 4e 02 be 99 93 e8 bd 40 60 b7 3d 37 be 28 bd
       -0.12725355 -0.11356277 0.08953905 -0.041197028
000050 d8 97 db bd 2e 37 b3 3c f1 24 e2 3d 89 91 9a bd
       -0.10722321 0.021876898 0.11042202 -0.0754729
000060 21 29 73 bd 2e 55 5c bb 6a 75 18 bd df f6 84 3a
       -0.059365395 -0.0033620107 -0.03722135 0.0010144374
000070 30 fd 11 3e be 7b 6f 3d a4 d8 03 3d dc 58 f2 bc
       0.1425674 0.05846762 0.032189026 -0.029583387
000080 6e 45 32 3d 6f 3d 76 bb 77 27 f5 bd 13 dc bf 3d
       0.043523245 -0.0037573238 -0.11970418 0.09368148
000090 02 1d 79 bc 83 47 16 bd ef 1e 3e 3d b7 3d 87 bc
       -0.01520467 -0.036689293 0.04641622 -0.01650892
0000a0 03 59 12 be 02 1d 95 3e a3 c8 15 be ac 95 b6 bd
       -0.14291768 0.29123694 -0.14627318 -0.089152664
0000b0 c5 42 c7 3c 24 bf 3e 3d 28 22 69 3d fe 85 bb bd
       0.02432383 0.046569005 0.05691734 -0.09156416
0000c0 0e d6 13 be a2 91 44 bd f2 81 a6 bc 98 12 94 bd
       -0.14437124 -0.04799045 -0.020325635 -0.07230109
0000d0 05 8d b6 3d 9b 78 9b bc 3f 25 3e be 4a b5 d1 3c
       0.08913616 -0.018978408 -0.18568896 0.02559914
0000e0 47 8e 03 3e c4 94 7d bd 2b 73 77 3e 69 83 32 bd
       0.12847243 -0.061909452 0.24165027 -0.043582354
0000f0 74 37 69 bd f8 c3 b6 bd 67 ab 1c bd 64 32 43 bd
       -0.05693765 -0.08924097 -0.0382494 -0.047655478
000100 4a ae 22 3e 51 51 c4 bd 60 84 77 3e ea a6 c5 3c
       0.15886799 -0.095858224 0.24171591 0.024127442
000110 d1 0c dc 3c c9 04 04 be cd a9 6e bd 1a 24 bf bd
       0.02686158 -0.1289245 -0.058267403 -0.09333058
000120 3c 5d 6b 3b 9b 02 88 bb 69 db d8 bc c4 ba 2e be
       0.0035913726 -0.004150701 -0.02647181 -0.17063433
000130 ab ee 59 3d 48 ac 77 bd 14 97 57 bc eb 53 1c 3c
       0.053206127 -0.060467035 -0.013158578 0.009541492
000140 2a 22 1b 3e 6d 8b 96 bc 45 1a 92 bd 63 c7 22 bd
       0.15149751 -0.01837703 -0.07133917 -0.03974093
000150 36 d9 b7 be 5b 03 14 be 37 2e 54 3e 29 6a b4 3c
       -0.35907906 -0.14454405 0.20720755 0.022023277
000160 b8 db ef bd ab 3a b4 bc 6b b9 a7 3c f5 24 c7 bd
       -0.1171183 -0.022000631 0.020474156 -0.09723846
000170 75 ee 40 3e 22 59 21 be 2d 02 63 bd af 0f 91 3d
       0.18840964 -0.15756658 -0.055421997 0.070830695
000180 8f ae ea 3d 56 a4 0d bc f4 a2 89 bd c4 69 ed bc
       0.11459076 -0.008645138 -0.06720534 -0.028981097
000190 18 cd 1c 3c 4b 0b 13 3e 59 bd 0d 3e 0c 65 a5 3c
       0.009570383 0.14359777 0.13841762 0.020189784
0001a0 63 cf c6 3c 1d 9b 37 bd 43 5a 79 3e f8 7e e2 3c
       0.024268812 -0.044825662 0.24350838 0.027648434
0001b0 69 66 b1 3c 97 61 f3 bd 42 2a c6 3d e2 27 b1 bd
       0.021655278 -0.11883848 0.09676029 -0.08650185
0001c0 7e e0 84 bd d0 97 e4 3c 14 0e 2f bd 48 79 29 3d
       -0.06488131 0.027904421 -0.042738035 0.04137543
0001d0 69 77 d1 bd 86 66 13 be 39 f1 c5 3d 78 cb 2c bd
       -0.10227854 -0.14394578 0.0966515 -0.04218623
0001e0 b5 bf d6 bc f5 c8 0d be 73 5d b1 3c 4e 22 8c 3d
       -0.02621446 -0.1384619 0.021651005 0.068424806
0001f0 17 d6 74 bc 8c 34 17 bd 5f f5 50 3d 50 f5 44 bd
       -0.014943621 -0.036915347 0.051015254 -0.04808551
000200 39 3e a2 bd 75 37 18 bc a4 f0 a7 bd 99 b0 c6 bd
       -0.07922024 -0.009290566 -0.082001954 -0.09701652
000210 81 6b b6 3b ea f7 06 3a 2b ae 5e bd b1 9d 6c bc
       0.0055670147 0.00051486364 -0.05436532 -0.014441893
000220 0e db 16 3e a0 d2 4d 3e 47 03 4f 3d 3b ff 3e be
       0.14732 0.20099878 0.050540235 -0.1865205
000230 47 dd ad 3d 8b 39 dd bd d0 6c 33 be 0e cc e6 bc
       0.08489471 -0.10801991 -0.17521977 -0.028173473
000240 15 26 e4 3d b4 68 14 bd e6 8a 20 bc df ea f1 bd
       0.11140076 -0.036232665 -0.009798741 -0.11812376
000250 9c fb b0 3c cd 1d b3 bd 81 eb 0a 3d e2 af 88 3d
       0.021604352 -0.087459184 0.033916 0.06674172
000260 74 61 cf 3b df 57 f7 3c 65 3e 33 3d 63 e4 2b bd
       0.006328756 0.030193267 0.043760676 -0.041965853
000270 0e b3 5f bd 7a 84 81 3d f4 25 1f 3e 76 62 d1 3c
       -0.05461412 0.06324096 0.15541822 0.025559645
000280 fd 94 54 be 3d 3d f7 3d ae 50 ac 39 89 e0 ae 3d
       -0.2075996 0.12072227 0.00032866508 0.085389204
000290 d9 86 68 3d f1 d0 b9 3c 19 72 00 3e db c9 a0 bc
       0.056769226 0.022682639 0.12543525 -0.019627502
0002a0 3e b1 04 3e 3f 0e 6c bd 1a 9c 1c be 58 38 88 3a
       0.12958238 -0.057630774 -0.15293923 0.0010392768
0002b0 f0 87 37 bd c0 d8 d1 bb d2 c6 24 bd b8 6b df bc
       -0.044807374 -0.0064040124 -0.040228672 -0.027273044
0002c0 45 8c ec 3d 6c 71 cf 3c c4 2b 81 bc 8c ad 2b bc
       0.11550192 0.025322638 -0.01576794 -0.0104783885
0002d0 60 3f 4c bb 91 c0 bc 3d f4 04 a8 bd 48 06 a2 3c
       -0.0031165704 0.092164166 -0.0820407 0.019778386
0002e0 33 bc 6a 3d 2f e1 54 3d 20 af bb bd 19 b9 8f bd
       0.057308387 0.051972564 -0.09164262 -0.070177265
0002f0 3d 5f fd bd ca 76 18 3e a9 0b a6 3d ce 52 01 3e
       -0.12371681 0.14889064 0.08107693 0.12629244
000300 27 77 9f 3d 67 ec 52 3d be b6 12 3e f6 f7 2d bd
       0.077863984 0.051494982 0.14327523 -0.042472802
000310 fd af 09 be 45 b8 01 3a 18 75 5b 3c 8a 48 ca 3d
       -0.1344604 0.0004948418 0.013394617 0.09877117
000320 27 e3 ad bd d0 05 64 bd 4b 27 75 3b ee 50 1c 3d
       -0.084905915 -0.055669606 0.0037407454 0.038163118
000330 b1 72 6d bd 09 94 f0 bc c6 ec bc 3d 31 9c e4 bd
       -0.057970706 -0.029367464 0.092248484 -0.11162604
000340 9a e8 36 3e 8d 2d 8e 3d cd fa 5f bd dd a7 bc 3c
       0.17862168 0.06942282 -0.05468254 0.023029262
000350 36 ae ec 3c 92 30 4c 3d c3 96 c4 3d d0 5b f8 3d
       0.028891664 0.049851008 0.09599068 0.12126887
000360 25 3f 12 3e 08 04 e6 3d f3 62 83 3c b4 61 a8 3c
       0.142819 0.11231238 0.016038394 0.020554401
000370 f8 d5 f5 3d bd 8b 87 3d e7 56 bd 3d 4c 2b ad bc
       0.12003702 0.0661845 0.09245091 -0.02113881
000380 98 c5 f4 3c 79 b5 39 3e 18 57 f0 bc 85 00 84 3d
       0.029879376 0.18135633 -0.029338405 0.064454116
000390 7b ee 8d 3d a8 0f df bd 18 f8 b1 bc d9 e7 ba 3d
       0.06930252 -0.10891658 -0.021724746 0.09126253
0003a0 d4 d1 0c be 1b 92 e6 3d 8f 5e 5e 3c b1 84 e1 bd
       -0.13751918 0.11258336 0.013572349 -0.11011637
0003b0 01 da 0a 3d 29 05 bb 3d fc b1 93 bd d5 2a 04 bc
       0.03389931 0.091318436 -0.07211682 -0.008066853
0003c0 3c 95 8d bc cd 25 94 3d 4f ca 8f 3c 1d be 97 bd
       -0.017283075 0.072337724 0.017552523 -0.07409308
0003d0 df c8 11 bd 97 61 40 3d e8 43 fd bb 41 10 73 3d
       -0.035591956 0.04696807 -0.0077290423 0.059341673
0003e0 ec 76 2d 3d ca dd 37 bd 9d ee f8 bd fa c6 3d bd
       0.04234974 -0.04488925 -0.12154887 -0.046332337
0003f0 92 51 69 bb 9a 53 5b bd 1c 6b 13 3c 53 e6 30 3d
       -0.0035601598 -0.053546526 0.008997705 0.043188404
