VirtualAquarium/results/VirtualAquariumNew/VirtualAquarium/VirtualAquarium-3314.pt (torch, 451487 bytes, 36 tensors)

network_body._body_endoder.seq_layers.0.weight f4 [128, 9]
0	0xbdceeed3	-0.10104146
1	0xbd2836b7	-0.041067805
2	0x3ee4bf8e	0.44677395
3	0x3ead4a73	0.33845863
4	0xbe5159d3	-0.20444421
5	0x3e31f5dc	0.17378944
6	0xbebf1ece	-0.3732819
7	0x3ec3c7ea	0.3823846
8	0x3f8e2b73	1.110701
9	0xbeff0da8	-0.49815106
10	0x3f1350ff	0.57545465
11	0xbd43726d	-0.047716547
12	0xbe2696e7	-0.16268502
13	0x3d30b300	0.043139458
14	0xbe27c20f	-0.16382621
15	0x3ec8ebeb	0.3924249
16	0x3d7a478c	0.06110339
17	0xbe455e30	-0.19274211
18	0x3e0251e0	0.12726545
19	0xbf183712	-0.5945903
20	0xbe6ee6e8	-0.23330271
21	0xbef73616	-0.48283452
22	0xbebfc40c	-0.3745426
23	0x3d5de8fd	0.054177273
24	0x3d32d787	0.043662574
25	0xbe1b276a	-0.15151754
26	0xbf1d7d68	-0.6151948
27	0xbe9d4d22	-0.3072291
28	0x3e5409f3	0.2070692
29	0xbe25ca40	-0.16190434
30	0xbe1cc0a5	-0.15307863
31	0xbef78b6b	-0.48348555
32	0xbde1d830	-0.110275626
33	0x3d19e508	0.037571937
34	0xbe91c761	-0.28472427
35	0xbe49d508	-0.19710171
36	0xbc02a252	-0.0079732705
37	0xbedac49b	-0.42728123
38	0x3f1a4478	0.60260725
39	0xbd0a09b0	-0.033700645
40	0xbf1ece43	-0.6203348
41	0xbee52491	-0.4475446
42	0xbef7e710	-0.48418474
43	0xbef9c8bc	-0.4878596
44	0x3d41c7ba	0.047309615
45	0xbc86f320	-0.016473353
46	0x3e3eee39	0.18645562
47	0xbe48121a	-0.19538155
48	0x3e09cae5	0.13456304
49	0x3de63e3b	0.11242338
50	0x3ef77df3	0.4833828
51	0x3e27d34e	0.163892
52	0x3e1d4b0d	0.15360661
53	0xbdff6e8b	-0.12472256
54	0x3ec63b24	0.38716996
55	0xbe1abc2a	-0.15110841
56	0xbca72b42	-0.02040637
57	0xbe9a783d	-0.3016986
58	0x3f4334ee	0.7625264
59	0xbf1cb81b	-0.6121842
60	0xbe0135dc	-0.12618202
61	0x3deb413f	0.11487054
62	0xbc5de5d0	-0.013543561
63	0x3e99c434	0.30032504
64	0x3f36483f	0.7120399
65	0x3eb52d5c	0.3538617
66	0xbe135317	-0.14387165
67	0x3eb32bd5	0.3499438
68	0x3d82be56	0.0638396
69	0xbf4e2e64	-0.80539536
70	0xbcfe41c2	-0.031037215
71	0x3eb2601e	0.34838957
72	0x3e7445f6	0.23854813
73	0xbd8d7b6f	-0.06908309
74	0x3e564bfe	0.20927426
75	0xbe9666c7	-0.29375288
76	0x3e406bb1	0.18791081
77	0x3c3596fb	0.01108336
78	0x3d5d2f92	0.054000445
79	0xbd6f624b	-0.05844335
80	0x3ec225fc	0.37919605
81	0x3ee4e8b4	0.44708788
82	0x3f00a7e9	0.5025621
83	0x3dd63e70	0.10461128
84	0x3e07f02c	0.13275212
85	0xbe3e28d3	-0.1857026
86	0xbc81623b	-0.01579391
87	0xbea48c28	-0.3213818
88	0x3e11c3ef	0.14234899
89	0xbcdb7b0c	-0.026792072
90	0x3df8ba28	0.121448815
91	0x3e9b5567	0.30338594
92	0x3ebcef19	0.36901167
93	0xbc8c52df	-0.01712936
94	0x3edaf100	0.42761993
95	0xbec18f6a	-0.3780473
96	0x3e89cf6f	0.26916072
97	0x3ebff35f	0.37490365
98	0xbca357ef	-0.019939391
99	0x3f43104e	0.76196754
100	0x3eed591d	0.4635705
101	0x3cf6ea47	0.030141009
102	0xbf26cf92	-0.6516048
103	0xbd937e08	-0.07201773
104	0xbe8bbfcb	-0.27294764
105	0xbea103c5	-0.31448188
106	0x3e84bfd9	0.25927618
107	0xbe14f336	-0.14545903
108	0xbc36f8f9	-0.011167758
109	0xbc427360	-0.011868328
110	0x3ec74879	0.3892248
111	0xbea34a53	-0.31892642
112	0xbf3ffb0c	-0.7499244
113	0x3e5a893d	0.21341415
114	0x3eeb8a13	0.4600378
115	0x3eac0d1b	0.3360375
116	0xbf27a2bc	-0.6548269
117	0xbe3fdda5	-0.18736894
118	0xbeff3341	-0.4984379
119	0x3f405179	0.7512432
120	0xbf1579ae	-0.58388793
121	0x3f7794b2	0.96711266
122	0x3d87dc09	0.06633765
123	0xbe197dd1	-0.14989401
124	0x3e104080	0.14087105
125	0xbf051512	-0.51985276
126	0x3e739ad3	0.2378953
127	0xbf0cf746	-0.5506481
128	0xba83e046	-0.0010061346
129	0x3dbdfd09	0.09276778
130	0xbebae607	-0.36503622
131	0x3e9c9be3	0.30587682
132	0xbe5c8b9c	-0.21537632
133	0x3e2417e4	0.16024739
134	0xbef9f54e	-0.48819965
135	0xbe11789b	-0.14206164
136	0xbe9ab0b1	-0.3021293
137	0xbeaaf4e0	-0.3338995
138	0x3d48c9da	0.049020626
139	0x3dac1263	0.084019445
140	0xbea2eb6b	-0.31820235
141	0x3e58d91b	0.21176569
142	0x3e2850bc	0.16437048
143	0xbede243f	-0.4338703
144	0xbee1b4d7	-0.44083282
145	0x3f49607c	0.7866285
146	0x3d345dd0	0.04403478
147	0x3e7d0472	0.24708727
148	0x3e450521	0.19240238
149	0xbeadbb57	-0.3393199
150	0xbd6f96f7	-0.05849358
151	0xbecb496c	-0.39704454
152	0x3e42fe94	0.19042426
153	0xbe3f50c3	-0.18683152
154	0x3e12b5ad	0.14327116
155	0x3dd063b3	0.10175266
156	0xbe940a2c	-0.2891401
157	0x3f0651e0	0.5246868
158	0xbc0c5974	-0.008566249
159	0xbdf12588	-0.11774737
160	0xbeba1b78	-0.36349082
161	0xbe11235d	-0.14173646
162	0x3e88bf65	0.26708522
163	0x3d5de6ed	0.054175306
164	0x3e7db3a0	0.24775553
165	0x3df4a078	0.119446695
166	0xbe9cddbc	-0.3063792
167	0x3ea210e3	0.3165351
168	0xbf6a17a8	-0.91442347
169	0x3db0d7d2	0.086349145
170	0x3db491ce	0.088168725
171	0x3e746900	0.2386818
172	0x3ec80d7d	0.3907279
173	0x3f20c749	0.62804085
174	0x3d38b4e6	0.045094393
175	0x3eba4095	0.36377397
176	0xbe9c2b29	-0.3050168
177	0xbc4e42c0	-0.012589157
178	0x3e299260	0.16559744
179	0xbed30a5e	-0.41218847
180	0xbe84a99e	-0.25910658
181	0xbe3b2c5f	-0.18278645
182	0xbeef275a	-0.4670971
183	0x3e66527a	0.224924
184	0xbd5a5453	-0.053303074
185	0x3f2882fe	0.6582488
186	0x3e9f1ea0	0.31078053
187	0x3dba5deb	0.09099945
188	0x3e2c08f2	0.16800287
189	0xbd0b48b6	-0.03400489
190	0x3cf2888c	0.029606126
191	0x3f045849	0.5169721
192	0xbd53d185	-0.051713485
193	0xbd3e91ee	-0.04652589
194	0x3ea1a381	0.31570056
195	0xbf0ebbad	-0.5575512
196	0x3c8671ce	0.016411688
197	0xbd123bee	-0.035701685
198	0xbf066e98	-0.525125
199	0xbe60509b	-0.21905749
200	0xbf150d00	-0.5822296
201	0x3e13533b	0.14387219
202	0xbf3b531c	-0.7317369
203	0x3f006085	0.5014728
204	0xbf0e0b71	-0.5548621
205	0x3ebb0987	0.36530706
206	0x3d33fd22	0.043942578
207	0x3f0879c7	0.5331082
208	0x3e2997ab	0.16561763
209	0x3e195061	0.14972068
210	0x3ebcf7b2	0.36907727
211	0xbdc19c1e	-0.09453605
212	0x3d7cb0b5	0.06169196
213	0xbeeb563b	-0.45964226
214	0x3f0a8a7e	0.5411757
215	0xbe829e6b	-0.25511488
216	0xbe93f0eb	-0.28894743
217	0xbd5b9957	-0.053613033
218	0xbe3e41ad	-0.18579741
219	0x3befb606	0.0073154
220	0xbe9721a7	-0.29517862
221	0x3f0ea1e9	0.55715805
222	0x3ec8ce0b	0.39219698
223	0x3c0487d4	0.008089025
224	0x3e33c073	0.17553882
225	0xbe18b31f	-0.1491208
226	0x3e90a045	0.28247276
227	0x3e68f76e	0.22750637
228	0xbd3491d9	-0.044084404
229	0xbc9d4c94	-0.019201554
230	0xbe942d0d	-0.2894062
231	0xbe30afdc	-0.17254585
232	0x3e82cc8f	0.2554669
233	0xbebd01af	-0.36915347
234	0x3ed43fad	0.4145483
235	0xbecc46c1	-0.3989773
236	0xbe1a9c6a	-0.1509873
237	0xbef19fb2	-0.4719215
238	0x3da5a9d1	0.080890305
239	0xbd99a54b	-0.0750223
240	0xbd20bb3a	-0.039241053
241	0xbe1bdba7	-0.1522051
242	0xbeebb0c3	-0.46033296
243	0xbe7a24e4	-0.24428135
244	0xbeb86930	-0.36017752
245	0x3ea9abc5	0.33138862
246	0xbd9023b5	-0.070380606
247	0x3ed23896	0.41058797
248	0xbe44bb23	-0.19212012
249	0xbe834862	-0.2564116
250	0xbeb991b2	-0.3624397
251	0x3f0df6ad	0.5545452
252	0xbee402b6	-0.44533318
253	0x3c228584	0.009919528
254	0xbcfbc8d1	-0.030735405
255	0xbdb0c865	-0.08631972

network_body._body_endoder.seq_layers.0.bias f4 [128]
0	0x3c9f28f3	0.019428706
1	0x3c82ddf0	0.015974969
2	0xbc2d4886	-0.010576373
3	0xbc6b0baf	-0.014346047
4	0xbbb1cb92	-0.005425879
5	0xbca6551e	-0.020304259
6	0x3ccfe369	0.025376992
7	0xbc1a4c9a	-0.009417677
8	0xbc8bfc20	-0.017087996
9	0x3a88a3cd	0.0010424793
10	0x3c9f0623	0.019412106
11	0xbc1986f3	-0.009370553
12	0xbb839482	-0.0040155062
13	0xbc165fe3	-0.009178135
14	0xbc820760	-0.015872657
15	0x3b6fb559	0.0036576597
16	0x3c0e7188	0.00869406
17	0x3ae897cf	0.0017745438
18	0xbc8caa2d	-0.01717099
19	0xbc116f0a	-0.008876571
20	0xbafc29ec	-0.0019238568
21	0xbcb2ba23	-0.021817273
22	0x3c77d95d	0.015127507
23	0xbc8d364f	-0.01723781
24	0xbc1645a8	-0.009171881
25	0xbbf9553d	-0.007609038
26	0xbc81bab6	-0.015836101
27	0x3c5957f7	0.013265601
28	0x3c202810	0.009775177
29	0x3c6a5ad8	0.014303885
30	0x39d63271	0.00040854843
31	0x3bbe8438	0.0058141015
32	0x3c1b0e4f	0.009463861
33	0x3b844b84	0.0040373225
34	0xbc002378	-0.007820956
35	0xbc301d17	-0.010749123
36	0x3c855e6a	0.016280372
37	0x3b73b43a	0.003718628
38	0x3bec79c9	0.0072166664
39	0xbc9b6f23	-0.018973893
40	0x3c1b5942	0.00948173
41	0xbb03649e	-0.0020048986
42	0x3cb4683c	0.02202236
43	0x3b483098	0.0030546542
44	0xbc3b218c	-0.011421572
45	0xbcba88e7	-0.022770358
46	0xbcb833c8	-0.022485629
47	0xbb481465	-0.0030529734
48	0x3b8eb051	0.0043545146
49	0x3c94e95d	0.018177683
50	0xbc85ca9c	-0.016331963
51	0xbbbd2394	-0.0057720635
52	0x3c9dcf75	0.019263962
53	0xbc51dd24	-0.012809072
54	0xbc95075b	-0.018191984
55	0x3c135e31	0.008994625
56	0x3bf6344e	0.0075135594
57	0xbb53af48	-0.003230052
58	0x3bda46af	0.006661258
59	0xbca3400d	-0.019928003
60	0xbc4e59f8	-0.012594692
61	0xbc0e4852	-0.008684235
62	0x3c09f684	0.00842059
63	0xbbb806c4	-0.005616041
64	0xbcc98a5b	-0.024602106
65	0xbc392d63	-0.011302325
66	0x3c706e0e	0.014674677
67	0xba4bd613	-0.0007775735
68	0x3c29ca14	0.010363121
69	0x3c97870f	0.018497018
70	0xbc8417ae	-0.016124573
71	0xbc950d3b	-0.018194785
72	0x3c747fac	0.0149230175
73	0xb9a49052	-0.00031388045
74	0x3ca38d87	0.019964946
75	0x3c457f3b	0.01205426
76	0x3c8456f1	0.016154738
77	0xba7cb274	-0.00096396287
78	0x3c8ad01c	0.016944937
79	0xbc2968e7	-0.010339952
80	0x3c59090f	0.013246789
81	0xbc62c9e9	-0.013842084
82	0x3c8bbcf9	0.017057883
83	0xbc92d3b3	-0.017923212
84	0x3bce92c7	0.0063041183
85	0xbad79e1d	-0.001645032
86	0xbcbc8d0b	-0.023016473
87	0xbb1ba205	-0.0023747694
88	0xbbfd3a92	-0.0077279294
89	0x3c6fe58f	0.014642133
90	0x3b834fa0	0.004007295
91	0xbb0e6f20	-0.0021733716
92	0x3aecd770	0.0018069576
93	0xbcbb57b0	-0.022868961
94	0x3c5b87f0	0.013399109
95	0x3c19c945	0.009386365
96	0xbc7c294e	-0.015390707
97	0xbc53b479	-0.012921446
98	0xbbcbd951	-0.0062209745
99	0x398e5c9e	0.00027153356
100	0x3c196aa1	0.009363801
101	0xbc4f62ba	-0.012657816
102	0xbc8070d9	-0.01567881
103	0x3c8eee9c	0.017447762
104	0x3b9d6cbc	0.004804222
105	0xbb1d1645	-0.0023969573
106	0x3c087296	0.008328101
107	0x3c931454	0.01795403
108	0xbca14bb4	-0.019689418
109	0x3b017190	0.0019751526
110	0x3bf37954	0.007430235
111	0xbc856ab5	-0.016286233
112	0x3b8591b0	0.004076205
113	0x3bb8ef36	0.0056437505
114	0xbc49642d	-0.01229195
115	0xbb0d7988	-0.002158733
116	0xbc9ba79c	-0.01900082
117	0x3c7bd54f	0.015370681
118	0x3c587430	0.013211295
119	0xbbed64c9	-0.0072446805
120	0x3ba3dd4a	0.005000745
121	0xbc941477	-0.018076165
122	0xbc7ec2ce	-0.015549375
123	0xbb9ce735	-0.004788304
124	0xba7c9567	-0.00096353
125	0x3c7e8efa	0.015537018
126	0x3bad5ca4	0.0052905846
127	0xbc571e05	-0.013129716

network_body._body_endoder.seq_layers.2.weight f4 [128, 128]
0	0x3dbff6e1	0.0937326
1	0xbc4de2d8	-0.012566291
2	0xbc58f915	-0.0132429795
3	0x3d061bbf	0.032741304
4	0x3dd2081b	0.10255452
5	0xbb9e9479	-0.0048394767
6	0xbcc9bbb7	-0.024625642
7	0x3e1f91bc	0.15582937
8	0x3e4b4122	0.19849065
9	0x3caa945e	0.0208227
10	0x3e122029	0.1427008
11	0x3d938b9b	0.07204362
12	0xbd4f46a1	-0.050604466
13	0x3d09e3eb	0.033664625
14	0x3db62b82	0.08895017
15	0x3d0fc753	0.0351022
16	0xbdb7967e	-0.08964251
17	0x3dadf834	0.084946066
18	0x3cf0f603	0.029414183
19	0xbce2bef6	-0.027678948
20	0xbd518677	-0.051153626
21	0x3dadc704	0.08485225
22	0xbd130fa4	-0.035903588
23	0x3d7fd3e7	0.062457945
24	0x3d280152	0.041016884
25	0x3d5327ab	0.051551502
26	0x3e3283b2	0.1743305
27	0x3d69c897	0.057076063
28	0xbc60a801	-0.01371193
29	0xbd6a9778	-0.057273358
30	0x3cd5c98c	0.026097082
31	0xbdc98f09	-0.09841735
32	0xbcedd6f0	-0.029033154
33	0x3bc5a13f	0.006031185
34	0x3deec05e	0.11657785
35	0x3e177f6c	0.14794701
36	0x3c999735	0.018748859
37	0x3da67da6	0.08129434
38	0xbe1cf0ca	-0.15326229
39	0x3e2f16e8	0.17098582
40	0xbd5b0368	-0.053470045
41	0x3d824396	0.06360547
42	0xbbf02b53	-0.0073293834
43	0x3a07407f	0.0005159452
44	0xbc29f09d	-0.010372308
45	0xbe02b9fc	-0.1276626
46	0x3e00dd6f	0.1258447
47	0x3da6d95c	0.08146927
48	0xbd5beaa6	-0.053690575
49	0xbd4b27a4	-0.04959835
50	0x3dabc807	0.083877616
51	0x3d3c5abf	0.04598498
52	0xbcca1f25	-0.024673054
53	0x3cb20697	0.021731658
54	0xbdbd3f9c	-0.09240648
55	0xbd9f62a9	-0.0778249
56	0xbd627c69	-0.055294428
57	0x3d25240f	0.04031759
58	0x3db1d47d	0.08683107
59	0x3d198c8b	0.037487548
60	0xbdad9e77	-0.084774904
61	0x3d8e8f0a	0.06960876
62	0xbc7b901c	-0.015354183
63	0xbe098769	-0.13430561
64	0x3d81fd4f	0.06347143
65	0xbd543e09	-0.051816974
66	0x3d870df4	0.06594458
67	0x3d34bc4f	0.044124898
68	0x3e4594f1	0.19295098
69	0xbd376783	-0.04477645
70	0x3dea0fc3	0.114287876
71	0x3d67ead0	0.05662042
72	0xbd4d3b90	-0.05010563
73	0x3d01a3c8	0.031650335
74	0xbd1af139	-0.037827704
75	0x3ce5a778	0.028033957
76	0x3d8b74e8	0.068094075
77	0xbe182186	-0.14856538
78	0x3d1b61fd	0.037935246
79	0x3ce3e0d0	0.02781716
80	0xbe179e8d	-0.14806576
81	0x3d9688b0	0.0735029
82	0xbd472cf4	-0.048626855
83	0x3d59fa7e	0.053217404
84	0x3de29ef1	0.11065472
85	0x3e2ee8b6	0.1708096
86	0xbe55702c	-0.20843571
87	0x3d88586c	0.0665749
88	0x3cc2cded	0.023779834
89	0x3e2d8c6a	0.16948095
90	0xbcabc902	-0.020969871
91	0x3bfe87ac	0.007767638
92	0xbd871ba6	-0.065970704
93	0xbe2cca0d	-0.16873951
94	0xbd9869e4	-0.07442072
95	0xba4b74b5	-0.0007761226
96	0xbcc5bfc2	-0.024139289
97	0x3e2254c5	0.1585265
98	0x3db9d56c	0.0907391
99	0x3aa190d1	0.0012326484
100	0x3bd3e804	0.0064668674
101	0x3d44c7e4	0.048042193
102	0x3dc792b3	0.097447775
103	0x3c7979f5	0.015226831
104	0x3b53f6bd	0.0032343112
105	0xbcbad229	-0.02280529
106	0xbd8d4f63	-0.068999074
107	0xbd6847d7	-0.056709137
108	0x3e05a4af	0.13051103
109	0x3e005d64	0.12535626
110	0x3d15e9fa	0.03660009
111	0x3d5bd657	0.053671207
112	0xbd3aae24	-0.04557623
113	0xbe0f1045	-0.1397105
114	0x3d365a53	0.044519734
115	0xbcd95eed	-0.026534522
116	0x3d649d4d	0.055814076
117	0xbe123411	-0.14277674
118	0xbca189a6	-0.019718956
119	0xbd97ffe0	-0.07421851
120	0x3db29138	0.087191045
121	0xbd8c1d50	-0.068415284
122	0xbb9c2633	-0.004765296
123	0xbda31ee9	-0.0796488
124	0x3d251842	0.040306337
125	0xbc5ea476	-0.013589015
126	0x3df12d5b	0.11776229
127	0x3d63701a	0.05552683
128	0x3e1bf08c	0.1522848
129	0x3da94417	0.0826494
130	0xbcc5371a	-0.024074126
131	0x3d51f7b6	0.051261626
132	0xbc8098d5	-0.015697876
133	0xbca61f67	-0.020278646
134	0x3d23666a	0.03989259
135	0xbda1b7cd	-0.07896385
136	0x3bb6aa6c	0.005574515
137	0x3dce8423	0.10083797
138	0x3e0d6d87	0.13811313
139	0xbddf6d2c	-0.10909495
140	0x3d8d1cbc	0.06890246
141	0xbdeb7633	-0.11497154
142	0x3dc01356	0.09378688
143	0x3d44d9f3	0.048059415
144	0x3d567cf4	0.05236526
145	0xbd707b3a	-0.058711268
146	0xbcb1287c	-0.02162575
147	0x3d1183ab	0.03552596
148	0xbe27fa1b	-0.16404001
149	0xbcbff120	-0.023430407
150	0xbdedbf95	-0.11608807
151	0xbdc19673	-0.09452524
152	0xbd9104b3	-0.070809744
153	0x3d3cd683	0.04610301
154	0x3d6609d8	0.05616173
155	0x3e07cb68	0.13261187
156	0x3dd44adf	0.10365843
157	0x3ca5fe3f	0.020262836
158	0x3e299f96	0.16564783
159	0xbcb52327	-0.022111489
160	0xbcb480c9	-0.022034066
161	0x3a869d0a	0.001027019
162	0x3cd6b1ed	0.026207888
163	0xbc90d31b	-0.017678788
164	0xbbf1573e	-0.0073651364
165	0xbd84c149	-0.06482179
166	0x3a6e94c3	0.0009101147
167	0xbd17f1c5	-0.037095804
168	0x3e11ca08	0.14237225
169	0xbce72cbb	-0.028219571
170	0x3e5fae92	0.21843937
171	0x3e1100f9	0.14160527
172	0x3e180337	0.14844976
173	0x3c53cbb3	0.012926984
174	0x3cb07e61	0.021544637
175	0xbdf9de6c	-0.12200627
176	0xbd9f61cb	-0.077823244
177	0xbc62954d	-0.013829541
178	0x3d0988ae	0.033577614
179	0x3de3967c	0.11112687
180	0xbd73ceb9	-0.059523318
181	0x3e6c7e22	0.23094991
182	0xbd34a439	-0.044101927
183	0xbc2ef6df	-0.010678976
184	0x3e0eafc1	0.13934232
185	0xbb566061	-0.0032711255
186	0x3dad7533	0.084696196
187	0xbd3ce447	-0.04611614
188	0xbdeea97c	-0.1165342
189	0xbe3e271b	-0.18569605
190	0x3d9bb8e0	0.076036215
191	0xbe18b641	-0.14913274
192	0x3caf2ede	0.021384653
193	0xbd4e47a4	-0.05036129
194	0x3d8894c1	0.066689976
195	0x3d37085b	0.044685703
196	0xbcc861e6	-0.024460744
197	0xbdc7246a	-0.09723742
198	0x3c794b53	0.015215713
199	0x3e5d1d59	0.21593226
200	0xbc05abbf	-0.008158623
201	0xbd5a647d	-0.05331849
202	0x3cb494cc	0.022043608
203	0x3e28245a	0.16420117
204	0x3db95986	0.09050278
205	0xbd6ef13e	-0.058335535
206	0xbe5cfac5	-0.21580036
207	0xbd910afd	-0.07082174
208	0x3cbe9571	0.023264619
209	0x3e538574	0.20656377
210	0x3e0fdee2	0.14049867
211	0x3d050cd7	0.03248295
212	0x3e0059ce	0.12534258
213	0xbd919c96	-0.071099445
214	0x3d61073e	0.054938547
215	0xbddb8554	-0.1071879
216	0x3c1dce68	0.009631731
217	0xbe032c6c	-0.12809914
218	0xbcec2e09	-0.028830545
219	0xbc8799ea	-0.016552884
220	0x3dcc4a16	0.09975068
221	0x3d01028d	0.031496573
222	0xbd9fb267	-0.077976994
223	0xbcadade7	-0.021201087
224	0x3e4874cd	0.19575806
225	0xbd88748d	-0.06662855
226	0x3cb5d7af	0.022197573
227	0x3c74dbd9	0.014944994
228	0x3da2d597	0.07950895
229	0xbda62f6a	-0.08114512
230	0xbe260513	-0.16212873
231	0xbcba2705	-0.022723684
232	0xbddc9041	-0.10769702
233	0xbd891c6b	-0.066948734
234	0xbd5a3ee3	-0.05328263
235	0x3d0b7f1f	0.03405678
236	0xbd215e36	-0.039396487
237	0xbd72c323	-0.059268128
238	0xbda187ce	-0.07887231
239	0x3da9554a	0.08268221
240	0x3d94490e	0.072404966
241	0x3d265ce0	0.040615916
242	0xbdd5746e	-0.10422598
243	0x3d338ec0	0.04383731
244	0xbcae05a2	-0.02124292
245	0x3e490f57	0.19634758
246	0x3cec2d22	0.028830115
247	0xbb7a4919	-0.0038190542
248	0xbe071e90	-0.13195252
249	0xbd47f021	-0.04881299
250	0x3ceee1b3	0.029160356
251	0x3bd8fd06	0.0066219596
252	0x3e0c38ea	0.13693586
253	0xbd9315bd	-0.071818806
254	0x3ce18106	0.027527343
255	0x3d4b4b77	0.049632516

network_body._body_endoder.seq_layers.2.bias f4 [128]
0	0xbca6e6e7	-0.020373775
1	0xbb8ca9fd	-0.004292725
2	0xbc8f69ca	-0.017506499
3	0x3ca991fa	0.02069949
4	0x3c2a9b3d	0.010412988
5	0x3c6723a2	0.014107617
6	0x3c3d7c73	0.011565316
7	0xbbcb4893	-0.00620372
8	0xbcb55668	-0.022135928
9	0xbad44863	-0.0016195889
10	0x38de6f55	0.00010606522
11	0xbc9cd58b	-0.019144794
12	0x3caa38b6	0.020778995
13	0xbbbbcd57	-0.0057312655
14	0xbc2342ba	-0.009964639
15	0x3ca626bd	0.020282144
16	0xbb86ceb3	-0.004113996
17	0xbcba7322	-0.022759978
18	0xbcaa1f4a	-0.020766873
19	0xbbcccb83	-0.0062498464
20	0xbc03debf	-0.008048712
21	0x3c273ee0	0.010207862
22	0xbb18915f	-0.0023280007
23	0xbc350bac	-0.011050146
24	0x3c394cc2	0.011309804
25	0xbb45057c	-0.0030063083
26	0x3c0ebc5d	0.0087119015
27	0xbc298194	-0.010345835
28	0x3c0beb6b	0.008540015
29	0xbb017a91	-0.0019756893
30	0xbc092de5	-0.0083727585
31	0xba87ca95	-0.0010360057
32	0x3c7c840b	0.015412341
33	0xbcaf0c4f	-0.021368174
34	0x3c0b59b4	0.008505274
35	0x3cbe8679	0.023257481
36	0x3c9e9dbd	0.019362325
37	0xbbe4d87b	-0.0069838143
38	0x3c6d1eac	0.014472645
39	0xbc8859f8	-0.016644463
40	0xbbf9f9ba	-0.0076286467
41	0xbc8fdb1a	-0.01756053
42	0xbbee071d	-0.0072640316
43	0xbba6c4d8	-0.0050893836
44	0x3c3a39d6	0.011366328
45	0x3c1306da	0.0089738015
46	0xbbfe79ad	-0.0077659697
47	0x3bb27796	0.0054463847
48	0x3c9cffbe	0.019164916
49	0xba6bbae8	-0.000899239
50	0xbc781fe0	-0.015144318
51	0x3c2c3727	0.010511196
52	0xbc08937e	-0.008335946
53	0xbbd852d0	-0.006601669
54	0xbbe8df1e	-0.0071066758
55	0x3ba6677f	0.0050782557
56	0xbc547644	-0.01296765
57	0xbc81419f	-0.01577836
58	0xbc869cc4	-0.016432174
59	0x3c3f0a44	0.011660162
60	0xbca1b5d4	-0.019740023
61	0xbc08ecb4	-0.008357216
62	0xbc648845	-0.013948505
63	0xbc957bd3	-0.01824752
64	0xbca8d9ad	-0.020611608
65	0x3b9e2467	0.004826117
66	0xbc5e2b20	-0.0135600865
67	0xbc0cf63b	-0.008603628
68	0xbc8e7953	-0.017391836
69	0x3c840a66	0.01611824
70	0x3c27edba	0.0102495495
71	0xbc2ed640	-0.010671198
72	0x3c56f256	0.013119301
73	0x3ba0392a	0.004889627
74	0x3a5d0237	0.0008430811
75	0xbc871161	-0.01648778
76	0xbc990088	-0.018677011
77	0x3c878cfc	0.016546719
78	0x3b3fb50b	0.0029252197
79	0x3c6515d8	0.013982259
80	0x3b37e7d9	0.0028061776
81	0x3b3ba362	0.002863132
82	0x3c9cfcd2	0.019163523
83	0xbc05734e	-0.008145167
84	0x3c5c2a2e	0.013437791
85	0xbbab17ba	-0.0052213343
86	0xbc590f26	-0.013248241
87	0xbc7d9d88	-0.015479453
88	0x3bf81c02	0.007571698
89	0xbc074f08	-0.008258589
90	0xbc3aa61e	-0.0113921445
91	0x3996e4ce	0.00028780702
92	0xbc811b4c	-0.015760086
93	0x3c1eadfb	0.009685035
94	0x3b611b6b	0.0034348618
95	0xb8b732c7	-8.735578e-05
96	0xbc152121	-0.009102137
97	0xbc5f4aef	-0.013628705
98	0xbc7b3320	-0.015332013
99	0xbc23ae3c	-0.009990271
100	0xbc877ec2	-0.016539935
101	0x3bea4a7d	0.007149993
102	0xbcb1d114	-0.021706142
103	0xbc79149c	-0.015202668
104	0xbc2188f0	-0.009859309
105	0xbc898823	-0.016788548
106	0x3c8fcd03	0.017553812
107	0xbc55e0f8	-0.013054125
108	0xbb72e90f	-0.0037065183
109	0x3c3defd9	0.011592829
110	0x3ba7fb23	0.0051263734
111	0xbb8190f1	-0.003954046
112	0xba324906	-0.00068010425
113	0xbc11b60f	-0.008893504
114	0x3c8975d3	0.016779816
115	0x3b0ee0a5	0.002180138
116	0x3c6103bd	0.013733801
117	0xbc83016f	-0.015991895
118	0xbcc5bcb1	-0.024137827
119	0xbc202c05	-0.00977612
120	0x3c8f39da	0.01748364
121	0xbc5b68ec	-0.013391715
122	0xbc9cbbdd	-0.019132549
123	0xbc39c051	-0.011337356
124	0x3c7f467c	0.01558077
125	0x3c91d1bc	0.017800204
126	0x3c8c0535	0.017092327
127	0x3be97e59	0.0071256575

action_model._continuous_distribution.log_sigma f4 [1, 4]
0	0xbcfd3c42	-0.030912522
1	0x3ab759c5	0.0013988545
2	0xbcc01ce1	-0.02345127
3	0xbcd6e0d2	-0.02623025

action_model._continuous_distribution.mu.weight f4 [4, 128]
0	0xbcf1ff43	-0.029540664
1	0x3c7761c3	0.015098992
2	0xbceb869c	-0.02875071
3	0x3d1d6d0e	0.03843408
4	0x3d18ace7	0.037274268
5	0x3c250403	0.010071757
6	0x3cdfec18	0.027334258
7	0xbb7ae78e	-0.003828499
8	0xbd0e0dfd	-0.03468131
9	0x3c417401	0.011807443
10	0xbb87a90f	-0.0041400264
11	0x3b5106c9	0.0031894913
12	0x3d429431	0.047504608
13	0xba91dfc1	-0.0011129306
14	0x3cc34f27	0.023841454
15	0x3a8bffd5	0.0010681102
16	0x3c0c43b0	0.00856106
17	0xbc541c2f	-0.012946173
18	0x3adf34b2	0.0017029254
19	0xbc96f589	-0.018427627
20	0xbc63fd43	-0.013915363
21	0x3d16f3c5	0.03685357
22	0x3d4472e3	0.047961127
23	0xbc090b6e	-0.008364541
24	0x3a9b6b22	0.001185749
25	0xbc738b3d	-0.01486474
26	0x3c831751	0.016002329
27	0xbbb848f9	-0.0056239334
28	0x3cc961d3	0.024582779
29	0xbb98be0a	-0.0046613263
30	0xbafa3171	-0.0019088221
31	0xbc0dabfc	-0.008646961
32	0x3cf3f42a	0.029779512
33	0xbcf43a02	-0.029812817
34	0x3d0f7382	0.035022266
35	0x3b6edf26	0.0036448925
36	0x3c09a0a8	0.00840012
37	0xbc9e1fe4	-0.019302316
38	0x3d177346	0.036975168
39	0xbc9dda30	-0.019269079
40	0xbc9f41e9	-0.019440608
41	0xbb088a85	-0.0020834517
42	0x3b29e9eb	0.002592678
43	0xbd037469	-0.03209344
44	0xbb8a107c	-0.004213391
45	0x3cb19ced	0.021681273
46	0x3b2740ce	0.0025520804
47	0xbcc5e4d9	-0.024156975
48	0x3cbb6aec	0.022878133
49	0xbce5ea9b	-0.02806597
50	0x3cb63f5b	0.022247007
51	0xbca56c29	-0.020193176
52	0xbc75103c	-0.014957484
53	0xb9ec7b52	-0.00045105309
54	0xbcd0e0f9	-0.0254979
55	0xbbef33ee	-0.0072998917
56	0xbbfb3035	-0.007665659
57	0x3bb5b9a1	0.0055458103
58	0xbd28fa90	-0.04125458
59	0x3bbf2fb6	0.005834545
60	0xbd10c0ef	-0.035340246
61	0xb983f15c	-0.00025166094
62	0x3c4eaedb	0.012614931
63	0xbce29503	-0.027658945
64	0xbd234006	-0.03985598
65	0x3cd09460	0.025461376
66	0xbc8e1fc2	-0.017349128
67	0xbca0f5bf	-0.01964843
68	0xba02b95d	-0.0004986728
69	0x3c14df9a	0.009086514
70	0x3b8bc2ab	0.0042651496
71	0xbc863ad4	-0.016385473
72	0x3cab5d92	0.020918641
73	0x3c40b143	0.0117610125
74	0xbb74ed57	-0.003737291
75	0xbcfeb429	-0.031091766
76	0xbc89671a	-0.016772795
77	0x3c5135df	0.0127691915
78	0x3c2d0537	0.010560325
79	0x3c916f4d	0.017753268
80	0xbbca9533	-0.0061823367
81	0x3c288e13	0.010287779
82	0xbbdfe673	-0.0068328916
83	0xbcbc37cb	-0.022975823
84	0x3ceb1511	0.028696569
85	0xbcb63797	-0.022243304
86	0xbba661b8	-0.005077567
87	0xbcf9083a	-0.03039943
88	0xbbf7041d	-0.007538332
89	0x3ca637df	0.020290313
90	0xbcbd8104	-0.023132809
91	0xbbacf1b8	-0.0052778386
92	0xbc796ab1	-0.015223191
93	0x3d89bcd3	0.067254685
94	0x3d1d733a	0.038439967
95	0x3b8990df	0.004198178
96	0xbc3dc619	-0.011582875
97	0xbd03ffec	-0.032226488
98	0xbc96cd8f	-0.018408565
99	0xbc9c33cb	-0.019067666
100	0xbba004cb	-0.004883384
101	0x3c5dccf5	0.013537635
102	0xbcc78919	-0.024357365
103	0xbaee94b0	-0.0018202271
104	0x3aca12fd	0.0015417036
105	0x3c2d72fe	0.010586498
106	0x3d398c6a	0.045299925
107	0xbcfaa32f	-0.03059539
108	0xbc970561	-0.018435182
109	0x3c06b40c	0.008221637
110	0x3cdbfd7d	0.026854271
111	0x3c44bc94	0.012007851
112	0xbc218fb0	-0.009860918
113	0xbcfbe9fc	-0.03075122
114	0xbb778e66	-0.0037774085
115	0x3c8f8bf7	0.017522795
116	0x3cfea23f	0.031083224
117	0xbd2b1154	-0.041764572
118	0xbc9f5005	-0.019447336
119	0x3cc4f277	0.024041397
120	0x3cb92957	0.02260272
121	0xbbfd1bbc	-0.0077242535
122	0xbd33bd78	-0.043881863
123	0xbbb97c1e	-0.005660548
124	0x3c34ab91	0.011027233
125	0x3cef9bee	0.029249158
126	0x3caad99e	0.020855721
127	0x3cbccc18	0.023046538
128	0xbc6d6610	-0.014489666
129	0x3c3a1633	0.011357832
130	0xbc061a2a	-0.008184949
131	0xbacd4896	-0.0015661891
132	0x3c5e7d9b	0.013579751
133	0x3bf1e693	0.007382223
134	0x3c07e54c	0.008294415
135	0xbca86f36	-0.020560842
136	0xbb60e931	-0.003431868
137	0x3c495454	0.012288172
138	0xbc766629	-0.015039005
139	0xbc887cd1	-0.01666108
140	0x3c56c3e5	0.013108228
141	0x3b88ac93	0.004170963
142	0xbc49aeab	-0.0123097105
143	0x3d11f771	0.03563637
144	0xbb95b36a	-0.004568507
145	0xbca1286e	-0.019672599
146	0xbcdfbf4d	-0.027312899
147	0x3d085a75	0.03328939
148	0x3baaa4bc	0.005207626
149	0x3b59c388	0.0033228118
150	0xbd38c7ff	-0.045112606
151	0xbc9931db	-0.01870053
152	0x3c7d0781	0.015443684
153	0xbc754ca9	-0.0149718905
154	0xbb0f30b4	-0.0021849098
155	0x3c02347f	0.007947086
156	0xb9d0722c	-0.00039757916
157	0xbcf26055	-0.02958695
158	0xbb665526	-0.0035145967
159	0xbc97a1e8	-0.01850982
160	0x3c8107e9	0.015750842
161	0xbc562c68	-0.013072111
162	0x3d35c29a	0.04437504
163	0x3ce2a720	0.027667582
164	0x3b40d5ff	0.0029424427
165	0x382ee44c	4.169745e-05
166	0x3ab0e7af	0.0013496781
167	0xbcfd0bce	-0.030889418
168	0xbd1470d2	-0.036240406
169	0xbcef9cf6	-0.02924965
170	0x3c3d326a	0.011547664
171	0xbba95086	-0.00516707
172	0x3ccbb626	0.024867129
173	0x3c19b8ca	0.009382436
174	0xbd1bd7a2	-0.03804744
175	0xbc9405be	-0.018069144
176	0x3d19ae17	0.03751954
177	0xbc209825	-0.009801899
178	0xbd0d68c5	-0.034523744
179	0xbc6a5b5b	-0.014304007
180	0xbd5d4ad5	-0.054026444
181	0x3be6fabc	0.007048933
182	0x3c474d7f	0.012164473
183	0xbc5298ee	-0.012853844
184	0xbce2b7c8	-0.027675524
185	0x3bedc3ea	0.007256021
186	0xbc878d13	-0.016546762
187	0x3d0d6003	0.034515392
188	0xbcfbe7a9	-0.030750113
189	0xbac42a1c	-0.0014966163
190	0x3accb6a9	0.0015618402
191	0xbc5b9ded	-0.013404352
192	0xbccda9ea	-0.025105435
193	0x3c9a10f8	0.01880692
194	0xbbfe4cf7	-0.00776064
195	0xbcc9e535	-0.024645427
196	0x3c370173	0.011169779
197	0x3c847fc4	0.016174205
198	0x3cdb0563	0.026735967
199	0xbd17f36e	-0.037097387
200	0x3c308a36	0.01077514
201	0xbb223b9f	-0.0024754775
202	0x3cbe8a57	0.023259325
203	0xbcca710a	-0.024712104
204	0xbc661346	-0.014042681
205	0x3987b71d	0.00025885637
206	0x3ca0ca68	0.019627765
207	0x3d2867d0	0.04111463
208	0x3c0c8891	0.008577482
209	0xbc98ca62	-0.018651191
210	0x3c50c906	0.01274324
211	0xbc992250	-0.01869312
212	0xbc9ea739	-0.019366847
213	0x3cd1b994	0.025601186
214	0xbc59cc47	-0.013293332
215	0x3c26cf90	0.010181323
216	0xbd238536	-0.03992196
217	0xbb13bec0	-0.0022544116
218	0xbd614e8f	-0.05500656
219	0x3c2c9ef1	0.010535941
220	0xbd2e6a4f	-0.042581853
221	0xbc13ad4a	-0.009013483
222	0xb925693a	-0.00015774826
223	0xbb3fdb74	-0.0029275091
224	0xbc69e724	-0.0142763
225	0xbcbb82c3	-0.0228895
226	0xbcdb856e	-0.026797023
227	0x3a46aff0	0.00075793173
228	0xbc16ecb5	-0.009211709
229	0xbccb7a4c	-0.02483859
230	0xbcf3463f	-0.029696582
231	0xbad5f0cc	-0.0016322373
232	0xbc981e8d	-0.018569255
233	0xbb9efd3c	-0.0048519652
234	0x3d067544	0.032826677
235	0x3c8d124e	0.017220642
236	0x3c81ec07	0.015859617
237	0x3c03100b	0.00799943
238	0xbcdcd1d7	-0.026955528
239	0xbb847886	-0.004042688
240	0xbbed8944	-0.0072490294
241	0xbc838907	-0.01605655
242	0x3ca10105	0.019653806
243	0xbbb20fb2	-0.005434
244	0x3cc05934	0.023480035
245	0xbc9ed065	-0.01938648
246	0xbc7d4714	-0.015458841
247	0xbcbb78c8	-0.022884741
248	0x3cabad74	0.020956732
249	0xbcd4c5b8	-0.025973186
250	0xbd20a4c4	-0.039219633
251	0xbc18497c	-0.009294864
252	0x3cf378c4	0.029720671
253	0x3cc5c7fe	0.024143215
254	0x3cefa07c	0.02925133
255	0xbb3d2d2a	-0.0028866031

action_model._continuous_distribution.mu.bias f4 [4]
0	0x3c4bfdea	0.012450675
1	0x3c32f835	0.010923435
2	0x3c8c00b4	0.017090179
3	0x3be5fafb	0.0070184446

exp_avg f4 [128, 9]
0	0xb95e2308	-0.0002118462
1	0x384243a0	4.6316185e-05
2	0xb8ee823b	-0.00011372982
3	0x9b8dda5b	-2.3467602e-22
4	0x3980611e	0.0002448642
5	0x3a80611e	0.0009794568
6	0x00000000	0.0
7	0x00000000	0.0
8	0x00000000	0.0
9	0xb78bbc75	-1.6657848e-05
10	0x367467cb	3.6419249e-06
11	0xb71608ee	-8.942776e-06
12	0x9abf30f0	-7.907481e-23
13	0x37a183e3	1.925411e-05
14	0x38a183e3	7.701644e-05
15	0x00000000	0.0
16	0x00000000	0.0
17	0x00000000	0.0
18	0x394fecd0	0.00019829278
19	0xb835d5eb	-4.335299e-05
20	0x38df3fe0	0.00010645366
21	0x192a6645	8.809447e-24
22	0xb97054f7	-0.00022919835
23	0xba7054f7	-0.0009167934
24	0x00000000	0.0
25	0x00000000	0.0
26	0x00000000	0.0
27	0x37e7af42	2.7618957e-05
28	0xb6ca9d29	-6.038365e-06
29	0x3778c296	1.48272575e-05
30	0x9b9819de	-2.5163007e-22
31	0xb805e5b1	-3.1923588e-05
32	0xb905e5b1	-0.00012769435
33	0x00000000	0.0
34	0x00000000	0.0
35	0x00000000	0.0
36	0xb595f22c	-1.1171846e-06
37	0x34832190	2.442507e-07
38	0xb520ff20	-5.99759e-07
39	0x1a96df56	6.2399365e-23
40	0x35ad50de	1.291304e-06
41	0x36ad50de	5.165216e-06
42	0x00000000	0.0
43	0x00000000	0.0
44	0x00000000	0.0
45	0xb96372e6	-0.0002169121
46	0x3846e8dd	4.742375e-05
47	0xb8f43653	-0.00011644945
48	0x9ad61f49	-8.855887e-23
49	0x39837306	0.00025071966
50	0x3a837306	0.0010028786
51	0x00000000	0.0
52	0x00000000	0.0
53	0x00000000	0.0
54	0xb75982aa	-1.29646305e-05
55	0x363e37d9	2.8344714e-06
56	0xb6e98a95	-6.960074e-06
57	0x18b250d4	4.6093537e-24
58	0x377b6941	1.4985272e-05
59	0x387b6941	5.994109e-05
60	0x00000000	0.0
61	0x00000000	0.0
62	0x00000000	0.0
63	0x3891626a	6.93247e-05
64	0xb77e48d6	-1.5156538e-05
65	0x381c1975	3.7217007e-05
66	0x1b539bac	1.7503811e-22
67	0xb8a80b33	-8.01295e-05
68	0xb9a80b33	-0.000320518
69	0x00000000	0.0
70	0x00000000	0.0
71	0x00000000	0.0
72	0xb693d927	-4.4062213e-06
73	0x35814c3f	9.63344e-07
74	0xb61ebf37	-2.3655136e-06
75	0x1b873f85	2.2374925e-22
76	0x36aae453	5.0929752e-06
77	0x37aae453	2.0371901e-05
78	0x00000000	0.0
79	0x00000000	0.0
80	0x00000000	0.0
81	0x38533ca8	5.036281e-05
82	0xb738bb63	-1.1010884e-05
83	0x37e2ce34	2.703732e-05
84	0x1b1b6728	1.2854631e-22
85	0xb87428f4	-5.8212274e-05
86	0xb97428f4	-0.0002328491
87	0x00000000	0.0
88	0x00000000	0.0
89	0x00000000	0.0
90	0xb49b82de	-2.8966218e-07
91	0x3387ff97	6.332919e-08
92	0xb426f8fe	-1.5550538e-07
93	0x9aa5b966	-6.854193e-23
94	0x34b3bfb6	3.3480836e-07
95	0x35b3bfb6	1.3392334e-06
96	0x00000000	0.0
97	0x00000000	0.0
98	0x00000000	0.0
99	0x369b9aaa	4.6373652e-06
100	0xb588146a	-1.0138731e-06
101	0x36271291	2.4895746e-06
102	0x188f5d10	3.7058603e-24
103	0xb6b3db3d	-5.3601384e-06
104	0xb7b3db3d	-2.1440554e-05
105	0x00000000	0.0
106	0x00000000	0.0
107	0x00000000	0.0
108	0x377bdc9c	1.50121305e-05
109	0xb65c4266	-3.2821204e-06
110	0x37073656	8.059278e-06
111	0x9a2646e9	-3.4385276e-23
112	0xb7918ee3	-1.7351884e-05
113	0xb8918ee3	-6.9407535e-05
114	0x00000000	0.0
115	0x00000000	0.0
116	0x00000000	0.0
117	0x39d38f20	0.00040351693
118	0xb8b9037e	-8.822138e-05
119	0x396326be	0.0002166284
120	0x1b810d5a	2.1349888e-22
121	0xb9f48849	-0.00046640847
122	0xbaf48849	-0.0018656339
123	0x00000000	0.0
124	0x00000000	0.0
125	0x00000000	0.0
126	0x37c81dfe	2.3855824e-05
127	0xb6af01ec	-5.21563e-06
128	0x3756ddbf	1.2807023e-05
129	0x1b499ebd	1.6677621e-22
130	0xb7e74ea3	-2.7573964e-05
131	0xb8e74ea3	-0.000110295856
132	0x00000000	0.0
133	0x00000000	0.0
134	0x00000000	0.0
135	0x37c93834	2.3987239e-05
136	0xb6aff8b1	-5.244358e-06
137	0x37580cbe	1.287757e-05
138	0x9b995f51	-2.5373324e-22
139	0xb7e894d1	-2.7725853e-05
140	0xb8e894d1	-0.00011090341
141	0x00000000	0.0
142	0x00000000	0.0
143	0x00000000	0.0
144	0xb809e555	-3.2876927e-05
145	0x36f12fcb	7.1879235e-06
146	0xb7940f1a	-1.7650007e-05
147	0x9c28abec	-5.580874e-22
148	0x381f6359	3.800108e-05
149	0x391f6359	0.00015200432
150	0x00000000	0.0
151	0x00000000	0.0
152	0x00000000	0.0
153	0x38fecd15	0.00012149863
154	0xb7ded470	-2.6563386e-05
155	0x3888ca4a	6.5226646e-05
156	0x1aadb282	7.183952e-23
157	0xb91341cb	-0.00014043522
158	0xba1341cb	-0.0005617409
159	0x00000000	0.0
160	0x00000000	0.0
161	0x00000000	0.0
162	0x38cb3d70	9.691238e-05
163	0xb7b1bd07	-2.1188067e-05
164	0x385a3819	5.2027495e-05
165	0x1b2e74e6	1.4430715e-22
166	0xb8eaeaa6	-0.00011201696
167	0xb9eaeaa6	-0.00044806785
168	0x00000000	0.0
169	0x00000000	0.0
170	0x00000000	0.0
171	0xb4c316ac	-3.6338076e-07
172	0x33aa9c17	7.9446345e-08
173	0xb4517789	-1.9508128e-07
174	0x1b3f8f4a	1.5845449e-22
175	0x34e17ea4	4.200166e-07
176	0x35e17ea4	1.6800664e-06
177	0x00000000	0.0
178	0x00000000	0.0
179	0x00000000	0.0
180	0x3835dd40	4.3359818e-05
181	0xb71f0b7a	-9.479811e-06
182	0x37c3449f	2.3277766e-05
183	0x9c768fb3	-8.15803e-22
184	0xb8523593	-5.0117796e-05
185	0xb9523593	-0.00020047119
186	0x00000000	0.0
187	0x00000000	0.0
188	0x00000000	0.0
189	0xb8eb6c95	-0.00011225898
190	0x37cde261	2.454332e-05
191	0xb87cc67d	-6.026634e-05
192	0x1ba28b67	2.6890738e-22
193	0x39080ef9	0.00012975548
194	0x3a080ef9	0.00051902194
195	0x00000000	0.0
196	0x00000000	0.0
197	0x00000000	0.0
198	0xba07abb7	-0.0005175429
199	0x38ed4b78	0.00011315098
200	0xb991ab80	-0.00027784333
201	0x9cb26978	-1.1806315e-21
202	0x3a1cd0f2	0.0005982063
203	0x3b1cd0f2	0.0023928252
204	0x00000000	0.0
205	0x00000000	0.0
206	0x00000000	0.0
207	0x39057691	0.00012728038
208	0xb7e96f06	-2.7827464e-05
209	0x388f4cb7	6.8330606e-05
210	0x1b54a152	1.7588354e-22
211	0xb91a43b8	-0.00014711812
212	0xba1a43b8	-0.00058847247
213	0x00000000	0.0
214	0x00000000	0.0
215	0x00000000	0.0
216	0xb9d38d73	-0.00040350444
217	0x38b9020a	8.821867e-05
218	0xb96324f6	-0.00021662176
219	0x9b475bb7	-1.6490529e-22
220	0x39f48659	0.00046639403
221	0x3af48659	0.0018655761
222	0x00000000	0.0
223	0x00000000	0.0
224	0x00000000	0.0
225	0xb61a8dff	-2.303044e-06
226	0x3507296f	5.0351713e-07
227	0xb5a5f218	-1.2363917e-06
228	0x1b9377de	2.4396572e-22
229	0x3632a4ac	2.6619919e-06
230	0x3732a4ac	1.0647967e-05
231	0x00000000	0.0
232	0x00000000	0.0
233	0x00000000	0.0
234	0x392f6368	0.00016726332
235	0xb81961a5	-3.656898e-05
236	0x38bc5097	8.9795496e-05
237	0x1ae3e3bc	9.4252924e-23
238	0xb94ab95c	-0.00019333273
239	0xba4ab95c	-0.0007733309
240	0x00000000	0.0
241	0x00000000	0.0
242	0x00000000	0.0
243	0x3833a9db	4.2835116e-05
244	0xb71d1ec5	-9.365093e-06
245	0x37c0e7b1	2.2996073e-05
246	0x1b94d0c3	2.4619455e-22
247	0xb84faa64	-4.9511335e-05
248	0xb94faa64	-0.00019804534
249	0x00000000	0.0
250	0x00000000	0.0
251	0x00000000	0.0
252	0xb95b222a	-0.00020898195
253	0x383fa33c	4.5689972e-05
254	0xb8eb48b5	-0.00011219216
255	0x9c34f7d5	-5.987732e-22

exp_avg_sq f4 [128, 9]
0	0x3541f4a3	7.2254096e-07
1	0x33037620	3.060825e-08
2	0x34789a71	2.3152985e-07
3	0x340bc164	1.3015739e-07
4	0x3552d3da	7.853938e-07
5	0x37517948	1.2485609e-05
6	0x00000000	0.0
7	0x00000000	0.0
8	0x00000000	0.0
9	0x34530a31	1.9654614e-07
10	0x31bca68b	5.490454e-09
11	0x33a9d223	7.9078994e-08
12	0x33e1c81d	1.05137794e-07
13	0x33c72654	9.2736315e-08
14	0x35ab2db1	1.2753791e-06
15	0x00000000	0.0
16	0x00000000	0.0
17	0x00000000	0.0
18	0x3501d54f	4.836665e-07
19	0x327d6cf3	1.475131e-08
20	0x345197b2	1.9519828e-07
21	0x33bca205	8.7839034e-08
22	0x34aeb55b	3.254198e-07
23	0x36a78bbd	4.9932555e-06
24	0x00000000	0.0
25	0x00000000	0.0
26	0x00000000	0.0
27	0x348d5fdd	2.6333046e-07
28	0x31bfebc1	5.5856337e-09
29	0x3404b5d9	1.2359614e-07
30	0x340d8e0a	1.3183322e-07
31	0x33842958	6.1542494e-08
32	0x354d6f31	7.6530256e-07
33	0x00000000	0.0
34	0x00000000	0.0
35	0x00000000	0.0
36	0x32b57f3a	2.112903e-08
37	0x30428079	7.075936e-10
38	0x32034e2a	7.642976e-09
39	0x3218960e	8.881683e-09
40	0x32613fbc	1.3111215e-08
41	0x345f5fbc	2.0803321e-07
42	0x00000000	0.0
43	0x00000000	0.0
44	0x00000000	0.0
45	0x35940030	1.1026914e-06
46	0x335dde4b	5.1657747e-08
47	0x34add43e	3.2378188e-07
48	0x333d629d	4.409468e-08
49	0x35bcf444	1.4078182e-06
50	0x37bc3105	2.2434173e-05
51	0x00000000	0.0
52	0x00000000	0.0
53	0x00000000	0.0
54	0x343fa80f	1.78494e-07
55	0x31800bee	3.7266465e-09
56	0x33aa816e	7.939785e-08
57	0x332e6087	4.0600323e-08
58	0x34001b80	1.1930933e-07
59	0x34baac1b	3.4770423e-07
60	0x00000000	0.0
61	0x00000000	0.0
62	0x00000000	0.0
63	0x35926a07	1.0908706e-06
64	0x335152d4	4.8736936e-08
65	0x34b19468	3.30768e-07
66	0x33b1aba9	8.2734296e-08
67	0x35b02208	1.3122926e-06
68	0x37ab2a69	2.0404537e-05
69	0x00000000	0.0
70	0x00000000	0.0
71	0x00000000	0.0
72	0x35ad6c84	1.2921087e-06
73	0x33714834	5.6177853e-08
74	0x34d8b6f0	4.036624e-07
75	0x338b792b	6.494732e-08
76	0x35cc1918	1.5206488e-06
77	0x37c5ffed	2.3603405e-05
78	0x00000000	0.0
79	0x00000000	0.0
80	0x00000000	0.0
81	0x3438f774	1.7226358e-07
82	0x31aeff08	5.09306e-09
83	0x338c4cbe	6.533217e-08
84	0x340d4005	1.3154938e-07
85	0x33921e57	6.8041736e-08
86	0x3586056a	9.985354e-07
87	0x00000000	0.0
88	0x00000000	0.0
89	0x00000000	0.0
90	0x33f49779	1.1389688e-07
91	0x3118d076	2.2237407e-09
92	0x335b856e	5.1111265e-08
93	0x339234ce	6.80826e-08
94	0x3310fcaf	3.3757427e-08
95	0x301413c9	5.38702e-10
96	0x00000000	0.0
97	0x00000000	0.0
98	0x00000000	0.0
99	0x32a0ca45	1.8718433e-08
100	0x2fd1c135	3.815416e-10
101	0x320da1c4	8.244061e-09
102	0x2da11879	1.8314449e-11
103	0x31d5e673	6.225315e-09
104	0x338a5f77	6.443491e-08
105	0x00000000	0.0
106	0x00000000	0.0
107	0x00000000	0.0
108	0x339ea2e8	7.387081e-08
109	0x315ea529	3.2399134e-09
110	0x32c64b68	2.3084525e-08
111	0x31d3a5ee	6.1597722e-09
112	0x33b9d683	8.653753e-08
113	0x35b9adb7	1.3834132e-06
114	0x00000000	0.0
115	0x00000000	0.0
116	0x00000000	0.0
117	0x36d9e058	6.493221e-06
118	0x34a0591f	2.9867167e-07
119	0x3601d312	1.9345357e-06
120	0x334f29c6	4.8233936e-08
121	0x370c1cc1	8.351345e-06
122	0x3908d99c	0.00013051037
123	0x00000000	0.0
124	0x00000000	0.0
125	0x00000000	0.0
126	0x358682da	1.0021861e-06
127	0x333c9d76	4.391537e-08
128	0x34a62211	3.0944696e-07
129	0x340d9b45	1.3188135e-07
130	0x359a0924	1.1476554e-06
131	0x3799829d	1.8299843e-05
132	0x00000000	0.0
133	0x00000000	0.0
134	0x00000000	0.0
135	0x3447e7da	1.8617666e-07
136	0x317cf373	3.6809211e-09
137	0x33b0d6f7	8.2347405e-08
138	0x340cb48d	1.31042e-07
139	0x32f8e6cf	2.897596e-08
140	0x33c53076	9.182342e-08
141	0x00000000	0.0
142	0x00000000	0.0
143	0x00000000	0.0
144	0x3565d2a7	8.561569e-07
145	0x32d37cf9	2.4620464e-08
146	0x34adf0b2	3.239889e-07
147	0x353a4471	6.9389995e-07
148	0x347bb643	2.3442503e-07
149	0x3640a01a	2.870342e-06
150	0x00000000	0.0
151	0x00000000	0.0
152	0x00000000	0.0
153	0x356ea108	8.889624e-07
154	0x33275dbe	3.8967976e-08
155	0x3491e6f8	2.7176407e-07
156	0x33dc99c0	1.0272515e-07
157	0x35864296	1.0003157e-06
158	0x377fcd20	1.5246944e-05
159	0x00000000	0.0
160	0x00000000	0.0
161	0x00000000	0.0
162	0x3572bcc1	9.04267e-07
163	0x3333a470	4.182624e-08
164	0x348fdeef	2.679803e-07
165	0x335ce320	5.142931e-08
166	0x35984958	1.1346228e-06
167	0x37980d7c	1.8126091e-05
168	0x00000000	0.0
169	0x00000000	0.0
170	0x00000000	0.0
171	0x33bc2353	8.7608576e-08
172	0x31170958	2.1978703e-09
173	0x33144735	3.4523698e-08
174	0x3394ffa2	6.9382864e-08
175	0x32b8b5e5	2.1503135e-08
176	0x306a8fc0	8.5332985e-10
177	0x00000000	0.0
178	0x00000000	0.0
179	0x00000000	0.0
180	0x36422807	2.8931552e-06
181	0x33d7a330	1.0041401e-07
182	0x358c2409	1.04413e-06
183	0x35830498	9.761598e-07
184	0x361460e0	2.2110107e-06
185	0x380c75b7	3.348823e-05
186	0x00000000	0.0
187	0x00000000	0.0
188	0x00000000	0.0
189	0x36464f49	2.955045e-06
190	0x3413b615	1.3756683e-07
191	0x3569bf59	8.707771e-07
192	0x33d7075c	1.0013056e-07
193	0x367d66a0	3.7759673e-06
194	0x387c7ad1	6.0195864e-05
195	0x00000000	0.0
196	0x00000000	0.0
197	0x00000000	0.0
198	0x376e4263	1.4201362e-05
199	0x352510f6	6.149197e-07
200	0x36948001	4.4256453e-06
201	0x3625d46a	2.4710557e-06
202	0x37834b27	1.5651412e-05
203	0x39829c6f	0.00024912084
204	0x00000000	0.0
205	0x00000000	0.0
206	0x00000000	0.0
207	0x3495aff2	2.788143e-07
208	0x3221ca38	9.417413e-09
209	0x33d8046f	1.005909e-07
210	0x34385b41	1.7169533e-07
211	0x343cbb96	1.7577108e-07
212	0x36392e7b	2.7594203e-06
213	0x00000000	0.0
214	0x00000000	0.0
215	0x00000000	0.0
216	0x3655cb8f	3.185796e-06
217	0x341a4827	1.4368617e-07
218	0x35811e52	9.620073e-07
219	0x34b11289	3.2982305e-07
220	0x367f9ba1	3.808855e-06
221	0x387ddb35	6.0524053e-05
222	0x00000000	0.0
223	0x00000000	0.0
224	0x00000000	0.0
225	0x339089c0	6.730579e-08
226	0x30a8a490	1.227038e-09
227	0x33084f9a	3.1737365e-08
228	0x3355eb6e	4.980705e-08
229	0x31a0608b	4.6675885e-09
230	0x32e872da	2.7060583e-08
231	0x00000000	0.0
232	0x00000000	0.0
233	0x00000000	0.0
234	0x3518f3d9	5.697926e-07
235	0x32a3cd6c	1.9069113e-08
236	0x3464c83a	2.1306997e-07
237	0x3392eca7	6.8417016e-08
238	0x34fa3bef	4.6609736e-07
239	0x36e59b93	6.842843e-06
240	0x00000000	0.0
241	0x00000000	0.0
242	0x00000000	0.0
243	0x34f02199	4.472793e-07
244	0x3294209a	1.7244293e-08
245	0x34245799	1.5305558e-07
246	0x33fe823b	1.18514855e-07
247	0x34dab202	4.0735182e-07
248	0x36c91326	5.992496e-06
249	0x00000000	0.0
250	0x00000000	0.0
251	0x00000000	0.0
252	0x358b67a7	1.0386474e-06
253	0x3316ccfe	3.5111036e-08
254	0x34ca0e52	3.763585e-07
255	0x35119c6a	5.424432e-07

exp_avg f4 [128]
0	0x3980611f	0.00024486423
1	0x37a183de	1.9254101e-05
2	0xb97054f9	-0.00022919838
3	0xb805e5b1	-3.1923588e-05
4	0x35ad50e6	1.2913049e-06
5	0x39837306	0.00025071966
6	0x377b6946	1.4985277e-05
7	0xb8a80b33	-8.01295e-05
8	0x36aae4de	5.0930385e-06
9	0xb87428f3	-5.821227e-05
10	0x34b3bfb6	3.3480836e-07
11	0xb6b3db3b	-5.3601375e-06
12	0xb7918ee3	-1.7351884e-05
13	0xb9f48848	-0.00046640844
14	0xb7e74e93	-2.7573935e-05
15	0xb7e894d1	-2.7725853e-05
16	0x381f6357	3.800107e-05
17	0xb91341c8	-0.00014043518
18	0xb8eaeaa7	-0.00011201697
19	0x34e17ea4	4.200166e-07
20	0xb8523597	-5.011781e-05
21	0x39080ef9	0.00012975548
22	0x3a1cd0f0	0.0005982062
23	0xb91a43b9	-0.00014711813
24	0x39f4865a	0.00046639406
25	0x3632a4b2	2.6619932e-06
26	0xb94ab95a	-0.0001933327
27	0xb84faa65	-4.9511338e-05
28	0x397d498b	0.00024155357
29	0x36b252ae	5.3144386e-06
30	0xb95a7bcd	-0.0002083622
31	0x39ad6a6f	0.0003307643
32	0x38b56b98	8.6507935e-05
33	0xb935c86e	-0.00017336171
34	0x3796e3c0	1.7987448e-05
35	0x390fe54c	0.00013722962
36	0x371277eb	8.730199e-06
37	0xb5d9bb01	-1.6222185e-06
38	0x3698d18f	4.554349e-06
39	0x380eff81	3.4093395e-05
40	0x36b12d8c	5.2803134e-06
41	0x3a06d66d	0.0005143646
42	0x39d9c5ea	0.00041536923
43	0xb33ae0af	-4.351085e-08
44	0x39c2e12c	0.0003717033
45	0xb89a0d47	-7.345765e-05
46	0xb8b2f82b	-8.533926e-05
47	0xb90528bb	-0.00012699042
48	0x395b5c85	0.00020919934
49	0x38c4857c	9.370872e-05
50	0xb84c61c9	-4.872846e-05
51	0xb7c4289a	-2.3383927e-05
52	0x3a18978c	0.0005820922
53	0xb941cd83	-0.00018482473
54	0xb992f55e	-0.00028030103
55	0xb8b84e1d	-8.7883534e-05
56	0x397679d5	0.00023505774
57	0xb89674e6	-7.1743314e-05
58	0x392b2505	0.00016321622
59	0xb707d057	-8.095135e-06
60	0x37bcf62e	2.2525983e-05
61	0x38ee3feb	0.0001136063
62	0xb9135d29	-0.00014053717
63	0x35324035	6.64036e-07
64	0x382112b7	3.840282e-05
65	0xb8055405	-3.178792e-05
66	0x39656bf5	0.00021879359
67	0xb84b4d30	-4.8470858e-05
68	0xb8c2b31f	-9.284005e-05
69	0x39355d92	0.00017296363
70	0xb99c82a4	-0.00029851974
71	0xb9a2ba52	-0.00031037867
72	0x3729b109	1.0114404e-05
73	0xb7d03b5f	-2.4823179e-05
74	0x39a95dd2	0.00032304093
75	0xb8834a52	-6.26041e-05
76	0x36633a96	3.3859737e-06
77	0x370ad448	8.274867e-06
78	0x372f3932	1.044413e-05
79	0xb8f52a54	-0.000116903946
80	0x39673802	0.00022050741
81	0xb8a086a6	-7.654475e-05
82	0xb725d759	-9.884906e-06
83	0xb493a1db	-2.749865e-07
84	0x37db1049	2.6114418e-05
85	0xb73a7e57	-1.111588e-05
86	0x36888df3	4.069641e-06
87	0x37f63a1d	2.9352546e-05
88	0x39c48a56	0.00037487102
89	0x35526c83	7.8389e-07
90	0x38127a2a	3.4922887e-05
91	0x39b37a32	0.00034232583
92	0x38f6451a	0.00011743065
93	0x394c4864	0.00019481924
94	0x38ad6eae	8.2698985e-05
95	0x35aa7d1e	1.2702401e-06
96	0xb76f7431	-1.4272563e-05
97	0x383580ae	4.3273605e-05
98	0x370ee568	8.517272e-06
99	0x37ba42bb	2.2204002e-05
100	0x3a04414c	0.00050451304
101	0x39113f71	0.00013851911
102	0xb8a61f40	-7.9213176e-05
103	0x39a8a4ef	0.00032166342
104	0x3a08b380	0.0005214736
105	0x398a9930	0.00026435545
106	0x39d54cdf	0.000406838
107	0x38b3d621	8.57527e-05
108	0xb8db50bb	-0.00010457771
109	0x3985356e	0.00025407545
110	0x3926aa58	0.00015894452
111	0x3786b59b	1.6058611e-05
112	0x39018c90	0.00012354762
113	0x3a11774f	0.00055490894
114	0xb5991ed7	-1.1408364e-06
115	0xb8b37a6f	-8.55819e-05
116	0x361c656d	2.330485e-06
117	0x39231eb9	0.00015556336
118	0x35c7213c	1.4836328e-06
119	0xb8fc8c0d	-0.00012042383
120	0x3810ff59	3.4570086e-05
121	0xb92d4618	-0.00016524678
122	0x38137bdc	3.5162884e-05
123	0x3a0b36af	0.00053105777
124	0x38c49a38	9.374734e-05
125	0x37628bed	1.3503229e-05
126	0x394fd112	0.00019818943
127	0xb7888036	-1.6272166e-05

exp_avg_sq f4 [128]
0	0x35842952	9.846792e-07
1	0x3496ec38	2.811155e-07
2	0x353a30e2	6.9361533e-07
3	0x34d2ba48	3.9251086e-07
4	0x32fd3a30	2.9479537e-08
5	0x35c6643f	1.4781325e-06
6	0x348c749c	2.6161877e-07
7	0x35c559ad	1.4703743e-06
8	0x35eb246a	1.7519462e-06
9	0x34824b04	2.4268968e-07
10	0x3433903d	1.6723148e-07
11	0x32eae26e	2.7344154e-08
12	0x33d72adb	1.0019513e-07
13	0x371267bf	8.726433e-06
14	0x35b5f052	1.3555493e-06
15	0x34922321	2.722018e-07
16	0x35a1b352	1.2047624e-06
17	0x35a1052a	1.1996938e-06
18	0x35a2f342	1.2140738e-06
19	0x34057f85	1.2432982e-07
20	0x36877b75	4.037686e-06
21	0x3684fd42	3.9633896e-06
22	0x37a169ad	1.9241905e-05
23	0x34d0bf52	3.8882223e-07
24	0x368fff9f	4.2914903e-06
25	0x33d753b9	1.0026947e-07
26	0x35574473	8.019335e-07
27	0x3525c7ba	6.175793e-07
28	0x35c2a192	1.450115e-06
29	0x3604d860	1.979548e-06
30	0x34bd479b	3.5256093e-07
31	0x36cf7644	6.1828487e-06
32	0x359ffdd6	1.1920299e-06
33	0x3506ac6f	5.0169814e-07
34	0x346d112e	2.2078595e-07
35	0x360a8d6d	2.0645923e-06
36	0x33163015	3.4968327e-08
37	0x354d2dd5	7.6435146e-07
38	0x353014fb	6.559564e-07
39	0x33674a9d	5.385174e-08
40	0x352e7b8c	6.4999836e-07
41	0x360ac687	2.067916e-06
42	0x3657a6be	3.2134553e-06
43	0x33ce0c56	9.5948664e-08
44	0x35ce3b83	1.5365516e-06
45	0x36349636	2.6909524e-06
46	0x369139a2	4.328046e-06
47	0x351498c6	5.535661e-07
48	0x3607aa08	2.0215539e-06
49	0x36017dbe	1.929569e-06
50	0x35a2ed43	1.2138993e-06
51	0x358d5f75	1.05331e-06
52	0x36c7646f	5.942354e-06
53	0x362b1b4b	2.5496872e-06
54	0x35aaedcb	1.2735194e-06
55	0x35aecade	1.3023052e-06
56	0x366950a2	3.476664e-06
57	0x35c252c1	1.4478211e-06
58	0x351360f9	5.490288e-07
59	0x346f4204	2.2282626e-07
60	0x349516f7	2.7770122e-07
61	0x357171f5	8.9945325e-07
62	0x368801d0	4.053327e-06
63	0x35141c70	5.517568e-07
64	0x35a74360	1.2462078e-06
65	0x340f8524	1.3366349e-07
66	0x369ca363	4.668183e-06
67	0x35cf753a	1.5456819e-06
68	0x35f11171	1.7960975e-06
69	0x35aa6c7a	1.2697558e-06
70	0x36418035	2.8833867e-06
71	0x370e02db	8.464524e-06
72	0x34cea856	3.849297e-07
73	0x33fb94ec	1.1715187e-07
74	0x36d14fe2	6.237985e-06
75	0x35e058fc	1.6715198e-06
76	0x35f7e68d	1.8470033e-06
77	0x35bb0038	1.3932649e-06
78	0x35377d82	6.835545e-07
79	0x36208bda	2.3923262e-06
80	0x3735f684	1.0845837e-05
81	0x34b162c9	3.3040695e-07
82	0x34791207	2.319649e-07
83	0x352f770a	6.5365805e-07
84	0x348ff2d4	2.6812506e-07
85	0x34c08780	3.5861376e-07
86	0x34c5ad32	3.6820126e-07
87	0x341c5fc5	1.4563473e-07
88	0x3619be9d	2.2909728e-06
89	0x347e6d5b	2.3695377e-07
90	0x34890c02	2.5526975e-07
91	0x34f0ddc7	4.4864848e-07
92	0x34ab3c35	3.1895038e-07
93	0x3591ced7	1.086354e-06
94	0x345fae22	2.0831843e-07
95	0x3430b49a	1.645698e-07
96	0x348c5fca	2.6146728e-07
97	0x3630c20f	2.6339e-06
98	0x33991f74	7.130339e-08
99	0x34d081b6	3.8837396e-07
100	0x3619ff90	2.2947534e-06
101	0x35a97679	1.2625961e-06
102	0x3623ba9a	2.439751e-06
103	0x36f91262	7.4229183e-06
104	0x362a1a3a	2.534724e-06
105	0x34366426	1.6986505e-07
106	0x361ee663	2.3677937e-06
107	0x36164477	2.2391594e-06
108	0x36b61ede	5.427616e-06
109	0x34777f91	2.3050076e-07
110	0x36461ac6	2.9519883e-06
111	0x361a7013	2.3013024e-06
112	0x35592131	8.08871e-07
113	0x363b3ef7	2.7901822e-06
114	0x34e4d3bd	4.262237e-07
115	0x348cf95a	2.625846e-07
116	0x3496f151	2.8115258e-07
117	0x35aa3fb5	1.2684528e-06
118	0x348f98ae	2.6746915e-07
119	0x361552ff	2.225104e-06
120	0x3395763c	6.95986e-08
121	0x35720279	9.0155623e-07
122	0x351d6057	5.862725e-07
123	0x3642ca78	2.9026105e-06
124	0x33dcf4f2	1.02891036e-07
125	0x33b85d4d	8.585139e-08
126	0x36398a20	2.7647548e-06
127	0x3400f902	1.2011517e-07
