VirtualAquarium/results/VirtualAquariumNew/VirtualAquarium/VirtualAquarium-470354.pt (torch, 555279 bytes, 39 tensors)

network_body._body_endoder.seq_layers.0.weight f4 [128, 42]
0	0xbdb52831	-0.088455565
1	0x3cedd34c	0.029031418
2	0xbca3abf4	-0.019979455
3	0xbde167d9	-0.110061355
4	0x3e0b6cc4	0.1361571
5	0x3bfe7be5	0.007766234
6	0x3cdcdf1d	0.026961857
7	0x3de666c6	0.11250071
8	0x3cee565c	0.029093914
9	0x3dd6fcec	0.1049746
10	0x3e80e82e	0.2517714
11	0x3d2ab7c2	0.04167915
12	0xbe936c6f	-0.28793666
13	0x3e63a6f0	0.2223165
14	0x3d59a245	0.053133268
15	0xbd47d047	-0.048782613
16	0x3d853394	0.06503978
17	0xbe0f4bc4	-0.13993746
18	0x3da043e5	0.0782545
19	0xbe5f4a24	-0.21805626
20	0xbd0b991e	-0.03408157
21	0x3d91005c	0.07080147
22	0x3dae318c	0.08505544
23	0x3d896116	0.06707971
24	0x3c953646	0.018214356
25	0xbdf2cf38	-0.1185593
26	0x3e36d646	0.17855176
27	0xbe46c025	-0.19409235
28	0xbd4b7abf	-0.049677607
29	0x3e2281c7	0.15869819
30	0x3ddae3ab	0.106879555
31	0x3e3decd8	0.1854738
32	0x3dee7020	0.1164248
33	0xbe66ae92	-0.22527531
34	0xbe845da8	-0.25852704
35	0xbe9ef293	-0.31044444
36	0x3e627249	0.22113909
37	0x3df382ab	0.11890157
38	0x3e1a23b1	0.15052678
39	0x3e06d867	0.13168488
40	0x3cdd418c	0.027008794
41	0xbe5446bc	-0.20730108
42	0x3d96a2b4	0.07355252
43	0xbea323d0	-0.3186326
44	0xbd920ddd	-0.071315505
45	0xbe9a8acc	-0.3018402
46	0x3dc52399	0.0962593
47	0xbcd3f3b9	-0.025873052
48	0x3e3d15c8	0.1846534
49	0xbd62fc5f	-0.05541646
50	0x3e1cad28	0.15300429
51	0xbcdc22ff	-0.026872156
52	0x3d1b209e	0.037872903
53	0xbde6c790	-0.11268532
54	0x3e9fe234	0.31227267
55	0x3da4786e	0.08030783
56	0x3dec5480	0.115395546
57	0xbe4a7691	-0.19771792
58	0x3e1350af	0.14386247
59	0xbe15ddba	-0.14635363
60	0xbe5e0cfc	-0.2168464
61	0x3cbbc280	0.022919893
62	0xbe96229c	-0.2932328
63	0x3e56bb41	0.20969869
64	0xbd727623	-0.059194695
65	0xbd842c56	-0.06453769
66	0xbcd63d6b	-0.026152333
67	0x3da0df57	0.07855099
68	0x3e245f66	0.16052017
69	0xbea12088	-0.31470132
70	0xbdc33d95	-0.0953323
71	0x3e2bf340	0.16792011
72	0x3ea46035	0.3210465
73	0xbe519e77	-0.20470606
74	0x3eda9399	0.42690733
75	0x3cfa3eac	0.030547462
76	0x3df7eaff	0.12105369
77	0xbdaa9e4f	-0.08330976
78	0xbef28153	-0.47364292
79	0x3dea9e51	0.11455978
80	0x3e0aca66	0.13553771
81	0x3ce410a7	0.027839972
82	0xbc075888	-0.008260854
83	0x3e2aa09c	0.1666283
84	0xbe01e4c3	-0.12684922
85	0xbbbac982	-0.005700291
86	0xbe9c7363	-0.30556783
87	0xbd9d7df5	-0.0769004
88	0x3e5edacb	0.2176315
89	0x3d7fc352	0.06244213
90	0xbcf6d0a8	-0.030128792
91	0x3f05d6de	0.52280986
92	0x3dfb35d0	0.12266123
93	0x3e6b7da0	0.22997141
94	0xbe2c0ce9	-0.168018
95	0x3e7e3dd4	0.24828273
96	0xbe1f357d	-0.15547748
97	0xbd63099c	-0.055429086
98	0xbe456a8b	-0.19278924
99	0xbe009c91	-0.12559725
100	0x3d9c2c36	0.0762562
101	0x3e8dbd82	0.27683645
102	0xbd8966ea	-0.067090824
103	0xbe771fd2	-0.24133232
104	0xbdcc3965	-0.09971885
105	0x3d3447a7	0.044013645
106	0xbcc1ea98	-0.023671433
107	0x3d9aecf8	0.075647295
108	0xbe6e8d66	-0.23296127
109	0xbca8101c	-0.020515494
110	0x3e81399c	0.25239265
111	0xbd6a60f2	-0.05722136
112	0xbca2846e	-0.019838538
113	0x3d2f8c20	0.042858243
114	0xbe217f09	-0.15771116
115	0xbe327264	-0.17426449
116	0x3dc9007a	0.09814544
117	0x3e0be172	0.1366022
118	0x3de474e1	0.111551054
119	0x3d4184e1	0.047245864
120	0xbeb546f7	-0.35405704
121	0xbde24c5d	-0.110497214
122	0xbd8f4146	-0.06994872
123	0x3e38f70f	0.18062995
124	0x3e3f80ac	0.18701428
125	0x3e76f0ab	0.24115245
126	0xbbeeed09	-0.0072914404
127	0xbdcadbbd	-0.09905193
128	0x3e794c53	0.24345522
129	0xbce96926	-0.028492521
130	0xbe562dca	-0.20915905
131	0xbde36cf6	-0.11104767
132	0xbe05c631	-0.13063885
133	0xbd594bc6	-0.05305078
134	0xbdae2354	-0.08502832
135	0x3d29557e	0.041341297
136	0x3ecc341c	0.39883506
137	0x3dd50baa	0.10402615
138	0x3ec7af82	0.3900109
139	0x3e01cc45	0.12675579
140	0xbd5eaa3b	-0.054361563
141	0x3d04c6be	0.032416098
142	0x3e95a510	0.29227495
143	0xbdba9fc1	-0.09112502
144	0xbe53a2e1	-0.20667602
145	0xbe3ff4b0	-0.18745685
146	0xbdf9a817	-0.12190264
147	0xbe6b3b6b	-0.22971885
148	0xbdf9cc34	-0.12197152
149	0xbe3e5359	-0.18586482
150	0xbeaeff4e	-0.34179157
151	0x3c2f5873	0.01070224
152	0x3e1ca406	0.15296945
153	0x3d5ef105	0.054429073
154	0x3d9a05d7	0.07520645
155	0xbd143e5f	-0.036192294
156	0xbe71c7a1	-0.23611309
157	0x3dd71172	0.10501374
158	0x3e81146b	0.2521089
159	0xbcf72c51	-0.030172499
160	0xbd99219a	-0.07477112
161	0xbdb2395c	-0.08702347
162	0xbeb61ce4	-0.35568917
163	0x3cadebfc	0.02123069
164	0x3ddfa283	0.109196685
165	0xbde2ef40	-0.110807896
166	0x3e145b34	0.14487916
167	0x3ea50d6e	0.3223681
168	0x3e05881f	0.13040207
169	0xbcdb5ae6	-0.026776742
170	0x3c6a827e	0.014313338
171	0x3e53d984	0.20688444
172	0x3d8e43c1	0.06946517
173	0x3e847e28	0.258775
174	0x3d22bad6	0.039728962
175	0x3e762a78	0.24039638
176	0x3d8bf8ad	0.068345405
177	0x3df00ad1	0.11720813
178	0x3c756e1c	0.014979865
179	0x3dc0aff5	0.09408561
180	0xbdd5a661	-0.10432125
181	0x3e71f390	0.23628068
182	0x3e395a7b	0.18100922
183	0xbd7db08a	-0.06193594
184	0xbe1e4c99	-0.15458907
185	0xbd8b2263	-0.06793668
186	0x3dfcc30c	0.1234189
187	0xbdd7ac8c	-0.105309576
188	0xbdffc3ab	-0.124884926
189	0x3e815f80	0.25268173
190	0x3e03e6b4	0.12880975
191	0x3d5af0ba	0.05345223
192	0xbd05988e	-0.03261619
193	0x3d08fd7c	0.033444867
194	0xbe0aec88	-0.13566792
195	0x3d4893da	0.048969127
196	0xbe20ff0e	-0.15722296
197	0xbe7fa51e	-0.24965331
198	0x3ca13d81	0.019682648
199	0x3dcd7eef	0.10033976
200	0x3de80388	0.113287985
201	0xbddde0f6	-0.108339235
202	0xbe3b2201	-0.1827469
203	0xbe74788a	-0.23874107
204	0x3e671f2e	0.22570488
205	0xbd2a58b8	-0.041588515
206	0x3dac02c2	0.083989635
207	0xbe6dba37	-0.23215567
208	0x3dff4e76	0.12466137
209	0xbe1750bb	-0.1477689
210	0x3c8de2b7	0.01732002
211	0x3d5f1607	0.054464366
212	0x3f327b46	0.6971935
213	0xbe8d1142	-0.2755223
214	0xbeffe8c6	-0.4998228
215	0xbe8e04c2	-0.27738005
216	0x3deeb9c6	0.11656527
217	0x3eaff163	0.3436385
218	0xbdf9f7a5	-0.122054376
219	0xbd7b46dd	-0.061346877
220	0x3e0fb0df	0.14032315
221	0xbd7901ef	-0.06079286
222	0x3e82a040	0.25512886
223	0x3e3dc1a0	0.18530893
224	0xbe94815b	-0.2900494
225	0xbc9a3fa1	-0.018829169
226	0xbe808d48	-0.2510779
227	0xbe16f889	-0.14743246
228	0x3e898d7a	0.2686575
229	0xbd9c3a91	-0.07628358
230	0x3e8146f7	0.25249454
231	0xbe3bc55a	-0.18337002
232	0xbdf00a77	-0.11720746
233	0x3dc0fa18	0.094227016
234	0xbdfea6d6	-0.12434165
235	0x3dfe6c0d	0.12422953
236	0xbca8eadf	-0.020619808
237	0xbcaadbd5	-0.020856777
238	0x3edec8a1	0.43512443
239	0x3ea8e519	0.32987288
240	0x3c914280	0.017731905
241	0xbd5ea403	-0.054355633
242	0x3c1e3568	0.009656288
243	0xbd6e5988	-0.058190852
244	0x3e699689	0.22811331
245	0x3d3b46de	0.04572188
246	0xbe986d7a	-0.29771024
247	0xbb8ea38d	-0.004352993
248	0x3e13ecc9	0.14445795
249	0xbcdf66ca	-0.027270693
250	0x3e24ab95	0.16081078
251	0x3d5cbc3c	0.05389045
252	0xbd3a0907	-0.045418765
253	0x3cd3bee6	0.025847863
254	0x3e1e9451	0.15486266
255	0x3cb9709e	0.022636708

network_body._body_endoder.seq_layers.0.bias f4 [128]
0	0x3cb89d99	0.022536086
1	0x3dcd8158	0.10034436
2	0x3b75e76e	0.0037521976
3	0x3ca3c541	0.019991519
4	0xbca061c9	-0.019577878
5	0x3d6dabc8	0.05802515
6	0xbcc6a3a5	-0.024247954
7	0x3c59e7c1	0.013299883
8	0x3d0cabb9	0.034343455
9	0x3d24ceb9	0.04023621
10	0x3cd67067	0.026176644
11	0x3c991724	0.018687792
12	0x3c31bc72	0.0108481515
13	0xbba099a3	-0.0049011274
14	0x3d49a1d2	0.04922659
15	0x3db532c0	0.088475704
16	0x3db04122	0.08606173
17	0xbc09b0e9	-0.008403995
18	0x3b9ef6aa	0.004851182
19	0x3d8c85e0	0.06861472
20	0x3c4ad1d3	0.012379128
21	0xbc43472b	-0.011918823
22	0xbcd4e568	-0.025988296
23	0xbd30c63a	-0.043157794
24	0x3d830b6f	0.06398665
25	0x3dadb873	0.084824465
26	0x3c8ad517	0.016947312
27	0x3c1f9c06	0.009741789
28	0xba9e89fb	-0.0012095565
29	0x3d0d66ea	0.034521975
30	0xbb34d1cc	-0.002759087
31	0x3d6044a5	0.054752965
32	0x3ca31898	0.019909188
33	0xbcd2ecfb	-0.025747767
34	0x3d7ec444	0.062198892
35	0x3c47530f	0.012165799
36	0x3c46e2b9	0.012139016
37	0xbcc2cdd8	-0.023779795
38	0x3d00c346	0.031436227
39	0xbd82eaa3	-0.0639241
40	0xbcfe1a05	-0.031018266
41	0x3c43fa1b	0.011961485
42	0xbd0e8ed6	-0.034804188
43	0xbd9d3d64	-0.07677725
44	0xbd04099e	-0.032235734
45	0xbd5b55a5	-0.053548474
46	0xbd33054d	-0.043706227
47	0xbd40f3de	-0.04710757
48	0x3dcf467b	0.10120865
49	0xbd8a8331	-0.06763304
50	0xbc78ea8a	-0.015192637
51	0xbd4bb466	-0.04973259
52	0x3cdba18e	0.026810434
53	0x3ba3694e	0.0049869185
54	0x3d9a239b	0.075263225
55	0x3b935d24	0.004497187
56	0x3ca369e2	0.01994795
57	0x3c8cf9a2	0.017208878
58	0xbd845546	-0.06461577
59	0x3ca6f320	0.020379603
60	0xbcc58600	-0.024111748
61	0xbcb69dca	-0.022292037
62	0x3bdfd2aa	0.006830533
63	0xbd52b611	-0.051443163
64	0x3d8595b6	0.06522696
65	0x39d45a1c	0.00040502928
66	0xbd45b978	-0.04827258
67	0xbd052eaf	-0.032515224
68	0x3e2914b6	0.16511807
69	0x3de8f65a	0.11375113
70	0xbd24b30c	-0.040209815
71	0x3d049532	0.032368846
72	0x3cb89583	0.02253223
73	0x3cb8c8ac	0.022556625
74	0xbcb6d41b	-0.022317937
75	0xbc14b22a	-0.009075681
76	0xbced1221	-0.028939309
77	0x3d9daa42	0.0769849
78	0x3d223801	0.03960419
79	0x3ae0e994	0.0017159455
80	0xbb5d1892	-0.003373657
81	0xbd10f946	-0.035393976
82	0x3d8d0014	0.068847805
83	0xbba53b9a	-0.0050425055
84	0x3af7b470	0.0018898379
85	0xbc87b54a	-0.016565938
86	0xbccabb9c	-0.024747662
87	0xbcb7ac3b	-0.022420993
88	0x3c884213	0.01663307
89	0x3dc4efa5	0.09616021
90	0x3c44de74	0.012015928
91	0xbd5e1353	-0.054217648
92	0x3d71cb52	0.059031792
93	0x3ca58f3d	0.020209903
94	0xbd26a475	-0.040684182
95	0x3d7681e2	0.06018246
96	0x3c2c5683	0.010518673
97	0xbd9d3112	-0.07675375
98	0x3c36d524	0.011159215
99	0x3d1a48a4	0.03766693
100	0x3d206f1e	0.03916847
101	0x3d833527	0.064066224
102	0xbc8eff5c	-0.01745575
103	0xbcb0c4cf	-0.02157822
104	0xbcebf019	-0.02880101
105	0x3d0004a1	0.031254414
106	0xbc9cb946	-0.019131314
107	0xbd9d65a2	-0.076854005
108	0xbe0a02ae	-0.13477585
109	0xbd80023b	-0.062504254
110	0xbd32be8d	-0.043638755
111	0xbcb1dc5b	-0.021711519
112	0xbc370eba	-0.011172945
113	0x3d02dc40	0.031948328
114	0x3d371c6a	0.044704832
115	0xbb8c8cea	-0.004289259
116	0x3ccd0351	0.025025995
117	0x3ce2eb4e	0.027700093
118	0x3d4f91fa	0.050676323
119	0x3d86588a	0.06559856
120	0x3ba7dda9	0.0051228595
121	0xbd4c2a89	-0.049845252
122	0xbc79eb71	-0.0152538875
123	0xbc5e4962	-0.0135673005
124	0x3b88e2ca	0.004177426
125	0xbc6980b9	-0.014251881
126	0xbd9880cf	-0.07446443
127	0x3d8a04e4	0.06739214

network_body._body_endoder.seq_layers.2.weight f4 [128, 128]
0	0x3dd221ca	0.10260351
1	0x3dc23852	0.094833985
2	0xbd00c9ab	-0.031442326
3	0x3c54da46	0.012991494
4	0xbdaca7c0	-0.08430433
5	0x3e85414e	0.26026386
6	0xbd9e5f92	-0.07733072
7	0x3e251923	0.1612287
8	0x3e06a3f7	0.13148485
9	0xbd3ae624	-0.045629635
10	0xbe20e8b0	-0.15713763
11	0x3dec5683	0.11539938
12	0xbdb8b7ae	-0.09019409
13	0xbd482da0	-0.048871636
14	0x3d6fae32	0.058515735
15	0xbe331667	-0.17489015
16	0x3a82c19a	0.0009975911
17	0xbde9b4cb	-0.11411437
18	0xbd71103d	-0.058853377
19	0xbe45d0b1	-0.1931789
20	0xbcf798bd	-0.030224198
21	0x3da1121a	0.07864781
22	0xbe953533	-0.2914215
23	0x3dbb0133	0.09131088
24	0xbcb4bd34	-0.022062875
25	0x3e77c4c9	0.24196161
26	0x3e8af7ee	0.2714228
27	0xbdfa05cd	-0.12208138
28	0x3dd2469d	0.10267375
29	0x3d4d4242	0.050112016
30	0xbd88be61	-0.06676937
31	0xbc8f62a0	-0.017503083
32	0xbde0793d	-0.10960624
33	0xbe31fd69	-0.17381825
34	0xbdba48b7	-0.090959005
35	0x3dd5dae7	0.10442143
36	0xbd31aa30	-0.043375194
37	0xbdb9f55e	-0.09080003
38	0x3db490cf	0.088166825
39	0xbb3324ba	-0.0027335123
40	0xbdbe6a80	-0.09297657
41	0x3b58ecfb	0.0033100236
42	0xbd56661b	-0.05234347
43	0xbdbaa6ae	-0.09113823
44	0x3e2a343e	0.16621491
45	0x3c5d8657	0.013520799
46	0xbd1299d1	-0.035791222
47	0x3d99abb3	0.07503452
48	0x3dc0cdf0	0.094142795
49	0x3d7151e6	0.058915995
50	0xbe34b116	-0.17645678
51	0x3d60f5b9	0.05492184
52	0xbd0bbb0a	-0.03411392
53	0xbce34434	-0.027742483
54	0xbe14775a	-0.14498654
55	0xbe232568	-0.15932238
56	0xbd8961ce	-0.06708108
57	0x3e00719e	0.12543342
58	0xbd928796	-0.07154767
59	0x3e31ce95	0.17363961
60	0x3e113ef0	0.14184165
61	0x3e00ff43	0.12597375
62	0xbe7c63ef	-0.24647497
63	0x3e6bed56	0.23039755
64	0x3cf4e3d7	0.029893799
65	0x3de4973a	0.11161657
66	0x3e458522	0.19289067
67	0xbae1b0d6	-0.0017218839
68	0xbe8b7aca	-0.27242118
69	0x3c98a62a	0.01863392
70	0x3b3d3408	0.0028870124
71	0xbe432574	-0.19057256
72	0xbe0c5426	-0.13703975
73	0xbe528f4d	-0.20562477
74	0xbcd7c72c	-0.02634009
75	0x3e161272	0.14655474
76	0x3daa858c	0.08326253
77	0x3d05cf66	0.032668494
78	0xbd803d43	-0.06261685
79	0x3e035214	0.12824279
80	0x3e440ba7	0.1914507
81	0xbdd29613	-0.10282531
82	0x3ab52c99	0.0013822495
83	0x3c299294	0.010349888
84	0x3d9660cb	0.073426805
85	0x3e0f2b4a	0.13981357
86	0xbcfd876b	-0.030948361
87	0x3d2ba7aa	0.041907944
88	0x3d9577ff	0.07298278
89	0xbdebac25	-0.11507443
90	0xbe362e63	-0.17791133
91	0xbe2fa48a	-0.1715261
92	0x3e1e8804	0.15481573
93	0xbca53075	-0.020164708
94	0xbe1a36c4	-0.15059954
95	0xbdf7f55c	-0.121073455
96	0xbe3737b2	-0.1789234
97	0xbcac0b39	-0.021001445
98	0x3c5e19a1	0.013555915
99	0xbcc03986	-0.02346493
100	0x3d90a92f	0.07063519
101	0xbd2eae4f	-0.042646702
102	0xbb6b3098	-0.0035887118
103	0xbd2709d6	-0.040780865
104	0x3cef3c5a	0.029203583
105	0x3e322d8a	0.17400184
106	0x3cc7ca36	0.024388414
107	0xbd4bbd56	-0.04974111
108	0x3d81d753	0.06339898
109	0xbce96210	-0.028489143
110	0xbd10e67f	-0.03537607
111	0xbc6efd06	-0.014586693
112	0x3c97afb5	0.0185164
113	0x3ca7f7ef	0.020503966
114	0x3dbc5e0f	0.09197628
115	0x3e31c820	0.17361498
116	0x3c19b021	0.009380371
117	0x3d0ad04d	0.033890057
118	0xbd530251	-0.05151588
119	0xbeb2172a	-0.34783298
120	0x3c8a7658	0.016902134
121	0x3d42f385	0.04759552
122	0x3e3a8aea	0.18217054
123	0xbe7d50fe	-0.24737927
124	0xbd944066	-0.072388455
125	0x3d164759	0.036689136
126	0xbd86315b	-0.065523826
127	0xbd353516	-0.04424008
128	0xbe4a4ccd	-0.1975586
129	0xbdb872d7	-0.09006279
130	0xbe667440	-0.22505283
131	0x3da93b1d	0.08263228
132	0x3cfec4e7	0.03109975
133	0xbda117e0	-0.07865882
134	0xbe0dd4ee	-0.13850757
135	0xbd86779d	-0.06565783
136	0x3dfe63bc	0.124213666
137	0x3d1ba5e0	0.037999988
138	0xbaff1e54	-0.0019463995
139	0x3dbed21b	0.09317418
140	0x3e013651	0.12618376
141	0x3e4a4701	0.19753648
142	0x3e0a4579	0.13503064
143	0xbdf56832	-0.11982764
144	0xbe0ae1ff	-0.13562773
145	0x3dcdbb0a	0.100454405
146	0xbc309cd1	-0.010779575
147	0x3e9a7801	0.3016968
148	0xbcf1b4cf	-0.029505162
149	0x3d7bd490	0.061482012
150	0x3cc2ad96	0.023764413
151	0xbda4a6ac	-0.08039603
152	0xbe1aaf82	-0.15106013
153	0xbe06a486	-0.13148698
154	0xbd7281de	-0.059205882
155	0xbd43dd0f	-0.04781824
156	0xbd97e5a1	-0.07416845
157	0x3ea5ebb7	0.324064
158	0xbe1caa47	-0.1529933
159	0xbdaaff42	-0.08349468
160	0xbc390db9	-0.011294776
161	0xbe8ee967	-0.27912447
162	0xbe5ac626	-0.2136465
163	0x3d645576	0.055745564
164	0xbe2e63fb	-0.17030327
165	0x3e4170cc	0.18890685
166	0xbc2d2bb7	-0.010569504
167	0x3b9d4f6d	0.004800728
168	0xbe67a874	-0.22622854
169	0x3dbd1c2c	0.09233889
170	0x3dcdea34	0.10054436
171	0xbdbef468	-0.093239605
172	0xbe56dbd0	-0.2098229
173	0x3d8959a6	0.06706552
174	0xbc343048	-0.010997839
175	0xbe707122	-0.23480657
176	0xbdd4de12	-0.10393919
177	0x3ccb3e7d	0.02481007
178	0xbcc5afe1	-0.024131717
179	0x3d386bb7	0.0450246
180	0xbcaab0ea	-0.020836312
181	0xbc2b3a4b	-0.01045091
182	0x3db2a534	0.08722916
183	0xbd28672c	-0.041114017
184	0x3d94d520	0.07267213
185	0xbde05e90	-0.10955536
186	0x3daa9301	0.0832882
187	0xbe039b39	-0.12852181
188	0xbd71c67b	-0.059027176
189	0x3d904c1c	0.07045767
190	0xbe1d2cc9	-0.15349115
191	0x3d1d3766	0.03838291
192	0xbb4e67f3	-0.0031495064
193	0xbcf6f2bd	-0.030145044
194	0x3e29ab29	0.16569199
195	0xbcfc66d7	-0.030810757
196	0xbdeca36a	-0.11554606
197	0xbe057cb6	-0.13035855
198	0xbce66146	-0.028122555
199	0xbe15dac7	-0.14634238
200	0xbdce2846	-0.10066275
201	0xbd25ffcd	-0.040527154
202	0xbe852311	-0.26003316
203	0x3e017717	0.12643085
204	0x3d84bf2c	0.06481776
205	0xbdb8e5e5	-0.09028224
206	0xbdae2b74	-0.08504382
207	0x3db855fc	0.09000775
208	0xbd885a38	-0.06657833
209	0x3ddabac2	0.106801525
210	0xbe1f7516	-0.15572008
211	0x3d170e2c	0.03687875
212	0xbe245222	-0.16046956
213	0x3ca8f3fe	0.020624157
214	0xbc07eb6c	-0.008295875
215	0xbe12e8eb	-0.14346664
216	0xbd880286	-0.06641106
217	0xbc59c220	-0.013290912
218	0xbd5cb678	-0.053884953
219	0xbd0507e0	-0.032478213
220	0x3e20ecec	0.15715379
221	0x3cebcd57	0.028784437
222	0xbdc6385a	-0.09678717
223	0xbe6ff55d	-0.23433442
224	0x3e0d68b4	0.13809472
225	0xbdf7c129	-0.12097389
226	0x3d8c60e3	0.06854417
227	0xbc6899ee	-0.014196856
228	0xbda3caea	-0.07997687
229	0x3e136742	0.14394858
230	0x3d226c45	0.039654035
231	0xbe222e9c	-0.15838093
232	0xbd212361	-0.03934038
233	0x3d977cb5	0.07396833
234	0x3d600ab5	0.05469771
235	0x3e139ee4	0.1441608
236	0x3d07eacd	0.033182908
237	0x3cdc144b	0.026865145
238	0x3e1e3150	0.15448499
239	0xbb3d3cb0	-0.0028875284
240	0x3e27d6bd	0.1639051
241	0xbcb129ad	-0.021626318
242	0x3aac51c1	0.0013146923
243	0x3dadd68a	0.08488186
244	0xbe3476b2	-0.17623404
245	0xbe087657	-0.13326393
246	0x3d0a1c62	0.033718474
247	0x3e5efdcd	0.21776505
248	0xbe74e372	-0.23914889
249	0xbd85cc9d	-0.065331675
250	0x3ded5aa3	0.11589553
251	0x3c19bfd5	0.009384115
252	0x3e53194d	0.2061512
253	0xbce7c82f	-0.028293697
254	0x3e1cbf5c	0.15307373
255	0x3da5cd3f	0.08095788

network_body._body_endoder.seq_layers.2.bias f4 [128]
0	0x3cfbdcb8	0.030744895
1	0xbe01b8dd	-0.12668176
2	0xbd1d8eca	-0.038466252
3	0xbd1a5caa	-0.037686028
4	0x3d8e0c98	0.06935996
5	0xbdfbd68a	-0.122967795
6	0x3bdf471d	0.0068138973
7	0x3ccb9c20	0.02485472
8	0xbe0b18b1	-0.13583638
9	0x3dacd7de	0.08439611
10	0xbdb7e9d7	-0.08980148
11	0xbd4de53c	-0.050267443
12	0x3d500e2b	0.05079476
13	0xb9d03254	-0.0003971035
14	0x3d9d4464	0.0767906
15	0xbdb1b3dd	-0.08676884
16	0x3da4edb8	0.08053154
17	0x3d2b2657	0.04178461
18	0x3d6cbc2d	0.057796646
19	0xbd0d55bf	-0.034505602
20	0x3d12db97	0.03585395
21	0x3d38e6ea	0.04514209
22	0x3d396438	0.04526159
23	0xbd8af721	-0.06785417
24	0xbda5bd50	-0.08092749
25	0x3dbddb56	0.09270351
26	0x3c442622	0.011971982
27	0xbde300aa	-0.11084111
28	0xbd06f332	-0.032946773
29	0xbdad3e3d	-0.08459137
30	0xbddddc24	-0.10833004
31	0xbde37f3a	-0.11108251
32	0xbdd27f90	-0.10278237
33	0xbdf1bf1b	-0.118040286
34	0x3d02f933	0.031975936
35	0xbd9f7459	-0.077858634
36	0xbd431ff9	-0.047637913
37	0xbe136801	-0.14395143
38	0xbd52037b	-0.05127285
39	0xbc411ab2	-0.01178615
40	0xbd98681e	-0.07441734
41	0x3d137f97	0.03601035
42	0xbda957fb	-0.08268734
43	0xbda8b6fc	-0.082380265
44	0xbe0302b4	-0.12794
45	0xbd24bc7f	-0.040218826
46	0xbcbc8964	-0.023014732
47	0x3c28a914	0.010294218
48	0xbe107894	-0.14108497
49	0xbdd891c1	-0.10574675
50	0x3cfd550d	0.030924344
51	0xbd5f5911	-0.0545283
52	0xbdae1cff	-0.08501624
53	0xbe356f62	-0.1771827
54	0x3d51788c	0.051140353
55	0xbdcce09c	-0.10003778
56	0xbdac0313	-0.08399024
57	0x3d32b568	0.043630034
58	0xbdfc5ce0	-0.12322402
59	0x3d9f3d31	0.07775343
60	0xbd625644	-0.05525805
61	0xbe13d2ee	-0.14435932
62	0x3d81e033	0.06341591
63	0x3cca299c	0.024678044
64	0x3db3fcf7	0.087884836
65	0xbdb2af90	-0.08724892
66	0x3d9db88c	0.07701215
67	0x3c8cec8a	0.017202634
68	0xbdab0e0c	-0.083522886
69	0xbdd10c39	-0.102074094
70	0x3d89ef26	0.06735067
71	0x3d6acd1d	0.057324518
72	0xbd0a43bb	-0.033756
73	0xbdc8700f	-0.097869985
74	0xbe1c6b86	-0.15275392
75	0x3db2d950	0.08732855
76	0x3d446a17	0.047952738
77	0xbdf5dcb4	-0.120049864
78	0xbd68aeee	-0.05680745
79	0x3d1ada9e	0.037806146
80	0xbd40a10f	-0.047028597
81	0x3d2c097e	0.04200124
82	0xbdf62804	-0.12019351
83	0x3d114219	0.035463426
84	0xbdeb7e61	-0.11498714
85	0xbc6daa3e	-0.014505921
86	0x3d52563b	0.051351767
87	0xbe1c2a7d	-0.15250583
88	0x3d5c2624	0.05374731
89	0xbe07938d	-0.1323988
90	0x3dbc6250	0.09198439
91	0xbe0db2fd	-0.1383781
92	0xbdad15cc	-0.08451423
93	0xbe0d1164	-0.13776165
94	0xbc0af40b	-0.008481036
95	0x3d11e8cc	0.035622403
96	0x3c25045a	0.010071838
97	0x3d0fb145	0.035081167
98	0x3d6ceb15	0.05784138
99	0xbdc66385	-0.096869506
100	0xbcbe949c	-0.023264222
101	0xbd7e4666	-0.062078856
102	0xbdf2c2ce	-0.11853562
103	0xbd9b94ab	-0.075967155
104	0xbda4fa5f	-0.08055567
105	0x3ad2d122	0.0016084055
106	0xbddc84a5	-0.107674874
107	0xbd4371b7	-0.04771587
108	0xbdb66b93	-0.08907237
109	0x3ced68bb	0.028980603
110	0x3d86db39	0.06584782
111	0x3d10118c	0.035172984
112	0xbdabad65	-0.08382682
113	0x3cecbe51	0.028899344
114	0xbd524562	-0.0513357
115	0xbd9c0689	-0.07618434
116	0xbe0f72fc	-0.14008707
117	0x3d1da363	0.038485896
118	0x3d222553	0.039586376
119	0xbdd4f57f	-0.10398387
120	0xbbf49551	-0.007464089
121	0xbde30c92	-0.11086382
122	0x3d264d29	0.04060093
123	0xbe0fbbbe	-0.14036462
124	0xbd733160	-0.05937326
125	0xbdc52952	-0.09627022
126	0xbc8de9ac	-0.017323337
127	0xbdf19ff6	-0.11798088

action_model._continuous_distribution.log_sigma f4 [1, 3]
0	0xbeabe9b8	-0.3357675
1	0xbf10fdca	-0.5663725
2	0xbecafd6e	-0.39646477

action_model._continuous_distribution.mu.weight f4 [3, 128]
0	0xbe1344cf	-0.14381717
1	0x3aec8d50	0.0018047486
2	0xbdbafcee	-0.09130274
3	0x3e381991	0.17978503
4	0x3d63c6b0	0.055609405
5	0x3d84a2a6	0.06476335
6	0xbe13b10e	-0.1442301
7	0xbd96a40b	-0.073555075
8	0xbc876691	-0.0165284
9	0x3e120ef5	0.14263518
10	0x3ddd246d	0.10797963
11	0x3d5bdcfa	0.053677537
12	0xbe3cff9c	-0.18456882
13	0xbdc91226	-0.09817915
14	0xbd7a75b7	-0.061147418
15	0x3d0341d9	0.03204522
16	0xbdfdfaca	-0.1240135
17	0x3e032b6f	0.12809537
18	0xbe1549c3	-0.14578919
19	0x3de96c32	0.1139759
20	0x3dd2170a	0.102583006
21	0xbdc1f245	-0.09470037
22	0x3b943da5	0.00452395
23	0x3daf6f6d	0.08566175
24	0x3d2ed990	0.042687953
25	0xbe64741c	-0.22309917
26	0xbda87489	-0.08225352
27	0x3d6ced44	0.05784346
28	0x3d6255e4	0.055257693
29	0xbd22fac4	-0.03978993
30	0xbd709409	-0.058734927
31	0x3d9dd709	0.0770703
32	0xbce12298	-0.027482316
33	0x3dbde708	0.09272581
34	0xbe19c3a3	-0.15016036
35	0x3db07e3f	0.086178295
36	0x3df26535	0.1183571
37	0x3c9e0adf	0.019292293
38	0xbd6028e2	-0.05472649
39	0x3dfab104	0.12240794
40	0x3e465666	0.19368896
41	0x3da490cb	0.080354296
42	0x3d59e0e4	0.053192988
43	0x3d7f7301	0.062365536
44	0x3ce1b59c	0.027552418
45	0x3d5db3b5	0.05412646
46	0x3dddac66	0.10823898
47	0xbe097582	-0.13423732
48	0x3d862840	0.06550646
49	0x3db6e602	0.08930589
50	0xbe2612a7	-0.16218053
51	0x3d8884ff	0.06665992
52	0xbd043160	-0.03227365
53	0x3d232731	0.039832298
54	0xbe22e430	-0.15907359
55	0x3b60b646	0.003428833
56	0x3c641709	0.013921508
57	0xbe213eb8	-0.15746582
58	0x3d166e11	0.03672606
59	0xbdc59ed7	-0.09649437
60	0xbbe18f7f	-0.006883561
61	0x3d47d836	0.04879018
62	0x3d9ab74a	0.07554491
63	0xbe01e793	-0.12685995
64	0xbe3a5c44	-0.18199259
65	0x3dbbe579	0.09174628
66	0xbd1e2e61	-0.03861845
67	0xbdf02fe5	-0.11727885
68	0x3db24984	0.08705428
69	0x3daee8f4	0.08540526
70	0x3c9c5f84	0.019088514
71	0xbdcbb8a2	-0.09947325
72	0x3e1e7194	0.15473014
73	0x3b644307	0.003482999
74	0x3c13c73b	0.009019668
75	0xbd54f37c	-0.051990017
76	0xbd64bcf8	-0.055844277
77	0xbc394afc	-0.011309382
78	0xbcea8659	-0.028628515
79	0xbe1de20d	-0.15418263
80	0xbdcf3e36	-0.10119288
81	0x3d4b406e	0.04962199
82	0x3d9d7227	0.076877885
83	0x3e04d359	0.12971248
84	0x3d6cf3a7	0.057849552
85	0x3e1cb4d5	0.15303357
86	0xbdfd9d56	-0.12383525
87	0x3d5b14f1	0.05348677
88	0xbe235571	-0.15950562
89	0x3d9acbdf	0.075584166
90	0x3e08b13b	0.13348858
91	0x3d8d015c	0.06885025
92	0x3d6dc7f7	0.05805203
93	0xbca6ea4e	-0.020375397
94	0xbdf34b64	-0.11879614
95	0xbd9adcc8	-0.07561642
96	0xbdd08eee	-0.10183512
97	0xbd63c06b	-0.055603426
98	0xbe495315	-0.196606
99	0x3d6d103e	0.057876818
100	0xbd68ff9a	-0.056884386
101	0xbd7d237c	-0.06180142
102	0x3d63ecce	0.055645756
103	0xbcfb90f5	-0.03070877
104	0x3d08054c	0.033208176
105	0xbde7d447	-0.113197856
106	0x3b27a995	0.0025583257
107	0x3dc6aaf9	0.09700579
108	0x3c4f7bce	0.012663795
109	0x3dfabf6c	0.12243542
110	0xbdd94b95	-0.10610119
111	0xbe00c70a	-0.12575927
112	0x3de78770	0.113051295
113	0x3df4a3c5	0.11945299
114	0xbdac2d39	-0.08407063
115	0x3daa7b04	0.083242446
116	0x3d7ac187	0.06121972
117	0xbe0ac81d	-0.135529
118	0xbda99622	-0.08280589
119	0xbcaa95f4	-0.020823456
120	0x3d87f736	0.066389486
121	0x3d508504	0.050908104
122	0xbe2d70fc	-0.16937631
123	0x3d237440	0.039905787
124	0x3d913197	0.07089537
125	0x3cd9d8ad	0.026592577
126	0x3da4cbed	0.08046708
127	0x3d8ec1ba	0.06970544
128	0xbcd5219c	-0.026017003
129	0x3d2d4e52	0.04231102
130	0x3c9cfeee	0.019164529
131	0x3da028f1	0.07820309
132	0xbde2f097	-0.11081045
133	0x3d747261	0.059679393
134	0x3b306b3d	0.0026919388
135	0x3da70687	0.08155542
136	0xbc81be75	-0.015837887
137	0xbdbe0fad	-0.09280334
138	0x3ce98718	0.0285068
139	0x3dcbca67	0.099507146
140	0xbd5e49da	-0.05426965
141	0xbd41b4f7	-0.047291722
142	0x3e428d3f	0.18999194
143	0x3d30fb7d	0.043208588
144	0x3e1b6f1d	0.15179105
145	0xbda13e36	-0.07873194
146	0xbb4b4827	-0.0031018348
147	0x3d54aaab	0.051920574
148	0x3b426833	0.0029664158
149	0x3da7cacb	0.081929766
150	0x3e1caf7c	0.15301317
151	0x3cf7c3aa	0.030244667
152	0x3dbf9a71	0.09355629
153	0x3cb295e2	0.021799985
154	0x3c87c3ad	0.016572798
155	0xbb6ec754	-0.0036434727
156	0x3c9d3cc3	0.019194013
157	0x3ccbc53b	0.02487432
158	0x3d5164f8	0.051121682
159	0x3b9285c8	0.0044715144
160	0xbd09606f	-0.033539232
161	0x3cf06268	0.029343799
162	0x3cea8dac	0.028632008
163	0x3d866dc4	0.06563905
164	0x3e1abbc6	0.15110692
165	0x3c95c417	0.01828198
166	0xbc84b63b	-0.016200176
167	0x3e3f4bb5	0.18681224
168	0x3d4d69b0	0.05014962
169	0xbc0a5921	-0.008444102
170	0x3dbdab44	0.09261182
171	0x3c889cb1	0.016676279
172	0x3d3640ca	0.04449538
173	0xbc024743	-0.00795156
174	0x3b5451d0	0.0032397397
175	0xbbc075ed	-0.005873433
176	0x3d30f157	0.04319891
177	0x3ce0293b	0.02736341
178	0xbb602625	-0.0034202423
179	0x3b036e2c	0.0020054681
180	0x3cba64c6	0.02275313
181	0x3d462e88	0.04838422
182	0x3d0f0ddf	0.034925338
183	0x3d1e42bb	0.038637858
184	0x3cd28452	0.02569786
185	0xbd1745c9	-0.036931787
186	0x3d90fdba	0.070796445
187	0x3e4beab9	0.19913758
188	0x3dd97a88	0.10619074
189	0x3c6fbddd	0.014632669
190	0xbdc39981	-0.09550763
191	0x39e1ef39	0.0004309358
192	0x3d92404a	0.071411684
193	0x3d8230ff	0.063570015
194	0x3e21d876	0.1580523
195	0xbd7c95f5	-0.061666448
196	0x3c3c65bb	0.011498864
197	0x3d1118c6	0.035424016
198	0x3d126615	0.035741884
199	0xbc89897c	-0.01678919
200	0x3dbea523	0.09308841
201	0x3d5421cf	0.051790055
202	0xbbae396d	-0.0053169043
203	0x3e0dd2e4	0.1384998
204	0x3dfd9879	0.123825975
205	0x3d57c3cc	0.05267696
206	0x3df7b25e	0.12094568
207	0x3d3a32ba	0.045458533
208	0xb9203fa1	-0.00015282493
209	0xbd04ff87	-0.032470252
210	0x3d1a1dec	0.037626192
211	0xbb91da37	-0.004451062
212	0xb9e47165	-0.00043572034
213	0x3dd5bef0	0.10436809
214	0xbdd2ca18	-0.102924526
215	0x3cb5c4f5	0.022188643
216	0x3ddee433	0.10883369
217	0x3d0bbb28	0.034114033
218	0xbd9dfb6b	-0.0771397
219	0x3dab32e7	0.08359318
220	0xbccc4304	-0.0249343
221	0x3d86f827	0.065903
222	0x3ce098ca	0.027416606
223	0x3deb44be	0.11487721
224	0x3da9e41f	0.08295464
225	0x3e1643de	0.14674327
226	0xbbe7fa36	-0.007079388
227	0x3b9c837e	0.0047764173
228	0xbc218fbd	-0.00986093
229	0x3daf4cd3	0.08559575
230	0x3b939775	0.004504139
231	0x3c960153	0.018311178
232	0x3dc27f9f	0.09496998
233	0xbb622bcf	-0.0034510975
234	0x3da492fc	0.080358475
235	0x3dc7ece4	0.0976198
236	0xbca510f5	-0.020149687
237	0xbcdfa928	-0.02730234
238	0x3e395943	0.18100457
239	0xbd755333	-0.059893798
240	0x3da03bd1	0.07823909
241	0xbb194934	-0.002338958
242	0x3c520feb	0.012821178
243	0x3d3f23ad	0.046664882
244	0x3dca5022	0.09878565
245	0x3db6475c	0.089003295
246	0x3d7bb36f	0.061450418
247	0x3c31c933	0.010851192
248	0x3cd8eab7	0.026479108
249	0x3cb1785e	0.02166384
250	0x3ce1a831	0.02754602
251	0x3d6d45c3	0.057927858
252	0x3dc513e5	0.09622935
253	0x3d46d047	0.048538473
254	0xbc8860c7	-0.01664771
255	0x3d2cba42	0.042169817

action_model._continuous_distribution.mu.bias f4 [3]
0	0xbd3af221	-0.04564107
1	0xbcd0a637	-0.025469882
2	0x3d960ddf	0.073268645

action_model._discrete_distribution.branches.0.weight f4 [1, 128]
0	0x3bf1e842	0.0073824236
1	0x385d4d93	5.2762753e-05
2	0xbc0a8e1b	-0.008456732
3	0xbbf5972a	-0.007494827
4	0xbbbbc704	-0.0057305116
5	0xbc6f3573	-0.014600146
6	0x3c678fa5	0.014133369
7	0xbbd08a33	-0.006364131
8	0xbb5fd337	-0.0034152993
9	0xbaadf8d9	-0.0013273015
10	0x3b9c7d2e	0.004775665
11	0xbbd46e12	-0.006482848
12	0xbbd870c7	-0.006605241
13	0xbc829bf3	-0.015943503
14	0xbc4cf757	-0.012510142
15	0x3b596af5	0.0033175324
16	0x3c841c23	0.016126698
17	0x3942824e	0.00018549824
18	0x3c525872	0.01283847
19	0x3c179a0e	0.009253038
20	0x3b433855	0.0029788215
21	0x3b9e1c97	0.0048251855
22	0x3bc161bc	0.0059015434
23	0xbbbef601	-0.005827666
24	0xbc1369ab	-0.008997361
25	0x3c9ae85f	0.018909631
26	0xbbcb5050	-0.0062046424
27	0x3a273f95	0.0006380019
28	0x3b0fa1d1	0.0021916518
29	0xbbe4804b	-0.0069733015
30	0xbbe8f4cb	-0.0071092597
31	0x3c98e0ad	0.018661821
32	0xbac833d9	-0.0015274241
33	0x3b5cb81f	0.003367908
34	0x3bb4ea4b	0.005521094
35	0xbc1942ab	-0.009354274
36	0x3c68c2a2	0.01420656
37	0x3aacb091	0.001317518
38	0x3c0567aa	0.008142391
39	0x3a24c939	0.0006286088
40	0x3b31472b	0.0027050476
41	0xbc23f968	-0.010008194
42	0x3c340a49	0.01098878
43	0x3b711a88	0.0036789495
44	0x3bccec22	0.006253735
45	0xbc785db2	-0.015159057
46	0xb997e101	-0.00028968605
47	0xbb3f1680	-0.0029157698
48	0x3c59fc4b	0.01330478
49	0xbc3615af	-0.011113568
50	0x3ba548c9	0.005044077
51	0x3a84401b	0.0010089906
52	0xb9f5e75d	-0.0004690242
53	0x3c245faf	0.010032578
54	0xbc63053b	-0.0138562275
55	0x3bee5998	0.007273864
56	0xbc0d77d8	-0.00863453
57	0xbb412598	-0.002947187
58	0xbbc3ed6c	-0.0059792306
59	0x3b876cb8	0.0041328333
60	0xbb9c6133	-0.0047723292
61	0xbc0bcdc5	-0.008532946
62	0x39e25dbf	0.00043175925
63	0x3be7a23f	0.007068902
64	0xbb5c58ad	-0.003362219
65	0x3c199ae1	0.009375305
66	0x3c5eb23f	0.013592302
67	0x3c556217	0.013023875
68	0x3b7e8205	0.0038834822
69	0xbb9d0c89	-0.004792754
70	0xbb8c5647	-0.004282746
71	0x3c0c9415	0.008580227
72	0x3bdaa42b	0.0066724024
73	0xbbdb05da	-0.006684047
74	0xbbaed767	-0.0053357366
75	0x3a31e68a	0.0006786367
76	0x3c23f61c	0.0100074075
77	0xbc6da49b	-0.014504577
78	0x3b967fdd	0.004592879
79	0xbb842d6d	-0.0040337355
80	0xbb42745e	-0.002967141
81	0xbb9014fa	-0.004397032
82	0xba227e14	-0.00061985967
83	0xbb891033	-0.0041828393
84	0x3b456a45	0.0030123156
85	0x3b2d73c3	0.0026466704
86	0xbb3043a7	-0.0026895793
87	0xbbb2c997	-0.0054561603
88	0xbb583915	-0.0032993008
89	0xbbc1bd4b	-0.005912458
90	0x3c1facfa	0.009745831
91	0xbb73b492	-0.0037186486
92	0x3b0bd937	0.0021339187
93	0x3c9a6f03	0.018851763
94	0xbc5c993f	-0.013464271
95	0x3b2fcc75	0.0026824747
96	0x3c33e42c	0.010979693
97	0xbc457b80	-0.0120533705
98	0xbbf8c4bb	-0.0075918115
99	0x3b7adcdd	0.0038278617
100	0x396c90c3	0.00022560642
101	0xbbd2fd6b	-0.006438901
102	0xbc66f7cb	-0.014097164
103	0xbba77f63	-0.005111621
104	0xbc123f04	-0.008926157
105	0x3c9c4c59	0.019079374
106	0xba60f6da	-0.00085817056
107	0xba8ac0df	-0.0010586045
108	0x3bd25015	0.006418238
109	0x3c30181f	0.010747938
110	0xbc2e411d	-0.010635641
111	0xbca67f9f	-0.020324526
112	0x3a91de4f	0.0011128875
113	0x3b8fda1a	0.0043900134
114	0xbc020009	-0.007934579
115	0xbc4e9353	-0.012608367
116	0xbb7f4048	-0.0038948227
117	0x3c52b342	0.012860121
118	0xbc16ba82	-0.00919974
119	0x3c0b6a3c	0.008509215
120	0x3b9531f3	0.0045530736
121	0xbc74b013	-0.0149345575
122	0x3ba73f55	0.0051039853
123	0x3c406128	0.011741914
124	0xbbeb9063	-0.007188843
125	0xbbcdc0ef	-0.006279103
126	0xbc0a71ba	-0.008449966
127	0xbb83f91c	-0.004027499

exp_avg f4 [128, 42]
0	0x00000000	0.0
1	0x00000000	0.0
2	0xb87988cb	-5.9493625e-05
3	0xbb22ce7c	-0.0024842313
4	0xbb22d901	-0.0024848583
5	0x00000000	0.0
6	0x00000000	0.0
7	0xb8ac567a	-8.2177066e-05
8	0xbb22ce92	-0.0024842364
9	0xbb230c46	-0.0024879142
10	0x00000000	0.0
11	0x00000000	0.0
12	0x37c4feb0	2.3483619e-05
13	0xbb2d36c9	-0.002643036
14	0xbb2d408b	-0.0026436176
15	0x00000000	0.0
16	0x00000000	0.0
17	0x37858fc2	1.5921778e-05
18	0xbb22bef4	-0.0024833055
19	0xbb231318	-0.0024883207
20	0x00000000	0.0
21	0x00000000	0.0
22	0xb9e3d5db	-0.0004345615
23	0xbb0f23e7	-0.0021841468
24	0xbb0f5e7d	-0.0021876388
25	0x00000000	0.0
26	0x00000000	0.0
27	0xba684c55	-0.0008861472
28	0xbacf6327	-0.0015822396
29	0xbad221aa	-0.0016031761
30	0x00000000	0.0
31	0x00000000	0.0
32	0xba176920	-0.0005775858
33	0xbb068fb2	-0.0020532426
34	0xbb072cc6	-0.0020626052
35	0x3981ff85	0.00024795174
36	0xba45ad21	-0.0007540752
37	0xbb11446c	-0.0022166027
38	0xb8a75506	-7.9790174e-05
39	0xbb2c69ed	-0.0026308254
40	0x00000004	6e-45
41	0x00000000	0.0
42	0x00000000	0.0
43	0x00000000	0.0
44	0x3a4000ad	0.00073243194
45	0x3b253269	0.0025207049
46	0x3b264dac	0.0025375886
47	0x00000000	0.0
48	0x00000000	0.0
49	0x3a3e946a	0.000727004
50	0x3b253290	0.002520714
51	0x3b252bb0	0.0025203042
52	0x00000000	0.0
53	0x00000000	0.0
54	0x3aa313fe	0.0012441871
55	0x3af43f68	0.0018634619
56	0x3af658a3	0.0018794726
57	0x00000000	0.0
58	0x00000000	0.0
59	0x3a86c55d	0.0010282208
60	0x3b22e3b1	0.0024854953
61	0x3b229ccb	0.0024812694
62	0x00000000	0.0
63	0x00000000	0.0
64	0x3afbf840	0.0019223765
65	0x3a9b51b7	0.0011849914
66	0x3a9e905c	0.0012097466
67	0x00000000	0.0
68	0x00000000	0.0
69	0x3b45b549	0.0030167869
70	0x3a016cbe	0.00049371633
71	0x3a07daba	0.0005182434
72	0x00000000	0.0
73	0x00000000	0.0
74	0x3a020f0e	0.000496135
75	0x3b295c13	0.0025842234
76	0x3b29a1f4	0.0025883885
77	0x3b5e54ae	0.0033924985
78	0x3a39bc53	0.00070852524
79	0x3b462c9a	0.0030238987
80	0xb80ec40f	-3.4038032e-05
81	0x3b49dab1	0.0030800516
82	0x80000004	-6e-45
83	0x00000000	0.0
84	0x00000000	0.0
85	0x00000000	0.0
86	0x3b3fa060	0.0029239878
87	0x3b099df9	0.00209987
88	0x3b0d5fbf	0.0021571962
89	0x00000000	0.0
90	0x00000000	0.0
91	0x3b50dd3f	0.0031870154
92	0x3b099e16	0.0020998768
93	0x3b0beea7	0.0021351965
94	0x00000000	0.0
95	0x00000000	0.0
96	0x3b24bc36	0.0025136597
97	0x3b3b3c12	0.002856974
98	0x3b3dad82	0.002894253
99	0x00000000	0.0
100	0x00000000	0.0
101	0x3b50c465	0.0031855342
102	0x3b06a1ce	0.002054322
103	0x3b08cf32	0.002087545
104	0x00000000	0.0
105	0x00000000	0.0
106	0x3b7e7afb	0.0038830626
107	0x3ac27d3c	0.0014838348
108	0x3acc2647	0.0015575372
109	0x00000000	0.0
110	0x00000000	0.0
111	0x3bb7b347	0.0056060883
112	0xb9bfa18f	-0.0003655073
113	0xb998a9cc	-0.00029118208
114	0x00000000	0.0
115	0x00000000	0.0
116	0x3a396938	0.0007072869
117	0x3b9e507e	0.0048313728
118	0x3b9ea12c	0.0048409905
119	0x3b3ff90e	0.0029292735
120	0xbab90d71	-0.0014118386
121	0x3aa084c3	0.0012246597
122	0x396286ad	0.0002160321
123	0x3bb57807	0.00553799
124	0x00000004	6e-45
125	0x00000000	0.0
126	0x00000000	0.0
127	0x00000000	0.0
128	0x3a80638d	0.0009795293
129	0xba059bce	-0.0005096764
130	0xb9fe5b58	-0.00048514712
131	0x00000000	0.0
132	0x00000000	0.0
133	0x3a9ec0ab	0.0012111863
134	0xba059b27	-0.0005096667
135	0xba01c904	-0.0004950913
136	0x00000000	0.0
137	0x00000000	0.0
138	0x3a80f888	0.0009839693
139	0xb98816f2	-0.00025957037
140	0xb97f8eb4	-0.00024371856
141	0x00000000	0.0
142	0x00000000	0.0
143	0x3a94492a	0.0011313308
144	0xba04fe57	-0.00050733
145	0xba015172	-0.0004933096
146	0x00000000	0.0
147	0x00000000	0.0
148	0x3a2dae40	0.00066253915
149	0x3873e51c	5.814909e-05
150	0x38ac2cab	8.209919e-05
151	0x00000000	0.0
152	0x00000000	0.0
153	0x3a60b4d1	0.00085718656
154	0xb9710716	-0.00022986191
155	0xb9634e3d	-0.00021677553
156	0x00000000	0.0
157	0x00000000	0.0
158	0xb94df1f3	-0.00019640457
159	0x3a84a9fb	0.0010121459
160	0x3a850d03	0.0010150973
161	0x399a71cd	0.00029457957
162	0xba742900	-0.0009313971
163	0xba798816	-0.00095188746
164	0x38936da1	7.029926e-05
165	0x3a55d80a	0.00081574975
166	0x80000004	-6e-45
167	0x00000000	0.0
168	0x00000000	0.0
169	0x00000000	0.0
170	0xba0b50e9	-0.0005314486
171	0xbbc1fa4c	-0.0059197303
172	0xbbc2a3ec	-0.005939951
173	0x00000000	0.0
174	0x00000000	0.0
175	0xba38b137	-0.000704545
176	0xbbc1fa5e	-0.0059197387
177	0xbbc21207	-0.005922559
178	0x00000000	0.0
179	0x00000000	0.0
180	0xba38b21f	-0.0007045585
181	0xbbbf25aa	-0.0058333473
182	0xbbbf9564	-0.005846666
183	0x00000000	0.0
184	0x00000000	0.0
185	0xba684496	-0.0008860318
186	0xbbc0b8cc	-0.0058814045
187	0xbbc0bebc	-0.0058821123
188	0x00000000	0.0
189	0x00000000	0.0
190	0xbace3e02	-0.0015735033
191	0xbba29299	-0.0049613235
192	0xbba351bb	-0.0049841083
193	0x00000000	0.0
194	0x00000000	0.0
195	0xbb5721eb	-0.0032826613
196	0xbb64583a	-0.0034842626
197	0xbb66c4e2	-0.0035212566
198	0x00000000	0.0
199	0x00000000	0.0
200	0xb9ee9837	-0.00045508306
201	0xbbc7e4d6	-0.0061002774
202	0xbbc82e09	-0.0061090034
203	0xbaf79f6f	-0.0018892119
204	0xba8f1c59	-0.0010918482
205	0xbb98a5e9	-0.00465845
206	0xb86535b2	-5.4647862e-05
207	0xbbd6cf71	-0.0065554907
208	0x00000004	6e-45
209	0x00000000	0.0
210	0x00000000	0.0
211	0x00000000	0.0
212	0x3b64db4b	0.0034920748
213	0x3bcd0025	0.0062561207
214	0x3bd0040c	0.0063481387
215	0x00000000	0.0
216	0x00000000	0.0
217	0x3b86e785	0.0041169547
218	0x3bcd0076	0.0062561585
219	0x3bce01ab	0.00628682
220	0x00000000	0.0
221	0x00000000	0.0
222	0x3bbd88a8	0.005784113
223	0x3b8b288a	0.004246776
224	0x3b8de304	0.004330041
225	0x00000000	0.0
226	0x00000000	0.0
227	0x3b94b0b7	0.0045376676
228	0x3bccdcf1	0.006251924
229	0x3bcd8025	0.0062713795
230	0x00000000	0.0
231	0x00000000	0.0
232	0x3b8a962c	0.0042293277
233	0x3bbdeedc	0.0057962965
234	0x3bc105d3	0.005890587
235	0x00000000	0.0
236	0x00000000	0.0
237	0x3b9f9c05	0.004870894
238	0x3bc1de1f	0.0059163715
239	0x3bc346ca	0.0059593664
240	0x00000000	0.0
241	0x00000000	0.0
242	0xba221830	-0.0006183414
243	0x3c3021ea	0.010750273
244	0x3c300100	0.010742426
245	0x3bac91d8	0.0052664094
246	0xba2af356	-0.0006521245
247	0x3b842d18	0.004033696
248	0xb880ac4c	-6.1356084e-05
249	0x3c260130	0.010132119
250	0x80000004	-6e-45
251	0x00000000	0.0
252	0x00000000	0.0
253	0x00000000	0.0
254	0xb9af3772	-0.0003341991
255	0xbb9a8982	-0.0047160992

exp_avg_sq f4 [128, 42]
0	0x00000000	0.0
1	0x00000000	0.0
2	0x36d9bf2b	6.489359e-06
3	0x397c0a9c	0.00024036545
4	0x397c1822	0.00024041583
5	0x00000000	0.0
6	0x00000000	0.0
7	0x36c26099	5.792896e-06
8	0x397e82f6	0.00024272114
9	0x397e8d52	0.00024275974
10	0x00000000	0.0
11	0x00000000	0.0
12	0x3714653a	8.845056e-06
13	0x397c0c77	0.00024037236
14	0x397c0b66	0.00024036839
15	0x00000000	0.0
16	0x00000000	0.0
17	0x36f4374d	7.2782045e-06
18	0x397cc8fb	0.00024107464
19	0x397cd387	0.00024111393
20	0x00000000	0.0
21	0x00000000	0.0
22	0x3826378a	3.962921e-05
23	0x39611a8a	0.00021467559
24	0x396117e0	0.00021466566
25	0x00000000	0.0
26	0x00000000	0.0
27	0x37a8356d	2.0052039e-05
28	0x396e691c	0.00022736605
29	0x396e72ca	0.00022740211
30	0x00000000	0.0
31	0x00000000	0.0
32	0x38bfd2de	9.146867e-05
33	0x3925542b	0.00015766981
34	0x39256ae4	0.00015775446
35	0x3960665b	0.00021400435
36	0x379e66e6	1.8882984e-05
37	0x375c3a86	1.3126648e-05
38	0x38bed806	9.1001435e-05
39	0x3983d1e8	0.0002514266
40	0x000001f4	7e-43
41	0x00000000	0.0
42	0x00000000	0.0
43	0x00000000	0.0
44	0x38b61d06	8.683842e-05
45	0x395dc679	0.00021150139
46	0x395ded7e	0.00021164675
47	0x00000000	0.0
48	0x00000000	0.0
49	0x38c9d5c6	9.624245e-05
50	0x396b22b8	0.0002242428
51	0x396b2b89	0.00022427565
52	0x00000000	0.0
53	0x00000000	0.0
54	0x39004ef4	0.00012236444
55	0x395f7790	0.00021311478
56	0x395f959e	0.00021322674
57	0x00000000	0.0
58	0x00000000	0.0
59	0x38de83d1	0.000106103376
60	0x396979a1	0.00022265922
61	0x396972e2	0.00022263409
62	0x00000000	0.0
63	0x00000000	0.0
64	0x391f869f	0.00015213572
65	0x393fef3f	0.00018304306
66	0x393fe870	0.00018301769
67	0x00000000	0.0
68	0x00000000	0.0
69	0x3908306d	0.0001298801
70	0x395edf59	0.00021254773
71	0x395ed7ad	0.00021251915
72	0x00000000	0.0
73	0x00000000	0.0
74	0x3947a7ef	0.00019040679
75	0x391b966a	0.00014837986
76	0x391ba61a	0.0001484383
77	0x397b9dce	0.00023996012
78	0x38a70bd6	7.965385e-05
79	0x38206bc2	3.824733e-05
80	0x3925bf46	0.00015806881
81	0x39b76adc	0.00034984096
82	0x000001f4	7e-43
83	0x00000000	0.0
84	0x00000000	0.0
85	0x00000000	0.0
86	0x38f8277e	0.000118329175
87	0x395e3b25	0.00021193603
88	0x395eb3b6	0.00021238517
89	0x00000000	0.0
90	0x00000000	0.0
91	0x392a30e1	0.00016230672
92	0x39666fe8	0.00021976198
93	0x3966dd76	0.0002201701
94	0x00000000	0.0
95	0x00000000	0.0
96	0x39234aa0	0.00015572691
97	0x396397d9	0.00021704975
98	0x3963ee18	0.00021737104
99	0x00000000	0.0
100	0x00000000	0.0
101	0x3968e2b3	0.00022209696
102	0x395f82c2	0.00021315648
103	0x395fd365	0.00021345688
104	0x00000000	0.0
105	0x00000000	0.0
106	0x39282c4e	0.00016038233
107	0x3968d964	0.00022206228
108	0x39691989	0.00022230124
109	0x00000000	0.0
110	0x00000000	0.0
111	0x3970c027	0.00022959766
112	0x3971f950	0.00023076427
113	0x39725937	0.00023112154
114	0x00000000	0.0
115	0x00000000	0.0
116	0x393d4fc4	0.0001805416
117	0x398f4ebf	0.00027333756
118	0x398f6a72	0.00027354393
119	0x3985f53b	0.00025550448
120	0x3923dca7	0.00015627091
121	0x385a50db	5.2050553e-05
122	0x397d67ae	0.00024166584
123	0x3a005e49	0.0004896862
124	0x000001f4	7e-43
125	0x00000000	0.0
126	0x00000000	0.0
127	0x00000000	0.0
128	0x38c0d329	9.194605e-05
129	0x36f847d2	7.399337e-06
130	0x36fb8a45	7.4964796e-06
131	0x00000000	0.0
132	0x00000000	0.0
133	0x38a55b3b	7.884806e-05
134	0x37e1ca67	2.6916341e-05
135	0x37e24d36	2.6977254e-05
136	0x00000000	0.0
137	0x00000000	0.0
138	0x38e682fa	0.00010991651
139	0x36d2a61f	6.2778267e-06
140	0x36d62b83	6.3827624e-06
141	0x00000000	0.0
142	0x00000000	0.0
143	0x38a13bee	7.688241e-05
144	0x37f8f571	2.9678196e-05
145	0x37f983a7	2.9744418e-05
146	0x00000000	0.0
147	0x00000000	0.0
148	0x38cecb6e	9.860737e-05
149	0x36db24cb	6.530992e-06
150	0x36dce6b2	6.5833674e-06
151	0x00000000	0.0
152	0x00000000	0.0
153	0x38adc3cc	8.285753e-05
154	0x381c2c9a	3.7234837e-05
155	0x381c7da3	3.7310307e-05
156	0x00000000	0.0
157	0x00000000	0.0
158	0x38e48f78	0.0001089861
159	0x37db6ab3	2.615652e-05
160	0x37db6ef2	2.6158497e-05
161	0x38635710	5.42021e-05
162	0x38860416	6.390379e-05
163	0x37a63ae2	1.9816162e-05
164	0x38c62916	9.4490286e-05
165	0x39120a58	0.00013927498
166	0x000001f4	7e-43
167	0x00000000	0.0
168	0x00000000	0.0
169	0x00000000	0.0
170	0x38c6ac25	9.47344e-05
171	0x3a125277	0.0005581746
172	0x3a12686e	0.0005585019
173	0x00000000	0.0
174	0x00000000	0.0
175	0x38c090c7	9.18224e-05
176	0x3a16f22a	0.0005758131
177	0x3a170906	0.00057615375
178	0x00000000	0.0
179	0x00000000	0.0
180	0x38d4a0bd	0.000101388876
181	0x3a136088	0.0005621989
182	0x3a136de8	0.0005623982
183	0x00000000	0.0
184	0x00000000	0.0
185	0x38c151af	9.218172e-05
186	0x3a142c66	0.0005652368
187	0x3a143b61	0.00056546
188	0x00000000	0.0
189	0x00000000	0.0
190	0x394f4e8b	0.00019770318
191	0x39fd46bb	0.0004830862
192	0x39fd5dc7	0.0004832579
193	0x00000000	0.0
194	0x00000000	0.0
195	0x3925850e	0.00015785193
196	0x3a0567e2	0.0005089027
197	0x3a057aff	0.0005091875
198	0x00000000	0.0
199	0x00000000	0.0
200	0x399e9377	0.00030245978
201	0x39c4aadd	0.00037511336
202	0x39c4ce38	0.00037537678
203	0x3a0d1c85	0.0005382973
204	0x38b1bb7a	8.474938e-05
205	0x3874f084	5.839813e-05
206	0x398f44f9	0.00027326474
207	0x3a369d15	0.0006966156
208	0x000001f4	7e-43
209	0x00000000	0.0
210	0x00000000	0.0
211	0x00000000	0.0
212	0x3a354d84	0.0006916153
213	0x3a14eccb	0.0005681037
214	0x3a15b15b	0.0005710327
215	0x00000000	0.0
216	0x00000000	0.0
217	0x3a126c89	0.0005585631
218	0x3a40712f	0.00073410844
219	0x3a40fd5f	0.0007361974
220	0x00000000	0.0
221	0x00000000	0.0
222	0x3a2921a9	0.0006451854
223	0x3a3a4beb	0.00071066496
224	0x3a3aabdd	0.00071209465
225	0x00000000	0.0
226	0x00000000	0.0
227	0x3a0b8887	0.00053227734
228	0x3a63ae74	0.00086853583
229	0x3a64031c	0.0008697973
230	0x00000000	0.0
231	0x00000000	0.0
232	0x3a1c4276	0.0005960831
233	0x3a4d2298	0.0007825284
234	0x3a4d5cec	0.0007833976
235	0x00000000	0.0
236	0x00000000	0.0
237	0x39f13ca0	0.0004601227
238	0x3a887fd0	0.0010414068
239	0x3a88a3eb	0.0010424828
240	0x00000000	0.0
241	0x00000000	0.0
242	0x3a125019	0.00055813935
243	0x3a7f0b83	0.00097291934
244	0x3a7f521a	0.0009739712
245	0x3a6d946d	0.00090629497
246	0x39e3064b	0.00043301503
247	0x3988771e	0.0002602869
248	0x3a3d44d1	0.0007220032
249	0x3ad8ddb9	0.0016545571
250	0x000001f4	7e-43
251	0x00000000	0.0
252	0x00000000	0.0
253	0x00000000	0.0
254	0x37d027a4	2.4813991e-05
255	0x3987b694	0.00025885238

exp_avg f4 [128]
0	0xbb2c69ec	-0.0026308252
1	0x3b49dab1	0.0030800516
2	0x3bb57807	0.00553799
3	0x3a55d80a	0.00081574975
4	0xbbd6cf71	-0.0065554907
5	0x3c26012f	0.010132118
6	0xbba82fcb	-0.0051326505
7	0x3c21ef74	0.00988375
8	0x3c30d4e4	0.010792945
9	0x3bb36831	0.005475067
10	0xbb2239c8	-0.0024753679
11	0xba8d2cbe	-0.001077078
12	0x3b91b5c3	0.0044467165
13	0xb99cf540	-0.00029937364
14	0x3b0f43dc	0.0021860516
15	0x3924947c	0.00015695574
16	0x3b553fc6	0.0032539233
17	0xbb528b0f	-0.0032126342
18	0x3b8ec31c	0.004356755
19	0xbc3152c3	-0.010822955
20	0x3b00310c	0.0019560484
21	0x39d41942	0.0004045461
22	0xbbcab3c4	-0.0061859805
23	0x38269a8a	3.972141e-05
24	0xbb8a51bd	-0.0042211697
25	0x3bea5084	0.0071507115
26	0x3c273f85	0.010208015
27	0xbbae2a6b	-0.005315115
28	0x3a3ee185	0.000728153
29	0x3a111541	0.0005534478
30	0x3ac05a80	0.0014675409
31	0x3bd32ff0	0.0064449236
32	0x3ad3b9a6	0.001615335
33	0xbb79327d	-0.0038024478
34	0xbb900e29	-0.0043962193
35	0x3b152fbf	0.0022764055
36	0xbbc735d4	-0.006079415
37	0xb97eae90	-0.00024288357
38	0x3c65da9f	0.014029174
39	0xbb073a61	-0.0020634162
40	0xbb84a90a	-0.0040484713
41	0xbbf10b47	-0.0073560807
42	0xbba615f9	-0.0050685373
43	0xba677a7e	-0.00088302034
44	0x3a8c285b	0.0010693179
45	0xb9b5ce6d	-0.0003467681
46	0xbb2c3018	-0.0026273783
47	0xbb15ab0a	-0.0022837543
48	0x3ae9dc31	0.0017842111
49	0xbbed5886	-0.007243219
50	0xbb6754be	-0.0035298313
51	0xbb88cebc	-0.0041750353
52	0xbbe2b4dc	-0.006918533
53	0xbac78931	-0.0015223381
54	0x3acc5da5	0.0015591873
55	0x39736ae0	0.000232141
56	0x3af3baaa	0.0018595059
57	0x3b54ec8e	0.003248963
58	0xb9b6a3cd	-0.00034835786
59	0x3b13e714	0.0022568153
60	0xb9fbdfcc	-0.00048041192
61	0xbbda45a6	-0.006661135
62	0xbc00ecce	-0.007868959
63	0x3b6aa568	0.0035804156
64	0x3916e534	0.000143905
65	0x3b0095e8	0.00196206
66	0x3ab6bd89	0.0013941984
67	0xb9d9ac27	-0.0004151773
68	0x3b807964	0.003920721
69	0x3bce7e61	0.0063016866
70	0x3b9c7e52	0.0047758007
71	0x3b4b3b36	0.0031010634
72	0xbba42add	-0.0050099925
73	0x3a3eeeca	0.0007283507
74	0x39f5656d	0.0004680561
75	0x3b15bb42	0.002284721
76	0x3ae86a3b	0.0017731854
77	0x3c00763a	0.007840687
78	0xbaa312a5	-0.001244147
79	0x39ad044f	0.00033000342
80	0x3b28e3f5	0.0025770639
81	0xbb06b105	-0.002055229
82	0x3ad1daef	0.0016010682
83	0xba05cc9c	-0.00051040365
84	0xbaf3767d	-0.0018574741
85	0x3aed0c60	0.0018085353
86	0xbb199fcf	-0.00234412
87	0x3abe7ba5	0.0014532699
88	0xbbe8dfa1	-0.007106737
89	0xbaabc916	-0.0013106193
90	0xbc2d89aa	-0.010591904
91	0xbbb2d190	-0.0054571107
92	0x3b15d5d5	0.002286305
93	0x3a2be05e	0.00065565656
94	0x39e53890	0.00043720426
95	0xbc183d60	-0.009291977
96	0xba6c0ceb	-0.00090046105
97	0xba4b370d	-0.00077520387
98	0x3ac2ef2b	0.0014872303
99	0x3ba06703	0.0048950925
100	0xbbbfd318	-0.0058540218
101	0x38ac55ed	8.217604e-05
102	0xba407249	-0.00073412486
103	0xbba2d361	-0.004969046
104	0xbb54719b	-0.0032416347
105	0x3c06bf67	0.008224345
106	0xbb4fb455	-0.003169318
107	0xb92fde8c	-0.00016772206
108	0xbb0e45ca	-0.0021709078
109	0x38a52d7f	7.8762874e-05
110	0xb8aa1ae3	-8.11124e-05
111	0xbb848a19	-0.004044783
112	0xb98f5654	-0.00027339405
113	0xbb38c5c0	-0.002819404
114	0x3b7e7a3c	0.0038830182
115	0x3ba5ab6c	0.0050558355
116	0xbb3a20d1	-0.0028400908
117	0x3b71e83f	0.003691211
118	0x3b2984a4	0.0025866413
119	0x3ad52646	0.0016262017
120	0x3ba36ffc	0.004987715
121	0x391d29be	0.00014988237
122	0x3b12f633	0.0022424578
123	0xbbe9fc2d	-0.0071406574
124	0xbae98159	-0.0017815038
125	0x3a268665	0.0006352424
126	0xbb197bed	-0.0023419813
127	0x3ad76ab2	0.0016434996
