VirtualAquarium/results/VirtualAquariumReproducao/VirtualAquarium/VirtualAquarium-1499994.pt (torch, 595711 bytes, 49 tensors)

discrete_act_size_vector f4 [1, 2]
0	0x40000000	2.0
1	0x40000000	2.0

network_body._body_endoder.seq_layers.0.weight f4 [128, 53]
0	0xbcba95d7	-0.022776527
1	0x3e33b33b	0.1754884
2	0x3d3a0f42	0.045424707
3	0xbe1c9d72	-0.15294436
4	0xbda28618	-0.079357326
5	0xbe82b1f4	-0.25526392
6	0x3e5dc439	0.21656884
7	0xbe95eeb7	-0.29283687
8	0x3ce68411	0.028139146
9	0xbd949171	-0.07254303
10	0xbe9f91fb	-0.31166062
11	0xbe1fcad2	-0.15604714
12	0x3e7cf293	0.2470191
13	0x3da4aeac	0.080411285
14	0xbd709c88	-0.05874303
15	0xbcb68250	-0.022278935
16	0x3dbba8a0	0.09163022
17	0x3e000727	0.12502728
18	0xbe2f0d2d	-0.1709487
19	0xbdac2162	-0.08404805
20	0xbd7678e4	-0.060173884
21	0xbe1402bb	-0.14454167
22	0x3df69c1d	0.12041495
23	0xbe224523	-0.15846686
24	0xbd9e7309	-0.07736785
25	0xbefd7d44	-0.49509633
26	0x3e072d32	0.13200834
27	0xbe307638	-0.17232597
28	0x3d59d041	0.053177122
29	0xbd9d2b65	-0.076742925
30	0xbf354be4	-0.70818925
31	0xbe8f5313	-0.27993068
32	0x3db5b8e1	0.088731535
33	0xbdb2ffde	-0.08740209
34	0xbe6c146d	-0.23054667
35	0xbc8caa41	-0.017171027
36	0xbde01326	-0.10941152
37	0xbe05f6c7	-0.1308242
38	0x3db1f004	0.086883575
39	0xbe785c86	-0.24254045
40	0xbe991fda	-0.29907113
41	0xbdcfe6ff	-0.10151481
42	0x39e76ff5	0.00044143168
43	0x3d94bebc	0.07262942
44	0x3e183ad8	0.14866197
45	0x3e1cc960	0.15311193
46	0xbedd025d	-0.43165866
47	0x3f0f9c22	0.56097615
48	0xbeb90ba0	-0.36141682
49	0xbeaed5f4	-0.34147608
50	0x3d11f9b5	0.03563853
51	0x3dd39a60	0.10332179
52	0xbe425302	-0.18976977
53	0xbec72c32	-0.38900906
54	0xbd8897a7	-0.066695504
55	0x3e86f533	0.26358947
56	0xbf066994	-0.5250485
57	0xbe86dad7	-0.26338837
58	0xbe4fb451	-0.20283629
59	0xbdcea8c9	-0.10090787
60	0xbde16bbb	-0.11006876
61	0xbe48e036	-0.1961678
62	0xbe8c526f	-0.27406642
63	0xbe9e9ac6	-0.30977458
64	0xbb805db2	-0.0039174194
65	0xbd66c0d8	-0.056336254
66	0xbecf3077	-0.40466663
67	0xbecc2641	-0.39872935
68	0x3e66250b	0.22475068
69	0x3e899130	0.26868582
70	0xbd371bed	-0.044704366
71	0xbdd74f77	-0.105132036
72	0xbe2e52ed	-0.17023821
73	0xbeb3213e	-0.349863
74	0x3df24e68	0.11831361
75	0x3c2e7fb1	0.010650561
76	0xbee5d7ec	-0.44891298
77	0xbee502a2	-0.4472857
78	0x3ea23312	0.3167959
79	0xbe0c568f	-0.13704894
80	0xbd8fbb7d	-0.070181824
81	0xbe4c62cd	-0.19959565
82	0x3caf5319	0.021401929
83	0xbe004d9d	-0.12529607
84	0xbe00f5b3	-0.12593727
85	0x3e0adcb5	0.13560756
86	0xbd648dc5	-0.055799264
87	0xbe724378	-0.2365855
88	0xbd2f5af8	-0.042811364
89	0x3c387c6c	0.011260133
90	0x3e439718	0.19100606
91	0xbcdf3d86	-0.027251016
92	0xbcf36cb9	-0.029714929
93	0xbea8619b	-0.32886967
94	0xbd41f6ca	-0.047354497
95	0x3dc96733	0.09834137
96	0xbed86c71	-0.42270234
97	0xbd9e3634	-0.07725182
98	0xbd84a796	-0.06477277
99	0xbe5f6ad3	-0.21818094
100	0x3f0dc1a8	0.5537362
101	0xbf09695f	-0.5367641
102	0xbea5741a	-0.3231514
103	0x3ddad586	0.106852576
104	0xbd983e7f	-0.07433795
105	0xbed2aa6f	-0.41145656
106	0xbdd9292b	-0.10603555
107	0x3de0d5ea	0.10978301
108	0x3e876389	0.26443127
109	0xbe90ec34	-0.2830521
110	0xbea970af	-0.33093783
111	0xbe0b83d6	-0.1362451
112	0xbddd979a	-0.10819931
113	0x3dd7a290	0.10529053
114	0xb998f0d9	-0.00029171145
115	0xbe17c9e2	-0.14823106
116	0xbe02a86f	-0.12759565
117	0x3e10f8a2	0.14157346
118	0xbe7c3088	-0.24627888
119	0xbe912f1f	-0.28356263
120	0xbe632977	-0.22183786
121	0xbe3c03c5	-0.18360813
122	0x3e159c84	0.14610487
123	0xbdc187e9	-0.09449751
124	0xbde66177	-0.11249059
125	0xbda0942b	-0.07840761
126	0xbc34d58c	-0.011037242
127	0xbdf1c2bf	-0.11804723
128	0xbe214870	-0.15750289
129	0xbe0b69ec	-0.13614625
130	0xbe84af6a	-0.2591508
131	0xbedc6c2f	-0.43051288
132	0xbd8360e8	-0.06414968
133	0xbe1a04f6	-0.15040955
134	0xbd903040	-0.07040453
135	0xbd654d02	-0.055981643
136	0xbe088106	-0.13330469
137	0xbdf28652	-0.11842026
138	0xbe2c5e26	-0.1683279
139	0x3dd9e094	0.10638538
140	0xbd0caa70	-0.03434223
141	0x3e658b07	0.22416316
142	0x3dec7219	0.115452
143	0xbe1f06c0	-0.15529919
144	0xbce3f995	-0.02782897
145	0xbd14bc61	-0.036312465
146	0x3e282b51	0.16422774
147	0xbd51967d	-0.051168907
148	0x3e106dce	0.14104387
149	0xbe3b594c	-0.18295783
150	0xbe3abc31	-0.18235852
151	0x3ddee880	0.108841896
152	0xbdd58632	-0.10425986
153	0x3f88f6d3	1.0700325
154	0xbccc70c7	-0.02495612
155	0xbabc4f8e	-0.0014366971
156	0x3e8215df	0.2540731
157	0xbdd2aece	-0.102872476
158	0x3d798c9d	0.060925115
159	0xbdc04ad5	-0.09389273
160	0xbca0d15a	-0.019631077
161	0xbbee5600	-0.0072734356
162	0xbe7a7517	-0.24458729
163	0xbe904a46	-0.28181666
164	0x3e56344e	0.2091839
165	0x3cfc2f23	0.030784195
166	0x3e281224	0.1641317
167	0xbe837a62	-0.25679308
168	0xbefa521d	-0.48890772
169	0x3db68728	0.08912498
170	0xbd51e662	-0.0512451
171	0xbc3a3356	-0.0113647785
172	0xbeb43d87	-0.35203192
173	0xbe84e6f0	-0.2595744
174	0xbc90b5f9	-0.017664896
175	0xbc884f45	-0.016639361
176	0xbdb0bc14	-0.08629623
177	0xbeb5acea	-0.35483485
178	0xbe8cf9a7	-0.2753422
179	0xbe86e62a	-0.26347476
180	0xbc72692a	-0.014795581
181	0xbdfd7e74	-0.12377635
182	0x3ca8bb89	0.020597236
183	0xbe07bc75	-0.13255484
184	0xbe3dc047	-0.18530379
185	0xbdd83d08	-0.10558516
186	0x3e72dacc	0.23716277
187	0xbe5c9319	-0.21540488
188	0xbd65815f	-0.05603158
189	0xbe94ce04	-0.29063427
190	0xbe95ed2a	-0.29282504
191	0xbdd28f8b	-0.10281285
192	0xbee46931	-0.44611505
193	0xbe6549b7	-0.22391401
194	0xbde8fa63	-0.113758825
195	0xbe521eaf	-0.20519517
196	0x3cbb139c	0.022836499
197	0xbf30ff25	-0.6913932
198	0xbecaa1c9	-0.39576557
199	0x3e214b0e	0.15751287
200	0x3eb889dc	0.36042678
201	0xbde1d874	-0.11027613
202	0xbe9ae033	-0.30249175
203	0xbe5112b4	-0.20417291
204	0xbc3a1a82	-0.011358859
205	0xbed13d3d	-0.40867034
206	0xbe49e69e	-0.1971688
207	0xbecb7d38	-0.39743972
208	0xbdb49c3d	-0.088188626
209	0xbc8ec4fe	-0.017427918
210	0xbe2dccfa	-0.16972724
211	0xbe89db82	-0.26925284
212	0xbf00ea6b	-0.50357693
213	0xbd804879	-0.06263823
214	0xbe5939d4	-0.21213466
215	0xbdb0f0ee	-0.08639704
216	0x3d97b919	0.074083515
217	0x3aa46f8d	0.0012545452
218	0xbf0455e7	-0.51693577
219	0xbe4812d0	-0.19538426
220	0xbeaf7442	-0.34268385
221	0xbe8d03ad	-0.27541867
222	0xbe8390b2	-0.2569633
223	0x3e31321d	0.17304273
224	0xbd06c2d2	-0.03290064
225	0xbd0eb4af	-0.034840282
226	0xbca1068e	-0.019656446
227	0x3d79bfae	0.060973816
228	0xbe4ef971	-0.20212342
229	0xbe84697f	-0.25861737
230	0xbead7d63	-0.33884725
231	0xbe9121dd	-0.28346148
232	0x3d7cabbc	0.061687216
233	0x3d22299c	0.039590463
234	0x3dc6b86c	0.097031444
235	0xbe86a0ee	-0.26294655
236	0xbf0f6556	-0.56014
237	0xbdf7a020	-0.12091088
238	0x3c5415a7	0.012944615
239	0x3e401731	0.18758847
240	0xbeddb0d3	-0.4329897
241	0xbeaf9556	-0.34293622
242	0xbd553e97	-0.052061643
243	0x3d8e43d0	0.06946528
244	0xbe7af187	-0.24506198
245	0xbe5aa55f	-0.21352147
246	0xbd538043	-0.05163599
247	0x3d394787	0.04523423
248	0xbe8f4dd5	-0.2798907
249	0xbd88c1be	-0.066775784
250	0xbf080cbb	-0.53144425
251	0xbe51c433	-0.20485
252	0xbdafb7d5	-0.08579985
253	0x3da11e3f	0.07867097
254	0x3d209aa8	0.03920999
255	0xbe6ebf51	-0.23315169

network_body._body_endoder.seq_layers.0.bias f4 [128]
0	0xbdd9b087	-0.10629373
1	0xbe20ef27	-0.1571623
2	0xbd688658	-0.056768745
3	0xbe75dfb2	-0.24011114
4	0xbe48708a	-0.1957418
5	0xbcb08017	-0.021545453
6	0xbe187c70	-0.14891219
7	0xbe396e6c	-0.18108529
8	0xbe4aef05	-0.19817741
9	0xbe883c8e	-0.266087
10	0xbdf088dc	-0.11744854
11	0xbe82cd71	-0.25547364
12	0xbe0d7e3c	-0.13817686
13	0xbe325a6e	-0.17417309
14	0x3ca22edb	0.019797733
15	0xbe0b103f	-0.13580416
16	0xbe82da62	-0.25557238
17	0x3ce2a5cc	0.027666949
18	0xbe0e81e2	-0.13916734
19	0x3d1bd953	0.038049053
20	0xbe1311e7	-0.14362298
21	0xbe377372	-0.17915133
22	0xbc845d9d	-0.01615792
23	0xbabcb159	-0.0014396115
24	0x3dbee92c	0.09321818
25	0xbe54ce6b	-0.20781867
26	0x3a9d3c55	0.001199613
27	0xbe9b2685	-0.30302826
28	0xbd0cddcc	-0.03439121
29	0xbd9aa1ac	-0.07550368
30	0xbda913a1	-0.08255697
31	0xbda132ab	-0.07870992
32	0xbde86162	-0.11346699
33	0xbd67cffb	-0.05659483
34	0xbce87596	-0.028376382
35	0xbe0aad10	-0.1354258
36	0x3d46401d	0.048400987
37	0xbe037c46	-0.12840375
38	0xbca9b52f	-0.020716278
39	0xbe584b5a	-0.21122494
40	0x3ba205f7	0.0049445587
41	0xbda0b0c8	-0.07846218
42	0xbece6f28	-0.4031918
43	0xbe933845	-0.28753868
44	0xbdf68b34	-0.1203827
45	0xbe0eb94b	-0.13937871
46	0xbe7de19b	-0.24793093
47	0xbbf0c2ba	-0.007347432
48	0x3cc805aa	0.024416763
49	0xbe4d3a58	-0.20041788
50	0xbe7cc677	-0.24685083
51	0xbe0da2d6	-0.13831648
52	0xbe01103c	-0.12603849
53	0xbb48c88e	-0.0030637118
54	0xbde98101	-0.11401559
55	0xbddd8f8e	-0.108183965
56	0x3c2aa834	0.010416079
57	0xbd9e6554	-0.077341706
58	0xbe062dab	-0.13103358
59	0xbcbbbf26	-0.022918295
60	0xbe533b7d	-0.20628162
61	0xbe320c32	-0.17387465
62	0x3b245df8	0.0025080424
63	0xbdda0866	-0.10646133
64	0xbe5b302f	-0.214051
65	0xbc84c36e	-0.01620647
66	0xbb2a3cca	-0.0025976175
67	0xbe7ed05b	-0.24884169
68	0xbd4544b3	-0.04816122
69	0xbd9ba968	-0.07600671
70	0xbc36e441	-0.011162818
71	0x3b9f0871	0.004853301
72	0xbdc096e2	-0.094037786
73	0xbdb8be68	-0.09020692
74	0xbdee9c97	-0.11650961
75	0xbe923e38	-0.28563094
76	0xbe071ad7	-0.13193832
77	0xbe6d43eb	-0.2317044
78	0xbe99d733	-0.30046996
79	0xbe673722	-0.22579625
80	0xbe08212f	-0.13293909
81	0xbe27f705	-0.16402824
82	0xbdaa10ae	-0.08303963
83	0xbda9fb05	-0.08299831
84	0xbe037152	-0.12836197
85	0xbe9e8a22	-0.30964762
86	0x3d0839fe	0.03325843
87	0x39ca5549	0.00038591985
88	0xbe016bbd	-0.12638755
89	0xbc933d54	-0.01797358
90	0xbd9a8fcc	-0.07546958
91	0xbdbdad94	-0.09261623
92	0xbe17981c	-0.14804119
93	0xbc8ba003	-0.017044073
94	0xbddb96a6	-0.10722093
95	0xbd9e80b4	-0.07739392
96	0xbd3894e2	-0.04506386
97	0x3da91ae3	0.08257081
98	0xbd813a45	-0.06309942
99	0xbdef5e97	-0.116879635
100	0xbe5c7a60	-0.21531057
101	0xbd2bb0fb	-0.04191683
102	0x3d316c20	0.043316007
103	0xbe9e42c2	-0.30910307
104	0x3da0c09d	0.07849238
105	0xbdfe56c5	-0.12418894
106	0xbde33b47	-0.11095291
107	0xbe35b95a	-0.17746487
108	0xbe14b662	-0.14522699
109	0xbd917d6d	-0.07104001
110	0xbea3e83b	-0.32013115
111	0xbe8d2c98	-0.27573085
112	0xbd614ad3	-0.055003
113	0xbe86fc16	-0.263642
114	0xbe3ab2bc	-0.18232244
115	0x3d2da661	0.042395
116	0xbe7fe18b	-0.24988382
117	0x3c1d7313	0.009609955
118	0xba45872d	-0.00075350964
119	0x3baa4dcc	0.0051972624
120	0xbbedd88c	-0.0072584804
121	0x3ca7cddc	0.020483904
122	0xbe4f249f	-0.20228814
123	0xbe42f4c1	-0.19038679
124	0xbe9397ed	-0.28826848
125	0xbe5332ca	-0.20624843
126	0xbdb0e036	-0.08636515
127	0xbe2bffbe	-0.16796777

network_body._body_endoder.seq_layers.2.weight f4 [128, 128]
0	0x3d2bad05	0.04191305
1	0xbe6298e0	-0.2212863
2	0x3e5cf52f	0.21577905
3	0x3c521844	0.012823168
4	0xbd27f95a	-0.041009285
5	0xbe7d7bdb	-0.24754278
6	0x3dd93903	0.10606577
7	0xbcaf7ea2	-0.021422688
8	0xbe0d94d5	-0.13826306
9	0xbcea39a3	-0.028591936
10	0x3e2e9df4	0.17052442
11	0xbe29a76f	-0.16567777
12	0xbd8ac095	-0.06775013
13	0xbe263cbf	-0.1623411
14	0xbe944ca7	-0.2896473
15	0x3d71431a	0.058901884
16	0xbd6d25f1	-0.057897512
17	0xbd2c9a62	-0.04213942
18	0xbd88cca6	-0.066796586
19	0xbe6c6835	-0.23086627
20	0xbe9a5e5a	-0.3015011
21	0x3e3a9594	0.18221122
22	0x3e96cec4	0.29454625
23	0xbe03febc	-0.12890142
24	0xbe81ac72	-0.25326878
25	0x3bc5df2f	0.0060385684
26	0xbe0c1517	-0.1367992
27	0xbe1a92f3	-0.15095119
28	0xbe08e82b	-0.13369815
29	0x3e2ea8c7	0.17056571
30	0x3baf65ad	0.005352697
31	0x3d2df388	0.042468578
32	0xbec2d90d	-0.38056222
33	0xbdf92648	-0.12165505
34	0x3d1dd588	0.038533717
35	0xbe2856ec	-0.16439408
36	0xbc76f4a4	-0.015072975
37	0x3db0a6b4	0.08625546
38	0x3d509b62	0.050929435
39	0x3d749796	0.059714876
40	0xbe225496	-0.1585258
41	0x3c3cba54	0.011519033
42	0xbe240ab1	-0.16019703
43	0xbdc8d6e1	-0.0980661
44	0xbdae3c49	-0.08507592
45	0xbdbb883f	-0.09156846
46	0xbd0ed266	-0.03486862
47	0xbd6fcd9e	-0.0585457
48	0xbd179c81	-0.037014488
49	0xbd9babe4	-0.07601145
50	0x3dd5ae86	0.10433678
51	0x3e25d455	0.1619428
52	0x3d123d8e	0.035703234
53	0x3bf0bfd0	0.0073470846
54	0x3e01cfe1	0.12676956
55	0x3ea13b4c	0.31490552
56	0x3ddb75f5	0.10715858
57	0xbd8396b6	-0.0642523
58	0x3cd2ea50	0.025746495
59	0x3d8b9544	0.068155795
60	0x3d695c9d	0.05697309
61	0x3db5be71	0.088742144
62	0x3ea5e222	0.32399088
63	0x3e936eb1	0.28795388
64	0x3d4592ab	0.048235577
65	0xbd4548e2	-0.04816521
66	0xbccd2dc6	-0.02504624
67	0x3cc67361	0.024224939
68	0xbd3561ad	-0.044282604
69	0xbd12ca30	-0.035837352
70	0x3da01621	0.07816721
71	0xbe159459	-0.14607371
72	0x3d088080	0.033325672
73	0xbe130cf8	-0.14360416
74	0xbe42e672	-0.1903322
75	0x3df5fc0b	0.12010964
76	0xbe49c197	-0.19702755
77	0xbd01d6c8	-0.031698972
78	0x3d7d30c2	0.061814077
79	0x3dfac88f	0.12245285
80	0xbd891cd7	-0.06694954
81	0xbcae90ef	-0.021309344
82	0x3e0e46ec	0.13894242
83	0x3cc7da0a	0.024395961
84	0xbcfb1d12	-0.03065351
85	0x3beea71a	0.0072831037
86	0xbe8a5770	-0.27019835
87	0xbca73c71	-0.020414563
88	0xbe39c9a3	-0.18143325
89	0x3dc70c0d	0.097190954
90	0x3cfa9b43	0.030591613
91	0x3e19bb1c	0.15012783
92	0xbccac5b6	-0.024752479
93	0xbd8369f7	-0.064166956
94	0x3c8bbfdb	0.017059257
95	0xbcfbd029	-0.030738907
96	0xbe92cb6e	-0.2867083
97	0x3daf2ac6	0.0855308
98	0xbe2f88a0	-0.17141962
99	0xbe501496	-0.20320353
100	0x3d5b05b0	0.05347222
101	0x3e3bd885	0.18344314
102	0xbe067b15	-0.1313289
103	0xbcfde114	-0.030991115
104	0xbe394c0b	-0.18095414
105	0xbda70361	-0.08154941
106	0x3dbfbe57	0.09362476
107	0xbd550a0c	-0.052011535
108	0x3cb7cffb	0.02243804
109	0xbb9edc31	-0.004848026
110	0x3d68ef63	0.056868922
111	0xbec0aa6d	-0.37630025
112	0xbe695a3c	-0.22788328
113	0x3db37643	0.08762791
114	0xbdf50a88	-0.11964899
115	0xbe8a8c81	-0.2706032
116	0xbdb9a8d2	-0.09065403
117	0x3e116a71	0.1420076
118	0xbdd4ad26	-0.10384588
119	0xbe289b98	-0.16465604
120	0xbe8a1c19	-0.26974562
121	0x3e376292	0.17908695
122	0x3d83bc72	0.064324275
123	0xbe07aaa6	-0.13248691
124	0x3e4f7a51	0.20261504
125	0xbdeda26c	-0.11603245
126	0x3dc7557e	0.09733103
127	0xbdca41b6	-0.098758146
128	0x3b9ef7e4	0.004851328
129	0x3e1a6aeb	0.15079848
130	0xbe3afd64	-0.18260723
131	0xbc833ff3	-0.016021704
132	0xbc4c5629	-0.012471714
133	0xbe249d46	-0.1607562
134	0xbe14db60	-0.1453681
135	0x3e486717	0.19570576
136	0x3df0bd36	0.11754839
137	0x3d36969e	0.044577233
138	0x3dcc0be7	0.09963208
139	0x3d77c5f0	0.060491502
140	0xbdc6c925	-0.09706334
141	0xbd87b9d6	-0.06627242
142	0xbd3c2d10	-0.045941412
143	0xbde2b759	-0.11070127
144	0xbca990c7	-0.020698918
145	0xbe0c1166	-0.13678512
146	0x3e3de567	0.18544541
147	0x3d44bfbf	0.048034426
148	0xbdaf2583	-0.08552077
149	0xbc5e5d8b	-0.013572107
150	0x3b2b0575	0.0026095782
151	0xbb4a0364	-0.0030824775
152	0xbe3c07e9	-0.18362392
153	0x3dbb03d1	0.09131587
154	0xbe430b7d	-0.19047351
155	0x3e2297fc	0.1587829
156	0x3d1aa3a1	0.037753705
157	0x3d9a576a	0.07536204
158	0x3b5fe52e	0.0034163701
159	0x3e42a0fa	0.1900672
160	0xbcad49ee	-0.021153416
161	0xbb2f7620	-0.002677329
162	0x3ded4d20	0.11586976
163	0xbe30c9b1	-0.17264439
164	0x3dd321dc	0.103091925
165	0x3d8a7c09	0.06761939
166	0xbd1df4e1	-0.038563613
167	0xbd7265de	-0.05917918
168	0x3cce5594	0.025187291
169	0xbda8e080	-0.08245945
170	0x3cab6748	0.020923272
171	0xbd8ff29b	-0.07028695
172	0x3ac29bc3	0.0014847446
173	0xbde05e56	-0.10955493
174	0xbe1ce38c	-0.15321177
175	0xbde3a528	-0.111154854
176	0x3dcbb33b	0.09946295
177	0xbe9b1f04	-0.302971
178	0x3d8d1305	0.06888393
179	0x3dec9ff7	0.115539484
180	0xbd25ef5b	-0.04051147
181	0x3bd915c4	0.006624909
182	0x3c91e8e1	0.01781124
183	0x3cc5d507	0.02414943
184	0xbd3064cc	-0.043064877
185	0x3df35280	0.1188097
186	0x3e8458cb	0.25848994
187	0xbcd7c176	-0.026337367
188	0xbe2e21e2	-0.17005113
189	0x3caa0551	0.020754488
190	0x3e3bef9b	0.18353121
191	0xbd91ed9c	-0.071253985
192	0xbca86be5	-0.02055926
193	0x3e632c2e	0.22184822
194	0xbde3f168	-0.11130029
195	0xbe68e454	-0.2274335
196	0xbd9e502c	-0.07730135
197	0x3c9cebc5	0.019155392
198	0x3d38c33c	0.045108065
199	0xbdf4d5cd	-0.11954842
200	0x3dd78bc8	0.10524708
201	0xbe2d8447	-0.16944991
202	0xbd7bb896	-0.06145533
203	0x3df2b246	0.11850409
204	0x3dfb5c08	0.12273413
205	0x3d9a0051	0.075195916
206	0xbe1d3a76	-0.15354332
207	0xbd118dff	-0.03553581
208	0x3e865409	0.2623599
209	0xbe2a9c6a	-0.1666123
210	0x3d2eccf8	0.042675942
211	0x3dfdd592	0.12394251
212	0xbe72dfdc	-0.23718208
213	0x3d7329ad	0.059365917
214	0x3c73739d	0.014859107
215	0xbdd6401e	-0.10461448
216	0x3da0f12b	0.07858499
217	0x3dd57927	0.104234986
218	0x3dd9a156	0.106264755
219	0x3b740105	0.0037232053
220	0xbd8641e1	-0.06555534
221	0xbe0e63a5	-0.13905199
222	0xbdfe983d	-0.12431381
223	0xbbf1854b	-0.007370626
224	0xbd5ddb86	-0.054164432
225	0x3e023dc7	0.12718879
226	0xbe6f0988	-0.2334348
227	0xbe0a3cae	-0.1349971
228	0x3dcfb16b	0.10141262
229	0x3e08a6e5	0.13344915
230	0xbcc00b98	-0.023443028
231	0xbd822e98	-0.06356543
232	0xbe1b4694	-0.15163642
233	0xbd0ace71	-0.033888284
234	0xbc6ef263	-0.014584157
235	0x3d04e262	0.032442458
236	0xbd1a3330	-0.037646472
237	0xbe4a1b6d	-0.19737025
238	0xbe03198d	-0.12802716
239	0xbc950165	-0.018189142
240	0xbea987f8	-0.33111548
241	0xbe01b20f	-0.1266558
242	0x3d14afa3	0.036300313
243	0xbcf6639c	-0.030076794
244	0x3d18d368	0.037310988
245	0x3cdf66fc	0.027270786
246	0xbea7bf89	-0.32763317
247	0xbe20c8ec	-0.15701646
248	0xbdfd7aa4	-0.123769075
249	0xbd8f7000	-0.07003784
250	0xbe1d3cb5	-0.15355189
251	0xbc792aee	-0.015207989
252	0x3dde86f1	0.10865582
253	0xbda3f51f	-0.080057375
254	0x3dfb2b1a	0.1226408
255	0x3d805b30	0.06267393

network_body._body_endoder.seq_layers.2.bias f4 [128]
0	0xbe476f15	-0.19475968
1	0xbde8b9f4	-0.11363593
2	0xbd993926	-0.07481603
3	0xbe102c6f	-0.1407945
4	0xbe17d45c	-0.14827102
5	0xbe18e8c8	-0.14932549
6	0xbe239b0f	-0.15977119
7	0xbe0b2067	-0.1358658
8	0xbdef1903	-0.116746925
9	0xbd68c172	-0.05682511
10	0xbe1d617e	-0.15369222
11	0xbd7ea76a	-0.062171377
12	0xbe241271	-0.1602266
13	0xbe09950d	-0.13435765
14	0x3d460c06	0.04835131
15	0xbda45446	-0.080238864
16	0xbd952e40	-0.07284212
17	0xbd963856	-0.07334964
18	0xbdf949fd	-0.12172315
19	0xbdb02a7f	-0.086018555
20	0xbdd6f2ec	-0.104955524
21	0x3d25efe0	0.040511966
22	0xbe2477c4	-0.16061312
23	0xbe0182d9	-0.1264757
24	0x3c599899	0.013281011
25	0xbe31c3e0	-0.17359877
26	0xbdf91660	-0.12162471
27	0xbe06e492	-0.1317313
28	0xbd5bcd07	-0.053662326
29	0xbd6cc226	-0.057802342
30	0xbdb8eabc	-0.09029147
31	0xbdb07c63	-0.08617475
32	0xbd0e065e	-0.03467404
33	0xbdaddb70	-0.0848912
34	0xbe11cfb4	-0.14239389
35	0x3e02650b	0.12733857
36	0xbe6a780a	-0.22897354
37	0xbe047201	-0.12934114
38	0xbe1b92af	-0.15192674
39	0xbdb8b149	-0.090181895
40	0xbe362f79	-0.17791547
41	0xbd64189e	-0.05568754
42	0xbcb319c8	-0.02186288
43	0xbdd19f96	-0.10235517
44	0xbe03f0de	-0.12884852
45	0xbdc82bc4	-0.09773973
46	0xbe03f954	-0.1288808
47	0xbd48c89c	-0.04901944
48	0xbdbf0850	-0.09327757
49	0xbe10e5a7	-0.14150105
50	0xbdd5d4f2	-0.10441007
51	0xbe271e69	-0.16320194
52	0xbe4c6b58	-0.19962823
53	0xbdf041fd	-0.11731336
54	0xbdf5683f	-0.11982774
55	0xbde93bad	-0.113883354
56	0xbd9efadd	-0.07762692
57	0xbe51e1e7	-0.20496331
58	0xbc336411	-0.010949151
59	0xbd25bed6	-0.0404652
60	0xbe6d1af2	-0.2315481
61	0xbdd3d08e	-0.10342513
62	0xbe1c8ed3	-0.15288858
63	0x3dca7f6b	0.09887584
64	0xbdc8d8fb	-0.09807011
65	0xbe1d963a	-0.15389338
66	0xbe19c885	-0.15017898
67	0xbe1a87c8	-0.15090859
68	0xbdb46f1c	-0.08810255
69	0xbe00d3cf	-0.12580799
70	0xbd1b1372	-0.03786034
71	0xbdf19018	-0.11795062
72	0xbe2f1a6e	-0.17099926
73	0x3d912d0e	0.070886716
74	0xbdb891fe	-0.09012221
75	0xbe558c23	-0.20854239
76	0xbe4acc37	-0.19804464
77	0x3c25a734	0.010110665
78	0xbd7e3f4d	-0.062072087
79	0xbdc92a48	-0.09822518
80	0xbe356f40	-0.1771822
81	0xbd71b2d5	-0.05900844
82	0xbd409c4f	-0.047024067
83	0x3d56aba5	0.052409787
84	0xbe846610	-0.25859118
85	0x3e0e9bee	0.1392667
86	0xbea2956b	-0.31754622
87	0xbdc0fe53	-0.094235085
88	0xbe213b16	-0.15745196
89	0xbe23fa3a	-0.16013423
90	0xbdcaae43	-0.09896519
91	0xbe82cb20	-0.25545597
92	0xbde5c7bd	-0.11219738
93	0x3d6509bb	0.055917483
94	0xbe05f57c	-0.13081926
95	0x3dbd184f	0.09233152
96	0xbdb5e359	-0.08881254
97	0xbe326315	-0.1742061
98	0xbdacdebe	-0.08440922
99	0x3dd5d00b	0.10440072
100	0x3e303f90	0.17211747
101	0xbe28c4cb	-0.1648132
102	0xbda85933	-0.082201384
103	0xbdb23c7e	-0.08702944
104	0xbe11a028	-0.14221251
105	0xbddf48a9	-0.10902531
106	0xbe0bff98	-0.1367172
107	0x3d4c8b3a	0.049937464
108	0xbd048e6b	-0.032362383
109	0xbe30569b	-0.17220537
110	0xbe330605	-0.17482765
111	0xbe5dfa2f	-0.21677469
112	0xbdff046a	-0.12452014
113	0xbdbe8319	-0.09302349
114	0xbdd18b00	-0.1023159
115	0xbdf705a2	-0.12061621
116	0xbe09e1de	-0.13465068
117	0xbd57e6ba	-0.052710272
118	0xbe009d39	-0.12559976
119	0xbd97bc44	-0.07408956
120	0xbe08b0b6	-0.1334866
121	0xbde16ab4	-0.1100668
122	0xbde52ce0	-0.111902
123	0xbd9b4389	-0.07581241
124	0xbe52e031	-0.20593335
125	0xbd6904bb	-0.056889277
126	0xbddba177	-0.10724156
127	0xbda2f5ee	-0.079570636

action_model._continuous_distribution.log_sigma f4 [1, 3]
0	0xc018fc77	-2.3904092
1	0xc00c825c	-2.1954565
2	0xc022ea10	-2.545536

action_model._continuous_distribution.mu.weight f4 [3, 128]
0	0x3e131c87	0.14366351
1	0x3e305e20	0.17223406
2	0x3e331454	0.17488223
3	0x3decbd84	0.11559585
4	0x3d5c3a10	0.05376631
5	0x3e156ef7	0.14593111
6	0x3dfddec1	0.123960026
7	0x3e13e531	0.14442898
8	0x3dab1c45	0.08355001
9	0x3db852ec	0.09000191
10	0x3e060d6d	0.13091059
11	0x3cc68805	0.024234781
12	0x3e0d5d10	0.13805032
13	0x3db064d5	0.08612982
14	0x3cdcf272	0.026971076
15	0x3e22425c	0.15845627
16	0x3e36fb38	0.1786927
17	0x3df51ab2	0.11967982
18	0x3df235ca	0.11826666
19	0x3d927ec8	0.07153088
20	0x3d9c09bc	0.07619044
21	0xbd89b14f	-0.06723272
22	0x3dc062cc	0.09393844
23	0x3db83ac0	0.08995581
24	0xbbbf31ec	-0.0058348086
25	0x3e0d372d	0.13790579
26	0x3def4fec	0.11685166
27	0x3ded13df	0.11576056
28	0x3e17a1ab	0.14807765
29	0x3e3819c9	0.17978586
30	0x3e33aeb9	0.1754712
31	0x3e0953da	0.13410893
32	0x3e05c192	0.13062122
33	0x3e409fc2	0.18810943
34	0x3e19ebbc	0.15031332
35	0xbda952a2	-0.08267714
36	0x3ded0bc8	0.11574513
37	0x3d359b9b	0.04433785
38	0x3e1513e7	0.14558373
39	0x3e188333	0.14893799
40	0x3e161c76	0.14659294
41	0x3d6dac86	0.05802586
42	0x3e1df811	0.15426661
43	0x3d250a82	0.040293224
44	0x3e062a09	0.13101973
45	0x3dad1912	0.084520474
46	0x3ddbc39f	0.10730671
47	0x3d502e09	0.050825153
48	0x3df43208	0.11923605
49	0x3e33dd3f	0.17564867
50	0x3e2a8bec	0.16654938
51	0x3e0d0e0c	0.1377489
52	0x3ddf5807	0.10905462
53	0x3e16f29d	0.14740987
54	0x3d7995c8	0.06093386
55	0x3e2ab856	0.16671881
56	0x3e0499f3	0.12949352
57	0xbdca915d	-0.09891007
58	0xbce22108	-0.027603641
59	0x3d89379d	0.067000605
60	0x3dac5e1b	0.08416387
61	0x3dff90d1	0.124787934
62	0x3e02f73f	0.1278963
63	0xbdb5f317	-0.08884256
64	0x3e3564f6	0.17714295
65	0x3dd19a98	0.102345645
66	0x3d34162a	0.04396645
67	0x3dbf08f3	0.09327879
68	0x3e2ff629	0.17183746
69	0x3e13a7c2	0.14419463
70	0x3e12486d	0.1428544
71	0x3dc63c72	0.09679498
72	0x3df5c304	0.12000087
73	0xbd78e5c5	-0.060766
74	0x3e34aa44	0.17643076
75	0x3dc9f2ff	0.09860801
76	0x3ddfa589	0.10920245
77	0x3d55ab6c	0.052165434
78	0x3e0ab380	0.13545036
79	0x3dfc9b42	0.123343006
80	0x3e069b6f	0.1314523
81	0x3e31b255	0.17353185
82	0x3da5e519	0.081003375
83	0xbcadf1c4	-0.021233447
84	0xbd09a1cf	-0.03360158
85	0xbdc472ba	-0.09592195
86	0x3db7ce5c	0.08974907
87	0x3db2e919	0.08735866
88	0x3dce800c	0.10083017
89	0x3d862676	0.065503046
90	0x3dafcdb3	0.08584156
91	0x3d2a4f2c	0.04157941
92	0x3e4cdd0e	0.200062
93	0xbcb1fc48	-0.021726742
94	0x3e14e42a	0.14540163
95	0xbd8cd43f	-0.0687642
96	0x3e3fadd0	0.18718648
97	0x3e30f2e5	0.17280157
98	0x3e090264	0.13379818
99	0xbd8d7a99	-0.06908149
100	0xbdbba6b0	-0.091626525
101	0x3df515e7	0.11967068
102	0x3daff658	0.08591908
103	0x3daeed13	0.08541312
104	0x3dc567f9	0.09638972
105	0x3cb53c81	0.022123577
106	0x3e04b4ee	0.12959644
107	0xbd6c0bf6	-0.057628594
108	0x3e045536	0.1292313
109	0xbe05418a	-0.13013282
110	0x3ddaedad	0.10689864
111	0x3dc76dc5	0.09737734
112	0x3dec8bb6	0.11550085
113	0x3d78491d	0.0606166
114	0x3de5b3f4	0.11215964
115	0x3e3c0175	0.18359931
116	0x3de4576b	0.11149486
117	0x3d76e927	0.060280945
118	0x3e4f1cd4	0.20225841
119	0x3e29f3f9	0.16596974
120	0x3de77b45	0.11302809
121	0x3e596192	0.21228626
122	0x3e171b25	0.14756449
123	0x3dc1f767	0.094710164
124	0x3e234c0f	0.15946983
125	0x3e18abdd	0.1490931
126	0x3e30f20c	0.17279834
127	0x3e16f175	0.14740546
128	0xbde5d6b0	-0.11222589
129	0xbe465059	-0.19366588
130	0xbe05484c	-0.1301586
131	0xbe097a23	-0.13425498
132	0xbd12ae04	-0.035810485
133	0xbe206b39	-0.15665902
134	0xbe38e2a8	-0.18055212
135	0xbe322c62	-0.17399743
136	0xbe02f903	-0.12790303
137	0xbe15d4bd	-0.14631934
138	0xbde8f4d5	-0.11374823
139	0x3c107a38	0.008818202
140	0xbd580024	-0.05273451
141	0xbdf0f157	-0.11764782
142	0xbd3c6b0c	-0.046000525
143	0xbe27c0e4	-0.16382176
144	0xbe310e0d	-0.17290516
145	0xbe03f863	-0.12887721
146	0xbe0d0eee	-0.13775226
147	0xbd806509	-0.06269271
148	0xbc997aa8	-0.018735245
149	0x3e16ed33	0.14738922
150	0xbdd7fd59	-0.10546369
151	0xbe16be70	-0.14721084
152	0xbcdcb00e	-0.026939418
153	0x3d9cc35e	0.07654451
154	0xbd8446dd	-0.064588286
155	0xbe333a98	-0.1750282
156	0xbe14b624	-0.14522606
157	0xbe42a66d	-0.19008799
158	0xbe3657a7	-0.17806874
159	0xbe21a996	-0.15787348
160	0xbdff4047	-0.12463432
161	0xbe5ae49e	-0.21376273
162	0xbdb3782c	-0.08763155
163	0x3df46775	0.11933795
164	0xbdbb691e	-0.09150909
165	0xbe12caa8	-0.1433512
166	0xbe60b111	-0.21942545
167	0xbe68d492	-0.22737339
168	0x3d0bc51e	0.034123532
169	0xbb5f2082	-0.0034046476
170	0xbe3aa662	-0.18227533
171	0x3c859bf1	0.01630971
172	0xbce43908	-0.027859226
173	0xbd99e023	-0.07513454
174	0xbddccaca	-0.107808664
175	0xbbfa09dc	-0.00763057
176	0xbe22f484	-0.15913588
177	0xbe209f63	-0.15685801
178	0xbe2cc356	-0.1687139
179	0xbdd72779	-0.10505576
180	0xbd08b4aa	-0.03337542
181	0xbe008be3	-0.12553363
182	0xbdd44d87	-0.1036635
183	0xbe43e501	-0.19130327
184	0xbdd816c8	-0.1055122
185	0xbe23cd97	-0.15996395
186	0xbcea076a	-0.028567988
187	0xbd77c22d	-0.060487915
188	0x3d4f1172	0.050553747
189	0xbe4fec8f	-0.20305084
190	0xbd96682a	-0.073440865
191	0x3dd0bf98	0.101927936
192	0xbe2c0768	-0.167997
193	0xbc5409e7	-0.012941814
194	0xbd829645	-0.06376318
195	0xbe7c8d38	-0.24663246
196	0xbdbf77ac	-0.093489975
197	0xbe3918e8	-0.18075907
198	0xbdf0329a	-0.117284015
199	0xbdf6e3a6	-0.12055139
200	0xbe230a32	-0.15921858
201	0x3d433d96	0.047666155
202	0xbe2125fe	-0.15737149
203	0xbd6e3745	-0.058158178
204	0xbdea5470	-0.114418864
205	0x3d3cc8c2	0.046089895
206	0xbe06ecde	-0.13176295
207	0xbe294897	-0.16531597
208	0xbe11b966	-0.1423088
209	0xbe27305c	-0.16327041
210	0xbb7b5a6f	-0.0038353463
211	0x3df916b2	0.12162532
212	0xbdddb9fa	-0.10826488
213	0x3dc348d1	0.09535373
214	0x3d2b4bf0	0.041820467
215	0xbe02c74b	-0.12771337
216	0x3dbbf3d0	0.09177363
217	0xbc995526	-0.01871736
218	0xbdeb63b2	-0.11493625
219	0xbc671ee2	-0.014106484
220	0xbd8eaec5	-0.069669284
221	0x3d927b1b	0.07152387
222	0xbe1ae7e5	-0.15127523
223	0x3d9c1592	0.07621302
224	0xbe294191	-0.16528918
225	0xbdaefc3e	-0.08544205
226	0xbe667fb1	-0.22509648
227	0x3d763712	0.060111113
228	0x3dcc7f28	0.09985191
229	0xbdff3029	-0.12460358
230	0xbd2b314b	-0.041795056
231	0xbd00c5e5	-0.031438727
232	0xbd9fe45d	-0.07807229
233	0x3d031af9	0.032008145
234	0xbdfb5655	-0.12272326
235	0x3db06f07	0.08614927
236	0xbe2313d3	-0.15925531
237	0xbe2e2004	-0.170044
238	0xbde02836	-0.1094517
239	0xbd2924bd	-0.041294802
240	0xbd84f9f3	-0.064929865
241	0xbe2c12d5	-0.16804059
242	0xbcb1b996	-0.02169494
243	0xbe32e4c9	-0.17470087
244	0xbcf201d2	-0.029541884
245	0x3de24161	0.11047626
246	0xbe688b0c	-0.22709292
247	0xbe00f9ff	-0.12595366
248	0xbda7c2d8	-0.0819146
249	0xbe2f7fd7	-0.17138611
250	0xbe2c6fc5	-0.16839512
251	0xbe5f061e	-0.21779677
252	0xbdeea67f	-0.1165285
253	0xbe1f9404	-0.15583807
254	0xbe220bdf	-0.15824841
255	0xbdc0dcd1	-0.094171174

action_model._continuous_distribution.mu.bias f4 [3]
0	0xbe78660e	-0.24257681
1	0x3e65f8fe	0.22458264
2	0xbe2ab43e	-0.1667032

action_model._discrete_distribution.branches.0.weight f4 [2, 128]
0	0x3d29fa59	0.041498516
1	0xbe499284	-0.19684798
2	0xbe85d58e	-0.26139492
3	0x3e165f0f	0.146847
4	0x3f10684e	0.56409156
5	0xbd92d6bb	-0.07169863
6	0xbde0fde9	-0.109859295
7	0xbd3ee42a	-0.046604313
8	0x3e61c8e1	0.22049285
9	0x3daba791	0.0838157
10	0x3e9d77bc	0.30755413
11	0xbe13fe0a	-0.14452377
12	0xbd21fc03	-0.039546978
13	0x3dc1c665	0.09461669
14	0xbf353b63	-0.7079374
15	0x3d16e556	0.036839806
16	0x3da03fb4	0.078246504
17	0xbd0974dd	-0.033558715
18	0x3d8681b0	0.06567705
19	0xbcc56162	-0.024094287
20	0x3e7eddfd	0.2488937
21	0x3db3650e	0.08759509
22	0x3d857759	0.065169044
23	0xbe959488	-0.29214883
24	0xbd396304	-0.045260444
25	0x3e5b4d69	0.21416248
26	0x3e8fed7c	0.28110874
27	0x3c8f84d1	0.017519386
28	0xbe0d1e6e	-0.13781139
29	0x3d24b0df	0.04020774
30	0xbce8b973	-0.028408742
31	0x3e35c6a3	0.17751555
32	0x3c106a12	0.008814352
33	0x3d2df067	0.042465594
34	0x3dd68811	0.10475171
35	0xbea1948f	-0.31558654
36	0x3e17b658	0.14815652
37	0x3d8ded7b	0.069300614
38	0x3daa324b	0.08310374
39	0x3b975e68	0.0046194084
40	0xbdc9709f	-0.09835934
41	0xbec1e1c9	-0.37867573
42	0xbccf3ca3	-0.025297469
43	0xbed20fe5	-0.41027752
44	0xbe4a6c0b	-0.19767778
45	0x3f038541	0.51375204
46	0x3e6df82d	0.23239203
47	0xbe7af581	-0.24507715
48	0xbe30c3e3	-0.17262225
49	0xbd0e296c	-0.03470747
50	0xbe2946c7	-0.16530906
51	0x3e8124d3	0.25223407
52	0xbd1d923a	-0.03846953
53	0x3df008f3	0.11720457
54	0xbeb6af80	-0.3568077
55	0x3dd64c19	0.10463733
56	0x3edc82bc	0.43068492
57	0xbe9bb9c1	-0.30415156
58	0x3e5dae4e	0.21648523
59	0x3d9ebd9c	0.07751009
60	0x3e3d3bee	0.18479893
61	0x3cfd9b24	0.030957766
62	0xbec3533b	-0.38149437
63	0xbe8a77bb	-0.27044472
64	0xbd8b7a39	-0.068104215
65	0xbe152f64	-0.1456886
66	0x3c87e83a	0.016590226
67	0xbe9b5c6c	-0.3034395
68	0x3d9bcec3	0.07607796
69	0xbbe832e9	-0.007086147
70	0xbe489802	-0.19589236
71	0xbe63e341	-0.22254659
72	0xbc8c8e85	-0.017157802
73	0xbd96347a	-0.07334228
74	0x3d866a63	0.065632604
75	0xbdeae2f2	-0.11469068
76	0x3e1c7c74	0.1528185
77	0xbdc6a920	-0.09700227
78	0xbe5532b8	-0.20820129
79	0x3d7e2c02	0.062053688
80	0x3e12cf4c	0.1433689
81	0xbe7fc0aa	-0.2497584
82	0x3e7648a9	0.24051155
83	0x3ea197ae	0.31561035
84	0xbe877ca4	-0.2646228
85	0xbd32e432	-0.043674655
86	0xbc5fb330	-0.0136535615
87	0x3e8245d0	0.25443888
88	0xbddf4894	-0.10902515
89	0x3e0defdd	0.13861032
90	0x3e1c1cd7	0.15245377
91	0x3e584b4e	0.21122476
92	0xbe80517e	-0.25062174
93	0xbe0439e7	-0.12912713
94	0xbdba7a04	-0.09105304
95	0xbc29ee0e	-0.010371698
96	0x3d27470f	0.04083925
97	0x3d6b4caa	0.05744616
98	0xbd25a846	-0.04044368
99	0xbdc354d8	-0.09537667
100	0x3b032741	0.002001241
101	0x3e8a8af9	0.27059153
102	0xbcc35683	-0.023844963
103	0x3eef4c14	0.4673773
104	0xbe27f2bd	-0.16401191
105	0x3d11563c	0.03548263
106	0x3e043a41	0.12912847
107	0xbea18567	-0.3154709
108	0xbe5cab2c	-0.21549672
109	0xbe9521b1	-0.29127267
110	0x3e6a5dd5	0.22887357
111	0x3bac4d9c	0.005258275
112	0x3d57d38e	0.05269199
113	0x3e22501d	0.15850873
114	0x3d74f592	0.059804507
115	0x3d08b772	0.033378072
116	0x3dbdbd25	0.09264592
117	0x3edbceae	0.42931122
118	0xbd54a118	-0.051911443
119	0xbe2090c5	-0.15680225
120	0x3e434c28	0.1907202
121	0xbca4e4dd	-0.020128662
122	0xbe1ed1df	-0.15509747
123	0xbe92848b	-0.28616747
124	0x3dd35b08	0.10320097
125	0x3e66d88a	0.2254354
126	0xbdd02ea0	-0.10165143
127	0xbe18122f	-0.14850686
128	0xbd2dc7fe	-0.042427056
129	0x3e4ca458	0.19984567
130	0x3e85e4e1	0.26151183
131	0xbe0ef307	-0.13959895
132	0xbf0cfa0a	-0.5506903
133	0x3db0ba96	0.086293384
134	0x3dba3319	0.09091777
135	0x3d204841	0.039131407
136	0xbe62976a	-0.22128072
137	0xbd9f73dd	-0.07785771
138	0xbea2cc4a	-0.31796485
139	0x3e07c02b	0.132569
140	0x3d528852	0.051399536
141	0xbdafcc0c	-0.08583841
142	0x3f37df97	0.71825546
143	0xbce5b193	-0.028038776
144	0xbd97b727	-0.074079804
145	0x3d03326b	0.032030504
146	0xbd8ca9d1	-0.068683274
147	0x3d0c9e04	0.034330383
148	0xbe6e7a1c	-0.23288769
149	0xbdb3e59f	-0.08784031
150	0xbd32bed0	-0.043639004
151	0x3e98e726	0.29863852
152	0x3d397279	0.045275185
153	0xbe5c8b47	-0.21537505
154	0xbe968dbd	-0.29405013
155	0xbcb05ec5	-0.021529565
156	0x3e05eeab	0.13079326
157	0xbd289d4c	-0.041165635
158	0x3cff8b13	0.031194245
159	0xbe37da72	-0.17954424
160	0xbc31254b	-0.010812114
161	0xbd34f5d5	-0.044179756
162	0xbde0be9d	-0.109738566
163	0x3e9726c8	0.29521775
164	0xbe1aa139	-0.15100564
165	0xbdd28a06	-0.10280232
166	0xbdd6fdaa	-0.10497601
167	0x3a9a7562	0.001178425
168	0x3de45708	0.111494124
169	0x3ec9d273	0.39418373
170	0x3c8b5525	0.017008374
171	0x3ed91e28	0.4240582
172	0x3e3f2d25	0.18669565
173	0xbf055c05	-0.52093536
174	0xbe55f164	-0.20892864
175	0x3e6cc598	0.23122251
176	0x3e2ca756	0.16860709
177	0x3d669831	0.056297485
178	0x3e2f8584	0.17140776
179	0xbe81314c	-0.25232923
180	0x3d299cc4	0.04140927
181	0xbe032884	-0.12808424
182	0x3eb0bb31	0.34517816
183	0xbddde8f3	-0.10835447
184	0xbede29a5	-0.43391147
185	0x3e97aad1	0.2962251
186	0xbe6fbcef	-0.23411916
187	0xbdac7819	-0.08421344
188	0xbe40b468	-0.1881882
189	0xbd998423	-0.07495906
190	0x3eba35ce	0.36369175
191	0x3e8afe4f	0.27147147
192	0x3d91373a	0.07090612
193	0x3e02d1d0	0.1277535
194	0xbcf7a76a	-0.030231196
195	0x3e93cf1d	0.28868952
196	0xbd7c5481	-0.061604027
197	0x3c92fcec	0.017942868
198	0x3e502baf	0.20329164
199	0x3e779e5a	0.241815
200	0x3bbe5b09	0.005809192
201	0x3d4c89a4	0.04993595
202	0xbd8c82c6	-0.068608806
203	0x3e00f04f	0.1259167
204	0xbe1c733b	-0.15278332
205	0x3dc6d419	0.09708423
206	0x3e5b07ef	0.21389745
207	0xbd8cb83b	-0.06871077
208	0xbe15be3e	-0.14623353
209	0x3e798be2	0.24369767
210	0xbe8080ca	-0.25098258
211	0xbe988b04	-0.2979356
212	0x3e8326a3	0.25615415
213	0x3d50e946	0.051003717
214	0x3b517316	0.0031959466
215	0xbe75cb8a	-0.24003425
216	0x3dfaefd3	0.12252774
217	0xbe289828	-0.16464293
218	0xbe220333	-0.15821533
219	0xbe64df65	-0.22350843
220	0x3e78d887	0.24301349
221	0x3e076aef	0.13224386
222	0x3d998f95	0.07498089
223	0x3cb6c1c2	0.022309188
224	0xbd4e63e9	-0.05038825
225	0xbd8a3807	-0.067489676
226	0x3ccd2011	0.025039705
227	0x3db9910b	0.09060868
228	0x3c8cda22	0.017193858
229	0xbe85bd91	-0.2612119
230	0x3cba7888	0.022762552
231	0xbeeab55a	-0.45841485
232	0x3e17ef36	0.14837345
233	0xbcd2fb94	-0.025754727
234	0xbdab2431	-0.08356512
235	0x3e9e5c47	0.30929777
236	0x3e51e0be	0.20495889
237	0x3e95e0f4	0.29273188
238	0xbe73404a	-0.23754993
239	0xbd04884f	-0.032356557
240	0xbd5229f8	-0.051309556
241	0xbe0af143	-0.13568597
242	0xbd873fc8	-0.06603962
243	0xbd1f2698	-0.038855165
244	0xbd9d41bd	-0.07678554
245	0xbee28020	-0.44238377
246	0x3d784a5e	0.060617797
247	0x3e21c22b	0.15796725
248	0xbe4a413a	-0.19751444
249	0x3c4dec0d	0.012568486
250	0x3e22b349	0.15888704
251	0x3e8316f0	0.25603437
252	0xbddf843e	-0.10913895
253	0xbe7f5ffe	-0.24938962
254	0x3de7fe39	0.11327786
255	0x3e0b39ee	0.13596317

action_model._discrete_distribution.branches.0.bias f4 [2]
0	0xbd212569	-0.039342318
1	0x3d3971cc	0.04527454

action_model._discrete_distribution.branches.1.weight f4 [2, 128]
0	0x3e85e993	0.26154765
1	0x3ebf8777	0.3740804
2	0x3df71cca	0.12066038
3	0x3eec5373	0.46157417
4	0xbdad74b3	-0.08469524
5	0x3edd1cbe	0.4318599
6	0x3eb45a7c	0.35225284
7	0x3df24326	0.11829214
8	0xbd27c172	-0.04095597
9	0xbd85b87c	-0.06529328
10	0x3e0f527c	0.13996309
11	0xbd26acc1	-0.040692095
12	0x3e7f824b	0.24952047
13	0xbdea4c3b	-0.11440321
14	0x3c3dd496	0.011586329
15	0x3e7ad3c5	0.24494846
16	0x3e31f735	0.17379458
17	0x3ed8acc4	0.4231931
18	0x3d1949b7	0.037423816
19	0xbb9ee1f2	-0.004848712
20	0xbeb5b928	-0.35492826
21	0xbe598341	-0.21241476
22	0xbe970029	-0.2949231
23	0x3ebd1771	0.36931947
24	0xbe6d04d1	-0.23146369
25	0x3c55f834	0.0130596645
26	0xbda3a7b4	-0.07990971
27	0x3e9a5fc4	0.30151188
28	0x3eba01fe	0.36329645
29	0x3dfc93f0	0.12332904
30	0x3e9b0980	0.30280685
31	0x3e2bd556	0.167806
32	0x3e1a7b26	0.1508604
33	0x3e3fd5cc	0.18733901
34	0x3dee2652	0.11628403
35	0xbdea39f7	-0.11436837
36	0x3e91c7c2	0.28472716
37	0x3d3895af	0.045064624
38	0x3ec31ace	0.38106388
39	0x3d1318a1	0.03591216
40	0x3e84c270	0.25929594
41	0x3e56672a	0.20937791
42	0x3db97547	0.09055572
43	0x3e6348ab	0.2219569
44	0x3d6eb164	0.05827464
45	0x3d254982	0.040353306
46	0x3cafe2f4	0.021470524
47	0x3d2ee7b2	0.04270143
48	0x3dadd9ef	0.08488833
49	0x3e824480	0.25442886
50	0x3e4c59cc	0.1995613
51	0x3ec4657f	0.38358685
52	0x3d393b08	0.045222312
53	0x3d52ca4a	0.05146245
54	0x3ec7c1f7	0.3901517
55	0x3ced2c20	0.028951705
56	0x3d375935	0.04476281
57	0x3e5fcabe	0.21854684
58	0xbd7734bd	-0.06035303
59	0xbd7ee464	-0.06222953
60	0x3d8d36ad	0.06895194
61	0x3dd9ff44	0.10644391
62	0xbd8b33c0	-0.0679698
63	0xbb94b416	-0.0045380695
64	0x3ead4e31	0.33848718
65	0x3ec707a2	0.3887301
66	0xbe28a665	-0.16469724
67	0xbd1bf786	-0.038077854
68	0x3e90ab6c	0.28255785
69	0x3e96b830	0.294374
70	0x3e6c201d	0.23059125
71	0x3f0255cd	0.5091217
72	0x3ddbe6ba	0.10737367
73	0xbd1e18da	-0.03859792
74	0x3df1a6a7	0.117993645
75	0x3e8c3173	0.27381477
76	0xbdcc3ceb	-0.09972557
77	0x3d7f607f	0.062347885
78	0x3bb0fb1e	0.0054010293
79	0x3e63e7b7	0.22256361
80	0x3e61c2f8	0.22047031
81	0x3e93a662	0.28837878
82	0xbe7f11c3	-0.2490912
83	0xbe5a48d9	-0.21316852
84	0x3eb33e02	0.35008246
85	0xbe1aa665	-0.15102537
86	0x3eadd051	0.33947995
87	0xbc4369d8	-0.011927091
88	0xbd41abf3	-0.047283124
89	0xbd5da7bf	-0.054115053
90	0xbe45a0ad	-0.19299574
91	0x3d01c0a7	0.03167787
92	0x3e77ad3f	0.24187182
93	0xbf06c9c1	-0.526516
94	0x3e842a7e	0.2581367
95	0xbde7011a	-0.11279507
96	0x3e81f23a	0.25380117
97	0x3e96b473	0.29434547
98	0x3e548ff1	0.20758034
99	0xbe8e90db	-0.2784489
100	0xbdd68ccc	-0.104760736
101	0x3ed7e98d	0.42170373
102	0x3d817c92	0.06322588
103	0xbe76e305	-0.24110039
104	0x3ea5c750	0.32378626
105	0xbd83e463	-0.06440046
106	0x3dd6b6b4	0.104840666
107	0x3dcf6234	0.10126153
108	0x3e195302	0.14973071
109	0x3de3bbdd	0.111198165
110	0x3e0801c2	0.1328192
111	0x3e07b70c	0.1325342
112	0x3d3bafaf	0.04582184
113	0x3e61a433	0.22035293
114	0xbd3bf6a2	-0.045889504
115	0x3e3ecfc0	0.18633938
116	0x3e1c4f1e	0.15264556
117	0xbd6ce767	-0.05783787
118	0x3e667fac	0.2250964
119	0x3efb98d8	0.49140048
120	0xbdea2087	-0.11431985
121	0x3ef5e233	0.4802414
122	0x3e40f182	0.18842128
123	0x3e7e8cde	0.24858424
124	0x3e880faf	0.26574466
125	0x3e39484a	0.18093982
126	0x3e5f6b5b	0.21818297
127	0x3ef56804	0.4793092
128	0xbe8395de	-0.25700277
129	0xbec00b50	-0.3750863
130	0xbe0f1e8b	-0.13976495
131	0xbef66dd9	-0.48130682
132	0x3dadf54d	0.08494053
133	0xbedfeea0	-0.43736744
134	0xbeb0730b	-0.3446277
135	0xbde64974	-0.11244479
136	0x3cfd59c8	0.0309266
137	0x3d664f18	0.056227773
138	0xbe0a1314	-0.1348384
139	0x3d6c53ad	0.057696987
140	0xbe761f41	-0.2403536
141	0x3e01ab2b	0.12662952
142	0xbc19abda	-0.0093793515
143	0xbe7638df	-0.24045132
144	0xbe35eb31	-0.177655
145	0xbed21f86	-0.41039675
146	0xbca7735c	-0.02044075
147	0xbb648963	-0.0034871928
148	0x3ebf97a2	0.37420374
149	0x3e6b16e2	0.22957948
150	0x3e9ccd2d	0.30625287
151	0xbeb815e4	-0.359542
152	0x3e7d24b2	0.2472103
153	0xbc0573f9	-0.008145326
154	0x3da25ae1	0.0792749
155	0xbea6bac1	-0.32564357
156	0xbeb4e890	-0.3533368
157	0xbe0f5c1b	-0.13999979
158	0xbe999e36	-0.30003518
159	0xbe34f87b	-0.17672913
160	0xbe0e3728	-0.13888228
161	0xbe43ddfd	-0.1912765
162	0xbdc742b9	-0.09729523
163	0x3e037813	0.12838773
164	0xbe94f18d	-0.2909054
165	0xbd986817	-0.074417286
166	0xbec4c080	-0.38428116
167	0xbcfb6bf1	-0.030691119
168	0xbe7c37e4	-0.24630696
169	0xbe5ec7d2	-0.21755913
170	0xbdb99ddd	-0.09063313
171	0xbe68935e	-0.22712466
172	0xbd6e26ce	-0.058142476
173	0xbd81da09	-0.06340415
174	0xbbdb4276	-0.0066912724
175	0xbd7db6b1	-0.061941806
176	0xbdaf0746	-0.08546309
177	0xbe7805bd	-0.24220939
178	0xbe462928	-0.19351637
179	0xbebbb603	-0.366623
180	0xbd2660cd	-0.04061966
181	0xbd5ea80c	-0.05435948
182	0xbec500c0	-0.38477135
183	0xbcad0abc	-0.021123283
184	0xbd27d98e	-0.04097896
185	0xbe581eb7	-0.21105467
186	0x3d6a4610	0.057195723
187	0x3d782419	0.0605813
188	0xbd935c29	-0.071953125
189	0xbdee3d56	-0.11632793
190	0x3d90bfbc	0.070678204
191	0x3cb8c308	0.022553936
192	0xbeb48a0f	-0.3526158
193	0xbec66882	-0.38751608
194	0x3e3e86d5	0.18606122
195	0x3c480fc7	0.012210793
196	0xbe8b045c	-0.27151763
197	0xbe952e74	-0.29137003
198	0xbe6e0f58	-0.2324804
199	0xbf004866	-0.5011047
200	0xbddd7ff9	-0.108154245
201	0x3cb80b7f	0.02246642
202	0xbdffb479	-0.12485594
203	0xbe88bd76	-0.26707047
204	0x3d90d93e	0.07072686
205	0xbd44496f	-0.047921594
206	0xbc023135	-0.007946302
207	0xbe6e05d1	-0.23244406
208	0xbe7dffed	-0.24804659
209	0xbe9bf1b6	-0.30457848
210	0x3e8661c2	0.26246458
211	0x3e66ae94	0.22527534
212	0xbeb107d1	-0.34576276
213	0x3e283124	0.16424996
214	0xbeaf8f88	-0.34289193
215	0xbb450ac0	-0.0030066222
216	0x3d7ae8f9	0.061257336
217	0x3d878cfe	0.06618689
218	0x3e2c510c	0.16827792
219	0xbd21a24a	-0.03946141
220	0xbe6f085c	-0.23343033
221	0x3f07ac9c	0.52997756
222	0xbe8027f8	-0.25030494
223	0x3ddf1c1d	0.10894034
224	0xbe84c35a	-0.2593029
225	0xbe8cb947	-0.27485105
226	0xbe681ec9	-0.22667994
227	0x3e93fc4c	0.28903425
228	0x3dfa7c6f	0.12230765
229	0xbedb4543	-0.4282628
230	0xbd8c52a0	-0.06851697
231	0x3e613018	0.21991003
232	0xbe9d2e01	-0.3069916
233	0x3d4089a0	0.04700625
234	0xbdc5a199	-0.09649963
235	0xbdd37238	-0.1032452
236	0xbe2361c5	-0.15955265
237	0xbdec7707	-0.1154614
238	0xbe1246ca	-0.14284816
239	0xbde837a7	-0.1133874
240	0xbd13f95d	-0.036126483
241	0xbe58b19c	-0.21161503
242	0x3d4129db	0.047159057
243	0xbe3925af	-0.18080781
244	0xbe101cb5	-0.14073451
245	0x3d9976f6	0.07493393
246	0xbe74d691	-0.23909976
247	0xbef02f86	-0.46911258
248	0x3dbd4e6a	0.09243472
249	0xbee8ca7c	-0.45466983
250	0xbe3d2e10	-0.18474603
251	0xbe782164	-0.24231488
252	0xbe8df312	-0.2772451
253	0xbe404e90	-0.18779969
254	0xbe4e60fe	-0.20154187
255	0xbeeb3183	-0.45936212

action_model._discrete_distribution.branches.1.bias f4 [2]
0	0xbe3f6c2c	-0.18693608
1	0x3e4045a0	0.1877656

exp_avg f4 [128, 53]
0	0xb856db31	-5.1225714e-05
1	0x00000004	6e-45
2	0x80000004	-6e-45
3	0x39dd69e3	0.00042231297
4	0x39db65e2	0.00041846844
5	0xb7ab8dc2	-2.04508e-05
6	0x00000004	6e-45
7	0x80000004	-6e-45
8	0x39cd3a67	0.0003914416
9	0x39ccaf68	0.000390406
10	0xb8f6b376	-0.00011763621
11	0x80000004	-6e-45
12	0x80000004	-6e-45
13	0x39e1ddda	0.00043080637
14	0x39e2d3c7	0.00043263866
15	0xb77a457d	-1.491734e-05
16	0x00000004	6e-45
17	0x00000004	6e-45
18	0x39c11926	0.00036830566
19	0x39c137de	0.00036853453
20	0x3803c29b	3.1414074e-05
21	0x80000004	-6e-45
22	0x00000004	6e-45
23	0x39b0f97e	0.00033755222
24	0x39b0ddf1	0.00033734695
25	0x38f245e0	0.000115524745
26	0x80000004	-6e-45
27	0x00000004	6e-45
28	0x39998784	0.000292834
29	0x3997f494	0.0002898319
30	0xb725f1d3	-9.8910705e-06
31	0x00000004	6e-45
32	0x80000004	-6e-45
33	0x39c6c663	0.00037913313
34	0x39c6b8b3	0.00037903115
35	0x379b9045	1.854462e-05
36	0x00000000	0.0
37	0x80000004	-6e-45
38	0x39b76f1b	0.0003498726
39	0x39b77260	0.00034989696
40	0x3527bd60	6.2487925e-07
41	0x80000004	-6e-45
42	0x00000004	6e-45
43	0x39c0d449	0.00036779259
44	0x39c0d467	0.00036779346
45	0xb874229c	-5.8206366e-05
46	0xbac27d3d	-0.0014838349
47	0x3a29f66b	0.00064835575
48	0xba271a2d	-0.0006374445
49	0x39c12825	0.0003684174
50	0x00000000	0.0
51	0x3b9339f9	0.004492995
52	0x3aa0778c	0.0012242659
53	0xb70f9203	-8.55746e-06
54	0x00000004	6e-45
55	0x80000004	-6e-45
56	0xb7480775	-1.1922665e-05
57	0xb74709a5	-1.186357e-05
58	0xb719624d	-9.142398e-06
59	0x00000004	6e-45
60	0x00000004	6e-45
61	0xb73e7e25	-1.1354253e-05
62	0xb73b523d	-1.1165216e-05
63	0x37d0d8ec	2.4896544e-05
64	0x00000004	6e-45
65	0x80000004	-6e-45
66	0xb85b0edd	-5.222751e-05
67	0xb858dcd5	-5.170408e-05
68	0xb7913766	-1.7311144e-05
69	0x00000004	6e-45
70	0x00000004	6e-45
71	0xb67347b5	-3.625156e-06
72	0xb663b475	-3.3930676e-06
73	0x3746e93d	1.1856025e-05
74	0x80000004	-6e-45
75	0x00000004	6e-45
76	0xb7d0767b	-2.4850704e-05
77	0xb7d0e97b	-2.4904255e-05
78	0xb84b78da	-4.8511523e-05
79	0x00000004	6e-45
80	0x00000004	6e-45
81	0x382f5af1	4.1807947e-05
82	0x382cbf6b	4.1186267e-05
83	0x352c86a3	6.4270915e-07
84	0x00000004	6e-45
85	0x00000004	6e-45
86	0xb7645ea5	-1.3611895e-05
87	0xb764e81d	-1.3643902e-05
88	0xb7348a51	-1.076104e-05
89	0x00000000	0.0
90	0x00000004	6e-45
91	0xb61bced5	-2.3217192e-06
92	0xb61b6e55	-2.3161022e-06
93	0x369af733	4.6183354e-06
94	0x00000004	6e-45
95	0x00000004	6e-45
96	0xb7947cd7	-1.7701108e-05
97	0xb7946787	-1.7691184e-05
98	0xb8e898c0	-0.00011091074
99	0xb92793a0	-0.00015981356
100	0xb7896113	-1.6376876e-05
101	0xb83b9330	-4.4721353e-05
102	0xb75b7e15	-1.3082773e-05
103	0x00000000	0.0
104	0xb96489c4	-0.00021795096
105	0xb8829247	-6.226129e-05
106	0xb79d898b	-1.8779907e-05
107	0x00000004	6e-45
108	0x80000004	-6e-45
109	0xba347425	-0.0006883762
110	0xba34ac37	-0.0006892117
111	0xb78924a8	-1.6348742e-05
112	0x00000004	6e-45
113	0x80000004	-6e-45
114	0xba351c6b	-0.00069088367
115	0xba3519fd	-0.00069084746
116	0x3925e380	0.00015820377
117	0x80000004	-6e-45
118	0x80000004	-6e-45
119	0xba672be9	-0.0008818494
120	0xba6706c9	-0.0008812962
121	0xb893fe18	-7.056835e-05
122	0x80000004	-6e-45
123	0x00000004	6e-45
124	0xba277bc3	-0.00063889864
125	0xba278adb	-0.00063912355
126	0x3738f4f6	1.1024289e-05
127	0x00000004	6e-45
128	0x00000004	6e-45
129	0xba3ba9e5	-0.00071588
130	0xba3bac69	-0.0007159175
131	0xb9692e04	-0.00022237754
132	0x00000004	6e-45
133	0x80000004	-6e-45
134	0xb9f59dfb	-0.00046847746
135	0xb9f6703f	-0.00047004406
136	0xb6a0d153	-4.79274e-06
137	0x00000004	6e-45
138	0x80000004	-6e-45
139	0xba377ec3	-0.0006999785
140	0xba378255	-0.0007000317
141	0xb7b9c6fb	-2.2146376e-05
142	0x00000000	0.0
143	0x00000004	6e-45
144	0xba3302c5	-0.0006828721
145	0xba32ff43	-0.0006828198
146	0x37e1ec2f	2.6932072e-05
147	0x00000004	6e-45
148	0x00000004	6e-45
149	0xba3fe05f	-0.00073195057
150	0xba3fdc03	-0.0007318856
151	0xba99db59	-0.0011738344
152	0xbb067add	-0.002052001
153	0xba0ef95a	-0.00054540264
154	0xba78ae11	-0.0009486387
155	0xba38d0fd	-0.00070501846
156	0x00000000	0.0
157	0xbc0ac02d	-0.00846867
158	0xbac8fffa	-0.0015335076
159	0xb5da92ed	-1.6285027e-06
160	0x80000004	-6e-45
161	0x80000004	-6e-45
162	0x363bab66	2.7964938e-06
163	0x36383c86	2.7453366e-06
164	0xb5e84c85	-1.7307617e-06
165	0x80000004	-6e-45
166	0x80000004	-6e-45
167	0x364255b6	2.8958143e-06
168	0x363f5a12	2.8513646e-06
169	0x3685a613	3.9830425e-06
170	0x00000004	6e-45
171	0x80000004	-6e-45
172	0xb69362c7	-4.3924406e-06
173	0xb6920887	-4.352132e-06
174	0xb6b6d4af	-5.4487823e-06
175	0x80000004	-6e-45
176	0x00000004	6e-45
177	0x36e4a712	6.814379e-06
178	0x36e26398	6.746919e-06
179	0x35c2fd1f	1.4527794e-06
180	0x00000004	6e-45
181	0x80000004	-6e-45
182	0xb4e1334d	-4.1946842e-07
183	0xb4e5494d	-4.2707907e-07
184	0xb73aa7fe	-1.1125578e-05
185	0x00000004	6e-45
186	0x00000004	6e-45
187	0x376999d9	1.3923703e-05
188	0x3766d5bf	1.3758835e-05
189	0x34c137ca	3.5989643e-07
190	0x80000004	-6e-45
191	0x00000004	6e-45
192	0x3535f719	6.778733e-07
193	0x353487c9	6.725282e-07
194	0xb60f5eb0	-2.1363776e-06
195	0x00000000	0.0
196	0x80000004	-6e-45
197	0x3654288e	3.1614068e-06
198	0x365470c6	3.1656105e-06
199	0x35b0a3df	1.3160715e-06
200	0x80000004	-6e-45
201	0x80000004	-6e-45
202	0xb49c404d	-2.910405e-07
203	0xb49ac06d	-2.8824743e-07
204	0xb73211da	-1.0613783e-05
205	0xb72e680a	-1.0395432e-05
206	0xb619622d	-2.2855922e-06
207	0xb55fd78d	-8.338764e-07
208	0x358993dd	1.0250329e-06
209	0x00000000	0.0
210	0xb7baa3f2	-2.224927e-05
211	0xb7224f8d	-9.674474e-06
212	0xb5a77f3d	-1.2479501e-06
213	0x80000004	-6e-45
214	0x00000004	6e-45
215	0xb6913480	-4.3274486e-06
216	0xb6944468	-4.4187072e-06
217	0xb5e33f94	-1.6931322e-06
218	0x80000004	-6e-45
219	0x80000004	-6e-45
220	0xb6824b70	-3.883084e-06
221	0xb68535e0	-3.9699808e-06
222	0x360c1e95	2.0879427e-06
223	0x00000004	6e-45
224	0x00000004	6e-45
225	0xb72573f8	-9.8617675e-06
226	0xb724db4c	-9.826221e-06
227	0xb715cc06	-8.928595e-06
228	0x00000004	6e-45
229	0x00000004	6e-45
230	0x36735ba0	3.6263154e-06
231	0x3669b390	3.4824225e-06
232	0x3550c566	7.777329e-07
233	0x00000004	6e-45
234	0x00000004	6e-45
235	0xb6f8cb00	-7.4146083e-06
236	0xb6f91af8	-7.423918e-06
237	0xb7c315b1	-2.3255912e-05
238	0x00000004	6e-45
239	0x00000004	6e-45
240	0x37a01845	1.9084788e-05
241	0x379e1a51	1.8847322e-05
242	0xb220222d	-9.320996e-09
243	0x80000004	-6e-45
244	0x00000004	6e-45
245	0xb6de48b8	-6.624581e-06
246	0xb6de8660	-6.631759e-06
247	0xb6a2d409	-4.8526604e-06
248	0x00000000	0.0
249	0x80000004	-6e-45
250	0xb5f00c40	-1.7884959e-06
251	0xb5ef5960	-1.7832899e-06
252	0x360c2f72	2.0889242e-06
253	0x00000004	6e-45
254	0x00000004	6e-45
255	0xb7127760	-8.730072e-06
