VirtualAquarium/results/VirtualAquariumReproducao/VirtualAquarium/VirtualAquarium-4999938.pt (torch, 592639 bytes, 49 tensors)

discrete_act_size_vector f4 [1, 2]
0	0x40000000	2.0
1	0x40000000	2.0

network_body._body_endoder.seq_layers.0.weight f4 [128, 52]
0	0xbefaa9b1	-0.4895759
1	0xbd09ccc9	-0.033642564
2	0x3d2bc38f	0.041934546
3	0xbde2b011	-0.11068738
4	0xbd9d519b	-0.07681581
5	0x3d540592	0.051763125
6	0xbdb175e6	-0.086650655
7	0x3dd3c657	0.10340565
8	0x3e4717ca	0.19442669
9	0xbdb47041	-0.08810473
10	0x3bd53a7e	0.006507217
11	0xbe5bb93a	-0.21457377
12	0xbcc8a81b	-0.024494221
13	0x3d25c6e1	0.04047287
14	0xbe4f5b25	-0.20249613
15	0xbee93fac	-0.4555639
16	0xbe9121d4	-0.2834612
17	0x3e347497	0.176226
18	0x3e839bf5	0.25704923
19	0x3d21c1e7	0.03949156
20	0x3e5d40d8	0.21606767
21	0x3dd27de4	0.10277918
22	0xbc81065a	-0.015750099
23	0xbdf53540	-0.11973047
24	0x3e7aad2b	0.24480121
25	0xbed53249	-0.41639927
26	0xbcce2000	-0.025161743
27	0xbd51f300	-0.051257133
28	0xbe0029d2	-0.12515953
29	0x3d07999e	0.033105485
30	0xbd935223	-0.07193401
31	0x3e984e42	0.29747206
32	0xbdf43241	-0.11923648
33	0x3de18c80	0.110131264
34	0x3d25ce5b	0.04048
35	0xbef7b71d	-0.48381892
36	0x3c6e221f	0.014534502
37	0x3e01c12c	0.12671345
38	0x3dbefb9a	0.09325333
39	0x3e4bb388	0.19892704
40	0x3db12f0c	0.086515516
41	0xbe1fbdc9	-0.15599741
42	0xbd9e39a4	-0.07725838
43	0xbdea5b1c	-0.11443159
44	0x3c8948b1	0.016758295
45	0xbccf07bd	-0.025272245
46	0x3dc791dc	0.09744617
47	0xbec7c4ea	-0.3901742
48	0x3e8495f9	0.2589567
49	0xbe621d11	-0.220814
50	0xbe816796	-0.25274342
51	0x3c624c18	0.0138120875
52	0x3cc9f688	0.024653688
53	0xbe6ef181	-0.23334314
54	0xbe0f99d6	-0.14023528
55	0xbc6a2501	-0.014291049
56	0xbdf1c805	-0.11805729
57	0xbe845cb0	-0.25851965
58	0x3dbbb6b4	0.09165707
59	0x3d5beec1	0.05369449
60	0x3dd7338d	0.105078794
61	0x3d20b869	0.039238367
62	0x3d0137f3	0.031547498
63	0x3e9d878e	0.30767483
64	0x3e33d39b	0.1756119
65	0x3c535222	0.012898
66	0x3c7dc180	0.0154880285
67	0xbe5213be	-0.20515344
68	0xbd22fe2f	-0.03979319
69	0xbc4547ac	-0.012041014
70	0x3db6bab1	0.08922327
71	0x3e39f638	0.18160331
72	0xbdeb3589	-0.114848204
73	0xbcdb6ef6	-0.026786309
74	0xbd61ab85	-0.055095214
75	0x3e323686	0.17403612
76	0x3d4cc0e6	0.04998865
77	0xbdde2c16	-0.108482525
78	0xbe351c27	-0.1768652
79	0x3e97d6c0	0.2965603
80	0xbcbabae5	-0.022794196
81	0x3e58024f	0.2109463
82	0xbe35b88f	-0.17746185
83	0xbdd0a88f	-0.101884
84	0xbe1dd1fb	-0.15412132
85	0xbe3c5c51	-0.18394591
86	0xbe070f89	-0.1318952
87	0x3e5eab5c	0.21745056
88	0xbe52c711	-0.2058375
89	0x3e91d0ab	0.28479514
90	0x3e7b2882	0.24527171
91	0x3d9a93a4	0.075476915
92	0xbe742b62	-0.23844674
93	0x3ddba16b	0.107241474
94	0x3e11ba36	0.1423119
95	0xbd930fa9	-0.07180721
96	0xbd800db8	-0.06252617
97	0xbe72c356	-0.23707327
98	0x3cbb19ee	0.022839513
99	0xbee5934f	-0.4483895
100	0xbe012a5b	-0.12613814
101	0xbddebd7b	-0.10875984
102	0xbe2ac499	-0.16676559
103	0x3e09828d	0.13428707
104	0xbe151600	-0.14559174
105	0x3d8793bc	0.06619975
106	0xbddaf918	-0.10692042
107	0x3e0aa86d	0.13540812
108	0x3c862488	0.016374841
109	0x3b410e69	0.0029458052
110	0x3e48deb0	0.19616199
111	0x3dd3c143	0.10339596
112	0x3d99be78	0.07507032
113	0x3d9c397e	0.07628153
114	0xbd986cbf	-0.07442617
115	0xbbb7a09c	-0.005603863
116	0x3e66f5f6	0.22554764
117	0x3c53069e	0.012879996
118	0x3ebde1a6	0.3708622
119	0x3e4f5bd6	0.20249876
120	0xbddceaa4	-0.10786942
121	0x3e5780dd	0.21045251
122	0xbe10b7d1	-0.1413262
123	0xbe989c7f	-0.29806897
124	0xbdab7a88	-0.0837298
125	0x3dc7331b	0.097265445
126	0x3d99959c	0.07499239
127	0x3db7e63c	0.089794606
128	0xbe581de2	-0.2110515
129	0x3dfed6a3	0.124432825
130	0x3db7ed36	0.08980791
131	0xbd2bd251	-0.04194862
132	0xbe98ebce	-0.29867405
133	0xbf0d5e9a	-0.55222476
134	0x3dd5b09a	0.10434075
135	0x3df38d19	0.118921466
136	0x3d4d5764	0.05013217
137	0xbe5da907	-0.2164651
138	0xbda02d38	-0.07821125
139	0xbe07503e	-0.13214204
140	0xbeab66a9	-0.3347676
141	0xbb97ad40	-0.0046288073
142	0xbeacf45c	-0.3378018
143	0xbf1d079c	-0.61339736
144	0x3dcd160f	0.10013973
145	0xbd07d986	-0.03316643
146	0xbd946c81	-0.07247258
147	0xbe1e5fde	-0.15466258
148	0xbe2601b1	-0.16211583
149	0xbd50bab2	-0.050959297
150	0xbd8d2962	-0.06892659
151	0x3ccce07a	0.025009383
152	0xbdad6da0	-0.08468175
153	0xbe442ef8	-0.19158542
154	0xbde120c8	-0.10992581
155	0xbda69c69	-0.081353016
156	0x3e64c474	0.22340566
157	0x3d873cca	0.066033915
158	0xbd15ce3d	-0.036573637
159	0xbe9e5105	-0.30921188
160	0x3e27f0e6	0.16400489
161	0xbee70742	-0.45122725
162	0x3df47193	0.11935725
163	0xbdea46cf	-0.11439287
164	0xbcb219c4	-0.021740802
165	0xbd271756	-0.04079374
166	0x3ee7a2e7	0.45241472
167	0xbd8995fb	-0.0671806
168	0x3dd51c36	0.104057714
169	0x3dba27cc	0.09089622
170	0xbd6ea495	-0.058262426
171	0x3cb3e110	0.021957904
172	0x3dc396d7	0.09550255
173	0xbdfd7872	-0.12376489
174	0xbe39cdb2	-0.18144873
175	0xbd024fc9	-0.03181437
176	0xbdc6860d	-0.09693537
177	0x3de5ec9d	0.11226771
178	0x3e0ecb5b	0.13944761
179	0x3e85ce0b	0.2613376
180	0xbd9f2f76	-0.07772724
181	0x3e5a7188	0.21332371
182	0x3d73e527	0.05954471
183	0x3e2ece97	0.17070995
184	0x3e2a0167	0.16602097
185	0x3e118c6e	0.14213726
186	0x3d0ea7f5	0.034828145
187	0xbd46e349	-0.0485566
188	0x3e2a106d	0.16607828
189	0xbcb4f94e	-0.022091534
190	0xbddab541	-0.10679103
191	0x3da00e29	0.07815201
192	0x3e1220e0	0.14270353
193	0xbd8db99e	-0.06920169
194	0x3d94b11c	0.072603434
195	0xbe0e953c	-0.13924116
196	0x3e7a27d4	0.24429256
197	0xbe0d29a1	-0.13785411
198	0x3dd93ec5	0.106076755
199	0xbe725e29	-0.23668732
200	0xbe845660	-0.2584715
201	0xbe86f0cc	-0.26355588
202	0xbe8973a9	-0.26846054
203	0x3eac52dc	0.33656967
204	0xbde6b1e3	-0.11264398
205	0xbe20ee11	-0.15715815
206	0xbdf47f16	-0.11938302
207	0x3ce2a0e6	0.027664613
208	0xbf0d0774	-0.550895
209	0x3d53ba7c	0.051691517
210	0xbe371385	-0.1787854
211	0xbe1c3c3d	-0.15257354
212	0x3d6f049c	0.058354005
213	0xbe1f252e	-0.15541527
214	0xbe6df4ec	-0.23237962
215	0x3e8dc8b9	0.27692202
216	0xbd09b414	-0.033619
217	0xbe0b7fed	-0.13623019
218	0x3e2075b5	0.15669902
219	0xbd8795ed	-0.06620393
220	0xbe389db6	-0.18028912
221	0xbe3ae039	-0.18249597
222	0x3e037c3e	0.12840363
223	0x3de8a412	0.11359419
224	0xbe38e24a	-0.18055072
225	0x3bafc427	0.0053639594
226	0x3d98e821	0.0746615
227	0x3dcd0ff8	0.100128114
228	0xbe06c6bc	-0.13161749
229	0xbe3daee5	-0.18523748
230	0xbe4ea148	-0.20178711
231	0xbe08b258	-0.13349283
232	0xbdc9a21b	-0.09845372
233	0xbe0da712	-0.13833264
234	0x3d0980f2	0.033570237
235	0x3eb8de04	0.36106884
236	0xbe5a0272	-0.21289995
237	0x3db4b202	0.08823015
238	0x3e25537e	0.16145131
239	0xbe9cef5e	-0.30651373
240	0x3e0cea73	0.1376131
241	0x3decc721	0.11561418
242	0x3d072304	0.032992378
243	0xbecac5f3	-0.39604148
244	0x3e1f79c6	0.15573797
245	0x3e621a6c	0.22080392
246	0x3e861511	0.26187947
247	0x3dfe5e44	0.124203235
248	0xbd8f3f93	-0.06994548
249	0xbe6e98c6	-0.23300466
250	0xbe56be48	-0.20971024
251	0xbe4d7f1c	-0.2006802
252	0xbd8206b4	-0.06348935
253	0xbd83112f	-0.06399762
254	0x3e559e79	0.20861234
255	0x3d7c55e4	0.06160535

network_body._body_endoder.seq_layers.0.bias f4 [128]
0	0xbd4bd32a	-0.04976193
1	0xbe819aae	-0.25313324
2	0xbd183257	-0.037157383
3	0xbd730fc0	-0.059341192
4	0x3d188cee	0.037243776
5	0xbd7a8402	-0.06116105
6	0xbe605609	-0.2190782
7	0xbe966965	-0.29377285
8	0x3df01e61	0.11724544
9	0x3e0ea9b5	0.13931926
10	0x3d6df073	0.05809064
11	0xbc35621f	-0.011070757
12	0x3e3710b6	0.17877468
13	0xbdb02a47	-0.08601814
14	0xbe2d9d07	-0.16954432
15	0xbe10b893	-0.1413291
16	0xbd5d55bf	-0.054036852
17	0x3be1e6cb	0.0068939677
18	0xbd87cb31	-0.066305526
19	0x3e53b2bd	0.20673652
20	0xbd95ec46	-0.07320456
21	0xbc3202b7	-0.010864905
22	0x3ea152e4	0.31508553
23	0x3e349623	0.17635398
24	0xbdb3183c	-0.08744857
25	0x3e49596a	0.19663015
26	0xbe083af2	-0.13303736
27	0xbdfc15d9	-0.123088546
28	0xbcdc4036	-0.026886087
29	0xbd0daa43	-0.034586202
30	0x3e770651	0.24123503
31	0xbc81e1fd	-0.01585483
32	0x3e15c3f7	0.14625536
33	0x3e4995f6	0.19686112
34	0xbe077d96	-0.13231501
35	0x3e61e583	0.22060208
36	0x3baec029	0.005332966
37	0x3ce4dc92	0.027937207
38	0xbc6f132f	-0.014591976
39	0xbe79282c	-0.2433173
40	0xbc4e31c5	-0.012585108
41	0xbddd130c	-0.107946485
42	0xbd1e0417	-0.03857812
43	0x3dc3ba81	0.09557057
44	0xbdad4559	-0.08460493
45	0xbe5029ea	-0.20328489
46	0xbe4a46a3	-0.19753508
47	0x3e155206	0.1458207
48	0xbe7585c4	-0.23976809
49	0xbe4ccbfc	-0.19999689
50	0xbe26b7c2	-0.16281036
51	0x3e9fd4f0	0.31217146
52	0xbe0a3d68	-0.13499987
53	0x3d856c3b	0.06514784
54	0x3df21065	0.11819533
55	0xbdf6966f	-0.12040412
56	0xbbe8d0f6	-0.007104988
57	0x3cceb5c8	0.025233164
58	0xbe2f13e0	-0.17097425
59	0x3e9321fb	0.28736863
60	0x3da3603c	0.079773396
61	0xbe3f7fc7	-0.18701087
62	0xbe7e7641	-0.24849798
63	0xbd325977	-0.04354235
64	0x3d33c54d	0.043889333
65	0xbd442db9	-0.047895167
66	0xbdd66537	-0.10468524
67	0xbdc82a2f	-0.09773671
68	0x3d572a98	0.052530855
69	0xbc49ea73	-0.012323963
70	0xbd49fc27	-0.049312737
71	0xbd7f4d31	-0.062329475
72	0x3e7e9bee	0.2486417
73	0x3e6082de	0.21924922
74	0xbe56ea22	-0.20987752
75	0xbe5242b0	-0.20533252
76	0xbde66768	-0.11250192
77	0xbd9924b0	-0.07477701
78	0xbd94585d	-0.072434165
79	0xbdfcc052	-0.1234137
80	0x3e98788e	0.29779476
81	0x3e869cd5	0.26291528
82	0xbe7cfb2a	-0.24705186
83	0xbe50a43a	-0.20375147
84	0x3c8a0dfd	0.016852373
85	0xbd6f157a	-0.05837009
86	0xbd269514	-0.040669516
87	0xbe772c8f	-0.24138092
88	0x3db58deb	0.08864959
89	0xbc5101cc	-0.012756776
90	0xbdbd771e	-0.092512354
91	0x3e815224	0.2525798
92	0x3de20f60	0.11038089
93	0xbe66d70a	-0.22542968
94	0x3e932d10	0.28745317
95	0xbcec3e68	-0.028838351
96	0x3e50384e	0.20333979
97	0x3d471c47	0.04861095
98	0xbe55e433	-0.20887832
99	0xbe414d00	-0.1887703
100	0x3d67fd85	0.05663826
101	0x3d661fb6	0.056182586
102	0xbd86e8e4	-0.06587389
103	0x3e51f710	0.20504403
104	0xbe48d5ea	-0.19612852
105	0x3e37e26a	0.17957464
106	0xbdfa871f	-0.122328036
107	0x3d90ea31	0.070759185
108	0xbdd7ef43	-0.105436824
109	0xbe9650bc	-0.2935847
110	0x3e6cb8c1	0.23117353
111	0xbd87e9ba	-0.06636377
112	0x3e27c453	0.16383485
113	0xbda5952e	-0.080850944
114	0x3d1486cf	0.036261376
115	0x3bc97fe2	0.006149278
116	0xbdf52831	-0.119705565
117	0xbdf064f1	-0.11738003
118	0xbd4c7681	-0.0499177
119	0xbdd1093a	-0.10206838
120	0x3e882fe8	0.2659905
121	0x3e7feb9c	0.24992222
122	0xbe18e324	-0.14930397
123	0xbd878866	-0.06617813
124	0x3e37b463	0.17939906
125	0xbc6fbc6e	-0.0146323275
126	0xbc7d51b0	-0.01546137
127	0xbdfbba26	-0.12291364

network_body._body_endoder.seq_layers.2.weight f4 [128, 128]
0	0xbeaa3968	-0.33246922
1	0xbda209b2	-0.079120055
2	0xbe54c786	-0.20779237
3	0x3de5fb1c	0.11229536
4	0x3d535cf5	0.051602323
5	0x3cccded6	0.0250086
6	0xbe44fd27	-0.19237195
7	0x3e5da332	0.21644285
8	0x3e20099d	0.15628667
9	0xbe5c3e8e	-0.21508238
10	0xbeafdd17	-0.34348366
11	0xbebec586	-0.37260073
12	0x3e5878f3	0.21139888
13	0xbe97cc75	-0.29648176
14	0x3df4e1ea	0.11957152
15	0xbeb47dc0	-0.3525219
16	0xbe7e48a3	-0.24832396
17	0xbe389c9e	-0.18028495
18	0xbc3392e5	-0.010960315
19	0x3d74177f	0.05959272
20	0xbc6df053	-0.01452263
21	0xbd94bd53	-0.07262673
22	0x3ec09830	0.3761611
23	0x3e440d7d	0.1914577
24	0xbe154c4c	-0.14579886
25	0x3eed5aaf	0.4635825
26	0xbe8df32d	-0.2772459
27	0xbd056fcb	-0.032577317
28	0xbe2abbe1	-0.16673233
29	0xbe18300f	-0.14862083
30	0x3d80a2d7	0.06281059
31	0xbe211221	-0.15729572
32	0xbdd2ca4e	-0.10292493
33	0x3e36deae	0.17858383
34	0xbead7bc2	-0.33883482
35	0x3db9ba1c	0.09068701
36	0xbeaeef7c	-0.34167087
37	0xbe333fdb	-0.17504828
38	0x3bbecea9	0.0058229757
39	0xbc9f07d9	-0.019412922
40	0xbec00920	-0.37506962
41	0x3e4033b7	0.18769728
42	0xbe8e0c1b	-0.2774361
43	0x3b674e04	0.0035294304
44	0xbdbaf38e	-0.091284856
45	0xbe05b369	-0.13056721
46	0xbe0ac4da	-0.13551655
47	0x3e2d1610	0.16902947
48	0x3e0d4711	0.13796641
49	0xbe2258eb	-0.15854232
50	0xbdc0deed	-0.0941752
51	0x3e976d31	0.29575494
52	0xbe8de0c7	-0.27710554
53	0xbdea9ed3	-0.114560746
54	0xbe21605a	-0.15759411
55	0xbd20ab21	-0.0392257
56	0xbe15e3ab	-0.1463763
57	0xbe93f80e	-0.28900188
58	0x3b3adc6b	0.0028512727
59	0x3e3361a8	0.17517722
60	0x3db150eb	0.08658012
61	0xbc8fef9c	-0.01757031
62	0xbe0a31a3	-0.13495497
63	0xbe0b805f	-0.13623188
64	0xbeb2c63b	-0.34916863
65	0xbe3b2bcb	-0.18278424
66	0xbe39d9b9	-0.18149461
67	0xbde49840	-0.11161852
68	0xbe61bdc3	-0.22045045
69	0xbe905dae	-0.28196472
70	0xbcefe8a5	-0.029285738
71	0xbd5eb13e	-0.05436825
72	0x3dd618d9	0.10453958
73	0x3db02381	0.08600522
74	0xbe9d208d	-0.30688897
75	0xbe50da31	-0.20395733
76	0xbe2a7daf	-0.16649507
77	0xbadc99f7	-0.0016830553
78	0xbeab50d5	-0.33460107
79	0xbe38a6b9	-0.1803235
80	0x3eba5322	0.3639155
81	0xbd30c4ab	-0.043156307
82	0x3c398e4b	0.011325429
83	0xbd9206e8	-0.071302235
84	0xbe8e62e8	-0.27809834
85	0xbe769871	-0.2408159
86	0x3ea89936	0.3292939
87	0xbdc3197c	-0.09526345
88	0xbe557819	-0.20846595
89	0xbe942a8e	-0.28938717
90	0xbe7d8f2f	-0.24761651
91	0x3e8f3d41	0.2797642
92	0x3cc2a146	0.023758542
93	0xbe7020a0	-0.23449945
94	0x3e765e64	0.24059445
95	0xbe284242	-0.16431525
96	0x3cccc866	0.024997901
97	0x3cd1577a	0.025554407
98	0xbd6e72dd	-0.05821501
99	0xbe50c8ad	-0.20389052
100	0xbeb9e851	-0.36310056
101	0xbe18c354	-0.14918262
102	0x3db66d3b	0.08907553
103	0x3e01cfbb	0.12676899
104	0x3e28a856	0.16470465
105	0x3de20517	0.11036127
106	0xbdcb5488	-0.099282324
107	0xbec9922e	-0.3936934
108	0xbe369b07	-0.17832576
109	0x3d1e41bf	0.03863692
110	0xbe8149c8	-0.25251603
111	0xbe4c8b55	-0.19975026
112	0x3ea46bb9	0.32113436
113	0xbef08df2	-0.46983296
114	0xbde46d6b	-0.11153682
115	0xbe0bb988	-0.13644993
116	0xbe855775	-0.26043287
117	0xbe0953f4	-0.13410932
118	0xbdb51dc1	-0.08843566
119	0xbeb89e86	-0.36058444
120	0x3e60314b	0.21893804
121	0x3e0a2d00	0.13493729
122	0xbe85a15b	-0.26099667
123	0x3e7612a8	0.24030554
124	0xbdd6e3dc	-0.104926795
125	0xbcd80616	-0.02637009
126	0xbe975df8	-0.2956388
127	0x3d3540dd	0.04425131
128	0x3c49e16f	0.012321814
129	0xbe1878f0	-0.14889884
130	0xbcb9ef3d	-0.022697086
131	0xbe8d65c6	-0.2761671
132	0x3da88e3b	0.08230253
133	0xbe32aeef	-0.17449544
134	0xbe0b1ad3	-0.13584451
135	0xbe361b56	-0.17783865
136	0x3e2a2e6a	0.16619268
137	0xbd0b6f7e	-0.034041874
138	0xbe8615f5	-0.26188627
139	0xbe357689	-0.17720999
140	0xbd149a8e	-0.036280207
141	0xbdf6f114	-0.12057701
142	0x3d708efc	0.05873011
143	0xbd3e792c	-0.046502277
144	0xbe86bf28	-0.26317716
145	0xbd9e3b17	-0.07726114
146	0xbce83e95	-0.028350154
147	0xbe31881b	-0.17337076
148	0xbe376d32	-0.17912748
149	0xbd8fe15d	-0.070254065
150	0xbcefea75	-0.029286603
151	0xbe473b92	-0.19456318
152	0xbd962d61	-0.07332874
153	0xbd37bb20	-0.04485619
154	0xbe1fb88e	-0.15597746
155	0xbe95d231	-0.29261926
156	0xbdd4284a	-0.10359247
157	0xbdec8f4d	-0.1155077
158	0xbe30fbd2	-0.17283562
159	0xbe313889	-0.17306723
160	0xbef54c74	-0.47909892
161	0xbe05e973	-0.13077335
162	0xbe5855e1	-0.2112651
163	0xbd9f2942	-0.07771541
164	0xbe6f3094	-0.23358375
165	0x3e9f598c	0.31123006
166	0xbe29432f	-0.16529535
167	0xbd2434a7	-0.040089276
168	0xbeba7f9c	-0.36425483
169	0x3e3c4996	0.18387446
170	0xbe7dd292	-0.24787357
171	0x3dccb650	0.09995711
172	0xbdc55f8c	-0.09637365
173	0xbbc61a02	-0.006045581
174	0xbc1c1c7a	-0.009528274
175	0xbe855011	-0.26037648
176	0xbdeff230	-0.117161155
177	0x3d3e9107	0.046525028
178	0xbddc8f5e	-0.107695326
179	0xbed1239c	-0.4084748
180	0x3e57caef	0.21073507
181	0xbd8298ff	-0.06376838
182	0x3d9497d0	0.072555184
183	0x3db2c236	0.08728449
184	0xbdb3bf09	-0.087766714
185	0xbe1e2d7d	-0.1544704
186	0xbe3d99dc	-0.18515724
187	0xbe237c5e	-0.15965411
188	0xbe5c59d6	-0.21518645
189	0xbdd23184	-0.102633506
190	0x3d991546	0.07474761
191	0xbdd05e26	-0.101742074
192	0xbe30b117	-0.17255054
193	0xbe4145f3	-0.1887434
194	0xbe48d965	-0.1961418
195	0xbcda0852	-0.026615296
196	0xbe926604	-0.28593457
197	0xbd9788e0	-0.07399154
198	0xbda443bb	-0.08020731
199	0xbdc29084	-0.095002204
200	0xbe4b002f	-0.19824289
201	0xbe1e093c	-0.1543321
202	0xbe2a4fee	-0.16632053
203	0xbdab3a23	-0.08360698
204	0x3d96fc86	0.07372384
205	0xbd97cbc2	-0.074119106
206	0xbe3df953	-0.18552141
207	0xbebfa847	-0.37433073
208	0xbdc87379	-0.0978765
209	0x3d1aa76d	0.037757326
210	0xbd1a514f	-0.0376752
211	0xbe4a2ad5	-0.19742902
212	0xbd47dff2	-0.048797555
213	0xbe1a7bb8	-0.15086257
214	0x3e494c79	0.19658078
215	0xbec30c98	-0.38095546
216	0xbe93687e	-0.2879066
217	0x3b3e5d59	0.0029047339
218	0xbd7f609f	-0.062348004
219	0xbe967242	-0.29384047
220	0xbddd887a	-0.108170465
221	0xbe613dc3	-0.21996216
222	0xbdfed69f	-0.124432795
223	0xbdd85ec3	-0.10564949
224	0xbe806447	-0.25076506
225	0xbe7714c8	-0.24129021
226	0x3e6051fa	0.21906272
227	0xbe7a9238	-0.2446984
228	0xbd8713c0	-0.06595564
229	0xbd7068c6	-0.05869367
230	0xbedc0ba0	-0.4297762
231	0xbd34465d	-0.044012416
232	0x3d5e0ab4	0.054209426
233	0x3dca3e58	0.098751724
234	0x3e767555	0.24068196
235	0xbed3ef62	-0.41393572
236	0xbe88c170	-0.2671008
237	0x3de368e1	0.111039884
238	0xbdafb46d	-0.08579335
239	0xbe64063d	-0.22268005
240	0x3b8987f0	0.004197113
241	0xbc03e9a8	-0.008051313
242	0xbe218169	-0.15772022
243	0xbda53153	-0.080660485
244	0xbdcd0573	-0.10010805
245	0x3bddf831	0.0067739715
246	0xbe009f07	-0.12560664
247	0xbe32a7e0	-0.17446852
248	0xbd7be332	-0.061495967
249	0xbe701e4d	-0.23449059
250	0x3d5935ce	0.053029828
251	0xbcd2a218	-0.025712058
252	0xbe3631d5	-0.17792447
253	0xbe28fbd3	-0.16502313
254	0xbe53f532	-0.20699003
255	0xbe369ddc	-0.17833656

network_body._body_endoder.seq_layers.2.bias f4 [128]
0	0x3e88fc0e	0.26754802
1	0xbbf831f7	-0.0075743156
2	0xbe06e9c9	-0.1317512
3	0x3e8ac488	0.27103066
4	0x3e5c8184	0.21533781
5	0xbd4b25e8	-0.049596697
6	0x3e242f2f	0.16033624
7	0xbe90171e	-0.28142637
8	0xbdb2c087	-0.08728128
9	0x3e7a0f36	0.24419865
10	0x3e1cbff9	0.15307607
11	0x3d2f0ea3	0.042738568
12	0x3deea06b	0.11651691
13	0xbdf29b98	-0.118460834
14	0x3e9ed288	0.31019998
15	0x3e99cd85	0.3003961
16	0x3ea5260c	0.3225559
17	0x3c21e4d4	0.009881217
18	0x3eb2c013	0.34912166
19	0x3e844c59	0.258395
20	0x3dcaccc1	0.09902335
21	0xbde549b9	-0.11195702
22	0x3d3e2006	0.04641726
23	0xbd32e471	-0.04367489
24	0xbdadfcab	-0.08495458
25	0xbe1ed3da	-0.15510502
26	0x3dd3db87	0.10344606
27	0x3d567139	0.05235407
28	0xbe5e5580	-0.21712303
29	0x3d776365	0.060397524
30	0x3e65c335	0.22437747
31	0x3e5d3c04	0.21604925
32	0xbdf958fc	-0.121751755
33	0xbd4f7afd	-0.0506544
34	0xbd1dd29b	-0.038530927
35	0x3e74b40d	0.23896809
36	0xbd73b6cc	-0.0595005
37	0x3e12867d	0.14309116
38	0x3c8583b7	0.016298158
39	0x3e6983e9	0.22804226
40	0xbdd3438e	-0.103156194
41	0x3e14c2c0	0.14527416
42	0xbe1799b7	-0.14804731
43	0x3eae0b25	0.33992878
44	0xbe2d0d01	-0.16899492
45	0x3e9d7e9f	0.30760667
46	0x3dbfe3dd	0.09369633
47	0x3e43938a	0.1909925
48	0xbe1e6d4d	-0.15471382
49	0x3e886a22	0.26643473
50	0x3e7c6a8c	0.2465002
51	0x3e59d4a4	0.21272522
52	0x3e3fcc42	0.18730262
53	0x3c985caa	0.018598873
54	0x3e84665d	0.25859347
55	0xbde4ab3b	-0.11165472
56	0xbe64e2c6	-0.22352132
57	0x3e76e9c3	0.2411261
58	0xbe9fb87b	-0.31195435
59	0xbd27a372	-0.040927358
60	0xbe0ce18c	-0.13757914
61	0x3e5b2b9f	0.21403359
62	0xbd22b7a4	-0.039725915
63	0x3e9e2a6b	0.30891737
64	0x3d7015f4	0.058614686
65	0xbe42b3fa	-0.19013968
66	0xbdb4fb4b	-0.08836993
67	0x3e930b38	0.28719497
68	0xbe31409a	-0.173098
69	0x3e080ee9	0.13286938
70	0x3e966bf4	0.29379237
71	0xbe476c0c	-0.1947481
72	0xbe3b15f8	-0.18270099
73	0xbcaec769	-0.02133532
74	0x3e8c40ab	0.27393088
75	0xbe2bd30a	-0.16779724
76	0xbd1bd55c	-0.038045272
77	0xbdb5024b	-0.08838328
78	0xbd3a3559	-0.045461033
79	0x3ebfa131	0.37427667
80	0x3d2eb334	0.04265137
81	0xbd9d0407	-0.07666784
82	0xbdf32a11	-0.11873258
83	0x3e5fdd1f	0.21861695
84	0x3e888fe6	0.26672286
85	0xbcd2eafc	-0.025746815
86	0xbcd74070	-0.026275843
87	0xbd89fc3d	-0.06737564
88	0x3dd2d716	0.10294931
89	0xbdceb31a	-0.10092755
90	0xbbc73d5f	-0.006080314
91	0xbe0f1b4f	-0.13975261
92	0x3d87ecdc	0.06636974
93	0x3e75c88c	0.24002284
94	0xbda92162	-0.082583204
95	0x3e3133cd	0.17304917
96	0x3e8eaa9d	0.27864543
97	0x3e897438	0.2684648
98	0x3e9bbb93	0.30416545
99	0x3e38be32	0.18041304
100	0x3e881e9f	0.26585862
101	0x3e148125	0.1450239
102	0x3e54d1c6	0.20783147
103	0xbdf40eb8	-0.1191687
104	0x3dc4e0e6	0.096132085
105	0xbb09088b	-0.0020909633
106	0xbdbc23ad	-0.09186492
107	0x3e646972	0.22305849
108	0xbe3cbec6	-0.1843215
109	0xbd45024d	-0.048097897
110	0xbe0aedc5	-0.13567264
111	0x3e82be18	0.25535655
112	0xbdd00a9e	-0.10158275
113	0x3e06ef1c	0.1317715
114	0xbdddf7f0	-0.10838306
115	0xbe0775af	-0.13228486
116	0x3da6aed3	0.08138814
117	0xbdc2d605	-0.09513477
118	0x3d122a23	0.035684716
119	0x3b1659b7	0.0022941658
120	0x3e9581f7	0.29200718
121	0xbe32962e	-0.17440102
122	0xbc172916	-0.009226104
123	0xbe16e511	-0.1473582
124	0x3e002089	0.12512411
125	0x3e700ceb	0.23442428
126	0x3ea718a0	0.32635975
127	0xbd54f295	-0.051989157

action_model._continuous_distribution.log_sigma f4 [1, 3]
0	0x3e89f69c	0.2694596
1	0xbe96d6c9	-0.29460743
2	0x3f01289b	0.50452584

action_model._continuous_distribution.mu.weight f4 [3, 128]
0	0x3e44f077	0.19232355
1	0xbd5d1a9e	-0.053980462
2	0xbd8f3760	-0.06992984
3	0x3e6ea244	0.23304087
4	0x3e1f4698	0.15554273
5	0xbd9f9d65	-0.077936925
6	0x3e533f41	0.20629598
7	0xbc7de9a2	-0.015497597
8	0xbdc839a9	-0.09776623
9	0x3e7ec1c7	0.24878608
10	0xbced5bf2	-0.028974507
11	0x3db1a43b	0.086739026
12	0x3e407021	0.18792774
13	0x3de7c0c0	0.11316061
14	0x3e6438e3	0.22287326
15	0x3e7bd58c	0.2459318
16	0x3e8af9da	0.27143747
17	0x3d659f69	0.05606023
18	0x3e5ee884	0.21768385
19	0x3e896e6c	0.26842058
20	0x3e401300	0.18757248
21	0xbe79621e	-0.24353835
22	0xbd293653	-0.041311573
23	0xbd218aa2	-0.03943885
24	0xbdb896d7	-0.090131454
25	0xbd898f20	-0.06716752
26	0x3e615826	0.22006282
27	0xbe822c9d	-0.25424662
28	0xbd98f2ee	-0.0746821
29	0x3d715d58	0.05892691
30	0x3e4e1163	0.2012382
31	0x3e18ec34	0.14933854
32	0xbd88a245	-0.066715755
33	0xbd959833	-0.0730442
34	0x3de1743d	0.11008499
35	0x3e74a152	0.23889664
36	0xbdced61c	-0.10099432
37	0xbe548f13	-0.20757703
38	0x3e234bbd	0.1594686
39	0x3e5c1ceb	0.21495406
40	0xbd98f8c2	-0.07469322
41	0x3e338919	0.17532767
42	0xbda02ac6	-0.078206584
43	0x3e86d46f	0.2633395
44	0x3c8ea603	0.017413145
45	0x3e7e1f31	0.24816586
46	0xbe45a596	-0.19301447
47	0x3e6606ab	0.22463481
48	0xbceb646a	-0.028734405
49	0x3e80ca08	0.25154138
50	0x3e6ad408	0.22932446
51	0x3e42ab68	0.19010699
52	0x3e5b0b75	0.2139109
53	0x3da6a8b2	0.08137645
54	0x3e83be99	0.25731352
55	0xbdcd1e4d	-0.10015545
56	0xbe3b1f54	-0.1827367
57	0x3e84b02f	0.25915667
58	0x3d13f3a1	0.036121015
59	0xbdff5dc6	-0.12469058
60	0xbe4a9f1c	-0.19787258
61	0x3e565256	0.20929846
62	0x3d9b1a6e	0.075734004
63	0x3e83e863	0.25763234
64	0x3e30800e	0.17236349
65	0x3daa3bf6	0.08312218
66	0xbe39a9a9	-0.18131126
67	0x3ea4c0f3	0.3217846
68	0xbe018efa	-0.12652197
69	0xbdbd9b99	-0.092581935
70	0x3e936b44	0.28792775
71	0xbe5939d2	-0.21213463
72	0x3cdb131f	0.026742516
73	0xbb63b7e9	-0.003474707
74	0x3e443044	0.19159037
75	0x3e0b5a3a	0.13608637
76	0x3bf3663b	0.0074279583
77	0xbdbb4a92	-0.091450825
78	0xbdf2cf72	-0.11855973
79	0x3e8a7b0e	0.27047008
80	0x3e2d9aa8	0.16953528
81	0xbd9f0c49	-0.07766015
82	0xbdb500b1	-0.088380225
83	0x3e88d4a8	0.26724744
84	0x3e678b6a	0.22611776
85	0xbe4ba770	-0.19888091
86	0xbe863c74	-0.26217997
87	0xbdda2869	-0.10652239
88	0xbe8e726b	-0.2782167
89	0x3cd2e9b3	0.025746202
90	0x3d955526	0.072916314
91	0xbd4b5ce4	-0.049649134
92	0xbe19e87d	-0.15030093
93	0x3e57a7e1	0.21060134
94	0xbe263e81	-0.16234781
95	0x3de42da5	0.111415185
96	0x3e681efa	0.22668067
97	0x3e5863e0	0.2113185
98	0x3e87bce4	0.265113
99	0x3e8422cf	0.25807807
100	0x3e7bd665	0.24593504
101	0x3e595b9c	0.21226352
102	0xbad84898	-0.0016501127
103	0xbe54e078	-0.20788753
104	0x3d726a91	0.05918366
105	0x3de6521a	0.112461284
106	0xbcfa3ab4	-0.03054557
107	0x3e6c2851	0.23062254
108	0x3e690a47	0.22757827
109	0xbe0d38a6	-0.13791141
110	0xbe2e059c	-0.16994327
111	0x3e786d7b	0.24260513
112	0xbe36523c	-0.17804807
113	0x3e8d2f09	0.27574947
114	0xbe05fd24	-0.13084847
115	0xbd0313a8	-0.032001168
116	0x3e203900	0.15646744
117	0x3e2e61f0	0.17029548
118	0xbe28dc8a	-0.16490379
119	0x3d861834	0.06547585
120	0x3e819c7c	0.253147
121	0xbe1bfa42	-0.15232185
122	0xbe01b369	-0.12666096
123	0xbddf20c3	-0.10894921
124	0x3e40f67f	0.18844031
125	0x3e6253d0	0.22102284
126	0x3e94594f	0.28974387
127	0xbdfb53b3	-0.12271824
128	0xbd9c44ab	-0.07630285
129	0xbd59586d	-0.053062845
130	0xbddbe245	-0.10736517
131	0xbabe87eb	-0.0014536356
132	0x3c95e23f	0.01829636
133	0x3ebd2a48	0.3694632
134	0xbd2a97f5	-0.041648824
135	0xbd1b5785	-0.037925262
136	0x3d42f86a	0.047600187
137	0xbd5741b7	-0.052552905
138	0xbe73f03d	-0.23822112
139	0x3d2cdd45	0.042203207
140	0xbdbbf634	-0.09177819
141	0xbc93fb28	-0.018064097
142	0xbdf47446	-0.1193624
143	0xbddd706c	-0.108124584
144	0xbdf869d0	-0.12129557
145	0x3e2d5b16	0.16929278
146	0xbe096c90	-0.1342032
147	0xbdc67707	-0.096906714
148	0xbe27cc0f	-0.16386436
149	0xbb3f9f3f	-0.0029239205
150	0x3e01d7da	0.12679997
151	0x3b7235cd	0.0036958337
152	0x3cd01182	0.025398973
153	0x3cd5efa9	0.026115255
154	0x3d1bdd9e	0.038053147
155	0x3e0af5a3	0.13570265
156	0x3dc8d58d	0.098063566
157	0xbe0a2916	-0.13492236
158	0xbde68c77	-0.1125726
159	0x3bfc639c	0.007702304
160	0x3d9cede0	0.076625586
161	0x3ddb218a	0.106997564
162	0x3d33be6d	0.043882776
163	0xbd8b97cf	-0.068160646
164	0xbc8c6b42	-0.017140988
165	0x3e89e045	0.26928917
166	0x3d845076	0.06460659
167	0xbda3b930	-0.07994306
168	0x3c3aae09	0.011394032
169	0xbd2a6754	-0.041602448
170	0x3d9fb80b	0.07798775
171	0x3e04351f	0.12910889
172	0x3d07ad47	0.033124235
173	0xbe02fd92	-0.12792042
174	0x3eda1921	0.42597297
175	0xbd091d98	-0.03347549
176	0xbb51323f	-0.0031920818
177	0xbe08b0ad	-0.13348646
178	0xbda1a355	-0.07892481
179	0xbd135edb	-0.035979133
180	0x3cf860bb	0.030319562
181	0xbd87b01c	-0.06625387
182	0xbdc5397c	-0.09630105
183	0x3d8e2a42	0.06941654
184	0xbd1fbcc7	-0.03899839
185	0xbd90eaee	-0.07076059
186	0x3db25af2	0.08708753
187	0xbe5a5624	-0.21321923
188	0x3d25ef89	0.04051164
189	0xbddad0e8	-0.10684377
190	0x3da4e7ec	0.08052048
191	0xbdfd089b	-0.12355157
192	0x3d712e4a	0.058882035
193	0x3c5e76f2	0.013578163
194	0x3d0bb3da	0.034107067
195	0x3bf79f0b	0.007556801
196	0x3cefb86a	0.02926274
197	0x3e912f37	0.28356335
198	0xbdb0dbef	-0.08635699
199	0x3cd9a446	0.02656759
200	0xbe08343c	-0.13301176
201	0xbd911f66	-0.07086067
202	0xbcf78684	-0.03021551
203	0xbd736e2e	-0.059431247
204	0xbd9aa44c	-0.075508684
205	0x3de826a8	0.11335498
206	0x3d496292	0.04916627
207	0xbe1fdfb4	-0.1561268
208	0x3d85b5cb	0.06528815
209	0x3d84e096	0.06488149
210	0xbdf57c58	-0.11986607
211	0xbccb3509	-0.024805563
212	0xbdac2c6a	-0.08406909
213	0xbe397258	-0.18110025
214	0x3e8597ee	0.26092476
215	0x3e315075	0.17315848
216	0x3dbd1d31	0.092340834
217	0x3cc734b6	0.024317127
218	0xbe082cde	-0.13298365
219	0x3b7b519c	0.0038348204
220	0x3c383ffa	0.011245722
221	0x3d8f4646	0.069958255
222	0x3ca0a993	0.01961211
223	0x3dd95d8c	0.10613546
224	0xbe0a890e	-0.13528845
225	0x3d9d7f7f	0.076903336
226	0xbde1bb70	-0.11022079
227	0x3d4591cd	0.04823475
228	0xbdd40962	-0.10353352
229	0x3da4230c	0.08014497
230	0xbd80be7f	-0.06286334
231	0xbcb7ad6c	-0.022421561
232	0x3e88933d	0.26674834
233	0x3e02422a	0.12720552
234	0x3e58b6ca	0.21163478
235	0xbdcd6bde	-0.1003034
236	0xbe16d203	-0.1472855
237	0x3da6764b	0.08128031
238	0x3c7ab3df	0.015301674
239	0xbd6b6b1e	-0.0574752
240	0x3d8436d8	0.06455773
241	0xbcf19358	-0.029489204
242	0x3df37713	0.11887946
243	0xbcd61624	-0.026133604
244	0x3d5d0104	0.053956047
245	0xbc873e5f	-0.016509233
246	0x3d43d20f	0.04780775
247	0xbd763793	-0.060111593
248	0xbdfe2458	-0.12409276
249	0x3afa0923	0.0019076209
250	0x3e0648b7	0.13113676
251	0x3cd56ce8	0.026052907
252	0x3e354b2a	0.17704454
253	0x3db32142	0.08746578
254	0xbd787c61	-0.060665492
255	0x3d8608c8	0.06544644

action_model._continuous_distribution.mu.bias f4 [3]
0	0x3eb934a4	0.36172974
1	0x3cb3c260	0.021943271
2	0x3e2037ea	0.1564633

action_model._discrete_distribution.branches.0.weight f4 [2, 128]
0	0xbd89ff1a	-0.0673811
1	0xbe514219	-0.2043537
2	0x3e4fcce1	0.20292999
3	0xbd24f4b5	-0.040272433
4	0xbf082a52	-0.53189576
5	0x3e520514	0.2050975
6	0xbe5b327e	-0.2140598
7	0x3ecf70e8	0.40515828
8	0x3f34718c	0.7048576
9	0xbe739a4c	-0.23789328
10	0x3e2870f7	0.16449343
11	0x3c353cb6	0.011061838
12	0xbe354e57	-0.17705666
13	0x3ead4fd2	0.3384996
14	0xbec046e2	-0.3755408
15	0xbefee57b	-0.49784455
16	0xbecb86ab	-0.3975118
17	0x3f163e9a	0.5868927
18	0xbe9d67ac	-0.30743158
19	0xbe21d3fb	-0.1580352
20	0xbeb8f2c9	-0.3612273
21	0x3f2e7ad8	0.68156195
22	0x3e5b0805	0.21389778
23	0x3f3adea7	0.7299599
24	0x3efc658e	0.4929623
25	0x3e2fed34	0.1718033
26	0xbd4c8363	-0.049929988
27	0x3d73bd4b	0.059506696
28	0x3efed3d1	0.49770978
29	0xbde845dc	-0.113414496
30	0xbe87a6c5	-0.26494423
31	0xbe21e71e	-0.1581082
32	0x3e98e053	0.29858646
33	0x3f3ad912	0.72987473
34	0x3d7d45b7	0.061834063
35	0xbcb427c8	-0.021991625
36	0x3ebb759f	0.36613175
37	0xbce18c2e	-0.027532663
38	0x3dd43488	0.10361582
39	0xbe96cade	-0.2945165
40	0x3f2c401a	0.6728531
41	0xbea950a4	-0.33069336
42	0x3f3807c3	0.71886843
43	0xbdef776b	-0.11692699
44	0x3dba7618	0.09104556
45	0xbe02f282	-0.12787822
46	0x3d88b807	0.066757254
47	0xbd254557	-0.04034933
48	0x3eb17baa	0.3466466
49	0xbebb7abc	-0.36617076
50	0xbe8316e5	-0.25603405
51	0xbef3c463	-0.4761077
52	0xbe9ebb4b	-0.31002268
53	0x3e3821ff	0.17981718
54	0xbd8914ff	-0.06693458
55	0x3ed06bd2	0.4070726
56	0x3ef95fcc	0.487059
57	0xbe235387	-0.15949832
58	0x3f085c90	0.5326624
59	0x3d7ebb91	0.062190596
60	0x3d5ef97e	0.054437153
61	0xbea002b8	-0.31252074
62	0xbe2d1cbd	-0.16905494
63	0xbe182cce	-0.14860842
64	0x3ebb9226	0.3663494
65	0x3f0fad2e	0.56123626
66	0x3f3b8594	0.732507
67	0xbdeb11f2	-0.11478032
68	0x3f59aef7	0.850326
69	0xbe75e3e5	-0.24012716
70	0xbda6626b	-0.081242405
71	0x3f3467d4	0.7047093
72	0x3f5bf8e6	0.85926664
73	0x3f7cdcbc	0.98774314
74	0xbeb1e6d3	-0.34746417
75	0x3eaf17e6	0.3419792
76	0xbb58ed13	-0.0033100292
77	0x3ee130c7	0.43982527
78	0x3f80325a	1.0015366
79	0xbeaf6ef1	-0.3426433
80	0x3ec8a8d0	0.39191294
81	0x3f3be4b7	0.73395866
82	0x3ea0fae7	0.31441423
83	0xbccd58a3	-0.02506668
84	0xbe807cd2	-0.2509523
85	0x3efc4137	0.49268505
86	0x3ef8e9a8	0.48615766
87	0x3ed013af	0.40640017
88	0xbe859ae0	-0.26094723
89	0x3edcb18c	0.43104208
90	0x3e1d4f8d	0.15362377
91	0x3f86d0ed	1.0532509
92	0xbe52148b	-0.20515649
93	0xbe2df308	-0.1698724
94	0x3ea4d9a9	0.32197312
95	0xbeaedc11	-0.34152272
96	0xbe9475cd	-0.28996125
97	0xbf150efc	-0.5822599
98	0xbe2ad4a7	-0.16682683
99	0xbe6abc8a	-0.22923484
100	0xbea94b23	-0.33065137
101	0xbeff74fa	-0.49893934
102	0x3e4627d7	0.19351135
103	0x3e55bcc4	0.2087279
104	0xbd32aee3	-0.043623816
105	0x3d135d31	0.035977546
106	0x3b706f1d	0.0036687322
107	0xbe632f29	-0.22185959
108	0x3e68503c	0.22686857
109	0x3ea745f0	0.32670546
110	0x3e6e41aa	0.23267236
111	0xbe8e02f5	-0.2773663
112	0x3ec369f6	0.3816678
113	0x3e480e2a	0.19536653
114	0x3f398e41	0.7248269
115	0x3e7e0384	0.24806029
116	0xbc2c21f7	-0.010506145
117	0x3ed0d419	0.40786818
118	0x3e9b73b3	0.3036171
119	0x3e2246ca	0.15847316
120	0xbea52036	-0.32251137
121	0x3e9b42bf	0.3032436
122	0x3ea42457	0.32058975
123	0x3ed6d582	0.4195977
124	0x3e0820ed	0.1329381
125	0x3cbcd884	0.023052461
126	0xbda79311	-0.081823476
127	0x3f53b9f5	0.8270562
128	0x3d5d83b2	0.054080673
129	0x3e569b4e	0.20957682
130	0xbe562a48	-0.20914567
131	0x3d1de2ea	0.03854648
132	0x3f0b18fe	0.5433501
133	0xbe4c01f6	-0.19922623
134	0x3e5a03f0	0.21290565
135	0xbec8677a	-0.39141446
136	0xbf332113	-0.6997234
137	0x3e835f87	0.2565882
138	0xbe29f51b	-0.16597407
139	0x3c43e299	0.011955881
140	0x3e4b4f57	0.19854484
141	0xbeafeebb	-0.34361824
142	0x3ec263f3	0.3796688
143	0x3ef4e958	0.47834277
144	0x3ecdec83	0.40219507
145	0xbf15ce90	-0.58518314
146	0x3e987bd7	0.29781982
147	0x3e1e8df3	0.15483837
148	0x3eb563dc	0.3542775
149	0xbf2e3eb4	-0.6806443
150	0xbe5b318e	-0.21405622
151	0xbf376dfc	-0.716522
152	0xbf023b9b	-0.508722
153	0xbe11d01d	-0.14239545
154	0x3d3a1d04	0.045437828
155	0xbd44a17b	-0.048005562
156	0xbefc007d	-0.49219123
157	0x3de91892	0.113816395
158	0x3e922516	0.2854392
159	0x3e2bcbdb	0.16776983
160	0xbe910d3c	-0.2833041
161	0xbf37e5b9	-0.71834904
162	0xbda2fca2	-0.07958342
163	0x3d02966a	0.031881727
164	0xbec008ff	-0.37506863
165	0x3d4eb878	0.05046889
166	0xbdf4b0b0	-0.11947763
167	0x3e99fed3	0.30077228
168	0xbf29a243	-0.66263217
169	0x3eaa20e5	0.33228222
170	0xbf375f35	-0.7162965
171	0x3df47c7a	0.119378045
172	0xbdda8642	-0.10670139
173	0x3dfe818e	0.12427054
174	0xbd37a56b	-0.04483549
175	0x3cedff2e	0.029052343
176	0xbeb02763	-0.3440505
177	0x3ec25b13	0.3796011
178	0x3e80a953	0.25129184
179	0x3eef5057	0.46740982
180	0x3e9be207	0.30445883
181	0xbe320f73	-0.17388706
182	0x3daec90d	0.08534441
183	0xbed23516	-0.41056126
184	0xbef10e67	-0.470813
185	0x3e1dc7fa	0.15408316
186	0xbf0b6bc5	-0.5446132
187	0xbd886857	-0.06660526
188	0xbd8673fe	-0.065650925
189	0x3ea318c5	0.31854835
190	0x3e3df30d	0.18549748
191	0x3e2f12b7	0.17096983
192	0xbebcedd0	-0.36900187
193	0xbf0dcffd	-0.5539549
194	0xbf3c3d04	-0.735306
195	0x3df964d8	0.121774375
196	0xbf58b3b4	-0.84649205
197	0x3e62e230	0.22156596
198	0x3db97414	0.09055343
199	0xbf357790	-0.7088556
200	0xbf5a04b0	-0.851634
201	0xbf7bb8f7	-0.9832911
202	0x3eb4cbed	0.35311833
203	0xbeaad444	-0.3336507
204	0x3c12d45f	0.008961766
205	0xbee69f9f	-0.45043656
206	0xbf7ff994	-0.999902
207	0x3e99288c	0.29913747
208	0xbecf30ef	-0.4046702
209	0xbf4098dd	-0.7523325
210	0xbea4fb96	-0.32223195
211	0x3d282b7a	0.041057087
212	0x3e7d2b48	0.24723542
213	0xbefeb0a1	-0.49744132
214	0xbf022162	-0.5083219
215	0xbed5645e	-0.41678137
216	0x3e7fcb9f	0.24980019
217	0xbedaacc3	-0.42709932
218	0xbe27c5fa	-0.16384116
219	0xbf88e2ce	-1.0694215
220	0x3e4eec2e	0.20207283
221	0x3e2ba000	0.16760254
222	0xbea99c0e	-0.33126873
223	0x3ead34ac	0.33829248
224	0x3e932037	0.28735515
225	0x3f11d74d	0.5696915
226	0x3e18e304	0.1493035
227	0x3e604e5a	0.21904889
228	0x3ea43945	0.32074943
229	0x3f010b48	0.5040784
230	0xbe5a1093	-0.21295385
231	0xbe53080c	-0.20608538
232	0x3d6b7531	0.05748481
233	0xbcdb1d26	-0.026747297
234	0xbb17c952	-0.0023160768
235	0x3e7d5ad9	0.24741687
236	0xbe716a50	-0.23575711
237	0xbea5383e	-0.32269472
238	0xbe74f682	-0.2392216
239	0x3e8a6152	0.27027375
240	0xbecbad00	-0.39780426
241	0xbe48056c	-0.19533318
242	0xbf383757	-0.7195944
243	0xbe666768	-0.22500384
244	0x3c618882	0.013765456
245	0xbecd0e24	-0.4004985
246	0xbe983925	-0.29731098
247	0xbe2971c3	-0.16547303
248	0x3ea5a21e	0.32350248
249	0xbe9e3e69	-0.3090699
250	0xbea0b342	-0.31386763
251	0xbedd9d39	-0.43284014
252	0xbdecf2b0	-0.115697265
253	0xbd15bbd2	-0.036556073
254	0x3d820ab3	0.06349697
255	0xbf52fc1e	-0.8241595

action_model._discrete_distribution.branches.0.bias f4 [2]
0	0xbe7ebf77	-0.24877726
1	0x3e7ebf8c	0.24877757

action_model._discrete_distribution.branches.1.weight f4 [2, 128]
0	0xbf0ffc42	-0.5624429
1	0x3d0aff04	0.033934608
2	0xbddf0304	-0.10889247
3	0xbe0e6a57	-0.13907753
4	0x3e957022	0.29187113
5	0xbd453575	-0.048146684
6	0x3df66b07	0.120321326
7	0x3e7eec91	0.2489493
8	0xbd3bba99	-0.04583225
9	0x3d55ae8e	0.05216842
10	0x3e189e19	0.1490406
11	0x3dbcfc9c	0.09227869
12	0xbe6a3a26	-0.22873744
13	0x3dcc7859	0.09983892
14	0xbd5a4990	-0.05329281
15	0x3d9c7d81	0.076411255
16	0xbec8c881	-0.39215472
17	0x3d834775	0.06410114
18	0xbe7d31fe	-0.24726102
19	0xbde9a66a	-0.11408694
20	0xbe940a26	-0.28913993
21	0x3ea895ff	0.32926938
22	0xbd860d71	-0.065455325
23	0x3d43c58f	0.04779583
24	0x3dd0551d	0.10172484
25	0x3cc0d32c	0.023538195
26	0x3c777aba	0.015104944
27	0x3c661270	0.014042482
28	0x3eebc3a5	0.46047702
29	0xbe342ab9	-0.17594422
30	0xbca26987	-0.01982571
31	0xbea0f1a1	-0.31434348
32	0xbd9acefa	-0.07559009
33	0x3e97372e	0.29534286
34	0xbeb31ee7	-0.34984514
35	0x3db749df	0.08949637
36	0x3e9b44f3	0.30326042
37	0x3ec3a6de	0.38213247
38	0xbe180c40	-0.14848423
39	0xbe34a17f	-0.17639731
40	0x3e554787	0.20828067
41	0xbda58aba	-0.080831006
42	0x3e82edc8	0.25572038
43	0x3d034761	0.032050494
44	0xbd8a8c51	-0.067650445
45	0xbde50255	-0.111820854
46	0xbd2177a0	-0.039420724
47	0xbd045bd0	-0.03231412
48	0x3d8ca032	0.06866492
49	0x3cf554e2	0.029947702
50	0x3c829618	0.01594071
51	0x3e647cae	0.22313187
52	0x3e6011e7	0.21881829
53	0x3d6f3667	0.05840149
54	0x3df1f526	0.118143365
55	0xbe2453a6	-0.16047534
56	0x3ead022b	0.33790717
57	0xbe298276	-0.16553673
58	0x3ca06604	0.019579895
59	0xbe0350b1	-0.1282375
60	0x3e3485af	0.17629121
61	0x3d66c2e3	0.056338202
62	0xbf0c60a2	-0.5483495
63	0x3d7cf56a	0.061757483
64	0x3e5f8132	0.21826628
65	0x3c90d4fc	0.017679684
66	0x3ea3c47c	0.31985843
67	0x3e961782	0.2931481
68	0x3e065234	0.13117296
69	0x3e5a261b	0.21303599
70	0xbdd9db2b	-0.10637506
71	0x3ee2bf96	0.44286793
72	0x3cd4a436	0.025957208
73	0xbd4bfe73	-0.04980321
74	0x3da50897	0.08058279
75	0x3e576a8a	0.21036735
76	0xbe86c33d	-0.2632083
77	0xbe4ef45b	-0.20210402
78	0x3e3f8345	0.18702419
79	0x3d234cb9	0.03986809
80	0x3d697754	0.056998566
81	0x3e9af635	0.30265966
82	0xbe87fc0f	-0.26559493
83	0x3e12dde7	0.14342462
84	0xbd7868a2	-0.06064666
85	0x3ec0936c	0.37612474
86	0x3e461775	0.19344886
87	0xbe4a5058	-0.19757211
88	0xbea63316	-0.3246085
89	0x3ecf6f08	0.40514398
90	0xbdef563a	-0.11686368
91	0x3e41b8d8	0.18918169
92	0x3db6fe88	0.08935267
93	0x3e46ec04	0.1942597
94	0x3e73dee1	0.2381549
95	0xbebc34f4	-0.3675915
96	0x3dc82c89	0.097741194
97	0x3ec380f4	0.3818432
98	0xbe7b52c6	-0.24543294
99	0x3ee10641	0.43950084
100	0x3dc7959a	0.09745331
101	0x3e80a83b	0.2512835
102	0x3cb4ea9d	0.022084529
103	0x3d03ad27	0.032147553
104	0xbe5bc272	-0.21460894
105	0x3dca9617	0.098919086
106	0x3df53171	0.11972321
107	0xbe213399	-0.15742339
108	0xbdd4b873	-0.103867434
109	0x3e1c947c	0.15291017
110	0x3ea543e7	0.32278368
111	0x3dfceca4	0.12349823
112	0x3e3e8d3c	0.18608564
113	0x3e63f8fa	0.22262946
114	0x3ed0ca95	0.40779558
115	0x3e0b5b7f	0.13609122
116	0x3d27ff9a	0.041015245
117	0x3e409198	0.1880554
118	0x3f11cce7	0.5695328
119	0xbeaac7c3	-0.3335553
120	0xbcade88c	-0.021229051
121	0x3c809691	0.015696796
122	0x3e09d30c	0.13459414
123	0x3ebfd23a	0.37465078
124	0xbd768c45	-0.060192365
125	0x3ee237d0	0.44183207
126	0xbe247ddb	-0.16063635
127	0x3e355f85	0.17712219
128	0x3f0d2670	0.55136776
129	0xbcdbccd7	-0.026831074
130	0x3dfcc181	0.123415954
131	0x3df28e89	0.11843593
132	0xbe946b84	-0.28988278
133	0x3d4169ac	0.047219917
134	0xbe051ff5	-0.13000472
135	0xbe7f7ccd	-0.24949951
136	0x3d3d9a2e	0.046289615
137	0xbd34db6c	-0.04415457
138	0xbe13f4fe	-0.14448926
139	0xbda6cd7d	-0.081446625
140	0x3e6f6afe	0.23380658
141	0xbda989ba	-0.082782224
142	0x3d74aa76	0.059732877
143	0xbd9e75e6	-0.07737331
144	0x3ec6613d	0.38746062
145	0xbda335fb	-0.0796928
146	0x3e82aaa9	0.25520828
147	0x3df906fc	0.12159535
148	0x3e92305b	0.28552517
149	0xbeac1247	-0.33607695
150	0x3d81d2c6	0.0633903
151	0xbd490159	-0.04907355
152	0xbdd3e1be	-0.10345791
153	0xbbc9cebb	-0.0061586774
154	0xbc6fd1ce	-0.014637424
155	0xbccca159	-0.02497928
156	0xbeed667f	-0.4636726
157	0x3e429270	0.19001174
158	0x3cf671ef	0.030083625
159	0x3e9f13c1	0.3106976
160	0x3d1c89b3	0.038217258
161	0xbe8f15a1	-0.2794619
162	0x3ec06759	0.37578848
163	0xbdde5371	-0.10855759
164	0xbe9f0d32	-0.31064755
165	0xbed16e62	-0.40904528
166	0x3e05a2b5	0.13050349
167	0x3e30b00d	0.17254658
168	0xbe475afe	-0.19468305
169	0x3daf8001	0.08569337
170	0xbe876e6b	-0.2645143
171	0xbc775edc	-0.0150983
172	0x3db23f19	0.08703441
173	0x3dd8ec20	0.10591912
174	0x3d18f376	0.037341557
175	0x3d423acb	0.04741935
176	0xbd7b1a3c	-0.061304316
177	0xbcd01360	-0.025399864
178	0x3bba1f1c	0.005679978
179	0xbe616086	-0.22009477
180	0xbe68855a	-0.2270712
181	0xbd5bbccb	-0.053646844
182	0xbdec98c1	-0.11552573
183	0x3e1c6aad	0.15275069
184	0xbead719a	-0.33875734
185	0x3e1ad7ee	0.15121433
186	0xbc93c6bd	-0.018039102
187	0x3e086512	0.13319805
188	0xbe30da83	-0.17270856
189	0xbd100422	-0.03516019
190	0x3f07bf28	0.53026056
191	0xbd34d175	-0.044145066
192	0xbe5be310	-0.21473336
193	0xbcad70fe	-0.021172043
194	0xbe9bcb1d	-0.304284
195	0xbe9da77a	-0.30791837
196	0xbe06eacb	-0.13175504
197	0xbe5a1b66	-0.21299514
198	0x3db340a2	0.08752562
199	0xbedbd41d	-0.42935267
200	0xbca085b5	-0.019595006
201	0x3d76d0e8	0.060257822
202	0xbd8135ab	-0.063090645
203	0xbe585525	-0.2112623
204	0x3e729e9f	0.23693322
205	0x3e4982e8	0.19678843
206	0xbe49ffc8	-0.19726479
207	0xbd5384cc	-0.051640317
208	0xbd8a0ed9	-0.06741113
209	0xbea2a481	-0.31766132
210	0x3e8f24e5	0.27957836
211	0xbe29f678	-0.16597927
212	0x3d4b989e	0.049706094
213	0xbec12201	-0.37721255
214	0xbe4a4839	-0.19754113
215	0x3e5ac4d3	0.21364145
216	0x3ea2427b	0.31691346
217	0xbed0e73f	-0.40801427
218	0x3df3d860	0.11906505
219	0xbe392510	-0.18080544
220	0xbdd235e4	-0.10264185
221	0xbe436576	-0.19081673
222	0xbe794629	-0.2434317
223	0x3eb6c843	0.35699663
224	0xbdce8e8d	-0.10085783
225	0xbec3b162	-0.3822127
226	0x3e7ead46	0.24870786
227	0xbee1c238	-0.4409349
228	0xbdd08e0a	-0.10183342
229	0xbe70e966	-0.23526534
230	0xbc908d09	-0.017645376
231	0xbce5f542	-0.02807105
232	0x3e69fe93	0.22851019
233	0xbde73103	-0.11288645
234	0xbe12abe8	-0.1432339
235	0x3e1b6866	0.15176544
236	0x3dcf5329	0.101232834
237	0xbe1dc944	-0.15408808
238	0xbe98979f	-0.29803178
239	0xbdffe2fc	-0.12494466
240	0xbe403d86	-0.1877347
241	0xbe63dda5	-0.2225252
242	0xbed14d81	-0.40879443
243	0xbe15e4dd	-0.14638086
244	0xbcf5e5fb	-0.03001689
245	0xbe2dd5a6	-0.16976032
246	0xbf0c146e	-0.54718673
247	0x3ea73143	0.3265477
248	0x3c50834b	0.012726615
249	0xbb103bf2	-0.0022008386
250	0xbdfdd512	-0.123941556
251	0xbebb6481	-0.36600116
252	0x3d85fbc1	0.06542159
253	0xbee83896	-0.45355672
254	0x3e29eeb2	0.16594961
255	0xbe3c6042	-0.18396094

action_model._discrete_distribution.branches.1.bias f4 [2]
0	0xbe17bfe7	-0.14819299
1	0x3e17c044	0.14819437

exp_avg f4 [128, 52]
0	0x3a0ada28	0.000529679
1	0x00000004	6e-45
2	0x00000004	6e-45
3	0x3a8b655f	0.0010635069
4	0x3aaca06a	0.0013170366
5	0x37e24d93	2.6977423e-05
6	0x80000004	-6e-45
7	0x00000004	6e-45
8	0x3acd4948	0.0015662098
9	0x3aeb2071	0.0017938745
10	0x39d93c23	0.0004143427
11	0x00000004	6e-45
12	0x00000004	6e-45
13	0x3a9a8370	0.0011788439
14	0x3aa9b3d7	0.0012947273
15	0xba89649c	-0.0010482254
16	0x80000004	-6e-45
17	0x00000004	6e-45
18	0x3b7c4ac2	0.0038496708
19	0x3b7c321f	0.0038482023
20	0xb82ef406	-4.1712097e-05
21	0x00000004	6e-45
22	0x00000004	6e-45
23	0x3ad64a20	0.0016348995
24	0x3af7ac23	0.0018895905
25	0x3b6eb644	0.0036424557
26	0x00000004	6e-45
27	0x00000004	6e-45
28	0xba5c7746	-0.0008410107
29	0xba59769e	-0.00082955684
30	0xb74597b9	-1.1777441e-05
31	0x00000004	6e-45
32	0x00000004	6e-45
33	0x3b386034	0.0028133513
34	0x3b386283	0.002813489
35	0x3a4b3aae	0.00077525794
36	0x80000004	-6e-45
37	0x00000004	6e-45
38	0x3b04c9cd	0.0020261884
39	0x3b04e6a1	0.0020279067
40	0xb75ee65f	-1.3285869e-05
41	0x00000004	6e-45
42	0x00000004	6e-45
43	0x3b3884de	0.0028155367
44	0x3b38858a	0.0028155767
45	0x3a6bd375	0.0008996048
46	0x39b610c3	0.00034726234
47	0x3ad986ea	0.0016595994
48	0x3d0eff9c	0.034911737
49	0x3b37a6d5	0.0028023024
50	0x3d904b9a	0.0704567
51	0x3bb3b0e6	0.0054837344
52	0xb5aa885f	-1.2705676e-06
53	0x80000004	-6e-45
54	0x80000004	-6e-45
55	0x380f36e4	3.4144978e-05
56	0x380bf0b6	3.3364362e-05
57	0x33ebea68	1.09856785e-07
58	0x80000004	-6e-45
59	0x80000004	-6e-45
60	0x38096cae	3.276456e-05
61	0x3802a0e2	3.114425e-05
62	0xb6622911	-3.3700528e-06
63	0x00000004	6e-45
64	0x80000004	-6e-45
65	0x38180534	3.624447e-05
66	0x38148d36	3.5417463e-05
67	0x368946a9	4.091144e-06
68	0x00000004	6e-45
69	0x80000004	-6e-45
70	0x37a94d1e	2.018228e-05
71	0x37a94fe5	2.0183574e-05
72	0x358867de	1.0163019e-06
73	0x00000004	6e-45
74	0x80000004	-6e-45
75	0x38059f43	3.1857995e-05
76	0x37fbf48c	3.0035408e-05
77	0x3564cf37	8.5238156e-07
78	0x80000004	-6e-45
79	0x80000004	-6e-45
80	0x37c47850	2.3421046e-05
81	0x37c45140	2.3402856e-05
82	0x356aaa90	8.7419994e-07
83	0x80000004	-6e-45
84	0x80000004	-6e-45
85	0x37c40d42	2.3371194e-05
86	0x37c3f14c	2.3358174e-05
87	0xb706483d	-8.003842e-06
88	0x80000004	-6e-45
89	0x80000004	-6e-45
90	0x38076172	3.227726e-05
91	0x38074ca3	3.225788e-05
92	0x3570a465	8.964619e-07
93	0x00000004	6e-45
94	0x80000004	-6e-45
95	0x37c2a752	2.3204517e-05
96	0x37c2992e	2.3197932e-05
97	0x36c63036	5.9064723e-06
98	0x375646a0	1.2771838e-05
99	0x383163ec	4.2293148e-05
100	0x39dc9b4c	0.00042077375
101	0x37c97bb0	2.4018664e-05
102	0x39f15f9f	0.00046038345
103	0x38409a1e	4.59199e-05
104	0x329270d4	1.7047945e-08
105	0x80000004	-6e-45
106	0x80000004	-6e-45
107	0xb698a11b	-4.548708e-06
108	0xb691543c	-4.331143e-06
109	0x318a6915	4.028275e-09
110	0x80000004	-6e-45
111	0x80000004	-6e-45
112	0xb6983142	-4.5356874e-06
113	0xb6a8bbb0	-5.02864e-06
114	0xb5f021fd	-1.7891285e-06
115	0x00000004	6e-45
116	0x80000004	-6e-45
117	0xb6380c55	-2.7425315e-06
118	0xb647d6e8	-2.9778403e-06
119	0x36679e9b	3.4514003e-06
120	0x00000004	6e-45
121	0x80000004	-6e-45
122	0xb731f590	-1.0607197e-05
123	0xb731e52e	-1.0603382e-05
124	0x34f85f41	4.6262906e-07
125	0x00000004	6e-45
126	0x80000004	-6e-45
127	0xb6a7950d	-4.9943396e-06
128	0xb6b989e9	-5.5294845e-06
129	0xb7743c1e	-1.455753e-05
130	0x80000004	-6e-45
131	0x80000004	-6e-45
132	0x36f85c6b	7.401735e-06
133	0x36f4db89	7.297324e-06
134	0x34cba5a3	3.7932213e-07
135	0x80000004	-6e-45
136	0x80000004	-6e-45
137	0xb6fdc22b	-7.5625917e-06
138	0xb6fcfe42	-7.5397847e-06
139	0xb7a6f530	-1.9902916e-05
140	0x80000004	-6e-45
141	0x80000004	-6e-45
142	0x3755dc76	1.2747119e-05
143	0x3755884c	1.2727523e-05
144	0x34d62fbb	3.9895335e-07
145	0x00000004	6e-45
146	0x80000004	-6e-45
147	0xb6eeedd5	-7.12064e-06
148	0xb6eee4be	-7.119582e-06
149	0xb6b63643	-5.4303396e-06
150	0xb5a7cf91	-1.2502879e-06
151	0xb5c3336e	-1.45436e-06
152	0xb98a4241	-0.00026370774
153	0xb6e0a3ce	-6.6947896e-06
154	0xb9252fb4	-0.00015753397
155	0xb7697a38	-1.39163385e-05
156	0xb64bbbf4	-3.035876e-06
157	0x80000004	-6e-45
158	0x00000004	6e-45
159	0x3838d847	4.4070443e-05
160	0x383e7ea7	4.5417484e-05
161	0x346f7187	2.229991e-07
162	0x80000004	-6e-45
163	0x80000004	-6e-45
164	0x382b2d1a	4.081158e-05
165	0x3827c18e	3.9996165e-05
166	0xb7129541	-8.737029e-06
167	0x00000004	6e-45
168	0x00000004	6e-45
169	0x3850c1d8	4.9771596e-05
170	0x384f20a3	4.938304e-05
171	0x35912da8	1.081663e-06
172	0x00000004	6e-45
173	0x80000004	-6e-45
174	0x38155d64	3.5611345e-05
175	0x38155c91	3.5610577e-05
176	0x362f45e9	2.6117725e-06
177	0x00000004	6e-45
178	0x80000004	-6e-45
179	0x3821280b	3.8422684e-05
180	0x381d69ac	3.753013e-05
181	0x36655c96	3.4177551e-06
182	0x00000004	6e-45
183	0x80000004	-6e-45
184	0x380b910d	3.327527e-05
185	0x380b7e74	3.325795e-05
186	0x3622ba2a	2.4248243e-06
187	0x80000004	-6e-45
188	0x00000004	6e-45
189	0x380f9919	3.423644e-05
190	0x380fb366	3.4260935e-05
191	0xb7bebaf8	-2.273683e-05
192	0x00000004	6e-45
193	0x80000004	-6e-45
194	0x38794451	5.942985e-05
195	0x38792493	5.940029e-05
196	0x36235ad3	2.434176e-06
197	0x00000004	6e-45
198	0x80000004	-6e-45
199	0x38116cb6	3.467194e-05
200	0x3811708c	3.467551e-05
201	0x36def81d	6.6449998e-06
202	0x3727a46f	9.992261e-06
203	0x380d1f16	3.364597e-05
204	0x3a3c6a00	0.0007187426
205	0x381bdb99	3.7159396e-05
206	0x3a2888db	0.00064290845
207	0x38911ba4	6.919287e-05
208	0xb7c555f7	-2.352426e-05
209	0x00000004	6e-45
210	0x00000004	6e-45
211	0xb9a6de8e	-0.00031827803
212	0xb9a54655	-0.00031523654
213	0xb4ac440e	-3.2087013e-07
214	0x00000004	6e-45
215	0x00000004	6e-45
216	0xb9b308dd	-0.00034148144
217	0xb9b16d25	-0.0003384139
218	0xb7c49cb5	-2.3437993e-05
219	0x00000004	6e-45
220	0x00000004	6e-45
221	0xb9a6ea22	-0.0003183643
222	0xb9a61654	-0.00031678623
223	0x37ceca7f	2.4651408e-05
224	0x00000004	6e-45
225	0x80000004	-6e-45
226	0xb9b79549	-0.00035015706
227	0xb9b791a7	-0.00035013
228	0x368c51dc	4.181855e-06
229	0x80000004	-6e-45
230	0x80000004	-6e-45
231	0xb9b56535	-0.00034598415
232	0xb9b39598	-0.00034252997
233	0xb8435707	-4.6572673e-05
234	0x00000004	6e-45
235	0x00000004	6e-45
236	0xb9923dc1	-0.000278933
237	0xb9925137	-0.000279078
238	0x36998912	4.5757124e-06
239	0x80000004	-6e-45
240	0x00000004	6e-45
241	0xb9ad0f82	-0.00033008686
242	0xb9ad0d3b	-0.0003300699
243	0xb7b074d8	-2.1035245e-05
244	0x80000004	-6e-45
245	0x00000004	6e-45
246	0xb99fa154	-0.00030447042
247	0xb99fa623	-0.00030450625
248	0x369a92a9	4.606631e-06
249	0x80000004	-6e-45
250	0x80000004	-6e-45
251	0xb9acf0eb	-0.00032985894
252	0xb9acf0ce	-0.0003298581
253	0xb85c0fd4	-5.246683e-05
254	0xb85da260	-5.284173e-05
255	0xb929c7b4	-0.00016191491
