VirtualAquarium/results/VirtualAquariumReproducao/VirtualAquarium/VirtualAquarium-1499961.pt (torch, 592639 bytes, 49 tensors)

discrete_act_size_vector f4 [1, 2]
00000000: 0000 0040 0000 0040
2.0 2.0

network_body._body_endoder.seq_layers.0.weight f4 [128, 52]
00000000: 6c5e 913e 519b 21be 7111 fc3d 8b97 a9be
00000010: 37af e4bd a2ef 2fbe 52d9 b33e a745 df3b
00000020: bca9 183e 9969 8f3e bd2e b03e b220 753e
00000030: ea2b d33d 35ae 67be 0e0a c83c 8b87 b23e
00000040: 47b0 263e 0dda 703d f6d7 a83d 4309 c23d
00000050: 16d9 133f ff30 a43d fc2a 8e3e 3668 5ebe
00000060: b9e4 773e ea7d b73e 3907 23be ef20 1cbe
00000070: 62c7 82bd 4159 e4bc b6d7 7a3e 2e8f 013e
00000080: 7c5e febd b7d7 8d3d cded 96be e1e2 253e
00000090: 61e0 783d 8524 d33d c900 9ebd b123 36be
000000a0: 44f4 3e3d f52e 22be 4c9c a8be 58f7 babd
000000b0: 401e 28be c9f4 6fbe ea6a 56be 0aff e93e
000000c0: 3ac3 edbd 1aef 6fbd eaaf 103d 443e a63c
000000d0: 1bfd edbe dea7 acbe cb8f 84be 9985 0c3e
000000e0: 5dbd 11bd 2d6f 643d 1edc b83d b3c8 113d
000000f0: 46cd 1dbe 3996 2ebe 1237 5c3d 1c9b d23d
00000100: 9902 6cbd 0eea 2ebe 3323 c33d 7333 5d3e
00000110: be27 0ebe 838c 5d3d 4f5a babe ba7a be3c
00000120: 628d 933e 955b 43bd ca9e e8be 9f9d 3ebd
00000130: 179e d13d a286 343e 9650 1d3e 77bd 07be
00000140: c8f2 553e 792c d03d add1 533e 5411 ea3d
00000150: 917b ee3c 95a8 99be 2f2b bbbd b3b9 3ebe
00000160: 2d5c a3bc 928f 09be 7bf1 4a3e d216 53be
00000170: afb3 8d3e dd48 c3bc a2df 9ebe 5df8 1abd
00000180: 55d7 04bc e035 7cbe 06a3 04bf f614 e13c
00000190: a8c9 cabd 958c 1a3e 6bcd a3bd 0aae 45be
000001a0: 0141 5bbc 4cc1 d2bd 9457 b83d c370 123e
000001b0: 6478 303e 0c58 82be 7932 bfbc 9076 0bbe
000001c0: d4d7 94bd a10c bfbe c998 713e d3b2 94bd
000001d0: 9cdc 533c 9e2d 8ebe 4e82 f73d 1e36 31bd
000001e0: 6722 023d a7de 473e 4ffc 103e c7eb 05bd
000001f0: 89b5 163d 24ca e83d bf8b 41bc c080 c3bc
00000200: 9ab3 78be 9b31 a33e a351 d9bd 82a1 27be
00000210: 104a adbd d44d c53e c8a5 c4be c537 eb3d
00000220: 9958 9a3c e1d2 a43c 684f 9f3d ba5d 19be
00000230: 0c9f 063e 0101 9b3d 416a 48bd c7ec 26be
00000240: 17e3 bbbd 3f8b f9bb bb66 443e 0e16 763c
00000250: 5f13 0cbe aad3 933c 7c8b 88be 453f 74be
00000260: d69a d3bd 0878 4f3e 2576 50be bb36 dc3c
00000270: 479a f03d 6b40 1f3e 4a58 7a3d 39cf a0bd
00000280: 692b b6bc 9e48 0a3d 806c 16be 2368 01be
00000290: d5c2 433e 5aa7 bb3d c7d1 753d c3a6 97bd
000002a0: 2a8f 4abd e249 843e 7d8f 23be 51da 34be
000002b0: 5cb3 083e e9aa 663c 10eb 9e3e fc32 643c
000002c0: 90cc 79be 509f 59bd 4833 4f3e 7cf3 4b3e
000002d0: ca0d 3bbe 6140 8fbe 1c8c 61bd 1506 753d
000002e0: b1f6 02be b407 86bd 2a37 35be 30c6 243e
000002f0: 0035 48bd 40d9 4dbd 8cff 81bd 8454 b3bd
00000300: fe50 043e b316 76bd ff4d 0b3e 6941 733e
00000310: d55a 11be 57f2 3e3d 9df3 79be e44c 003f
00000320: 094e 5e3d 89f0 2b3f 3674 a33e fa42 843e
00000330: cf6e 653c 1261 72be cc70 cf3d c267 27bd
00000340: 9558 6dbe 0a38 b1be 9087 78be 47a7 f73d
00000350: 1a10 dcbb 91a2 dcbe 2714 a03e 033f c9bd
00000360: f37c 923d 6a63 323d b528 d83c 9b7f 8a3d
00000370: 9ac2 9339 1d25 a2ba 5b1a dfbb ef62 123b
00000380: 47ed 553e 0a88 8c3d 4741 233d 4e6c 0dbc
00000390: b1ab b2bd c4d5 b5bd f254 ea3d 463f 543d
000003a0: f683 c1be 4416 2d3e 0d33 04be 317c 053e
000003b0: 42b7 cfbe 3caa 7ebe 1161 793d 2b19 453e
000003c0: 9b8d c63e ce76 e7bc 3b2b 85bc dd83 5bbd
000003d0: 1129 a6be f96d 6ebd b484 c5be 6172 a7be
000003e0: 3de6 d23e 3401 fdbc b759 8f3d 622e 443d
000003f0: af68 94be d138 d0bc 32bc ee3d 1763 50bd
0.2839235 -0.15781905 0.12308014 -0.3312343 -0.11166232 -0.17181256 0.3512674 0.006813723
0.14908499 0.28010252 0.34410658 0.23938254 0.1031111 -0.22625048 0.024418857 0.34869036
0.16278182 0.0588017 0.08244316 0.09474423 0.5775312 0.08017158 0.2776717 -0.21719441
0.24208345 0.35838252 -0.15920724 -0.15246938 -0.063856855 -0.02787459 0.2449635 0.12652275
-0.12420365 0.0692591 -0.29478303 0.16199829 0.06076086 0.103097 -0.077149935 -0.17787053
0.04661967 -0.15838225 -0.32931745 -0.09129208 -0.1641779 -0.23433222 -0.20939222 0.45702392
-0.11609502 -0.058577634 0.035324015 0.020293362 -0.46482167 -0.33721823 -0.25890955 0.13722838
-0.03558098 0.055770088 0.09026359 0.035591792 -0.15410337 -0.17049493 0.053763457 0.10283491
-0.057619665 -0.17081472 0.09528198 0.21601658 -0.13882348 0.05408908 -0.36397025 0.02325188
0.28818804 -0.04769476 -0.45433646 -0.046537038 0.10235231 0.17629483 0.15362772 -0.13255869
0.20893395 0.101647325 0.20685454 0.11429086 0.029111655 -0.3001143 -0.09139096 -0.18625526
-0.019941414 -0.13433674 0.1981868 -0.20614174 0.2767615 -0.023838455 -0.31029993 -0.037834514
-0.00810798 -0.24629927 -0.51811254 0.027475815 -0.09901744 0.1509269 -0.07998165 -0.19304672
-0.013382197 -0.10290775 0.09001079 0.14300828 0.17233425 -0.254578 -0.023339497 -0.13619447
-0.072677284 -0.37314323 0.23593439 -0.072606705 0.012931015 -0.27769178 0.120854005 -0.0432645
0.03177109 0.19518529 0.14158748 -0.032695558 0.03679422 0.1136668 -0.011813103 -0.023865104
-0.24287263 0.31873783 -0.10611274 -0.16370204 -0.08461392 0.3853594 -0.3840773 0.114852466
0.018841075 0.020120086 0.077788174 -0.1497716 0.13146609 0.07568551 -0.048929457 -0.16301261
-0.09174173 -0.0076154764 0.19179814 0.015019907 -0.13679264 0.018045265 -0.26668918 -0.2385226
-0.10332267 0.20260632 -0.20357569 0.026881566 0.11748176 0.15551917 0.061119355 -0.078520246
-0.022237496 0.03376066 -0.14689827 -0.12637381 0.19117291 0.09162779 0.060014512 -0.07404854
-0.04945294 0.25837618 -0.15972705 -0.17661406 0.1334967 0.014078834 0.31038713 0.013928171
-0.2439444 -0.053130448 0.20234406 0.199171 -0.18266979 -0.27978805 -0.05506526 0.059820253
-0.12789418 -0.06544438 -0.17696825 0.16091228 -0.04887867 -0.050256014 -0.0634757 -0.087563545
0.12921521 -0.06008024 0.13603972 0.2375542 -0.14194806 0.046617832 -0.24409337 0.50117326
0.05427364 0.671639 0.319246 0.2583235 0.01400347 -0.23669842 0.10128936 -0.040870436
-0.23178323 -0.34613067 -0.24270463 0.120924525 -0.0067157866 -0.43092778 0.31265375 -0.09826472
0.071527384 0.04355184 0.026386598 0.0676262 0.00028183014 -0.001237068 -0.0068085617 0.00223368
0.20891295 0.06861885 0.039857175 -0.008631779 -0.08724154 -0.08878663 0.11441983 0.051818155
-0.3779599 0.16903025 -0.129101 0.13035657 -0.40569502 -0.24869627 0.060883585 0.19247882
0.3877991 -0.028254893 -0.016255965 -0.05359255 -0.32453206 -0.058210347 -0.38577807 -0.32704452
0.41191283 -0.030884363 0.069995336 0.047895797 -0.28986117 -0.025417717 0.11656989 -0.05087575

network_body._body_endoder.seq_layers.0.bias f4 [128]
00000000: be01 cd3d 91de 2d3d 8b66 293e ffd1 78bd
00000010: ab6e fe3d 4ce7 50be 6061 f6bd 8302 683d
00000020: 380e 9fbd ecdc f13d 6046 85bb 62c9 65bd
00000030: 35ce c8bc 3215 10be af71 2ebe 2f00 5bbd
00000040: 775f f93d bf5f 60be b3b8 01be d2fc 013e
00000050: 1871 303c 023e 8b3d 1d68 6dbd f08b 5a3d
00000060: 489f 193c c4b4 45be 7cf2 cebc ebf7 003d
00000070: 64bf c2bd 38ea 82bb d33a 6b3d 88ed 963d
00000080: 671c 4bbe 3ffd 54be eacd 0bbe ea53 58be
00000090: c382 9e3d 1d1b b1bd 1234 a1be ab80 a23d
000000a0: 2a57 6fbe b998 b63d 0553 a0bd 0172 c1ba
000000b0: ac5c babd 352c 733d d168 b7bd 548f 8f3b
000000c0: a7bb edbd 48e5 03be 9d87 d2bc 5e61 873d
000000d0: f8fa 84bd ea01 903d e4b5 933d b995 2f3d
000000e0: e90c 653c ba95 50be 4192 8f3d e451 6ebe
000000f0: 6733 273d 22d1 533d 24b9 113d ad64 cb3d
00000100: 6c84 763d 2f15 bf3d 046d 1e3d a2e8 8f3b
00000110: da33 b5bd 9683 1d3e b361 4bbe b0ba aa3d
00000120: 3eb3 0b3d 28a6 f8ba 22dd f73c e791 64bd
00000130: b46e 0ebe 2fa8 c33d cefc 61be 2c4b e93d
00000140: 8671 c5bd c856 913d 796c 5abe ccc3 fc3c
00000150: 8e98 ff3c 855a 96bd 3c89 3cbe c046 c6bd
00000160: 8b7b 48be ee76 013e dfba d83b 1df7 293d
00000170: f055 ab3c ae26 73be be4c 9d3a f3ce 2a3e
00000180: 5efd edbd c14d b83d b25f a83d 8bf8 c33d
00000190: defc 063e 2eb9 88bd 9c43 e93d 605b 563e
000001a0: c9ae b23d a266 d83c c2f8 b5bd b5df 133e
000001b0: 6e90 4ebe fd3e 3b3e b467 413e 26ca d1be
000001c0: f12e 0a3e b1e4 36be abbb 12be ee42 4dbe
000001d0: b394 52be 99b7 b53d 1a6d 863d 91a4 64be
000001e0: d95f 2ebe 3924 91bc 0c37 773d a2dd 733d
000001f0: 655e 9d3c 2169 1c3e b8af d03d 229a 8cbe
0.10010098 0.042448584 0.16543023 -0.060747143 0.12423452 -0.20400733 -0.120302916 0.05664302
-0.07766384 0.11809716 -0.0040672272 -0.056100257 -0.02451239 -0.14070585 -0.17035554 -0.053466972
0.121764116 -0.21911524 -0.12668113 0.126941 0.010769151 0.067989364 -0.05796062 0.05335611
0.0093763545 -0.19307238 -0.02526211 0.031486433 -0.09509161 -0.003995206 0.057429146 0.07369524
-0.19835053 -0.2079973 -0.13652769 -0.2112576 0.077397846 -0.086477496 -0.3148504 0.07934698
-0.23373094 0.08915848 -0.07828335 -0.0014758707 -0.09099707 0.05936833 -0.08955539 0.0043810997
-0.116080575 -0.12880433 -0.025699431 0.06610368 -0.06493181 0.07031615 0.07212427 0.042867396
0.013980129 -0.20369616 0.070103176 -0.23273426 0.040820505 0.051713116 0.035576954 0.09931312
0.06018488 0.09330212 0.038678184 0.0043917457 -0.088477805 0.15382227 -0.19861488 0.08336389
0.034106486 -0.0018970417 0.030256812 -0.055803206 -0.13909417 0.09553563 -0.22069094 0.11391291
-0.096407935 0.0709663 -0.21330442 0.030855082 0.031200673 -0.07341484 -0.18411726 -0.09681463
-0.19578378 0.12643024 0.0066140736 0.04149543 0.020915002 -0.23745224 0.001200102 0.16680507
-0.116205916 0.089992054 0.082213774 0.0956889 0.13182399 -0.06675945 0.113898486 0.20933294
0.08724744 0.026416127 -0.088853374 0.14440806 -0.20172283 0.18285747 0.18887216 -0.4097454
0.13494469 -0.17860676 -0.14329402 -0.20045063 -0.20564537 0.08872909 0.06563778 -0.22328402
-0.1702875 -0.017717468 0.06035523 0.059537537 0.01921005 0.15274478 0.10189766 -0.27461344

network_body._body_endoder.seq_layers.2.weight f4 [128, 128]
00000000: d6e2 52be d165 0bbe e8b4 69bd 71da cdbe
00000010: bf20 adbd cca4 2dbd d040 c5be c944 56be
00000020: ec42 36be 5d8c a3be 3a4e 20be 5ba2 953d
00000030: cfc4 b1be 52cc f9be 80a9 39bd 3293 8cbd
00000040: 80ba 1fbe 6086 fd3d de90 eb3c 4722 d2be
00000050: cc47 20be bb6c 863c 0b39 aebe 844c 75be
00000060: a9fe 7f3e c722 9cbd e752 9bbd 8d9a 37be
00000070: c564 c4be 11f9 353d 4992 32be c0e5 d63b
00000080: 721c a23e 4b2c 513d 8f56 cebd d392 3e3d
00000090: 4430 20be e039 c13c 0a1a 063d 293e 48be
000000a0: d53c ccbd 5ab7 efbd 8a12 6bbe d192 37be
000000b0: f5f1 f73d aba6 75be ab42 b1be 3326 ed3c
000000c0: 5c01 273e ac51 9bbd 5be2 86be 0d28 d1bd
000000d0: c824 99be f8df 04be 9480 223f 4331 53be
000000e0: 84e4 07be 820a 593d a7ce b0be 27b4 febc
000000f0: c347 eabc 069f a1be 287a cebc 6436 06be
00000100: df95 6a3a 381f 70be 8b2a b43d a5db 45be
00000110: 91eb 8f3e 2390 e4bd 7af6 fc3c 6d81 ac3d
00000120: 2c13 d1bd 8770 bfbe b407 c6be d4c0 8e3d
00000130: 190a 08be 3128 b2bd 92d8 e8bd 9c80 babd
00000140: 2c8f d5bc e732 8ebe 9674 4c3d bd6c 94be
00000150: c65a a6bd d513 bdbd f6c8 3bbe 38fb 9fbd
00000160: e28b 3fbe 3c11 f2bd 1e9e a6bd 32c8 02bd
00000170: ad4d b7bd 46c5 d9bd c966 913d 82af a63d
00000180: 80aa 9c3c b246 61be 3ff5 6ebe fc5e a6bc
00000190: b614 4abd 0fee e2bd c3ca bfbe 3dc5 aabd
000001a0: d791 f4bc 37fd 86be 4e4c 743d 2aea a2ba
000001b0: a630 e43d 4a42 353e 500e 10be 90b2 0abe
000001c0: 3143 04be e85b 183e 8939 50bc a316 1ebe
000001d0: d0a3 c3bd daff 1ebe 2a80 fdbe 7201 c73d
000001e0: cf27 8f3d f24c e0bd 882f 90be a15e f53d
000001f0: 2386 49be 0f74 43be 36da 80bd 80c3 7dbb
00000200: 1ad4 4ebe 6dfb 83be da0a 7fbe 1b69 7fbe
00000210: 135b 0abf 689a 5bbe 752f 3bbe 868f cebe
00000220: 331a 4abe 8858 b2be 72a6 c43d db9b dcbd
00000230: d1a5 3ebe 6703 e4bd 1086 3abd 7a64 e7be
00000240: 6f64 6cbe a990 f83d 0136 d4bd 5b1e 9f3d
00000250: 7442 13be 8024 3bbe f727 b0be 204b efbb
00000260: 782f b7be fe54 c0bb 613f 11be 5d4a 12be
00000270: fb4d 86be 6dd2 6cbe 1e59 edbd 5bf7 57be
00000280: 60be e43c e5f8 933d 7c01 09be c8bb abbd
00000290: 4297 b9bd 3c7b 173d dadd 15be 6908 babe
000002a0: 6e85 b1be 063d a7be 66a7 9cbe c86a 9abe
000002b0: 9e04 17be 7dd0 97be f882 4ebe fcd7 a4be
000002c0: f33c f5bd c804 6a3d 7b56 5ebd 69c1 873d
000002d0: e52d 35be 2600 b9be 7181 c5bb 3103 04be
000002e0: ac4b 98be 7561 1cbd 5d05 6fbd 42d7 943e
000002f0: d8c0 11be 6f78 38be c3b5 55bd 0680 38be
00000300: b809 92be 92b9 a7bd 42e1 c6be 4d56 24be
00000310: d837 3d3d afde c3be ac42 37be 31fa 2fbe
00000320: fad6 54be 8f36 0c3c d346 89be 1594 71be
00000330: ef73 f6bd 5986 bd3e cf05 16bd 56f4 5dbe
00000340: 5953 2cbe 1347 25be f352 85bc 9c71 893c
00000350: dad0 96be 937e 82be 02a5 b6bd 1dbf 463c
00000360: 6771 b23d 44c4 d2be 764d cabe 8af6 cebe
00000370: 4564 78be 28c6 a2bb 8556 cfbd e2f7 bdbe
00000380: 4945 9c3d 3f8e b7be b4cb a5be 5ca4 06bf
00000390: d31b dbbe 7116 02be af40 3ebe 6b05 f4be
000003a0: 9338 01be 5e3b 72be 938d 973b 0946 dbbe
000003b0: 1388 a2bd 176b a1be 2d42 0bbf 6599 97bd
000003c0: 4c9d 32be 1be9 043e 5c9c 913d c149 063d
000003d0: 4fe7 39be a514 87be 4860 e0bb 522d eebd
000003e0: 1bfd 6dbd 7181 bc3c 74f6 cebd 40e6 033e
000003f0: 4373 f0bd 75dc a8bd 0301 54be 095c 48be
-0.20594344 -0.13613059 -0.05705729 -0.4020572 -0.084535114 -0.04239349 -0.3852601 -0.20924677
-0.17798966 -0.31943026 -0.15654841 0.073063575 -0.34720466 -0.48788697 -0.045327663 -0.06864013
-0.15598488 0.123791456 0.028755601 -0.41041777 -0.15652388 0.016409269 -0.34027895 -0.2395497
0.24999489 -0.07623821 -0.07584172 -0.1793005 -0.3835813 0.04442698 -0.17438616 0.00655815
0.31662327 0.05106763 -0.100751035 0.04652674 -0.15643412 0.023587167 0.032739677 -0.19554962
-0.0997254 -0.117048934 -0.22956291 -0.179271 0.121066965 -0.2398936 -0.34621176 0.028948879
0.16309112 -0.07583937 -0.2634457 -0.10212717 -0.29910874 -0.12976062 0.63477445 -0.2062426
-0.13270766 0.052988537 -0.34532663 -0.031091763 -0.028598672 -0.31566638 -0.025204733 -0.13106686
0.0008948724 -0.23449409 0.08797177 -0.19322069 0.2810941 -0.111603044 0.030879248 0.084231235
-0.10208735 -0.3739054 -0.38677752 0.06970373 -0.13285102 -0.08699072 -0.113694325 -0.091065615
-0.026069246 -0.2777321 0.049915873 -0.2898921 -0.081227824 -0.09232298 -0.1833838 -0.07811588
-0.18705705 -0.118196934 -0.08135627 -0.031929202 -0.08950362 -0.1063333 0.07099683 0.08138944
0.01912427 -0.21999624 -0.23335741 -0.020308964 -0.049336158 -0.11080562 -0.37459382 -0.083384015
-0.029854698 -0.26365063 0.059643082 -0.0012429405 0.111420915 0.17701069 -0.1406796 -0.13544679
-0.12916256 0.1487881 -0.01270903 -0.15438323 -0.09552729 -0.15527287 -0.49511844 0.097170725
0.06990015 -0.10952176 -0.28161263 0.1198094 -0.19680075 -0.19087242 -0.062916204 -0.0038721263
-0.20198098 -0.2577776 -0.24906483 -0.24942438 -0.5404522 -0.2144562 -0.18279822 -0.40343875
-0.19736557 -0.3483317 0.096020594 -0.107719146 -0.18617941 -0.111334614 -0.04553801 -0.45193845
-0.23085187 0.12136967 -0.10361863 0.07769462 -0.14380819 -0.18275642 -0.3440549 -0.007302657
-0.35778403 -0.005869507 -0.14184333 -0.1428618 -0.2623137 -0.23127146 -0.115892634 -0.21090452
0.02792281 0.07225207 -0.13379472 -0.08385426 -0.09062053 0.03698276 -0.14635411 -0.3633454
-0.3467211 -0.32663745 -0.30596465 -0.30159593 -0.14747855 -0.2965125 -0.20167148 -0.32196033
-0.11974516 0.057133466 -0.054281693 0.06628687 -0.17693289 -0.36132926 -0.0060273935 -0.12891842
-0.29745233 -0.03817888 -0.058354724 0.2907048 -0.1423372 -0.18014692 -0.052175295 -0.18017587
-0.2852304 -0.081896916 -0.38843733 -0.16048546 0.046195835 -0.38255832 -0.17896527 -0.17185284
-0.20785132 0.00855793 -0.26811847 -0.23591645 -0.12033831 0.37016562 -0.036626633 -0.21675238
-0.1682867 -0.16140394 -0.016274905 0.016777806 -0.29456216 -0.25487193 -0.089181915 0.012130526
0.08713036 -0.41165364 -0.39512223 -0.4042247 -0.24257 -0.0049674697 -0.10123924 -0.37103182
0.076304026 -0.35850713 -0.32381976 -0.5259454 -0.42794666 -0.12703873 -0.18579362 -0.47660384
-0.12619238 -0.2365546 0.0046250313 -0.4282687 -0.0793611 -0.31527016 -0.5439785 -0.074023046
-0.17442816 0.12979548 0.07109901 0.03278518 -0.18154643 -0.26382938 -0.006847415 -0.11629738
-0.05810271 0.023010941 -0.10105601 0.12880802 -0.117407344 -0.08245174 -0.20703511 -0.19566359

network_body._body_endoder.seq_layers.2.bias f4 [128]
00000000: 5440 86bd 8e4f f53b b3e0 0cbd 0425 2c3d
00000010: 654e c0bb d136 273d cfc2 193d aac4 a03d
00000020: c629 d7bc 9916 093e b776 b4bc b9cb ca3a
00000030: 7373 4ebd b9a0 b73d 1682 6e3e 4402 ccbc
00000040: 569a d93d f8e2 203e 6083 0e3d 014e bf3d
00000050: 2277 133e 97c5 643d 2da0 d73c 8cb9 e63c
00000060: 256e d7ba 15f1 423b d855 28bd 88b3 13bc
00000070: c4b2 42bd 28b4 33be b887 d2bd 5aa5 ef3d
00000080: 67d1 6b3d c6a7 df3d 0f77 053e 3144 ecbd
00000090: acb4 043e 3b67 f3bc 0a99 6bbd 3397 c33c
000000a0: 3aa5 7e3d ab14 ab3d a1f7 0e3e 587c f5bd
000000b0: 240b 043b 2b37 803d aaa7 80bc db41 7f3d
000000c0: 0d20 de3c 60c0 103d d4bb 22be c6b7 ba3c
000000d0: 48d7 953d 4720 7bbe 694b b43c a5d0 893d
000000e0: e8e2 303e e1c6 d5bc b8a7 d4bc 7536 333d
000000f0: 1391 be3d d14f 7f3d 8354 023d 8338 8cbb
00000100: 0667 afbd 08d0 9f3d 0b8f 413e 2254 f13c
00000110: aa5a 99bd 53be 443d 2b07 d73d c6d5 f1bc
00000120: f215 a8bb aad8 5bbc b1b3 b1bc dbbe 82bd
00000130: 8481 083d ec3d f4bd 0482 743d cac1 7d3d
00000140: 3597 353b 545d 8e3d 46f1 5bbd f8d7 ba3d
00000150: 0d7a a83d 6668 a43d 5a3a 513d c6c3 a83d
00000160: efd2 173e 79fd 213e ae37 4e3e dd80 b03c
00000170: 16d4 373d c58c 8a3b 3b07 783d 93a2 e3bd
00000180: 5d90 81bc b9b1 e73d 2ccc 40bd 9acb 543e
00000190: 2208 b6bd dc4d aabd 8bf6 573c 3e69 853d
000001a0: cd01 003e 8e33 bbbd cd6b 623e 922b 983d
000001b0: 418e a13d 4297 773c 9188 d73c 25ec 923d
000001c0: 92de 9a3c b938 4e3d 8f6d e93c 43f7 5e3d
000001d0: 6065 853d affb 263e 7f10 fa3c 51e8 e73d
000001e0: 2381 8f3e 087d 29be b744 eb3d de06 533d
000001f0: 17dd cabd fa22 74bc d88f 7f3d f5f7 c33d
-0.06555238 0.0074862903 -0.034393977 0.04202749 -0.0058687204 0.04082376 0.0375393 0.07850011
-0.026265036 0.13387527 -0.022029264 0.0015472091 -0.05040307 0.08966202 0.23291811 -0.024903424
0.1062514 0.15711582 0.034793258 0.0934105 0.14400914 0.0558525 0.026321495 0.028164648
-0.0016436024 0.0029745747 -0.041097492 -0.009014972 -0.047533765 -0.17549193 -0.102797925 0.1170146
0.05757275 0.10920672 0.13033698 -0.11536444 0.12959546 -0.02971231 -0.057518996 0.023875808
0.06216929 0.083535515 0.1396165 -0.11986607 0.0020148242 0.062605225 -0.015704948 0.062318664
0.027114892 0.035339713 -0.15891963 0.022792708 0.07316452 -0.24524032 0.022008615 0.06729249
0.17274058 -0.02609581 -0.02595888 0.043753106 0.093050145 0.06233198 0.031818878 -0.0042791977
-0.08564572 0.07803351 0.18902223 0.029459063 -0.07487996 0.04803307 0.10499414 -0.02952088
-0.005129569 -0.013418356 -0.021692129 -0.06384059 0.03332664 -0.11925873 0.059694305 0.06195239
0.0027708535 0.06951395 -0.053696893 0.09123224 0.08226404 0.08027725 0.05108104 0.08240466
0.14826559 0.15819348 0.20138428 0.021545822 0.044879995 0.004228207 0.06055377 -0.11114993
-0.015815908 0.11313195 -0.047069713 0.20780793 -0.0888827 -0.08315632 0.013181339 0.06514214
0.12500687 -0.09140693 0.22111435 0.074301854 0.07888461 0.015111746 0.026310237 0.07173947
0.018904958 0.050347064 0.028494624 0.054435026 0.06513476 0.16306947 0.030525444 0.11323608
0.2802821 -0.16551602 0.11487716 0.05152022 -0.09905451 -0.014900917 0.06239304 0.095687784

action_model._continuous_distribution.log_sigma f4 [1, 3]
00000000: 6e15 54bf 969a 65bf 6caa bbbe
-0.828452 -0.89689004 -0.3665346

action_model._continuous_distribution.mu.weight f4 [3, 128]
00000000: 6266 3b3c 4547 a3bc f3e6 a13b 1522 683b
00000010: e53a 43be 9729 4fbd 7718 70be bcdc cfbd
00000020: e0ef 043e cbf2 f1bd 12f9 cbbc 470f 023b
00000030: 8322 113e d608 97bd bcde 0b3e 5986 bd3d
00000040: a097 e5bd 6f10 e9bd b6d2 94bd 1472 16be
00000050: 4827 8bbe 3f94 2a3e 4a55 ad3c 4332 853e
00000060: ff8a 383e c3f0 79bd 916e bd3b 8d84 c83c
00000070: 173d 42be ef47 873d c9e4 2d3d d2c0 38bd
00000080: 3f74 47bd e169 c43d a6b7 36be deb7 1ebc
00000090: d6ef a13d 1f49 3e3d 0ffe 033c ba5f 08be
000000a0: 7ce8 7b3e b24f 11be 54ab 3abe 3234 c9bd
000000b0: 378d 0cbe 01bf c13d 445c f3ba 366c 72bd
000000c0: 571f 74be ba6c 433e ac38 333d e9c6 b8bb
000000d0: 25a6 a6bd cda2 04bd 5676 f53d b145 6a3e
000000e0: b46b 50be 60e1 34be 04d0 4d3d 6f0b 1ebe
000000f0: 10d8 5c3d 578e d3bc 7fd6 413d 4eb2 b73b
00000100: ffaf 8abc abb1 19be 0266 86be f72f abbd
00000110: 9fa3 353d f290 28bd 96df 143c 4976 163d
00000120: 0fa8 26bd 93d0 693d 5889 5b3d bc6f 463d
00000130: 0f12 3dbe 75b8 013d cc0b 16be e8c7 b03e
00000140: b4eb fa3d f618 4dbd e49e 5c3d baa0 a6bc
00000150: 698d 1dbc a74c 5fb8 382a 013e 59ce cd3d
00000160: 3708 293e 2911 9c3e 9f89 84bd 677c ab3d
00000170: 5668 78bd b171 163d 2497 b83c a461 11bc
00000180: 1386 8f3c 3c3d c53d 0b63 c03c d057 f1bd
00000190: 768c dbbc eab4 f23d 8d75 7cbd 9fa1 d1bd
000001a0: 6b50 25bd 9106 f23d ba49 6bbe acf1 25be
000001b0: 6e5c 9abd e316 2e3d 2664 4bbe 414e e73d
000001c0: 24b5 853d d779 a4be 6eec 2fbe 6a69 32be
000001d0: efb3 293e c427 21be 1278 453d bcce d43c
000001e0: a34b 9ebd 0e07 733d d455 c9bd eae5 3a3e
000001f0: 1ea5 26bc d44f 63bd 720a d23c cac3 f8bd
00000200: 6968 17bd 970c a2bb 98fa 523d 274e 653c
00000210: f127 1e3e e2b2 79bb 08b3 0d3e 1c40 e03d
00000220: 4f9e 02bd ff22 13be b8f3 203d b1a2 7c3d
00000230: 4492 0abb 8919 063e f0e6 253c f4bc 9abd
00000240: 2518 283e f388 20be e5cb 413d 17a8 36bd
00000250: 6a73 7ebe 8dd6 76be 605d a3bd 2d31 533b
00000260: 430d 813d 7a56 d43d 6812 5dbe 9bdc 35bc
00000270: ddf3 b53e db75 253c 3ce1 073e 0e9d 463d
00000280: a08b 993d 87c3 33be f43f 623e 550b 3a3d
00000290: d639 1dbd 8354 d4bd 2b1c a33d 17ef d83d
000002a0: 36c7 de3d df9a fd3d 0f93 8cbe 5ec1 82bc
000002b0: 3e2c 0d3e ca44 89bd 797b 943c 448f f1bc
000002c0: 16e0 ad3d aacf 903c ddb3 84bd e48e 2ebd
000002d0: 3da5 e13d 3dd1 2d3c 9ba3 3a3d 4c9c 27be
000002e0: 608b 11be a8d1 5c3d 9d90 eabb ad89 d93d
000002f0: f931 0cbd a373 0ebe d2c9 18bd 177a 3dbb
00000300: e8a0 913d a4f6 273e d374 ed3d dbcc 033e
00000310: fcba 1bbd deab 203e 0c20 373e 9ace 23bd
00000320: 6b5e 1a3d ad07 b43d 98d1 3f3d 292d 18bc
00000330: 4df4 043e 56d1 fdbc e1c7 b53d 0534 013e
00000340: 5300 49bd 1faa 8d3d ede9 973c b09f 1a3e
00000350: 93dc c03d 8c98 073e a409 76bd 584a 2abd
00000360: 1032 a6bd d554 783e a9ed 46be 1529 fdbd
00000370: 0fe5 99bd a905 11bd 9ec6 16bd 46df 3c3c
00000380: 1884 713d 9641 97bd 8b85 e73d 5961 34be
00000390: fe3e 70bd 51b9 aa3d 7699 333d 237a 233e
000003a0: a8fa 8b3d 944f ffbd 8a15 75be b652 1a3e
000003b0: eaf3 aa3d cb23 073e d31d ef3d e9d0 39bc
000003c0: f358 9bbd bc2e 7d3e c68a 503d 79f1 673e
000003d0: 10fe 0abe f65e d63d 9bc0 a73d 9c38 74bd
000003e0: 0c6f 2bbe a546 86bd 5f1d a0be 42a2 2a3d
000003f0: 65f4 163e ccd0 023d f2b0 dbbd 33fc d63d
0.011437984 -0.019931445 0.0049408614 0.0035420705 -0.19065435 -0.050576773 -0.23446833 -0.101495236
0.1298213 -0.11813887 -0.02489904 0.0019845532 0.14173321 -0.07374732 0.13659185 0.092541404
-0.11210561 -0.113800876 -0.072667524 -0.14691955 -0.27178407 0.16658114 0.021158833 0.2601491
0.18021773 -0.061020624 0.005781003 0.024477268 -0.18968616 0.06605517 0.042454515 -0.045105763
-0.048694845 0.09590507 -0.17843494 -0.009687392 0.07907073 0.046456452 0.008056178 -0.13317767
0.24600405 -0.14190558 -0.18229419 -0.098244086 -0.13725744 0.09460259 -0.0018566926 -0.05918523
-0.2384008 0.19084445 0.04375522 -0.0056389463 -0.08137158 -0.03238182 0.119854614 0.22878148
-0.20353585 -0.17664099 0.050247207 -0.15434049 0.05391699 -0.025824709 0.0473237 0.0056059724
-0.016929625 -0.15009181 -0.262497 -0.08358758 0.044345494 -0.041153856 0.00908651 0.0367339
-0.040687617 0.057083678 0.053597778 0.048446402 -0.1846392 0.031670053 -0.14652938 0.34527516
0.12251988 -0.050072633 0.053862467 -0.020340312 -0.009616234 -5.323873e-05 0.12613761 0.10049123
0.1650704 0.30481842 -0.06471562 0.08373337 -0.060646378 0.03672952 0.022533007 -0.008873377
0.017519986 0.0963082 0.023484727 -0.11784327 -0.026800375 0.11850913 -0.061635543 -0.10235905
-0.040359896 0.11817659 -0.22977343 -0.16205472 -0.07537161 0.042502295 -0.19862422 0.112942226
0.065286905 -0.32124206 -0.17180035 -0.17423025 0.16572545 -0.15737826 0.04821021 0.025977485
-0.0772927 0.0593329 -0.098308235 0.18251768 -0.010171203 -0.055496052 0.025639746 -0.12146719
-0.036964808 -0.0049453485 0.051508516 0.013995684 0.15444924 -0.0038101007 0.13837826 0.10949728
-0.031889256 -0.14368819 0.03929493 0.061678592 -0.002114431 0.13095678 0.010125861 -0.07555571
0.1641546 -0.15677242 0.04731359 -0.044593897 -0.24848714 -0.24105282 -0.07976794 0.0032225356
0.063013576 0.103680566 -0.21589053 -0.01109996 0.35537615 0.0100989 0.13269514 0.048489623
0.074973345 -0.17555057 0.22094709 0.045420963 -0.038385235 -0.10367682 0.07964357 0.10592478
0.1087784 0.12383055 -0.27455947 -0.015961345 0.13786408 -0.067025736 0.018125283 -0.02948726
0.084900066 0.017677147 -0.06479619 -0.04261674 0.11017845 0.010608968 0.045566183 -0.16368216
-0.14213324 0.05391088 -0.0071583525 0.10621963 -0.034227345 -0.139113 -0.037301846 -0.0028911883
0.071107686 0.1640268 0.11594548 0.12871115 -0.03802012 0.15690562 0.17883319 -0.039991952
0.0376877 0.087905265 0.046830744 -0.009288111 0.12983818 -0.030983608 0.088760145 0.126175
-0.049072575 0.06917214 0.018544162 0.15099978 0.09417071 0.13241786 -0.060067788 -0.041574806
-0.081150174 0.24251111 -0.19426598 -0.123613514 -0.075143926 -0.03540579 -0.03681051 0.011527842
0.058963865 -0.073855564 0.11304768 -0.1761526 -0.058653824 0.083361275 0.043847524 0.1596456
0.06834918 -0.1246635 -0.23933998 0.15070614 0.08347304 0.13197248 0.116756104 -0.011341312
-0.07585325 0.24724859 0.050913595 0.22650708 -0.1357348 0.10467331 0.081910335 -0.0596243
-0.1674158 -0.06556443 -0.31272408 0.041658647 0.14741667 0.031937405 -0.10727109 0.10497322

action_model._continuous_distribution.mu.bias f4 [3]
00000000: db96 ba3d 1f50 79bd 1eaf 77be
0.09110805 -0.060867425 -0.24187896

action_model._discrete_distribution.branches.0.weight f4 [2, 128]
00000000: e83d efbd 1c02 513f 7055 2f3f a421 8b3f
00000010: b6c9 083f 5216 493e 0ff2 223f 8305 2a3f
00000020: 906c 65bc eae9 533e 644d 743f 8ad2 bf3e
00000030: 688a 063f ab5f 413f 18fb 85be 04e8 353f
00000040: bee0 313f c981 513e 421e d03e a271 96be
00000050: fd5f 40be d5f7 f43d 9f7c 9bbd 90b5 99bd
00000060: 86ca 093e b32e 283f 1ee3 813e 8f97 e33e
00000070: 3281 0f3e 6936 113f e966 743d 5ded f53d
00000080: 2a2b 5c3f 465c c93d 21f8 7a3e 217a 2c3f
00000090: 7616 553f f031 ef3e cbf0 2f3f e37d 203f
000000a0: ec07 80bd 2734 4a3f 4e01 303c 4c7a b73e
000000b0: e3d6 103f 1835 353f 582f b43e 617a afbe
000000c0: b985 593f 9ccf 8dbb a432 1d3e 767f b23e
000000d0: b249 0b3f a24f bb3e 2356 e63e 2d4c b83e
000000e0: 4bd6 793e d029 e53e 468f 703f 9191 bc3e
000000f0: 8e54 8b3e 8fb9 f03a 8928 a6be a2c8 563f
00000100: 3776 343f bba9 553f ec07 cc3d 0663 313f
00000110: bae5 5e3f 9536 4d3f 3c50 b1be 4873 113d
00000120: a8b4 3b3f 385f 573f 4298 233e fe82 233f
00000130: 1ab7 433f 3b38 5d3d 9f02 fa3e ecfb 1ab9
00000140: b70a 603e 4e2f ca3e c9a5 5b3f e825 3bbe
00000150: 6eac 403f 0e5a ee3e d490 053e 508b 363e
00000160: e069 38be 0551 a93e 1d28 25bf ae69 3f3f
00000170: 3b30 bc3e 5753 863f a583 23be cae6 113f
00000180: ac4b 6a3f 847d 2e3f 937f 3b3f 22c3 773e
00000190: 6b34 143f a01b 0b3f a02f 683e 1167 233e
000001a0: 1c2d 9cbe d9b6 933e 6f9c 9fbe f1e1 3e3d
000001b0: b46e fb3d 935b 6a3f f24a 9d3e 853d 613f
000001c0: 5adc 613f 1b63 003f f99d 0a3f 3b53 0a3f
000001d0: 9c67 923d d944 103e 40d3 8b3f 744d 7d3d
000001e0: 8334 6c3e e9bd 473e 8c30 aa3e b4a9 2fbd
000001f0: 8b37 8d3f cfa3 ae3e 1ee8 e1bc bbe5 243f
00000200: 43d8 0c3e 9533 4fbf cf9a 28bf 7579 8abf
00000210: d835 08bf ccd7 42be d685 20bf 4cc2 25bf
00000220: 518e fa3b cab6 60be 48a2 73bf 0d2e bfbe
00000230: d60f 04bf 611d 3fbf 8fb8 883e d607 39bf
00000240: 653e 30bf d75d 59be d756 cdbe 2c6c 8f3e
00000250: a323 543e 14dd f3bd 8eff 853d 1b5e ca3d
00000260: 881e 0abe b225 25bf 88fb 75be 6ca1 debe
00000270: 7613 0fbe 8474 0fbf a705 aabd 18f4 edbd
00000280: 41e7 53bf 46d0 c1bd 9ffa 88be b360 33bf
00000290: 8d1f 55bf 333e f6be e5f1 30bf 1aaf 1cbf
000002a0: 2012 303d 263e 4cbf c3b6 0fbc 5dbc acbe
000002b0: c864 13bf ec1d 39bf 102a b6be d615 b13e
000002c0: ea9e 54bf 03a8 0c3b 3a2c 28be cd23 b1be
000002d0: e76e 08bf 0563 aebe 0389 edbe f1e1 babe
000002e0: 9d2e 7bbe dc15 e3be f1da 6ebf 2565 c2be
000002f0: b087 74be 1819 38ba 9915 a23e bf44 55bf
00000300: 0ef6 31bf d2ec 54bf c2ef 8abd a39d 33bf
00000310: c72f 63bf 5d32 51bf d5d0 b73e 6699 afbc
00000320: 4c53 38bf de7f 53bf daca 31be b003 23bf
00000330: 534c 3ebf fa89 61bd 7eac f1be c8e2 413b
00000340: fba9 60be 0b30 d4be bf0a 5cbf 0956 2b3e
00000350: cf4a 3ebf 7270 e7be bfa1 eebd f3b2 43be
00000360: cb1b 403e e97e 9ebe c549 283f aa2f 3ebf
00000370: 66b4 bbbe 32e3 84bf f1be 0e3e 55ab 10bf
00000380: 38fc 69bf 813b 2bbf c533 3dbf 704b 71be
00000390: b19d 17bf 8260 08bf 4e9c 73be 92f1 0dbe
000003a0: b604 9c3e 8f76 91be 5710 a03e 65ad 4dbd
000003b0: e8d9 07be 897b 60bf c7ed 95be 51af 67bf
000003c0: d58d 60bf b96b f8be 8252 07bf 70cd 06bf
000003d0: 3b6e 95bd 7597 15be 15a7 8abf 153a 2bbd
000003e0: d8f1 67be 879a 3dbe 4899 a7be 4ebd 293d
000003f0: 6233 8bbf e744 b6be f24c 093d 59f5 1fbf
-0.116817296 0.81643844 0.6848974 1.0869641 0.53432786 0.19637421 0.636506 0.6641466
-0.014002934 0.206947 0.9543059 0.37465316 0.5255494 0.755366 -0.26168132 0.7105715
0.69483554 0.20459665 0.40648085 -0.2938357 -0.18786617 0.11961333 -0.07592129 -0.075053334
0.13456163 0.6569626 0.2536859 0.44451568 0.14014128 0.5672365 0.059668455 0.12008164
0.86003363 0.09832053 0.24508716 0.67373854 0.832374 0.46717787 0.68726796 0.6269209
-0.06251511 0.7898583 0.010742499 0.35835493 0.5657789 0.7078414 0.3519237 -0.34273055
0.8496967 -0.0043277275 0.15351349 0.3486287 0.54409325 0.36584193 0.44987592 0.35995618
0.24398153 0.44758463 0.9396862 0.36829808 0.27212948 0.0018365848 -0.324528 0.8389989
0.7049288 0.83462113 0.099624485 0.6929172 0.87069285 0.8016141 -0.34631526 0.03551033
0.73322535 0.8412967 0.1597605 0.63871753 0.76451266 0.054008704 0.48830125 -0.00014780433
0.21879087 0.39489216 0.85799843 -0.18276179 0.75263107 0.4655308 0.13043529 0.17826581
-0.18009138 0.33069625 -0.64514333 0.7477063 0.36755547 1.0494183 -0.15968187 0.5699278
0.91521716 0.6816027 0.7324154 0.24195531 0.57892483 0.5433903 0.22674417 0.15957285
-0.30503166 0.2885044 -0.31174037 0.046602193 0.12276974 0.9154598 0.3072124 0.87984496
0.88226855 0.5015122 0.541473 0.5403325 0.07148668 0.14088763 1.0923843 0.061841443
0.23066907 0.19506039 0.33240163 -0.04288645 1.1032575 0.3410935 -0.027576502 0.6441304
0.13754372 -0.8093808 -0.6586122 -1.0818316 -0.5320716 -0.19027632 -0.6270422 -0.647496
0.00764636 -0.21944728 -0.95169497 -0.3733982 -0.51586664 -0.74654204 0.26703307 -0.7227758
-0.68845206 -0.21227203 -0.40105316 0.28012216 0.2071672 -0.11907402 0.06542884 0.098812304
-0.13488209 -0.64510643 -0.24021733 -0.4348253 -0.13972268 -0.56037164 -0.08301859 -0.11618823
-0.8277474 -0.09463553 -0.2675371 -0.70069426 -0.8325127 -0.4809433 -0.691191 -0.61204684
0.042986035 -0.7978233 -0.008771601 -0.3373746 -0.57575655 -0.7231128 -0.35578966 0.34586972
-0.83054984 0.0021462447 -0.16423121 -0.34597626 -0.53294224 -0.3405992 -0.46393594 -0.36500505
-0.245295 -0.44352615 -0.9330283 -0.37967792 -0.23879886 -0.0007022782 0.31657103 -0.83308023
-0.69516075 -0.8317386 -0.067840114 -0.7016241 -0.8874478 -0.81717473 0.35901514 -0.02143545
-0.720021 -0.82616985 -0.17362538 -0.636775 -0.7433521 -0.055063225 -0.47201914 0.0029584635
-0.21939842 -0.41442904 -0.859539 0.16732039 -0.743329 -0.45202976 -0.11651944 -0.19111232
0.18760602 -0.309562 0.65737563 -0.7429148 -0.3666107 -1.0381835 0.13940026 -0.5651143
-0.9140048 -0.6688767 -0.7390712 -0.23563933 -0.59224993 -0.5327226 -0.23790094 -0.13861683
0.30472344 -0.28410766 0.31262466 -0.05021419 -0.13266718 -0.876885 -0.29282972 -0.90501887
-0.8771642 -0.48519686 -0.5286027 -0.5265722 -0.072964154 -0.14608558 -1.0832239 -0.04180344
-0.2265085 -0.18515979 -0.32734132 0.0414403 -1.0875056 -0.35599443 0.033520646 -0.62483746

action_model._discrete_distribution.branches.0.bias f4 [2]
00000000: 41ac 5cbe 3daf 5c3e
-0.21550085 0.21551223

action_model._discrete_distribution.branches.1.weight f4 [2, 128]
00000000: 7d23 e8be 8751 203e 3977 123d 2dae 00be
00000010: ab04 efbd 8f60 10be dff2 e63d 8bfa 86bd
00000020: 4794 aabc a15a 17be 2d68 5e3d 21cc adbe
00000030: 3790 bcbd f96c 42bd 0781 74be 14c4 c53e
00000040: 6f8a 22be 1d36 8b3e f4b7 ea3e 7d6e 8cbd
00000050: 57ee cfbe a7da 26be acd9 de3e 8521 af3d
00000060: 6fe3 023f 8dc9 46be efba 333e 772f 113e
00000070: 6dac 22be 0477 e8be 096b 6fbd 850b 7c3e
00000080: 128f 863c 5415 e93d ee00 75be d4f9 0ebd
00000090: 7a1b 0d3f 9e0f 5f3e 5481 6ebd dfa3 9d3d
000000a0: 9348 1f3d 9fc9 aebd 0042 a93c 37ce fb3d
000000b0: b77d 17be d1b8 d83e d99b 923d ebac 67be
000000c0: 8a03 953d 8e2e 313e 6935 00bf c4dc 27be
000000d0: 46e3 95be d253 61bc ff4f a3be 70d4 8bbe
000000e0: d256 22ba e4d9 c13e 8687 543e 9a5c 9abe
000000f0: 297a 4cbe 37f8 87bd 4947 afbe 19fa d73e
00000100: 74f6 42be 1581 d03c 89f0 8c3d 76f8 8c3c
00000110: b538 253e 4aee 2dbe adf4 00bf 5e83 223e
00000120: 3376 dbbc 8032 4c3d 1e01 053a 9275 173e
00000130: baba 7abe e4b2 97bd 37d4 f2bd 1666 83be
00000140: 11a1 fc3e 87d7 a7be fc2b b03e fafe a3be
00000150: 06e2 73bd fa28 b8bd 2d37 343d 042c 673e
00000160: aad9 bfbe 9042 d0be 4c5a d3be e5e7 943d
00000170: 3923 9bbe b29d 4c3e 5117 03be 8323 bc3d
00000180: 97af 1ebe b84d 133f 5fce 7fbd e961 1bbe
00000190: e2c4 89be e7c5 74be 0397 51be bb7e 18be
000001a0: 5e42 223e e849 2abe ed89 92be e525 1bbd
000001b0: 2659 233b 14d8 26be cfb6 47bc 8950 db3e
000001c0: 1d16 d43e 3286 6cbe bf9d cd3d aa7c 013d
000001d0: 0fdc 5f3e 5a24 913e dae7 733d 3109 393e
000001e0: ca71 eabd aea5 dbbe df87 c0be 62de 3f3e
000001f0: 29d9 d23d 3f4c b6be 4a4b 5e3e 868c 91be
00000200: c482 ec3e efd2 28be 2c14 33bd 6f85 033e
00000210: 0ec9 d93d d91e 073e 62ce d1bd bd35 4c3d
00000220: 2dd9 f73c a574 1e3e 11c8 80bd 6474 b13e
00000230: 26c0 c33d 90b2 553d 9de7 743e f48c bdbe
00000240: c4f3 1f3e dc5d 83be 899e edbe 5408 8d3d
00000250: 525e cf3e 9d51 353e ff13 dfbe b4b1 65bd
00000260: dcac 03bf 04ef 423e 1986 42be c775 e0bd
00000270: f207 193e 0896 dd3e 4398 793d 4264 75be
00000280: b096 0cbc 784d d4bd 48f0 683e 07c3 bd3c
00000290: 6c79 10bf af23 60be b6b3 663d d01f b0bd
000002a0: bf11 1bbd 670a 733d f8a8 67bb 545d 0fbe
000002b0: 5e22 1a3e b876 d4be bd8c 90bd 418c 6a3e
000002c0: f882 aebd 182c 36be 18a2 fb3e 2d1a 2e3e
000002d0: 14be 993e 4d04 bd3a 4ed8 a23e 79d2 923e
000002e0: d5b0 43ba 83a8 c1be eb25 3ebe bcfd 973e
000002f0: b5bd 453e ff3d 9e3d 8889 ad3e 93a5 d8be
00000300: 71b3 493e 05a1 b9bc 038c b7bd dbe8 08bd
00000310: 6693 22be d559 1d3e 3880 003f 65bf 1abe
00000320: 0c4c 873c bc2d 13bd 9086 563c ffbc 19be
00000330: 68f6 6c3e 1339 953d c6df 073e 2bd3 7b3e
00000340: 8ad3 00bf bd14 9e3e acaa b5be ebae a13e
00000350: bbba 9b3d c430 c03d 9b54 14bd cb14 75be
00000360: bcb8 c23e 29e5 c83e a09b d63e 4bae 9bbd
00000370: 5a96 a13e 10b1 4bbe f214 073e ed96 b9bd
00000380: 8bfe 273e ccbe 11bf 300b 6a3d 02ff 153e
00000390: 7841 853e 7223 763e e92c 433e 7ca8 063e
000003a0: 9293 1dbe e0f3 313e bc91 953e 688b 193d
000003b0: 470f 81bc 214a 303e ed4e ce3c c9ea e6be
000003c0: 5dbe c2be 6d0f 683e 47a7 b2bd d291 0fbd
000003d0: 8123 5fbe 0b97 95be be2a 81bd 7539 35be
000003e0: 4638 e53d 4894 d93e 4ec4 bd3e 37c3 2ebe
000003f0: 92fa e1bd d80f ba3e 6fa2 5cbe 20e7 8c3e
-0.45339575 0.156561 0.03575823 -0.12566443 -0.11670812 -0.14099334 0.11276793 -0.06590756
-0.020822657 -0.14780666 0.05429857 -0.339448 -0.09207194 -0.047467206 -0.23877345 0.38626158
-0.1587312 0.27189723 0.4584347 -0.068570115 -0.40611526 -0.16294347 0.43525445 0.08551315
0.51128286 -0.19412823 0.17551778 0.14178263 -0.15886088 -0.45403302 -0.058451686 0.2461377
0.016425643 0.11381021 -0.23926136 -0.034906223 0.5512005 0.21783301 -0.058228806 0.076972716
0.03888757 -0.0853455 0.020661354 0.12295192 -0.1479405 0.42328504 0.07158632 -0.22624557
0.07276066 0.17302915 -0.500815 -0.16392809 -0.29274958 -0.0137528945 -0.3189697 -0.27310514
-0.0006192747 0.3786155 0.20754823 -0.30148774 -0.19968475 -0.0663914 -0.34234074 0.42182997
-0.19039327 0.025452176 0.06881816 0.01720832 0.16134913 -0.16985431 -0.50373346 0.15870425
-0.02678976 0.049852848 0.0005073714 0.14790943 -0.24485293 -0.074071676 -0.11856883 -0.25663823
0.49341634 -0.32781622 0.34408557 -0.3203047 -0.059541725 -0.08992191 0.043997932 0.22575384
-0.37470752 -0.40675783 -0.4127983 0.07270793 -0.3030031 0.19982031 -0.12801863 0.09186461
-0.1549667 0.57540464 -0.06245267 -0.15174069 -0.26908022 -0.23903619 -0.20467763 -0.14892094
0.1584563 -0.16629755 -0.28620854 -0.037877936 0.0024924963 -0.16293365 -0.012189581 0.4283488
0.4142312 -0.23098066 0.10039853 0.03161303 0.2186129 0.28348047 0.059547283 0.18069912
-0.11447485 -0.4289984 -0.3760366 0.18737176 0.10295326 -0.35605046 0.21708408 -0.28427523
0.46193516 -0.16486715 -0.04372041 0.1284387 0.10634051 0.13195361 -0.102444425 0.049855936
0.030254925 0.15474184 -0.0628816 0.34659111 0.09558134 0.052172244 0.23916478 -0.370216
0.15620333 -0.25657547 -0.46410015 0.06886354 0.40501648 0.17706914 -0.43569943 -0.056077674
-0.5143564 0.1903649 -0.18996467 -0.10959964 0.14944437 0.43278527 0.060936224 -0.23964027
-0.008580849 -0.103663385 0.2274791 0.023164285 -0.56435275 -0.21888612 0.05632373 -0.08599818
-0.03785872 0.059336092 -0.0035348516 -0.14000446 0.15052173 -0.41496825 -0.07058094 0.22905065
-0.08521074 -0.17790258 0.49147105 0.17002173 0.3002783 0.0014420837 0.31805652 0.28676203
-0.00074650097 -0.37823877 -0.18569152 0.2968577 0.19310649 0.077266686 0.3389399 -0.42313823
0.19697358 -0.022659788 -0.08962252 -0.033425193 -0.1587654 0.153663 0.50195646 -0.15112074
0.016515754 -0.035932288 0.013093606 -0.15013503 0.23140872 0.07286277 0.13268957 0.24592273
-0.50322783 0.30875197 -0.35481775 0.31578764 0.076039754 0.09384301 -0.0362135 -0.23933713
0.38031566 0.39237335 0.41915607 -0.07601603 0.31560022 -0.19891763 0.13191584 -0.0906199
0.16405694 -0.5693176 0.057139575 0.14648059 0.2602651 0.24036959 0.190601 0.13150209
-0.15388325 0.17378187 0.2921275 0.037486464 -0.015754355 0.17215778 0.02518412 -0.45101002
-0.3803586 0.22662134 -0.08723312 -0.035051174 -0.21790887 -0.292168 -0.063069806 -0.176977
0.11192374 0.42495942 0.3706383 -0.17066656 -0.110341206 0.36340213 -0.21546338 0.27520084

action_model._discrete_distribution.branches.1.bias f4 [2]
00000000: ecc3 e8bb 99d0 e83b
-0.007103434 0.007104945

exp_avg f4 [128, 52]
00000000: 01bd 7ba2 0400 0000 0400 0000 7f9f 5037
00000010: 574e 5637 8f56 0128 0400 0080 0400 0080
00000020: f7be 2337 b2a3 8337 1f79 309b 0400 0000
00000030: 0400 0000 cfda 9f37 eed4 bc37 e40a 91b3
00000040: 0400 0000 0400 0000 a78a 4f37 5551 6e36
00000050: 69a8 a834 0400 0080 0400 0080 4fd2 4937
00000060: bbdd 8f37 1a81 07b6 0400 0080 0400 0080
00000070: d745 7037 d448 c736 cacd a834 0400 0080
00000080: 0400 0000 5767 4e37 f772 7337 389c 4035
00000090: 0400 0000 0400 0080 c75a 5437 3430 d236
000000a0: 4737 28b3 0400 0080 0400 0000 5f95 5337
000000b0: 3caa 6837 e01c e936 ea5a b237 1116 3c38
000000c0: e1e9 0cba 2569 18b7 af03 29ba 6c5f ed38
000000d0: 1db5 12a4 0400 0000 0400 0000 057a 44b7
000000e0: cc0d 19b7 3cb8 f026 0400 0000 0400 0080
000000f0: 7777 4ab7 3aa7 07b6 7913 419a 0400 0000
00000100: 0400 0080 497a 0ab7 81a8 8eb6 05d6 92b4
00000110: 0400 0080 0400 0000 785e 3eb7 5946 84b7
00000120: 36b3 6833 0400 0080 0400 0000 d809 45b7
00000130: 3064 cab6 57fe e3b5 0400 0000 0400 0000
00000140: 287b 26b7 868f 79b7 2fe0 6b33 0400 0080
00000150: 0400 0000 66f8 42b7 fdd5 15b7 2c6d 3835
00000160: 0400 0000 0400 0080 1f4c 42b7 50ce 72b7
00000170: a2c3 70b3 0400 0080 0400 0000 6a2e 42b7
00000180: efff 22b7 5004 3db8 987f 59b5 6043 34b7
00000190: 3514 4f3a 2abe b237 f8f5 c3b9 82ca f538
000001a0: 828e 5024 0400 0080 0400 0000 b42d 00b9
000001b0: 0b23 f9b8 a054 a128 0400 0000 0400 0080
000001c0: 627d 05b9 bfed f8b8 e8d9 269b 0400 0000
000001d0: 0400 0080 d33f bcb8 6017 b5b8 80cc 7bb3
000001e0: 0400 0080 0400 0000 fd7b feb8 b7ff 00b9
000001f0: 9583 04b4 0400 0000 0400 0080 8faf 00b9
00000200: f097 f0b8 223f d8b5 0400 0000 0400 0080
00000210: 183a fbb8 a859 02b9 a178 04b4 0400 0080
00000220: 0400 0000 7c9b feb8 5f37 f6b8 ff86 4035
00000230: 0400 0000 0400 0000 babf fdb8 ca53 04b9
00000240: 32f2 8bb4 0400 0080 0400 0000 aadd feb8
00000250: d4f8 f8b8 ac2b f4b8 fcd9 a6b7 8050 79b8
00000260: 5712 6bbb 5045 e1b8 9485 ecb9 bc65 11b9
00000270: acd7 e726 0400 0080 0400 0080 9645 15b8
00000280: 2ed9 f4b8 3d58 c32b 0400 0080 0400 0000
00000290: 7fcd 8cb9 ee3c bbb9 16dd b41f 0400 0080
000002a0: 0400 0080 ca0a 7e39 6975 5d39 2cab b636
000002b0: 0400 0000 0400 0000 2e02 05b9 be3a 96b9
000002c0: ccad 3139 0400 0000 0400 0000 3fd0 89b9
000002d0: 1cc3 8bb9 ac26 6ab9 0400 0080 0400 0080
000002e0: 5db7 d538 4ed0 8db8 8dad 3139 0400 0000
000002f0: 0400 0000 3399 feb8 2b3b 01b9 0a2e b337
00000300: 0400 0000 0400 0080 5b9b d9b8 1602 79b9
00000310: 9e10 55b6 0400 0000 0400 0080 4ae4 4838
00000320: c6b6 1d38 243e f13a 3e46 633a 34cd 0c3b
00000330: 12f5 c3bd 0cb6 20bb f984 69bc f951 60bb
00000340: 35cc a623 0400 0080 0400 0000 1797 aeb6
00000350: ce88 7db6 0eb7 1426 0400 0000 0400 0080
00000360: c928 cbb6 d943 95b6 63a8 6d9a 0400 0000
00000370: 0400 0080 8a0e 0bb6 43e1 25b6 16cd 02b2
00000380: 0400 0080 0400 0000 dfaf abb6 1406 bcb6
00000390: 56e3 aab3 0400 0000 0400 0000 7967 adb6
000003a0: 6796 93b6 0f87 3835 0400 0080 0400 0080
000003b0: 8f01 c3b6 dec5 e5b6 5ef3 aab3 0400 0080
000003c0: 0400 0080 05f1 abb6 6710 9db6 4611 95b3
000003d0: 0400 0000 0400 0000 51cc a8b6 5152 abb6
000003e0: 8892 88b2 0400 0080 0400 0000 489c aeb6
000003f0: dfb2 a1b6 01af 88b6 eece e6b3 ff53 f035
-3.41169e-18 6e-45 6e-45 1.2434902e-05 1.2773634e-05 7.179708e-15 -6e-45 -6e-45
9.76002e-06 1.5692644e-05 -1.4597515e-22 6e-45 6e-45 1.9056168e-05 2.25105e-05 -6.75407e-08
6e-45 6e-45 1.2370444e-05 3.5512105e-06 3.1414973e-07 -6e-45 -6e-45 1.20295e-05
1.715018e-05 -2.0191715e-06 -6e-45 -6e-45 1.4321376e-05 5.9391405e-06 3.144217e-07 -6e-45
6e-45 1.23026175e-05 1.4510696e-05 7.17529e-07 6e-45 -6e-45 1.265732e-05 6.2640993e-06
-3.9165823e-08 -6e-45 6e-45 1.2611358e-05 1.3867913e-05 6.9473026e-06 2.1261589e-05 4.4843244e-05
-0.0005375427 -9.084387e-06 -0.0006447387 0.00011318814 -3.1812112e-17 6e-45 6e-45 -1.171092e-05
-9.122723e-06 1.6703282e-15 6e-45 -6e-45 -1.2067953e-05 -2.0213906e-06 -3.9927194e-23 6e-45
-6e-45 -8.253913e-06 -4.251546e-06 -2.735034e-07 -6e-45 6e-45 -1.1346878e-05 -1.5768384e-05
5.41797e-08 -6e-45 6e-45 -1.1744407e-05 -6.0317325e-06 -1.6986841e-06 6e-45 6e-45
-9.923046e-06 -1.4874973e-05 5.4919095e-08 -6e-45 6e-45 -1.1621136e-05 -8.930915e-06 6.870421e-07
6e-45 -6e-45 -1.1581024e-05 -1.447236e-05 -5.605728e-08 -6e-45 6e-45 -1.1574108e-05
-9.715542e-06 -4.5065128e-05 -8.102447e-07 -1.0744523e-05 0.00078994344 2.1307806e-05 -0.0003737656 0.000117202304
4.522352e-17 -6e-45 6e-45 -0.00012224057 -0.000118797725 1.7911291e-14 6e-45 -6e-45
-0.00012730577 -0.00011869845 -1.3801607e-22 6e-45 -6e-45 -8.976427e-05 -8.6351065e-05 -5.8626483e-08
-6e-45 6e-45 -0.000121347584 -0.00012302292 -1.2341327e-07 6e-45 -6e-45 -0.00012272432
-0.00011472392 -1.6111628e-06 6e-45 -6e-45 -0.000119794335 -0.00012431166 -1.2337343e-07 -6e-45
6e-45 -0.00012140625 -0.00011740508 7.172202e-07 6e-45 6e-45 -0.00012099692 -0.00012619715
-2.6066988e-07 -6e-45 6e-45 -0.00012152952 -0.000118719094 -0.00011642961 -1.9890249e-05 -5.9441198e-05
-0.0035869086 -0.000107417465 -0.0004511295 -0.00013866177 1.6087303e-15 -6e-45 -6e-45 -3.5589175e-05
-0.000116752795 1.3880074e-12 -6e-45 6e-45 -0.00026855987 -0.00035712816 7.659872e-20 -6e-45
-6e-45 0.00024227347 0.00021119941 5.4439497e-06 6e-45 6e-45 -0.0001268468 -0.00028653996
0.0001694478 6e-45 6e-45 -0.00026285832 -0.00026657514 -0.00022330385 -6e-45 -6e-45
0.000101907855 -6.762204e-05 0.00016944688 6e-45 6e-45 -0.000121401994 -0.0001232444 2.1359901e-05
6e-45 -6e-45 -0.000103763035 -0.00023747268 -3.1749146e-06 6e-45 -6e-45 4.7896327e-05
3.7601938e-05 0.001840536 0.00086698297 0.0021484615 -0.09568228 -0.002452257 -0.014252895 -0.0034228547
1.8084241e-17 -6e-45 6e-45 -5.2031933e-06 -3.7779569e-06 5.15959e-16 6e-45 -6e-45
-6.0546195e-06 -4.4484445e-06 -4.9146473e-23 6e-45 -6e-45 -2.0721077e-06 -2.4718036e-06 -7.613627e-09
-6e-45 6e-45 -5.116671e-06 -5.603544e-06 -7.957594e-08 6e-45 6e-45 -5.1678476e-06
-4.3984505e-06 6.874188e-07 -6e-45 -6e-45 -5.8116343e-06 -6.8477666e-06 -7.96051e-08 -6e-45
-6e-45 -5.1242555e-06 -4.680874e-06 -6.941495e-08 6e-45 6e-45 -5.0305757e-06 -5.10578e-06
-1.5899118e-08 -6e-45 6e-45 -5.2037976e-06 -4.8189972e-06 -4.073489e-06 -1.074785e-07 1.790584e-06

exp_avg_sq f4 [128, 52]
00000000: e0c3 db31 f401 0000 f401 0000 a573 3835
00000010: c5e4 3835 f3b1 0232 f0a9 122e f401 0000
00000020: 9fdc 3435 17df 3535 b0e0 9432 f401 0000
00000030: f401 0000 0df0 3735 9d36 3835 28ae 5e32
00000040: 95c1 290b 7b5c b52a 6f5d 2835 2e16 2935
00000050: 6754 7c32 f401 0000 f401 0000 6a7e 3635
00000060: a6ad 3635 a887 0434 f401 0000 8dec 5628
00000070: 32a8 1e35 21b6 1e35 3b46 9332 f401 0000
00000080: 1f0b a423 f60e 3635 4a11 3635 72b7 c433
00000090: ad59 f226 98a7 3c2d a86d 1a35 2067 1a35
000000a0: 256c e331 f401 0000 9d8a 5918 c24e 3835
000000b0: 6453 3835 1d6a 2335 9d64 e633 e6ca 1035
000000c0: 3b21 ed3a 6140 b035 bb0f 1038 6268 6f36
000000d0: 1829 ca30 f401 0000 f401 0000 b95c 3d35
000000e0: d6cf 3d35 6249 1032 e68a e32d f401 0000
000000f0: a0d5 1a35 e8a8 1c35 ef98 d431 f401 0000
00000100: f401 0000 30a9 3e35 303a 3f35 982c d331
00000110: 8836 220c 9f86 da2a 9eb6 1735 d7ff 1735
00000120: 8756 cf31 f401 0000 f401 0000 bc64 3d35
00000130: f592 3d35 c5b3 5734 f401 0000 b89b 0729
00000140: b46c 1535 6acf 1435 fb0d 3e32 f401 0000
00000150: a25f 3324 03d2 3b35 b2cf 3b35 d9d9 4333
00000160: 1b59 a626 907a c529 a3d6 1335 5b6f 1335
00000170: 449b a931 f401 0000 bed1 a219 14f6 3c35
00000180: 9ff1 3c35 53ab 6e35 cd4b 2034 3cf9 5235
00000190: 28f9 2f3b d778 f135 dbe6 ac37 423a 9436
000001a0: 952e 1132 f401 0000 f401 0000 9d88 b234
000001b0: 33ec b434 34f5 f231 a603 bd2d f401 0000
000001c0: 6a27 9b34 e2b5 a134 0f12 7832 f401 0000
000001d0: f401 0000 88dc bc34 15f6 bf34 6c92 de30
000001e0: cbd8 870a 7007 032b 76c9 9134 8e4b 9434
000001f0: 39f7 f731 f401 0000 f401 0000 d1a8 b334
00000200: 78ee b434 39cf b833 f401 0000 de2a 782a
00000210: 5ff0 8e34 42a2 8f34 6f4f 0032 f401 0000
00000220: 6795 9d24 d861 af34 35e0 af34 1f50 8f33
00000230: f859 282a ae16 572a 201a 8434 25b2 8534
00000240: b4d3 4231 f401 0000 299d 1a1a 19e9 b134
00000250: e136 b234 d74e 8335 d67f 1c34 53c8 4635
00000260: e9a9 523b fc74 ff35 4772 6537 fd46 a336
00000270: 5f0e 0035 f401 0000 f401 0000 2e4b d538
00000280: 3aa4 d638 bc08 bc34 4afc dc31 d41e 0000
00000290: db58 d138 4e8b d438 90ad 1e35 f401 0000
000002a0: f401 0000 b29c dc38 d1a2 dd38 300a 9135
000002b0: b5c6 8010 9c43 472d 09e3 d038 d6d3 d138
000002c0: 447d 0a35 f401 0000 7f70 0100 bf9a d138
000002d0: dd28 d238 7c18 8b36 f401 0000 94a0 072e
000002e0: 6a09 ca38 1921 cb38 9d4d 9a35 f401 0000
000002f0: 4335 b928 b138 c838 cf9c c838 8578 0237
00000300: 7ba2 4632 2f7c e332 3072 d138 0a0a d238
00000310: 7310 8c35 f401 0000 db8e 111d 5a61 9c38
00000320: 29cd 9c38 758f ae38 dd25 4e37 8d83 8f38
00000330: fa4e 2b3f cb8d 4839 7e26 bd3b b775 033a
00000340: ca97 102f f401 0000 f401 0000 f4bb 5832
00000350: 0dcf 5932 4f37 0d2e 1785 782a f401 0000
00000360: 05fc 2732 f1ae 2b32 736e 5e2f f401 0000
00000370: f401 0000 75f2 6432 8981 6632 f4ec a82e
00000380: ab61 070a 785a bc22 c960 1332 d033 1632
00000390: 4a84 4a2f f401 0000 f401 0000 fb92 6032
000003a0: 573a 6132 e069 c031 f401 0000 70ff 0e27
000003b0: 19dc 0d32 8c2e 0e32 ab74 672f f401 0000
000003c0: 0a8b 201f 1bd5 5632 9118 5732 6591 4431
000003d0: fe69 d924 e16b cb25 5fbf 0532 1ab9 0632
000003e0: 97de 422f f401 0000 144e 2d18 f28e 5732
000003f0: 8eab 5732 59fa ac32 e2a0 7731 066e ab32
6.3960073e-09 7e-43 7e-43 6.8713626e-07 6.8878245e-07 7.607457e-09 3.334749e-11 7e-43
6.737627e-07 6.7752393e-07 1.7331644e-08 7e-43 7e-43 6.852213e-07 6.8624814e-07 1.2961699e-08
3.269385e-32 3.221623e-13 6.272084e-07 6.298968e-07 1.4687521e-08 7e-43 7e-43 6.798424e-07
6.8052975e-07 1.234281e-07 7e-43 1.193068e-14 5.9104343e-07 5.912462e-07 1.714499e-08 7e-43
1.7785626e-17 6.7822054e-07 6.782544e-07 9.16033e-08 1.681643e-15 1.0723776e-11 5.752904e-07 5.751954e-07
6.618864e-09 7e-43 2.8116574e-24 6.865995e-07 6.866669e-07 6.0876647e-07 1.0728511e-07 5.3939436e-07
0.0018091568 1.3131759e-06 3.4346926e-05 3.5674534e-06 1.4709114e-09 7e-43 7e-43 7.0542916e-07
7.071043e-07 8.3985885e-09 2.5868595e-11 7e-43 5.7680336e-07 5.836032e-07 6.1873986e-09 7e-43
7e-43 7.1026716e-07 7.123772e-07 6.145978e-09 1.2496436e-31 3.881799e-13 5.6517626e-07 5.662418e-07
6.03433e-09 7e-43 7e-43 7.0554574e-07 7.062184e-07 2.0088835e-07 7e-43 3.0111086e-14
5.566501e-07 5.5436124e-07 1.1062634e-08 7e-43 3.8895442e-17 6.9968536e-07 6.9965165e-07 4.5600107e-08
1.1542716e-15 8.7698186e-14 5.5074105e-07 5.492381e-07 4.936199e-09 7e-43 1.6835122e-23 7.039355e-07
7.038706e-07 8.891122e-07 1.4928737e-07 7.859378e-07 0.002685139 1.7991068e-06 2.0611498e-05 4.417526e-06
8.450702e-09 7e-43 7e-43 3.3254483e-07 3.369947e-07 7.0710033e-09 2.1488433e-11 7e-43
2.8899677e-07 3.0120924e-07 1.4439606e-08 7e-43 7e-43 3.5178186e-07 3.575557e-07 1.6194242e-09
1.3081576e-32 4.655087e-13 2.7154937e-07 2.7622121e-07 7.216752e-09 7e-43 7e-43 3.3464178e-07
3.3701122e-07 8.605861e-08 7e-43 2.2041697e-13 2.6624454e-07 2.6753884e-07 7.468642e-09 7e-43
6.8340994e-17 3.266748e-07 3.2759422e-07 6.67353e-08 1.4952612e-13 1.9103705e-13 2.4605924e-07 2.4902798e-07
2.8351055e-09 7e-43 3.1973407e-23 3.313842e-07 3.3195013e-07 9.783206e-07 1.4575139e-07 7.405226e-07
0.0032144731 1.9033027e-06 1.3676071e-05 4.8660427e-06 4.770463e-07 7e-43 7e-43 0.00010170635
0.00010234905 3.5024084e-07 6.4315246e-09 1.1059e-41 9.982447e-05 0.00010134895 5.9112153e-07 7e-43
7e-43 0.00010519604 0.00010568428 1.0806307e-06 5.0793255e-29 1.1326853e-11 9.9605015e-05 0.00010005354
5.159129e-07 7e-43 1.32191e-40 9.99472e-05 0.00010021192 4.145373e-06 7e-43 3.0838068e-11
9.633864e-05 9.685959e-05 1.1496483e-06 7e-43 2.0562225e-14 9.547303e-05 9.565951e-05 7.7766645e-06
1.1562061e-08 2.648275e-08 9.987166e-05 0.0001001545 1.04356e-06 7e-43 1.9264445e-21 7.456793e-05
7.476874e-05 8.3236875e-05 1.2287373e-05 6.8432746e-05 0.66917384 0.00019126308 0.005772411 0.00050147943
1.315065e-10 7e-43 7e-43 1.261559e-08 1.267814e-08 3.2108812e-11 2.2073e-13 7e-43
9.777982e-09 9.993287e-09 2.0230022e-10 7e-43 7e-43 1.3326475e-08 1.3417215e-08 7.681847e-11
6.518383e-33 5.105329e-18 8.5785326e-09 8.74293e-09 1.8418791e-10 7e-43 7e-43 1.30719355e-08
1.3109989e-08 5.599972e-09 7e-43 1.9844932e-15 8.257325e-09 8.276071e-09 2.1050776e-10 7e-43
3.3996328e-20 1.2504894e-08 1.2520233e-08 2.86044e-09 9.4288306e-17 3.5287988e-16 7.785132e-09 7.841914e-09
1.7723277e-10 7e-43 2.2399145e-24 1.2547149e-08 1.2553654e-08 2.013728e-08 3.6034682e-09 1.9957053e-08
