VirtualAquarium/results/VirtualAquariumReproducao/VirtualAquarium/VirtualAquarium-2499994.onnx (onnx, 100504 bytes, 12 tensors)

action_model._continuous_distribution.log_sigma f4 [1, 3]
000000 35 95 8d bf 2c 5b 8d bf e6 6a 45 bf
       -1.1061159 -1.1043448 -0.7711624

action_model._continuous_distribution.mu.bias f4 [3]
000000 04 c1 09 3e 01 e4 e6 bd d4 7f 78 be
       0.13452536 -0.11273957 -0.24267513

action_model._continuous_distribution.mu.weight f4 [3, 128]
000000 f1 2e 65 bc 93 14 cb bd b3 31 44 be a2 ba 01 be
       -0.0139882425 -0.099160336 -0.19159584 -0.12668851
000010 b8 09 76 be 76 79 19 be f6 ca 6e be 16 67 28 be
       -0.24027145 -0.1498774 -0.23319611 -0.16445574
000020 ee de 9b bd 10 3c 0a be da db d8 bc 77 ac 33 bd
       -0.0761088 -0.13499475 -0.02647202 -0.043865647
000030 a9 99 2d 3c 15 70 a5 bd a4 aa 1a 3e c7 a7 9c bd
       0.0105957175 -0.080780186 0.15104157 -0.076491885
000040 db fa 17 be 5f 08 83 3c e1 27 7b be 91 64 cd bd
       -0.14841788 0.015995203 -0.24526931 -0.10028947
000050 70 a6 96 be 0d 84 df 3b 8e c9 91 bd 7c c0 d1 3d
       -0.29423857 0.0068211616 -0.07118522 0.102417916
000060 8d 3c 28 3e 7b 61 1d be fe c4 00 be 68 c8 03 be
       0.16429348 -0.15369217 -0.12575147 -0.12869418
000070 c4 d4 83 be 1a 0c ba 3c 8a c6 2a bd 4b 72 af bd
       -0.25748265 0.022710849 -0.041693248 -0.085667215
000080 c9 bb 50 bd d1 8b fd 3c 0c 17 87 be 25 d6 0b bd
       -0.050960336 0.030950459 -0.2638477 -0.03413977
000090 a6 ae 91 3b a2 4f 37 bc 5c 9f ba bd 90 a7 39 be
       0.0044458685 -0.01118842 -0.09112427 -0.18130326
0000a0 74 d8 81 3e 74 4b 47 be 73 89 43 be 7a d0 3e be
       0.25360453 -0.19462377 -0.19095401 -0.18634215
0000b0 3c c4 3a be 12 06 e0 3c ac 17 33 be cd 27 4c bd
       -0.1823892 0.027346645 -0.17489499 -0.049842644
0000c0 ea 5c 95 be f9 db 44 3e bb d2 f9 bc 4f 4b 03 be
       -0.2917245 0.19224538 -0.030495992 -0.12821697
0000d0 73 d7 e9 bd cc a9 37 be e7 ac 9c 3d a7 f2 33 3e
       -0.11418047 -0.17935866 0.07650166 0.17573033
0000e0 c6 b1 64 be a5 ce 4a be 56 8b 0e bc 89 05 0d be
       -0.2233344 -0.19805391 -0.008700212 -0.13771643
0000f0 eb 23 03 be 01 da 0e be 72 e1 e1 3d d7 66 5c bd
       -0.1280667 -0.1395035 0.110293284 -0.053809013
000100 01 68 0f be cb 47 41 be 9e 8e 9a be 35 0b e7 bd
       -0.14004518 -0.18875043 -0.30186933 -0.112814344
000110 15 72 10 bd ad 60 02 be 12 bc d4 bd 2f 8c 1a be
       -0.035265047 -0.12732191 -0.10387434 -0.15092538
000120 1a 5e 1c be 82 8a f0 3b 95 bc 6d 3d b4 78 3c 3b
       -0.15270272 0.00734073 0.058041174 0.0028758468
000130 ba be 3d be e0 72 10 3c ea 24 33 be 56 08 74 3e
       -0.18529788 0.008816451 -0.1749455 0.23831305
000140 f5 a8 87 bd e6 ff 2a bd 08 cb 13 be 9a d7 e4 bc
       -0.06624023 -0.04174795 -0.14432919 -0.027934838
000150 c4 74 04 be 1b 66 85 bd 9a 1d a0 3d e9 8b 08 bc
       -0.12935168 -0.06513616 0.07818146 -0.008334138
000160 c3 90 43 3e af b9 1c 3e 24 29 5f 3a 8e 54 7a b9
       0.19098191 0.15305208 0.00085129053 -0.00023873357
000170 a5 cd d9 bd 1d 4d d2 3d e9 0d 04 3d 7e a6 36 be
       -0.10634927 0.102686144 0.03223983 -0.17836949
000180 85 cb ea bd 26 cc 7f 3d 51 44 c5 bd 4c 1f 0c be
       -0.114645995 0.06245055 -0.09632171 -0.13683814
000190 e5 e0 d4 bd d7 8e 83 bd 3f e9 20 3c 51 9d 11 be
       -0.10394458 -0.06423729 0.009821235 -0.14220168
0001a0 62 7d 54 bd 09 fb 16 3d 5e 1c 08 be 0a 91 05 be
       -0.051877387 0.0368605 -0.13292071 -0.1304361
0001b0 62 af 2f be bd 05 7f bc 2a fa 87 be a3 94 2a 3d
       -0.17156747 -0.015565333 -0.26558048 0.041645657
0001c0 7a 16 4c bd 60 e0 b8 be 77 41 49 be 49 84 5b be
       -0.049826123 -0.36108685 -0.19653879 -0.21437182
0001d0 3f ae ec 3d d3 8e a8 bd 7a 28 43 bc 8d 51 6d 3d
       0.11556672 -0.082303666 -0.011911506 0.0579391
0001e0 04 7e d4 bd 43 d6 80 bc e9 f3 2f be 96 73 3b 3e
       -0.10375598 -0.015727168 -0.17182888 0.18305811
0001f0 f1 1a 4a be c7 e9 16 be 1c fb bd 3d e0 0d d9 bd
       -0.1973684 -0.14737616 0.09276411 -0.105983496
000200 33 a5 14 3e 9f 88 3b 3e e9 2a 73 3e 4f 59 2f 3e
       0.14516144 0.18313836 0.23746838 0.17123912
000210 84 a5 70 3e 48 43 38 3e 82 b2 26 3e 4e 94 84 3e
       0.23500639 0.17994416 0.16279033 0.25894397
000220 25 af 1f 3e c5 ce 06 be 8c fe 20 3e 24 ae 1a 3e
       0.15594156 -0.13164814 0.15722102 0.15105492
000230 c7 a7 47 3e e3 65 64 3e 68 a3 89 3b ee 57 fd 3c
       0.19497596 0.22304492 0.0042003877 0.030925717
000240 f9 d8 8e 3e b1 36 c8 be 3f 57 61 3e 5e d8 35 bd
       0.27899912 -0.39104226 0.22005938 -0.044395797
000250 88 47 84 bd 33 1c 4f be 2d 0f 9b 3d a3 ec d6 3d
       -0.06458956 -0.20225601 0.07571254 0.104943536
000260 61 8f 5e 3d 5b b1 66 3e 3e 99 4b be 1e 82 10 3e
       0.054335956 0.22528593 -0.19882676 0.14112136
000270 53 5e df 3e 0e 42 56 3e ae 38 3b 3e b3 f5 d8 3d
       0.4362665 0.20923635 0.1828334 0.105937384
000280 17 68 79 3e 16 bd 07 be 7e 5d 85 3e e3 cc 3e 3e
       0.24356113 -0.13255724 0.2604789 0.18632846
000290 36 3e 01 3e 96 a8 f7 3c 19 5d 72 3e e9 ca 5f 3e
       0.12621388 0.030231755 0.23668326 0.21854748
0002a0 e0 c9 09 3e 86 70 e4 3d 9b 8a 8c bd 93 fd 14 3e
       0.13455915 0.11154275 -0.068623744 0.14549856
0002b0 af 10 8e 3e da 68 b8 3c ae 60 58 3e 56 78 d0 3c
       0.27747104 0.022510935 0.2113063 0.025448006
0002c0 f7 6d 27 3e 98 33 67 3d 7e 94 d3 3d 4a 3e a8 3d
       0.16350542 0.056445688 0.10331057 0.08215006
0002d0 2f 48 71 3e 5a 78 75 3e 70 c6 3b 3e 93 5c 8b 3d
       0.23562692 0.23971692 0.18337417 0.068047665
0002e0 9d cb ab bd a9 b7 6b 3e af d7 44 3e 0c a1 7e 3e
       -0.083884455 0.2301928 0.19222902 0.24866122
0002f0 52 47 82 3d 79 d4 eb 3d 70 9c 9c 3d f5 02 33 3e
       0.063612595 0.11515135 0.076470256 0.17481597
000300 fb d1 5b 3e 81 1d 96 3e 23 44 de 3d 9e 41 37 3e
       0.2146682 0.29319385 0.1085284 0.17896125
000310 8a a1 b9 3d 1b 83 96 3e 48 3f 2d 3e 24 7e 41 3e
       0.09064014 0.293969 0.16918671 0.18895775
000320 ee 05 22 3e 62 15 4c 3e 25 47 91 3d 00 ad 1e 3e
       0.15822574 0.19930032 0.07093648 0.15495682
000330 11 98 94 3e e4 e7 04 3e 31 e6 01 3e d4 64 2d 3e
       0.29022267 0.12979084 0.12685467 0.16932994
000340 d7 ce 1b 3e d1 23 59 3e 16 22 6e 3e ef 05 3f 3e
       0.15215622 0.21205069 0.2325519 0.18654607
000350 f0 a3 7e 3e 61 64 51 3e fc 5d 01 3e 4c 3e d3 3d
       0.24867225 0.20448448 0.12633508 0.103146166
000360 04 78 b7 bd f9 bc 84 3e 38 17 ee bd e7 08 b5 bc
       -0.08958438 0.25925425 -0.116255224 -0.022098972
000370 37 49 02 bd c9 34 64 3d 1d 50 6f 3d bd a5 2d 3e
       -0.031808104 0.055714402 0.05842601 0.16957755
000380 c0 56 a2 3d 12 ff a9 bc 38 24 8a 3e 01 32 32 be
       0.079267025 -0.02075151 0.26980758 -0.17401887
000390 87 68 05 3e 38 33 85 3e a7 87 0b 3e bd 32 84 3e
       0.13028155 0.2601564 0.13625966 0.2581996
0003a0 86 e1 8c 3d e7 72 de 3c cb 48 06 be 94 c2 5a 3e
       0.06878953 0.0271544 -0.13113706 0.21363288
0003b0 4d 7e dc 3d 30 f8 69 3e a3 02 fa 3d 81 30 ff 3d
       0.107662775 0.22848582 0.12207534 0.12460423
0003c0 f9 94 9c 3c f3 44 9d 3e a5 39 c3 3d 90 a0 84 3e
       0.019114004 0.30716667 0.09532479 0.2590375
0003d0 89 ca 04 be 98 15 c7 3d 63 db 8a 3e 71 36 6b bc
       -0.12967886 0.097209156 0.27120504 -0.014356242
0003e0 4d 18 2d be 47 fb 02 3d 1b c4 38 be f7 65 a3 3d
       -0.16903801 0.031977918 -0.18043558 0.079784326
0003f0 32 04 6f 3e 32 a5 19 3e 1a 8e 4b be 99 40 76 3e
       0.23341444 0.15004423 -0.19878426 0.2404808

action_model._discrete_distribution.branches.0.bias f4 [2]
000000 fa a6 a1 be 94 a8 a1 3e
       -0.31572706 0.31573927

action_model._discrete_distribution.branches.0.weight f4 [2, 128]
000000 85 c5 b1 3e a9 39 93 3f 6d 39 87 3f ba cd c2 3f
       0.34721008 1.1501971 1.05644 1.5219033
000010 60 d2 55 3e 1b 80 11 3f 06 f2 18 3f 2b c0 4e 3f
       0.20881033 0.568361 0.597443 0.80761975
000020 5f 76 84 3e 63 99 72 3d 2e 97 ae 3f 8e 57 2b 3f
       0.2587156 0.059228312 1.3639886 0.6693047
000030 5c cb 7e 3f 40 fc 80 3f 17 bd a1 be 19 d2 1d 3f
       0.9952905 1.007698 -0.31589577 0.6164871
000040 dd cb 08 3f 7e 05 88 3e 35 08 2c 3f d7 58 14 bf
       0.5343607 0.2656669 0.6720002 -0.5794806
000050 96 a3 b5 bd 74 b4 90 3e 4a e3 5e 3d 01 56 ee be
       -0.08869092 0.28262675 0.05441598 -0.4654999
000060 f1 3a 15 3e ff fb 73 3f 06 3b ce 3e a7 67 00 3f
       0.14573266 0.9530639 0.40279406 0.5015816
000070 d0 5b 9a 3e 6b 4e 58 3f c5 c6 86 3e 79 f6 bf 3d
       0.30148172 0.84494656 0.26323524 0.09373183
000080 33 5e 79 3f b5 31 77 3d a7 d8 19 3e 60 69 28 3f
       0.9740936 0.06035014 0.15024053 0.6578579
000090 08 31 a2 3f 3a 07 1e 3f 11 88 88 3f 5b 69 8e 3e
       1.2671213 0.61729777 1.0666524 0.27814755
0000a0 19 41 89 bd 47 63 2a 3f c9 8e 1a 3e b7 f4 e9 3e
       -0.067018695 0.66557735 0.1509353 0.45694515
0000b0 07 02 29 3f 5e c5 47 3f 7a 16 c4 3e b2 c0 eb be
       0.6601872 0.78035533 0.38298398 -0.46045452
0000c0 87 6a 01 3f a1 57 ef bb 05 0e fd 3d 87 86 a4 3e
       0.5055317 -0.0073041474 0.1235619 0.32133886
0000d0 17 91 d3 3e c0 35 39 3f a9 43 4e 3f 57 58 57 3f
       0.41321632 0.7234764 0.8057199 0.8411917
0000e0 0e 31 b3 3d f5 6a 00 3f c4 7c c4 3f 7e 71 23 3f
       0.08749591 0.50163203 1.5350575 0.6384505
0000f0 bb 6c e8 3e e5 41 37 3e b9 24 90 3e ee c8 a4 3f
       0.45395455 0.1789623 0.28153017 1.2873819
000100 bf 8e 6d 3f 33 ca 1a 3f 28 e5 10 3d 0e d6 7b 3f
       0.9279594 0.6046478 0.03537479 0.98373497
000110 2f 8a a7 3f 78 95 90 3f 0c 19 2e bf 91 8d 7d 3e
       1.3089045 1.1295614 -0.6800697 0.24761035
000120 ab bf 76 3f 03 0b 7d 3f 8d ee ee 3d 5c 87 85 3f
       0.9638621 0.9884493 0.11666594 1.0431933
000130 0c 4b 1f 3f 94 11 c6 3e 24 7a 4b 3f fe e6 a5 bd
       0.6222389 0.38685286 0.79483247 -0.08100699
000140 65 28 ce 3e 23 8c 20 3f 4e 5c a1 3f 38 72 82 be
       0.40265194 0.6271383 1.2606294 -0.25477767
000150 f6 dd 86 3f f9 3b 28 3e bb 1d c3 3d b7 b9 b2 3e
       1.0536487 0.16429128 0.09527155 0.34907314
000160 f3 c6 54 be d2 60 e5 3d d1 2f 32 bf 17 a9 83 3f
       -0.20779018 0.11200108 -0.6960421 1.0285977
000170 18 38 7e 3e c9 d8 c3 3f 83 d9 8b 3e 90 f2 72 3f
       0.24826086 1.5300533 0.27314386 0.9490137
000180 ca b9 90 3f fa ca 15 3f 84 2f 8e 3f 94 b6 d8 3d
       1.1306698 0.5851284 1.1108251 0.10581699
000190 6b 07 49 3f cb ec 66 3f 6e d4 8c 3e 8d 26 4f 3c
       0.78526944 0.9020507 0.2750582 0.012643469
0001a0 48 82 fd be b3 11 97 3e 92 61 f7 be cc 96 45 3d
       -0.4951346 0.2950569 -0.48316628 0.048239514
0001b0 25 f4 b2 bc 05 46 a7 3f 1e d1 48 3e 4a bf 79 3f
       -0.021844933 1.3068243 0.19611022 0.9755751
0001c0 71 b3 65 3f 50 7e 0b 3e bd c8 cb 3e eb 1c ba 3e
       0.8972693 0.13622403 0.3980159 0.36350188
0001d0 68 c6 a5 3c ce 15 a8 bd 38 44 c2 3f 59 c0 b2 bd
       0.020236209 -0.08207284 1.5177069 -0.08728094
0001e0 ce 62 d2 3d 58 92 b3 3e 8f 46 d6 3e 70 82 dc bc
       0.10272752 0.3507259 0.41850707 -0.026917666
0001f0 25 bd af 3f ca 83 2c 3f 07 1c a4 3d 34 bf 20 3f
       1.3729597 0.67388594 0.08013158 0.6279175
000200 dc 28 a7 be 5d 52 92 bf 98 dc 83 bf 98 25 c2 bf
       -0.3264836 -1.1431385 -1.0301695 -1.5167723
000210 b9 82 53 be 6a f0 0f bf a8 85 16 bf 01 7d 4a bf
       -0.20655335 -0.5622622 -0.58797693 -0.7909699
000220 3b b7 87 be bf e5 92 bd b1 41 ae bf 5f 05 2b bf
       -0.2650698 -0.07172727 -1.3613797 -0.6680507
000230 8c 51 7c bf ab b6 7f bf 9e 7a a4 3e 06 f2 20 bf
       -0.9856193 -0.99888104 0.321248 -0.628693
000240 a0 29 07 bf 79 f3 8b be 87 a4 2a bf 06 d6 10 3f
       -0.5279789 -0.27334192 -0.666573 0.56576574
000250 cb 2a dd 3d f1 6d 90 be a7 ee 84 bd 80 7f fa 3e
       0.10799178 -0.2820888 -0.06490832 0.489254
000260 40 8e 15 be 07 f3 70 bf f0 55 c7 be e1 d8 fb be
       -0.14605045 -0.9412083 -0.38932753 -0.49188903
000270 e4 24 9a be 87 8c 56 bf 20 bb 92 be 04 fd b7 bd
       -0.3010627 -0.8380818 -0.2865839 -0.08983806
000280 64 1a 71 bf 97 18 68 bd dd d5 30 be f0 4f 2f bf
       -0.94180894 -0.056664076 -0.17269082 -0.6848135
000290 9d 35 a2 bf 70 8d 21 bf b9 08 89 bf 23 cb 86 be
       -1.2672611 -0.6310644 -1.0705787 -0.26326856
0002a0 bd 87 42 3d 3c 6d 2c bf 0d 8a 18 be c9 36 df be
       0.04749273 -0.6735418 -0.14896412 -0.43596485
0002b0 f4 8f 2b bf 40 ae 4b bf 45 11 c6 be 37 5c ed 3e
       -0.6701653 -0.7956276 -0.3868505 0.46359417
0002c0 10 07 f9 be 67 ea a7 3b 79 80 09 be dc 2a a3 be
       -0.486382 0.0051243785 -0.13427915 -0.31868637
0002d0 47 db cd be 7c bf 32 bf b9 dc 51 bf 4b a3 58 bf
       -0.40206358 -0.6982343 -0.8197742 -0.84624165
0002e0 58 e1 b5 bd 78 c1 fe be 9b a2 c3 bf 1a 5b 26 bf
       -0.088808715 -0.4975698 -1.5283998 -0.6498276
0002f0 44 5c d7 be 67 18 36 be b2 37 94 be 0a 07 a4 bf
       -0.4206258 -0.17782746 -0.28948742 -1.2814648
000300 a2 0e 6b bf 50 0d 1a bf 04 38 6b bb d1 10 7e bf
       -0.918192 -0.60176563 -0.0035891542 -0.9924441
000310 f8 ae a9 bf 69 93 92 bf 57 59 31 3f 48 24 6f be
       -1.3256521 -1.1451236 0.69276947 -0.23353684
000320 63 5e 73 bf 98 2c 79 bf ee a9 05 be c6 47 85 bf
       -0.950659 -0.9733367 -0.13053104 -1.0412529
000330 4b e0 19 bf d2 9b c6 be 06 4f 47 bf 33 a9 ab 3d
       -0.6010787 -0.38790756 -0.77854955 0.083818816
000340 65 78 ce be 6c 8c 25 bf ec 8e a1 bf 2c 15 75 3e
       -0.4032623 -0.6466739 -1.2621741 0.23933858
000350 43 ad 85 bf ea 68 1a be 18 9e a6 bd 76 4d b9 be
       -1.04435 -0.15079084 -0.08135623 -0.3619191
000360 5f 79 5c 3e 38 18 ba bd 92 51 35 3f 16 0c 83 bf
       0.21530674 -0.090866506 0.7082759 -1.0238063
000370 8a 40 7d be c9 68 c2 bf 19 3c 96 be 34 b7 71 bf
       -0.24731651 -1.5188228 -0.29342726 -0.9442017
000380 0e 92 90 bf cd 88 12 bf 95 09 8f bf 67 c6 cb bd
       -1.1294572 -0.5723999 -1.1174799 -0.099499516
000390 c0 70 4c bf c5 31 64 bf 73 8a 92 be 51 37 08 3c
       -0.7985954 -0.8913844 -0.28621253 0.00831397
0003a0 e6 59 fd 3e 7e d1 94 be 94 d5 f7 3e ff 5d 54 bd
       0.4948265 -0.2906608 0.48405135 -0.051847454
0003b0 e7 c3 43 3c ca 55 a2 bf 98 16 3a be 78 18 80 bf
       0.011948562 -1.2682431 -0.18172681 -1.0007467
0003c0 03 65 64 bf eb 90 f5 bd d7 31 c5 be 13 11 b3 be
       -0.8921663 -0.119905315 -0.38514587 -0.34973964
0003d0 2d de b1 bc ac 70 9d 3d 14 18 c1 bf 79 ca db 3d
       -0.021712387 0.07687506 -1.5085473 0.10731978
0003e0 c5 dd c9 bd af 80 ae be 44 af d3 be a0 ad d0 3c
       -0.09856752 -0.34082553 -0.41344655 0.025473416
0003f0 0a b9 ad bf 6a 54 30 bf 03 ef 97 bd dd ce 1b bf
       -1.3572094 -0.68878806 -0.07418635 -0.60862523

action_model._discrete_distribution.branches.1.bias f4 [2]
000000 f2 79 2d bd db 7d 2d 3d
       -0.042352624 0.042356353

action_model._discrete_distribution.branches.1.weight f4 [2, 128]
000000 8a 52 c1 be d5 e2 a0 3e 44 fe b9 3d 99 c1 8f bd
       -0.37758285 0.3142306 0.090817004 -0.07019348
000010 7d 57 34 be 83 67 9e 3c 91 ad 90 3e 15 5d d3 3d
       -0.17611499 0.019336468 0.2825742 0.10320488
000020 9c d5 1b 3c 91 eb 11 be eb b0 ca 3d a8 38 56 be
       0.009511378 -0.14250018 0.09897026 -0.2092005
000030 a6 ab d0 3d f2 b8 d3 3d ff 12 95 be b3 7c ff 3e
       0.10188989 0.1033801 -0.29116055 0.49899825
000040 41 fd 87 bd 7c e4 a1 3e 03 46 6a 3f cc c7 8f 3d
       -0.06640101 0.31619632 0.9151308 0.0702053
000050 b3 f2 98 be 90 96 26 bc 37 af 14 3f 32 4d 71 3e
       -0.29872665 -0.010167733 0.58079857 0.23564604
000060 d6 af e1 3e e0 77 0d 3d 83 d3 9b 3e c3 d9 f9 3d
       0.44079465 0.03453815 0.30434808 0.12199738
000070 31 1b 8f bc 14 33 7e be 73 e5 c7 3d 89 28 82 3e
       -0.01746902 -0.24824172 0.09760561 0.2542155
000080 81 38 17 3e e6 2d 55 bd 5c 36 24 be 7e 3d de bb
       0.14767648 -0.052045725 -0.16036361 -0.006782233
000090 27 c9 3f 3f 07 1a bf 3e 28 90 0d 3e f8 37 fc 3d
       0.7491631 0.37324545 0.13824522 0.12315363
0000a0 d7 e6 5c ba 96 64 d1 bd 5b 87 09 3e cc 63 ad 3e
       -0.0008426732 -0.10224263 0.1343054 0.338652
0000b0 33 f7 83 3d b5 3d 1f 3f e2 1a 41 3e 93 83 73 be
       0.06443634 0.6220353 0.18857911 -0.2378066
0000c0 af 96 75 3d ed eb 0d 3e 54 2e c7 be a0 70 3f be
       0.059958156 0.1385953 -0.38902533 -0.18695307
0000d0 e6 45 4a be 67 19 ac 3e a8 95 fd bd 06 f9 47 be
       -0.19753227 0.3361313 -0.1238206 -0.19528589
0000e0 4a d9 37 3e b9 ae 05 3f 01 ce 8c 3e 38 20 3e be
       0.17953983 0.5221973 0.27500919 -0.18566978
0000f0 81 43 70 be 95 6f 3b 3e da 8a 3f be c6 31 02 3f
       -0.2346325 0.18304284 -0.18705311 0.508572
000100 52 31 f1 3c 4f 54 d4 3d 2d 4f 69 3d ab 89 20 3e
       0.029442463 0.10367643 0.056960274 0.15677516
000110 4e 77 35 3e 49 d6 cc 3d e3 4f dc be cc a1 ad 3e
       0.17721292 0.10001809 -0.430297 0.33912504
000120 f2 ef 7b 3e 2d b5 92 3d 58 57 40 3d 1a 91 91 3e
       0.2460325 0.07163463 0.046958297 0.28431016
000130 c2 09 f2 bd 44 0c 5f 3e 01 cb 49 3d 94 5c 39 be
       -0.118182674 0.21782023 0.049265865 -0.18101722
000140 45 06 2d 3f ce ce fa bd 72 74 ca 3e 2b 5d 99 be
       0.6758769 -0.12246476 0.39541966 -0.29953894
000150 a2 41 07 3e eb 57 3c 3d f5 96 52 3e 5f 2a 96 3e
       0.1320863 0.045982283 0.20565398 0.29329202
000160 32 eb f8 be 4e 24 df be fe 94 e7 be 0f 7b 92 3e
       -0.4861694 -0.43582386 -0.4523086 0.2860951
000170 c7 52 a8 be 5f e4 88 3e f3 3a 0c 3d 99 f6 72 3e
       -0.32875654 0.26736733 0.034235906 0.23726882
000180 78 b0 ea bd 19 08 0b 3f 78 f4 92 3d d4 78 93 bd
       -0.1145944 0.5430923 0.07175535 -0.072007805
000190 14 7f 1f be de 8e fb bc 08 36 b4 bd 48 d1 c6 bc
       -0.1557582 -0.030707773 -0.08799368 -0.024269715
0001a0 8f 89 3f bc 4b ba cc bd 5a 96 9e be e1 c2 d3 3d
       -0.011690511 -0.0999647 -0.30974084 0.103399046
0001b0 26 24 9c 3d 2c 0e f2 bc 18 4f e1 3d 6f 65 22 3f
       0.07624082 -0.029547773 0.11001414 0.63436025
0001c0 53 7c 1b 3f bd e2 b6 be 9c e6 e6 3d e2 b9 c5 3d
       0.6073658 -0.35719863 0.11274454 0.09654595
0001d0 59 97 8b bd d3 bc b1 3e bf 59 37 3e e4 79 73 3e
       -0.06815977 0.34714374 0.17905329 0.23776966
0001e0 42 89 5d bc c4 5f e1 be eb 5d 6b be 2f 4b 1b 3e
       -0.013521494 -0.44018376 -0.22985046 0.15165399
0001f0 72 cd 2b 3e 91 c6 96 bd c1 f2 9a 3d b4 6a 5e be
       0.1677759 -0.07362092 0.07565833 -0.21720392
000200 93 b1 c5 3e ad 23 a5 be 68 4d ca bd 98 6f 95 3d
       0.3861204 -0.3225378 -0.09878045 0.072966754
000210 0f bb 29 3e b4 77 e8 bc 3e 63 8b be 1a 3c f4 bd
       0.16575263 -0.028377391 -0.27224153 -0.11925526
000220 9a 65 a6 b8 8e 08 19 3e 0f 45 dc bd b7 88 5d 3e
       -7.9344216e-05 0.1494467 -0.107553594 0.21634184
000230 6f 7c c9 bd 1b 16 ca bd 85 46 95 3e d9 45 f7 be
       -0.09838187 -0.098674975 0.29155365 -0.48295477
000240 64 d3 82 3d e5 0a 9a be cb b9 6b bf 55 2d 8f bd
       0.06387976 -0.30086437 -0.9208037 -0.06991068
000250 93 65 98 3e 36 01 c7 3c 5b cc 14 bf a4 1d 53 be
       0.29764995 0.02429257 -0.5812432 -0.20616776
000260 b6 42 e3 be be e3 1c bd ad 38 a3 be 40 f0 b7 bd
       -0.44386834 -0.03830313 -0.31879178 -0.08981371
000270 dc ee 03 3c a9 70 68 3e 69 ce c2 bd 0c a1 7d be
       0.008052554 0.22699226 -0.09512026 -0.24768466
000280 62 2f 0f be a7 cc 7e 3d 27 2d 18 3e 78 88 a2 bb
       -0.13982919 0.06220689 0.14860974 -0.004960116
000290 22 27 43 bf 46 a4 bf be f9 83 0f be 5d 56 07 be
       -0.76231587 -0.37430018 -0.14015187 -0.13216539
0002a0 92 67 f5 3a 22 26 9c 3d 29 f6 ef bd 7e 1f b6 be
       0.0018722883 0.07624461 -0.11716873 -0.35570902
0002b0 b9 59 7d bd c5 1c 1d bf 7c 13 40 be 8f 63 76 3e
       -0.061853144 -0.61372024 -0.18757433 0.24061416
0002c0 96 46 94 bd 15 e9 12 be 4d 65 c2 3e 31 ae 45 3e
       -0.07240026 -0.14346726 0.3796791 0.1930473
0002d0 69 fe 51 3e b4 67 b2 be 9f b6 fb 3d 4d f4 55 3e
       0.20507206 -0.34844744 0.122906916 0.20893975
0002e0 67 3d 39 be 05 96 05 bf 2f 9d 81 be a0 62 39 3e
       -0.1808983 -0.52182037 -0.25315234 0.18104029
0002f0 66 87 69 3e e6 4c 30 be 78 0f 3c 3e 89 87 02 bf
       0.22805557 -0.17216834 0.18365276 -0.5098806
000300 cf 49 bb bc 81 9a ce bd 65 37 9f bd c7 24 31 be
       -0.022862343 -0.10088063 -0.077742375 -0.17299186
000310 1b d2 32 be 62 ff ed bd 49 69 db 3e 18 c0 a9 be
       -0.17462961 -0.11620976 0.42853764 -0.33154368
000320 e1 3a 83 be 1d 65 6c bd 20 a1 08 bd cc b4 92 be
       -0.2563086 -0.057713617 -0.033356786 -0.28653562
000330 46 84 d6 3d e4 4c 60 be 97 f7 0f bd db 73 2e 3e
       0.10474448 -0.21904331 -0.03514823 0.17036383
000340 76 89 2f bf 2b c7 d3 3d 75 f3 cf be 8c 0d 97 3e
       -0.68569124 0.10340723 -0.4061543 0.29502523
000350 69 b9 ec bd a7 3d 2c bd 6b 9d 4a be e3 18 9d be
       -0.11558802 -0.042050984 -0.19786613 -0.3068305
000360 6d cb fb 3e 85 c9 d7 3e 00 d7 ea 3e e9 2c 94 be
       0.4917864 0.42145935 0.45867157 -0.28940514
000370 69 c7 ae 3e f6 6d 88 be 3a 9f f8 bc 9c b0 71 be
       0.34136513 -0.26646394 -0.030349363 -0.23602527
000380 2e 4d fd 3d 13 79 09 bf 22 d7 9d bd 71 b6 88 3d
       0.123682365 -0.5370037 -0.07707049 0.06675423
000390 37 77 16 3e 55 3c 03 3d 2f 63 97 3d 73 81 e1 3b
       0.14693914 0.03203996 0.07391965 0.0068818866
0003a0 e7 53 85 3c ae 0d dc 3d 98 a0 a1 3e b6 8e d4 bd
       0.01627536 0.10744797 0.31567836 -0.103787825
0003b0 11 2e b7 bd a6 cd 1e 3d 09 a6 c6 bd c6 32 28 bf
       -0.08944333 0.03877034 -0.096996374 -0.65702474
0003c0 82 d0 12 bf 10 a8 b4 3e 8e eb cb bd a8 b1 cc bd
       -0.5734941 0.35284472 -0.09957038 -0.09994823
0003d0 c8 14 8d 3d a6 2e b6 be 5c f5 3a be 17 aa 6f be
       0.06888729 -0.35582465 -0.1825766 -0.23404728
0003e0 f6 d6 33 3c 01 4f df 3e fe d6 65 3e 23 2f 0a be
       0.010976544 0.43614963 0.22445294 -0.13494544
0003f0 8d 5e 33 be 0b d5 a5 3d a8 9a 97 bd 6f 22 55 3e
       -0.17516537 0.08097275 -0.07402545 0.20813917

discrete_action_output_shape f4 [1, 2]
000000 00 00 00 40 00 00 00 40
       2.0 2.0

network_body._body_endoder.seq_layers.0.bias f4 [128]
000000 e6 c3 d4 3d a9 90 b6 3d 86 7f 0c 3e 85 93 b4 bd
       0.10388927 0.089143105 0.13720521 -0.088171996
000010 e7 e6 c8 3d bd cc 87 be 7d f2 3a be 41 5f 0a bc
       0.09809666 -0.2652339 -0.18256564 -0.008445562
000020 2b db d6 bd 37 1f 0b 3e 9c 34 70 bd 6b 10 76 bd
       -0.10491022 0.13586126 -0.058643922 -0.06007425
000030 de 1c 41 be 6b a3 1b be c0 74 16 be a9 43 49 bd
       -0.18858668 -0.15199058 -0.14692974 -0.04913679
000040 73 79 97 3d f5 00 9f be e9 c0 0f be 05 a2 e5 3d
       0.073962115 -0.31055418 -0.14038433 0.112125434
000050 75 8f 41 bd c5 16 65 3c 18 3d 99 bd 1e b4 06 3d
       -0.047255952 0.013982479 -0.07482356 0.032886617
000060 44 f9 4d bd 9c a8 a4 be 26 fc 31 3d 87 f4 3f bd
       -0.050286546 -0.3215989 0.043453358 -0.04686406
000070 12 44 03 be eb c1 ce 3b 69 96 21 bd c9 51 be 3c
       -0.12818936 0.006309738 -0.039450083 0.023232358
000080 ba e3 85 be ce a5 78 be 94 b3 7c be 01 da b5 be
       -0.26150304 -0.24282 -0.24677879 -0.35517886
000090 60 b3 4a 3c c2 21 19 be 03 ae b6 be 09 a9 ee 3c
       0.012371868 -0.14954284 -0.35679635 0.029133337
0000a0 1b 92 81 be d6 25 89 3d 20 91 67 bd 38 a3 8a bc
       -0.25306782 0.0669667 -0.056534886 -0.016923532
0000b0 b2 f5 8a bd 15 d8 4e 3d 17 c6 29 be ce 5c 09 3d
       -0.06785144 0.05049904 -0.16579472 0.03353577
0000c0 c9 bc 5c be d9 9d 25 be 83 4c 75 bd 3d 68 94 bc
       -0.21556391 -0.16173495 -0.05988742 -0.018116111
0000d0 2a 68 c1 bc 11 15 12 3e 49 02 08 3d 0c ae 9b 3d
       -0.02360924 0.14265849 0.033205304 0.07601556
0000e0 94 44 ad bd a9 80 b1 be 09 4f 9f bd 98 de 98 be
       -0.08460346 -0.34668472 -0.07778747 -0.29857326
0000f0 cf 3a 1b 3c bc 80 87 3c 4e 10 94 bd e7 55 90 3d
       0.00947447 0.016540878 -0.07229672 0.070476346
000100 60 c3 84 3d 88 e4 a5 3d b0 db 31 3d 36 96 1e 3b
       0.06482577 0.081002295 0.0434224 0.002419842
000110 ea fb b4 bd f5 c2 49 3c 5c 35 a9 be f6 ad ff 3d
       -0.08837111 0.012314548 -0.33048522 0.12484352
000120 5b fd 9e bd b4 7b 61 bd 70 80 12 bd 11 77 e9 bd
       -0.077631675 -0.055049613 -0.03576702 -0.11399663
000130 76 84 68 be 14 55 c3 3d 03 7a 84 be 6b 6b 5a 3d
       -0.2270678 0.09537712 -0.25874338 0.053325098
000140 9c 0f e1 bd 51 80 fe 3c 32 36 8b be 48 c7 5d bc
       -0.109893054 0.031067045 -0.27189785 -0.013536282
000150 1d 6f 92 bb 0e c3 6b be 4b 00 63 be 10 2c 83 bd
       -0.004468812 -0.23023626 -0.2216808 -0.06404889
000160 71 54 8d be b6 51 44 3d 51 ce 89 3c b5 8e ca 3c
       -0.27603486 0.047929488 0.016822012 0.024726251
000170 16 f1 a6 3d ab e1 77 be ba 2d 1f be 1c 18 06 3e
       0.08151452 -0.24207179 -0.15544787 0.13095134
000180 b9 f9 0f be e2 d8 0d 3e b4 a0 9e 3c e2 5f 3b 3d
       -0.14060105 0.13852265 0.019363739 0.045745738
000190 f2 70 0c 3e 42 93 7a bd b0 8c d8 3d f8 9a 54 3e
       0.1371496 -0.061175592 0.10573709 0.20762241
0001a0 91 c8 73 3d c0 20 e5 bc e2 65 d3 bd a5 38 e3 3d
       0.059517447 -0.027969718 -0.10322167 0.110947885
0001b0 6f 6e bf be 07 f4 17 3e 49 e1 e6 3d fd 90 03 bf
       -0.37388942 0.14839183 0.112734385 -0.5139311
0001c0 2a 9d 04 3e 6a 17 3e be 75 de 38 be 09 9f 6a be
       0.12950578 -0.1856362 -0.1805361 -0.2291223
0001d0 d7 db 90 be 85 02 4c 3d b2 ed a8 3c fe b1 84 be
       -0.28292724 0.04980709 0.020621154 -0.25917047
0001e0 a1 0a 3a be c7 9d 25 3c c4 46 34 3d 90 29 92 3d
       -0.18168117 0.010108418 0.0440128 0.07136834
0001f0 e7 18 5c bd 21 dd 1f 3e 1b d6 db 3d af 69 9d be
       -0.053734686 0.15611698 0.10734197 -0.30744693

network_body._body_endoder.seq_layers.0.weight f4 [128, 52]
000000 1e 22 90 3e db 45 e3 bd 4e 09 f3 3d 1f 9e 70 be
       0.2815103 -0.11097308 0.11867009 -0.23497818
000010 12 09 ff bc 0e a3 ac bd bf 07 b7 3e 3b 4c 9c 3b
       -0.031132255 -0.08429538 0.35748097 0.0047698296
000020 8a 9e 3a 3e d3 d2 9e 3e 74 d7 db 3e ad 74 80 3e
       0.1822454 0.3102022 0.42937815 0.25089017
000030 09 c7 e8 3d e2 5e 4e be ee 10 46 3d e0 88 90 3e
       0.11366088 -0.20153382 0.04835599 0.28229427
000040 82 8c 2a 3e 62 25 5d 3d b6 50 df 3d 9f 29 f4 3d
       0.16655162 0.05399073 0.10904066 0.11922001
000050 9c 87 32 3f 4e be 7c 3d f1 41 92 3e 3f 82 69 be
       0.69738173 0.061704926 0.28565934 -0.22803591
000060 7e 5a 70 3e 2f 06 a8 3e 44 74 50 be 25 2e 15 be
       0.2347202 0.32817218 -0.20356852 -0.14568384
000070 16 f4 43 bd 26 77 38 bc 80 bd bc 3e f9 5e fe 3d
       -0.0478402 -0.011258876 0.36863327 0.12420458
000080 c8 e2 34 be d5 ab 1d 3d f4 6f a6 be d0 ce 27 3e
       -0.17664635 0.03849395 -0.32507288 0.16387486
000090 51 7f 87 3d bc 07 38 3d 33 31 c1 3b f6 24 ca bd
       0.066160806 0.04492925 0.0058957576 -0.09870331
0000a0 fc 7c 5d 3e bb 81 22 be 4d 5e 8a be 19 4e 05 be
       0.21629709 -0.15869801 -0.2702507 -0.13018073
0000b0 91 00 4f be 21 e2 2e be 96 40 60 be 0e 97 05 3f
       -0.2021506 -0.17078449 -0.21899638 0.52183616
0000c0 8d 6e 10 be 1d 6c 60 bd 91 f6 f1 3b f6 04 08 3d
       -0.14104672 -0.054790605 0.0073841293 0.033207856
0000d0 9c da b7 be ba 44 a8 be c0 5f 94 be 95 e8 7f 3e
       -0.35908973 -0.32864934 -0.289793 0.24991067
0000e0 69 72 88 3d b5 a8 5d 3e f2 ba cb 3d 6d 5a 5d 3d
       0.06662447 0.21646388 0.09947766 0.054041315
0000f0 2f 5c a6 bd 75 fe d0 bd bb 56 92 3e 8a 13 d6 3d
       -0.081230514 -0.10204784 0.28581795 0.104529455
000100 c4 89 93 bd 67 7c fc bd fb 30 0e 3e 5d 32 03 3e
       -0.07204011 -0.12328415 0.13885872 0.12812181
000110 ee 7a 3d be ad aa 80 3d f2 52 95 be 60 7a be 3d
       -0.18503925 0.06282554 -0.29164845 0.09300685
000120 f2 9a e7 3e f4 4e 5f bd a8 26 e6 be 77 c4 5d bd
       0.452354 -0.054518655 -0.44951367 -0.05414244
000130 ae 9a c7 3d 30 99 a8 3d 2b 27 0b 3e 15 e4 fa bd
       0.097463 0.08232343 0.1358916 -0.122505344
000140 71 4c 85 3e a8 68 1d 3e 8b 63 e7 3e ee 5e e4 3d
       0.26034883 0.15371954 0.45193133 0.11150919
000150 3d cd 6c bd e6 70 b6 be ec ab 16 be 51 e5 0d be
       -0.057812918 -0.3563301 -0.1471402 -0.13857009
000160 60 2e 98 bd c8 e7 d7 bd 0a b7 9c 3e cb f4 cb bd
       -0.0743072 -0.10542256 0.30608398 -0.099588
000170 88 00 0a 3f 7c 2e 7c bd 23 29 ba be e0 3c d0 bd
       0.5390706 -0.06156777 -0.3635951 -0.10167861
000180 89 27 8f bd 8a f6 0f be 96 53 d7 be 66 76 1c 3e
       -0.069899626 -0.14058891 -0.42055959 0.1527954
000190 c7 0d ae bd b9 5d 4a 3e 3b 1f 8e bd b3 e3 1c be
       -0.084987216 0.19762315 -0.069395505 -0.15321235
0001a0 75 d3 1c 3d 25 77 17 bd 92 7d af 3c de b5 35 3e
       0.0382876 -0.03697886 0.021422181 0.17745158
0001b0 60 be 4d 3e 87 e5 90 be 56 43 be bc eb 54 03 be
       0.20092154 -0.28300115 -0.023225468 -0.12825362
0001c0 10 cf 24 bd 33 9a b0 be 50 c5 c4 3e 39 ac c7 bd
       -0.040236533 -0.34492645 0.38431787 -0.09749646
0001d0 e9 1c bd 37 bc f9 95 be 60 c1 d3 3d a1 62 12 be
       2.2544018e-05 -0.29292095 0.10339618 -0.14295436
0001e0 04 93 dd 3c ff 00 46 3e 56 cd 12 3e 4a 4b ff bc
       0.027047642 0.19336317 0.14336142 -0.03116383
0001f0 10 3d b5 3d 19 1c cf 3d 1c 9b 42 bc 73 c7 15 bc
       0.088495374 0.10112781 -0.011877801 -0.009141791
000200 cd b4 69 be 1e 00 87 3e ed 74 0a be 58 a7 1c be
       -0.22822876 0.26367277 -0.13521166 -0.15298212
000210 35 08 01 be 82 64 b0 3e d4 9c a3 be 9f f2 03 3e
       -0.12600787 0.3445168 -0.31955588 0.12885521
000220 a1 45 de 3b b6 59 02 ba c7 9d 67 3d f9 ac e2 bd
       0.0067832028 -0.00049724744 0.056546953 -0.11068148
000230 fe ab c1 3d 10 38 0c 3d d4 55 63 bc bc 6d fe bd
       0.09456633 0.034233153 -0.0138754435 -0.12423274
000240 dc 45 a3 3d 9d 78 9b bd 03 c8 68 3e 26 ce 47 bc
       0.07972309 -0.075913645 0.22732548 -0.012195146
000250 44 13 29 be 0e 06 d5 3d f5 7d a6 be 48 c1 f2 bd
       -0.16511256 0.104015455 -0.32517973 -0.11853272
000260 b5 3f 07 be 11 90 32 3e ff c2 7e be d7 30 20 3c
       -0.13207896 0.1743777 -0.24879073 0.009777269
000270 9c a3 46 3e 65 cf fb 3d 63 09 19 3d 82 ca 26 be
       0.1939835 0.12295417 0.037362467 -0.16288188
000280 2c c2 ce bd 15 8d a4 3d 5f 1c 0c be 41 6a 0a be
       -0.10095629 0.08034722 -0.13682698 -0.13517095
000290 4d 8a fc 3d c8 d7 97 3c 04 84 60 bc 6c f9 b0 bd
       0.12331066 0.01853551 -0.01370335 -0.086413234
0002a0 af 77 55 bd a1 73 64 3e 3b d8 4e be 43 a8 06 be
       -0.052116092 0.22309734 -0.20199673 -0.13150124
0002b0 b5 3e 03 3e 42 cc 97 3c 6c 78 8d 3e ed 22 a3 bc
       0.1281689 0.018530015 0.27630937 -0.019914115
0002c0 b0 69 22 be 10 34 87 bd 50 6b 43 3e da 40 19 3e
       -0.15860629 -0.06601727 0.19083905 0.14966145
0002d0 32 04 6f be 38 a3 61 be 21 c6 9b bd 6e 9f 43 3c
       -0.23341444 -0.2203492 -0.076061495 0.0119398665
0002e0 31 91 f0 bd c8 3a 61 bd 37 15 40 be 09 41 20 3e
       -0.11746443 -0.0549877 -0.18758093 0.15649809
0002f0 bd e4 ab bd ba 49 ba bd 18 29 d8 bd 3a 04 b1 bd
       -0.08393238 -0.090960935 -0.10554713 -0.08643384
000300 ad b7 0b 3e 9d 04 6a bd 01 ad 20 3e d5 ec 82 3e
       0.13644286 -0.057133306 0.15690996 0.25571314
000310 21 03 d6 bd 02 5d 45 3c 1f 2f a2 be 5a 3e fc 3e
       -0.104498155 0.012046101 -0.31676576 0.4926632
000320 4f 44 37 3d 8b 8a 4b 3f ff 66 11 3f ad 64 ee 3e
       0.04474288 0.79508275 0.56797785 0.46561185
000330 d2 4b da bb 6b 3c 87 be 92 f8 0c 3e 1c dd dc bd
       -0.0066618705 -0.26413283 0.13766697 -0.10784361
000340 8a 3e a2 be 2f 13 98 be b1 40 89 be 58 ae 45 3e
       -0.3168834 -0.29702136 -0.26807168 0.19304788
000350 9c 34 4d 3d 7b fe b2 be 32 14 a0 3e 2b 61 b9 bd
       0.050099 -0.34959778 0.31265408 -0.090517364
000360 49 ad 34 3d 28 c5 9f 3c fe d1 82 3d fb d7 01 3d
       0.04411057 0.019503191 0.06387709 0.031700116
000370 40 a9 23 bc 0d c7 8e bd 71 1d 95 bd cb 1a 00 be
       -0.009989083 -0.0697156 -0.07281006 -0.1251022
000380 5a 8b 43 3e 39 85 93 3d 55 4d 10 3d f8 e9 34 bc
       0.19096127 0.072031446 0.03523 -0.011042111
000390 48 bd e6 3c 16 7c 07 be 37 6b fb 3d 2e 9f cd ba
       0.028166428 -0.13230929 0.12276309 -0.0015687698
0003a0 78 24 dd be d3 5d 1b 3e 88 23 19 be 05 bc 02 3e
       -0.43191886 0.1517251 -0.1495496 0.12767036
0003b0 87 3e d3 be a7 01 84 be 94 cc 7b 3d 29 aa 50 3e
       -0.41258642 -0.2578251 0.061474398 0.20377411
0003c0 ad f9 c4 3e e4 d5 d0 bd 3b b6 b0 bd a2 95 00 bd
       0.38471738 -0.101970464 -0.08628508 -0.0313927
0003d0 30 22 be be 58 b9 a2 bd 80 38 c3 be db a7 a3 be
       -0.37135458 -0.07945508 -0.38129044 -0.31964
0003e0 2a e0 00 3f 47 8e ed bc ec 87 87 39 b0 5e d2 3b
       0.5034205 -0.028998507 0.00025850476 0.006419979
0003f0 32 e6 a9 be 30 be 9d bc 00 2a fd 3d 1f d1 1f 3c
       -0.33183438 -0.019255728 0.123615265 0.009754448

network_body._body_endoder.seq_layers.2.bias f4 [128]
000000 50 50 05 3d ba 50 96 3d 29 97 f5 3c 7f 92 97 3d
       0.032547295 0.07339616 0.029979305 0.07400989
000010 d0 b5 14 3d 2d 3b cd 3d 03 0b 08 3d b0 7b b3 3d
       0.036306202 0.100210525 0.033213627 0.08763826
000020 db f0 f4 3c 51 d6 2f 3e 16 26 9c bd 2a 6c e6 bd
       0.029900005 0.17171599 -0.07624452 -0.112510994
000030 27 aa b3 bc b6 e8 45 3d e1 6d b1 3e ed 7c 4d bd
       -0.02193172 0.048317634 0.34654143 -0.050167967
000040 e6 dc a4 3d ae 14 8f 3e d2 86 d6 3d ba d8 14 3e
       0.080499455 0.27945465 0.10474934 0.145358
000050 a7 20 e3 3d 49 ec d9 bc 6f 91 d6 bd 23 90 d3 bc
       0.11090212 -0.026601927 -0.10476958 -0.025825566
000060 fc 36 f9 3c e3 a8 46 bd 87 94 a4 3d bd 00 71 bd
       0.030421726 -0.048500907 0.08036142 -0.058838595
000070 7e f1 39 3d 4b 8e 3b be 87 e9 36 be ce 23 f1 3d
       0.04539632 -0.18315999 -0.17862521 0.11774407
000080 fe 61 7a 3d c5 8f 19 3e f3 ce 38 3e bd 19 16 be
       0.06112861 0.1499625 0.18047695 -0.14658256
000090 10 8a 4c 3e 69 21 f8 bd c1 d5 82 3c b5 18 9c bc
       0.19974542 -0.121157475 0.015971066 -0.01905475
0000a0 49 a7 87 3d b9 83 d1 3d 99 0e 97 3d e6 7c f1 bd
       0.06623704 0.10230202 0.07375831 -0.117914006
0000b0 76 18 89 3a 44 ee d8 bc ec 0f 19 bb b6 71 85 3c
       0.001045956 -0.026480801 -0.0023355437 0.016289573
0000c0 c8 3f 89 3d f8 a9 05 3d c4 4b 7d be f8 32 37 bd
       0.067016184 0.032632798 -0.24735934 -0.044726342
0000d0 8b 05 06 3d 18 f1 4f be a8 4d ec ba 17 32 81 3c
       0.03272013 -0.20306814 -0.0018028514 0.015770955
0000e0 4b 86 24 3e 9d 04 1e 3d 6c 3e 82 3d 2e 1a 86 3d
       0.16066854 0.03857862 0.06359562 0.06547962
0000f0 89 b4 9e 3d 68 1c 5a 3d c7 82 79 bd 5a d4 91 3d
       0.07749278 0.053249747 -0.060915735 0.07120581
000100 47 b6 08 bd de 5a b5 3d 93 b2 60 3e b4 6d c8 ba
       -0.03337696 0.08855222 0.2194312 -0.0015291483
000110 4b 9e 26 bd 89 a6 2b 3d 89 a5 01 3e 22 54 e5 3d
       -0.040678304 0.041906867 0.12660803 0.11197688
000120 5d f5 b9 bc 16 56 47 bd 28 94 71 bc 63 3f ba bc
       -0.022700006 -0.048666082 -0.014744796 -0.022735303
000130 34 2d 86 3c 0f b3 a1 bd 07 57 b8 3c 28 7b a0 3c
       0.016378976 -0.07895481 0.022502435 0.019589975
000140 69 76 2a 3d 91 e0 a5 3d a6 c8 46 3d 2a 40 bd 3c
       0.04161683 0.08099473 0.048531197 0.023101885
000150 3d 5b 8c 3d fc 0f 3a 3d da c9 32 bc c8 2e b6 3d
       0.0685334 0.0454254 -0.010912383 0.088956416
000160 d3 13 62 3e 7f ef cb 3d dc f7 69 3e 31 0e aa bd
       0.22077875 0.0995779 0.22848457 -0.08303488
000170 f8 5f c6 bb 91 9a 90 bd eb 9e 94 bb 1e da 8c bc
       -0.006053921 -0.07060731 -0.004535546 -0.01719385
000180 bc 01 1c bc 16 20 39 3e ba fe d2 bb a1 c8 85 3e
       -0.009521898 0.18078646 -0.006439057 0.2612963
000190 f4 68 16 3b e3 52 d8 bd 92 86 ab bd 7e e3 eb 3d
       0.002295074 -0.105626844 -0.083752766 0.11518
0001a0 17 fb a8 3d f1 68 77 be 8a 7f 30 3e cc d1 07 3c
       0.082510166 -0.24161126 0.17236152 0.008289766
0001b0 69 69 10 3e ae 3c e9 3b 8d 1b 92 3d 20 eb 8d 3d
       0.14102711 0.0071178293 0.07134161 0.06929612
0001c0 38 9c 99 3c 2c 96 c2 3d b8 18 67 3d 72 ef cf 3d
       0.018751249 0.09501299 0.056420058 0.101530924
0001d0 d3 d4 f1 3d 09 db 18 3e 09 1b 84 3d 09 49 b0 3d
       0.11808171 0.14927305 0.06450469 0.0860768
0001e0 22 64 ad 3e f2 bb 6f bd cf 84 0c 3e 3e d7 9c 3d
       0.33865458 -0.058528848 0.13722537 0.07658242
0001f0 e9 8b 35 bd bf 52 06 3d c6 7a 2a 3e 85 95 92 3d
       -0.04432288 0.032793757 0.16648397 0.07157425

network_body._body_endoder.seq_layers.2.weight f4 [128, 128]
000000 76 58 c0 be c1 ec 8a be 52 84 38 be 50 64 b5 be
       -0.3756749 -0.27133754 -0.18019226 -0.35428095
000010 ac e8 4c be 20 ab 24 be 1e 42 f5 be 31 cd ae be
       -0.20010632 -0.16080904 -0.47902006 -0.34140924
000020 3e 70 3b be c2 07 03 bf 96 43 75 be a9 12 86 bd
       -0.18304536 -0.5118371 -0.23951563 -0.06546528
000030 55 38 b7 be f6 83 cd be cf 8d ed bd ae f8 17 be
       -0.35785165 -0.4013974 -0.115993135 -0.14840958
000040 1d 04 a2 be 02 bb 02 3e 1f d1 03 3d 1c b6 85 be
       -0.31643763 0.1276665 0.032181855 -0.261155
000050 f7 7d 90 be 35 1f dc bd 14 7b 6b be d5 d9 ae be
       -0.28221104 -0.1074814 -0.2299617 -0.34150568
000060 14 5b 41 3d 78 11 cf bc 11 c2 47 be 6f 10 ab be
       0.047206 -0.025276884 -0.19507624 -0.33410975
000070 a8 56 8d be a4 54 8b 3d bc a3 6b be 25 cd d8 bd
       -0.27605176 0.06803253 -0.23011678 -0.10586003
000080 44 35 9d 3e 30 dd 67 3d a9 3e 81 bd b6 08 a3 bd
       0.307047 0.056607425 -0.063107796 -0.07960646
000090 e2 58 95 be a0 aa 7e bd 43 50 b3 3c 43 b2 9c be
       -0.29169375 -0.06217444 0.021888858 -0.30604753
0000a0 34 28 5f be 3e a2 87 be f3 28 99 be 04 3c 9b be
       -0.2179268 -0.26490968 -0.29914054 -0.30319226
0000b0 07 7c 2a 3e 36 3b bd be ec 1d 9b be 11 26 a7 3d
       0.16648875 -0.36959237 -0.30296266 0.081615575
0000c0 a3 05 37 3d 64 37 18 be 5e 29 cb be d3 ab 5b be
       0.04468311 -0.1486488 -0.39679998 -0.21452264
0000d0 7b 86 7e be 2a 0c 02 be 40 2d 09 3f b5 d3 97 be
       -0.24855988 -0.12699953 0.5358467 -0.29653707
0000e0 15 7d 4d be 36 0d 9a bd 67 6e 04 bf 27 4f 76 3b
       -0.20067246 -0.07522051 -0.5173096 0.00375838
0000f0 6f 21 0e be 32 bd 2e be fd 59 b2 bd 1c 60 57 be
       -0.13879941 -0.1706436 -0.0870857 -0.21032757
000100 8c 68 4a be 7e 3a d7 be c0 ab b0 bd ba 70 b0 be
       -0.19766444 -0.42036813 -0.08626509 -0.34461004
000110 1d d0 4a 3e fa 5d 72 be 01 bd af bd bc 5e 95 bc
       0.19805951 -0.23668662 -0.085809715 -0.01823365
000120 c6 57 7d be d6 8f 02 bf 7d 27 0e bf d8 5a a5 3d
       -0.24740514 -0.51000726 -0.55529004 0.08073968
000130 6b 97 55 be e3 de b7 bd cd 0b 51 be 46 6d 7e be
       -0.20858543 -0.08978059 -0.20414658 -0.24846372
000140 a6 7b 4c bd 79 1e 42 be 9a 31 55 3d 00 ab 36 be
       -0.049922608 -0.18956937 0.052049257 -0.17838669
000150 4d bb 38 be 33 51 5a be 3e ff 08 be 78 d3 85 bd
       -0.180402 -0.21320038 -0.13378617 -0.06534475
000160 b5 e2 79 be e5 a8 5d be fd 0b 11 be 8b ef 46 be
       -0.24402888 -0.2164646 -0.1416473 -0.19427316
000170 ee d5 2b be 8c cf 7b bd 38 d4 a7 3d 79 25 92 bd
       -0.16780826 -0.06147723 0.081947744 -0.071360536
000180 47 65 85 39 aa 67 b5 be 63 19 a9 be f9 5c e3 bd
       0.00025443194 -0.35430652 -0.3302718 -0.111017175
000190 1f 53 2b be d2 67 59 be 11 56 db be f6 ed 08 be
       -0.16730927 -0.2123101 -0.428391 -0.13372025
0001a0 1b ae 36 be a8 5b a1 be 55 15 47 bd 70 16 c5 bd
       -0.17839853 -0.3151524 -0.04860433 -0.0962342
0001b0 f3 de 2c bd 99 0d 4e 3d 03 44 88 be 62 b3 32 be
       -0.04220481 0.050305936 -0.2661439 -0.17451242
0001c0 5c dc 2b 3d 29 bf fe 3d b7 58 e6 bc 04 69 68 be
       0.041958198 0.12438805 -0.028118474 -0.2269631
0001d0 69 b2 73 bd bc 26 93 be ad b8 20 bf 1a 37 f5 3d
       -0.059496317 -0.2874049 -0.6278179 0.119734004
0001e0 7b fa 52 3d a8 6e e2 bd 4a 2a fa be 0f 1e f8 3d
       0.051508408 -0.11056262 -0.4886039 0.12115108
0001f0 e5 46 9b be 47 0d 87 be d6 f4 7c be 54 ef 9b 3b
       -0.30327526 -0.26377317 -0.24702772 0.0047587547
000200 8a 94 97 be 4b e1 b3 be 60 7b b4 be 67 ef 84 be
       -0.29605514 -0.35132822 -0.35250378 -0.259639
000210 0f 4e 20 bf be 1a 97 be 30 81 89 be 84 e4 e9 be
       -0.6261911 -0.2951259 -0.26856375 -0.45682156
000220 a3 8f f0 bd 77 4f e6 be c9 bc dd 3d ea b9 5d be
       -0.117461465 -0.44982502 0.108270235 -0.21652952
000230 62 2a 3c be b8 be a2 bd c4 61 93 bd 99 b6 01 bf
       -0.18375543 -0.07946533 -0.07196382 -0.50669247
000240 1d 37 bc be 68 f8 2f 3e eb de 2f be d6 11 d5 3d
       -0.36760798 0.17184603 -0.1717488 0.104037926
000250 a0 17 28 be 45 62 83 be 81 94 a8 be 47 99 a9 bd
       -0.16415262 -0.2566091 -0.329258 -0.082811885
000260 5b 21 fe be 93 51 ef 3c 60 90 63 be 9c 8b 90 be
       -0.49634823 0.029213702 -0.22223043 -0.28231514
000270 79 52 6f be 5e 8a 64 be 2e c5 fd bd 13 d1 92 be
       -0.23371305 -0.22318408 -0.12391125 -0.28675136
000280 00 fb 5b 3c 7e e2 07 3e 40 f5 a3 bd a8 97 17 be
       0.013426542 0.13269994 -0.08005762 -0.14803946
000290 be ae e6 bd 92 81 0e 3c c5 1d fa bd 15 b1 e6 be
       -0.11263798 0.008697884 -0.12212709 -0.45056978
0002a0 a4 f7 d5 be 5b 84 e6 be a8 f6 cc be 8e af c6 be
       -0.41790497 -0.45022854 -0.40031934 -0.38805813
0002b0 f2 4b 73 be aa 4b cc be 61 4a 44 be 11 17 be be
       -0.2375944 -0.39901477 -0.19168998 -0.37126973
0002c0 b2 c2 37 be a7 b8 62 3d 02 0a 30 be 63 3f 77 3d
       -0.17945364 0.05535188 -0.17191318 0.060363185
0002d0 44 56 23 be d3 4c e5 be 4a e1 0d be 11 0a 37 be
       -0.15950876 -0.44785175 -0.13855472 -0.17874934
0002e0 1d 43 95 be f6 69 ce bd 7f 1d 86 be da c3 ce 3e
       -0.29152766 -0.10078804 -0.2619438 0.40383798
0002f0 bc 94 81 be 84 4e 59 be 84 ee 16 bd 67 9c 8e be
       -0.25308788 -0.21221358 -0.03684856 -0.278537
000300 c5 19 c1 be 3d 75 4d be 16 77 05 bf b6 96 77 be
       -0.37714973 -0.20064254 -0.52134836 -0.24178585
000310 e7 61 81 3d 03 57 c5 be a0 f8 8b be 7c 1d 78 be
       0.063175015 -0.38542947 -0.27338123 -0.24229997
000320 0c 94 6b be a7 c6 19 be 45 e4 a4 be 2e 1c 89 be
       -0.23005694 -0.15017186 -0.32205406 -0.26779312
000330 81 a4 87 be cc fa 8e 3e 05 2a 04 be ab 57 9d be
       -0.26492694 0.27925718 -0.12906654 -0.30730948
000340 70 97 25 be 16 37 3e be 29 d5 b1 3c 29 5f c1 bc
       -0.1617105 -0.18575701 0.021708088 -0.023604946
000350 7e 87 d5 be 7a 7b 75 be c9 e4 0f bd e6 88 7c 3c
       -0.41704935 -0.23972884 -0.035130296 0.0154134985
000360 ed 13 73 3e 6d a9 fa be b5 8d f2 be ce 29 07 bf
       0.2373807 -0.48957387 -0.4737374 -0.52798164
000370 f6 44 ad be 01 ad 12 3d c3 cf 47 bd 7d 68 f1 be
       -0.33841676 0.03580952 -0.04878212 -0.4715003
000380 d9 49 d7 3c 57 95 eb be d0 33 c7 be 4c 4d 14 bf
       0.02628033 -0.46012375 -0.38906717 -0.57930446
000390 6d ef 0d bf 2d ee d4 bd 6a eb 93 be f5 06 f8 be
       -0.5544346 -0.10396991 -0.28890544 -0.48442808
0003a0 c0 ce 60 be 57 de 75 be b8 98 2f bd fd 0e 11 bf
       -0.21953869 -0.24010597 -0.042870253 -0.56663495
0003b0 08 56 4b be 76 1f e4 be 31 2f 22 bf 09 82 9c 3d
       -0.19857037 -0.44555253 -0.6335326 0.0764199
0003c0 2d 8b e5 bd 8a e6 ca 3d 11 1b b7 3d 36 c3 54 bc
       -0.11208186 0.09907253 0.089407094 -0.012985995
0003d0 7d 93 1f be 05 48 c4 be cf f1 01 bd bd 0c e6 bd
       -0.15583606 -0.38336197 -0.031724747 -0.112328984
0003e0 cb dd cc bd b2 23 56 bc 68 15 25 be ad 23 00 3d
       -0.10003241 -0.013070034 -0.16121447 0.031284023
0003f0 1a 19 e4 bd 61 7c fc bd 63 78 64 be 0b e9 29 be
       -0.111376 -0.12328411 -0.22311549 -0.16592805
