VirtualAquarium/results/VirtualAquariumReproducao/VirtualAquarium/VirtualAquarium-11403.onnx (onnx, 101016 bytes, 12 tensors)

action_model._continuous_distribution.log_sigma f4 [1, 3]
0	0xbd926a28	-0.07149154
1	0xbc3e7e06	-0.011626726
2	0xbcd744ab	-0.02627786

action_model._continuous_distribution.mu.bias f4 [3]
0	0x3ba0d4b1	0.0049081673
1	0x3c9d620f	0.019211797
2	0xbadc3a34	-0.0016802014

action_model._continuous_distribution.mu.weight f4 [3, 128]
0	0xbc784325	-0.015152727
1	0x3c269eb3	0.010169673
2	0xbbd7a9ec	-0.0065815356
3	0x3baef196	0.005338858
4	0xbd075e00	-0.03304863
5	0xbb6cbb29	-0.0036122298
6	0x3bbde313	0.0057948916
7	0x3d10939d	0.035297025
8	0xbcc58f51	-0.02411619
9	0xbc8ea944	-0.017414697
10	0x3c4392c6	0.011936849
11	0xbc60782f	-0.013700529
12	0xbc3faea4	-0.011699352
13	0x3c0b52f3	0.008503663
14	0x3a155b54	0.0005697508
15	0xbabc585d	-0.0014369596
16	0xbb86c9c5	-0.0041134083
17	0xbcb1eb9f	-0.021718798
18	0x3c63ee98	0.013911866
19	0xbcaad947	-0.020855559
20	0xbaad48da	-0.0013220564
21	0xbc072706	-0.00824905
22	0x3ab968da	0.0014145628
23	0x3b93d425	0.0045113736
24	0xbbbb4882	-0.0057154307
25	0x3a295174	0.0006458976
26	0x3c863cff	0.016386507
27	0x3be52cc0	0.00699386
28	0x3bf6d324	0.007532494
29	0xbc9d9d19	-0.019239949
30	0xbc7c514d	-0.015400243
31	0x3a83778f	0.0010030138
32	0xbc0a3ef9	-0.008437865
33	0x3c61e855	0.013788302
34	0xb7d3883c	-2.52166e-05
35	0xbd4f5086	-0.050613903
36	0xbd11e0bc	-0.035614714
37	0xbad4d91e	-0.0016239022
38	0x3bcb0446	0.006195578
39	0xbb09a0a4	-0.002100029
40	0x3c50004d	0.012695384
41	0xbc18e156	-0.009331068
42	0xbc01b371	-0.007916317
43	0xbb4388a2	-0.0029836078
44	0xbc622f50	-0.0138052255
45	0xbd005fd5	-0.031341393
46	0x3c886ffd	0.016654963
47	0xb7a480f0	-1.9610365e-05
48	0xbc784b3a	-0.015154654
49	0xbba5fe0f	-0.0050656865
50	0x3bb17262	0.005415247
51	0x3c0aa3d1	0.008461908
52	0xbc8c82ca	-0.017152209
53	0x3cafb243	0.021447306
54	0xbcc3134e	-0.023812916
55	0xbbfefa99	-0.0077813384
56	0xbb9883b2	-0.004654371
57	0xbc64951f	-0.013951569
58	0x3ba41704	0.0050076265
59	0x3b771d17	0.0037706548
60	0x3c7f76a5	0.015592252
61	0xbc3ee1c6	-0.011650508
62	0xbbf3212a	-0.007419725
63	0xbc20e515	-0.009820242
64	0x3c750957	0.01495584
65	0x3c77034f	0.015076472
66	0xbbaf4166	-0.0053483723
67	0xbc5db76b	-0.0135325
68	0x3bebc1e5	0.007194745
69	0xbce6221b	-0.028092435
70	0xbbc6c43a	-0.0060658725
71	0x3ce2c92e	0.02768382
72	0x3c8c3dda	0.017119337
73	0xbc3597d7	-0.011083565
74	0xbc16f7f2	-0.009214388
75	0x3bfbd1f0	0.0076849386
76	0xbadd0427	-0.0016862199
77	0xbbc974ed	-0.006147972
78	0xb7a735b0	-1.9932952e-05
79	0xbc2ed529	-0.0106709385
80	0x3c95fe50	0.018309742
81	0xbc92c5b7	-0.017916543
82	0x3cbe09b2	0.023197982
83	0xbb02b681	-0.0019945207
84	0x3c9630c6	0.018333804
85	0x3c1ab849	0.009443351
86	0xbb20c629	-0.0024532175
87	0x3c92d53a	0.01792394
88	0x3c125149	0.008930513
89	0xbc06619c	-0.008201983
90	0x3d10cbb2	0.03535051
91	0x3c58c123	0.013229641
92	0x3cb10e23	0.021613186
93	0xbbe5adbb	-0.0070092357
94	0x3c70d107	0.0146982735
95	0x3caabcc1	0.020841958
96	0x3cf7862a	0.030215342
97	0xbccb7a4d	-0.024838591
98	0xbc2a1a6e	-0.010382278
99	0xbca0e24a	-0.019639153
100	0x3c819a90	0.015820771
101	0xbc9a58c0	-0.018841147
102	0xbb17933a	-0.0023128525
103	0xbb74be99	-0.003734505
104	0x3bef2db3	0.007299149
105	0x3b4de3c1	0.003141627
106	0x3a9a89a6	0.001179029
107	0x3b0a1ee7	0.0021075548
108	0xbc943dba	-0.01809584
109	0xbbe3785c	-0.006941838
110	0x3c0e8969	0.008699753
111	0xbbb864db	-0.0056272573
112	0x3b261371	0.0025341178
113	0xbbaf51a0	-0.0053503066
114	0xbc92e888	-0.017933145
115	0x3c0147a4	0.007890616
116	0x3ade8f52	0.0016979969
117	0x3c21c663	0.009873959
118	0xbcfc41a7	-0.030793024
119	0x3b2c2adb	0.002627066
120	0x3c00920e	0.007847322
121	0xbc066507	-0.008202798
122	0xbcb39d6c	-0.02192565
123	0xbbb71ebf	-0.005588382
124	0xbc154d38	-0.009112649
125	0xbc1f9961	-0.009741158
126	0xbbb1664a	-0.005413805
127	0xbb87df30	-0.004146479
128	0x3c87bd40	0.016569734
129	0xb98e3732	-0.00027125474
130	0xbccc5e79	-0.024947392
131	0xbc08d975	-0.008352627
132	0x3be95598	0.0071207993
133	0x3d0cbc45	0.034359235
134	0x3a14fd22	0.00056834717
135	0xbc49ae7b	-0.012309666
136	0x3c051853	0.008123475
137	0xbd5cf694	-0.053946093
138	0x3bad7896	0.005293916
139	0xbaea06fc	-0.0017854865
140	0x3bb5ba3d	0.005545883
141	0xbc12114d	-0.008915258
142	0x3a3de816	0.00072443613
143	0xbbe9b7e3	-0.0071325167
144	0xbc4ddef0	-0.0125653595
145	0xbc6f6d7f	-0.014613508
146	0xbbd69263	-0.0065482124
147	0xbc90a775	-0.017657975
148	0xbd1896af	-0.037253078
149	0xbc42645a	-0.011864746
150	0xbcb37744	-0.021907456
151	0xbc25a108	-0.010109194
152	0x3b57a274	0.0032903226
153	0xbd27450d	-0.040837336
154	0x3bebd69e	0.007197215
155	0xbb077275	-0.0020667587
156	0x3cc610c1	0.02417791
157	0xbc3519f1	-0.011053548
158	0x3bf8154e	0.007570899
159	0x3cd808fc	0.026371472
160	0xbc9869cb	-0.018605134
161	0xb96ef241	-0.00022787695
162	0x3af38720	0.0018579699
163	0x3c3a2351	0.011360959
164	0x3b9721d9	0.0046121893
165	0xbcc388e6	-0.02386899
166	0xbcfe36ff	-0.031032084
167	0xbcf20cf1	-0.029547187
168	0xbd2c8330	-0.042117298
169	0x3a242ef8	0.00062631024
170	0xbd0a6fcf	-0.033798035
171	0x3d099890	0.03359276
172	0xbd1d242f	-0.038364585
173	0x3cbe38b8	0.023220405
174	0xbd06462a	-0.032781757
175	0xbcbb8768	-0.022891715
176	0xbc5dd665	-0.013539885
177	0x3b68fc86	0.0035550906
178	0xbb6a50cf	-0.0035753732
179	0x3c88fea8	0.016722992
180	0xbca876e0	-0.020564497
181	0x3b43a07f	0.0029850302
182	0xbccbf358	-0.024896309
183	0xbcb5fe2e	-0.022215929
184	0x3ca260f9	0.01982163
185	0xbc321c37	-0.010870985
186	0x3cce9f85	0.02522255
187	0x3b59705c	0.0033178544
188	0xbc96c45c	-0.018404178
189	0x3bdd8933	0.00676074
190	0xbc76cde7	-0.015063739
191	0x3c525171	0.0128368
192	0xbc1edc09	-0.009696015
193	0xbae25d50	-0.0017270241
194	0x3b6fe227	0.0036603303
195	0xbc75c68d	-0.0150009515
196	0x3ce8d339	0.028421031
197	0xbba7f51d	-0.0051256553
198	0x3a2787ea	0.0006390797
199	0x3ca59b42	0.020215634
200	0x3b4d269b	0.0031303528
201	0xbc817750	-0.015803963
202	0xbce562f3	-0.028001284
203	0x3b710c2b	0.0036780934
204	0xbc13d005	-0.009021764
205	0x3b76fe12	0.0037688059
206	0x3b87fa0e	0.004149682
207	0x3c4138a6	0.011793291
208	0xbb671bfa	-0.0035264478
209	0xbbccc376	-0.0062488867
210	0x3ca8d1f1	0.02060792
211	0xbc3251bf	-0.010883748
212	0xbc712240	-0.0147176385
213	0x3af9f570	0.0019070338
214	0x3b06d431	0.0020573253
215	0xbc2e9a74	-0.010656942
216	0xbc39446b	-0.011307816
217	0x3ca5e688	0.020251527
218	0xbd5618e8	-0.052269846
219	0xbc7e1562	-0.015508028
220	0x3c36f766	0.011167383
221	0xbc6f09e3	-0.0145897595
222	0xbcf5f141	-0.030022265
223	0x3b099e00	0.0020998716
224	0x3c878940	0.016544938
225	0xbbd48a7e	-0.006486236
226	0xbc3278ac	-0.010893028
227	0xb9f573f1	-0.00046816425
228	0x3b348fa1	0.002755143
229	0x3b658ea0	0.0035027638
230	0xbc182ab7	-0.009287528
231	0x3c53646e	0.012902362
232	0x3d2311bb	0.03981183
233	0x3c53d258	0.012928568
234	0x3cb13c46	0.021635186
235	0x3d0daef9	0.034590695
236	0x3cb80eff	0.022468088
237	0xbc116bb0	-0.008875772
238	0xbc2d4ea4	-0.010577831
239	0x3c8ca114	0.017166652
240	0xbb5e95e9	-0.0033963865
241	0xbd0085c2	-0.03137756
242	0x3cadd4ae	0.021219578
243	0x3c6341b0	0.013870642
244	0x3d0a8f1f	0.033827897
245	0xbbff5d5d	-0.007793112
246	0xbcb25def	-0.021773307
247	0x3be74dc2	0.00705883
248	0xbd2b2c80	-0.041790485
249	0x3b90a419	0.004414093
250	0xbca14f95	-0.019691268
251	0x3d18e3e1	0.037326697
252	0xbc5b2f81	-0.013378025
253	0xbb17a70e	-0.0023140344
254	0xbc93505b	-0.017982652
255	0xbce33af4	-0.027738072

action_model._discrete_distribution.branches.0.bias f4 [2]
0	0x3c3b7ede	0.011443822
1	0xbc3b7edd	-0.011443821

action_model._discrete_distribution.branches.0.weight f4 [2, 128]
0	0xbad96d14	-0.0016588294
1	0xbb38a293	-0.0028173074
2	0x3c50b17f	0.012737631
3	0xbba525ba	-0.0050398977
4	0xbcd0d8d8	-0.025494024
5	0xbc970dec	-0.018439256
6	0x3d0cd086	0.03437855
7	0xbb3262cd	-0.0027219534
8	0x3bb38e78	0.00547963
9	0xbc915d0a	-0.01774456
10	0xbc3e5bc3	-0.011618557
11	0x3bc7fead	0.0061033578
12	0xbc5a7c61	-0.013335318
13	0xbca3471e	-0.019931372
14	0x3abf8d8f	0.0014614331
15	0xbc826449	-0.01591696
16	0xbc8b9326	-0.01703794
17	0xbc86fb61	-0.016477289
18	0x3af0e03f	0.0018377377
19	0xbd276d43	-0.040875684
20	0xbc04f9ca	-0.008116195
21	0xbcc50be4	-0.024053521
22	0x3ca0210f	0.019547014
23	0x3b25fbfa	0.0025327192
24	0x3c59f8fd	0.013303992
25	0xbcbc099d	-0.022953803
26	0x3c1dd291	0.0096327225
27	0xbb953bde	-0.004554256
28	0x3d0e4ab3	0.034739207
29	0x3c9ad871	0.018902035
30	0xbcc10fdd	-0.023567135
31	0x3cb5d5b9	0.022196637
32	0xbccf85ad	-0.025332296
33	0x3d1c1fcb	0.038116258
34	0x3c4d7366	0.01253972
35	0xbcfeb6ee	-0.031093087
36	0xbca35d1c	-0.019941859
37	0xbcc26dec	-0.023734055
38	0xbcf393e4	-0.029733606
39	0x3bf8e244	0.0075953323
40	0xbd096dd5	-0.03355201
41	0x3c939d31	0.01801929
42	0xbc247f6a	-0.0100401435
43	0x3c180540	0.009278595
44	0xbae4b79a	-0.0017449737
45	0x3d47f6c6	0.048819326
46	0xbcc5921b	-0.02411752
47	0x39eebb73	0.00045534558
48	0xbcffa8a6	-0.031208348
49	0xbcae9abe	-0.021314021
50	0x3c4ec7f8	0.012620918
51	0x3d9b35a5	0.07578591
52	0x3a3c41f2	0.00071814575
53	0xbca5d4d0	-0.020243078
54	0xbd34c764	-0.044135466
55	0xba8bead8	-0.0010674847
56	0x3cddb3ee	0.027063336
57	0xbbd04abd	-0.0063565657
58	0x3cc82e3c	0.024436109
59	0xbc89db93	-0.016828334
60	0x3c2049eb	0.009783248
61	0xbd25eb65	-0.040507693
62	0x3bb31ebf	0.0054663117
63	0xbc5de16f	-0.013542517
64	0xbcecafcc	-0.02889242
65	0xbc7625af	-0.015023633
66	0xbcad18c8	-0.02112998
67	0xbd0b1e5d	-0.033964504
68	0x3b822455	0.0039716163
69	0xbcdf1974	-0.027233817
70	0xbccc85c5	-0.02496613
71	0x3d47abc4	0.048747793
72	0x3bf5eddb	0.007505161
73	0xbc6aca39	-0.01433044
74	0xbcc615df	-0.02418035
75	0xbbd3a17a	-0.0064584585
76	0xbc959a8f	-0.018262176
77	0xbab826ca	-0.0014049646
78	0x3c8ee34f	0.017442374
79	0x3d2290b5	0.039688785
80	0x3d282327	0.04104915
81	0x3ca5bdda	0.02023213
82	0x3c73c472	0.014878379
83	0x3d4cc44b	0.049991887
84	0xbc6bae63	-0.014384839
85	0xbb7dcf1e	-0.0038728188
86	0xbc994671	-0.018710347
87	0xbd401da7	-0.04690328
88	0xbcb02253	-0.021500742
89	0x3b5a0119	0.0033264814
90	0xbbde4f76	-0.006784375
91	0x3b4234d9	0.002963355
92	0x3d1dc820	0.038520932
93	0xbca5e782	-0.020251993
94	0x3ca433c4	0.020044215
95	0x3d1573d2	0.036487408
96	0x3906374a	0.00012799833
97	0xbd0bab80	-0.034099102
98	0xbce1f891	-0.027584346
99	0xbd79a16c	-0.06094496
100	0xbb7c0ee8	-0.0038461033
101	0xbc0b4675	-0.008500685
102	0xbc052a21	-0.00812772
103	0x3c8903ea	0.0167255
104	0x3cb097e6	0.021556806
105	0xbc1bf551	-0.009518937
106	0x3c1043b6	0.008805206
107	0x3bd68472	0.0065465504
108	0xbc896e2a	-0.016776163
109	0xbcc70586	-0.024294626
110	0xbc278378	-0.010224216
111	0x3d622534	0.05521126
112	0x3cdc8fbb	0.026924005
113	0xbc736635	-0.014855911
114	0xbc01ed8d	-0.007930172
115	0x3ccd5508	0.02506496
116	0xbc2db98b	-0.010603319
117	0x3aab9142	0.0013089555
118	0xbca3b998	-0.019985959
119	0xbc7fe1b5	-0.015617778
120	0xbbe0b2ad	-0.0068572373
121	0xbcb74112	-0.022369895
122	0xbc92ee82	-0.017935995
123	0x3b23576b	0.0024923931
124	0xbcdea5a3	-0.027178591
125	0xbb29669f	-0.002584852
126	0xbc5b1d24	-0.013373647
127	0xbc34a71d	-0.011026171
128	0xbba2e1bf	-0.0049707587
129	0x3c14355b	0.009045924
130	0xbcc8fa2c	-0.024533354
131	0xbc0a6a2c	-0.008448165
132	0x3c3d5164	0.01155505
133	0x3d178e46	0.037000917
134	0xbcd7e25d	-0.026353056
135	0x3c14adb9	0.009074622
136	0xbc5ae6eb	-0.013360719
137	0x3bec2694	0.0072067473
138	0x3c0ff289	0.008785852
139	0x3b7461f4	0.003728983
140	0xbbefcd9b	-0.0073182113
141	0x3cbfaac8	0.023396865
142	0x3c80c2ed	0.015717948
143	0x3be9ec18	0.0071387403
144	0x3c6cd6fd	0.014455554
145	0xbc58c46e	-0.013230426
146	0xbb357f6a	-0.0027694353
147	0x3d0c48c4	0.034249082
148	0x3c9f1cda	0.019422937
149	0x3d1b6d8f	0.03794628
150	0xbcb5fb3c	-0.022214524
151	0x3b0ea0e6	0.0021763383
152	0xb9714b43	-0.00023011588
153	0x3c0ab0c7	0.008464999
154	0xbbabcb7f	-0.0052427645
155	0xbc0b3708	-0.008497007
156	0xbd41066b	-0.04712526
157	0x3a47a077	0.00076151587
158	0x3c0396cb	0.008031557
159	0xbcbfc49b	-0.023409178
160	0x3d4e7f5d	0.05041443
161	0xbc74b0f6	-0.014934769
162	0xbca92668	-0.020648196
163	0x3c92e493	0.017931258
164	0x3be753e6	0.007059562
165	0x3c90bd07	0.01766826
166	0x3d1623cd	0.036655236
167	0x3bd4d095	0.0064945915
168	0x3cc43325	0.023950169
169	0xbc5e5617	-0.01357033
170	0x3c2edcd7	0.0106727695
171	0x3ccf7ae6	0.025327157
172	0x3c4b5d57	0.012412391
173	0xbcd49ca7	-0.025953604
174	0xbc1adcbe	-0.009452043
175	0x3c57a40d	0.013161671
176	0x3d36d618	0.04463777
177	0x3d199f1b	0.03750525
178	0x3ba97c79	0.005172309
179	0xbd666192	-0.056245394
180	0x3a26c1d9	0.0006361283
181	0x3d3b3f57	0.045714702
182	0x3ccbed1b	0.024893334
183	0x3bdf01fd	0.006805657
184	0xbcf20229	-0.029542046
185	0x3b278dfb	0.0025566805
186	0xbcb66769	-0.022266107
187	0xb9f1da41	-0.00046129714
188	0x3c48c524	0.012254033
189	0x3bd9bbc7	0.0066446993
190	0xbc3e9a3f	-0.011633455
191	0xb91654e9	-0.00014336746
192	0x3ce0be6c	0.02743455
193	0x3c2bd6c9	0.0104882205
194	0x3c357b66	0.011076784
195	0x3d18d15e	0.037309043
196	0xbc22e4aa	-0.009942213
197	0x3d003de2	0.031309016
198	0x3cf12021	0.029434266
199	0xbd1d08b8	-0.038338393
200	0x3c7a978e	0.0152949225
201	0x3cea5ecf	0.028609661
202	0x3cca91f2	0.024727795
203	0x3b85c490	0.00408227
204	0x3c0cc3e5	0.008591627
205	0x3b307951	0.002692778
206	0xbcbb4d79	-0.02286409
207	0xbcdbf9c8	-0.026852503
208	0xbce80323	-0.028321808
209	0xbb609410	-0.003426794
210	0xbcd1eddc	-0.025626116
211	0xbcdcaf96	-0.026939195
212	0x3cc241e9	0.023713069
213	0x3c8ad262	0.016946021
214	0x3bdc525a	0.0067236843
215	0x3d39311a	0.045212843
216	0x3c9d19b0	0.019177288
217	0x3bd2fdfa	0.006438968
218	0x3bed07c4	0.0072335918
219	0x3b2cfd10	0.0026395954
220	0xbcbc43e3	-0.02298159
221	0x3cba05b7	0.022707803
222	0xbbd6f394	-0.0065597985
223	0xbcc6b10f	-0.02425435
224	0x3c1d2de7	0.0095934635
225	0x3d371c85	0.044704933
226	0x3c5bc44b	0.013413499
227	0x3d517a30	0.051141918
228	0x3bee3f8d	0.0072707594
229	0xba6aa289	-0.0008950611
230	0x3cc3572e	0.023845281
231	0xbca29098	-0.019844338
232	0xbced2b0a	-0.028951187
233	0x3c85a5de	0.016314443
234	0xbc3e243c	-0.011605319
235	0x3c175013	0.0092354
236	0x3be7d167	0.0070745233
237	0x3cd1aab2	0.02559409
238	0xbb3791f3	-0.0028010576
239	0xbd83ace9	-0.06429464
240	0xbd4fb88d	-0.05071311
241	0x3c5772c2	0.013149919
242	0x3cd1067a	0.025515784
243	0x3b609976	0.0034271157
244	0xbc51c40d	-0.01280309
245	0xbcf46cfc	-0.029837124
246	0x3d12cab4	0.035837844
247	0x3bd80b7e	0.006593167
248	0x3ca9be91	0.020720752
249	0xbc0fed0d	-0.008784545
250	0x3a76791d	0.00094022026
251	0xbc27afa8	-0.010234751
252	0x3ccab337	0.02474366
253	0x3c09fcc2	0.008422079
254	0x3cd04a22	0.025425974
255	0x3c16c7e0	0.009202927

action_model._discrete_distribution.branches.1.bias f4 [2]
0	0xbc283c2a	-0.0102682505
1	0x3c283c23	0.010268244

action_model._discrete_distribution.branches.1.weight f4 [2, 128]
0	0xbc3cf831	-0.011533783
1	0x3be321af	0.0069315056
2	0xbc898e2b	-0.016791424
3	0xbc35316c	-0.011059146
4	0xbc671bff	-0.014105796
5	0x3cc0edad	0.023550833
6	0xbcc8717a	-0.024468172
7	0x3c6bffa8	0.014404215
8	0xbc80ccfc	-0.015722744
9	0x3b1f38ee	0.0024295407
10	0x3cc4e36f	0.02403423
11	0x3c42c2d7	0.011887274
12	0x3c69f263	0.014278981
13	0x3cc2a1b5	0.023758749
14	0x3c9e65b5	0.019335607
15	0x3ce7fc7e	0.02831864
16	0x3c8a21a2	0.01686174
17	0x3c46014b	0.012085269
18	0xbc3c8936	-0.011507323
19	0x3c9b431a	0.018952895
20	0xbb2b6b76	-0.002615658
21	0xbc77f792	-0.015134709
22	0xbd0a33ba	-0.033740737
23	0xbbec7efd	-0.0072172866
24	0xbcfff2bd	-0.031243676
25	0xbc1bfc6b	-0.00952063
26	0x3c3b7906	0.011442428
27	0x3cb10412	0.021608386
28	0xbcfdf34e	-0.030999806
29	0xbc0fcf39	-0.008777433
30	0x3cb1b0f2	0.02169082
31	0xbcaf1004	-0.021369942
32	0x3cee229e	0.029069241
33	0xbbd7050d	-0.0065618814
34	0xbd5a3ee8	-0.05328265
35	0x3b956bbc	0.004559962
36	0x3c31d19c	0.010853197
37	0x3b7d3c6f	0.0038640758
38	0x3be30d5d	0.0069290833
39	0x3bf23bc4	0.0073923785
40	0xbc3ead43	-0.0116379885
41	0xbbae73b5	-0.005323852
42	0x3ce50a49	0.027959006
43	0x3cb061d9	0.021531032
44	0x3bad3353	0.0052856593
45	0xbd6a38e6	-0.05718317
46	0x3c7c737d	0.015408394
47	0x39b10d06	0.00033769774
48	0x3c7b16ff	0.015325307
49	0x3c8a0890	0.016849786
50	0xbba965bf	-0.0051696
51	0xbd247aa8	-0.040156037
52	0xbc20c7af	-0.009813233
53	0x3cc25ffb	0.023727408
54	0x3d01f67f	0.031729218
55	0x3c392308	0.011299856
56	0xbb65b629	-0.0035051203
57	0xbc364fb4	-0.011127401
58	0x3cce6240	0.025193334
59	0x3c3c75ad	0.0115026655
60	0x3c4b6d66	0.012416219
61	0x3d608782	0.05481673
62	0x3980c9b8	0.00024564355
63	0xbb5e91e6	-0.0033961474
64	0x3a9c5b17	0.0011929002
65	0xbb8950cd	-0.0041905404
66	0x3c9d8894	0.019230165
67	0x3acf6da1	0.0015825519
68	0x3cfbef14	0.03075365
69	0x3b245da7	0.0025080235
70	0x3cb83300	0.022485256
71	0xbd0803ad	-0.03320663
72	0xbc340c0c	-0.0109892
73	0x3d1da9c7	0.03849199
74	0x3cd38ff7	0.025825484
75	0x3c6b4dca	0.014361808
76	0x3d062b29	0.032756004
77	0xbc529e58	-0.012855135
78	0xbc696cdc	-0.0142471455
79	0xbc78a9a4	-0.015177164
80	0xbd32be76	-0.04363867
81	0xbc903f00	-0.017608166
82	0xbc6d6421	-0.014489205
83	0xbccb5c3b	-0.024824252
84	0x3c950122	0.018189017
85	0x3c8be5ca	0.017077345
86	0x3bdd9a13	0.006762752
87	0x3cf1dd4d	0.02952447
88	0x3ced78f6	0.028988343
89	0x3d26384f	0.040581044
90	0x3a4761a3	0.00076057966
91	0xbbf0a045	-0.0073433244
92	0x3bcb08f7	0.006196137
93	0x3ccd89f5	0.025090197
94	0xbcc6b8e5	-0.024258086
95	0xbcac2cea	-0.02101751
96	0xbbd3fbcb	-0.006469225
97	0x3cbb52ea	0.022866685
98	0x3ae1f5e3	0.0017239418
99	0x3c6b9cda	0.014380658
100	0x3d01294b	0.03153352
101	0xbc77eece	-0.015132619
102	0x3af66463	0.0018798228
103	0xbcf468f8	-0.02983521
104	0xbc863c54	-0.016386189
105	0xbc5570d0	-0.013027385
106	0x3d050d11	0.032483164
107	0x3c51def4	0.012809504
108	0x3d37f30f	0.044909533
109	0xbb11dff6	-0.0022258735
110	0x3d1615bb	0.036641818
111	0xbd3d87af	-0.046271976
112	0xbcd805b6	-0.02636991
113	0x3be4b1cc	0.006979203
114	0x3c93f2b2	0.018060062
115	0xbc1e1dc4	-0.009650651
116	0x3cebf14a	0.028801579
117	0xbc808e74	-0.015692927
118	0x3b3b089a	0.0028539062
119	0x3cc164da	0.02360766
120	0x3cf59908	0.029980198
121	0x3cc31a8a	0.023816366
122	0x3cd4ac52	0.025961075
123	0x3d1f94af	0.038960155
124	0x3bb03870	0.0053778216
125	0xbb821a6b	-0.0039704344
126	0xbbfa42ed	-0.0076373727
127	0x3bc59654	0.0060298834
128	0x3a87bfb3	0.0010356813
129	0xbcbf24a3	-0.0233329
130	0x3c0a46b2	0.008439707
131	0x3d09a5f6	0.03360554
132	0xbb7b7e52	-0.0038374853
133	0xbc873749	-0.016505854
134	0x3cb5c4cc	0.022188567
135	0xbbb3b147	-0.0054837796
136	0x3c114655	0.008866866
137	0xbc09cb14	-0.008410234
138	0xbcefc4af	-0.02926859
139	0x3bc01586	0.005861941
140	0xbca1550f	-0.01969388
141	0xbcdb3c8c	-0.02676227
142	0xbc81eea2	-0.01586086
143	0xbcfc12cf	-0.030770687
144	0xbb7680d9	-0.003761342
145	0xbca805d3	-0.02051059
146	0x3c7f3720	0.015577108
147	0xbcc6e4c3	-0.024279004
148	0xbb8311a3	-0.003999905
149	0x3c13b0e6	0.009014344
150	0x3c692b75	0.014231552
151	0x3becd095	0.0072270134
152	0x3c0f2ad6	0.00873824
153	0x3cb4ade0	0.022055566
154	0xbca28ede	-0.019843515
155	0xbce8f311	-0.028436216
156	0x3cfed182	0.03110576
157	0x3ae39dbe	0.0017365736
158	0xbccd06cf	-0.02502766
159	0x3bed0da2	0.007234291
160	0xbc0ce18c	-0.008598696
161	0xbb33f6e6	-0.0027460395
162	0x3cb18268	0.021668628
163	0x3c2979c6	0.010343974
164	0xbc53ab07	-0.012919194
165	0xbbfaf1ee	-0.007658235
166	0x3aead09b	0.0017914952
167	0xbb5c6876	-0.00336316
168	0xbcb3bc77	-0.021940453
169	0x3cb31266	0.021859359
170	0xbc27bf60	-0.010238498
171	0xbc35bbaf	-0.011092111
172	0x3b4a8960	0.0030904636
173	0x3d290852	0.0412677
174	0xbca02f19	-0.019553708
175	0x3cca143e	0.024667855
176	0xbca69b89	-0.020337837
177	0xbc26a1c7	-0.010170407
178	0xbb5b70a6	-0.0033483892
179	0x3d3d2089	0.046173606
180	0x3a349482	0.00068885845
181	0xbc9ecef9	-0.019385802
182	0xbd244e5f	-0.040113803
183	0xbbb62ffb	-0.005559919
184	0xbc2faa6f	-0.010721787
185	0x3c9a39e6	0.018826436
186	0xbba55c13	-0.0050463765
187	0xbcc047ed	-0.023471797
188	0xbc99b743	-0.018764144
189	0xbceb0c30	-0.028692335
190	0xb9a07de4	-0.00030611374
191	0xbc7c138d	-0.015385521
192	0xbc1ad47f	-0.009450077
193	0x3c534eec	0.012897234
194	0xbc3731fd	-0.011181352
195	0x3ba10ed5	0.004915098
196	0xbcac3d0f	-0.021025209
197	0xbc9e1a76	-0.019299727
198	0xbd057477	-0.032581773
199	0x3d1d8298	0.038454622
200	0x3cb04044	0.02151502
201	0xbcd16f8d	-0.025565887
202	0xbccfdcb7	-0.0253738
203	0xbcdc0ff2	-0.026863072
204	0xbc0b4258	-0.008499704
205	0x3ca5467c	0.020175211
206	0x3ccf81c6	0.025330435
207	0x3caa688d	0.020801807
208	0x3d0acc89	0.033886466
209	0xbbd01d3e	-0.006351142
210	0x3c8ef981	0.017452957
211	0x3c0b0cd1	0.008486942
212	0x3ba0cfd8	0.0049075894
213	0xbc8dd0c8	-0.017311469
214	0xbabf9a3d	-0.001461811
215	0xbd163d3d	-0.036679495
216	0xbcfb2dac	-0.030661426
217	0xbcdaa95d	-0.026692087
218	0xbb4d2a68	-0.0031305794
219	0x3c825a01	0.015912058
220	0xbd03d520	-0.032185674
221	0xbcd03af9	-0.025418745
222	0x3cb88de7	0.022528602
223	0x3c398efa	0.011325592
224	0x3c4bfaa0	0.01244989
225	0xbcc728ff	-0.02431154
226	0xbb44a64f	-0.0030006354
227	0xbcc33fc0	-0.02383411
228	0xbc9f7c6f	-0.019468514
229	0x3d009e57	0.031401005
230	0xbacde984	-0.0015709852
231	0x3cbc647d	0.022997135
232	0x3ad6e5e9	0.0016395423
233	0xbb8595f7	-0.004076715
234	0xbcd11a70	-0.025525302
235	0xbc9e1bb0	-0.019300312
236	0xbd188a98	-0.03724155
237	0xbb7e5c9a	-0.003881252
238	0xbca4a48b	-0.020097991
239	0x3d228eff	0.039687153
240	0x3d2a2e00	0.041547775
241	0xbc329eb9	-0.0109021
242	0xbc796200	-0.015221119
243	0x3c1fdf06	0.009757763
244	0xbca65dd8	-0.02030842
245	0x3c0aa210	0.00846149
246	0x3c756d24	0.014979634
247	0xbd1653c2	-0.03670097
248	0xbb0c19c2	-0.0021377658
249	0xbc48b8c6	-0.012251085
250	0xbcf43bd6	-0.029813688
251	0xbd18675b	-0.037207942
252	0xbc12d057	-0.008960805
253	0x3c8ba154	0.0170447
254	0x3b7df9eb	0.00387537
255	0xbc9c0469	-0.019045072

discrete_action_output_shape f4 [1, 2]
0	0x40000000	2.0
1	0x40000000	2.0

network_body._body_endoder.seq_layers.0.bias f4 [128]
0	0xb98469c3	-0.000252558
1	0x3cc362d0	0.023850828
2	0x3d0bc8c4	0.034127012
3	0x3c69502b	0.014240305
4	0x3b97ab47	0.004628572
5	0x3c461497	0.01208987
6	0xbcc6a806	-0.024250042
7	0xbc9d2682	-0.019183401
8	0xbc9a270c	-0.018817447
9	0xbd0f3bcc	-0.034969136
10	0x3cf0886e	0.02936193
11	0xba7a008e	-0.0009536826
12	0x3c369e54	0.011146147
13	0x3cd195e7	0.025584174
14	0xbd29085d	-0.04126774
15	0xbc292023	-0.010322603
16	0x3c2bd484	0.010487679
17	0x3c744ccc	0.014910888
18	0x3c5d377f	0.013502001
19	0xbca51dae	-0.020155754
20	0x3c92b78a	0.017909784
21	0x3b9a836f	0.004715375
22	0x3c71234a	0.014717886
23	0x3c325fd2	0.010887103
24	0x3b0f9ed6	0.0021914742
25	0x3bebea1e	0.00719954
26	0xbc7fd9a9	-0.015615859
27	0xbc807744	-0.01568187
28	0x38e88f34	0.00011089296
29	0xbc9a58ec	-0.01884123
30	0xbc418c29	-0.011813202
31	0xbc79016e	-0.015198095
32	0x3cbb3629	0.022852974
33	0xbc7affe1	-0.015319795
34	0xbc33c8f0	-0.0109732
35	0xbc9616e0	-0.018321455
36	0xbc3bcf36	-0.011462977
37	0x3b99e53e	0.0046965173
38	0x3bb5e509	0.0055509848
39	0xbc6ba379	-0.014382237
40	0xbd0b2e9b	-0.033979993
41	0x3ccf7d4f	0.025328306
42	0x3b356649	0.0027679375
43	0xbc875669	-0.016520696
44	0xbc1139a1	-0.008863837
45	0x3ca31b38	0.01991044
46	0xbc759288	-0.014988549
47	0x3a52fe12	0.00080487237
48	0xbc5fde1a	-0.013663793
49	0xbcbf1f3a	-0.02333032
50	0xbc1f80fd	-0.009735343
51	0xbd1ca7be	-0.03824591
52	0x3c09fda9	0.008422294
53	0x3c355afe	0.0110690575
54	0x3c14104e	0.00903709
55	0xbc96901a	-0.01837926
56	0xbb344247	-0.0027505325
57	0xbd03694e	-0.03208285
58	0xbbe65f12	-0.0070303762
59	0x3d3e334e	0.046435647
60	0xbcaa2ee3	-0.02077431
61	0xbcc75648	-0.024333134
62	0xbc57dfc4	-0.0131759085
63	0x3c6af272	0.01434003
64	0xbcadb9f4	-0.021206833
65	0xbc0c0e89	-0.008548387
66	0xba154ebb	-0.00056956307
67	0xba918e3f	-0.0011105015
68	0xbc21226e	-0.009834869
69	0xbd2005a6	-0.039067887
70	0x3cb88bc2	0.02252758
71	0xbbd8686b	-0.0066042445
72	0x3bd90399	0.0066227433
73	0x3981383e	0.000246467
74	0x3bfda570	0.007740669
75	0xbcbd36fa	-0.023097504
76	0x3c3adc02	0.011404993
77	0xbbbb4ca0	-0.0057159215
78	0xbc64b3b5	-0.013958861
79	0xbcc56c1e	-0.024099406
80	0xbcd6d5f5	-0.02622507
81	0x3bcc61d2	0.006237247
82	0xbba63551	-0.005072274
83	0x3aec9b14	0.0018051588
84	0x3c20df4a	0.009818861
85	0xbd026037	-0.03183004
86	0x3c849abf	0.01618707
87	0xbc3c5d72	-0.0114968885
88	0x3b845311	0.0040382226
89	0x3c00964c	0.007848334
90	0xbb6bbadb	-0.0035969529
91	0xbb1576f6	-0.0022806502
92	0x3c5c4179	0.013443344
93	0xbbb96e46	-0.0056588976
94	0x3d019ced	0.031643797
95	0xbb3d0e92	-0.0028847796
96	0xbbadac1d	-0.0053000585
97	0x3c82260a	0.015887279
98	0xbcc04eb3	-0.023475027
99	0xbce0831e	-0.027406272
100	0x3ca375bf	0.019953607
101	0x3b0ce9d6	0.0021501682
102	0xbbd7fce3	-0.0065914257
103	0xbd049d71	-0.03237671
104	0x3d65da0b	0.056116145
105	0x3bfaa43b	0.0076489723
106	0x3bdbdb50	0.0067094937
107	0xbc7c52ff	-0.015400647
108	0x3cdcf09f	0.026970206
109	0xbc01b495	-0.007916589
110	0x3c824380	0.015901327
111	0xbc30fc17	-0.01080229
112	0xbce76855	-0.028247992
113	0xbb4fef41	-0.00317283
114	0xbc874a07	-0.016514791
115	0x3b09afa8	0.002100924
116	0x393afaf9	0.00017831837
117	0x3bb3e3a9	0.0054897857
118	0xba1f0f71	-0.00060676696
119	0x3c8794ba	0.01655041
120	0x3ad5a9f4	0.001630126
121	0xbc944272	-0.01809809
122	0x3942a102	0.00018561262
123	0xbc8308ee	-0.015995469
124	0x3c6c8899	0.014436864
125	0xbb5193bd	-0.0031978928
126	0xbc90b4de	-0.01766437
127	0xbc766e53	-0.015040952

network_body._body_endoder.seq_layers.0.weight f4 [128, 53]
0	0x3d3902fc	0.04516886
1	0x3e06cfee	0.13165256
2	0xbdb492e7	-0.08817082
3	0xbdff1834	-0.12455788
4	0xbe275310	-0.1634028
5	0xbdb9b000	-0.090667725
6	0xbce63113	-0.028099572
7	0xbe25c27e	-0.16187474
8	0x3c12b85c	0.0089550875
9	0x3e18b371	0.14912201
10	0x3dd260b9	0.10272355
11	0x3dd073e4	0.101783544
12	0x3e080a4d	0.1328518
13	0x3d9b5ef2	0.07586469
14	0x3db1a130	0.08673322
15	0x3ccbe74c	0.024890564
16	0xbd17056a	-0.036870398
17	0x3ea8ecbf	0.32993123
18	0xbbc445db	-0.0059897727
19	0x3d1d0167	0.038331416
20	0x3cd6b197	0.026207728
21	0xbc0add7f	-0.00847566
22	0x3d9f708a	0.07785137
23	0xbe33f684	-0.17574507
24	0x3b516499	0.003195083
25	0x3e5229e5	0.20523794
26	0x3d88549f	0.06656765
27	0xbc9b37cc	-0.018947504
28	0xbe178a4d	-0.14798851
29	0xbed1d392	-0.40981728
30	0x3d987d81	0.07445813
31	0x3b0f945c	0.0021908497
32	0xbd2bab71	-0.041911546
33	0xbd6415ee	-0.055684976
34	0x3d5229a6	0.05130925
35	0xbe024dd1	-0.12724997
36	0xbecc043d	-0.39846984
37	0x3d0bea76	0.034159146
38	0xbd9b3704	-0.07578853
39	0x3ca26264	0.019822307
40	0x3e118332	0.14210203
41	0x3eb39e4a	0.35081702
42	0xbc81da5e	-0.015851196
43	0x3d735ca6	0.05941453
44	0xbcdc4d18	-0.02689223
45	0xbe0fb52b	-0.14033954
46	0xbe215fe6	-0.15759239
47	0x3b20f859	0.002456209
48	0xbd93d3de	-0.07218145
49	0x3e7bfc2f	0.24607919
50	0xbcf6a498	-0.030107781
51	0xbe9734ad	-0.29532376
52	0x3bb71f9f	0.0055884863
53	0xbe908d1d	-0.2823266
54	0xbdc3aeeb	-0.09554847
55	0xbe846e17	-0.25865242
56	0xbe01e016	-0.12683138
57	0x3c42ae44	0.0118823685
58	0x3e92ed8c	0.2869686
59	0x3e923d8c	0.28562582
60	0xbe671b8a	-0.22569099
61	0xbd4ae89a	-0.049538232
62	0xbd2bf472	-0.041981168
63	0xbdb6426c	-0.08899388
64	0x3d3951f0	0.045244157
65	0x3db13d73	0.08654299
66	0x3e444e18	0.19170415
67	0xbdb3e37d	-0.08783624
68	0xbdc8fa7d	-0.09813402
69	0x3e4b9c44	0.1988383
70	0x3e040b82	0.12895015
71	0xbd327032	-0.04356403
72	0x3c524f8a	0.012836346
73	0xbdd8595b	-0.10563918
74	0xbdeb214f	-0.114809625
75	0x3e3eb339	0.18623056
76	0x3d58e47a	0.052952267
77	0x3e2fc906	0.17166528
78	0x3e2cf643	0.16890816
79	0xbad71358	-0.0016408963
80	0x3e296117	0.16540943
81	0xbdbacfce	-0.09121667
82	0xbeac6ac8	-0.33675218
83	0x3dc56088	0.096375525
84	0xbe59912e	-0.21246788
85	0x3e22b4c3	0.15889268
86	0x3e9c1f25	0.3049251
87	0xbdcf3e39	-0.1011929
88	0x3e7016cf	0.23446201
89	0xbdaf98a1	-0.085740335
90	0x3c98405b	0.018585375
91	0x3d034cdd	0.032055724
92	0x3dda514e	0.10660039
93	0x3dc0aa26	0.09407453
94	0x3d98b69f	0.07456707
95	0xbc1aed5c	-0.009456005
96	0x3cb65fb7	0.022262437
97	0xbb3ed2bc	-0.0029117307
98	0xbe7f97dd	-0.24960275
99	0xbcb47eb8	-0.02203308
100	0x3d7c2a5c	0.061563835
101	0xbc57d5ac	-0.013173502
102	0x3e9d7f23	0.3076106
103	0x3b9ac221	0.004722849
104	0xbdba1a5d	-0.0908706
105	0x3d7104bc	0.058842406
106	0x3d4cec50	0.050030053
107	0xbe38ab2e	-0.1803405
108	0xbc9c011c	-0.019043498
109	0xbd49d488	-0.04927495
110	0x3e14dff8	0.14538562
111	0xbe08cdeb	-0.13359801
112	0x3d0bddfc	0.034147248
113	0xbcd1f3db	-0.025628975
114	0xbd0002e3	-0.031252753
115	0x3eaea4ee	0.34110206
116	0x3d968262	0.07349087
117	0xbdb48bf3	-0.08815756
118	0xbda7e0f2	-0.08197202
119	0xbe161a64	-0.14658505
120	0xbe851207	-0.25990316
121	0xbe1d94cd	-0.15388794
122	0x3da93f46	0.082640216
123	0xbd54b48f	-0.051930007
124	0xbcb2e1a5	-0.021836111
125	0x3da5fe27	0.08105116
126	0x3dc43354	0.095801026
127	0x3d50f02c	0.051010296
128	0xbe28a354	-0.16468555
129	0xbd541e09	-0.051786456
130	0x3e1d5f72	0.15368441
131	0x3ea8b39f	0.3294954
132	0xbc120a8a	-0.0089136455
133	0x3e857805	0.2606813
134	0xbdcec53f	-0.100962155
135	0xbda9068c	-0.08253202
136	0xbdc31bc8	-0.09526783
137	0x3e1ca1b7	0.15296064
138	0x3b3a6569	0.0028441793
139	0xbddf770c	-0.10911378
140	0x3d875e12	0.06609739
141	0x3e0586c5	0.13039692
142	0x3e14415b	0.14478056
143	0x3d8e0a38	0.06935543
144	0x3e712eda	0.23553029
145	0xbec8be86	-0.39207858
146	0xbd900534	-0.070322424
147	0x3e96cbb5	0.2945229
148	0x3c6411f6	0.013920298
149	0x3ca0bacf	0.019620327
150	0x3dee440d	0.116340734
151	0xbcf25b68	-0.029584602
152	0xbe612672	-0.21987322
153	0x3d30351c	0.0430194
154	0x3da31088	0.079621375
155	0x3dd1a939	0.10237355
156	0xbc070e06	-0.00824309
157	0xbe0235c7	-0.12715827
158	0x3dea8702	0.11451532
159	0xbd00839b	-0.03137551
160	0xbe44af74	-0.19207555
161	0xbd9c0b4c	-0.07619342
162	0xbe171812	-0.14755276
163	0x3c618cd6	0.013766488
164	0x3da41e1a	0.08013554
165	0x3eb43c86	0.35202426
166	0xbcd05961	-0.025433244
167	0x3c5e4284	0.013565663
168	0x3e2c1b57	0.16807304
169	0x3dfae0e2	0.12249924
170	0x3d2818a3	0.04103912
171	0xbe0808a1	-0.13284542
172	0x3e370fe7	0.1787716
173	0x3e4cc295	0.19996102
174	0xbe8292ba	-0.25502568
175	0x3dc4cac3	0.09608986
176	0xbdcc18f7	-0.09965699
177	0x3daef787	0.08543306
178	0xbd557028	-0.052108914
179	0x3e53d23d	0.20685668
180	0x3d716b07	0.05893996
181	0xbdbaccc8	-0.0912109
182	0xbd9d11d7	-0.07669418
183	0x3e0e03a8	0.13868582
184	0xbd8e7c1e	-0.06957267
185	0xbd1981ba	-0.037477233
186	0xbdf81971	-0.121142276
187	0x3d90f326	0.07077627
188	0x3e0281cd	0.12744828
189	0x3db84663	0.089978
190	0x3c97f138	0.01854764
191	0xbdafade2	-0.085780874
192	0x3e3578f3	0.1772192
193	0xbc1632c1	-0.009167374
194	0x3d08318f	0.033250388
195	0x3ea85c10	0.32882738
196	0xbdfae37d	-0.12250421
197	0xbd4a6a26	-0.049417637
198	0x3b039f48	0.0020083953
199	0xbe0c0924	-0.13675362
200	0x3d80dd17	0.062921695
201	0x3e0b422d	0.13599463
202	0xbc03dbee	-0.008048041
203	0xbe693075	-0.22772391
204	0xbbcf3310	-0.006323226
205	0xbbaf1c75	-0.0053439685
206	0xbda34d33	-0.07973709
207	0xbd7126fb	-0.058875065
208	0x3ccaded4	0.024764456
209	0xbb11c363	-0.0022241704
210	0xbd4710a6	-0.04859986
211	0x3cf32e54	0.029685177
212	0xbe752ac2	-0.23942092
213	0x3d52f3b1	0.051501933
214	0xbe069699	-0.13143386
215	0xbd402546	-0.046910547
216	0x3e13cc5a	0.14433423
217	0xbe5993fa	-0.21247855
218	0xbd1c27bb	-0.038123827
219	0xbe7a3a13	-0.24436216
220	0x3e6d158f	0.23152755
221	0x3e20f138	0.15717018
222	0xbd6ea5fd	-0.058263768
223	0x3dcc3dec	0.09972748
224	0x3e3e7932	0.1860092
225	0x3dc82a9d	0.09773753
226	0x3d6aa7cc	0.05728893
227	0xbe89503b	-0.26819023
228	0x3db9ee86	0.09078698
229	0x3d7f2984	0.06229545
230	0x3dc7ddbf	0.097590916
231	0x3c1b98a6	0.009496843
232	0xbd9ff039	-0.07809491
233	0x3d8812bd	0.06644199
234	0x3d874b13	0.06606116
235	0xbdda19ea	-0.10649474
236	0x3dbd37c5	0.09239153
237	0xbe274451	-0.16334654
238	0x3e54537d	0.20734973
239	0x3c967181	0.01836467
240	0x3e4d571b	0.2005276
241	0xbe70d682	-0.23519328
242	0xbe2ce31c	-0.1688351
243	0xbe6f456e	-0.23366329
244	0xbd7a33c8	-0.06108454
245	0x3de4a263	0.11163785
246	0xbe0631e5	-0.13104971
247	0xbe43c086	-0.1911641
248	0x3e680544	0.22658259
249	0x3be453ce	0.006967998
250	0x3eb06885	0.34454742
251	0x3d9dee70	0.07711494
252	0x3da09050	0.078400254
253	0xbe723405	-0.23652656
254	0xbc50f8f5	-0.0127546685
255	0x3d8ed7ff	0.06974792

network_body._body_endoder.seq_layers.2.bias f4 [128]
0	0x3b0b2d3b	0.0021236676
1	0xba39717a	-0.0007074099
2	0xbc7d1001	-0.01544571
3	0x3b0f9fed	0.0021915392
4	0x3ac9da70	0.0015400182
5	0x3c25857d	0.010102627
6	0xbc067bc8	-0.008208223
7	0xbaab3504	-0.0013062065
8	0xbc196041	-0.009361328
9	0xbc837ffb	-0.016052237
10	0x3c0dd193	0.008655923
11	0xbc5db844	-0.013532702
12	0x3c8825d5	0.016619602
13	0xbb8a9fb1	-0.0042304625
14	0x3c4e1141	0.012577356
15	0xbab1ed6a	-0.0013574783
16	0xbb398536	-0.002830816
17	0xbbdc5a1f	-0.0067246105
18	0xbc3dbf13	-0.0115812
19	0xbbbb1b85	-0.0057100677
20	0xbc2a894e	-0.010408713
21	0xbc8702e2	-0.016480867
22	0xbb991252	-0.0046713734
23	0xbcba4431	-0.022737594
24	0xbbac3817	-0.00525571
25	0xbc9d0cfc	-0.01917123
26	0xbb21267f	-0.0024589596
27	0x3ba1d3e5	0.00493859
28	0x3c888494	0.01666478
29	0xbc8acd86	-0.016943704
30	0x3c9c248a	0.019060392
31	0x3bda2123	0.0066567822
32	0xbc1440de	-0.009048669
33	0xbc3c4500	-0.01149106
34	0x3c3fce62	0.01170692
35	0x3aaabc3f	0.0013026072
36	0x3bc6565f	0.0060527767
37	0xbc8bdc76	-0.017072897
38	0xbccda15f	-0.025101362
39	0xbc33164b	-0.010930608
40	0xbc19e086	-0.009391909
41	0xbc4294ec	-0.011876326
42	0xbcc16388	-0.02360703
43	0x394f74af	0.00019784526
44	0xbc95e517	-0.018297715
45	0x3c11951c	0.008885648
46	0xbc1fe3a5	-0.0097588645
47	0xbc912a57	-0.017720385
48	0xbbc249dc	-0.005929215
49	0x3c06501d	0.008197811
50	0x3c1d6447	0.0096064275
51	0x3c6a476f	0.014299258
52	0xbca92489	-0.020647304
53	0xbbdbc1ae	-0.006706438
54	0xbbb13e5b	-0.0054090447
55	0xbc899f8d	-0.016799713
56	0x3c28f6c8	0.0103127435
57	0xbc8faa8e	-0.017537382
58	0x3c239c64	0.009986017
59	0xb880e3db	-6.145957e-05
60	0xbba7224f	-0.0051005254
61	0x3c2a1c1c	0.010382678
62	0xbcd4ab1e	-0.025960501
63	0x3cd6fe58	0.026244327
64	0xbb8cf4ef	-0.0043016593
65	0x3c107447	0.008816785
66	0x3c81aae3	0.015828555
67	0x3c27b05f	0.010234921
68	0x3cb57aa1	0.0221532
69	0xbbf29976	-0.007403548
70	0x3c526708	0.012841947
71	0x3c2d3d46	0.010573691
72	0xbb765a00	-0.0037590265
73	0xbc27a486	-0.010232097
74	0xbc750c25	-0.014956509
75	0x3c6d2650	0.014474466
76	0x3bd2dbbf	0.006434887
77	0xbc198405	-0.009369855
78	0xbb9a93fa	-0.004717347
79	0x3b0dc313	0.0021631166
80	0x3c921645	0.017832885
81	0xbc3a8d54	-0.011386234
82	0x3aa234a4	0.0012375307
83	0xbc07c960	-0.008287758
84	0xbc4d3c6a	-0.012526611
85	0x3cd070d2	0.025444422
86	0xbc1babc3	-0.0095014
87	0xbb449169	-0.0029993898
88	0xbbc44111	-0.005989202
89	0x3cc1751a	0.023615409
90	0xbbba4b9c	-0.005685283
91	0xbc3fc71b	-0.011705185
92	0x3c264467	0.010148144
93	0xbc084b40	-0.008318722
94	0xbc67c866	-0.0141469
95	0xbb05228c	-0.002031478
96	0xbb4f5204	-0.0031634578
97	0xba2f6cc2	-0.00066919264
98	0xbcb951a5	-0.022621939
99	0xbb99c501	-0.004692674
100	0x3bc4f291	0.0060103615
101	0xbc2f279b	-0.010690595
102	0xbcaf211e	-0.021378096
103	0x3c8b6ad7	0.017018719
104	0x3c139e19	0.009009861
105	0xbbc66be1	-0.0060553406
106	0x3ce32139	0.027725803
107	0x3d383999	0.044976804
108	0x3c79f39e	0.015255837
109	0x39c3d7f4	0.00037354196
110	0x3ba9a87d	0.005177556
111	0x3ca6ae0c	0.020346664
112	0x3a592dbe	0.0008284709
113	0xbbb5f6d4	-0.005553106
114	0x3c8d913d	0.01728117
115	0xbb67b906	-0.0035358085
116	0x3cd7ffd3	0.026367104
117	0xbc6df561	-0.014523835
118	0xbc88c35c	-0.016694717
119	0x3b848e1d	0.0040452615
120	0xbc1ac849	-0.009447166
121	0x3c52c94b	0.012865375
122	0xbaef5fc2	-0.0018262791
123	0x3ce884ae	0.02838358
124	0xbc4d1b42	-0.012518706
125	0xbcc0847f	-0.023500679
126	0xbccdf8b0	-0.025142998
127	0xbc8810bd	-0.016609544

network_body._body_endoder.seq_layers.2.weight f4 [128, 128]
0	0xbe007b4c	-0.12547034
1	0x3dfb5191	0.12271417
2	0x3e3a56f1	0.18197228
3	0xbd11aafa	-0.035563447
4	0xbd126f2c	-0.035750553
5	0x3c985105	0.01859332
6	0x3d0a2d6f	0.033734735
7	0x3e149ba5	0.14512499
8	0x3c9a4425	0.018831322
9	0xbdc1d2f0	-0.09464061
10	0x3cf5051f	0.029909668
11	0x3d48fc47	0.049068715
12	0xbdf46030	-0.11932409
13	0x3cdb6a9b	0.026784232
14	0xbceccced	-0.02890631
15	0x3d8b5211	0.06802762
16	0x3d54b829	0.05193344
17	0x3d19d644	0.037557855
18	0xbb03a05a	-0.002008459
19	0xbc336195	-0.010948558
20	0xbcb6da5f	-0.022320924
21	0x3acefacf	0.00157913
22	0xbd2b59d7	-0.041833725
23	0x3d8865da	0.06660052
24	0x3e06691e	0.13126037
25	0x3d1258f2	0.035729356
26	0x3dd41417	0.10355394
27	0x3d65c047	0.056091573
28	0xb9ccf449	-0.0003909192
29	0xbe17acc2	-0.14811996
30	0xbe127f13	-0.14306287
31	0xbdb421d6	-0.08795516
32	0xbdc940ef	-0.09826838
33	0x3dbceff3	0.09225454
34	0xbd06b012	-0.032882757
35	0x3d350b82	0.044200428
36	0x3d0eb487	0.034840133
37	0x3ccf0f16	0.025275748
38	0x3e3b51b9	0.18292893
39	0xbc44a301	-0.012001754
40	0xbdd6fd42	-0.10497524
41	0x3e08889c	0.13333362
42	0x3c7dcfae	0.015491409
43	0x3d7df805	0.062004108
44	0xbcf77028	-0.030204847
45	0xbe5918c0	-0.21200848
46	0x3c947d7b	0.01812624
47	0xbd558a69	-0.05213395
48	0x3cca28a5	0.024677584
49	0x3a0799bb	0.0005172749
50	0xbcff9c6b	-0.031202516
51	0xbca9d18b	-0.0207298
52	0xbc6ce00e	-0.014457716
53	0xbd45cc43	-0.048290502
54	0xbe78d484	-0.24299818
55	0x3c97eb7d	0.018544907
56	0x3d803836	0.062607214
57	0xbd8b470a	-0.06800659
58	0x3e1dac93	0.15397863
59	0xbd3d1b52	-0.046168633
60	0x3c5c8326	0.013459003
61	0xbd6cd15f	-0.05781686
62	0xbdda9631	-0.10673178
63	0x3c56757d	0.013089535
64	0x3de0099a	0.10939331
65	0xbde80afa	-0.113302186
66	0xbda548e5	-0.08070544
67	0x3d01a7ba	0.031654097
68	0x3d9bdde5	0.076106824
69	0xbca13f24	-0.019683428
70	0x3c59d322	0.013294967
71	0x3dde2c61	0.10848308
72	0x3d6f54e7	0.05843058
73	0x3e585545	0.21126278
74	0x3ccff669	0.025386052
75	0xbc2e2842	-0.010629715
76	0x3bc05171	0.0058690836
77	0xbda3e227	-0.080021195
78	0x3dd48e6f	0.103787296
79	0xbd27a70a	-0.040930785
80	0x3e2962b3	0.16541557
81	0x3e32c32a	0.17457262
82	0x3d1f31dc	0.03886591
83	0x3d53d7cf	0.051719483
84	0x3d87d44c	0.06632289
85	0x3c9337db	0.01797097
86	0x3e31b64d	0.17354698
87	0xbe4ecdfb	-0.20195763
88	0xbd977905	-0.073961295
89	0xbd0fcbe4	-0.035106555
90	0x3c8ed99c	0.017437749
91	0xbe12fb33	-0.14353637
92	0xbdaee9ed	-0.085407116
93	0x3c85f6f8	0.016353115
94	0x3b758483	0.0037463016
95	0xbdcafc9c	-0.09911463
96	0x3c9e4a54	0.019322552
97	0xbcbe87b2	-0.023258064
98	0x3dbde088	0.092713416
99	0xbde0be20	-0.109737635
100	0xbd7552cf	-0.059893426
101	0xbd28ba63	-0.041193377
102	0x3d9a3704	0.07530025
103	0x3ccc24f0	0.024919957
104	0xbd0479fe	-0.032342903
105	0xbd2b7767	-0.041861918
106	0xbdd86dd3	-0.10567822
107	0xbcb70ca3	-0.022344893
108	0x3e48ed11	0.19621684
109	0x3d9867c3	0.07441666
110	0x3c01141a	0.007878328
111	0xbe0f952b	-0.14021747
112	0xbdef94cb	-0.11698302
113	0x3e27f241	0.16401006
114	0x3d245e2c	0.04012887
115	0x3c796a0d	0.015223038
116	0x3dfe9552	0.12430824
117	0x3e0c8a41	0.13724615
118	0xbd75fdc9	-0.06005648
119	0x3e0b7bfc	0.13621515
120	0x3cff3948	0.031155244
121	0x3c03c991	0.008043663
122	0xbe446681	-0.19179727
123	0x3d4dd3cb	0.05025081
124	0xbcbb7918	-0.02288489
125	0xbdfe75d3	-0.12424817
126	0xbdb846a3	-0.08997848
127	0xbdd7832f	-0.10523068
128	0xbce93b21	-0.028470578
129	0xbc5c1272	-0.013432132
130	0x3dd8962e	0.105755195
131	0x3e1da7fe	0.15396115
132	0xbc9ee3ad	-0.019395674
133	0xbe2fd3f1	-0.17170693
134	0xbc921811	-0.017833741
135	0xbd2f69a6	-0.042825364
136	0x3dd61088	0.10452372
137	0xbcd4406e	-0.025909629
138	0xbd0c7225	-0.034288544
139	0x3d1e7d35	0.038693625
140	0xbbf43c31	-0.0074534644
141	0x3e6efba4	0.23338181
142	0xbbbcbd3d	-0.0057598636
143	0xbd58ed5e	-0.052960746
144	0x3c91cd25	0.017798016
145	0x3c7ad0e9	0.015308597
146	0x3d002089	0.031281028
147	0x3e3ee1c8	0.18640816
148	0xbae1f55f	-0.0017239264
149	0x3d43b904	0.047783867
150	0x3dd6f52c	0.104959816
151	0x3cb320ab	0.021866163
152	0xbcdc8852	-0.026920471
153	0x3a11d4b0	0.0005563004
154	0x3d275c95	0.040859777
155	0xbdd72dd6	-0.105067894
156	0xbdd9b966	-0.10631065
157	0xb9fc8451	-0.0004816377
158	0xbddc6289	-0.107609816
159	0x3d46f31d	0.048571695
160	0x3e0c2869	0.1368729
161	0xbd504541	-0.050847296
162	0x3e47586e	0.19467327
163	0xba016c1c	-0.0004937069
164	0x3c0bf462	0.008542152
165	0x3e25fa4c	0.16208762
166	0xbd67c7cf	-0.056587037
167	0x39687e96	0.00022172401
168	0xbdfac700	-0.122449875
169	0xbb99c82e	-0.0046930527
170	0x3c2220f4	0.009895552
171	0xbd54a5a4	-0.05191578
172	0x3d81192e	0.06303631
173	0x3c5b37da	0.013380015
174	0xbc1aaa32	-0.009439992
175	0x3db50e13	0.08840575
176	0x3c81601f	0.015792904
177	0xbb4d5626	-0.0031331866
178	0x3d66b544	0.056325212
179	0xbd2343df	-0.03985965
180	0xbda55e93	-0.08074679
181	0xbd0e1f0f	-0.03469759
182	0xbd1f8129	-0.038941536
183	0xbcd4461c	-0.025912337
184	0x3cbc09c0	0.022953868
185	0xbb9b71f3	-0.0047438084
186	0x3d0599e2	0.032617457
187	0x3e0618e1	0.13095428
188	0x3c5b9fa2	0.013404759
189	0x3e0e4fb1	0.13897587
190	0x3c190f87	0.009342081
191	0x3d38d0ca	0.04512099
192	0xbd8611db	-0.065463744
193	0x3d405dc6	0.04696443
194	0xbdc27792	-0.094954625
195	0x3d2cc5c3	0.042180788
196	0xbd94fe15	-0.07275025
197	0x3c4f9216	0.012669107
198	0x3d8c9844	0.0686498
199	0xbea6dd91	-0.32590917
200	0x3d46fba0	0.048579812
201	0xbd996d06	-0.07491498
202	0xbd0a572a	-0.033774532
203	0xbcf2f061	-0.029655637
204	0x3de36009	0.111023016
205	0xbe01593c	-0.12631696
206	0x3d4523a8	0.048129708
207	0xbdc1013c	-0.094240636
208	0x3e4a4e00	0.19756317
209	0xbd7b639b	-0.061374288
210	0x3d012ca8	0.03153673
211	0xbce761a2	-0.028244797
212	0x3dc46d5d	0.09591172
213	0x3de77a70	0.1130265
214	0x3db78bf7	0.08962243
215	0xbda8ad1c	-0.08236143
216	0xbdc883af	-0.09790742
217	0x3d0a14e2	0.03371132
218	0xbc8c69a2	-0.017140213
219	0xbd4706be	-0.048590414
220	0x3dafc16a	0.08581813
221	0xbd6e54b3	-0.058186244
222	0x3df0dcd5	0.1176087
223	0x3d8b9d4f	0.068171136
224	0x3d6f2106	0.058381103
225	0xba3b6ad4	-0.00071494025
226	0xbd4a8761	-0.049445514
227	0xbc1e9826	-0.00967983
228	0xbd5eb0f3	-0.05436797
229	0x3d4983ab	0.049197834
230	0x3d5754cd	0.052571107
231	0x3d908c68	0.0705803
232	0x3c0250d4	0.007953841
233	0x3e323406	0.17402658
234	0x3db288a1	0.08717466
235	0xbdddf583	-0.10837843
236	0x3e19a8c6	0.15005788
237	0x3df91d05	0.12163738
238	0x3c6393ec	0.013890248
239	0x3d925817	0.07145708
240	0xbcf7bf96	-0.030242722
241	0xbd1c1c61	-0.038113
242	0xbd0590cf	-0.032608803
243	0x3bf507e2	0.0074777463
244	0xbd80413d	-0.06262443
245	0x3e57f9c7	0.21091376
246	0x3d1833cf	0.037158784
247	0x3cee69e7	0.029103233
248	0x3d3a6461	0.045505885
249	0xbe210c9c	-0.15727466
250	0xbd8ce021	-0.06878687
251	0xbcecd269	-0.028908925
252	0x3d50288f	0.05081993
253	0xbd44fc38	-0.048092097
254	0x3cf93c87	0.03042437
255	0x3dc5ee66	0.096646115
