VirtualAquarium/results/VirtualAquariumReproducao/VirtualAquarium/VirtualAquarium-2148.onnx (onnx, 100504 bytes, 12 tensors)

action_model._continuous_distribution.log_sigma f4 [1, 3]
00000000: f948 9cbc bab8 52ba b3a6 1bba
-0.019077765 -0.00080383907 -0.0005937621

action_model._continuous_distribution.mu.bias f4 [3]
00000000: bcbe d7bb f838 c1bb fbe8 cbbb
-0.0065840166 -0.005896684 -0.006222842

action_model._continuous_distribution.mu.weight f4 [3, 128]
00000000: 5e93 24bd 8592 b5ba 6be7 13bb e622 31bc
00000010: 7e0a 9f3b 6e6e 2fbc 7aa2 733c 9702 8739
00000020: 924e 303b 2124 8b3b a589 8c3c d229 223c
00000030: b80b b7bb 2394 30bc b083 88bc 3730 653c
00000040: fd39 2e3c a7d2 dabc 5566 803b b12c b53b
00000050: 7e41 50bc 951b 0cbd ab39 003a 73c3 2e3c
00000060: cb1c 68bc 6665 2a3d c40c 1b3c 7989 8438
00000070: 3c9d 92bc 744e 05bb f5d7 ae3b 66de 54bd
00000080: 57da f03a dcae 96bb 68ef 173c e655 b1bb
00000090: 552b b03b a499 043c fba7 b0ba b68a 8b3c
000000a0: 651e 59bc b4d5 133c 3e38 79bc ff42 25bc
000000b0: f75b babc 19bb 433c 6129 8b3c f187 6a3c
000000c0: ce73 16bc 01ef 7bbb 7f6f 89ba 53dd 88bc
000000d0: f41e 983c 89f5 f0bc 9b18 08bb f5ed a13c
000000e0: 3e80 11bd 4ee2 d5bb 88de 933b ee6a 47bd
000000f0: 9060 44bc 2fa5 d7bb 6212 c0ba b84e ad3b
00000100: b362 b9bb 831f e0bb 16aa bcbc 4821 133c
00000110: 56e8 31bb 653b 603c 07cb 333b 70b2 2abd
00000120: 0f08 23bc e702 a5bc c835 ea3b 6485 eebb
00000130: af2a 103c d4f0 ee3c 26ff 8f3c 262f a43b
00000140: b669 a7bc 63c4 123c 6806 18bb cb50 fa39
00000150: 12b0 d9bc 20f1 003a 3ce2 243c d950 1d3c
00000160: e402 413c 008e c0bc d11d f9ba 82a9 993c
00000170: 2628 cf3c a354 51bc 1e5c 843b 8062 5bbc
00000180: 590d 75bc d792 643c 5017 4f3c 567d 913b
00000190: 407f 7f37 d15b 55bc d688 3b3c 70b9 26bc
000001a0: 39f5 88bc 2ec5 c2bc b9b4 b63c aaf9 b43c
000001b0: a188 c9bc 3a51 503d a111 1ebc 70d8 69bc
000001c0: 1729 0cbd 5aa0 06bb 1cc1 313c b121 b2bb
000001d0: c12c 88ba 2751 5fbb 09a4 8abc a42d 383c
000001e0: 4bfc 6d3c 0347 9bbc 2832 51ba e044 a7bc
000001f0: 1730 833b 9033 ce3a 949f b9bc 8af4 b4ba
00000200: 09dc 09bd b7f3 8cbb 97e5 06bc 1e16 56bc
00000210: eff7 883c c9e2 22ba bf6f 92bc 30c8 f5b9
00000220: 3d9e f13c caf9 2e3d 3977 50bc 5039 25bc
00000230: f726 cfbc aa02 ca3c f480 ccbb e770 fabb
00000240: 5023 56ba a236 ea3a 7f40 8fbb 5818 8a3c
00000250: f6d8 3bbc bdaf 2ebc eacc e3bb cfc2 203b
00000260: 0d5e 77bc feae a83b c9af b3bc 2df5 69bb
00000270: 38ab 19bc f6a2 823c a83b d4bb 4d93 b8bc
00000280: bbd5 e0bc 846f 94bc dab2 303c 4704 2a3b
00000290: 1ad2 8abb 71b9 1f3c 37e4 ba3c 8654 e7bc
000002a0: 0a25 d03c 52cb 9c3c 05a0 1b3d 9f55 e23c
000002b0: da2d 6e3c b988 ebbb b361 dc3c 6050 42bc
000002c0: 3134 07bb 3599 83bd f009 d9bc 19fa 47bc
000002d0: 40b4 0e3c d23c 4abd 5f84 463c 6b2e 853b
000002e0: 0468 093c 09ae df3c 1aa0 093c 7b65 063c
000002f0: d55a 3fbc 1449 0b3b e16c 6f3c d5b7 8bbd
00000300: 7cff 1c3c 3d89 033c 9919 33bc 7764 433c
00000310: 31fd 49bc 855f 1abc 67b5 61bc 44f0 33bc
00000320: fd8f 90bb b508 003b 5952 633c 90a7 febc
00000330: c4a7 88bc e436 d4bc 8b4c 483c 08d9 a73c
00000340: 442e abbd 09bc e13b 2f93 d93c 4723 b63c
00000350: 25c8 8fbb 73c5 eb3a 255d f73b 3025 9bbc
00000360: 75e2 a8bc 23da 1a3d 818f 2b3c 08e6 853c
00000370: 1149 d1bc 7f1e ba3c 688d 233d 1f05 57bc
00000380: 3452 2bbd 43e7 953b 1137 423d 92cd e8bc
00000390: e3a1 1b3c 3ee6 173d 8182 2fbb f4f2 80bc
000003a0: af98 3fbd 2ad8 c3bb f107 ba3c 562f d63b
000003b0: 5374 703c 3ecc bd3b 54a9 4bbd e497 bc3b
000003c0: b3c6 7ebc 5bb7 243c 14ca f6bc 4b60 b23b
000003d0: c833 9a3b e5e4 1fbc a43f 003d 1512 e13b
000003e0: 7132 e8bb a07a b4bc 9bb3 7d3c 04ed 463c
000003f0: 2194 0dbd da97 433c de36 843a 528b 0cbd
-0.040179603 -0.001385287 -0.0022568356 -0.010811543 0.0048535457 -0.010707481 0.01487028 0.00025751136
0.00269023 0.0042462503 0.017155478 0.009897666 -0.005586114 -0.010777506 -0.016664356 0.013988546
0.010633943 -0.026711775 0.003918449 0.0055290093 -0.012710927 -0.03420599 0.00048914057 0.010666716
-0.014167021 0.041600607 0.009463493 6.319857e-05 -0.01789724 -0.002034095 0.0053358027 -0.05196991
0.0018375617 -0.0045984816 0.0092733875 -0.005411851 0.0053762593 0.008093271 -0.0013477796 0.017033916
-0.0132518755 0.009023119 -0.015211163 -0.010086774 -0.02274893 0.011946463 0.016987504 0.0143146375
-0.009182883 -0.0038442018 -0.0010485499 -0.016707098 0.018569447 -0.029413955 -0.002076662 0.019766787
-0.035522692 -0.0065272218 0.004512612 -0.04868596 -0.011985913 -0.0065809707 -0.0014653916 0.005288925
-0.005657518 -0.006839694 -0.023030322 0.008980103 -0.002714654 0.013686036 0.0027434246 -0.041674078
-0.009950652 -0.020142986 0.0071475245 -0.007279085 0.008799239 0.02916757 0.017577719 0.0050105033
-0.02043615 0.008957955 -0.0023197178 0.0004774391 -0.026573215 0.0004918743 0.010063704 0.009601795
0.011780474 -0.02350521 -0.0019006078 0.018757585 0.025287699 -0.012776527 0.0040393015 -0.013390183
-0.014956796 0.013951025 0.0126398355 0.00443999 1.5228812e-05 -0.013022379 0.011446198 -0.010176048
-0.016718494 -0.023775663 0.022302972 0.022091705 -0.024601283 0.050858714 -0.009647758 -0.014272794
-0.034218874 -0.0020542354 0.0108492635 -0.0054361452 -0.0010389314 -0.003407547 -0.016923921 0.01124135
0.014525483 -0.01895476 -0.0007980191 -0.020418584 0.0040035355 0.001573192 -0.0226591 -0.0013805788
-0.033657108 -0.004301514 -0.008233449 -0.013066797 0.016719786 -0.0006213603 -0.01787555 -0.00046879193
0.0294944 0.042718686 -0.012723737 -0.010084465 -0.025287135 0.024659473 -0.0062409583 -0.0076428535
-0.0008168714 0.0017869065 -0.004371702 0.016857311 -0.011465302 -0.010662016 -0.006951918 0.0024530177
-0.015098107 0.005147814 -0.021934407 -0.0035699115 -0.009379201 0.015946846 -0.006476838 -0.022531176
-0.027445665 -0.018119581 0.010784829 0.002594249 -0.004236472 0.0097488025 0.0228139 -0.028238546
0.025408287 0.01913992 0.037994403 0.027628718 0.014537299 -0.0071879295 0.026902055 -0.011859983
-0.0020630474 -0.06425706 -0.026493996 -0.012205624 0.008709967 -0.04937441 0.012116521 0.0040643713
0.008386616 0.027304666 0.008399988 0.008202906 -0.011679371 0.0021253275 0.014613361 -0.068221726
0.009582397 0.008028326 -0.010931396 0.011925808 -0.012328432 -0.009422188 -0.01377616 -0.010982577
-0.004411696 0.001953644 0.013874614 -0.03108576 -0.01668156 -0.02590508 0.0122252805 0.02048923
-0.08358434 0.0068888706 0.02655944 0.022233618 -0.0043878728 0.0017987922 0.0075489455 -0.01893863
-0.020615796 0.037805688 0.010471226 0.016345039 -0.025547536 0.02271962 0.039929777 -0.01312378
-0.041826442 0.0045746877 0.047415797 -0.028418336 0.009499046 0.03708481 -0.0026780667 -0.01574085
-0.04677647 -0.0059766965 0.022708865 0.0065364046 0.014676171 0.00579217 -0.04972203 0.0057554115
-0.015550303 0.010053481 -0.030125655 0.005443608 0.00470588 -0.009759163 0.031310692 0.0068686106
-0.007086091 -0.022031128 0.015484716 0.01214147 -0.034565095 0.01193806 0.0010087152 -0.034312554

action_model._discrete_distribution.branches.0.bias f4 [2]
00000000: 1f21 6ebc 1a21 6e3c
-0.014534264 0.014534259

action_model._discrete_distribution.branches.0.weight f4 [2, 128]
00000000: 14bc e0bc e687 9f3b 3028 e93c e58b 993c
00000010: 9d19 5d3c 1ba2 933c 147a 7e3c 17cb 193c
00000020: 0780 663b 937e 1f3d ec41 a13b 6c5c f83b
00000030: 2a38 d537 5df0 9b3b f087 ec3c 1220 b5bc
00000040: b61a 3a3c 7606 0b3d 7858 db3c 0769 e63c
00000050: 5a17 373b 9bfb 113c b057 a83b c6b2 bb3c
00000060: 9ad0 22bb 7ac1 9b3c a4ec 263c a6b8 b63c
00000070: 3133 183c 24bf 8f3c e89b 973b 54fb eabc
00000080: 3481 0cbd 154c 4fbc 3b56 3d3c 0d81 a23c
00000090: 70cb 223c 5343 2d3c 2e37 cb3c 5bf9 fb3b
000000a0: 7111 2b3c b115 a63c 7133 013c 8d1a 793a
000000b0: 88bf 2e3c ddce 84bb 4dd3 ef3c dadd c03c
000000c0: 5756 90bc 4465 55bc 6aa6 c5bc fd4d 4b3c
000000d0: 0aaf 643c cc8c df3a 1993 803c 0c8e 6d3b
000000e0: 6736 1d3c c6f6 963c 18e7 793c 0119 bc3c
000000f0: 3ff0 8fbc 41be 0d3c ee63 9a3c 86c1 f0bc
00000100: 4ce9 c23b ca11 b0bb 78fc d53a 008c a73b
00000110: f8aa 16bd a32a 4e3c 9eac b33c c030 a0ba
00000120: 2e45 0b3b 59e2 0fbb f3d7 1d3b 1b44 16bc
00000130: 96ea 63bc 88b8 903b 50a1 143d 863d c23b
00000140: 6ad7 a7bc 35cc a93c 28ef 623c dc8a 503c
00000150: 68df 293b a494 813c f080 d7bb 2139 4fbc
00000160: efbd 3bbc 4975 8a3c 3853 7d3c 07a1 deb9
00000170: 10bc 03bc bd80 593a fe8f 903c 6810 e13b
00000180: dca5 19bd 7baf d83c 77b5 a63c 855c 83bc
00000190: e3de ac3c b9c9 503c 544e 0d3c ec28 f43b
000001a0: 7fe8 30bd 4be6 d8bb c0f1 6c3c 3da1 cd3c
000001b0: e62d ac3b 11d5 d83c 5d1d 843c 87db 9a3c
000001c0: cf5f 2c3c 66ce 033c e80e faba adc9 073c
000001d0: ff0a 0d3c 2768 dd3c e7fa d23c e5e1 f6ba
000001e0: a23d 0c3b 9f13 9a3c 5dc3 cbbb 00e0 743c
000001f0: 8eee 273c e6b0 4d3c 7755 2b3c 8ec5 353c
00000200: e31c 0c3d 7a97 06bd b29a dfbc 7419 7e3a
00000210: b89f b1bc a394 51bc 5520 00bd ac6d 18bc
00000220: bfd6 ec3b 1663 a4bc 70a0 0fbc b650 92bc
00000230: d7ab 783b 6789 f0bc 79d6 b8bc f06f 11bc
00000240: 71f0 11bc 3285 99bc f553 18bd 4069 e3bc
00000250: d08f 25bc 8c13 f93a b311 a4bb aed7 9abc
00000260: 3917 0dbc d41b 9bbb 1046 7abc 8e78 dfbc
00000270: bb58 e1bb 9dfb 83bb 420d 82bb e8e5 263d
00000280: dfb7 bd3c b1ec 7e3b 2f1b edba 5aad 8abc
00000290: fdb5 7ebb c7f9 59bc db0d 89bc dc1c 08bc
000002a0: 3ab8 62bc 082e 87bc ac0d 0c3b 606c c1bc
000002b0: e75c c7bc 29ef 423c a974 9dbc e4ef 24bd
000002c0: c8c4 8c3c 3226 a73b 2c0e 9c3c f9c7 b93c
000002d0: bdcf acbc 3236 87bc 1da5 f3bc 8568 f8bc
000002e0: b740 abbb b09d 05bd d61d d8bc 73d2 163b
000002f0: 46b6 223c 2ef7 6f3a 4545 80bc f153 4a3d
00000300: 51fc 8bbc adad 2f3c 7fc6 67bc 3555 24bb
00000310: a018 c53c 5334 67bc 78d9 a7bc 6428 57bc
00000320: d3f5 333b d7e8 2a3c c2a2 dc39 ab80 3abc
00000330: 6f90 ae3c 65e5 83ba 074f babc 0bcc a9bc
00000340: 0bc0 933c 53de 94bc a45a 12bd 8ca1 2cbd
00000350: b1a7 b7bc 051e f7bb 302f 8cbb 0488 0d3c
00000360: 249f b03c bb43 fe3a c410 7dbc d7c6 45bc
00000370: 8a17 5dbb 98dd 593b f865 8abc 33e7 81bc
00000380: 23e8 eb3c 4e90 59bb 50a8 e5bc 8d83 fa3c
00000390: 2db3 afbc 1f31 4abb f60a bdbc 905e 05bc
000003a0: 00c5 74bb 5349 533b b2d6 01bd 6ee3 d1bc
000003b0: be86 83bb 4558 11bd cd3a 26bc 1489 babb
000003c0: 7a4c 8abb 65d0 b93b 76ce e5bb 6274 76bc
000003d0: ce92 69bb ed02 15bc d2c2 13bd 3512 e6ba
000003e0: 30e6 4c3c 03af 8dbc c141 c5bb 7dcf 25bc
000003f0: 2854 52bb 3afe 0bbb 4e7a bbbb dab1 4cbc
-0.027433433 0.0048684953 0.028461546 0.018743465 0.013494876 0.018021634 0.015532035 0.009386799
0.0035171525 0.03893907 0.0049211886 0.007579377 2.5417732e-05 0.004758878 0.028873414 -0.022110019
0.011358907 0.03394171 0.026775584 0.028126253 0.0027937503 0.008910085 0.0051374063 0.022912394
-0.0024843575 0.019013155 0.010188255 0.022304844 0.009289549 0.017547198 0.00462674 -0.028684296
-0.034302905 -0.012652417 0.0115562035 0.019836927 0.009936199 0.010575133 0.024806585 0.0076896376
0.01044117 0.020274015 0.0078858 0.00095025526 0.010665782 -0.0040529803 0.02927556 0.023543287
-0.017619295 -0.013024632 -0.024127204 0.012408731 0.013957748 0.001705551 0.015695142 0.0036247997
0.00959549 0.018428218 0.015252851 0.022961142 -0.017570613 0.008651317 0.018846478 -0.029389154
0.0059482213 -0.0053732144 0.0016325852 0.005113125 -0.036784142 0.012583408 0.021932896 -0.001222156
0.002125095 -0.0021954982 0.0024085015 -0.009171511 -0.01391091 0.004416529 0.036286652 0.0059277443
-0.02048846 0.020727256 0.013850965 0.012728419 0.0025920514 0.015817948 -0.00657665 -0.012647898
-0.011458858 0.016901629 0.015461735 -0.00042463114 -0.008040443 0.00082970766 0.017646786 0.006868411
-0.03751169 0.026450863 0.020350201 -0.016035328 0.021102374 0.012743407 0.008624632 0.0074511673
-0.043190476 -0.00661925 0.014461935 0.025101298 0.005254495 0.026468785 0.016127283 0.018903507
0.010520889 0.008044815 -0.0019077929 0.008287829 0.008608579 0.027027203 0.025754405 -0.0018835632
0.002139904 0.018808184 -0.0062183575 0.014945984 0.010249747 0.012554383 0.010457388 0.011094464
0.034207236 -0.032859303 -0.027295444 0.0009693124 -0.021682605 -0.012791785 -0.031280834 -0.009303492
0.007227748 -0.02006678 -0.008766279 -0.017860752 0.0037944221 -0.029362394 -0.022563206 -0.008876786
-0.008907423 -0.01874027 -0.037189443 -0.027760148 -0.010105088 0.0019003018 -0.0050069927 -0.018901672
-0.008611494 -0.004733542 -0.015275493 -0.027279165 -0.0068770326 -0.0040277974 -0.0039688656 0.0407466
0.023158966 0.0038898403 -0.0018089766 -0.016928364 -0.0038865798 -0.01330418 -0.01673024 -0.008307662
-0.013837868 -0.016501442 0.0021370454 -0.023611248 -0.024336291 0.011897841 -0.019220667 -0.04026784
0.017183676 0.005100989 0.019049726 0.022678362 -0.021095151 -0.016505335 -0.029741818 -0.030323276
-0.0052262205 -0.032621086 -0.026381414 0.002301362 0.009931153 0.0009153959 -0.01565803 0.04939646
-0.017088087 0.01072256 -0.014146446 -0.0025075201 0.024059594 -0.014111596 -0.02048944 -0.0131321885
0.0027459755 0.01043149 0.00042082934 -0.011383216 0.021309106 -0.0010062872 -0.022742761 -0.020727178
0.01803591 -0.018172419 -0.035730973 -0.04214625 -0.022418829 -0.0075414204 -0.004278086 0.008638386
0.02156026 0.0019398847 -0.015445892 -0.012071333 -0.0033735954 0.0033243652 -0.016894326 -0.015857315
0.028797215 -0.0033197585 -0.02803436 0.030580306 -0.021447742 -0.0030852032 -0.023076516 -0.008140221
-0.0037348866 0.003223975 -0.03169889 -0.025621142 -0.0040138653 -0.03548457 -0.010145855 -0.0056926105
-0.0042205425 0.0056705945 -0.0070131375 -0.015042396 -0.003564048 -0.009094936 -0.036074467 -0.0017553034
0.012506053 -0.017295366 -0.0060198014 -0.01012027 -0.0032093618 -0.0021361248 -0.005721367 -0.012493575

action_model._discrete_distribution.branches.1.bias f4 [2]
00000000: d3fa b13b d5fa b1bb
0.005431512 -0.005431513

action_model._discrete_distribution.branches.1.weight f4 [2, 128]
00000000: 30f3 683c 0121 8fba ffbc ff39 61d9 2dbc
00000010: 92aa 873b 29b3 523c 64f7 983b 8d79 fbbb
00000020: c408 523c f2f7 c33a 0567 553b c6e5 483c
00000030: 877c 4ebb 4d6b 11bc 950b 86bb 8fea 02bb
00000040: cfc9 59bb 49d9 9039 dc54 13bc 6786 0ebc
00000050: dc2a df3a 902a 58bc f24a 7dbc fc19 94bb
00000060: 3281 3ebc ade0 6dbc 7b82 69bc b98e 073c
00000070: 98ab 06bc 8a92 7f3c b70b 09bc 0ca0 b13b
00000080: 81a4 603c 9b1e 1bbc cd4b 483c 16fa e63b
00000090: 05a2 143a 996a 1b3c 4f1a 85ba 209d 19bc
000000a0: 47b8 283b 3782 3ebb 2c5f 1fba 2143 353b
000000b0: 1ced b93a 79aa 86ba 446f cdbb ed85 47bc
000000c0: 902e 17bc 8be0 e6bb 8d30 2a3c fb36 a1ba
000000d0: 42c5 ea3a 46ef 5938 3c80 23bc adf6 4ebc
000000e0: 0282 8a3c 2d9c c1bc 7581 183c 5fcd 36bc
000000f0: df56 9dbb de7f 853a 41a6 3d3b b9bf e4bb
00000100: 13e7 243c 897a 753c 59dc c3bb a28c 2abb
00000110: 37fe 823a 79e0 fb3b 1fb7 4dbb cd1b 04bc
00000120: 8439 33bc 8ae7 563c d478 273c 187b 723c
00000130: 6371 1c3b 0c84 463b 5d6e 61bc 0b6e 2cba
00000140: 1200 333b a1ef 3e3b b3ee 9b3a 2d5d ce3a
00000150: 132b 063c 752e 313b 9473 cdbb 57a7 a1bc
00000160: 6745 423c 4828 2bbb 73a8 073c 0b61 cc3b
00000170: 3ff7 2bba 9492 b13b 0308 fb3b 9d7b 803c
00000180: b93f 3b3c 6537 41bb c438 84bc f31e a83b
00000190: ba47 7d3c 3230 353c 95e7 14bc 3472 92bb
000001a0: c941 473a 48e1 2db9 7474 74bb 006a a8bc
000001b0: de80 bcbb f95b 43bc 3b72 15bb 3e1b edbb
000001c0: 0ac2 0c3b 2e4f 893c d30b 343c 791d d83c
000001d0: 12df 403c 987b 1dbc 35a8 ccba 41f5 56bc
000001e0: 9bd0 6abc 65c2 5bbc 54c0 413c fb88 243b
000001f0: 8b6c 3dbc 8690 3c3c 4a3d 1ebc be94 5cbc
00000200: 70da a53b e6b0 b83b 487b 1d3c 4bc2 8d3c
00000210: 1297 27bc dee4 d0bb 93f8 903c a4a2 8c3b
00000220: 4522 7ebb e939 cfbb 1933 1f3c 52fa c0b9
00000230: 944b 8d3c ddbf 5abb 7dc9 473c 8401 333c
00000240: be5c 2abb a8f3 163c e9e4 463c d0cf 683c
00000250: d882 07bc 9c0d 4fbc cb39 abbb fe2a e13c
00000260: cc7e 9f3b facd 173c 6047 403b bf7b 7d3b
00000270: caff 2b3c 7477 183c 8201 2e3c e21b 49bc
00000280: c7a6 88bb 9181 dcbb b07a 8dbc 69cf df3b
00000290: ec4d 433a d066 62bc 3119 d23b 217b daba
000002a0: cf00 013a 3edf 903b 5d09 a3bb 9b24 913b
000002b0: 65ce b53c 5f84 d53c c42a 163c a07f df3a
000002c0: 349e a43b 5321 803c 6b57 fbbb aee6 683b
000002d0: b536 803b 314b 373c 59a3 8b3a ff26 103c
000002e0: 72bc c73a 14ac cebb 4ae5 d9b9 758d c8bb
000002f0: 7fe5 64bc 518e 76bc e201 8cbc 5b6b 33bb
00000300: da74 2d3b 1d9b 14bc 6b48 a8bc ef75 3339
00000310: 9838 d4ba 089f 5bbb d795 f9ba efe1 24bc
00000320: abe7 043c 39af 19bb fdda 49bc 1c7e 883b
00000330: 3712 35bb 320c b4bb b950 403b ee1f 7a3c
00000340: 5af7 7ebb 1eb0 bcbb b33e 4d3c 4f5d 90bc
00000350: 67f4 bdbb 2ca3 4bbb ed0b 373b ec6a 033d
00000360: d780 dfbc fea4 bdbc 2a33 323c a540 003c
00000370: 7987 83bb 322a 00bc 56ba e4ba 9061 08bb
00000380: e08c 9cbc c3f9 afba 0026 703c 632d b3bb
00000390: b3a1 b8bc 02dc 5b39 6122 b53c 8536 93bb
000003a0: d1c0 953c 837d b7bb d4aa 4bbb a682 983b
000003b0: 76e5 1ebc 8bb1 583b 1f10 e3bb e597 12bc
000003c0: a0c5 2bbc bd46 cabb a438 423b d2fa 423c
000003d0: 49d1 763c c59e 85b9 b445 a03c 8251 c7bb
000003e0: c414 49bb dd2c 26bc a112 87bc 7ee1 73bb
000003f0: 2ca3 0dbc 56ce 81ba af37 5db9 227d 1e3c
0.014218137 -0.001091987 0.00048778203 -0.010610909 0.0041402066 0.012860098 0.004668163 -0.007674402
0.012819473 0.0014951213 0.0032562625 0.0122618135 -0.003150733 -0.00887568 -0.004090736 -0.0019976234
-0.003323186 0.0002762771 -0.0089924 -0.008699036 0.0017026323 -0.013193741 -0.015459763 -0.004519699
-0.011627482 -0.014518899 -0.0142523 0.008273774 -0.008219622 0.0155989025 -0.008364609 0.0054206904
0.013711096 -0.009467746 0.012225104 0.0070488555 0.0005669895 0.009485864 -0.0010154935 -0.00937584
0.0025744603 -0.0029069313 -0.00060795504 0.002765842 0.0014185044 -0.0010274193 -0.0062693674 -0.0121779265
-0.00922741 -0.0070458106 0.010387552 -0.0012299711 0.0017911571 5.1959672e-05 -0.009979304 -0.012632054
0.016907696 -0.02363404 0.009308209 -0.011157363 -0.0048016156 0.0010185202 0.0028938206 -0.006980863
0.010064858 0.014982828 -0.005977195 -0.0026023765 0.0009993975 0.0076866713 -0.0031389666 -0.008063269
-0.010939006 0.013116727 0.010221679 0.014799856 0.0023871295 0.0030291108 -0.013759223 -0.0006577677
0.0027313274 0.002913453 0.00118967 0.0015744321 0.008188981 0.0027035747 -0.0062698815 -0.019733114
0.011857367 -0.0026116539 0.0082799075 0.0062371544 -0.0006559975 0.005419085 0.007660867 0.015683943
0.011428767 -0.002948248 -0.01614035 0.0051306426 0.0154589955 0.011058854 -0.009088417 -0.0044691805
0.00076010503 -0.0001658249 -0.0037300857 -0.020558357 -0.005752667 -0.011923783 -0.0022803682 -0.0072359135
0.002147796 0.016761389 0.010989147 0.026381241 0.011771934 -0.009611987 -0.0015614094 -0.0131199965
-0.014331962 -0.0134130465 0.01182564 0.002510606 -0.011561523 0.011509066 -0.009658167 -0.013463197
0.00506144 0.0056363223 0.009611912 0.01730456 -0.010228889 -0.0063749393 0.017696654 0.004291849
-0.003877775 -0.006324042 0.0097167725 -0.00036807597 0.017247953 -0.003337852 0.012194035 0.010925654
-0.002599522 0.009213366 0.012139537 0.014209703 -0.008270942 -0.012637522 -0.0052253953 0.02748632
0.0048674103 0.009265417 0.0029339418 0.0038678495 0.010497997 0.009305824 0.010620477 -0.012274714
-0.004170272 -0.0067293127 -0.017270416 0.006830145 0.0007450271 -0.013818458 0.0064116945 -0.0016668775
0.000492108 0.004421144 -0.0049754814 0.0044294125 0.022193143 0.026064096 0.00916547 0.0017051585
0.005023742 0.01564089 -0.007670333 0.0035537886 0.0039127716 0.011187361 0.001065354 0.00879836
0.0015238656 -0.0063071344 -0.000415603 -0.0061203786 -0.013970732 -0.015048579 -0.017090742 -0.0027377221
0.0026467354 -0.009070185 -0.020542344 0.00017114704 -0.0016191183 -0.0033511538 -0.0019041848 -0.010063632
0.008111875 -0.0023450388 -0.012320277 0.004165424 -0.0027629265 -0.005494618 0.002934499 0.015266402
-0.0038904757 -0.0057582995 0.012527156 -0.017622618 -0.0057969573 -0.00310726 0.0027930692 0.03208439
-0.027283115 -0.023149963 0.010876456 0.007827912 -0.0040139523 -0.00782256 -0.0017450552 -0.0020810105
-0.019110143 -0.0013425875 0.014657497 -0.005468057 -0.022538042 0.00020967427 0.02211112 -0.004492583
0.018280419 -0.005599679 -0.0031077163 0.0046542464 -0.009698262 0.0033064808 -0.006929412 -0.008947347
-0.010484129 -0.0061729834 0.0029635811 0.011900621 0.015064546 -0.0002548603 0.019564487 -0.0060827145
-0.0030682543 -0.010142532 -0.016488375 -0.0037213261 -0.00864486 -0.0009903412 -0.00021096946 0.009673389

discrete_action_output_shape f4 [1, 2]
00000000: 0000 0040 0000 0040
2.0 2.0

network_body._body_endoder.seq_layers.0.bias f4 [128]
00000000: c03a 14bb f4f5 0dbc 9a56 f73b a422 333c
00000010: ac8c 94ba fb09 75ba 374b 4bba d9aa b83c
00000020: ec3f cfbb de0c 353b eea3 213d 9ae0 383c
00000030: d3d6 9abb 1f0c b9bb ce2a 283a 154d a53c
00000040: 4b37 6e3b 67f1 053c 61cd 1b3a 0ae8 553b
00000050: 545d 46bb 1f48 57bc 08e2 e6ba 8c25 a3bb
00000060: 7e55 f53b ae4d a8bc 6d19 963c eca5 803c
00000070: 7a37 8ebc 5367 5e39 aa97 cabb a8c5 533c
00000080: 842a c0bc a2c3 28bb 547b 063b 896d bf3b
00000090: ad78 a9bc 244b 0dba 0f0b 053c cc1c e63b
000000a0: ed91 b4bb dd25 c63b 3490 d9bb 1f68 d6ba
000000b0: abae 5b3b 5e53 97bc 8e2c 023c 7b6b 463a
000000c0: 13f8 4a3b 7cf8 cb3b 96b5 313b 0d9b 6fba
000000d0: a6ee 1c3c b1be 603c 655e 073d a074 103c
000000e0: 21cc 2f3d 575f 9f3c c4ee 8b3b 3b71 11bc
000000f0: ca33 3a3b 3f89 11bc 5dca fe3a 1f55 1dbc
00000100: 34d2 98ba 5b4a 94bc a1c2 273d 9d93 403c
00000110: 7cc8 ddbb 2574 903b 4884 99bb aa89 47bc
00000120: 729f 203a 431f d23b 1919 943c dae6 2fbc
00000130: 9856 3738 2a03 9e39 80fa 6bbc 541d a5bb
00000140: 55fb 05bb f87f 25bc 64ec 533c 2b15 90bb
00000150: ed7e 74ba 94b8 6bbc 4bfa 6fbb bb44 f13b
00000160: c233 39bb e201 e03c a1bb 9cba 0096 22bc
00000170: 4e2a 023b f80f bd3b c56b 6cbc 65b6 27bb
00000180: ccf4 2f3b 513d b43c c659 8d3c ed64 843b
00000190: 7bc0 273b 27c8 1a3b 6e8a 1539 b051 40bc
000001a0: da03 d23c 15fa 7fbc 86aa 8f3b fdae 5cbc
000001b0: 9ebd 803c 76cb d2bb 2f46 4abc 09cc 373c
000001c0: 4eee cb3b b141 113c e19c a53b 5954 13bc
000001d0: 9259 013c 3da3 02bc 66c5 79bb e429 b1bb
000001e0: bb32 e5bb 8b47 8c3a f883 26bb 4d86 593c
000001f0: 2d94 1fbc c9bb 5d3b 4550 83bb 565c 56bc
-0.0022618026 -0.008664597 0.0075481655 0.010933552 -0.0011333427 -0.00093474955 -0.00077550433 0.022542404
-0.0063247588 0.0027626078 0.039462976 0.011284018 -0.004725316 -0.005647197 0.000641507 0.020178357
0.0036348875 0.008175231 0.00059433846 0.0032639527 -0.003026803 -0.013139754 -0.001761497 -0.004978841
0.007486998 -0.020544853 0.01832267 0.015704118 -0.017360438 0.00021210061 -0.0061826305 0.012925543
-0.023457773 -0.0025751372 0.0020520287 0.005841915 -0.020687426 -0.000538992 0.008120312 0.007022476
-0.00551056 0.006046994 -0.006639505 -0.0016357935 0.0033520858 -0.01847237 0.007945193 0.00075691164
0.0030970618 0.00622469 0.002711629 -0.0009140231 0.009578383 0.013717339 0.033049006 0.008816868
0.042919282 0.019454641 0.0042704064 -0.008877094 0.0028412216 -0.00888282 0.0019438971 -0.009602814
-0.0011659325 -0.018101862 0.040957097 0.011753944 -0.0067682844 0.0044083768 -0.0046849586 -0.012178818
0.0006127275 0.006412418 0.018078374 -0.010736192 4.3711247e-05 0.00030138466 -0.014402986 -0.0050388966
-0.0020443995 -0.010101311 0.012934778 -0.0043970547 -0.0009326775 -0.014387269 -0.0036617692 0.0073629296
-0.002825961 0.027344648 -0.0011957773 -0.009923458 0.0019861641 0.005769726 -0.014429991 -0.0025590893
0.0026848791 0.022001894 0.017254721 0.0040403516 0.0025596905 0.0023617835 0.00014261316 -0.011738226
0.025636602 -0.015623589 0.0043843416 -0.013469455 0.015715417 -0.006432946 -0.012345835 0.011218079
0.0062234765 0.00886576 0.005054102 -0.008992278 0.00789489 -0.007973489 -0.0038112043 -0.005406605
-0.006994573 0.0010702474 -0.002540825 0.013276649 -0.009739918 0.0033833853 -0.0040073716 -0.013083538

network_body._body_endoder.seq_layers.0.weight f4 [128, 52]
00000000: 078a fdbd 3cbd 2c3e 4a37 2d3d e8cb a83e
00000010: 6f61 fdbd c3ee c33c ec83 47be 89d6 cf3d
00000020: 6927 0fbe 8070 0d3e 4f1e a73d 409d c73c
00000030: 4777 f8bc 1c4a 5b3d 26dd 0b3d 3d2e 77be
00000040: 5a4f 61bd 92cd 08be d972 ad3d 46d1 87be
00000050: b180 ca3d f2a8 8dbe 2a09 823e 06b3 d0bd
00000060: 5436 e5bd 124a d3bd ee60 07bc db7a 49bd
00000070: 9702 4cbd e932 783e 6a98 cd3c 4a0a c13d
00000080: e7dc 4fbe bead 30bd 27e5 f33d 4bd0 803e
00000090: b734 ec3b f193 9c3e 5782 f2bc 6e32 c03c
000000a0: 0b89 b63e 9be1 46bd b938 0a3c 4da8 583e
000000b0: a1a4 9fbd c2f7 dfbd cd1e e8bd 8e1b 32bd
000000c0: 926b 2f3c 850c 2fbe 20d4 babd 4a35 7f3e
000000d0: a28d f63d 5daf 423d 325d 083e eb62 9a3c
000000e0: 1004 1a3d 051c 223e 0da4 11bd 0ff4 043e
000000f0: ebe3 8ebd 47b7 65be a7ac 953c df75 e13d
00000100: 4f5f e13a 36d1 a8bd 305a 37bb 07a7 063e
00000110: 783c 213e fafc eabc 3f3e a8bd c590 66bd
00000120: b372 a4bd d70b c3bc 7ef3 5a3e 6ed0 e1bd
00000130: 0bb0 02bc fb6f abbc 17d7 a2bc 0765 33bd
00000140: 7984 03be 99c3 303d e35b f53d 1016 3cbd
00000150: ab28 883a 3213 98bd 732a 7bbd 62c3 f93d
00000160: 52c1 633e d74b ea3d 2478 4ebd a1ff c8bd
00000170: 7927 bbbd 8014 08bd 470c a23d a82c ffbd
00000180: afa2 f73d a7db 7c3d 8c55 c43b 070e 3f3d
00000190: 910b fdbd 5696 083d 279e a73d 90bb e73d
000001a0: b142 2c3d 70d9 503e e250 eb3c c93c ebbc
000001b0: ccdf 3c3b 2df7 7cbe 0cf5 633e e2c6 ddbb
000001c0: 73fc 163e a831 97bd 6305 e0bd 145b 033d
000001d0: a672 713c 7fa6 973c 1841 ed3b 18cf dc3b
000001e0: addd 7bbc badc 853d f9d2 6e3d 486d 0bbe
000001f0: dfd3 1c3e 79bd 44bc 9a0e bc3c 01e1 dcbd
00000200: d2dc e73d 0aac 11be fbdd 38bc fff5 b5bc
00000210: 0c57 d6bd 921e c03d be67 143d 0a9d 92bd
00000220: be84 dcbd d441 153e 6a14 d83d a303 06be
00000230: de97 943d 01bc 4ebd 6dbc 87bc f969 8dbe
00000240: 72e3 24be 3744 7dbd 6525 9e3d c700 82bd
00000250: ea31 ac3d 82db 27bd b671 093e a4e1 033d
00000260: aba6 0b3e 2640 19be 8cfa 003d b394 67bd
00000270: 795e da3d 5901 b0bd 4cff 91ba 43ea 30be
00000280: 694e dabc 64f7 913d f146 8bbc a80a a1bd
00000290: 3ede cf3d acc2 5bbe bd2d 0abc a878 02be
000002a0: 7961 8abc 69d6 3abd 9444 cd3d 5219 873e
000002b0: cecd 2cbe fd75 efbd 1fb7 133d a12a 1ebc
000002c0: 1e0c cebd 5a03 4cbe 06a5 c3bd 3c2b 183e
000002d0: f068 87be f721 37be 7f8d 7fbd 63cb bdbd
000002e0: 13e7 19be 475d 5ebd 7e64 d33d 19e9 623d
000002f0: 647f 403d 45e2 393e dc2c 983d a89e 653d
00000300: 1798 f8bc 560e ca3d cedf 8d3d a5e2 37be
00000310: 59a3 723e 151b 3e3e 9f07 e4bb 776e 27be
00000320: f3cd 69bd 2c9e 1bbe 09db 523e 5cc8 87bd
00000330: b629 7abc 08b9 cd3e 1212 093e 4f75 f73a
00000340: 7d34 77bd 6774 aabe 2f1d 11bd 720a d5be
00000350: c7c5 a33c d5c8 12bd f412 173e aea7 6ebe
00000360: 042b 713d 1f0f 973d 1611 d13d bda6 de3d
00000370: c7e2 693d 4cf7 663e c1d8 d8bd 843d 29bc
00000380: 9b7b a33d 9294 903d 6c73 843e 216f d3bc
00000390: 91e4 293e a0dd 44be 08aa 953d 4059 1d3d
000003a0: 938b a7bc 4e85 a9bc 6a8f 8ebe b4fd 333d
000003b0: 9426 343e 4ec6 d03d ea03 343e 3e67 bcbd
000003c0: 44f3 a83c 2b03 71be 3218 efbb dc09 73be
000003d0: fef2 16be 3c83 bebd 06b8 3f3d e488 66bd
000003e0: b742 b3be 98a8 463e f0ae 8c3c 28ea 7d3c
000003f0: 187b 183e d440 6a3c 7802 c7bd 5354 2d3d
-0.12379842 0.16869062 0.042289056 0.32968068 -0.123720996 0.023917561 -0.19483918 0.10148341
-0.13979878 0.13812447 0.08160078 0.024366975 -0.030330313 0.053537473 0.03414645 -0.24138732
-0.055007316 -0.13359669 0.08469171 -0.2652685 0.09887827 -0.27667958 0.25397617 -0.10190396
-0.11192003 -0.10316862 -0.008262856 -0.04918943 -0.049807157 0.2423817 0.02509709 0.094257906
-0.20299111 -0.043134443 0.11908942 0.25158915 0.0072084325 0.3058162 -0.029603167 0.023461547
0.3565143 -0.048554998 0.008436375 0.21157952 -0.07795072 -0.10935928 -0.11334 -0.04348331
0.010706799 -0.1709462 -0.09122491 0.24922672 0.12038733 0.04753052 0.13316801 0.018845996
0.03760153 0.15831001 -0.03555684 0.12983726 -0.06977066 -0.22433196 0.018270804 0.1100881
0.0017194542 -0.08243029 -0.002797734 0.13149653 0.15745723 -0.028685082 -0.082149975 -0.056290407
-0.0802969 -0.023809357 0.21381947 -0.11026083 -0.007976542 -0.02092742 -0.019877953 -0.04379752
-0.12843503 0.043155286 0.119804166 -0.045919478 0.0010388097 -0.07425536 -0.06131978 0.121954694
0.22241715 0.114402466 -0.050407544 -0.09814382 -0.09138388 -0.033222675 0.07912498 -0.124596894
0.12091576 0.061732914 0.0059916433 0.046644237 -0.12355722 0.033346497 0.08184462 0.113150716
0.04205579 0.20395446 0.028725091 -0.028715508 0.0028819917 -0.24703665 0.22261447 -0.0067680934
0.14744739 -0.07382518 -0.109385274 0.03206928 0.014736807 0.018512009 0.007240426 0.0067385547
-0.015372676 0.06536241 0.058306668 -0.13615906 0.15315197 -0.012008064 0.022956181 -0.107851036
0.11321415 -0.14225784 -0.011283393 -0.022212027 -0.104658216 0.09380831 0.03623175 -0.07158859
-0.10767506 0.14575893 0.10550769 -0.13087325 0.07255529 -0.050472263 -0.01656934 -0.27619913
-0.16102389 -0.061832633 0.07721976 -0.063478045 0.08407958 -0.040980823 0.13422284 0.03219761
0.13637798 -0.14965877 0.03148894 -0.056538295 0.106625505 -0.08594007 -0.0011138706 -0.17276864
-0.026648717 0.07127264 -0.017001601 -0.07863361 0.10149811 -0.2146098 -0.008433756 -0.12741339
-0.016892182 -0.045614634 0.10022846 0.26386505 -0.16875383 -0.11692426 0.03606331 -0.009653718
-0.10060905 -0.19923154 -0.0955296 0.14860243 -0.26447248 -0.1788405 -0.0623908 -0.092673086
-0.15029554 -0.054288175 0.10321902 0.05539808 0.04699649 0.18152721 0.07430431 0.05605951
-0.03034596 0.098660156 0.06927453 -0.17957552 0.23695125 0.18565018 -0.0069589163 -0.16350733
-0.057081174 -0.15197057 0.20591368 -0.066300124 -0.015268734 0.4018023 0.133858 0.0018879565
-0.06035279 -0.33291933 -0.035428222 -0.41609532 0.019991769 -0.03583606 0.14753324 -0.23306152
0.058878914 0.07375931 0.10208337 0.108716466 0.057101037 0.22555274 -0.105882175 -0.010329608
0.0798256 0.070595875 0.2586931 -0.025809826 0.16591097 -0.19225168 0.073078215 0.038415194
-0.020452296 -0.020693447 -0.2784379 0.043943122 0.17592841 0.101940736 0.17579618 -0.091993794
0.02062381 -0.23536365 -0.0072965855 -0.2373423 -0.14741132 -0.09302375 0.046806358 -0.056282893
-0.35011837 0.19400251 0.01717326 0.015497722 0.14890707 0.014297683 -0.09717268 0.042316746

network_body._body_endoder.seq_layers.2.bias f4 [128]
00000000: 68aa be3c c839 a2bb 9520 92bb ed45 733c
00000010: fe20 aabb a8bf 613a f6c5 283b 6047 4b3c
00000020: f582 a7bb 4fad 90bb 2033 c4bb 9059 a73a
00000030: 72b4 e9ba 1b49 9b3b b613 193c 8807 1dbb
00000040: 8a07 f7bb 7442 08ba dec2 4fbc 173c 263c
00000050: e23c 6339 e756 ad3b e7eb 18bb 1390 bfbb
00000060: 13bc c1ba 3a95 ee3a ad8a f3bb 94ee 68bb
00000070: f895 593b 3e84 cdbb faea 17bc 64cc 2e3c
00000080: c479 503c 3fea 223a 56d0 94bb 8a73 ecbb
00000090: 86d3 19bb bcec 1fbb a23d babc e94a 563c
000000a0: 5bf7 13bc c4e0 47bc ae3c 1a3b ab08 85bc
000000b0: 7d0c 6fbc c473 413c 64ac 6cbc 91bd bfb9
000000c0: 86af f63a 5642 9e3c 3352 2b3c 326e 923c
000000d0: 2841 0cbc 1ee8 753c fb0e 1fbc 35f3 42bb
000000e0: f812 d9ba 9027 94bb cd2f 663a 9783 703b
000000f0: 2477 a43b eb84 6e3b 7fff 86bb 6765 973c
00000100: 7a6e 3bbc b965 51bb 67eb ec3b 979b b03b
00000110: eb13 9c3c f637 13bc 6c18 dcbb 0c3e 873b
00000120: 825e efbb 4e39 f03b 2c49 d3bb 5860 26ba
00000130: 8a97 94ba 07f5 b7bb 6097 9cbb 7790 39bc
00000140: 36ad b03c ebe2 d1ba 4be1 2dbc 3f63 53bb
00000150: 1209 8ab9 1804 01bc eea1 99bb 4458 213c
00000160: a5b3 723b 5c34 a0bc ffcb d43b b239 71bb
00000170: 82d3 4dbb af16 5cbb 658b 89ba 054a d43b
00000180: 74af 583c 37b4 9bbb 5fe9 3e3b 3331 f63b
00000190: 7d5f 093c f964 813b 4d54 d2bb 8c45 aa39
000001a0: 2f34 f63c 835b c93b 05b3 63b9 ba40 6f3b
000001b0: 8324 f5bb f2dc 15bc b9e9 483a 6896 8e3a
000001c0: 484d d1bb 2a29 3e3a f381 20bb fca2 0abc
000001d0: 953c 10bb 86da b6ba e20a 6ebb aeef 55bc
000001e0: 56c7 1bbc aaa4 f33a cbe3 753a b3fe 6aba
000001f0: b38a 313c 88f9 adba 2a12 a2bb 5718 353c
0.023274615 -0.0049507357 -0.0044594505 0.014848215 -0.0051919213 0.0008611628 0.002575276 0.012407154
-0.005112047 -0.0044151912 -0.00598754 0.001276778 -0.0017830266 0.0047389395 0.009343078 -0.0023960788
-0.0075387405 -0.00051978906 -0.012680737 0.0101461625 0.00021671088 0.0052899006 -0.0023333968 -0.0058460324
-0.0014780782 0.0018202432 -0.007432303 -0.0035542594 0.003320096 -0.006271868 -0.009272331 0.010668848
0.012724344 0.0006214715 -0.004541437 -0.0072159218 -0.0023472025 -0.002440258 -0.022734467 0.013079383
-0.009031142 -0.012199584 0.0023534703 -0.016239485 -0.01459038 0.011807386 -0.014445398 -0.00036571597
0.0018820621 0.01931874 0.01045661 0.01787481 -0.008560456 0.015008954 -0.0097081615 -0.0029747013
-0.0016561439 -0.004521318 0.00087809266 0.0036699527 0.0050190855 0.0036395143 -0.004119813 0.01848097
-0.011439914 -0.00319515 0.0072302106 0.0053896415 0.019052466 -0.00898551 -0.0067167785 0.0041272696
-0.0073049674 0.00733105 -0.0064479318 -0.0006346754 -0.0011336666 -0.0056139263 -0.0047787875 -0.011325947
0.021566968 -0.0016013061 -0.010612796 -0.00322552 -0.0002632817 -0.007874511 -0.004688493 0.009847704
0.0037033346 -0.019556217 0.006494045 -0.003680807 -0.0031406586 -0.0033582856 -0.0010493813 0.0064785504
0.013225425 -0.004751708 0.00291308 0.007513189 0.008384583 0.0039488045 -0.006418741 0.00032476743
0.03005418 0.0061449423 -0.00021715097 0.0036507086 -0.007481159 -0.009146916 0.0007664222 0.0010878565
-0.0063873865 0.0007254059 -0.0024491518 -0.00846171 -0.0022008766 -0.0013950623 -0.0036322405 -0.013057632
-0.009507975 0.0018588502 0.0009379952 -0.0008964345 0.010836291 -0.0013273219 -0.004946013 0.011053166

network_body._body_endoder.seq_layers.2.weight f4 [128, 128]
00000000: e9ba d83d eb08 453c ff5b 823d 9b48 713d
00000010: 9348 23be 73be 35bc 2feb ccbd fb91 b63c
00000020: eba6 7bbe c5cc 37bd 3c69 a33d 80ce 063d
00000030: 8f1f 403d 8170 bebd 72f9 2e3e bc06 9b3d
00000040: 76ae 8fba 152f 6b3d 9e10 45bd bd52 58bd
00000050: 36ac 313e c799 23bd 275a 013e c592 4dbd
00000060: 5f23 983e 94cb 06be 8683 193d fbbf 5bbd
00000070: c895 0d3e b340 0bbe 7ea2 4d3d b4d7 51bb
00000080: 7bfa 72bc 4d74 5e3d e4d1 0c3e 0573 583d
00000090: 86fe af3d 9f3e b83d ba3a bd3c c62c 12bd
000000a0: b40a 53be ee04 343d a631 09be c108 f63c
000000b0: 5b5a b23d 2ba6 2cbd 6dbb f53d 7bf8 973d
000000c0: 916f c1bd 9a46 563d 7c60 23bd 55dc 763d
000000d0: fa1b 293d 8434 2b3e f69f 823d 70c6 e7bc
000000e0: a53d b9bd 3741 f83c 7951 723d acde 383d
000000f0: 663f 03bc 6b27 af3c 4334 3e3d 91e8 d63d
00000100: de00 c2bd 3e47 e5bd 973c 833d 37aa 353d
00000110: d0a6 463b cab3 833c 6bb6 cbbc 86f7 a3bd
00000120: 6802 07be ce41 0f3e eff3 0f3e 3584 fabd
00000130: 3217 8abd ab3a 1a3d 7e61 fc39 fe47 ba3c
00000140: f50b bbbd 4a1e f1bb 7591 0fbc 1502 0cbe
00000150: 8bbc a3bd a423 65bd c61d 7abd d905 cabc
00000160: 92c4 e93d 7131 873d 9a6a d8bb b8bc 1abd
00000170: e15e 91bd 5263 2b3d db74 79bd be12 843d
00000180: 05ff 843d f095 5b3b 0c57 ab3d 6a51 11bd
00000190: 5c98 ba3c 450b 133c e95f a83b a61f 84bd
000001a0: f350 aabc 3bcd 663d 86bd 0bbe 2e12 c3bd
000001b0: 9f13 b53b 420c d23c b5db 13bd 8cba a739
000001c0: dd56 43bc 9596 173d 56c8 43bd 28f0 b63c
000001d0: 6226 083d 0683 c0bc 4c89 e4bd c863 11be
000001e0: ddcd 413b 3110 273d 8c71 d1bc 3e3e bb3c
000001f0: 5f1a 5fbe 8c22 1f3e aefa 45bd 08a0 003e
00000200: d745 d23d 776d 63bc c9a7 62bd 3517 2bbe
00000210: c90d 2ebd 05b3 143d bcec 63bb 43e1 8b3d
00000220: c84a 623d f4c9 313d 8aef eabd 3aa4 e9bc
00000230: cf63 f23c e100 043e 6250 c4bc b8e0 d83d
00000240: 35df 96bc 2d91 2bbe 94a9 223e e9be 40be
00000250: 71e3 933d 3621 9c3a 64c3 1f3d b716 3e3d
00000260: e266 4abd 1d91 993d 5a80 dd3c 764d 7bbd
00000270: 5a1f 0fbe 6889 04be 6822 323e 21b5 cabd
00000280: 28d1 0cbd bab8 56be 27ff ab3d d866 2a3e
00000290: 7dba 03bb 9dae 343d 99c8 183d 67d3 273d
000002a0: 534c f63d f7a5 893c 3c8a 8e3d 0def 3b3c
000002b0: 9969 113d 29f2 5cbd a506 8d3d 2d23 19bd
000002c0: 1bb5 883d 8fd3 df39 112e 5ebc 49e6 52bc
000002d0: 8b46 2abd 8e2d 1ebd 6030 b13d 2c76 6a3d
000002e0: ee69 30bc b561 a23d 714c 75bd a85b 393d
000002f0: 6fbd 193d 81c1 bb3d c3f4 1e3c 97a2 533d
00000300: 6882 c7bc 27eb 053e b2c7 3a3d e43b 803d
00000310: 4f30 e0bd 5b19 42bd fc0a d03d db66 cbbc
00000320: 5bde 043d bfcb 6c3d 9915 5abd 301b 0c3e
00000330: 5d70 b5bc 24cd 153e ed73 7dbc c280 3f3d
00000340: bb51 c8bd dfbb d93b ad8c c1bd 69ca d13d
00000350: e662 65bd d378 d4bd 517d 263e 7981 b1bd
00000360: 594d d13d 5b56 43be 3afa 883c cbea 383a
00000370: a23f 803d d32f 05be a994 843b 85b6 6fbd
00000380: 04f8 32bd dd18 6ebd ef6d 6a3e 0c49 bdbc
00000390: 0cca dcbc b6e1 253d 7a43 983c 6ce7 343c
000003a0: b741 95bd d0d9 99bc dcc1 b9bc a396 1b3c
000003b0: 33d3 013e 8d6e 613d dcb6 153e 65f2 d6bd
000003c0: bfef d8bc 655e 34bd 5584 4e3d f2f8 103e
000003d0: 3809 efbb a3c8 91bd d63d ffbd 2692 ed3c
000003e0: 8b89 88bc 7c0e 5b3d 90a3 c5bc f51e ad3d
000003f0: cf1e 14be 8aa2 903d c20e 643d febd 08be
0.10582525 0.012026052 0.06365203 0.058907133 -0.15945654 -0.01109277 -0.10005795 0.022286406
-0.24575393 -0.044873018 0.07979056 0.032911777 0.046905097 -0.09298802 0.17087343 0.07569644
-0.0010962028 0.057417948 -0.04811155 -0.05281328 0.1735085 -0.039941575 0.12632047 -0.0501888
0.29714486 -0.13163596 0.037478946 -0.053649884 0.13826668 -0.135989 0.050203793 -0.0032019438
-0.014830227 0.05431013 0.13751942 0.052844066 0.08593468 0.08996319 0.023099292 -0.03568723
-0.20609552 0.043950014 -0.13397846 0.030033471 0.0870864 -0.042150658 0.11998639 0.07420441
-0.09445108 0.052313425 -0.039886937 0.06026872 0.041286446 0.16719252 0.063781664 -0.028292865
-0.09044961 0.030304534 0.05915973 0.04513423 -0.008010721 0.0213811 0.04643656 0.10493577
-0.09472822 -0.11195229 0.06408041 0.044351783 0.003031183 0.016076941 -0.024867257 -0.08006196
-0.13184512 0.13989946 0.14057897 -0.12232248 -0.067427054 0.037653606 0.00048137823 0.022739407
-0.0913314 -0.007358347 -0.008762707 -0.13672669 -0.07994946 -0.055942193 -0.06106355 -0.024660992
0.11414446 0.06601227 -0.006604505 -0.037777632 -0.07098175 0.041842766 -0.060902458 0.06448887
0.064939536 0.0033506118 0.08366212 -0.035478033 0.022777729 0.008974855 0.0051383865 -0.06451349
-0.020790553 0.056348067 -0.13646516 -0.09524952 0.0055260207 0.02564061 -0.0360982 0.0003199171
-0.011922565 0.03700884 -0.047798477 0.022331312 0.03323973 -0.023499977 -0.11159 -0.1419822
0.0029572167 0.040786926 -0.025566839 0.022856828 -0.21787404 0.15540522 -0.04833477 0.12561047
0.10267227 -0.013881079 -0.055335794 -0.16708072 -0.042493615 0.03630354 -0.0034778556 0.06830075
0.0552471 0.043405488 -0.1147147 -0.028520692 0.029588608 0.1289096 -0.02396411 0.10589737
-0.01841698 -0.16754599 0.15885001 -0.18822826 0.072211154 0.0011911753 0.0390047 0.04640838
-0.049414523 0.07498381 0.027038742 -0.06135317 -0.13976803 -0.12943041 0.17395937 -0.09897829
-0.034379154 -0.20968905 0.08398276 0.16640794 -0.002010017 0.044111837 0.03730068 0.040973093
0.120262764 0.016802771 0.0695996 0.011470568 0.035501096 -0.05394188 0.06886033 -0.037387062
0.06675168 0.00042691498 -0.013560788 -0.012872287 -0.04157118 -0.038617663 0.08651805 0.057241604
-0.010767443 0.079287924 -0.059887353 0.045253426 0.037534174 0.09167767 0.00970191 0.05166873
-0.024354175 0.13077985 0.0456006 0.06261423 -0.10946714 -0.047387462 0.10158345 -0.024829319
0.032438617 0.057811495 -0.053243253 0.13682246 -0.022148306 0.14629036 -0.015469533 0.046753652
-0.09781214 0.0066447104 -0.0945066 0.10243685 -0.05600252 -0.10374608 0.16258742 -0.08667273
0.10219831 -0.19075911 0.01672088 0.000705403 0.06262137 -0.13006525 0.004046042 -0.058523674
-0.043693557 -0.05812918 0.22893499 -0.02310612 -0.026951812 0.040498458 0.018586863 0.011041503
-0.07287925 -0.018780619 -0.022675447 0.009496364 0.12678222 0.05503707 0.14620537 -0.10495452
-0.026481507 -0.044035334 0.05041917 0.14157465 -0.0072948 -0.071183465 -0.12462966 0.029000353
-0.016667148 0.05348061 -0.024125844 0.0845317 -0.14464878 0.07062252 0.055678137 -0.13353726
