VirtualAquarium/results/VirtualAquariumReproducao/VirtualAquarium/VirtualAquarium-680551.pt (torch, 592639 bytes, 49 tensors)

discrete_act_size_vector f4 [1, 2]
2.0 2.0
00000000: 0000 0040 0000 0040

network_body._body_endoder.seq_layers.0.weight f4 [128, 52]
0.12209504 -0.24393933 -0.13895027 0.10418562 -0.04066317 -0.16872914 0.10037129 -0.15035193
0.04707484 -0.26643968 0.037162013 -0.28777802 -0.358745 -0.35091543 -0.3114821 0.11805035
-0.11126357 0.24677971 -0.1846898 -0.28321227 -0.163275 0.051776785 0.06058448 -0.26009205
0.022439107 0.039088573 0.05830498 0.24662864 0.04355551 0.16201435 0.08222817 -0.02542311
0.021156896 -0.23304467 -0.034335356 0.14376444 -0.006985585 0.18949714 -0.16211359 -0.016050836
0.111339994 -0.17040806 0.06484827 -0.0827888 -0.15246217 -0.45268646 -0.06922493 -0.10278902
-0.11313484 0.08518237 -0.1585337 -0.272358 0.21834522 -0.06481923 0.03758851 0.064098194
0.048133034 0.030013379 0.29122442 -0.025619682 -0.02564826 0.060893424 -0.090824746 -0.2004187
-0.061338373 0.088929884 -0.0062810625 -0.35329562 -0.012357166 -0.16647016 -0.09216086 -0.00017866938
0.25252315 0.00054928096 0.03971035 0.042398706 0.0027786593 -0.7262775 -0.17305644 0.26772135
0.098688595 0.13201149 0.34271967 0.04521997 0.026120098 0.08480875 0.020399982 -0.40613097
-0.21139859 0.047013897 -0.17513481 0.09450179 0.27138734 -0.084513195 0.053253017 -0.16239755
0.028981341 0.2720602 -0.04117757 0.4250282 -0.09232109 -0.12285214 -0.23195559 0.0706747
-0.20724407 0.10111631 0.012156278 0.09185603 -0.0051520006 0.22432967 -0.41258174 0.03583373
-0.12797426 -0.015428503 -0.31141165 -0.23662196 -0.03637152 0.035824604 -0.11079805 -0.10268072
0.059777793 0.22414449 -0.17549403 -0.07567206 -0.039401904 0.17369552 -0.19398753 -0.24198557
-0.12352161 -0.34071723 -0.097869016 0.2178772 -0.21916626 -0.15099733 -0.21360944 -0.10816243
-0.0950932 0.11586879 -0.04665418 -0.15272851 -0.015674982 -0.12816225 -0.05037572 -0.088932894
-0.3126689 -0.040259436 -0.18193102 0.008816505 0.2732237 0.2347563 0.09583539 -0.047264572
-0.28783444 -0.19543031 -0.018643308 0.025056193 -0.00028854527 -0.0368837 -0.0630388 -0.2544024
-0.03411185 0.29549906 0.053906493 0.02732295 0.008893237 -0.50726134 -0.23506401 0.065044835
0.029259585 -0.16002956 -0.3140149 -0.069339715 -0.16393726 0.08293492 -0.23870412 -0.23853509
0.18998249 -0.24319594 -0.26434737 -0.09279212 -0.49497792 0.106531315 -0.4043661 0.019823467
-0.2654047 -0.40142143 -0.14645858 -0.22626105 -0.18344711 -0.14550397 0.052712057 0.1796872
0.08366544 -0.1259179 -0.50431406 -0.05435434 -0.0604203 -0.12777475 0.06726721 0.07965153
-0.025789982 -0.065000825 -0.15177146 -0.07878518 -0.45669273 -0.33403572 -0.04521732 -0.113342464
-0.29815415 -0.055568676 0.0071471944 0.19954407 0.2073578 0.15090494 0.15271698 0.28609413
0.27160048 -0.02440031 -0.12765726 -0.02146338 0.14205907 0.068667255 0.043218352 0.38213503
-0.11169322 -0.13595547 -0.26597145 0.08401968 0.11370578 0.11737554 0.04911388 0.021664653
-0.10496142 0.22367804 0.11226444 0.15470861 -0.13782115 -0.019808788 -0.16354537 -0.00093609036
0.050827216 0.16217904 -0.18416786 0.13442546 -0.012536228 -0.04532194 0.08320121 0.02136598
0.31073454 -0.18261325 0.048720483 -0.41952467 -0.06047968 -0.06323633 0.2216485 -0.75380826
00000000: f70c fa3d 3bcb 79be fb48 0ebe 455f d53d
00000010: 6d8e 26bd 55c7 2cbe 778f cd3d dbf5 19be
00000020: 8cd1 403d c86a 88be 3237 183d a457 93be
00000030: 6dad b7be 30ab b3be 957a 9fbe 62c4 f13d
00000040: 28de e3bd d2b3 7c3e 531f 3dbe 3301 91be
00000050: 9031 27be e513 543d 6f27 783d c92a 85be
00000060: 38d2 b73c 571b 203d 34d1 6e3d 388c 7c3e
00000070: 4367 323d 17e7 253e 3e67 a83d 2044 d0bc
00000080: 3a51 ad3c 43a3 6ebe 3ba3 0cbd fc36 133e
00000090: 56e7 e4bb 8a0b 423e 1b01 26be 0b7d 83bc
000000a0: 3906 e43d 737f 2ebe 2bcf 843d 2d8d a9bd
000000b0: 0b1f 1cbe 85c6 e7be cdc5 8dbd 0d83 d2bd
000000c0: 3db3 e7bd 1874 ae3d a956 22be 8272 8bbe
000000d0: e495 5f3e f2bf 84bd 69f6 193d ea45 833d
000000e0: 2527 453d 9ede f53c 5e1b 953e 5ee0 d1bc
000000f0: 4d1c d2bc 626b 793d 5302 babd 8f3a 4dbe
00000100: f23d 7bbd df20 b63d 5fd1 cdbb 2ae3 b4be
00000110: b675 4abc 2777 2abe d5be bcbd 3259 3bb9
00000120: b74a 813e 9ffd 0f3a 52a7 223d 44aa 2d3d
00000130: 2b1a 363b 52ed 39bf b535 31be c612 893e
00000140: 3f1d ca3d 052e 073e f478 af3e 9338 393d
00000150: d1f9 d53c 36b0 ad3d dd1d a73c 66f0 cfbe
00000160: df78 58be a591 403d 8a56 33be 288a c13d
00000170: 48f3 8a3e 4115 adbd d61f 5a3d 8b4b 26be
00000180: 476a ed3c 794b 8b3e d0a9 28bd 4c9d d93e
00000190: d712 bdbd e799 fbbd c485 6dbe e6bd 903d
000001a0: ca37 54be 1116 cf3d 202b 473c 041f bc3d
000001b0: 1dd2 a8bb adb6 653e ea3d d3be 64c6 123d
000001c0: af0b 03be d5c7 7cbc 5971 9fbe 074d 72be
000001d0: 4efa 14bd d2bc 123d 17ea e2bd 454a d2bd
000001e0: 8fd9 743d 2286 653e b5b4 33be f4f9 9abd
000001f0: e463 21bd 3ddd 313e aba4 46be 11cb 77be
00000200: e6f8 fcbd 7d72 aebe 8d6f c8bd 331b 5f3e
00000210: 1f6d 60be 0b9f 1abe 6fbc 5abe 4484 ddbd
00000220: 39c0 c2bd 9e4c ed3d 7418 3fbd dd64 1cbe
00000230: d268 80bc f73c 03be c556 4ebd 7322 b6bd
00000240: 2316 a0be 14e7 24bd 204c 3abe 1a73 103c
00000250: fae3 8b3e f563 703e 5845 c43d 7f98 41bd
00000260: 095f 93be e21e 48be dab9 98bc a542 cd3c
00000270: e447 97b9 5d13 17bd 7d1a 81bd 0841 82be
00000280: deb8 0bbd a74b 973e 0ecd 5c3d 61d4 df3c
00000290: f1b4 113c e1db 01bf 9fb4 70be 3a36 853d
000002a0: ccb1 ef3c cade 23be 90c6 a0be fb01 8ebd
000002b0: 2bdf 27be c9d9 a93d da6e 74be 8b42 74be
000002c0: c58a 423e 5b08 79be 8a58 87be cc09 bebd
000002d0: bf6d fdbe 172d da3d 1309 cfbe d364 a23c
000002e0: 20e3 87be 1c87 cdbe 3df9 15be fab0 67be
000002f0: 8fd9 3bbe fefe 14be 99e8 573d ecff 373e
00000300: c958 ab3d 9ff0 00be ba1a 01bf a8a2 5ebd
00000310: 477b 77bd 62d7 02be 64c3 893d 5720 a33d
00000320: 8345 d3bc 271f 85bd fa69 1bbe 205a a1bd
00000330: a1d3 e9be bb06 abbe cc35 39bd 1820 e8bd
00000340: a9a7 98be fb9b 63bd 0333 ea3b 4855 4c3e
00000350: 9a55 543e d386 1a3e d761 1c3e ee7a 923e
00000360: 380f 8b3e 29e3 c7bc 96b8 02be f8d3 afbc
00000370: ef77 113e 6ba1 8c3d ba05 313d 34a7 c33e
00000380: 6abf e4bd e937 0bbe 692d 88be 8312 ac3d
00000390: 93de e83d 9662 f03d a32b 493d 127a b13c
000003a0: 03f6 d6bd db0b 653e e6ea e53d ef6b 1e3e
000003b0: fd20 0dbe 0a46 a2bc 7078 27be f663 75ba
000003c0: 3330 503d 4312 263e 8096 3cbe d4a6 093e
000003d0: c064 4dbc 80a3 39bd 6565 aa3d b507 af3c
000003e0: 9918 9f3e f8fe 3abe 218f 473d f0cb d6be
000003f0: 8ab9 77bd 0d82 81bd d3f7 623e 94f9 40bf

network_body._body_endoder.seq_layers.0.bias f4 [128]
-0.10660114 -0.066074796 -0.13276018 -0.15506448 -0.059430003 -0.08446546 -0.086023115 0.09789145
0.12953174 0.04390021 -0.1351784 -0.1631564 0.094241895 -0.09574607 -0.10251734 -0.04023601
-0.26752278 -0.25932872 -0.11655133 -0.18935886 -0.0021308896 0.032663804 -0.09257564 -0.012951282
0.026019447 -0.013669549 -0.14799102 -0.20111336 -0.30221277 -0.09339245 0.02255624 -0.0731364
-0.2804974 -0.16735522 0.04988936 -0.06114819 -0.12405927 -0.1495361 -0.015632562 0.015537225
-0.15480751 -0.10226778 0.14170374 -0.17026663 0.22013627 -0.059434794 -0.097924165 -0.18224025
-0.19407162 0.15080051 -0.08163738 0.14234261 0.030225016 -0.19126543 0.025066046 -0.033163574
-0.07989509 0.01727192 -0.13211067 0.12996092 -0.044239074 -0.20284405 -0.1702171 -0.016635096
-0.26159257 -0.028522478 -0.22110245 -0.067414835 -0.34533903 -0.037486278 -0.22642429 0.020964941
0.02319579 -0.08625 -0.1670403 -0.004680897 -0.04046825 -0.043320302 0.04419235 0.11229124
-0.34589922 -0.2067613 0.03995333 -0.14269711 0.073987566 -0.0511965 0.0047120177 -0.030350015
-0.0109190885 -0.050874945 -0.08611902 -0.04491806 -0.1027442 -0.08653775 -0.076762035 -0.018638032
-0.075328 0.110926546 -0.069285 -0.036023982 -0.15641657 -0.07572803 -0.06842689 -0.093023755
-0.039533466 -0.09998465 -0.32425523 -0.094522625 -0.26850542 -0.11661178 -0.18716462 0.04643565
-0.003666056 0.017113954 0.011129396 -0.0112809045 -0.31141624 -0.03255134 -0.0954894 -0.08086605
-0.18512706 -0.11291307 -0.09407329 -0.019564942 -0.08565546 -0.21424721 -0.043315515 -0.17289059
00000000: b351 dabd 3952 87bd 49f2 07be 39c9 1ebe
00000010: e06c 73bd 3afc acbd e32c b0bd 507b c83d
00000020: f8a3 043e b5d0 333d 356c 0abe 7912 27be
00000030: e501 c13d 8416 c4bd 9cf4 d1bd 84ce 24bd
00000040: bff8 88be bcc6 84be 77b2 eebd 4ae7 41be
00000050: 65a6 0bbb 7bca 053d 4c98 bdbd 9d31 54bc
00000060: bc26 d53c 3ef6 5fbc f58a 17be a9f0 4dbe
00000070: a2bb 9abe 8a44 bfbd ddc7 b83c 89c8 95bd
00000080: 5b9d 8fbe 2b5f 2bbe c958 4c3d 8676 7abd
00000090: c912 febd fe1f 19be dc0f 80bc d88f 7e3c
000000a0: dc85 1ebe c571 d1bd c91a 113e 605a 2ebe
000000b0: 676b 613e e671 73bd 778c c8bd 309d 3abe
000000c0: b6ba 46be 736b 1a3e 8031 a7bd 43c2 113e
000000d0: 749a f73c 16db 43be 4f57 cd3c 87d6 07bd
000000e0: 09a0 a3bd d77d 8d3c 0548 07be 7a14 053e
000000f0: 0834 35bd 5ab6 4fbe 644d 2ebe 5346 88bc
00000100: 76ef 85be f9a7 e9bc ae68 62be ca10 8abd
00000110: 47d0 b0be 368b 19bd c5db 67be abbe ab3c
00000120: 1905 be3c d7a3 b0bd 9d0c 2bbe 3662 99bb
00000130: 09c2 25bd a170 31bd 0a03 353d f3f8 e53d
00000140: b419 b1be 3cb9 53be 1aa6 233d 311f 12be
00000150: cb86 973d 6cb3 51bd 4567 9a3b 98a0 f8bc
00000160: fae5 32bc 3f62 50bd 2b5f b0bd 00fc 37bd
00000170: 8d6b d2bd b43a b1bd 6a35 9dbd c9ae 98bc
00000180: 9145 9abd 752d e33d 4be5 8dbd e28d 13bd
00000190: aa2b 20be 4c17 9bbd 6623 8cbd 3d83 bebd
000001a0: d8ed 21bd c1c4 ccbd c804 a6be 1495 c1bd
000001b0: 8b79 89be 28d2 eebd 15a8 3fbe 4f33 3e3d
000001c0: 3742 70bb 9032 8c3c 1258 363c 8bd3 38bc
000001d0: f371 9fbe 8e54 05bd f28f c3bd 1a9d a5bd
000001e0: f391 3dbe f83e e7bd 7fa9 c0bd a846 a0bc
000001f0: 216c afbd 9f63 5bbe 9c6b 31bd 3b0a 31be

network_body._body_endoder.seq_layers.2.weight f4 [128, 128]
0.15246964 0.0072128642 -0.08472375 0.0014383825 -0.569857 0.056333527 0.089442834 -0.24892709
-0.27339152 -0.2194068 -0.25802335 0.14759287 -0.21986532 -0.17812856 -0.20266636 -0.07714795
0.020747082 0.15039225 0.0021751316 0.012204058 -0.2335141 -0.08573386 0.06725372 -0.25308025
-0.020192012 0.041510765 -0.040399518 0.058240574 0.27396113 -0.038142487 -0.1082988 0.017389648
0.108839154 0.09466509 0.078843206 0.10316306 -0.16242528 0.10961169 0.026312353 -0.04028639
-0.1395392 0.18355942 -0.2581805 0.15584743 -0.33267376 -0.0060428423 -0.10866662 -0.20678972
0.11779708 -0.23962721 0.03881903 -0.1402993 0.14404547 0.17243469 0.1142558 -0.21239176
0.08386087 0.13085885 -0.18076667 0.06823687 0.004997482 0.17654762 0.056290295 0.028766165
-0.05328289 -0.17280859 0.24997658 0.014047777 0.08387204 -0.19615151 0.0065175495 -0.18325727
-0.029077934 -0.017110378 0.12117754 -0.17988196 0.0031416137 -0.28154925 -0.08193855 -0.1543796
0.07406421 0.16968082 0.14403675 -0.18303671 -0.3883593 -0.49800432 0.1551916 -0.1016879
0.00854588 -0.046241175 -0.04540939 -0.10566878 0.033307757 0.111182116 -0.05626387 0.16829433
0.03447048 0.14695853 -0.048332896 0.16691482 0.33855033 -0.004065092 0.086512946 -0.21697392
0.030828873 0.074652575 0.21847562 -0.00040559415 0.21803339 0.24126841 0.10491027 -0.29873124
0.15632121 -0.20113535 -0.058056597 -0.06945949 0.1187269 0.1790704 0.03391555 0.11426624
0.06493376 -0.09986074 -0.16606596 0.02600581 -0.13491389 0.051697012 0.12134436 0.045650538
0.14948562 -0.122344635 0.1888936 0.07033702 -0.24500845 0.1833145 0.21345882 -0.009994012
-0.34304136 -0.31705981 -0.123689085 0.35498518 -0.23302746 0.0088142725 -0.003435259 -0.24716729
0.24493116 0.123000324 0.0037052375 0.36012897 0.07041497 -0.079521894 -0.0063356995 -0.30843446
-0.23091027 -0.13213392 -0.18807234 0.1827601 0.15225303 0.1826762 0.01846347 -0.03065364
0.12897393 0.16596596 0.038188566 -0.017249653 -0.02706437 0.30897292 0.29966325 0.02299542
0.009622366 0.054486126 -0.4155277 0.1244219 -0.22912441 -0.023452122 -0.08417779 -0.07161348
0.030495893 -0.16209286 0.22855718 -0.4475151 -0.1553737 0.02240559 0.16089448 -0.11400454
0.06823542 0.3091437 -0.0009258594 -0.12478171 0.07470773 -0.04038303 0.05350624 0.18269219
0.1577936 -0.2978388 0.28854746 0.32710707 0.06983563 -0.021344727 0.1636216 -0.44450527
0.19451168 -0.13110627 0.33113623 -0.28809083 -0.02733472 -0.19360605 -0.25728416 -0.36150104
0.052298393 0.15338227 0.013665741 -0.11084336 -0.3353536 -0.22236972 0.29254264 -0.16408008
-0.2407578 0.006053337 0.014100818 -0.14647445 0.080667146 -0.20784825 -0.030642746 0.06971958
0.053362448 -0.03802067 -0.038351215 0.15287633 0.1127843 -0.0774812 0.1837937 -0.11033778
0.33045113 0.10406557 0.005544261 0.29209495 0.24710181 0.24320418 0.24701808 -0.5000037
0.16317931 -0.020148518 0.14981805 0.083392024 0.04871886 0.04899211 0.40816388 0.30854613
0.0543188 0.06182105 -0.20615679 -0.087822385 -0.303475 0.123466276 0.16171578 0.049406145
00000000: 0021 1c3e e459 ec3b a583 adbd 1c88 bc3a
00000010: 26e2 11bf fcbd 663d ce2d b73d bee6 7ebe
00000020: f9f9 8bbe 2dac 60be a31b 84be 9622 173e
00000030: 6024 61be 5567 36be c587 4fbe bfff 9dbd
00000040: c9f5 a93c 6d00 1a3e a78c 0e3b 87f3 473c
00000050: 521e 6fbe 3c95 afbd 51bc 893d bc93 81be
00000060: b869 a5bc 3107 2a3d f779 25bd ab8d 6e3d
00000070: a244 8c3e 4c3b 1cbd c3cb ddbd bc74 8e3c
00000080: 10e7 de3d c5df c13d 8c78 a13d 2847 d33d
00000090: d052 26be 187c e03d 018d d73c 5703 25bd
000000a0: 5de3 0ebe 00f7 3b3e 3c30 84be 7896 1f3e
000000b0: 3754 aabe 0903 c6bb 9b8c debd afc0 53be
000000c0: 983f f13d d660 75be b400 1f3d 9faa 0fbe
000000d0: a880 133e b892 303e f2fe e93d 3a7d 59be
000000e0: 3fbf ab3d ddff 053e e61a 39be c6bf 8b3d
000000f0: ebc1 a33b e6c8 343e a790 663d 05a7 eb3c
00000100: 293f 5abd bcf4 30be dcf9 7f3e a628 663c
00000110: 1bc5 ab3d f1db 48be 2b91 d53b cba7 3bbe
00000120: d934 eebc 102b 8cbc ee2b f83d fa32 38be
00000130: 88e3 4d3b 3927 90be 66cf a7bd b015 1ebe
00000140: faae 973d cfc0 2d3e 5f7e 133e fa6d 3bbe
00000150: 08d7 c6be 6cfa febe 8cea 1e3e bf41 d0bd
00000160: 0504 0c3c 6367 3dbd 32ff 39bd e068 d8bd
00000170: b76d 083d 73b3 e33d f274 66bd 5955 2c3e
00000180: eb30 0d3d 4c7c 163e b7f8 45bd b8eb 2a3e
00000190: 7856 ad3e 7734 85bb b32d b13d 692e 5ebe
000001a0: d58c fc3c 73e3 983d 13b8 5f3e eda5 d4b9
000001b0: 2544 5f3e 110f 773e 32db d63d 4df3 98be
000001c0: ab12 203e 6df6 4dbe c1cc 6dbd c740 8ebd
000001d0: 1727 f33d 3b5e 373e 08eb 0a3d 6b04 ea3d
000001e0: fefb 843d ca83 ccbd 320d 2abe 230a d53c
000001f0: de26 0abe 3fc0 533d 6483 f83d 0ffc 3a3d
00000200: c212 193e d38f fabd 536d 413e db0c 903d
00000210: 7fe3 7abe ccb6 3b3e f394 5a3e edbd 23bc
00000220: 1ea3 afbe aa55 a2be b450 fdbd 9ec0 b53e
00000230: c09e 6ebe bd69 103c 1522 61bb 6c19 7dbe
00000240: 3ccf 7a3e 98e7 fb3d 92d3 723b d362 b83e
00000250: b935 903d 60dc a2bd b39b cfbb 1feb 9dbe
00000260: be73 6cbe 1d4e 07be 0996 40be 7725 3b3e
00000270: 38e8 1b3e 780f 3b3e b440 973c 581d fbbc
00000280: be11 043e fbf2 293e 9d6b 1c3d 254f 8dbc
00000290: 19b6 ddbc b331 9e3e 766d 993e e460 bc3c
000002a0: 21a7 1d3c d82c 5f3d 0cc0 d4be e9d0 fe3d
000002b0: 979f 6abe aa1e c0bc 6865 acbd 17aa 92bd
000002c0: 86d2 f93c acfb 25be e50a 6a3e b320 e5be
000002d0: 491a 1fbe ee8b b73c 86c1 243e 367b e9bd
000002e0: 03bf 8b3d 1548 9e3e 5fb5 72ba 8e8d ffbd
000002f0: 5e00 993d ad68 25bd 5c29 5b3d a913 3b3e
00000300: a594 213e 547e 98be 7ebc 933e 947a a73e
00000310: fc05 8f3d 23db aebc 6c8c 273e 3296 e3be
00000320: 122e 473e b940 06be b08a a93e a480 93be
00000330: 10ed dfbc aa40 46be c0ba 83be aa16 b9be
00000340: d736 563d 3e10 1d3e 46e6 5f3c d801 e3bd
00000350: 78b3 abbe e3b4 63be 26c8 953e 9c04 28be
00000360: 3689 76be 125b c63b 1e07 673c 66fd 15be
00000370: d134 a53d 2cd6 54be 7f06 fbbc 24c9 8e3d
00000380: 9592 5a3d 90bb 1bbd 2a16 1dbd 9d8b 1c3e
00000390: 75fb e63d 77ae 9ebd 6a34 3c3e c6f8 e1bd
000003a0: e430 a93e 5420 d53d a2ac b53b 788d 953e
000003b0: 4208 7d3e 840a 793e 4ff2 7c3e 3e00 00bf
000003c0: 7a18 273e 810e a5bc e769 193e 70c9 aa3d
000003d0: 6d8d 473d f3ab 483d dbfa d03e c2f9 9d3e
000003e0: 647d 5e3d 1238 7d3d c41a 53be 39dc b3bd
000003f0: 1361 9bbe e3db fc3d d298 253e 195e 4a3d

network_body._body_endoder.seq_layers.2.bias f4 [128]
-0.19326356 -0.27797046 -0.085146025 -0.09328778 -0.10250284 -0.2659849 -0.1851201 -0.024106637
-0.19415681 -0.13273095 -0.18949993 -0.09906481 -0.0116141075 -0.31936163 -0.16506116 0.054289207
-0.11121932 -0.12911907 0.1029551 -0.024311274 -0.10756011 -0.25166798 -0.15993707 -0.2399823
-0.1961177 -0.022969728 -0.26854438 -0.151212 0.048819385 -0.11062511 -0.26427507 -0.21105246
-0.28277785 -0.06364812 -0.13040787 -0.31625852 -0.2283129 -0.2108619 -0.12500755 -0.130109
-0.21002468 -0.20534366 -0.110653095 -0.0053490372 -0.25856018 0.03889566 -0.1686769 -0.23844153
-0.05095044 -0.07663159 -0.12793268 0.096044965 -0.1304072 -0.3245731 0.017020844 -0.26375553
-0.22422153 -0.08226881 -0.06703795 -0.26255003 -0.13956179 -0.26954487 -0.21023624 0.018275566
-0.107383564 -0.21755376 -0.23549849 -0.17607868 -0.019397609 -0.1495968 -0.4169337 0.11935754
0.0015316701 -0.06791048 -0.18896475 -0.13874747 -0.21794055 0.021969577 -0.32786122 -0.0810872
-0.25333533 -0.035087526 -0.07078135 -0.19470677 -0.22521317 -0.06744734 -0.22935393 -0.3025054
-0.0014404502 -0.14777164 0.05946427 -0.026502134 -0.18918583 -0.10485625 -0.011010087 -0.2781674
-0.13417926 -0.10272032 -0.010435925 -0.1885372 -0.1657602 -0.020270633 -0.041102096 -0.18220252
0.003324762 -0.17033209 -0.045813352 -0.18059081 -0.11773759 -0.047004096 -0.22103882 -0.08394123
-0.11413002 -0.083818875 -0.16484396 -0.10582006 -0.10880367 -0.16424684 -0.09281667 -0.013885616
-0.1217476 -0.28851938 -0.095107295 -0.18731509 -0.079057485 -0.285021 -0.26595014 -0.057962574
00000000: e2e6 45be 2552 8ebe 0a61 aebd aa0d bfbd
00000010: 02ed d1bd 2c2f 88be 2090 3dbe 487b c5bc
00000020: 0bd1 46be 9fea 07be 450c 42be 7ee2 cabd
00000030: 1949 3ebc 5e83 a3be cb05 29be 5c5e 5e3d
00000040: f4c6 e3bd ca37 04be 20da d23d 7028 c7bc
00000050: 7a48 dcbd a0da 80be 8bc6 23be ecbd 75be
00000060: 14d3 48be 032b bcbc a67e 89be 52d7 1abe
00000070: d6f6 473d 6b8f e2bd 104f 87be 231e 58be
00000080: 42c8 90be f259 82bd a489 05be a3ec a1be
00000090: dbca 69be 2fec 57be fb01 00be 4b3b 05be
000000a0: b610 57be 9c45 52be 179e e2bd fa46 afbb
000000b0: 0062 84be 0e51 1f3d a3b9 2cbe 042a 74be
000000c0: 69b1 50bd 06f1 9cbd c900 03be 39b3 c43d
000000d0: 7789 05be 722e a6be 4c6f 8b3c f70a 87be
000000e0: 549a 65be 8d7c a8bd 314b 89bd f56c 86be
000000f0: 49e9 0ebe c901 8abe 2b48 57be a4b6 953c
00000100: eaeb dbbd 6ac6 5ebe 8426 71be f84d 34be
00000110: bce7 9ebc e72f 19be 5578 d5be ba71 f43d
00000120: 52c2 c83a a614 8bbd fa7f 41be d113 0ebe
00000130: cf2b 5fbe 8bf9 b33c 6ddd a7be 0c11 a6bd
00000140: 2bb5 81be f0b7 0fbd d0f5 90bd 3661 47be
00000150: 489e 66be d521 8abd c2db 6abe fde1 9abe
00000160: 7dcd bcba 7351 17be ce90 733d 011b d9bc
00000170: eeb9 41be e0be d6bd a763 34bc f56b 8ebe
00000180: 4a66 09be 085f d2bd 71fb 2abc e50f 41be
00000190: 0bbd 29be 990e a6bc ac5a 28bd 4c93 3abe
000001a0: 40e4 593b 896b 2ebe c8a6 3bbd ccec 38be
000001b0: 6820 f1bd 5e87 40bd 0058 62be 61e9 abbd
000001c0: 00bd e9bd 3ba9 abbd dbcc 28be 30b8 d8bd
000001d0: 75d4 debd 5330 28be ab16 bebd 7f80 63bc
000001e0: ce56 f9bd d0b8 93be 9dc7 c2bd 87cf 3fbe
000001f0: e4e8 a1bd 46ee 91be 9e2a 88be 2a6a 6dbd

action_model._continuous_distribution.log_sigma f4 [1, 3]
-3.2025523 -2.5350685 -3.0570352
00000000: 9ef6 4cc0 903e 22c0 77a6 43c0

action_model._continuous_distribution.mu.weight f4 [3, 128]
-0.10142474 -0.063405246 -0.031467576 0.011551266 -0.079668656 -0.08126795 -0.11370728 -0.030783024
-0.05146524 -0.04737966 -0.061260536 -0.069333926 -0.045021035 -0.028373282 -0.05213982 -0.022998285
-0.05181375 -0.12973756 0.02028885 -0.07738316 -0.031638652 -0.058370538 -0.10251322 -0.013178862
-0.12909855 -0.032363508 -0.038079865 -0.05971302 -0.030890264 -0.017650846 -0.07053906 -0.046388946
-0.023853343 -0.0380404 -0.030543366 -0.02327117 -0.042277012 -0.11398924 -0.08308171 -0.031748924
-0.07144471 -0.10543163 -0.05504879 -0.049811333 -0.02402473 0.011668569 -0.09893283 -0.081357904
-0.016242275 -0.04901066 -0.06371283 -0.05716414 -0.03506869 -0.016532287 -0.03899765 -0.07775381
-0.08617895 -0.017433142 -0.04641599 -0.09518135 -0.009952449 -0.085962966 -0.022284163 0.019799465
-0.046699915 -0.08574666 -0.079680204 -0.03776285 -0.03475138 -0.032097314 -0.0017509563 -0.02569181
-0.072547905 -0.03202826 -0.05393391 -0.033316266 -0.10724135 0.025025982 -0.03358537 -0.039703608
-0.06118953 -0.085177116 -0.026834406 -0.012867467 -0.08748284 -0.050456297 -0.0745619 -0.033034973
-0.027699756 -0.020504447 -4.942177e-05 -0.06588804 -0.10836085 -0.08220374 -0.07379791 -0.07981565
0.0018841975 -0.07524404 -0.06508867 -0.15016523 -0.0141331805 0.00925536 -0.043887474 -0.0715561
-0.015786283 -0.113865495 -0.07967671 -0.11563036 0.04678631 -0.020023799 -0.030983489 -0.059022594
-0.0002016172 -0.0662295 -0.15890446 -0.052333172 -0.010251299 -0.039349735 -0.0499313 -0.015141119
-0.14909855 -0.0882585 -0.052810922 -0.03810304 -0.17045686 -0.047144003 -0.07382398 -0.03539343
0.009161852 -0.04772782 -0.002489408 -0.10207641 -0.09756506 -0.046298932 -0.0070583094 -0.08584748
-0.04599945 0.0152637325 -0.03884543 -0.077414595 -0.020308662 0.0029363225 -0.032711133 -0.12186295
-0.04571314 0.012857147 0.08718896 -0.066834524 -0.00044857396 -0.023000801 -0.034160096 -0.092393555
-0.03146637 0.06948414 -0.048781727 -0.07079634 -0.12016995 -0.0767173 -0.035951782 -0.06971929
0.002730526 0.048224527 -0.0034673936 0.002432638 -0.029191302 -0.009811574 -0.02844122 0.055893023
0.008566389 -0.013514843 -0.13062069 -0.12858652 -0.04259378 0.018784733 0.052785717 0.010876623
-0.087530695 -0.07957581 -0.013274636 -0.13677001 0.008588992 -0.04567245 -0.088320784 -0.052458487
0.01891459 -0.030010927 -0.01296993 0.001629889 -0.01559884 -0.054494455 0.008800928 -0.12880035
-0.07714548 -0.03519692 -0.019347688 0.014771407 -0.11939418 0.051822696 -0.03374395 -0.12640777
-0.0630143 -0.11920203 -0.05139016 -0.05295107 -0.02881155 -0.08678074 -0.033815537 -0.021478964
-0.047617998 0.0006711847 -0.05128212 0.0054566893 -0.047858264 -0.108847305 0.005862522 -0.03827347
-0.10108248 0.042619847 -0.06278637 -0.053450193 0.011742576 -0.027734736 -0.1455924 -0.057392303
-0.07862224 -0.06487021 -0.05040404 -0.003666257 0.015374456 0.052294165 -0.06855945 -0.035642404
-0.1305202 0.033173427 -0.09409147 -0.015932418 0.095406145 -0.12278032 -0.0026798279 -0.06641274
-0.01742234 -0.04506604 -0.012737365 -0.053521406 0.0403802 0.020478182 -0.0021997604 -0.16720645
0.018645106 -0.03895678 -0.053807884 -0.07199023 0.098908015 -0.028850438 -0.022329263 -0.12675808
00000000: c6b7 cfbd 9cda 81bd 25e4 00bd 8541 3d3c
00000010: 5229 a3bd d06f a6bd 5ddf e8bd ae2c fcbc
00000020: 37cd 52bd 2d11 42bd 54ec 7abd f2fe 8dbd
00000030: fa67 38bd 166f e8bc 9090 55bd e666 bcbc
00000040: a83a 54bd ecd9 04be cd34 a63c 107b 9ebd
00000050: 8897 01bd f215 6fbd 73f2 d1bd 27ec 57bc
00000060: 6932 04be 998f 04bd a2f9 1bbd a495 74bd
00000070: 940d fdbc 8298 90bc c876 90bd 5602 3ebd
00000080: 1668 c3bc 40d0 1bbd 1536 fabc 2ea3 bebc
00000090: a92a 2dbd 3173 e9bd be26 aabd 290b 02bd
000000a0: 9b51 92bd 8aec d7bd d77a 61bd f806 4cbd
000000b0: 83cf c4bc 872d 3f3c 4c9d cabd f99e a6bd
000000c0: 850e 85bc 67bf 48bd df7b 82bd f224 6abd
000000d0: 30a4 0fbd b86e 87bc 00bc 1fbd 643d 9fbd
000000e0: 977e b0bd f3cf 8ebc b11e 3ebd 71ee c2bd
000000f0: 990f 23bc 5a0d b0bd 478d b6bc 7d32 a23c
00000100: 6948 3fbd f29b afbd 602f a3bd 38ad 1abd
00000110: 7757 0ebd 7978 03bd 5880 e5ba a177 d2bc
00000120: ff93 94bd 1130 03bd cee9 5cbd a376 08bd
00000130: 5aa1 dbbd 4a03 cd3c d090 09bd 40a0 22bd
00000140: dfa1 7abd 5771 aebd d4d3 dbbc 11d2 52bc
00000150: 342a b3bd 43ab 4ebd e9b3 98bd ae4f 07bd
00000160: 99ea e2bc f1f8 a7bc 394a 4fb8 4ff0 86bd
00000170: 4bec ddbd 6f5a a8bd 5c23 97bd 6376 a3bd
00000180: 2df7 f63a 8c19 9abd 354d 85bd eac4 19be
00000190: db8e 67bc cba3 173c 5ac3 33bd 018c 92bd
000001a0: 3c52 81bc 5032 e9bd 8b2d a3bd 9ccf ecbd
000001b0: 00a3 3f3d f308 a4bc 16d1 fdbc adc1 71bd
000001c0: 3469 53b9 55a3 87bd dab7 22be 4f5b 56bd
000001d0: 10f5 27bc 302d 21bd c384 4cbd 7512 78bc
000001e0: 4aad 18be dfc0 b4bd 4450 58bd ef11 1cbd
000001f0: 3e8c 2ebe 121a 41bd 0731 97bd b4f8 10bd
00000200: 981b 163c 3f7e 43bd 5625 23bb 700d d1bd
00000210: 31d0 c7bd f3a3 3dbd 6449 e7bb ced0 afbd
00000220: eb69 3cbd bc14 7a3c 631c 1fbd 8b8b 9ebd
00000230: 5a5e a6bc 516f 403b 1cfc 05bd 4893 f9bd
00000240: b43d 3bbd c8a6 523c 2090 b23d 8ae0 88bd
00000250: 942e ebb9 2d6c bcbc 75eb 0bbd d538 bdbd
00000260: e1e2 00bd b34d 8e3d 59cf 47bd acfd 90bd
00000270: aa1b f6bd f61d 9dbd 2d42 13bd fdc8 8ebd
00000280: a0f2 323b 1587 453d 363d 63bb e56c 1f3b
00000290: 9922 efbc b9c0 20bc 90fd e8bc 15f0 643d
000002a0: 0a5a 0c3c 5c6d 5dbc 6ec1 05be 2fac 03be
000002b0: d176 2ebd 71e2 993c d635 583d dd33 323c
000002c0: 4b43 b3bd a4f8 a2bd dc7d 59bc 700d 0cbe
000002d0: d8b8 0c3c 0913 3bbd 87e1 b4bd b6de 56bd
000002e0: c5f2 9a3c 7ad9 f5bc d47f 54bc 00a2 d53a
000002f0: 4792 7fbc 9435 5fbd c431 103c 3de4 03be
00000300: 73fe 9dbd a52a 10bd 0b7f 9ebc c503 723c
00000310: f084 f4bd 0944 543d 1937 0abd 0a71 01be
00000320: a40d 81bd 3220 f4bd 7d7e 52bd 39e3 58bd
00000330: 3306 ecbc 1aba b1bd 2982 0abd a7f4 afbc
00000340: 170b 43bd 71f2 2f3a 330d 52bd 07ce b23b
00000350: 0707 44bd 56eb debd 661a c03b a4c4 1cbd
00000360: 5504 cfbd 2692 2e3d 2496 80bd 97ee 5abd
00000370: ef63 403c f533 e3bc 2d16 15be 3114 6bbd
00000380: b204 a1bd acda 84bd 7774 4ebd 9645 70bb
00000390: 24e5 7b3c 6832 563d e668 8cbd c5fd 11bd
000003a0: 16a7 05be dce0 073d 07b3 c0bd b484 82bc
000003b0: 4c64 c33d 4074 fbbd 0da0 2fbb 6703 88bd
000003c0: 4cb9 8ebc 2b97 38bd 62b0 50bc 4339 5bbd
000003d0: b565 253d dcc1 a73c db29 10bb 2b38 2bbe
000003e0: 9fbd 983c 2591 1fbd a865 5cbd 9d6f 93bd
000003f0: 4990 ca3d c157 ecbc dceb b6bc dfcc 01be

action_model._continuous_distribution.mu.bias f4 [3]
-0.025141854 0.023027383 0.0510861
00000000: 4af6 cdbc eca3 bc3c a93f 513d

action_model._discrete_distribution.branches.0.weight f4 [2, 128]
-0.008994037 -0.038390286 -0.16277143 -0.07522512 -0.111401275 0.08804607 0.05157121 -0.02396372
0.10158321 -0.041409213 0.005549633 -0.092154466 -0.09971694 0.11809031 -0.104713775 -0.029562697
-0.067609265 0.044873018 -0.28195122 0.017645778 -0.23261356 0.0473416 0.05274741 0.04677902
-0.054208636 -0.19996336 0.11938792 -0.014262141 0.027451629 0.032280017 -0.07347982 0.060697164
0.064286865 -0.28447697 -0.02442193 0.06651221 -0.01578876 0.015894815 -0.10338604 -0.023500163
0.05392672 0.034690417 -0.09671297 -0.06843839 0.052676443 0.19423215 0.040827833 0.055284828
0.15530244 -0.08656841 -0.02716353 -0.15309736 -0.047877423 0.09347915 -0.15459648 0.0033087337
0.07243957 0.16588552 -0.10953778 0.12294202 0.07478818 0.08332644 -0.038048994 0.10406169
-0.17237787 -0.055094965 0.108099416 0.10919903 0.06943112 -0.12653057 0.04221957 0.041346375
0.25470197 0.10915772 0.014985377 -0.17821343 0.10579244 0.24123593 0.023143195 -0.060780507
0.09079519 -0.13406898 -0.21885793 0.08482904 0.08086039 -0.017428502 0.06908395 0.0130899865
0.06398954 -0.3657709 -0.02125459 -0.14274114 0.12219017 -0.056139138 0.024082722 0.10036518
0.21193707 -0.0041847182 -0.070516706 0.13470137 -0.28410307 0.050787657 -0.40483317 0.025579134
0.1571713 0.12185001 0.034944028 -0.0006670035 -0.078035235 0.019542577 -0.0364223 -0.0716385
-0.001683993 -0.2149884 0.11404986 -0.03325186 0.06376755 -0.06972319 -0.044781435 0.11174385
0.071090735 -0.02815242 -0.0887463 0.109291434 0.1401365 -0.0057915435 0.036278557 -0.058329254
0.002964242 0.038633116 0.18323672 0.08873451 0.104520805 -0.07493491 -0.06686863 0.039069608
-0.09479038 0.047283724 -0.013644882 0.088535495 0.092916906 -0.11722305 0.09111619 -0.005474078
0.043684967 -0.04346124 0.27308446 0.00042528487 0.22586857 -0.026427833 -0.046066124 -0.06921827
0.033903476 0.17941144 -0.11613595 0.002284256 -0.041624296 -0.049398493 0.07140298 -0.06347179
-0.058865163 0.28764257 0.02931742 -0.061998855 0.033209387 -0.017902285 0.114130154 0.03340243
-0.051079664 -0.052993484 0.09637566 0.064555585 -0.032219447 -0.2084279 -0.04079692 -0.082925685
-0.13780037 0.093782224 0.032781273 0.14915851 0.05388146 -0.06956302 0.14464718 -0.0037626652
-0.06397097 -0.1850474 0.115530506 -0.10049151 -0.052934635 -0.07278361 0.039922856 -0.071006685
0.17693746 0.061731007 -0.088816054 -0.10306796 -0.078024544 0.10644266 -0.048596404 -0.049983256
-0.26657337 -0.10916126 -0.022215055 0.1838263 -0.09684794 -0.23122604 0.00086769083 0.061869938
-0.0791796 0.14781347 0.22377163 -0.065998554 -0.06787516 0.017230136 -0.051146246 -0.02299551
-0.077956 0.36776564 0.014612546 0.14682756 -0.11533795 0.048087217 -0.025322586 -0.09239196
-0.21535364 0.024518544 0.07155856 -0.12321198 0.27468625 -0.061402515 0.406465 -0.037213553
-0.15139799 -0.10954767 -0.01688936 0.0019437843 0.06304743 -0.013524947 0.035623457 0.10093817
-0.02539392 0.21940356 -0.12300178 0.043601103 -0.05920262 0.04041266 0.03103454 -0.10291012
-0.064758524 0.025520613 0.10057625 -0.09489964 -0.11859908 0.005781099 -0.023134705 0.061117034
00000000: ba5b 13bc 223f 1dbd 8ead 26be a10f 9abd
00000010: 5a26 e4bd 7f51 b43d 553c 533d 904f c4bc
00000020: dc0a d03d b59c 29bd b2d9 b53b 7bbb bcbd
00000030: 6538 ccbd 55d9 f13d 2d74 d6bd 782d f2bc
00000040: ba76 8abd c5cc 373d e95b 90be e18d 903c
00000050: 4032 6ebe 44e9 413d ab0d 583d 5c9b 3f3d
00000060: e009 5ebd 32c3 4cbe a781 f43d c1ab 69bc
00000070: 3de2 e03c 0d38 043d 967c 96bd 979d 783d
00000080: d5a8 833d f7a6 91be 8010 c8bc 8e37 883d
00000090: 6e57 81bc d835 823c 0fbc d3bd 6a83 c0bc
000000a0: 44e2 5c3d 8a17 0e3d 7311 c6bd 6d29 8cbd
000000b0: 41c3 573d cbe4 463e 163b 273d 5872 623d
000000c0: 9a07 1f3e c74a b1bd 0d86 debc 8ec5 1cbe
000000d0: 1e1b 44bd ff71 bf3d 8a4e 1ebe 57d7 583b
000000e0: 335b 943d e5dd 293e 5855 e0bd 07c9 fb3d
000000f0: 8c2a 993d 0da7 aa3d 43d9 1bbd 4c1e d53d
00000100: d383 30be 42ab 61bd 3a63 dd3d bea3 df3d
00000110: e731 8e3d 3b91 01be 6eee 2c3d d15a 293d
00000120: 4c68 823e 158e df3d 3a85 753c 957d 36be
00000130: b5a9 d83d 8d06 773e cc96 bd3c fbf4 78bd
00000140: d4f2 b93d 6149 09be 4b1c 60be d9ba ad3d
00000150: 229a a53d 38c6 8ebc e37b 8d3d 6277 563c
00000160: f30c 833d 5346 bbbe 1b1e aebc bc2a 12be
00000170: d73e fa3d 27f2 65bd 2149 c53c 428c cd3d
00000180: 0806 593e f61f 89bb 106b 90bd 28ef 093e
00000190: f575 91be b806 503d 4b46 cfbe 558b d13c
000001a0: 83f1 203e 7f8c f93d 7821 0f3d d9d9 2eba
000001b0: f0d0 9fbd c117 a03c 8d2f 15bd 35b7 92bd
000001c0: 6eb9 dcba eb25 5cbe f992 e93d 1a33 08bd
000001d0: 9098 823d 08cb 8ebd bd6c 37bd f6d9 e43d
000001e0: 0598 913d e79f e6bc 9fc0 b5bd 30d4 df3d
000001f0: f17f 0f3e fdc6 bdbb d398 143d a8ea 6ebd
00000200: ba43 423b c23d 1e3d 68a2 3b3e 70ba b53d
00000210: 010f d63d 7977 99bd 6cf2 88bd 7407 203d
00000220: 7521 c2bd 94ac 413d c88e 5fbc 1952 b53d
00000230: 384b be3d a312 f0bd 209b ba3d e55f b3bb
00000240: 02ef 323d 6a04 32bd bad1 8b3e c5f8 de39
00000250: 174a 673e 2f7f d8bc d5af 3cbd 4fc2 8dbd
00000260: 5fde 0a3d a2b7 373e afd8 edbd 75b3 153b
00000270: 3d7e 2abd 1356 4abd ba3b 923d 7ffd 81bd
00000280: 991c 71bd e345 933e 162b f03c 83f2 7dbd
00000290: 9106 083d d0a7 92bc 12bd e93d fdd0 083d
000002a0: e938 51bd b20f 59bd 9a60 c53d b835 843d
000002b0: 8af8 03bd 206e 55be ac1a 27bd f1d4 a9bd
000002c0: 8a1b 0dbe e510 c03d a845 063d 02bd 183e
000002d0: ceb2 5c3d 0e77 8ebd 641e 143e 0c97 76bb
000002e0: 3603 83bd 117d 3dbe 429b ec3d 7ece cdbd
000002f0: fdd1 58bd 930f 95bd 2686 233d f46b 91bd
00000300: 182f 353e a7d9 7c3d 31e5 b5bd 4b15 d3bd
00000310: 55cb 9fbd 9cfe d93d 060d 47bd 3ebb 4cbd
00000320: 4e7c 88be f08f dfbd 59fc b5bc f63c 3c3e
00000330: 3658 c6bd 85c6 6cbe bf75 633a 556b 7d3d
00000340: ea28 a2bd 6a5c 173e 6424 653e 402a 87bd
00000350: 2202 8bbd 3726 8d3c ba7e 51bd 1461 bcbc
00000360: 65a7 9fbd c74b bc3e 7669 6f3c f759 163e
00000370: 4e36 ecbd 1af7 443d 5071 cfbc ff37 bdbd
00000380: aa85 5cbe 1ddb c83c 4b8d 923d 9056 fcbd
00000390: ada3 8c3e 3481 7bbd 2e1c d03e 3d6d 18bd
000003a0: 1308 1bbe 875a e0bd 8e5b 8abc 94c6 fe3a
000003b0: 031f 813d bd97 5dbc e7e9 113d acb8 ce3d
000003c0: e906 d0bc 54ab 603e 5be8 fbbd 1297 323d
000003d0: 727e 72bd bf87 253d 263c fe3c 8ac2 d2bd
000003e0: 1ea0 84bd 9b10 d13c ecfa cd3d be5a c2bd
000003f0: 13e4 f2bd 606f bd3b fe84 bdbc db55 7a3d

action_model._discrete_distribution.branches.0.bias f4 [2]
-0.29250297 0.2925031
00000000: f3c2 95be f7c2 953e

action_model._discrete_distribution.branches.1.weight f4 [2, 128]
-0.25604984 -0.14759476 -0.34304845 -0.30882373 -0.026025677 -0.25304496 -0.2779264 -0.17436951
-0.32774845 -0.12388885 -0.028963136 -0.06335933 -0.18147777 -0.13395472 0.09302766 -0.06333966
-0.19311762 -0.26857582 0.22801441 -0.10773332 -0.037132032 -0.1587357 -0.12875043 -0.23109804
-0.11208257 -0.13104929 -0.35667905 -0.017107764 -0.4269327 -0.2535917 -0.0053905295 -0.20549664
-0.20684817 -0.055188254 -0.003142292 -0.105177 -0.08667975 -0.16393143 -0.06591532 -0.08898975
-0.23211332 -0.25034657 -0.16664961 -0.019012993 -0.27306926 -0.08035164 -0.17884366 -0.12771183
-0.3219809 -0.119053 -0.104871675 -0.061643057 -0.11727796 -0.20934835 -0.05309486 -0.110576525
-0.11914893 -0.16398795 0.26908353 -0.17059214 -0.3712689 -0.1982076 -0.08681885 -0.41079232
0.04460619 -0.082531266 -0.26481435 -0.22702287 -0.13899511 0.17998996 -0.16960749 -0.37578747
-0.30548123 -0.33822563 -0.15791254 0.11943679 -0.25051486 -0.116739236 -0.09387324 -0.14825238
-0.06586342 -0.07126659 0.061325364 -0.35283118 -0.23431128 -0.17503716 -0.27224156 -0.20262474
-0.43931714 -0.11907782 -0.23667927 0.08117854 -0.27946505 -0.101325385 -0.22525835 -0.17327152
-0.33455047 -0.06392646 -0.042510197 -0.19309896 -0.06374644 0.030023575 0.6141275 -0.07727338
-0.3706834 -0.31354934 -0.045831207 -0.16410229 0.036413338 -0.35596988 -0.14624591 0.011951341
-0.36351633 0.10473726 -0.16724314 -0.008752002 -0.043546047 -0.123286195 -0.22922428 -0.40267378
-0.2510546 -0.1527069 -0.023865858 -0.2026885 -0.2521695 -0.16935635 0.013548646 -0.011900209
0.23041473 0.13574861 0.3393497 0.28597304 0.048474368 0.27480865 0.28220087 0.16264519
0.34033144 0.12952971 0.058574654 0.06564039 0.18647833 0.12741221 -0.08336891 0.063549496
0.21138002 0.24457914 -0.22362721 0.10752073 0.033743948 0.14379618 0.12661424 0.218862
0.10637349 0.11243222 0.35928833 0.007977074 0.4096729 0.27249467 0.0011685871 0.21706465
0.20816453 0.04067434 -0.011585701 0.081171855 0.08593263 0.17686453 0.08076484 0.07185723
0.22774513 0.24340856 0.15858847 0.047618356 0.26732713 0.08406522 0.1861478 0.12705216
0.3063386 0.11614323 0.09691982 0.060142554 0.13700925 0.21404783 0.046435904 0.12833257
0.11524225 0.15875371 -0.24853064 0.18167658 0.34883344 0.19047655 0.11678501 0.42196843
-0.051141474 0.07792499 0.28000548 0.22236934 0.13921891 -0.18659645 0.16686054 0.37839442
0.31761083 0.33383307 0.14771283 -0.118511595 0.26028353 0.120245375 0.099612765 0.16355433
0.055084597 0.09118197 -0.056118924 0.34001404 0.24615455 0.15702808 0.26398724 0.20466916
0.42293754 0.13342461 0.21773827 -0.0725474 0.28002924 0.09408486 0.2104671 0.14881098
0.3276411 0.075456016 0.051999986 0.18339378 0.06880543 -0.013106573 -0.61627066 0.057324693
0.37132886 0.31644124 0.042609613 0.13776033 -0.007489958 0.37704116 0.13658012 -0.0016131835
0.39073452 -0.10932577 0.16513188 0.01165912 0.054142527 0.1358045 0.22773235 0.41488934
0.27394956 0.14794455 0.017195333 0.21091239 0.24057658 0.18168476 0.000712047 0.029167695
00000000: f718 83be 1523 17be 0ca4 afbe 251e 9ebe
00000010: cd33 d5bc 1c8f 81be 5e4c 8ebe ec8d 32be
00000020: a5ce a7be 70b9 fdbd 1944 edbc 89c2 81bd
00000030: 4fd5 39be 6d2b 09be 4985 be3d 39b8 81bd
00000040: a0c0 45be c582 89be 9c7c 693e 49a3 dcbd
00000050: c217 18bd 9d8b 22be 27d7 03be f7a4 6cbe
00000060: 8c8b e5bd c931 06be a39e b6be 9525 8cbc
00000070: ec96 dabe c5d6 81be 0aa3 b0bb b66d 52be
00000080: 02d0 53be 140d 62bd e9ee 4dbb 0a67 d7bd
00000090: 2785 b1bd a4dd 27be 9cfe 86bd 4240 b6bd
000000a0: 1daf 6dbe 6d2d 80be 32a6 2abe 23c1 9bbc
000000b0: bccf 8bbe 678f a4bd cb22 37be e4c6 02be
000000c0: aeda a4be 0fd2 f3bd f6c6 d6bd 6e7d 7cbd
000000d0: 6d2f f0bd 6a5f 56be ff79 59bd f275 e2bd
000000e0: 5b04 f4bd 75ec 27be 51c5 893e b5af 2ebe
000000f0: f516 bebe eff6 4abe 15ce b1bd 5f53 d2be
00000100: fbb4 363d 2706 a9bd bf95 87be af78 68be
00000110: bc54 0ebe 4a4f 383e 96ad 2dbe 3767 c0be
00000120: 0968 9cbe e92b adbe d3b3 21be 479b f43d
00000130: 7c43 80be fb14 efbd 9d40 c0bd 79cf 17be
00000140: 67e3 86bd 38f4 91bd 4e30 7b3d 4aa6 b4be
00000150: 4cef 6fbe f13c 33be 3f63 8bbe dc7c 4fbe
00000160: 2dee e0be 12df f3bd 0d5c 72be ef40 a63d
00000170: 0b16 8fbe af83 cfbd 20aa 66be 176e 31be
00000180: 334a abbe e0eb 82bd 2c1f 2ebd bcbb 45be
00000190: 7e8d 82bd 00f4 f53c 7637 1d3f 8141 9ebd
000001a0: 37ca bdbe 8a89 a0be 81b9 3bbd 6e0a 28be
000001b0: 2726 153d af41 b6be 7dc1 15be 8fcf 433c
000001c0: d01e babe 7d80 d63d c941 2bbe 8f64 0fbc
000001d0: 575d 32bd 797d fcbd c5b9 6abe 422b cebe
000001e0: 3b8a 80be 335f 1cbe 5582 c3bc 938d 4fbe
000001f0: 5c1c 81be c06b 2dbe 24fb 5d3c 18f9 42bc
00000200: d7f1 6b3e af01 0b3e 3ebf ad3e 0f6b 923e
00000210: 0f8d 463d b8b3 8c3e a27c 903e 768c 263e
00000220: ec3f ae3e 70a3 043e faeb 6f3d 786e 863d
00000230: 2df4 3e3e 5978 023e 52bd aabd 3d26 823d
00000240: 0174 583e f472 7a3e 88fe 64be d433 dc3d
00000250: 1837 0a3d 4e3f 133e 2aa7 013e 5c1d 603e
00000260: 58da d93d dd42 e63d a4f4 b73e 46b2 023c
00000270: a5c0 d13e 6c84 8b3e 472b 993a 3246 5e3e
00000280: 1529 553e 239a 263d f4d1 3dbc 6e3d a63d
00000290: 72fd af3d fa1b 353e 0968 a53d e229 933d
000002a0: 0536 693e 1840 793e 0465 223e 770b 433d
000002b0: 1adf 883e 632a ac3d 879d 3e3e f619 023e
000002c0: 6ad8 9c3e 80dc ed3d e67d c63d 0a58 763d
000002d0: 274c 0c3e 5b2f 5b3e 9333 3e3d 9d69 033e
000002e0: 2104 ec3d 5590 223e d17e 7ebe 6d09 3a3e
000002f0: 4c9a b23e 490c 433e fb2c ef3d 3f0c d83e
00000300: b979 51bd 2397 9f3d e15c 8f3e cab4 633e
00000310: 678f 0e3e 2413 3fbe 7ddd 2a3e eabc c13e
00000320: e39d a23e 2bec aa3e 0842 173e 35b6 f2bd
00000330: e243 853e 3543 f63d c701 cc3d c97a 273e
00000340: 63a0 613d 9dbd ba3d f5dc 65bd 5216 ae3e
00000350: f00f 7c3e f8cb 203e 5629 873e cb94 513e
00000360: 458b d83e 76a0 083e c8f6 5e3e bb93 94bd
00000370: fe5f 8f3e 90af c03d b084 573e e861 183e
00000380: 93c0 a73e af88 9a3d f0fd 543d 94cb 3b3e
00000390: dce9 8c3d f4bc 56bc eac3 1dbf 4ccd 6a3d
000003a0: d11e be3e 9604 a23e 6b87 2e3d 0b11 0d3e
000003b0: 526e f5bb 8a0b c13e a9db 0b3e 7571 d3ba
000003c0: 5b0e c83e 30e6 dfbd 5518 293e e505 3f3c
000003d0: 8ec4 5d3d 5610 0b3e ab32 693e 606c d43e
000003e0: 1e43 8c3e c77e 173e 3add 8c3c 6bf9 573e
000003f0: b559 763e 920b 3a3e aaa8 3a3a 17f1 ee3c

action_model._discrete_distribution.branches.1.bias f4 [2]
0.5464655 -0.5464646
00000000: 2ae5 0b3f 1be5 0bbf

exp_avg f4 [128, 52]
6.2951844e-06 6e-45 6e-45 6.374022e-05 6.350004e-05 4.1187054e-06 6e-45 -6e-45
6.4508065e-05 6.4550266e-05 1.6251837e-06 6e-45 6e-45 6.689578e-05 6.703629e-05 2.2666474e-07
6e-45 -6e-45 6.840012e-05 6.84e-05 -9.236079e-07 -6e-45 -6e-45 6.80401e-05
6.8481844e-05 1.6058948e-06 -6e-45 6e-45 6.702088e-05 6.701783e-05 2.5492668e-07 6e-45
6e-45 6.8371846e-05 6.842886e-05 -3.242596e-05 -6e-45 -6e-45 0.000101052734 0.000100782425
3.8307326e-06 -6e-45 -6e-45 6.479603e-05 6.485103e-05 2.6616292e-05 -2.3492656e-05 0.00011837965
0.00022580956 6.8626774e-05 0.0006118003 0.0001431594 -1.7683114e-05 -6e-45 -6e-45 0.00010699006
0.000107251006 -9.7545635e-06 -6e-45 6e-45 0.000100608326 0.0001005753 -1.772059e-05 -6e-45
-6e-45 0.00010753921 0.00010764159 2.5973081e-06 -6e-45 6e-45 8.825645e-05 8.826777e-05
-9.705357e-06 -6e-45 -6e-45 0.000101057434 0.00010087036 -4.0471195e-07 6e-45 -6e-45
9.1258466e-05 9.126074e-05 -4.4238755e-06 6e-45 6e-45 9.527763e-05 9.528765e-05 4.574528e-05
-6e-45 -6e-45 4.5108485e-05 4.5313416e-05 7.728698e-06 6e-45 -6e-45 8.312506e-05
8.3148894e-05 -1.6354761e-05 2.8330138e-05 -1.0657989e-05 0.0004617307 9.085376e-05 0.0008021124 0.00016095133
5.4131768e-08 -6e-45 -6e-45 2.4505945e-05 2.4530884e-05 -6.113462e-08 -6e-45 6e-45
2.469958e-05 2.4696568e-05 -3.9713054e-08 -6e-45 -6e-45 2.4709112e-05 2.4693698e-05 -2.431136e-09
-6e-45 6e-45 2.464087e-05 2.464032e-05 7.3333895e-09 -6e-45 -6e-45 2.4740435e-05
2.4710287e-05 -1.17055485e-07 6e-45 -6e-45 2.47555e-05 2.4752504e-05 -1.2571047e-08 6e-45
6e-45 2.4651026e-05 2.4649067e-05 1.9236742e-05 6e-45 -6e-45 5.4016955e-06 5.4794496e-06
2.3848377e-08 -6e-45 6e-45 2.4614603e-05 2.4614068e-05 -1.2967822e-05 6.460097e-06 -1.24033295e-05
4.3149044e-05 2.4638446e-05 0.00022153073 4.9195543e-05 1.5553564e-09 6e-45 -6e-45 -1.8498524e-05
-1.8498396e-05 1.9003561e-10 -6e-45 6e-45 -1.8497043e-05 -1.849713e-05 5.1986554e-10 -6e-45
-6e-45 -1.8497121e-05 -1.8497156e-05 9.81696e-10 -6e-45 6e-45 -1.8497833e-05 -1.8497822e-05
-2.0081707e-10 -6e-45 -6e-45 -1.849629e-05 -1.8496416e-05 -9.831835e-10 6e-45 6e-45
-1.8495863e-05 -1.8496245e-05 -1.6386463e-09 6e-45 6e-45 -1.8495211e-05 -1.849529e-05 5.590571e-05
-6e-45 -6e-45 -7.440256e-05 -7.405818e-05 -1.5052551e-09 6e-45 6e-45 -1.8495344e-05
-1.849537e-05 -3.7246173e-05 1.9996527e-05 -0.00011699275 -5.5841656e-06 -1.849684e-05 -0.00016647138 -3.6993544e-05
-3.6812384e-05 -6e-45 6e-45 0.00036311545 0.00036467068 -9.586478e-06 6e-45 -6e-45
0.00034533997 0.0003452539 -2.1132846e-05 6e-45 6e-45 0.00034578756 0.00034773673 6.614951e-06
6e-45 -6e-45 0.00032913865 0.00032912748 4.703753e-07 6e-45 6e-45 0.00033356433
0.00033394792 2.2124316e-06 6e-45 -6e-45 0.00033354113 0.0003335928 -1.0177912e-06 -6e-45
-6e-45 0.00033677134 0.00033631866 5.6600507e-05 6e-45 -6e-45 0.000279153 0.00027844598
-3.132191e-05 -6e-45 -6e-45 0.00036707552 0.00036661382 3.752859e-05 -5.303982e-07 0.00010289646
00000000: 393b d336 0400 0000 0400 0000 45ac 8538
00000010: 532b 8538 6933 8a36 0400 0000 0400 0080
00000020: 8148 8738 295f 8738 e320 da35 0400 0000
00000030: 0400 0000 664a 8c38 d695 8c38 2161 7334
00000040: 0400 0000 0400 0080 0972 8f38 f871 8f38
00000050: daed 77b5 0400 0080 0400 0080 c0b0 8e38
00000060: e99d 8f38 208a d735 0400 0080 0400 0000
00000070: 908d 8c38 ec8b 8c38 dbdc 8834 0400 0000
00000080: 0400 0000 db62 8f38 7781 8f38 1c01 08b8
00000090: 0400 0080 0400 0080 46ec d338 275b d338
000000a0: be89 8036 0400 0080 0400 0080 1be3 8738
000000b0: a200 8838 0d46 df37 1812 c5b7 9742 f838
000000c0: 4bc7 6c39 b8eb 8f38 3961 203a 0f1d 1639
000000d0: 3356 94b7 0400 0080 0400 0080 da5f e038
000000e0: f2eb e038 88a7 23b7 0400 0080 0400 0000
000000f0: affd d238 f4eb d238 ada6 94b7 0400 0080
00000100: 0400 0080 ac86 e138 a3bd e138 6a4d 2e36
00000110: 0400 0080 0400 0000 5216 b938 661c b938
00000120: 31d4 22b7 0400 0080 0400 0080 ccee d338
00000130: 5d8a d338 3047 d9b4 0400 0000 0400 0080
00000140: 0462 bf38 3d63 bf38 cd70 94b6 0400 0000
00000150: 0400 0000 cacf c738 2bd5 c738 9fde 3f38
00000160: 0400 0080 0400 0080 de32 3d38 e90e 3e38
00000170: 81aa 0137 0400 0000 0400 0080 6d53 ae38
00000180: 3960 ae38 9531 89b7 82a6 ed37 b7cf 32b7
00000190: 7214 f239 be88 be38 da44 523a 0bc5 2839
000001a0: 827e 6833 0400 0080 0400 0080 1e92 cd37
000001b0: acc7 cd37 1d49 83b3 0400 0080 0400 0000
000001c0: f231 cf37 7a2b cf37 f790 2ab3 0400 0080
000001d0: 0400 0080 6a46 cf37 5025 cf37 ff10 27b1
000001e0: 0400 0080 0400 0000 deb3 ce37 afb2 ce37
000001f0: 2df9 fb31 0400 0080 0400 0080 ae89 cf37
00000200: f048 cf37 ef5f fbb3 0400 0000 0400 0080
00000210: 08aa cf37 99a3 cf37 0df8 57b2 0400 0000
00000220: 0400 0000 adc9 ce37 78c5 ce37 975e a137
00000230: 0400 0000 0400 0080 3640 b536 1ddc b736
00000240: 23db cc32 0400 0080 0400 0000 757b ce37
00000250: 4f7a ce37 5f90 59b7 d0c3 d836 e517 50b7
00000260: effa 3438 a9ae ce37 b44a 6839 5057 4e38
00000270: 3dc4 d530 0400 0000 0400 0080 472d 9bb7
00000280: 012d 9bb7 45f2 502f 0400 0080 0400 0000
00000290: 192a 9bb7 492a 9bb7 49e6 0e30 0400 0080
000002a0: 0400 0080 442a 9bb7 572a 9bb7 5bec 8630
000002b0: 0400 0080 0400 0000 cb2b 9bb7 c52b 9bb7
000002c0: fbcc 5caf 0400 0080 0400 0080 7b28 9bb7
000002d0: c028 9bb7 b220 87b0 0400 0000 0400 0000
000002e0: 9027 9bb7 6228 9bb7 be36 e1b0 0400 0000
000002f0: 0400 0000 2a26 9bb7 5526 9bb7 4d7c 6a38
00000300: 0400 0080 0400 0080 9208 9cb8 af4f 9bb8
00000310: 75e1 ceb0 0400 0000 0400 0000 7326 9bb7
00000320: 8126 9bb7 c638 1cb8 37be a737 015a f5b8
00000330: 9e5f bbb6 a929 9bb7 d28e 2eb9 8429 1bb8
00000340: ff66 1ab8 0400 0080 0400 0000 8860 be39
00000350: 4531 bf39 9cd5 20b7 0400 0000 0400 0080
00000360: bf0e b539 3203 b539 7146 b1b7 0400 0000
00000370: 0400 0000 d24a b539 6f50 b639 fff5 dd36
00000380: 0400 0000 0400 0080 3e90 ac39 be8e ac39
00000390: e487 fc34 0400 0000 0400 0000 3fe2 ae39
000003a0: bb15 af39 4979 1436 0400 0000 0400 0080
000003b0: 22df ae39 11e6 ae39 0a9b 88b5 0400 0080
000003c0: 0400 0080 af90 b039 ed53 b039 5566 6d38
000003d0: 0400 0000 0400 0080 485b 9239 63fc 9139
000003e0: a55f 03b8 0400 0080 0400 0080 0b74 c039
000003f0: 1336 c039 0468 1d38 b060 0eb5 1eca d738

exp_avg_sq f4 [128, 52]
3.6937852e-08 1.6231878e-33 7e-43 1.800086e-07 1.8240294e-07 3.9064982e-08 1.1710552e-28 7e-43
1.7566869e-07 1.7746231e-07 4.059273e-08 7e-43 7e-43 1.8496884e-07 1.8656814e-07 4.9772737e-08
7e-43 7e-43 1.7060883e-07 1.7171571e-07 2.1483324e-08 7e-43 7e-43 2.0827622e-07
2.0862285e-07 3.0392904e-08 7e-43 7e-43 1.9607859e-07 1.9623768e-07 3.3603552e-08 7e-43
7e-43 1.9626535e-07 1.9635078e-07 3.992385e-08 7e-43 7e-43 1.9468212e-07 1.9491131e-07
4.4300382e-08 7e-43 7e-43 1.9119102e-07 1.9123277e-07 5.5360932e-08 7.091008e-08 1.06230615e-07
1.8895573e-05 2.3276023e-07 1.8431252e-05 7.7551726e-07 2.1309065e-08 9.058513e-34 7e-43 1.2691571e-07
1.2950711e-07 1.6176255e-08 3.2224228e-26 7e-43 1.420331e-07 1.4288202e-07 1.792601e-08 7e-43
7e-43 1.4559399e-07 1.4653136e-07 2.1095548e-08 7e-43 7e-43 1.4172886e-07 1.4234722e-07
1.3176326e-08 7e-43 7e-43 1.5113437e-07 1.5176228e-07 1.1753914e-08 7e-43 7e-43
1.5434266e-07 1.5448961e-07 1.32419276e-08 7e-43 7e-43 1.5617964e-07 1.563284e-07 1.6831581e-08
7e-43 7e-43 1.5467239e-07 1.5444392e-07 1.4855674e-08 7e-43 7e-43 1.5142624e-07
1.5150957e-07 3.8045194e-08 5.2007813e-08 6.8989415e-08 2.9449278e-05 1.7190413e-07 1.3273231e-05 6.2351205e-07
2.4150047e-08 6.327274e-33 7e-43 2.0761445e-07 2.103716e-07 2.284212e-08 3.1582016e-34 7e-43
2.2046565e-07 2.2176519e-07 1.6534274e-08 7e-43 7e-43 2.2950866e-07 2.298847e-07 3.1800464e-08
7e-43 7e-43 2.178949e-07 2.1853916e-07 1.3931442e-08 7e-43 7e-43 2.370258e-07
2.3746733e-07 2.0300382e-08 7e-43 7e-43 2.3023193e-07 2.3057676e-07 1.7020803e-08 7e-43
7e-43 2.3843094e-07 2.3867065e-07 2.9483907e-08 7e-43 7e-43 2.2663731e-07 2.2713824e-07
1.5471745e-08 7e-43 7e-43 2.3452615e-07 2.3469147e-07 4.024029e-08 7.182573e-08 1.2491137e-07
9.118737e-06 2.5921713e-07 2.0812957e-05 9.1318935e-07 7.203184e-09 1.31338305e-33 7e-43 2.2907898e-08
2.353451e-08 1.2695169e-08 7e-43 7e-43 2.148928e-08 2.1614193e-08 1.8014823e-09 7e-43
7e-43 3.092301e-08 3.098301e-08 1.5855456e-08 7e-43 7e-43 1.8472274e-08 1.858972e-08
1.5894335e-09 7e-43 7e-43 3.160911e-08 3.1735134e-08 1.4575297e-08 7e-43 7e-43
2.1469786e-08 2.1493298e-08 3.3723642e-09 7e-43 7e-43 3.193527e-08 3.193597e-08 1.1798171e-08
7e-43 7e-43 2.4180862e-08 2.4195426e-08 9.35071e-10 7e-43 7e-43 3.4632627e-08
3.4632375e-08 9.62811e-09 8.252344e-09 2.0534888e-08 1.4409243e-07 3.556123e-08 2.921392e-06 1.0369026e-07
1.0873468e-06 9.793245e-32 7e-43 1.3823487e-05 1.39457015e-05 2.148359e-06 7.705647e-27 7e-43
1.2604383e-05 1.2691677e-05 4.7346225e-07 7e-43 7e-43 1.4660778e-05 1.46932925e-05 6.191866e-06
7e-43 7e-43 9.343179e-06 9.416404e-06 1.1096158e-06 7e-43 7e-43 1.4102249e-05
1.4130668e-05 5.472022e-06 7e-43 7e-43 1.04043675e-05 1.04215205e-05 1.478933e-06 7e-43
7e-43 1.4132089e-05 1.4151432e-05 4.540141e-06 7e-43 7e-43 1.127996e-05 1.1387073e-05
1.7442368e-06 7e-43 7e-43 1.3872481e-05 1.38927735e-05 2.3211953e-06 4.382397e-06 8.731342e-06
00000000: 99a5 1e33 63d9 0609 f401 0000 6348 4134
00000010: 8ada 4334 67c8 2733 ea72 1411 f401 0000
00000020: 719f 3c34 788c 3e34 2e58 2e33 f401 0000
00000030: f401 0000 d99b 4634 7653 4834 b4c5 5533
00000040: f401 0000 f401 0000 9930 3734 db60 3834
00000050: 548a b832 f401 0000 f401 0000 88a2 5f34
00000060: d001 6034 5a89 0233 f401 0000 f401 0000
00000070: ac89 5234 67b5 5234 7f53 1033 f401 0000
00000080: f401 0000 02bd 5234 7ed4 5234 bd78 2b33
00000090: f401 0000 f401 0000 d009 5134 d048 5134
000000a0: c944 3e33 f401 0000 f401 0000 304a 4d34
000000b0: aa55 4d34 fdc5 6d33 3b47 9833 e620 e433
000000c0: ef81 9e37 a5ec 7934 d09c 9a37 242d 5035
000000d0: 210b b732 a782 9608 f401 0000 5346 0834
000000e0: a50e 0b34 f6f3 8a32 1091 1f15 f401 0000
000000f0: c381 1834 1c6b 1934 b6fb 9932 f401 0000
00000100: f401 0000 9254 1c34 3c56 1d34 9a35 b532
00000110: f401 0000 f401 0000 222e 1834 1bd8 1834
00000120: 185e 6232 f401 0000 f401 0000 8047 2234
00000130: 19f4 2234 43ee 4932 f401 0000 f401 0000
00000140: 63b9 2534 c8e1 2534 9d7e 6332 f401 0000
00000150: f401 0000 55b2 2734 39db 2734 0a95 9032
00000160: f401 0000 f401 0000 0614 2634 39d5 2534
00000170: f237 7f32 f401 0000 f401 0000 ba97 2234
00000180: a2ae 2234 2267 2333 325f 5f33 5527 9433
00000190: d809 f737 a694 3834 18b0 5e37 6c5f 2735
000001a0: 8472 cf32 8f69 030a f401 0000 a0ec 5e34
000001b0: 81e2 6134 5a36 c432 04e6 d107 f401 0000
000001c0: 23b9 6c34 5a1e 6e34 4107 8e32 f401 0000
000001d0: f401 0000 dc6e 7634 3ad6 7634 fb94 0833
000001e0: f401 0000 f401 0000 7ef6 6934 96a7 6a34
000001f0: 2157 6f32 f401 0000 f401 0000 2881 7e34
00000200: 86fa 7e34 0361 ae32 f401 0000 f401 0000
00000210: ac35 7734 7594 7734 2435 9232 f401 0000
00000220: f401 0000 b301 8034 a522 8034 cc43 fd32
00000230: f401 0000 f401 0000 9759 7334 49e3 7334
00000240: bae6 8432 f401 0000 f401 0000 0fd2 7b34
00000250: 80ff 7b34 abd4 2c33 9d3e 9a33 601f 0634
00000260: adfc 1837 882a 8b34 7c97 ae37 e521 7535
00000270: e07f f731 2339 da08 f401 0000 00c7 c432
00000280: ef28 ca32 f219 5a32 f401 0000 f401 0000
00000290: 6d97 b832 1daa b932 0698 f730 f401 0000
000002a0: f401 0000 36d0 0433 2e12 0533 8432 8832
000002b0: f401 0000 f401 0000 f6ac 9e32 3aaf 9f32
000002c0: 3873 da30 f401 0000 f401 0000 96c2 0733
000002d0: 264d 0833 d666 7a32 f401 0000 f401 0000
000002e0: 8f6c b832 43a0 b832 42bf 6731 f401 0000
000002f0: f401 0000 3329 0933 f829 0933 e8b0 4a32
00000300: f401 0000 f401 0000 47b6 cf32 4ed6 cf32
00000310: e383 8030 f401 0000 f401 0000 fabe 1433
00000320: b3be 1433 e068 2532 31c6 0d32 b264 b032
00000330: d3b7 1a34 fcbb 1833 220d 4436 53ac de33
00000340: f4f0 9135 473f fe0b f401 0000 6deb 6737
00000350: 55f8 6937 872c 1036 46a0 1814 f401 0000
00000360: 6a77 5337 56ee 5437 2830 fe34 f401 0000
00000370: f401 0000 90f7 7537 3683 7637 b9c3 cf36
00000380: f401 0000 f401 0000 a6c0 1c37 26fb 1d37
00000390: 1cee 9435 f401 0000 f401 0000 b398 6c37
000003a0: c212 6d37 509c b736 f401 0000 f401 0000
000003b0: 6b8e 2e37 17d8 2e37 c07f c635 f401 0000
000003c0: f401 0000 dc18 6d37 f06b 6d37 8457 9836
000003d0: f401 0000 f401 0000 0f3f 3d37 1b0b 3f37
000003e0: 851b ea35 f401 0000 f401 0000 dabd 6837
000003f0: 0215 6937 d5c5 1b36 810c 9336 d47c 1237
