VirtualAquarium/results/VirtualAquariumReproducao/VirtualAquarium/VirtualAquarium-738.onnx (onnx, 101016 bytes, 12 tensors)

action_model._continuous_distribution.log_sigma f4 [1, 3]
0	0xbc1ef68f	-0.009702339
1	0x3c02c55a	0.007981623
2	0xbc415f0b	-0.011802445

action_model._continuous_distribution.mu.bias f4 [3]
0	0x3aaf8273	0.0013390317
1	0x3abe6b24	0.001452778
2	0xbb95eb1a	-0.0045751454

action_model._continuous_distribution.mu.weight f4 [3, 128]
0	0xbc0a9f82	-0.008460881
1	0xbbbe77e1	-0.0058126305
2	0xbd31a953	-0.04337437
3	0xbc29db2f	-0.010367199
4	0xb9b191dd	-0.00033868747
5	0xbc7c1f13	-0.015388268
6	0x3b901aa8	0.004397709
7	0xbd13ae48	-0.03605488
8	0xbbea1d4d	-0.007144606
9	0x3c31936c	0.010838371
10	0x3c8bc77e	0.017062899
11	0xbc7d0921	-0.015444071
12	0xbb60f48f	-0.0034325456
13	0x388fa98b	6.850351e-05
14	0xbadef096	-0.0017008956
15	0x3cd489af	0.025944559
16	0x3c113cd3	0.008864599
17	0x3c3018a2	0.01074806
18	0x3c3b2595	0.0114225345
19	0xbb596da7	-0.003317693
20	0xbca76461	-0.020433607
21	0x3c9e3432	0.019311998
22	0x3c2da85e	0.010599224
23	0xbba6db00	-0.005092025
24	0x3bf74346	0.0075458614
25	0x3cc8816b	0.024475774
26	0xbc6d2d99	-0.014476203
27	0xbc526139	-0.0128405625
28	0xbac9c5dc	-0.001539405
29	0x3c2406b7	0.010011367
30	0x3ca8e8e0	0.020618856
31	0x3d0ee381	0.034884933
32	0xbd0ea5ee	-0.03482621
33	0xbbac85f4	-0.005264992
34	0x3c25bda1	0.010116012
35	0x3d218877	0.039436784
36	0x3d0f0fc0	0.03492713
37	0x3a494b69	0.00076787785
38	0x3c7a35ac	0.015271585
39	0xbb92a3c0	-0.004475087
40	0x3b999255	0.0046866336
41	0x3c441642	0.011968197
42	0x3c5485dc	0.012971368
43	0xbc7b02ae	-0.015320463
44	0x3b8c3b54	0.0042795334
45	0xbbf9e1e9	-0.0076258075
46	0xbcc8f6d2	-0.024531756
47	0xbca1e079	-0.019760357
48	0x3b6d95e3	0.003625267
49	0x3ca2a685	0.019854793
50	0x3c9d1ca6	0.0191787
51	0x3c8a001e	0.016845759
52	0x3c598010	0.013275161
53	0xbc1ea181	-0.00968206
54	0xbbcd1da0	-0.006259635
55	0x3bee7075	0.0072765895
56	0x3b4d2c19	0.0031306802
57	0x3cd1cd42	0.02561057
58	0x3c9a8498	0.018862054
59	0x3c963945	0.018337855
60	0xbb8fb73b	-0.0043858564
61	0xbca6c03c	-0.020355336
62	0xbd16e469	-0.036838923
63	0x3c659c31	0.01401429
64	0xbc9da509	-0.019243734
65	0x3c3b4d39	0.011431986
66	0xbc283b94	-0.010268111
67	0x3c9975af	0.018732874
68	0x3ce36137	0.027756317
69	0xbcbc7642	-0.023005608
70	0x3d3a46c1	0.045477632
71	0xbb0caa06	-0.0021463647
72	0x3c59bcbf	0.0132896295
73	0x3c92c557	0.017916365
74	0xbcb429f7	-0.021992667
75	0xbc7ba7e5	-0.015359853
76	0x3c9af03a	0.018913377
77	0x3a981154	0.0011601844
78	0x3b23cd0d	0.0024994046
79	0xbc850824	-0.016239233
80	0xbc70a6c5	-0.014688198
81	0x3cc1ec76	0.023672324
82	0x3ccd9eb3	0.025100088
83	0x3d2a36cd	0.04155617
84	0x3be27dd5	0.006911973
85	0x39d7420e	0.0004105721
86	0xba23b158	-0.0006244383
87	0x3d006d69	0.03135434
88	0xbc90e168	-0.017685607
89	0xbbe54c89	-0.006997649
90	0x3ccd2ec0	0.025046706
91	0x395f1df6	0.00021278099
92	0xbc585594	-0.013203997
93	0xbd2afc94	-0.041744784
94	0x3c8a39bd	0.016873235
95	0xbb867803	-0.004103662
96	0xbc0a542e	-0.008442922
97	0x3c75a384	0.014992598
98	0xbc8f4051	-0.017486723
99	0x3b90bad9	0.004416805
100	0xba13adbe	-0.00056334946
101	0xbd1c01c5	-0.038087625
102	0x3b254b31	0.002522182
103	0x3c961e72	0.018325064
104	0xbcc26d69	-0.023733811
105	0x3ba2dbcb	0.004970049
106	0x3caa9ed9	0.020827698
107	0x3b929aaf	0.004474006
108	0xbcf54219	-0.029938744
109	0xbb057bea	-0.0020368048
110	0xbcbbd1d2	-0.022927199
111	0xb9dd17b5	-0.00042170068
112	0x3cffd87c	0.031231157
113	0xbc834067	-0.01602192
114	0x3d0ad35d	0.033892978
115	0xbcd5e168	-0.026108459
116	0xbb603361	-0.0034210312
117	0xbc7acaee	-0.015307171
118	0xbabf14d1	-0.0014578347
119	0x3c931193	0.017952716
120	0xbbaa831e	-0.0052036187
121	0xbc113dbc	-0.008864816
122	0xbb60ca75	-0.0034300361
123	0x3c5a6629	0.013330021
124	0xbc1a37b7	-0.0094126975
125	0x3cff6576	0.03117631
126	0xbb6d8ed8	-0.0036248472
127	0x3c077306	0.00826717
128	0xbd217ef2	-0.039427705
129	0x3bb290aa	0.005449374
130	0x3a01caed	0.0004951198
131	0x3ce1c33a	0.027558912
132	0x3b8fb1c8	0.004385207
133	0x3bb25b74	0.005443031
134	0xbca798a6	-0.02045853
135	0xbbbd60ed	-0.0057793767
136	0xbbc00921	-0.0058604633
137	0xbbe9243e	-0.007114916
138	0x3b829d67	0.003986049
139	0x3bad37c5	0.0052861893
140	0xbc4fb506	-0.012677437
141	0xbd1f7e17	-0.038938608
142	0x3a9d2efa	0.001199215
143	0xbb7fc241	-0.0039025696
144	0xbb1e6c82	-0.0024173562
145	0x3c352398	0.0110558495
146	0xbaad546c	-0.0013224012
147	0xbd5c046a	-0.053715147
148	0x3cc4eab3	0.024037695
149	0xbc1f3e4b	-0.009719442
150	0xbbaa3d68	-0.0051953085
151	0xbc0c5a83	-0.008566502
152	0xbc48c4c5	-0.012253945
153	0x3badc760	0.0053033084
154	0x3c002d4a	0.007823298
155	0x3caccce4	0.021093793
156	0x39aa42a4	0.00032474578
157	0x3ce832c8	0.028344527
158	0x3c57ccc4	0.0131713785
159	0x3b9af2ca	0.0047286497
160	0x3c3a2ee5	0.01136372
161	0x3c802aab	0.015645346
162	0xbab95f18	-0.001414272
163	0xbb9bb3b1	-0.0047516455
164	0x3c122f59	0.008922421
165	0x3d0574e2	0.03258217
166	0xbc15d331	-0.00914459
167	0xbc350cdf	-0.011050432
168	0xbb261cef	-0.0025346836
169	0xbca813b4	-0.020517208
170	0xbae4db5b	-0.0017460393
171	0x3c0a4c15	0.008440991
172	0xbbfe24cf	-0.007755853
173	0x3bb90bbb	0.0056471503
174	0x3af635be	0.0018784327
175	0x3c0003e6	0.007813429
176	0xbc9c4589	-0.019076126
177	0x3be47e57	0.0069730687
178	0x3a2f1f24	0.00066803605
179	0xbc3cb78b	-0.011518369
180	0xbc77992a	-0.015112201
181	0xbca29724	-0.01984746
182	0xbc24629d	-0.010033277
183	0x3d0667f4	0.03281398
184	0x3c3d4efe	0.011554478
185	0x3d0ad926	0.033898495
186	0xbcea1a8c	-0.028577112
187	0x3c633048	0.013866492
188	0xbb6e63c6	-0.0036375388
189	0xbc913fc4	-0.017730601
190	0x3cb48d10	0.02203992
191	0xbc532e8a	-0.012889514
192	0xbb258a23	-0.0025259338
193	0x3cca014b	0.02465882
194	0xbb6ae225	-0.003584036
195	0xbc972a15	-0.018452683
196	0x3b9e0f37	0.004823591
197	0xbc21c896	-0.009874484
198	0x3b93ef9d	0.004514648
199	0x3c4a509a	0.0123483185
200	0x3c8755cc	0.016520403
201	0xbc089d07	-0.0083382195
202	0xbc130515	-0.00897338
203	0x3ccc066c	0.024905406
204	0x3bfd74dd	0.0077348785
205	0x3ab39047	0.0013699614
206	0xbce8f34a	-0.028436322
207	0xbc646462	-0.013939949
208	0xbc02ec72	-0.007990943
209	0x3cdcb4f8	0.026941761
210	0xbcd7c3c6	-0.02633847
211	0xbb6b448c	-0.0035899011
212	0x3cf6bbdb	0.030118873
213	0xba2dd0b2	-0.00066305243
214	0x3bb1114c	0.0054036733
215	0x3bc5bc59	0.0060344157
216	0xbc0b725f	-0.008511155
217	0x3cc69abd	0.024243707
218	0x3d3f4537	0.046696868
219	0xbbf279fe	-0.0073997965
220	0xbd17e7f0	-0.037086427
221	0xbb3de888	-0.002897771
222	0xbbf4cca9	-0.0074706865
223	0x3b9bae3f	0.0047509964
224	0xbb9af132	-0.0047284598
225	0xbcf07b24	-0.029355593
226	0xbcb6ae15	-0.022299806
227	0x3b40bd28	0.002940962
228	0xbc92554d	-0.01786294
229	0xbc89d264	-0.016823955
230	0xbcbeadd8	-0.023276255
231	0xbcc2e558	-0.023791
232	0x3c04c7ff	0.008104323
233	0x3aaaaafa	0.0013020926
234	0xba0d7b1c	-0.0005397068
235	0x3cd382cd	0.025819207
236	0x3c9a89d8	0.018864557
237	0x3c06923f	0.008213579
238	0xbd2b75b7	-0.04186031
239	0xbb658820	-0.0035023764
240	0x3b8ff4ab	0.0043931804
241	0x3d6d60a8	0.057953507
242	0xba408f21	-0.00073455466
243	0x3af36113	0.0018568359
244	0xba4f3901	-0.00079049176
245	0xbac79473	-0.0015226736
246	0xbcdb7f9e	-0.026794251
247	0xbccfb54d	-0.025355006
248	0xbb01b30b	-0.0019790556
249	0x3b1be48a	0.0023787343
250	0x3c95abf1	0.018270465
251	0x3c89d123	0.016823357
252	0x3add4d9b	0.001688409
253	0x3cf9c401	0.03048897
254	0x3c02a91d	0.00797489
255	0x3c618a15	0.0137658315

action_model._discrete_distribution.branches.0.bias f4 [2]
0	0x3bcfd016	0.0063419444
1	0xbbcfd017	-0.006341945

action_model._discrete_distribution.branches.0.weight f4 [2, 128]
0	0x3beeaed9	0.007284027
1	0x3cc8c724	0.02450902
2	0x3c54c10c	0.012985479
3	0xbab9f890	-0.0014188457
4	0xbc1080de	-0.008819787
5	0xbc82f67d	-0.015986675
6	0xbc265b75	-0.010153641
7	0xbc51d83e	-0.012807904
8	0xbbe2582a	-0.0069074826
9	0x3ab8b518	0.0014092056
10	0xbc0f7286	-0.008755332
11	0x3bc5c29e	0.006035163
12	0xbbdbc3c9	-0.006706689
13	0xbb4fbdd5	-0.0031698842
14	0x3c43f8c0	0.011961162
15	0xbbeda057	-0.00725178
16	0xbcc074b8	-0.023493156
17	0x3be749a8	0.007058341
18	0xbc4cfd3d	-0.012511549
19	0xbc019583	-0.0079091815
20	0x3c281425	0.010258709
21	0xbaf9b63c	-0.0019051502
22	0xbbb5be01	-0.005546332
23	0xbc2fb8b1	-0.010725186
24	0xbad68c7c	-0.0016368772
25	0x3c10d87f	0.008840679
26	0x3c7df600	0.0155005455
27	0x3b07037b	0.002060144
28	0xbc4a9b7e	-0.012366174
29	0xb94f7748	-0.00019785494
30	0x3bb3912e	0.0054799533
31	0x3c961a33	0.01832304
32	0x3b5f81d9	0.0034104495
33	0xbcfb1ef4	-0.030654408
34	0xbb80c57d	-0.0039297924
35	0x3b7af2d1	0.0038291703
36	0x3c2244c6	0.009904092
37	0x3c5b3e93	0.013381618
38	0xbbb75b53	-0.0055956035
39	0xbbdaebc3	-0.006680937
40	0xbb078c99	-0.0020683168
41	0xbbf7de59	-0.0075643477
42	0xba8f585b	-0.0010936366
43	0xbc57cde6	-0.013171649
44	0xbb1f3406	-0.0024292483
45	0x3ca34cfd	0.019934172
46	0x3bebe797	0.0071992385
47	0x3b9f25c3	0.0048567965
48	0xbbac9b22	-0.0052675167
49	0xbb9b77dd	-0.0047445134
50	0x3c5a12dd	0.013310161
51	0xbc53a306	-0.012917286
52	0xbb782ee9	-0.0037869758
53	0xbc8c9770	-0.017162055
54	0x3b8383b5	0.0040135034
55	0xbc1183a8	-0.008881487
56	0xbb2c006d	-0.002624537
57	0xbad060bc	-0.001589797
58	0xbb922cc4	-0.004460903
59	0x3c07221c	0.008247878
60	0xbc1f4a16	-0.009722253
61	0xbc166a91	-0.009180681
62	0xbcaa2ff2	-0.020774815
63	0xbc8382e3	-0.016053623
64	0x3ac7af69	0.0015234771
65	0xbc34e1f4	-0.0110402
66	0xbcf792ee	-0.030221429
67	0x3c63a2ff	0.013893842
68	0x3c0d2e86	0.008617049
69	0xbb4f4f74	-0.003163305
70	0x3aa41d5d	0.0012520958
71	0x3ce0e100	0.027451038
72	0xbb67c0a8	-0.0035362635
73	0x3c2fe412	0.010735529
74	0xbb919986	-0.0044433502
75	0xba5dd626	-0.00084623916
76	0x3c324163	0.010879847
77	0x3bae0b07	0.005311373
78	0x3cc3935e	0.023873981
79	0x3c4d4172	0.01252781
80	0x3b971a03	0.004611255
81	0xbba48452	-0.0050206566
82	0x3a0d925d	0.0005400533
83	0x39fadf20	0.00047849957
84	0x3b03fc72	0.0020139483
85	0xbca0fcaf	-0.019651739
86	0x3c68278b	0.014169584
87	0xbaab2776	-0.0013058025
88	0xbcb0fb55	-0.02160422
89	0xbba36757	-0.0049866843
90	0x3ba5182e	0.005038283
91	0x3c344705	0.0110032605
92	0x3a29310f	0.00064541487
93	0xbcd115a1	-0.025523009
94	0x3c072a3c	0.008249816
95	0xb8bbd4de	-8.9565045e-05
96	0xbba5ca15	-0.0050594904
97	0x3b8dbb6d	0.0043253214
98	0xbc12d689	-0.008962282
99	0x3a6079dd	0.0008563081
100	0x3b74e66a	0.0037368783
101	0xbbc35076	-0.0059605194
102	0xbc6068b3	-0.013696837
103	0x3c640908	0.013918169
104	0xbc99c767	-0.01877184
105	0xbc3348bd	-0.010942635
106	0x3ca865e7	0.020556403
107	0xbc328516	-0.010895988
108	0xbc13a88a	-0.009012351
109	0x3b5f697b	0.003408997
110	0x3c47719a	0.012173081
111	0xbc2bf22c	-0.01049475
112	0x3cbf090d	0.023319745
113	0xbbbd1566	-0.005770373
114	0xbc1b6ac8	-0.009485908
115	0xb8923afd	-6.97281e-05
116	0xbb1c8c59	-0.0023887365
117	0x3ad6074e	0.0016329081
118	0x3b8810e0	0.0041524023
119	0xbc140734	-0.0090349205
120	0x3bdd2b6b	0.0067495606
121	0xbb7f4c2f	-0.003895532
122	0x3c178814	0.009248752
123	0x3c245261	0.010029406
124	0xbb42111d	-0.002961225
125	0x3c4e0c50	0.012576178
126	0xbab2b9eb	-0.001363573
127	0x3c454d11	0.0120423
128	0xbb828c18	-0.0039839856
129	0xbb5e4087	-0.0033912973
130	0xbbf3daf2	-0.007441872
131	0x3b8c1ac7	0.004275653
132	0xbb1162a4	-0.0022184039
133	0x39a14f87	0.00030767565
134	0xbbae92c1	-0.005327553
135	0xbb09658b	-0.0020965065
136	0x3bf3bb6a	0.007438113
137	0x39f0ab7d	0.00045904136
138	0xbbd78dfe	-0.006578206
139	0x3a09811a	0.0005245373
140	0x3c6b465e	0.014360039
141	0x3c98cbf7	0.018651946
142	0xbb23907c	-0.0024957946
143	0xbb04fd1b	-0.0020292464
144	0x390188bc	0.00012353336
145	0xbc49ac5d	-0.012309161
146	0x3c7323bb	0.014840062
147	0xbb357236	-0.0027686483
148	0x3a19cf50	0.0005867379
149	0x3b8cb5f4	0.0042941514
150	0x3bae5749	0.005320464
151	0xb988ab95	-0.0002606778
152	0x3b032535	0.002001119
153	0xbc2425e1	-0.010018797
154	0xbbc7928b	-0.0060904673
155	0x3b626561	0.003454529
156	0x3b9c8f4a	0.0047778236
157	0xbc33ffa8	-0.010986246
158	0xbc669137	-0.014072708
159	0x3c1353b4	0.008992124
160	0xbb978510	-0.0046240166
161	0xbae0c60c	-0.0017148866
162	0x3c09b475	0.008404841
163	0xbc808cce	-0.01569214
164	0x3b86a35d	0.00410883
165	0x3b225d13	0.0024774715
166	0x3c21720f	0.009853854
167	0x3bb913d4	0.0056481156
168	0x3aa2d7e0	0.0012423955
169	0xbb410c3e	-0.002945676
170	0xbc5d5332	-0.013508605
171	0x3bf85a37	0.007579114
172	0x3c8ee4bd	0.017443055
173	0xbbd99c54	-0.00664095
174	0x3c34cd75	0.011035313
175	0x3cb0ae35	0.021567443
176	0xbbbd0f0a	-0.005769615
177	0xbc352a0f	-0.011057391
178	0xba2f6d9c	-0.0006692053
179	0xba344906	-0.00068773364
180	0x3c30c906	0.010790115
181	0xb8d4281c	-0.00010116419
182	0x3b7daad7	0.0038706565
183	0x3c9b8c66	0.018987846
184	0x3cf14975	0.029453972
185	0x3b98a950	0.0046588555
186	0x3c361993	0.011114496
187	0xbc6aa547	-0.014321632
188	0xbba46e07	-0.005017999
189	0x3c7130e7	0.014721132
190	0x3b8ce796	0.004300068
191	0x3c99ca26	0.01877315
192	0x3c2b411e	0.010452537
193	0x3b7cb9a3	0.0038562797
194	0x3c96b062	0.018394653
195	0xbc1f897b	-0.009737368
196	0xbce18a24	-0.02753169
197	0xbb987eeb	-0.0046538017
198	0x3c12e03b	0.0089645935
199	0x3b24a052	0.0025119972
200	0xbb1982c4	-0.002342389
201	0xbc5ed6e3	-0.013601038
202	0xbc156ef2	-0.00912069
203	0xbb642d4e	-0.0034817043
204	0xbc4913a0	-0.012272745
205	0xbcd0ec03	-0.025503164
206	0x3bf9c580	0.007622421
207	0x3bf0b679	0.007345971
208	0xbbb36ed6	-0.005475859
209	0xbc395acc	-0.011313152
210	0xbc55bd4a	-0.013045618
211	0xba936399	-0.0011244892
212	0x3c2da963	0.010599467
213	0xbb8fe8cf	-0.0043917666
214	0x3bb6cbed	0.005578509
215	0x3afee3e7	0.0019446582
216	0xb96952d2	-0.00022251465
217	0x3c0146e7	0.00789044
218	0xbc80a89a	-0.015705395
219	0xba5d4678	-0.00084409816
220	0xbc16bae7	-0.009199834
221	0xbc1d63a6	-0.009606278
222	0xbc82579d	-0.015910918
223	0xbb444daa	-0.0029953518
224	0xbc60453d	-0.013688383
225	0xbc87878a	-0.016544122
226	0x3be49e64	0.0069768894
227	0x3c82578b	0.015910884
228	0xbb423520	-0.0029633716
229	0xb9c61d38	-0.00037787273
230	0x3bc71294	0.0060752127
231	0x3c39296d	0.011301381
232	0x3c7563d5	0.014977415
233	0xbc516591	-0.012780563
234	0x3b0d224a	0.002153533
235	0x3c1fc46b	0.00975142
236	0x3c273b3e	0.0102069955
237	0xbc1a966d	-0.009435278
238	0xbbf848af	-0.007577024
239	0xb844fedd	-4.69674e-05
240	0xbcd7847d	-0.026308293
241	0x3bc04bb2	0.0058683986
242	0xbb95e96e	-0.004574946
243	0xbca25a21	-0.019818367
244	0xba64c090	-0.0008726204
245	0x3b990246	0.0046694605
246	0x3b9ac3b7	0.004723038
247	0x3c273ddb	0.010207619
248	0x3b970088	0.0046082176
249	0x3b3a55e7	0.002843255
250	0x3b9b2ef0	0.00473582
251	0x3bb38292	0.0054782117
252	0xbbce5694	-0.006296942
253	0xbc828106	-0.015930664
254	0x3bf5a8f6	0.0074969484
255	0xbc8598cc	-0.01630821

action_model._discrete_distribution.branches.1.bias f4 [2]
0	0xbc14c083	-0.0090791015
1	0x3c14c082	0.009079101

action_model._discrete_distribution.branches.1.weight f4 [2, 128]
0	0xbbdc0676	-0.0067146374
1	0xbc3c3f50	-0.011489704
2	0x3ba1799c	0.004927827
3	0xbbe10598	-0.006867122
4	0x3c679430	0.014134452
5	0x3c661d54	0.014045078
6	0x3bf2a0c3	0.007404418
7	0x3bd6472b	0.0065392456
8	0x3bd134b7	0.006384458
9	0xbc20ef05	-0.009822612
10	0x39de255c	0.00042370975
11	0xbc213ddb	-0.009841408
12	0x3c11c56a	0.008897165
13	0x3c129dd7	0.008948765
14	0x3b80c65c	0.0039298963
15	0x3b422e4b	0.0029629644
16	0x3c4cf96a	0.012510637
17	0xbc6bd976	-0.014395108
18	0x3c474017	0.012161276
19	0x3c2695d5	0.010167559
20	0xbc377582	-0.01119745
21	0x3ca61133	0.020271873
22	0xbc547014	-0.012966175
23	0x3bd74e84	0.006570639
24	0x382ac560	4.071498e-05
25	0xbc08daab	-0.008352916
26	0xbc09ef80	-0.008418918
27	0xbae3854c	-0.0017358451
28	0x3bf9e5c1	0.0076262658
29	0xbaaa0399	-0.0012971043
30	0x3c8c8911	0.017155202
31	0xbbae3a69	-0.0053170216
32	0xbb892610	-0.0041854456
33	0x3bf4153e	0.0074488213
34	0xbc17e767	-0.009271479
35	0xb9687e49	-0.00022172289
36	0xbc33d6b5	-0.010976483
37	0xbc63ef11	-0.013911978
38	0x3c214b39	0.009844595
39	0x3c22401a	0.009902978
40	0xbb0eecfa	-0.002180873
41	0x3c16ed34	0.009211827
42	0xbc95be49	-0.018279212
43	0x3c591cc3	0.013251486
44	0x3c920fd4	0.017829813
45	0xbca230d7	-0.01979868
46	0x3c29cd5d	0.010363904
47	0x3ca66c2e	0.020315256
48	0xbbddbee1	-0.0067671393
49	0x3bbe5229	0.005808134
50	0x3ceec149	0.0291449
51	0xbc245864	-0.01003084
52	0xbb4e4ce6	-0.003147894
53	0xbc134641	-0.008988918
54	0xbbe5ec0d	-0.007016665
55	0x3ca11a98	0.019666001
56	0x3bb0141e	0.005373492
57	0xbcd42e97	-0.025901122
58	0x39ec541a	0.00045076088
59	0x3b3c94c7	0.0028775202
60	0xbb1327af	-0.0022454073
61	0x3c210fec	0.009830456
62	0x3cc0b3bb	0.023523202
63	0x3c838103	0.016052729
64	0x3c0196cc	0.007909488
65	0x3c4a4ec0	0.012347877
66	0x3c527503	0.012845281
67	0xbbb70e71	-0.0055864383
68	0xbaa5150a	-0.0012594771
69	0xbbea1f86	-0.007144871
70	0x3cc0b668	0.023524478
71	0xbc279c91	-0.010230199
72	0x3c1b8bf5	0.009493818
73	0x3b847838	0.0040426515
74	0xbc71c1fd	-0.014755723
75	0xbb151572	-0.0022748378
76	0xbbc694a3	-0.0060601993
77	0xbbf85b75	-0.007579262
78	0x391e39c3	0.00015089572
79	0x3c325836	0.010885289
80	0xba69bcd2	-0.0008916381
81	0xbcb00fc4	-0.021491893
82	0xbbc485aa	-0.0059973793
83	0xba0a420a	-0.0005274123
84	0x3c98a85f	0.018634973
85	0x3c23da45	0.01000077
86	0x3826a2d7	3.972914e-05
87	0xba9a6f18	-0.0011782376
88	0x3b800206	0.003906491
89	0x3c31c967	0.010851241
90	0xbc06fed1	-0.008239464
91	0xbba560f0	-0.0050469562
92	0xbc1817c2	-0.009283008
93	0x3c609c8b	0.013709198
94	0xbc46385f	-0.012098401
95	0xbbb4182b	-0.005496045
96	0xbc46fe15	-0.012145539
97	0xbc42b16a	-0.011883119
98	0x3a917e17	0.00111002
99	0x3bda5095	0.006662438
100	0xb9ca855d	-0.00038627806
101	0xb9a880c0	-0.00032139383
102	0x3c186444	0.009301249
103	0x3c161612	0.009160535
104	0x3a1c71f2	0.0005967907
105	0x3b39b832	0.0028338549
106	0xbcb9ac5f	-0.0226652
107	0x3c7f0119	0.015564227
108	0x3c0db5ef	0.008649333
109	0xbb553322	-0.0032531698
110	0xbcb847db	-0.0224952
111	0x3c34c091	0.0110322395
112	0x3bedeb4a	0.0072607147
113	0xbc759d2c	-0.014991086
114	0x3c8c9ac5	0.017163644
115	0x3b95351a	0.0045534493
116	0x3c0c9640	0.008580744
117	0xbc271031	-0.010196731
118	0xbb2e32d6	-0.0026580594
119	0xbbd1a059	-0.0063972888
120	0x3ae37011	0.0017352124
121	0x3a332c4f	0.00068349106
122	0x3c5ec5e7	0.013596988
123	0x3a1f7619	0.00060829666
124	0xbabd4cd7	-0.0014442456
125	0x3b912ad9	0.0044301567
126	0xbbe88ef4	-0.0070971195
127	0xbc8cb3bb	-0.017175546
128	0x3c14f4f0	0.009091601
129	0x3c784667	0.015153504
130	0xbbe99be3	-0.007129179
131	0xbc820587	-0.015871776
132	0xbc850bc7	-0.016240967
133	0xbbebe8ac	-0.0071993675
134	0xbbbbee81	-0.005735219
135	0xbc61dbee	-0.0137853455
136	0xbc4d2e92	-0.01252331
137	0xba864ba7	-0.0010245935
138	0x3b41a6bb	0.0029548842
139	0xb8050fdf	-3.1724452e-05
140	0xbc2b8eb5	-0.010471036
141	0x3b74a4d4	0.003732969
142	0xbac29b0c	-0.0014847233
143	0xbca01bdd	-0.019544536
144	0xba2e1902	-0.00066412997
145	0x3c9733c3	0.0184573
146	0xbc7e2261	-0.015511126
147	0x3c0297f6	0.007970801
148	0x3ca24628	0.019808844
149	0xbc38abcc	-0.011271428
150	0x3b8fe0d8	0.004390817
151	0xbc966002	-0.018356327
152	0xbace0f0f	-0.001572104
153	0x3cb64077	0.022247536
154	0x3c2f9ac1	0.010718049
155	0xbc98720b	-0.018609067
156	0xbb57d409	-0.003293278
157	0x3c0d68a8	0.008630909
158	0xbc520c91	-0.012820379
159	0x3a492663	0.00076732616
160	0x3c90e1bf	0.01768577
161	0xbcca21fb	-0.024674406
162	0x3b29f018	0.002593046
163	0x3b012663	0.0019706718
164	0x3bdc392f	0.006720684
165	0x3b32ab2f	0.0027262678
166	0xbc983ab7	-0.018582685
167	0xbc501b29	-0.012701788
168	0x3a171a81	0.0005764142
169	0xbbcd594d	-0.006266749
170	0x3c8cc105	0.017181883
171	0xbc087b16	-0.008330127
172	0xbb6cdd71	-0.0036142732
173	0x383bf8b7	4.4815908e-05
174	0xbbcfd330	-0.006342314
175	0xbc18d7b4	-0.009328771
176	0xb9908e36	-0.00027571776
177	0x3c015461	0.007893653
178	0x3c287391	0.010281459
179	0x3bccbd99	0.0062481877
180	0xbc39376a	-0.011304716
181	0xbc5869b0	-0.013208792
182	0xbc30a453	-0.010781365
183	0xbcb549ed	-0.022129977
184	0xbb86d19a	-0.004114342
185	0xbbd31bb6	-0.0064425124
186	0xbb5a1d42	-0.00332816
187	0xbb074fee	-0.0020647007
188	0x39c65212	0.0003782665
189	0xbbaa61c6	-0.005199644
190	0xbc5a84bf	-0.013337313
191	0xbcca0689	-0.02466132
192	0xbcc55ab3	-0.0240911
193	0x3c43ff30	0.011962697
194	0xbcc737f4	-0.024318673
195	0x3b325b82	0.0027215187
196	0xbc10900c	-0.008823406
197	0xbb09d891	-0.0021033625
198	0xbbd168ca	-0.0063906657
199	0x3c5bfbd1	0.013426737
200	0x3c749cc3	0.014929953
201	0x3afbdb5a	0.0019215152
202	0x3bbb47f0	0.0057153627
203	0x3cafc4ac	0.021456085
204	0x3be4e666	0.0069854734
205	0x3abd78b2	0.0014455526
206	0x3bca874c	0.0061806794
207	0xbc878cbb	-0.016546598
208	0xbc95054b	-0.018191
209	0x3c1ee0fc	0.009697195
210	0x3c1acdac	0.00944845
211	0x3c4e5336	0.012593081
212	0xbc6ca364	-0.014443252
213	0xbc81e62b	-0.015856823
214	0x3be23048	0.006902728
215	0x3c044f6c	0.008075576
216	0xbc5f686d	-0.013635737
217	0xbc5f089a	-0.013612891
218	0x3be91b37	0.00711384
219	0xbbbbaeee	-0.0057276404
220	0x3c51850c	0.0127880685
221	0xbcdd73cb	-0.027032753
222	0x3c88c109	0.016693609
223	0xbc85022f	-0.016236393
224	0x3bef7f48	0.0073088743
225	0x3a83a94f	0.0010044965
226	0xbbeb1287	-0.0071738395
227	0xbc321463	-0.010869118
228	0x3c26c5e4	0.010179017
229	0x3bf22cd0	0.007390596
230	0xbc26a9d2	-0.010172324
231	0xbcad2b31	-0.02113876
232	0x39e1c585	0.00043062508
233	0x3aa1487d	0.0012304928
234	0xbb8f03ab	-0.004364451
235	0xbc2f7293	-0.010708469
236	0xbb2a5332	-0.002598953
237	0x3b3fd4e5	0.0029271182
238	0x3bbacf3e	0.0057009747
239	0xbc01722a	-0.007900754
240	0x3be8b11a	0.0071011903
241	0x3c2c5a35	0.010519554
242	0xbc82341b	-0.015893986
243	0x3bea5fa5	0.007152515
244	0x3c266ca1	0.010157735
245	0xbc068b69	-0.008211949
246	0x3c002e48	0.007823534
247	0x3bd71989	0.0065643233
248	0xbbfecf2d	-0.007776162
249	0xbc8417c4	-0.016124614
250	0xbc4d6317	-0.012535832
251	0xbc064810	-0.008195892
252	0x3b82dde1	0.003993735
253	0x3b28fbff	0.0025784967
254	0x3b92ed17	0.0044838297
255	0xb8c2c493	-9.287256e-05

discrete_action_output_shape f4 [1, 2]
0	0x40000000	2.0
1	0x40000000	2.0

network_body._body_endoder.seq_layers.0.bias f4 [128]
0	0xbb4095ef	-0.0029386242
1	0x3a267499	0.0006349772
2	0xba150249	-0.00056842394
3	0xbb804126	-0.0039140163
4	0xbbc70f5e	-0.00607483
5	0x3b54680f	0.0032410657
6	0xbb4f4194	-0.003162478
7	0xbc59594d	-0.01326592
8	0x3ad9ea47	0.0016625606
9	0x3b1d2efb	0.0023984301
10	0xbaa93617	-0.0012909797
11	0xbaf12924	-0.0018399102
12	0x3b34eb24	0.0027605975
13	0x3bd7c696	0.0065849526
14	0x3baa4c62	0.005197094
15	0xbb860d38	-0.0040909313
16	0x3c11b1ed	0.0088925185
17	0x3bad1605	0.005282166
18	0x3b18ea5b	0.0023333046
19	0x3b8c7418	0.0042863004
20	0x3bb2b5fc	0.005453823
21	0x3a1e1d56	0.0006031593
22	0xbb2d2c2c	-0.0026424034
23	0x3c4a88db	0.01236173
24	0xba25e836	-0.00063288526
25	0x3892faf5	7.008567e-05
26	0x3b45d0a0	0.0030184165
27	0x3b993280	0.0046752095
28	0x3aa7ea2f	0.0012810881
29	0x3a7dcaca	0.0009681402
30	0xbb0ff47d	-0.0021965795
31	0x3aab6f9a	0.0013079525
32	0xba9f3676	-0.0012146968
33	0xbad79789	-0.0016448359
34	0x3aaef8e1	0.0013349318
35	0xbbb56293	-0.0055354326
36	0x3b4d42ed	0.0031320408
37	0x3b5cb097	0.0033674592
38	0x3b02e469	0.001997257
39	0x3b0f2288	0.002184065
40	0xbb95dd4a	-0.004573499
41	0x3b8dfcc2	0.0043331096
42	0x3b9ce4a4	0.0047879983
43	0x3ab254fc	0.001360565
44	0x3a80bf9b	0.0009822728
45	0xbabcde37	-0.0014409487
46	0xbb9d6915	-0.0048037865
47	0x3af87b41	0.0018957631
48	0xb905b28a	-0.0001275038
49	0xbbb214f4	-0.0054346267
50	0x39d38c00	0.00040349364
51	0x3a989b70	0.0011643004
52	0x3b7501de	0.0037385146
53	0x3b20ad14	0.0024517225
54	0xbaa32852	-0.001244793
55	0x3b167cd2	0.0022962582
56	0x3aa8ccf4	0.0012878464
57	0x3ba23355	0.004949967
58	0xbb1a79b1	-0.002357107
59	0x3b9bc532	0.004753732
60	0x3b733b45	0.0037114185
61	0xbb43a03a	-0.002985014
62	0xbb0d3792	-0.0021548015
63	0x3c387509	0.011258372
64	0xbc095e32	-0.008384274
65	0x3ae26378	0.0017272076
66	0x38adbc63	8.2843726e-05
67	0x3b364013	0.0027809187
68	0x3b55a581	0.0032599869
69	0xba61fdf6	-0.0008620912
70	0xbc1858bc	-0.0092985
71	0x3bbfefc6	0.0058574406
72	0x39d29914	0.00040168373
73	0xb8312ee5	-4.2243762e-05
74	0xbbb3afb2	-0.005483591
75	0x3b66e30a	0.003523054
76	0xba91f660	-0.0011136048
77	0x3afac9e7	0.0019133658
78	0xb9a93f59	-0.0003228139
79	0xbb73b514	-0.0037186788
80	0x39fe6739	0.00048523562
81	0xbbcf165c	-0.006319804
82	0x3ac72d91	0.0015196075
83	0xbb9840f6	-0.004646416
84	0xbb4bceb4	-0.0031098546
85	0x3bb6603b	0.005565671
86	0x3a8e23d4	0.0010844418
87	0x3b88c848	0.004174266
88	0xbb51aafe	-0.0031992788
89	0x3bdd49a8	0.0067531653
90	0xba932714	-0.0011226856
91	0x3bd069ab	0.006360253
92	0x3b9ee4e3	0.0048490628
93	0x3b07b6d6	0.0020708344
94	0x3b38f58b	0.0028222527
95	0xba583589	-0.00082477235
96	0x3ba11ce4	0.004916774
97	0x3ae78388	0.0017663101
98	0x3b31c9a0	0.0027128235
99	0xba9f6f05	-0.0012163824
100	0xbafd4a51	-0.0019324516
101	0x3b2e0491	0.0026553015
102	0x3b905dd8	0.0044057183
103	0xbb2fb328	-0.0026809666
104	0x3b40ca74	0.0029417546
105	0x3aca90e2	0.0015454555
106	0xbb09edd7	-0.0021046305
107	0x3ab08a14	0.0013468885
108	0x3bf40987	0.007447425
109	0xbba0415e	-0.004890605
110	0x3c1d042b	0.009583513
111	0xbb045a05	-0.0020195257
112	0xbbc30cfd	-0.005952476
113	0x3b7965fe	0.0038055177
114	0xbb163b0a	-0.0022923374
115	0xbaf0dc21	-0.001837615
116	0xbb040fc1	-0.0020150992
117	0xbad57ffc	-0.0016288753
118	0xbbf47eb4	-0.0074613933
119	0x3b48c022	0.0030632098
120	0xbaa29e3a	-0.0012406774
121	0xbb196799	-0.0023407696
122	0x3b0a5f1d	0.002111382
123	0xbaf0f242	-0.0018382745
124	0x3a028840	0.0004979409
125	0xbb3e4184	-0.002903075
126	0xb9382056	-0.00017559653
127	0xba380eb0	-0.00070212316

network_body._body_endoder.seq_layers.0.weight f4 [128, 53]
0	0xbe5a5a02	-0.21323398
1	0xbe1e777f	-0.15475272
2	0x3d7b84a9	0.06140581
3	0x3dcf9bcb	0.10137137
4	0xbd8517ce	-0.06498681
5	0xbdd7d04f	-0.105377786
6	0x3e0dbd69	0.13841785
7	0xbc0a935d	-0.008457986
8	0x3da454fc	0.08024022
9	0xbd2967bc	-0.041358694
10	0x3e006256	0.12537512
11	0x398b0512	0.00026515924
12	0xba0f9b90	-0.00054781977
13	0x3d2eaca6	0.04264512
14	0xbdcc7f2f	-0.09985196
15	0x3dec7fdf	0.11547827
16	0x3bf904e6	0.007599461
17	0xbdc60b11	-0.096700795
18	0xbd1f1830	-0.038841426
19	0x3cfdfc3f	0.03100407
20	0x3d302213	0.043001246
21	0xbe35cbe7	-0.17753564
22	0xbe68eca2	-0.22746518
23	0xbd957a97	-0.07298773
24	0x3e3b55f3	0.18294506
25	0xbdaa6e3b	-0.08321806
26	0x3de9fedf	0.11425566
27	0x3d8c87b9	0.068618245
28	0xbca2e6c5	-0.01988543
29	0xbe5a9b34	-0.21348268
30	0xbe200e62	-0.15630487
31	0xbdca39eb	-0.09874328
32	0xbd9511e8	-0.07278806
33	0xbe5bf12a	-0.21478716
34	0x3e197dbc	0.1498937
35	0x3e68908c	0.2271139
36	0x3daf548d	0.08561049
37	0x3dcbb826	0.09947233
38	0xbd942342	-0.072332874
39	0x3d5741b1	0.052552883
40	0xbde763b1	-0.112983115
41	0xbc99668e	-0.01872566
42	0xbbe17cb4	-0.006881321
43	0x3e58ef94	0.21185142
44	0xbdd4ab68	-0.10384256
45	0x3c88bbbc	0.016691081
46	0xbe1a2ead	-0.15056868
47	0xba477bfa	-0.00076097215
48	0x3d572537	0.052525725
49	0x3dfd1108	0.12356764
50	0xbe6903ac	-0.22755307
51	0xbd9143e0	-0.07093024
52	0x3d3faf57	0.046798076
53	0xbe498c3e	-0.19682404
54	0x3c121fcc	0.008918714
55	0xbe521029	-0.20513977
56	0x3e2987ef	0.16555761
57	0xbcc62244	-0.024186261
58	0x3e27a8aa	0.16372934
59	0x3c393a79	0.011305445
60	0xbdb7daa8	-0.08977252
61	0x3e1373c4	0.1439963
62	0xbea747f7	-0.32672092
63	0x3dc6dc91	0.097100385
64	0x3d8c011e	0.068361506
65	0xbe7e5b7d	-0.24839588
66	0x3e097545	0.13423641
67	0xbdb1a4cc	-0.08674011
68	0x3d65af91	0.056075636
69	0x3cb34ac1	0.021886231
70	0x3e2861b9	0.16443528
71	0xbcab6501	-0.020922186
72	0x3d256afd	0.040385235
73	0x3c7dd3dd	0.015492407
74	0x3db7dbd2	0.08977474
75	0x3ca98f15	0.02069811
76	0xb9dbe615	-0.0004194236
77	0xbd9740a3	-0.07385375
78	0x3c6fbb53	0.014632064
79	0xbd806c96	-0.06270711
80	0xbd898c69	-0.06716234
81	0xbe8ddcc1	-0.27707484
82	0x3da337bb	0.07969614
83	0x3e1c11d3	0.15241174
84	0xbd11a60f	-0.035558756
85	0x3da8721a	0.08224888
86	0xbe580231	-0.21094586
87	0xbe768a14	-0.2407611
88	0x3d6ddc12	0.058071204
89	0xbe23ce32	-0.15996626
90	0xbd190cd5	-0.037365753
91	0x3d5d1ab4	0.053980544
92	0xbe0393f6	-0.12849411
93	0xbdac985b	-0.08427497
94	0x3d61c77f	0.055121895
95	0x3c6dcdb9	0.01451438
96	0xbd23bfc7	-0.039977815
97	0x3db68069	0.08911211
98	0xbd8e29d7	-0.06941574
99	0xbd9ddeed	-0.07708535
100	0x3e355cd7	0.17711197
101	0x3d9a71b5	0.07541219
102	0xbdbfec78	-0.09371275
103	0x3ee18895	0.44049516
104	0x3dc5bf5c	0.096556395
105	0xbdfbaa44	-0.12288335
106	0xbdd941d4	-0.10608259
107	0x3d272db4	0.04081507
108	0xbe874d79	-0.26426294
109	0x3d9641e5	0.07336787
110	0xbdeca257	-0.11554401
111	0x3e3f2b5e	0.18668887
112	0x3d30ea57	0.043192234
113	0x3e2155ea	0.1575543
114	0x3d717440	0.058948755
115	0x3dc4a52a	0.09601815
116	0x3da8617e	0.0822172
117	0x3d712da5	0.05888142
118	0xbd3dee83	-0.04637004
119	0x3cb9329f	0.022607146
120	0xbd90187a	-0.070359185
121	0xbd1d7919	-0.038445566
122	0xbd51e0de	-0.05123984
123	0xbca0c345	-0.019624362
124	0x3d4ab1de	0.049486034
125	0xbcf04717	-0.029330773
126	0xbc9ee40f	-0.019395856
127	0xbd49108b	-0.049088042
128	0xbda8c968	-0.0824154
129	0xbd292bc0	-0.04130149
130	0xbe368e93	-0.17827825
131	0xbda9bf06	-0.08288388
132	0x3da4df55	0.0805041
133	0xbc252812	-0.010080354
134	0x3e34a29b	0.17640154
135	0x3c9453d6	0.018106382
136	0xbd89017b	-0.066897355
137	0xbd86d1dc	-0.06582996
138	0x3da241af	0.079226844
139	0x3e3ccf1e	0.18438384
140	0x3dd1c3ab	0.10242399
141	0xbe7295d3	-0.23689966
142	0xbe1e7f80	-0.15478325
143	0xbe1ce485	-0.15321548
144	0xbd4df318	-0.05028066
145	0xbb1899f1	-0.0023285116
146	0xbdf7574c	-0.120771974
147	0xbd2342a4	-0.039858475
148	0x3dd7118d	0.105013944
149	0xbcb8dc01	-0.022565844
150	0xbcd531f2	-0.026024792
151	0xbdb5e7ae	-0.0888208
152	0x3c9bc17d	0.01901316
153	0x3e5c4a07	0.21512614
154	0xbe519628	-0.20467436
155	0xbe6cb1ac	-0.23114651
156	0x3c4d189f	0.012518077
157	0xbd9e1a10	-0.07719815
158	0x3e6495c7	0.2232276
159	0x3e84f508	0.25968194
160	0x3e5332e8	0.20624888
161	0x3ccfdda7	0.025374247
162	0x3d5f0aa2	0.0544535
163	0x3e34a382	0.17640498
164	0x3e814850	0.25250483
165	0xbe07fb9b	-0.13279574
166	0xbebdcee3	-0.37071905
167	0x3e890bc5	0.26766792
168	0xbe79c820	-0.24392748
169	0xbd10781f	-0.035270806
170	0x3e82dc57	0.2555873
171	0x3d661670	0.05617374
172	0xbd9590e7	-0.073030286
173	0x3d09ffd9	0.03369126
174	0xbcae7939	-0.021298038
175	0xbb939392	-0.0045036757
176	0x3cfe6679	0.031054722
177	0x3d9b8dd3	0.0759541
178	0x3e0b936e	0.13630459
179	0xbe003491	-0.12520052
180	0x3b7fc81c	0.0039029187
181	0xbcfde4b1	-0.030992838
182	0xbdc9f9e5	-0.09862117
183	0xbd42b810	-0.047538817
184	0xbb8dd008	-0.004327778
185	0xbd9f0978	-0.07765478
186	0xbe31cede	-0.1736407
187	0xbc590d54	-0.013247807
188	0xbd8f3afe	-0.06993674
189	0x3e96d8f3	0.29462394
190	0xbd644b73	-0.055736016
191	0xbb4a8c1e	-0.003090627
192	0xbc81520a	-0.01578619
193	0xbd3e2b76	-0.046428166
194	0xbd3a0e62	-0.045423873
195	0x3da30fe4	0.07962015
196	0x3d91a76c	0.07112011
197	0xbda697f5	-0.08134452
198	0x3cb81ae5	0.022473762
199	0x3e4ee98b	0.20206277
200	0x3e141c8a	0.14464012
201	0xbe063a97	-0.13108288
202	0xbd57930c	-0.05263047
203	0xbda249bd	-0.07924221
204	0x3e1390ce	0.14410707
205	0x3db8cc76	0.09023373
206	0xbe15ab71	-0.14616181
207	0xbdae7c6a	-0.08519824
208	0xbdcfe937	-0.10151904
209	0x3e91794e	0.2841286
210	0x3e8dce51	0.2769647
211	0x3d08d1bb	0.03340314
212	0xbd0d5733	-0.034506988
213	0xbc83c346	-0.016084325
214	0x3dd52d15	0.10408989
215	0xbbcff3b5	-0.006346191
216	0xbc88f7c3	-0.016719704
217	0x3cae8c56	0.021307152
218	0x3cec5088	0.028846994
219	0xbd6943c6	-0.0569494
220	0x3e081f4e	0.13293192
221	0x3e586953	0.21133928
222	0xbe412b50	-0.18864179
223	0xbc1d889b	-0.009615089
224	0xbd5c76d7	-0.053824272
225	0xbd7d1e58	-0.061796516
226	0x3d1f4c48	0.038891107
227	0xbd7c4036	-0.061584674
228	0x3e098c04	0.13432318
229	0x3d4923c5	0.049106378
230	0x3de6d12d	0.11270366
231	0x3d0572d3	0.032580208
232	0x3e802053	0.2502466
233	0x3d144594	0.036199167
234	0x3e3bacc7	0.18327628
235	0xbe964da1	-0.293561
236	0xbdd3beda	-0.103391364
237	0xbdb06fbf	-0.08615064
238	0x3e71181d	0.23544355
239	0x3da9f1ad	0.08298049
240	0xb96e5d76	-0.00022732266
241	0xbe6531aa	-0.22382227
242	0x3d815ab5	0.06316129
243	0x3c74c4e1	0.014939518
244	0x3b7eca93	0.0038878068
245	0x3e5d6030	0.21618724
246	0x3e086dc8	0.13323128
247	0x3e6e9f45	0.23302944
248	0x3d86f6f9	0.06590075
249	0x3ca2111e	0.019783553
250	0xbe93aa34	-0.28840792
251	0x3e83d8b1	0.2575126
252	0x3ea756f2	0.32683522
253	0xbda90c8a	-0.08254345
254	0x3a0ee60d	0.00054511504
255	0xbdb36347	-0.0875917

network_body._body_endoder.seq_layers.2.bias f4 [128]
0	0xbae78199	-0.0017662524
1	0x3bf927a0	0.0076036006
2	0x3a192e5b	0.00058433943
3	0x39e5161c	0.00043694756
4	0xbc0ad542	-0.008473696
5	0x3ad3ded9	0.0016164436
6	0x3b3fd24f	0.002926964
7	0xbbbfa5a3	-0.005848603
8	0xbc0b1c61	-0.008490653
9	0xbb8a2109	-0.004215364
10	0xbba436f7	-0.005011435
11	0xba42045e	-0.00074011635
12	0xbbda5537	-0.0066629904
13	0x3be48ef7	0.0069750505
14	0xbaa725b5	-0.0012752326
15	0xbba9feba	-0.0051878365
16	0xbba483ff	-0.005020618
17	0x3b2b1eb8	0.002611084
18	0x3ba05d26	0.0048939167
19	0xbb43e9b2	-0.0029893932
20	0x3b59898b	0.0033193554
21	0xbbb51484	-0.0055261273
22	0x3b4faea7	0.0031689794
23	0x3b1abc26	0.002361068
24	0x3c37cf4b	0.011218856
25	0xbac00761	-0.0014650637
26	0x3b63339a	0.0034668208
27	0xbbbed652	-0.005823889
28	0xbb83a074	-0.0040169302
29	0x3b54d6f2	0.003247675
30	0xbae855c2	-0.0017725753
31	0xbaa9383e	-0.0012910438
32	0x3a533b0e	0.0008057811
33	0x3b3eeadd	0.0029131689
34	0x3b5e0897	0.0033879632
35	0xba142cc2	-0.00056524214
36	0x3afb627f	0.0019179134
37	0x3b41fe55	0.0029601057
38	0xb960ce3d	-0.00021439134
39	0xbbc07665	-0.0058734887
40	0xbbf071e5	-0.007337796
41	0x3ade0e10	0.0016941447
42	0x3c18b571	0.009320603
43	0xbbadfdf2	-0.0053098137
44	0xbc03c7c4	-0.008043233
45	0x3b8fe1a6	0.004390913
46	0x3ad119a7	0.001595308
47	0x3aaab56e	0.0013024041
48	0xbb853968	-0.0040656812
49	0x3ac563e5	0.0015059678
50	0x38591ddc	5.176464e-05
51	0xbb435f0c	-0.002981129
52	0x3bd28b6c	0.006425312
53	0x3a8d4b8b	0.001077996
54	0x3c36da08	0.011160381
55	0xbba832ea	-0.0051330226
56	0xbbbb1aeb	-0.005709996
57	0x3aefebd6	0.0018304538
58	0xba5fe1e6	-0.00085404364
59	0xbb05d9f4	-0.00204241
60	0xbbc3e61e	-0.00597836
61	0xbb95a565	-0.0045668357
62	0xbab72eaf	-0.0013975705
63	0xbbc430da	-0.005987269
64	0xbaef8d14	-0.0018276297
65	0xbb1ae28f	-0.0023633575
66	0xbbb5d4c8	-0.005549047
67	0xba3bd142	-0.0007164666
68	0x3b5eaf56	0.003397902
69	0x3b374423	0.0027964197
70	0x3b02ccff	0.0019958613
71	0x3b6ac16f	0.0035820862
72	0x3b0b31d2	0.0021239412
73	0xbac8f909	-0.0015333007
74	0x39c4814f	0.00037480376
75	0x3c0d5983	0.008627298
76	0x3b856520	0.004070893
77	0x3c0bfd70	0.008544311
78	0xbb4d6589	-0.0031341037
79	0xbb985656	-0.004648964
80	0x3b860c6b	0.004090836
81	0x3ab4c4de	0.0013791581
82	0x3b082c73	0.0020778447
83	0x3b5e24d4	0.0033896463
84	0x39bc4468	0.0003590912
85	0xbb806ad0	-0.003918983
86	0x3bf1bc49	0.0073771817
87	0x3a859cde	0.0010193845
88	0xbaa635cf	-0.0012680831
89	0xb93247a5	-0.00017002092
90	0x3b3b98ea	0.002862508
91	0xbbfdd05f	-0.007745787
92	0x3a2ebefd	0.0006666033
93	0xbba4879f	-0.00502105
94	0x3bd2a96f	0.0064288895
95	0xbbb60b58	-0.0055555515
96	0xbad897e4	-0.0016524759
97	0xb98ee05f	-0.0002725152
98	0xbb6b1497	-0.0035870427
99	0xbba20878	-0.004944857
100	0xbacfafe4	-0.0015845266
101	0x3a21879b	0.00061618694
102	0xbb91505b	-0.004434628
103	0x395341ac	0.00020146993
104	0xbb684f90	-0.0035447814
105	0xbb7f5482	-0.0038960283
106	0xbac88895	-0.0015299494
107	0xbaec792f	-0.0018041487
108	0x3bbf52b9	0.0058387187
109	0xba3364b1	-0.00068433123
110	0xba746250	-0.0009322511
111	0xbb9232a2	-0.0044616023
112	0x3b7198ec	0.003686483
113	0xbab5596a	-0.0013835852
114	0x3bb7fc13	0.0056147664
115	0xbac0d274	-0.0014711157
116	0x3c46c5b9	0.012132102
117	0x3c16561e	0.009175805
118	0xbb207ea0	-0.0024489537
119	0xbb1e4453	-0.002414961
120	0x3bb9aa03	0.005666019
121	0xbc043deb	-0.008071403
122	0xb9c509b4	-0.00037581997
123	0xba9e282b	-0.0012066414
124	0xba9eeb64	-0.0012124595
125	0xbacc680f	-0.0015594977
126	0xb98fc2ae	-0.00027420133
127	0x3c340500	0.01098752

network_body._body_endoder.seq_layers.2.weight f4 [128, 128]
0	0xbce1fcfc	-0.027586453
1	0x3cb3e95e	0.021961864
2	0xbc49fc22	-0.01232818
3	0x3c49b841	0.012311996
4	0x3c932bbd	0.017965192
5	0x3e065f03	0.13122182
6	0x3da2bb27	0.07945853
7	0x3d6b5724	0.05745615
8	0x3bc61483	0.0060449257
9	0xbded3ce3	-0.11583879
10	0x3dadd422	0.08487727
11	0xbd89865a	-0.06715079
12	0x3cf4bc8a	0.029875059
13	0x3da9152c	0.08255991
14	0xbd3c1131	-0.045914833
15	0x3dde539a	0.108557895
16	0x3b4a31cb	0.0030852433
17	0x3dfa86db	0.12232753
18	0xbd8825a8	-0.06647807
19	0xbe336392	-0.17518452
20	0x3c90ccb8	0.017675743
21	0x3cdb88da	0.026798654
22	0x3ddd317b	0.10800453
23	0x3e098d76	0.1343287
24	0x3d125d56	0.035733543
25	0x3e01f590	0.12691331
26	0x3d0f2043	0.034942877
27	0xbdf6c7cc	-0.12049827
28	0x3e3500f7	0.1767615
29	0xbd02b87f	-0.03191423
30	0x3e2e3538	0.17012489
31	0xbdeee2d0	-0.11664355
32	0x3da3a5c7	0.07990604
33	0xbddf095a	-0.108904555
34	0x3db879d6	0.09007613
35	0xbd9c3f7c	-0.07629296
36	0xbdb201a0	-0.08691716
37	0xbe6ea426	-0.23304805
38	0x3d47aaa3	0.048746716
39	0xbc0dd397	-0.008656404
40	0x3da3ccfa	0.079980806
41	0x3d52f5e2	0.051504023
42	0xbc5c2e78	-0.013438813
43	0x3cecb94b	0.028896948
44	0x3dd5886e	0.104264125
45	0x3dcd652f	0.10029065
46	0xbbc9477e	-0.0061425557
47	0x3d63c3e3	0.055606734
48	0x3dbcab6c	0.09212384
49	0x3dbd3557	0.092386894
50	0x3cf5b4a3	0.02999336
51	0xbd4fbcc3	-0.050717127
52	0x3d40a121	0.047028664
53	0x3c356e05	0.011073594
54	0x3c12d303	0.008961442
55	0x3d8ad2a4	0.06778458
56	0xbc95dfad	-0.018295133
57	0xbbffd1dc	-0.0078069996
58	0xbd2b5519	-0.041829202
59	0x3d2959b2	0.041345306
60	0xbda29537	-0.07938617
61	0x3cb76b36	0.02238999
62	0x3c44c120	0.012008935
63	0xbc07ea21	-0.008295567
64	0x3db6ccaf	0.08925759
65	0xbd9a108a	-0.07522686
66	0xbe145dae	-0.14488861
67	0xbcabd49b	-0.020975402
68	0xbe0dada3	-0.13835768
69	0x3cd73138	0.026268587
70	0xbc280a4d	-0.010256362
71	0x3ccd0699	0.02502756
72	0xbdd9c240	-0.10632753
73	0xbbae7c42	-0.0053248713
74	0xbcbfe2f8	-0.023423657
75	0xbe1e4bb6	-0.15458569
76	0xbc274180	-0.0102084875
77	0xbd054124	-0.032532826
78	0x3c4f387b	0.012647743
79	0xbbd959a9	-0.006633003
80	0x3cd964b2	0.026537273
81	0xbd474c27	-0.04865661
82	0x3dcfc5a7	0.10145121
83	0xbdb5d87c	-0.08879182
84	0xbdac19c4	-0.08403352
85	0x3dc9fd52	0.0986277
86	0x3c7b7ced	0.015349609
87	0x3d826a8b	0.06367978
88	0xbdf0629e	-0.1173756
89	0x3cdcf5dc	0.026972704
90	0xbd62d19a	-0.055375673
91	0xbe2a195b	-0.16611235
92	0x3e03338a	0.1281263
93	0xbdf97583	-0.12180617
94	0xbd9b4583	-0.07581618
95	0x3c0174bd	0.007901368
96	0xbddca30e	-0.10773288
97	0x3d276f2b	0.040877502
98	0xbd7144a2	-0.058903344
99	0xbbb3801c	-0.0054779183
100	0x3e0f9cc2	0.14024642
101	0xbc41996d	-0.011816365
102	0xbe18a81e	-0.14907882
103	0x3da75321	0.081701525
104	0xbe534fc9	-0.20635904
105	0xbd8d0913	-0.068864964
106	0x3decea51	0.1156813
107	0x3dc44c9d	0.09584925
108	0x3d3b7437	0.045765128
109	0xbc671757	-0.014104686
110	0x3d8a9ba9	0.06767971
111	0xbc2f4d93	-0.0106996475
112	0x3d4d2afb	0.050089817
113	0xbda9c6cd	-0.08289871
114	0x3d52c780	0.05145979
115	0x3d383319	0.044970606
116	0x3e02f567	0.12788926
117	0x3ccbe741	0.024890544
118	0xbc76d3e9	-0.015065172
119	0x3cbf668d	0.02336433
120	0xbd935306	-0.0719357
121	0xbe06a8e3	-0.13150363
122	0xbd9de4a6	-0.07709627
123	0xbce1b437	-0.027551753
124	0x3d9585ec	0.07300934
125	0x3dccbec8	0.09997326
126	0x3d9a3206	0.075290725
127	0xbe4faa55	-0.2027982
128	0xbe026e20	-0.12737322
129	0xbd055829	-0.03255478
130	0xbd995547	-0.074869685
131	0xbe1d28fb	-0.15347664
132	0xbd7d5f26	-0.06185832
133	0x3cdcd747	0.026958121
134	0xbdbd5804	-0.09245303
135	0xbe651738	-0.22372139
136	0xbd3291aa	-0.043595947
137	0x3d7483db	0.05969606
138	0x3d9a9359	0.075476356
139	0x3cfd2a3d	0.03090393
140	0xbd358533	-0.04431648
141	0xbd8b07fb	-0.067886315
142	0x3d81dfc1	0.06341506
143	0xbc886f8c	-0.016654752
144	0x3e351de2	0.1768718
145	0xbd152da4	-0.03642048
146	0xbd8ad354	-0.06778589
147	0xbdfe8d0c	-0.12429246
148	0xbdc400df	-0.09570479
149	0xbe71f59b	-0.23628847
150	0xbdd89a23	-0.10576274
151	0xbd166bc2	-0.03672386
152	0x3d922767	0.07136422
153	0xbdc9d8a4	-0.09855774
154	0xbe15a26b	-0.14612739
155	0x3c5c8d7f	0.01346147
156	0x3d93b6e0	0.07212615
157	0xbc1881e5	-0.009308313
158	0x3b1ec0dd	0.0024223842
159	0xbc869dad	-0.016432608
160	0xbd97a00d	-0.07403574
161	0x3e6eaedc	0.23308891
162	0x3dab9307	0.083776526
163	0xbda1529f	-0.07877087
164	0xbce76341	-0.02824557
165	0x3ddfc4d8	0.10926217
166	0xbcd3e2ff	-0.025865076
167	0xbd24fab6	-0.04027816
168	0xbc8369bd	-0.01604163
169	0x3d765548	0.060139924
170	0x3d1e93c2	0.03871513
171	0x3d5dce89	0.054152045
172	0x3db6c679	0.089245744
173	0x3e55823b	0.2085046
174	0x3b3de361	0.002897464
175	0xbd182d18	-0.03715238
176	0xbdcaa537	-0.098947935
177	0x3cc2ad90	0.023764402
178	0xbd0cad00	-0.034344673
179	0xbe18b2a9	-0.14911903
180	0xbdc32c65	-0.09529952
181	0xbd2bc990	-0.04194027
182	0x3e208d84	0.15678984
183	0x3c72ed2d	0.014827055
184	0x3c8d90cc	0.017280959
185	0xbdf40f60	-0.11916995
186	0x3d952b54	0.07283655
187	0x3e6dbe93	0.2321723
188	0xbd4bf997	-0.049798574
189	0xbcc2b923	-0.02376992
190	0x3e85bbc3	0.26119813
191	0xbe06f030	-0.13177562
192	0xbe0ef9f2	-0.13962534
193	0xbdd611e8	-0.10452634
194	0xbcd7804a	-0.02630629
195	0x3da59aae	0.080861434
196	0x3d594dc7	0.05305269
197	0x3dc0417c	0.0938749
198	0x3ce2ab22	0.027669493
199	0x3d7253c5	0.05916192
200	0x3cdc9b67	0.02692957
201	0x3c924e82	0.017859701
202	0xbdeff6d7	-0.11717003
203	0xbdfa75ed	-0.12229524
204	0xbc37572f	-0.01119022
205	0xbcb225b8	-0.021746501
206	0x3e9056b6	0.28191155
207	0xbd31e6be	-0.043432944
208	0xbd03d156	-0.03218206
209	0x3ce465e5	0.027880618
210	0x3db2c4c8	0.08728939
211	0x3d2d70b3	0.042343806
212	0x3de541ed	0.11194215
213	0x3db8515a	0.089998916
214	0xbdb0bc94	-0.086297184
215	0x3d1758ac	0.0369498
216	0xbe0d82b8	-0.13819396
217	0xbd433127	-0.047654297
218	0x3d30845d	0.04309498
219	0x3bd78c81	0.0065780287
220	0x3d7032ce	0.0586422
221	0xbc023a2b	-0.007948439
222	0xbe326c8e	-0.17424223
223	0xbe099fc8	-0.13439858
224	0x3b9f27de	0.0048570475
225	0x3c6d7263	0.014492604
226	0xbcffb745	-0.03121532
227	0xbd456fc5	-0.048202295
228	0xbd3f3265	-0.04667892
229	0x3ced1260	0.028939426
230	0xbca96cd6	-0.02068178
231	0x3dee3a68	0.11632234
232	0x3dc4d6d9	0.096112914
233	0x3e2ceea7	0.16887914
234	0x3d9b2ece	0.07577287
235	0x3d9104e9	0.07081015
236	0x3cdca58f	0.026934413
237	0x3e05db62	0.13071969
238	0x3d14212b	0.036164444
239	0xbd6a3250	-0.057176888
240	0x3deedfd1	0.11663783
241	0x3d7d57c8	0.061851293
242	0xbe2e48f6	-0.1702002
243	0x3daf6621	0.085644014
244	0x3e030261	0.12793876
245	0xbd8e4f5f	-0.069487326
246	0x3d13c224	0.03607382
247	0x3d81b290	0.06332886
248	0xbe17bb72	-0.14817598
249	0xbdc4ea8d	-0.096150495
250	0xbc37b842	-0.011213364
251	0xbe3f7666	-0.18697509
252	0x3c82a64e	0.01594844
253	0x3d6d50a5	0.057938237
254	0x3e28cdeb	0.16484801
255	0x3cfe167a	0.031016577
