VirtualAquarium/results/VirtualAquariumReproducao/VirtualAquarium/VirtualAquarium-4499967.pt (torch, 592639 bytes, 49 tensors)

discrete_act_size_vector f4 [1, 2]
000000 00 00 00 40 00 00 00 40
       2.0 2.0

network_body._body_endoder.seq_layers.0.weight f4 [128, 52]
000000 23 d0 fe be c9 cc 09 bd 01 b2 12 3d 2c 93 e3 bd
       -0.4976817 -0.033642564 0.03581429 -0.11112055
000010 a8 9f 9f bd 8a dd 2d 3d b1 e4 b4 bd 45 d7 cf 3d
       -0.07794124 0.042447604 -0.08832682 0.10148481
000020 dc fe 44 3e 5a f7 b8 bd 9b 4b 0a 3c 3c 05 5b be
       0.19237846 -0.090315536 0.008440877 -0.21388716
000030 db 89 d5 bc da e5 15 3d 2c 5b 53 be 2d dd e5 be
       -0.026066711 0.036596157 -0.20640248 -0.44895306
000040 d4 21 91 be 49 f1 39 3e 34 99 82 3e 18 e2 16 3d
       -0.2834612 0.18158449 0.2550751 0.036836714
000050 ac 94 5a 3e e4 7d d2 3d d8 b0 9d bc 9b 6d ff bd
       0.21345776 0.10277918 -0.019249365 -0.124720775
000060 7f c4 75 3e b4 4d da be 00 20 ce bc 12 09 3d bd
       0.24000739 -0.42637408 -0.025161743 -0.04615123
000070 13 75 01 be 89 2a ff 3c 44 92 90 bd 42 4e 98 3e
       -0.12642317 0.031148212 -0.07059148 0.29747206
000080 e7 be f2 bd b5 7c d2 3d 97 f1 08 3d da 75 fc be
       -0.11852818 0.10277692 0.033433523 -0.49308664
000090 1f 22 6e 3c 9a b7 fc 3d 8a e5 b5 3d 3a c8 46 3e
       0.014534502 0.12339707 0.08881672 0.19412318
0000a0 ca 56 c1 3d c9 bd 1f be 90 11 9f bd c7 25 fb bd
       0.09440382 -0.15599741 -0.07767022 -0.12263065
0000b0 ac e9 11 3c 73 09 9a bc 2a d4 cf 3d a1 ac c5 be
       0.008905809 -0.018803334 0.10147889 -0.38608268
0000c0 40 38 84 3e 7e d6 63 be ab f4 82 be 68 70 41 3c
       0.25824165 -0.22249791 -0.25577292 0.011806585
0000d0 02 b4 dc 3c 81 f1 6e be 5c 49 0c be 9f 85 2d bc
       0.026941303 -0.23334314 -0.1369986 -0.01059094
0000e0 87 aa e9 bd 0f f1 85 be b1 4c b8 3d 8f 5a 64 3d
       -0.11409479 -0.26160476 0.08999003 0.055750426
0000f0 e2 22 da 3d 8f f4 26 3d 89 32 e6 3c f6 e0 9d 3e
       0.106511846 0.040760573 0.028100269 0.30835694
000100 73 4f 37 3e 0b 0a 6c 3c 53 ac 8c 3c 8c c6 55 be
       0.17901401 0.014406691 0.017172014 -0.20876521
000110 2f fe 22 bd 1a 57 87 bc 68 c4 b6 3d 6d f6 39 3e
       -0.03979319 -0.016521025 0.0892418 0.1816041
000120 ca c9 f4 bd f6 6e db bc 9e 0f 5e bd 37 3e 34 3e
       -0.11952551 -0.026786309 -0.054214112 0.17601858
000130 31 02 54 3d 3d af e1 bd 27 1c 35 be e1 b0 97 3e
       0.051759902 -0.11019752 -0.1768652 0.29627135
000140 1b ce a9 bc b3 ea 59 3e 76 ef 3a be 8f a8 d0 bd
       -0.020728162 0.21280937 -0.1825541 -0.101884
000150 26 26 1b be 09 43 3a be fa 47 05 be e6 9e 52 3e
       -0.15151271 -0.18189634 -0.13015738 0.20568427
000160 11 c7 52 be 1b 8b 95 3e 54 e4 7e 3e b8 de a1 3d
       -0.2058375 0.29207692 0.24891788 0.07903808
000170 29 93 7a be 6b a1 db 3d e8 be 11 3e 3b 5d 8d bd
       -0.244702 0.107241474 0.14232981 -0.06902548
000180 dc 0f 76 bd 5a 30 75 be e3 99 bd 3c 2f a8 e4 be
       -0.06007372 -0.23944226 0.023144668 -0.44659564
000190 e4 f4 01 be 30 02 e3 bd 0b f0 2b be 08 df 08 3e
       -0.12691075 -0.110844016 -0.16790788 0.1336633
0001a0 5f 95 1b be bc 93 87 3d a5 c9 d2 bd b4 12 0c 3e
       -0.151937 0.06619975 -0.10292367 0.1367901
0001b0 15 24 92 3c 03 4c 39 ba d7 2b 47 3e be 00 d4 3d
       0.01783947 -0.00070685166 0.19450317 0.10351704
0001c0 a4 33 9d 3d cc 0d a0 3d 4f f6 a7 bd f9 64 a1 bb
       0.07675865 0.078151315 -0.082012765 -0.004925367
0001d0 04 26 67 3e 66 aa 87 3c cd b8 bf 3e b8 3c 4b 3e
       0.22573096 0.016560744 0.3744568 0.19847381
0001e0 a4 ea dc bd 54 21 51 3e fe f5 0d be b2 19 97 be
       -0.10786942 0.2042287 -0.1386337 -0.2951179
0001f0 69 fc b8 bd 1b 33 c7 3d 8f 9f 9a 3d 96 de bc 3d
       -0.090325184 0.097265445 0.07549965 0.092221424
000200 0e 93 55 be 1b 1d ff 3d 36 ed b7 3d 62 53 3d bd
       -0.20856878 0.12456723 0.08980791 -0.0462221
000210 af 92 98 be 11 13 0d bf 9c 59 cb 3d 19 8d f3 3d
       -0.2979941 -0.5510722 0.09929201 0.118921466
000220 17 b3 44 3d d2 28 57 be e6 b4 93 bd aa 16 09 be
       0.048022356 -0.21011665 -0.07212238 -0.13387552
000230 a9 66 ab be db 41 9f bb 81 cc a9 be 09 71 1b bf
       -0.3347676 -0.0048601455 -0.33163837 -0.6071935
000240 82 9a be 3d 86 d9 07 bd 17 3d a2 bd a5 22 1d be
       0.09306814 -0.03316643 -0.07921808 -0.15345247
000250 a7 e2 24 be ca 58 4d bd 48 6d 8d bd f9 fd e5 3c
       -0.16102086 -0.050133504 -0.06905609 0.028075205
000260 d5 d9 af bd ed 00 44 be 92 9b df bd 00 e4 a5 bd
       -0.0858647 -0.19140978 -0.109183446 -0.08100128
000270 90 d8 69 3e ca 3c 87 3d 08 4b 02 bd be 0e 9e be
       0.22836518 0.066033915 -0.031809837 -0.30870622
000280 c5 cb 28 3e 76 a6 e9 be a8 08 f1 3d 62 b5 e7 bd
       0.16483982 -0.45634812 0.11769229 -0.11313893
000290 d8 99 93 bc 66 da 16 bd 9f 9e ea 3e b2 30 88 bd
       -0.018017694 -0.036829375 0.45824143 -0.06649913
0002a0 e4 5b d9 3d 55 08 bf 3d b8 cc 64 bd 3b 69 a6 3c
       0.1061323 0.09327761 -0.055859298 0.02031385
0002b0 d7 96 c3 3d 7a 06 05 be 9f a7 35 be 5c b6 e0 bc
       0.09550255 -0.12990752 -0.17739724 -0.027430706
0002c0 72 e9 c8 bd 9d ec e5 3d 76 03 10 3e c4 eb 86 3e
       -0.09810151 0.11226771 0.1406382 0.2635175
0002d0 dd 34 9b bd a6 cc 59 3e 27 e5 73 3d 5e ed 2a 3e
       -0.07578442 0.21269473 0.05954471 0.16692111
0002e0 a9 b9 2e 3e 42 80 16 3e f3 34 1d 3d 49 e3 46 bd
       0.17063011 0.14697364 0.038380574 -0.0485566
0002f0 f0 1f 2a 3e 5d 69 92 bc de 8f d2 bd e8 76 95 3d
       0.16613746 -0.017872507 -0.10281347 0.0729807
000300 e0 20 12 3e 81 c8 85 bd d2 5b a5 3d 4e 29 06 be
       0.14270353 -0.06532384 0.08074154 -0.13101694
000310 01 9c 80 3e a1 29 0d be ba e8 d9 3d 6a 7c 72 be
       0.25119022 -0.13785411 0.10640092 -0.23680273
000320 3f 79 84 be 94 f3 86 be 87 13 89 be b6 d6 ad 3e
       -0.25873753 -0.2635771 -0.2677271 0.33952874
000330 b1 70 e4 bd cd d6 20 be 24 82 f2 bd 09 a4 e3 3c
       -0.11154307 -0.1570694 -0.118412286 0.027788179
000340 15 f3 0b bf 7c ba 53 3d c7 9c 33 be df d1 19 be
       -0.5466779 0.051691517 -0.17540275 -0.15021466
000350 82 f3 77 3d 39 82 1e be b1 3a 6c be 15 40 8e 3e
       0.06053496 -0.15479364 -0.23069264 0.27783266
000360 d2 43 11 bd fe 50 0d be ce c4 2b 3e 45 54 86 bd
       -0.03546507 -0.13800427 0.16774294 -0.06559042
000370 18 7f 35 be bd f2 3e be 1b 1c 00 3e b2 e3 e6 3d
       -0.17724264 -0.18647285 0.12510721 0.11273898
000380 4a e2 38 be 6c c9 fa b9 ab 5d 94 3d 32 43 c8 3d
       -0.18055072 -0.00047833787 0.07244428 0.097784415
000390 2c 82 fa bd e5 ae 3d be 85 ab 4d be 6f 23 03 be
       -0.122318596 -0.18523748 -0.20084961 -0.12806486
0003a0 c0 16 c0 bd 22 db 0a be f2 80 09 3d d4 8e ba 3e
       -0.09379339 -0.13560155 0.033570237 0.36437094
0003b0 05 1e 58 be 75 37 b7 3d 96 59 29 3e 5e ef 9c be
       -0.21105202 0.089461245 0.1653808 -0.30651373
0003c0 94 07 0d 3e 57 13 f4 3d 2d 9f 13 3d 02 6e cb be
       0.13772422 0.11917751 0.036040474 -0.39732367
0003d0 c6 79 1f 3e 84 b2 62 3e d2 47 86 3e 07 16 ff 3d
       0.15573797 0.22138411 0.2622667 0.12455373
0003e0 ea 9e 6f bd c6 98 6e be 5b 8a 5d be c4 56 48 be
       -0.05850116 -0.23300466 -0.2163481 -0.19564348
0003f0 64 e5 70 bd c4 22 88 bd db 8f 4f 3e 6b 9a 6c 3d
       -0.058812514 -0.06647256 0.2026972 0.057764452

network_body._body_endoder.seq_layers.0.bias f4 [128]
000000 65 b8 52 bd fc ab 82 be d4 79 17 bd fa b1 72 bd
       -0.051445384 -0.2552184 -0.03698142 -0.059251763
000010 67 09 0b 3d 21 8c 6b bd 03 96 5a be 7d 83 97 be
       0.033944514 -0.057506684 -0.21346287 -0.29592505
000020 7a 78 eb 3d 61 4e 0d 3e 3b df 76 3d 76 44 1d bc
       0.114975885 0.1379943 0.060271483 -0.009598842
000030 a5 80 34 3e 31 89 b3 bd b4 13 31 be b0 6d 10 be
       0.17627199 -0.087664016 -0.17292672 -0.14104342
000040 ea 11 5e bd ac 66 b4 3b de 57 8b bd b5 09 52 3e
       -0.054216303 0.0055054035 -0.06803869 0.20511515
000050 23 7d 96 bd 64 a7 42 bc cb c9 a1 3e ff c4 34 3e
       -0.07348087 -0.011880729 0.31599268 0.17653273
000060 18 a4 b3 bd b0 0a 48 3e 14 7a 09 be cc d0 fd bd
       -0.08771533 0.19535327 -0.13425475 -0.123933405
000070 1c 55 ed bc 9e ac 08 bd 2e 07 77 3e 95 23 76 bc
       -0.028971247 -0.033367746 0.24123833 -0.015023132
000080 cf 14 13 3e e8 0a 48 3e 73 2b 08 be de 20 60 3e
       0.14363407 0.1953541 -0.13297825 0.21887538
000090 b9 cd dc 3b cb 3b dd 3c df 17 70 bc 28 6f 7c be
       0.0067383912 0.02700605 -0.014654129 -0.24651778
0000a0 40 95 6a bc 5d 5c e2 bd 5a fe 17 bd 16 80 be 3d
       -0.014317811 -0.11052773 -0.037107803 0.09301774
0000b0 f8 59 a7 bd f1 78 51 be aa e8 49 be d7 d5 17 3e
       -0.08171457 -0.20456292 -0.1971766 0.14827667
0000c0 a1 ac 79 be ca b4 4d be 5d 8d 24 be ac 60 a0 3e
       -0.24382259 -0.20088497 -0.16069551 0.31323755
0000d0 66 1f f9 bd 92 57 87 3d 25 04 fb 3d 19 2c fd bd
       -0.12164192 0.066084996 0.1225665 -0.123619266
0000e0 64 8c e2 bb 46 2e e4 3c 9d 39 32 be f7 51 93 3e
       -0.0069137085 0.027854096 -0.1740479 0.28773472
0000f0 43 07 9d 3d 37 34 43 be 20 ea 7b be 82 15 30 bd
       0.07667401 -0.19062887 -0.2460103 -0.04298926
000100 89 56 38 3d 74 14 48 bd 6d 9f d2 bd c6 ce bf bd
       0.0450044 -0.04884763 -0.10284314 -0.09365611
000110 0e c5 67 3d 70 d5 60 bc 53 60 44 bd 9f 37 83 bd
       0.05658441 -0.013722762 -0.047943424 -0.06407093
000120 9b 42 7f 3e b7 d3 60 3e 3c f1 55 be df ec 52 be
       0.24927752 0.21955763 -0.20892805 -0.20598172
000130 05 8d dc bd e4 f3 9f bd 54 b8 99 bd f4 12 00 be
       -0.10769085 -0.0781019 -0.07505861 -0.1250723
000140 08 37 99 3e 59 eb 85 3e ef 16 7c be 87 b5 50 be
       0.29924798 0.2615612 -0.24618123 -0.20381747
000150 c0 d5 88 3c 00 b1 77 bd a6 f7 14 bd d6 e0 77 be
       0.016703486 -0.060471535 -0.03636899 -0.24206862
000160 86 b8 af 3d bc 0f 76 bc 6c 06 bd bd ba 9c 81 3e
       0.08580117 -0.0150184 -0.092297405 0.25314885
000170 55 10 e5 3d 6d 6e 60 be 93 e0 93 3e 53 24 ea bc
       0.11184756 -0.21917124 0.28882274 -0.028581774
000180 db 8b 4e 3e 73 81 40 3d f3 0d 5c be 74 22 44 be
       0.20170538 0.046998452 -0.21489696 -0.19153768
000190 7b e9 75 3d f5 a7 6d 3d e9 70 5e bd 9a 4b 50 3e
       0.060037117 0.058021504 -0.0543069 0.2034134
0001a0 d0 a0 4b be be 33 36 3e 0a 91 f8 bd 0b 96 97 3d
       -0.19885564 0.17793176 -0.12137039 0.07401665
0001b0 8a 96 d3 bd 09 0a 98 be 5f f5 6c 3e dc 98 87 bd
       -0.103314474 -0.29695156 0.23140477 -0.066209525
0001c0 c6 b7 25 3e 2f 59 9d bd a0 d2 22 3d ba 97 06 3c
       0.16183385 -0.07683026 0.03975165 0.008214885
0001d0 a0 e3 fa bd 2c 74 f0 bd e9 60 49 bd 63 c2 d9 bd
       -0.12250447 -0.11740908 -0.049164686 -0.106327794
0001e0 90 a3 88 3e ee 33 80 3e 59 e1 1b be fa cc 88 bd
       0.26687288 0.2503962 -0.15222682 -0.06679721
0001f0 51 95 37 3e e4 0c 5d bc fb d9 63 bc ae c2 f8 bd
       0.17928053 -0.013491843 -0.013906951 -0.12146507

network_body._body_endoder.seq_layers.2.weight f4 [128, 128]
000000 73 e0 ae be 73 bc a0 bd c4 56 53 be 29 7d e8 3d
       -0.34155616 -0.07848444 -0.20638567 0.113519974
000010 19 2e 5e 3d 67 91 df 3c b2 4f 42 be 09 ae 50 3e
       0.05424318 0.027291013 -0.18975714 0.20378889
000020 07 29 1f 3e 60 ba 5a be 72 d5 ae be 1d 34 be be
       0.15542994 -0.21360159 -0.3414722 -0.37149134
000030 d7 63 53 3e 29 eb 96 be 78 d1 df 3d 42 56 b9 be
       0.20643555 -0.29476288 0.10928625 -0.36198622
000040 f5 32 7d be fe 5f 37 be 87 04 19 bc a8 6c 6f 3d
       -0.2472647 -0.17907712 -0.009339458 0.058453232
000050 5a 05 4a bc e4 dc 92 bd fb d9 c0 3e e4 80 43 3e
       -0.0123303775 -0.07171038 0.37666306 0.19092137
000060 72 b6 12 be d8 a1 ec 3e 88 a3 8c be 73 82 ff bc
       -0.1432741 0.46217227 -0.27468514 -0.031190133
000070 1a 9e 29 be 50 3d 17 be a3 ea 83 3d 57 a4 1e be
       -0.16564217 -0.14769483 0.06441238 -0.15492378
000080 40 3e d5 bd d5 7d 35 3e 77 9d ac be 98 99 b6 3d
       -0.10412264 0.17723782 -0.33713886 0.089160144
000090 c8 70 ad be 4e 1f 31 be 42 9e d2 3b 99 cf e8 bc
       -0.33875108 -0.17297098 0.006427557 -0.028419303
0000a0 08 84 be be 54 89 38 3e 98 bd 8c be 4f a2 11 3b
       -0.37210107 0.18021137 -0.274884 0.0022221988
0000b0 74 6b b7 bd 8f cf 10 be a5 11 08 be b0 8a 29 3e
       -0.08956042 -0.14141677 -0.13287981 0.16556811
0000c0 e6 db 03 3e 89 90 20 be 76 f6 c5 bd 3e c7 97 3e
       0.12876853 -0.15680136 -0.09666149 0.29644197
0000d0 83 b8 8c be 48 89 f4 bd 27 a8 1f be 81 2a 17 bd
       -0.2748452 -0.11940247 -0.15591489 -0.03690577
0000e0 b1 0a 14 be 08 7c 93 be 10 a8 87 3b 43 ce 33 3e
       -0.14457203 -0.28805566 0.0041399077 0.17559151
0000f0 49 99 b0 3d 4e 54 7b bc b7 24 0e be 99 69 0a be
       0.08622987 -0.015339924 -0.13881193 -0.13516845
000100 a4 2b b2 be 0f 3b 39 be 3e d3 37 be 53 39 df bd
       -0.3479892 -0.18088935 -0.17951676 -0.108996056
000110 c1 db 60 be f9 87 8f be 96 07 dc bc 11 28 5a bd
       -0.2195883 -0.28033426 -0.026859086 -0.053260867
000120 8b 7f d4 3d b2 42 b2 3d 97 bd 9d be 87 d6 5e be
       0.103758894 0.08704127 -0.30808708 -0.21761523
000130 fe 93 27 be 32 a4 27 b9 cd da a9 be d7 ff 3a be
       -0.16365048 -0.00015987529 -0.33174744 -0.18261658
000140 db 3c ba 3e bb 50 35 bd ba 3c 26 bb a4 74 8e bd
       0.36374554 -0.044266444 -0.0025365786 -0.06955841
000150 72 dc 8d be 2a f1 74 be 7e cb aa 3e 13 8b bc bd
       -0.2770725 -0.23920122 0.33358377 -0.09206214
000160 cd 7c 54 be 48 a4 93 be d9 76 7b be 16 2f 8f 3e
       -0.20750733 -0.28836274 -0.24557056 0.2796561
000170 63 f6 aa 3c 7b b4 6d be 21 fb 75 3e 42 1e 27 be
       0.02086944 -0.23213379 0.2402158 -0.16320136
000180 85 a7 c1 3c 34 3c d0 3c 95 af 6a bd 3b 0e 4f be
       0.02363945 0.025419332 -0.057296354 -0.20220272
000190 45 6e b8 be 9d b0 15 be b7 0c ba 3d 9b 06 01 3e
       -0.3602163 -0.14618154 0.090844564 0.12600176
0001a0 a2 b6 26 3e f4 a4 de 3d 04 0d da bd 5f 7e c9 be
       0.16280606 0.10871306 -0.10647014 -0.39354226
0001b0 6e f8 39 be 73 c0 22 3d 10 a9 82 be 52 d8 49 be
       -0.18161175 0.039734315 -0.2551961 -0.19711426
0001c0 2d b8 a3 3e d7 3c ef be 8e 2b df bd 82 3b 09 be
       0.31976452 -0.46726105 -0.10896979 -0.13401607
0001d0 1b 04 84 be 37 f2 07 be 72 ee b0 bd cf e2 b7 be
       -0.25784382 -0.13275991 -0.0863923 -0.3591523
0001e0 b7 34 60 3e 00 df 0a 3e db 68 84 be f5 05 75 3e
       0.21895109 0.1356163 -0.25861248 0.23928054
0001f0 e8 bd d5 bd 05 7a 05 bd 79 82 96 be d7 80 40 3d
       -0.10436612 -0.03258707 -0.29396418 0.04699787
000200 4f 85 3c 3c 3d d9 1b be 2c c3 cf bc f8 c4 8e be
       0.011506393 -0.15219589 -0.02536162 -0.2788465
000210 be 4e a3 3d bc 53 38 be c8 81 12 be b4 be 34 be
       0.07974003 -0.18000692 -0.1430732 -0.17650872
000220 bf 1b 28 3e 55 70 18 bd 62 dd 88 be 2b 99 38 be
       0.16416834 -0.037216503 -0.26731402 -0.18027179
000230 48 e9 f3 bc 24 ca ff bd 2c 0e 6f 3d cd 6c 3f bd
       -0.029774323 -0.12489727 0.058363125 -0.04673462
000240 31 16 88 be fd 38 a1 bd bb 64 02 bd fa b0 32 be
       -0.2657943 -0.07872198 -0.031834345 -0.17450324
000250 a1 38 37 be f3 b8 95 bd c1 1d ed bc 16 84 49 be
       -0.17892696 -0.07310667 -0.028944852 -0.19679293
000260 7d 6b 9c bd cd 57 3a bd c2 4e 25 be 7f 44 98 be
       -0.07637689 -0.04549389 -0.16143325 -0.29739758
000270 4a f5 d7 bd 93 72 f6 bd 9f 48 31 be f6 99 36 be
       -0.10544832 -0.12033572 -0.17312859 -0.17832169
000280 c6 c7 f7 be fa 0e 06 be 2b 65 5a be 89 49 a0 bd
       -0.48394603 -0.1309165 -0.21327655 -0.07826526
000290 38 74 76 be e8 9f 9e 3e 3a 36 28 be 50 98 22 bd
       -0.24067771 0.30981374 -0.16426936 -0.039696038
0002a0 d1 51 bd be 34 26 3c 3e 32 db 81 be cf 51 c9 3d
       -0.36976483 0.18373948 -0.25362545 0.09830057
0002b0 14 e4 cb bd fa b0 c6 bb 8a 85 80 bc da c8 82 be
       -0.09955612 -0.0060635777 -0.015688676 -0.25543863
0002c0 85 10 ef bd ac 20 30 3d d4 6c d7 bd e6 35 d1 be
       -0.11673073 0.04299991 -0.10518804 -0.40861434
0002d0 df a4 58 3e 0d b5 6b bd f3 6e 8c 3d 42 cd a7 3d
       0.21156643 -0.05754571 0.068570994 0.08193447
0002e0 9a 58 bb bd 80 8e 21 be aa c6 40 be 75 09 29 be
       -0.09147759 -0.15777016 -0.18825784 -0.16507514
0002f0 d8 27 5e be f9 fd d8 bd ed 2e 97 3d 5a d1 d7 bd
       -0.21694887 -0.105953164 0.07381997 -0.105379775
000300 67 95 33 be e9 70 46 be 47 46 4f be 13 5a 05 bd
       -0.17537461 -0.1937901 -0.20241652 -0.032556605
000310 63 c2 93 be 7b ff 9e bd 0e 3d ad bd 63 18 c7 bd
       -0.28859243 -0.07763573 -0.08458911 -0.09721448
000320 1e 54 4b be ca 9e 20 be c6 7a 2e be 77 54 aa bd
       -0.19856307 -0.15685573 -0.17039022 -0.08316892
000330 fd 6f 88 3d 03 9d 9f bd f7 dd 40 be c5 67 bf be
       0.06661985 -0.077936195 -0.18834673 -0.37383857
000340 5e df c3 bd 8a b2 20 3d b3 26 18 bd ed 9d 4f be
       -0.09564088 0.039232768 -0.03714628 -0.20275088
000350 72 c0 56 bd 86 47 1f be 98 fe 46 3e 62 19 c5 be
       -0.052429624 -0.15554628 0.19433057 -0.38495928
000360 06 0b 94 be 09 f9 df 38 34 ae 88 bd 2b 4a 9a be
       -0.2891466 0.00010679855 -0.066738516 -0.3013471
000370 18 9e db bd 71 c3 68 be 2f d5 02 be 1b 3f df bd
       -0.10723513 -0.22730805 -0.12776636 -0.10900708
000380 85 a9 81 be 0e 22 7c be c0 7a 5d 3e 65 91 7c be
       -0.25324646 -0.24622366 0.21628857 -0.24664839
000390 ec 43 91 bd de d1 7b bd f1 98 dc be 41 f7 33 bd
       -0.07093033 -0.06147944 -0.43085435 -0.04393697
0003a0 f9 b4 58 3d 23 62 cb 3d 23 dd 74 3e f5 98 d5 be
       0.052906964 0.099308275 0.23912482 -0.4171826
0003b0 1e 10 89 be 48 a7 dc 3d 71 86 b2 bd 53 80 6b be
       -0.2677011 0.10774094 -0.08717049 -0.2299817
0003c0 6d 1e 84 3b 9f 4a 72 bc 0c 5f 2a be fc 3a b2 bd
       0.0040319473 -0.014788299 -0.1663782 -0.087026566
0003d0 2e 8d d6 bd f2 e4 86 3b a9 10 05 be 47 08 36 be
       -0.10476147 0.004116648 -0.12994637 -0.17776595
0003e0 ba 0b 83 bd 64 72 73 be eb 24 41 3d 69 8c e5 bc
       -0.06398721 -0.23774105 0.04715435 -0.028021054
0003f0 90 be 37 be 13 0a 26 be 3d bb 58 be 83 84 3b be
       -0.17943788 -0.1621478 -0.21165176 -0.18312268

network_body._body_endoder.seq_layers.2.bias f4 [128]
000000 b7 38 87 3e 38 39 7c bb 23 b3 09 be e7 05 8b 3e
       0.26410457 -0.0038486253 -0.13447241 0.2715294
000010 fd 3c 60 3e c6 5f 40 bd af 11 27 3e 08 1e 8f be
       0.21898265 -0.046966337 0.1631534 -0.279526
000020 30 9f b3 bd f7 95 7b 3e fa bc 12 3e 95 20 39 3d
       -0.08770597 0.24568926 0.14329901 0.04519709
000030 30 e1 e8 3d ed 58 df bd ad 8c 9e 3e 7a 73 9a 3e
       0.11371076 -0.10905633 0.30966702 0.30166227
000040 7c 5e a5 3e c5 e6 69 bb de 2f b2 3e 34 97 84 3e
       0.32298648 -0.0035690528 0.34802145 0.2589661
000050 ba 9f c7 3d c0 d0 e1 bd 1d a9 59 3d 60 c1 22 bd
       0.09747262 -0.11026144 0.053139795 -0.039735198
000060 be b5 bd bd 1d 31 1b be d1 c3 d7 3d f2 26 62 3d
       -0.0926318 -0.15155454 0.10535396 0.055212922
000070 75 e6 5b be d2 3b 82 3d 11 a9 65 3e 92 1d 5e 3e
       -0.21474631 0.06359066 0.22427775 0.21690968
000080 6a 3b fc bd 77 eb 48 bd b9 3a 1c bd 0b 64 74 3e
       -0.1231602 -0.04905268 -0.03814194 0.23866288
000090 21 98 7d bd d0 ec 0c 3e 1f 6b 91 3c 09 42 69 3e
       -0.06191266 0.13762212 0.017751275 0.22779097
0000a0 aa 10 d1 bd 87 ab 17 3e fb 81 18 be 1d fc ad 3e
       -0.102082565 0.14811526 -0.14893334 0.3398141
0000b0 42 ca 32 be 27 f3 9c 3e d6 fc c7 3d ef 4b 44 3e
       -0.17459968 0.3065426 0.097650215 0.19169591
0000c0 d2 d4 1f be bf 85 88 3e fb 17 7c 3e 10 cd 5b 3e
       -0.15608528 0.2666454 0.24618523 0.21464944
0000d0 c5 7c 41 3e 2f be 84 3c b8 69 84 3e 05 29 e5 bd
       0.18895252 0.016203968 0.25861907 -0.111894645
0000e0 b5 ae 64 be 22 71 76 3e 54 be 9d be 6a ae 19 bd
       -0.2233227 0.24066594 -0.3080927 -0.03751985
0000f0 af 9f 05 be a7 ce 5b 3e 0b 6e 27 bd 74 10 9e 3e
       -0.13049196 0.2146555 -0.04087643 0.30871928
000100 0a 9b 60 3d a5 77 3c be 31 c2 b2 bd 83 e2 93 3e
       0.054835357 -0.18405016 -0.08728445 0.28883752
000110 b5 a8 2e be d1 c0 02 3e b0 1e 96 3e d9 ce 45 be
       -0.17056544 0.12768866 0.29320288 -0.19317187
000120 08 7d 39 be 7a 6c ad bc 4f 26 8e 3e d3 67 25 be
       -0.18114102 -0.02116989 0.27763602 -0.16152887
000130 02 70 2b bd 13 49 b4 bd 52 54 33 bd e8 94 bf 3e
       -0.041854866 -0.08803 -0.043781586 0.37418294
000140 16 a2 30 3d 86 25 9a bd 6f 5a e5 bd f6 8a 60 3e
       0.043123327 -0.07526688 -0.111988895 0.2192801
000150 5f c0 88 3e 38 45 99 bc f6 7c c5 bc 84 5c 85 bd
       0.26709267 -0.018709764 -0.024107438 -0.065117866
000160 46 30 d2 3d d4 0d cf bd 90 07 b3 ba 5f 91 10 be
       0.10263114 -0.101100594 -0.001365887 -0.14117955
000170 ed f0 6c 3d 58 28 78 3e bb 48 a6 bd 29 46 38 3e
       0.057846952 0.2423414 -0.08119341 0.17995514
000180 bf 33 8f 3e b9 75 8b 3e 45 5d 9b 3e 99 5a 3c 3e
       0.27969167 0.27238253 0.30344597 0.18393935
000190 1e 6c 88 3e ce ac 17 3e 42 18 53 3e 45 07 e2 bd
       0.26644987 0.14812014 0.20614722 -0.11036543
0001a0 18 fd c8 3d da d5 d2 ba 3d 53 c0 bd 4a b5 63 3e
       0.09813899 -0.0016085461 -0.093908764 0.22237125
0001b0 c2 fb 3e be d6 6b 25 bd c3 c2 0a be a5 30 83 3e
       -0.18650725 -0.040386043 -0.13550858 0.2562305
0001c0 1c 58 cf bd 80 9c 05 3e a0 0c da bd 29 39 0b be
       -0.101242274 0.13047981 -0.10646939 -0.13596024
0001d0 ec 07 a9 3d 3a 39 cd bd 71 83 0f 3d 11 b2 60 39
       0.08253464 -0.10020681 0.03503746 0.0002142864
0001e0 bb 21 95 3e 70 e1 33 be 89 84 26 bc 2b ad 14 be
       0.29127297 -0.17566466 -0.010163435 -0.14519183
0001f0 87 50 02 3e 01 eb 70 3e 40 d9 a6 3e 6b b6 4d bd
       0.12726031 0.23527147 0.32587624 -0.050222795

action_model._continuous_distribution.log_sigma f4 [1, 3]
000000 df 51 98 3e a3 be 84 be 3d be 08 3f
       0.29749963 -0.25926694 0.5341528

action_model._continuous_distribution.mu.weight f4 [3, 128]
000000 af f7 43 3e 77 0b 7c bd 78 23 9c bd 2d 4a 6c 3e
       0.19137453 -0.06153437 -0.076239526 0.23075171
000010 5b 19 1d 3e ba a6 b4 bd 09 5b 51 3e 84 65 a7 bc
       0.15341704 -0.08820863 0.20444883 -0.020434149
000020 0e 15 c7 bd 8b 9d 7c 3e 15 0c 0b bd 7a c2 c7 3d
       -0.09720813 0.24669473 -0.03394707 0.0975389
000030 cb fc 40 3e 39 80 df 3d cc 7e 62 3e b9 d4 79 3e
       0.18846433 0.109131284 0.22118682 0.24397554
000040 1c 5b 8a 3e e9 54 6f 3d aa 94 5d 3e 0e 85 88 3e
       0.27022636 0.058430586 0.21638742 0.26664013
000050 a2 1d 40 3e 5d 23 78 be 10 f6 d0 bc 9f 2e 1e bd
       0.18761304 -0.2423224 -0.025507957 -0.03861868
000060 6a f3 a3 bd ac 6d 81 bd 51 bb 60 3e 4a 91 84 be
       -0.08005412 -0.063197464 0.21946456 -0.25892097
000070 a6 9d 9e bd 0b 30 42 3d c2 7f 4c 3e 4e f8 15 3e
       -0.07744913 0.0474091 0.1997061 0.14645502
000080 e4 af 8d bd 7f ca 95 bd 82 ab d6 3d 20 59 72 3e
       -0.06918314 -0.07314014 0.10481931 0.23666811
000090 ed 1b d0 bd 0f f2 47 be 2d 6d 26 3e 4b 9e 5a 3e
       -0.101615764 -0.19525932 0.16252585 0.21349446
0000a0 a6 31 9c bd a8 d9 39 3e 3c c9 a3 bd fa 00 86 3e
       -0.07626657 0.18149436 -0.07997367 0.2617262
0000b0 03 b8 dd 3b d5 6b 7c 3e a0 50 37 be 14 1d 64 3e
       0.0067663207 0.2465051 -0.1790185 0.22276717
0000c0 46 65 cc bc 89 a0 7f 3e fa ea 68 3e a8 a1 40 3e
       -0.024950635 0.24963583 0.22745886 0.18811667
0000d0 bc be 58 3e 01 3c 9c 3d f5 d6 82 3e 0c bb d0 bd
       0.2116651 0.07628632 0.25554624 -0.10191926
0000e0 dc c1 37 be cb 1f 84 3e 7f bd d1 3c ef a1 0f be
       -0.17945045 0.25805506 0.025603054 -0.14026617
0000f0 48 3b 4c be c9 99 54 3e 4a 6e 97 3d cb e6 82 3e
       -0.19944489 0.2076179 0.07394083 0.25566706
000100 f1 ac 2b 3e 59 ea aa 3d 54 10 30 be cf 80 a3 3e
       0.1676519 0.083454795 -0.17193729 0.3193421
000110 1f d0 fc bd 19 0a c8 bd 15 75 92 3e f1 3f 57 be
       -0.123443834 -0.09767551 0.28604952 -0.21020485
000120 bc 62 0a 3d 75 05 a5 bb ce 2f 42 3e f0 62 06 3e
       0.033785567 -0.005036051 0.18963549 0.13123679
000130 3b 27 e8 3b 21 fe bf bd b6 8f e4 bd ca a3 89 3e
       0.0070847548 -0.09374643 -0.11160223 0.26882774
000140 6d be 29 3e f7 3c 9f bd e1 e6 c4 bd a2 d3 87 3e
       0.16576548 -0.077753 -0.09614349 0.2652865
000150 11 be 65 3e a7 aa 46 be fd 3b 88 be 07 a3 e8 bd
       0.22435786 -0.19401036 -0.26608267 -0.1135922
000160 98 c2 89 be 9e 4f e2 3c 40 48 85 3d 73 90 4a bd
       -0.26906276 0.027625855 0.06507921 -0.049454164
000170 57 75 17 be 39 21 55 3e 93 94 26 be cc c8 e0 3d
       -0.14790855 0.20813455 -0.16267614 0.10975799
000180 e6 0f 66 3e 27 5e 55 3e 0f f8 86 3e 84 c0 82 3e
       0.22467002 0.20836698 0.2636113 0.25537503
000190 af e0 79 3e 69 93 56 3e 2b dd 97 bb c0 6a 53 be
       0.24402116 0.2095467 -0.0046345196 -0.2064619
0001a0 25 5c 79 3d be 22 eb 3d 84 1e fe bc fc 72 6a 3e
       0.06087889 0.11481236 -0.03102041 0.22895426
0001b0 ee 0d 62 3e 74 6a 0b be 68 1a 30 be 97 8f 76 3e
       0.22075626 -0.13614827 -0.17197573 0.24078213
0001c0 2d 8a 37 be be c7 8b 3e 9d 79 06 be ea 6d f9 bc
       -0.17923804 0.2730083 -0.1313233 -0.030447919
0001d0 80 1e 22 3e 58 f8 30 3e 2b b0 27 be 6c 33 8a 3d
       0.15831947 0.17282236 -0.16375796 0.06748089
0001e0 9d a3 80 3e 71 b0 0f be fd f1 fd bd aa 04 dd bd
       0.25124827 -0.14032151 -0.12399671 -0.10791905
0001f0 50 c4 40 3e 52 ba 5e 3e ca 70 93 3e c8 fc fb bd
       0.18824887 0.21750763 0.2879699 -0.123040736
000200 ab 3f 98 bd 87 a7 63 bd d1 9a d9 bd d2 90 88 ba
       -0.07434019 -0.05557969 -0.10625232 -0.0010419136
000210 87 34 97 3c e1 04 be 3e 30 43 27 bd 74 65 0c bd
       0.018457664 0.37113097 -0.04083556 -0.03427644
000220 c1 41 4d 3d 78 65 54 bd f7 ef 73 be d0 0a 41 3d
       0.050111536 -0.05185458 -0.23822008 0.047129452
000230 c6 ed ba bd 84 16 a0 bc 4c a1 f1 bd aa 2e db bd
       -0.09127383 -0.019541986 -0.11798343 -0.1070226
000240 02 c2 f4 bd e6 95 27 3e 84 da 07 be 39 05 c4 bd
       -0.119510666 0.16365775 -0.13266951 -0.09571309
000250 eb d8 29 be 57 25 30 b7 74 9b 04 3e 98 e1 36 3b
       -0.16586654 -1.0499111e-05 0.12949926 0.002790546
000260 b9 82 d1 3c 30 4d d6 3c e7 2b 28 3d da 7e 09 3e
       0.025575029 0.026159853 0.041057494 0.13427296
000270 d9 ba c8 3d 0b d7 0e be 89 6b e3 bd c2 07 09 3c
       0.09801263 -0.1394922 -0.11104495 0.008363666
000280 38 86 9e 3d df ac df 3d 18 e2 2f 3d bc 92 89 bd
       0.07740444 0.109216444 0.04294023 -0.067174405
000290 87 5a 73 bc 2c 9c 88 3e bc b1 8c 3d eb 5a a0 bd
       -0.014853126 0.2668165 0.06869838 -0.07829841
0002a0 a7 fb 3d 3c d1 49 38 bd a3 38 9c 3d 07 8b 06 3e
       0.011595643 -0.04499227 0.0762799 0.13138972
0002b0 b4 df 27 3d 24 75 01 be d9 5f db 3e 6a 92 04 bd
       0.040984824 -0.12642342 0.42846563 -0.032366194
0002c0 76 2d 05 bb 93 93 07 be 8c f4 9e bd 54 37 0e bd
       -0.0020321286 -0.13239889 -0.07761487 -0.034720734
0002d0 3c 9b 00 3d ef a9 8e bd f9 ec c2 bd 9c 41 8e 3d
       0.031398043 -0.06966006 -0.09517855 0.06946108
0002e0 5b 81 12 bd 83 24 8d bd eb 9a a9 3d 00 c8 5b be
       -0.035767894 -0.0689173 0.082815014 -0.21463013
0002f0 64 09 2c 3d f2 ef d7 bd cf 10 9a 3d c8 fd fa bd
       0.042001143 -0.10543813 0.07522737 -0.12255436
000300 3a 2e 54 3d f6 fb 6c 3c fb 89 1c 3d c2 83 01 3c
       0.051801898 0.014464369 0.038217526 0.007904949
000310 e1 06 ef 3c 2a 1e 8d 3e 7b cf ae bd 78 65 f1 3c
       0.029178085 0.27562076 -0.085356675 0.02946733
000320 f1 5c 09 be 73 8c 8e bd a2 fa f3 bc 65 f6 71 bd
       -0.1341436 -0.06960382 -0.029782597 -0.05907287
000330 c7 d7 90 bd 0a fd e6 3d 81 08 54 3d ba 83 1e be
       -0.07072406 0.11278732 0.051765922 -0.15479937
000340 c4 50 85 3d fc 8c 88 3d 19 a4 ee bd 6c 37 c3 bc
       0.065095454 0.06667516 -0.11652393 -0.023830138
000350 70 d5 a9 bd 57 c2 30 be ee ea 89 3e 72 a9 2e 3e
       -0.08292663 -0.17261635 0.2693705 0.17056826
000360 f9 e0 b4 3d ff 31 da 3c 62 b1 08 be 77 6c 0e 3b
       0.08831973 0.026635168 -0.13348916 0.002173213
000370 14 66 3d 3c a1 98 90 3d dd 80 a9 3c 6d e0 d9 3d
       0.011559982 0.07060362 0.02069133 0.10638509
000380 c9 a7 09 be d5 0f 9e 3d 88 b6 de bd 97 f7 46 3d
       -0.13442911 0.077178635 -0.10874659 0.048575964
000390 5a 01 d2 bd 0f f7 a4 3d f7 f3 81 bd 76 11 a8 bc
       -0.10254164 0.08054935 -0.06345361 -0.020516139
0003a0 51 d3 87 3e ff 79 f7 3d a7 78 55 3e 6d 16 ca bd
       0.2652841 0.12083816 0.20846806 -0.09867559
0003b0 8c 85 15 be 22 88 ae 3d ff 27 78 3c 2e bd 66 bd
       -0.14601725 0.08522059 0.015146255 -0.05633276
0003c0 2b 5f 84 3d a0 9e ee bc 5d c9 f5 3d 35 8b d0 bc
       0.06463464 -0.029128373 0.120012976 -0.025457004
0003d0 13 7b 6b 3d da 6e 87 bc ca 9a 39 3d 86 50 6a bd
       0.05749042 -0.01653235 0.045313634 -0.0572057
0003e0 e0 bd fb bd ce ec 20 3c ee b6 09 3e dc c2 ea 3c
       -0.12292075 0.009822084 0.13448688 0.02865737
0003f0 05 41 38 3e fc 43 b2 3d 9d da 73 bd 14 71 8a 3d
       0.17993553 0.08704373 -0.059534658 0.06759849

action_model._continuous_distribution.mu.bias f4 [3]
000000 4c 37 b9 3e e0 e4 bf 3c 8d 08 1e 3e
       0.36175 0.023424566 0.1543295

action_model._discrete_distribution.branches.0.weight f4 [2, 128]
000000 00 de 75 bd 34 30 49 be 94 19 5c 3e 9e 6a 01 bd
       -0.06002617 -0.19647294 0.21494132 -0.03159582
000010 07 4e 05 bf 2e 58 5f 3e 98 0b 54 be 97 99 d5 3e
       -0.52072185 0.21810982 -0.20707548 0.41718742
000020 b5 f7 37 3f 9e 54 6c be f8 43 23 3e d5 3b 8e 3b
       0.71862346 -0.23079154 0.15943897 0.0043406286
000030 9d c1 35 be 8c e9 b1 3e 48 12 bb be ee eb fc be
       -0.17749639 0.34748495 -0.36537385 -0.4939875
000040 71 92 c5 be a9 18 1a 3f b3 b4 99 be 66 b4 1c be
       -0.38588288 0.6019388 -0.30020675 -0.15303192
000050 19 33 b8 be 9d fc 30 3f 63 ba 55 3e a3 ac 3a 3f
       -0.35976484 0.6913546 0.20871882 0.7291967
000060 8a c4 f7 3e ee c0 34 3e 43 61 4e bd ce 13 92 3d
       0.48392135 0.17651722 -0.050385725 0.07132684
000070 18 f9 02 3f c1 48 e2 bd 9b 46 82 be 79 4d 14 be
       0.51161337 -0.11049033 -0.25444493 -0.14482678
000080 22 ae 9f 3e b8 ab 3e 3f 16 38 95 3d 99 b0 2f bc
       0.3118754 0.7448077 0.07286088 -0.0107232565
000090 39 17 c1 3e eb 99 0f bd 9e 43 df 3d 31 3f 92 be
       0.3771303 -0.035058897 0.10901569 -0.28563836
0000a0 52 25 30 3f a9 7f ac be fe 62 3b 3f 66 38 f1 bd
       0.68806946 -0.33691147 0.73197925 -0.11778335
0000b0 6a 05 bb 3d 55 f7 f7 bd 69 a5 6f 3d 95 46 fa bc
       0.09131892 -0.12107722 0.058507357 -0.030551234
0000c0 64 34 b4 3e 4b 62 ba be b7 76 7d be 62 05 ee be
       0.3519622 -0.36403117 -0.24752317 -0.46488482
0000d0 1d 7a 9b be e5 fd 3c 3e 00 47 76 bd 43 77 d7 3e
       -0.30366603 0.18456228 -0.060126305 0.42083177
0000e0 63 bf fe 3e 57 73 1a be 45 4d 09 3f 03 7c 8a 3d
       0.4975539 -0.15083061 0.5363353 0.067619346
0000f0 b8 b8 83 3d a2 cf 9b be eb 8b 1f be 87 34 10 be
       0.06431717 -0.3043185 -0.15580718 -0.14082538
000100 47 3a bb 3e 99 35 13 3f 53 c7 3c 3f d9 7f df bd
       0.365679 0.5750366 0.73741645 -0.10913057
000110 8f 0a 5b 3f 77 e7 6a be 0a 8f 93 bd b1 c5 36 3f
       0.85562986 -0.2293986 -0.07205017 0.71395403
000120 6b 6e 5d 3f fb 10 80 3f 15 de ac be 47 88 b4 3e
       0.8649661 1.0005182 -0.33763185 0.3526022
000130 4d 77 bf 3b 21 87 e8 3e 03 21 80 3f 2b e2 aa be
       0.005843079 0.45415595 1.0010074 -0.33375677
000140 41 c3 cd 3e 70 a7 3e 3f 25 1e a6 3e 34 79 67 bc
       0.4018803 0.7447424 0.32444873 -0.014128018
000150 75 2f 7a be 4c 3d 00 3f ab 38 00 3f 16 4e d6 3e
       -0.24432166 0.5009353 0.5008647 0.4185645
000160 c4 b9 89 be b1 33 e1 3e 7c 3e 1f 3e 17 ef 88 3f
       -0.2689954 0.4398475 0.1555118 1.0697964
000170 08 9e 5c be 98 76 29 be 78 7f ab 3e 04 cc b1 be
       -0.21544659 -0.16549146 0.33495688 -0.34725964
000180 54 50 93 be be d9 12 bf 45 77 20 be 32 f0 64 be
       -0.28772223 -0.573635 -0.15670498 -0.22357252
000190 e6 02 a6 be 58 67 fb be 1f b5 45 3e a1 79 61 3e
       -0.32424086 -0.49102283 0.19307373 0.22019054
0001a0 5b 1b f6 bc 81 36 46 3d ce da 6e 3c 7f e6 57 be
       -0.030042341 0.048391823 0.014578534 -0.21084021
0001b0 de 20 72 3e db 86 ab 3e d4 72 7c 3e 63 aa 8a be
       0.2364535 0.33501324 0.24653178 -0.2708312
0001c0 a1 3d cb 3e 26 be 52 3e a5 7c 3c 3f 29 68 85 3e
       0.39695457 0.20580348 0.7362769 0.2605603
0001d0 15 6b 4c bc a7 a4 d5 3e 87 2e a2 3e f9 df 2d 3e
       -0.012476702 0.41727182 0.31676123 0.1697997
0001e0 ac d7 a1 be a0 a2 9d 3e bf 2b aa 3e 49 c3 dc 3e
       -0.31609857 0.30788136 0.332365 0.4311774
0001f0 99 6d 07 3e 50 d8 e1 3c 74 1a 96 bd a8 65 57 3f
       0.13225402 0.027568966 -0.07329264 0.8413949
000200 a5 62 3f 3d 67 89 4e 3e f7 76 62 be 8d b1 f4 3c
       0.046724934 0.20169602 -0.22115694 0.029869819
000210 b2 3c 08 3f 0c 55 59 be 0d dd 52 3e 27 90 ce be
       0.53217614 -0.21223849 0.20592137 -0.40344355
000220 40 a7 36 bf 20 7a 7f 3e 19 c8 24 be 66 00 99 3c
       -0.71348953 0.2494893 -0.16091956 0.018676948
000230 9e c2 4b 3e 75 88 b4 be 59 2f bd 3e d1 ef f2 3e
       0.1989846 -0.35260358 0.36950186 0.4744859
000240 49 f8 c7 3e 9f a8 19 bf d7 c8 94 3e 5a 6e 19 3e
       0.39056614 -0.6002292 0.2905948 0.14983502
000250 2a a4 b4 3e 77 c0 30 bf f2 e3 55 be f9 3b 37 bf
       0.35281497 -0.6904368 -0.20887735 -0.71575886
000260 d4 d6 ff be d7 a3 16 be e4 fa 3b 3d aa 09 75 bd
       -0.49968588 -0.14710937 0.045893565 -0.05982367
000270 be 8e 01 bf 79 1b e3 3d ec c4 8c 3e 33 32 1e 3e
       -0.5060843 0.11089224 0.2749399 0.15448837
000280 0d db 97 be 60 b8 3b bf ce 91 b9 bd 43 dd a8 3c
       -0.2965931 -0.7332821 -0.09061013 0.020613318
000290 9a aa c5 be 80 8c 6d 3d 3c c0 ff bd 26 73 95 3e
       -0.3860672 0.05799532 -0.12487838 0.29189414
0002a0 7d 87 2d bf eb 4f ad 3e 70 ba 3a bf 0b 3d f6 3d
       -0.67784864 0.33850035 -0.7294073 0.12023362
0002b0 90 15 db bd c3 92 f0 3d e8 d9 15 bd bf bd 9d 3c
       -0.10697472 0.117467426 -0.036584765 0.019255517
0002c0 1d e0 b2 be a1 42 c1 3e 46 9b 78 3e 56 91 e9 3e
       -0.3493661 0.37746146 0.24277982 0.45618695
0002d0 db a0 98 3e 69 eb 36 be 30 d7 a0 3d 86 40 d9 be
       0.29810223 -0.1786324 0.07853544 -0.4243204
0002e0 23 6e f6 be c8 e7 14 3e 7a 5c 0c bf 10 86 93 bd
       -0.48130903 0.14541543 -0.5482861 -0.07203305
0002f0 79 af 9a bd b0 e5 9e 3e 38 62 30 3e 6f 1a 27 3e
       -0.07553 0.31034613 0.17224967 0.16318677
000300 f0 95 bc be 69 58 11 bf c1 7e 3d bf c8 d2 ed 3d
       -0.36833143 -0.5677553 -0.74021536 0.11612469
000310 4d 0f 5a bf c3 e5 57 3e b1 a0 a6 3d 6d d5 37 bf
       -0.851796 0.21083741 0.08136118 -0.71810037
000320 38 7a 5b bf c1 fd 7e bf 34 c3 af 3e a4 44 b0 be
       -0.85733366 -0.9960595 0.34328616 -0.3442737
000330 ae 8d 48 b9 fc f5 ed be 7a d5 7f bf c4 9b 94 3e
       -0.00019126266 -0.46476734 -0.99935114 0.2902509
000340 60 4b d4 be 94 5b 43 bf d6 1e aa be f7 bb f6 3c
       -0.41463757 -0.7631161 -0.3322665 0.030118925
000350 0f 62 76 3e 8b 75 01 bf 61 e5 05 bf c2 9e db be
       0.24060844 -0.5056998 -0.5230313 -0.4289456
000360 d7 04 84 3e e9 2e df be ea b4 29 be f7 00 8b bf
       0.25784943 -0.43590477 -0.1657292 -1.085967
000370 a7 75 59 3e 94 23 27 3e e0 41 b0 be 9f 24 b0 3e
       0.21236287 0.16322166 -0.3442526 0.3440294
000380 c0 fa 91 3e 0f a2 0f 3f 9f 85 0e 3e 03 82 5a 3e
       0.2851162 0.56106657 0.1391816 0.21338658
000390 0b f1 a0 3e 66 09 fe 3e d5 9d 59 be ea c4 5e be
       0.314339 0.49616545 -0.21251614 -0.21754804
0003a0 fe d3 33 3d b9 67 20 bd 41 b1 58 bc 2a 12 72 3e
       0.043903343 -0.039161418 -0.013225854 0.23639742
0003b0 51 3b 7b be 29 79 a9 be 2c 94 81 be c2 08 87 3e
       -0.24534346 -0.3310025 -0.2530836 0.2637387
0003c0 b0 80 d3 be 66 b5 52 be b9 25 3b bf 27 32 73 be
       -0.41309118 -0.2057701 -0.73104435 -0.237496
0003d0 e8 e8 80 3c b2 de d1 be f8 f3 9e be f1 0a 35 be
       0.015736058 -0.40990216 -0.31045508 -0.17679955
0003e0 9a 59 a2 3e 4b 9e a0 be a9 ba a6 be 01 8b e3 be
       0.31708986 -0.31370768 -0.32564285 -0.4444199
0003f0 4e 8f eb bd 3f 3b 28 bd 02 23 61 3d d3 a7 56 bf
       -0.115019426 -0.041072126 0.054965027 -0.8384983

action_model._discrete_distribution.branches.0.bias f4 [2]
000000 93 a4 81 be 9b a4 81 3e
       -0.25320873 0.25320897

action_model._discrete_distribution.branches.1.weight f4 [2, 128]
000000 87 ed 0f bf 1f ac 26 3d 95 45 da bd 6d 26 0e be
       -0.5622181 0.04069149 -0.10657803 -0.13881846
000010 cb 02 94 3e 7e 21 38 bd ae 18 f0 3d 82 ea 83 3e
       0.2890838 -0.044953816 0.11723457 0.25764853
000020 95 e8 3f bd 17 3a 4a 3d 7e 66 23 3e 6c d1 9d 3d
       -0.046852667 0.049371805 0.15957066 0.0770596
000030 8d 3c 5e be 3e 0c e7 3d 36 74 60 bd 13 58 96 3d
       -0.21702786 0.11281632 -0.054798327 0.073410176
000040 da f0 c7 be 09 4a 89 3d 90 da 7b be 28 c3 f2 bd
       -0.39050943 0.06703574 -0.24595094 -0.11853629
000050 0e 48 8e be 6e 5d a9 3e 12 59 9d bd 51 a1 48 3d
       -0.27789348 0.33079094 -0.076830044 0.04898197
000060 9c 5d c8 3d 35 e8 f9 3c 0f a0 82 3b 7d d7 89 3c
       0.097834796 0.030506233 0.0039863656 0.016826386
000070 be 88 ed 3e 61 85 33 be 82 18 bf bc 3a 4c 9f be
       0.46393389 -0.17531349 -0.023327116 -0.31112844
000080 b6 ec 95 bd 93 59 98 3e ea ae af be 19 2f b2 3d
       -0.0732054 0.2975584 -0.34313136 0.087003894
000090 7b e3 9c 3e 8e ab bd 3e 8c 66 15 be e8 5e 33 be
       0.30642304 0.37044948 -0.145899 -0.17516673
0000a0 5d 3b 58 3e e1 9c b1 bd 11 b1 83 3e 0e 21 ab 3c
       0.21116395 -0.086725004 0.25721028 0.020889785
0000b0 0c e2 62 bd 9c d5 ea bd 9c c3 52 bd 81 db 10 bd
       -0.055391356 -0.11466524 -0.05145608 -0.035365585
0000c0 73 3e 8c 3d 79 22 dd 3c 25 b1 50 3c ad 19 61 3e
       0.06847849 0.026993977 0.012737547 0.21982451
0000d0 ec a1 5b 3e 41 84 6c 3d 4f c6 eb 3d a2 0f 22 be
       0.21448487 0.057743315 0.11512434 -0.15826276
0000e0 3e 14 af 3e 0e 97 29 be ac a5 c7 3c 46 a9 00 be
       0.3419513 -0.16561529 0.02437099 -0.12564573
0000f0 d7 bf 39 3e 1d 61 5a 3d 86 ee 0b bf 3a 34 71 3d
       0.18139587 0.05331527 -0.5466083 0.058887698
000100 7d 25 60 3e 7f 46 c0 3c 02 5f a5 3e c5 2c 95 3e
       0.218893 0.023471115 0.32299048 0.2913572
000110 a5 85 0a 3e b3 15 63 3e bd eb db bd 68 86 e4 3e
       0.13527544 0.22176246 -0.10738323 0.44633794
000120 8a f7 00 3d 60 be 5e bd 7b f1 9e 3d 1e 72 63 3e
       0.03148607 -0.054380774 0.077609025 0.22211501
000130 93 a5 83 be a8 a2 4b be 7c 5a 40 3e 68 17 17 3d
       -0.2571226 -0.19886267 0.18784517 0.036887556
000140 f6 cd 6d 3d f6 73 9d 3e 4f b7 82 be ea a5 0f 3e
       0.058057748 0.30752534 -0.25530478 0.14028135
000150 dc d4 81 bd fa 3e c2 3e ca 71 42 3e 6e f9 42 be
       -0.06339428 0.37938672 0.1898872 -0.19040462
000160 ff b9 ab be ba 71 d3 3e 94 37 03 be 1e ce 40 3e
       -0.3354034 0.41297704 -0.1281417 0.18828627
000170 d8 97 b3 3d ae cd 43 3e 51 38 76 3e b1 5d b8 be
       0.08769196 0.1912143 0.2404492 -0.3600898
000180 9d 55 c2 3d 91 c4 c0 3e 93 07 7a be 5c 78 df 3e
       0.09488986 0.37649968 -0.24416952 0.43646514
000190 a0 c2 c1 3d cc af 7d 3e d2 3c 46 3c 5f 4f 05 3d
       0.0946095 0.24774092 0.012099462 0.032546397
0001a0 5e c0 5d be cc 53 cd 3d ab 73 06 3e 9c 0c 22 be
       -0.21655414 0.100257486 0.13130061 -0.15825123
0001b0 30 16 ba bd 5f c3 25 3e be cf a6 3e 64 08 f6 3d
       -0.09086263 0.1618781 0.3258037 0.12013319
0001c0 4c 74 3d 3e 0f e5 60 3e 70 4b d2 3e f2 a7 07 3e
       0.18501395 0.21962379 0.4107318 0.1324766
0001d0 29 be eb 3c b0 be 4c 3e a7 d9 12 3f 71 6f aa be
       0.028777199 0.19994617 0.5736336 -0.33288148
0001e0 20 78 c6 bc db d5 a7 3c f0 63 0b 3e 0b 0e c1 3e
       -0.024227202 0.020487716 0.13612342 0.37706026
0001f0 c4 8f 91 bd 33 0a e1 3e 81 04 25 be 0a c8 33 3e
       -0.07107499 0.43953094 -0.16115 0.17556778
000200 b4 17 0d 3f 59 93 09 bd 17 04 f8 3d 32 08 f2 3d
       0.55114293 -0.033587787 0.12110155 0.118179694
000210 2f fe 92 be 8c 55 34 3d e7 f6 01 be 98 32 84 be
       -0.28709552 0.044026896 -0.12691842 -0.2581985
000220 30 c8 41 3d fc 66 29 bd 62 bd 1e be 4b a2 87 bd
       0.047310054 -0.04135798 -0.15501931 -0.06622752
000230 60 6d 63 3e a0 1d c4 bd 1f d5 7a 3d 6b 50 98 bd
       0.22209692 -0.09575963 0.061238404 -0.074372135
000240 96 89 c5 3e 8c 38 a9 bd ac fe 81 3e d8 11 01 3e
       0.38581532 -0.082627386 0.25389612 0.12604463
000250 41 6e 8c 3e b7 d9 ac be 7e 1e 99 3d 1b dd 4d bd
       0.27427867 -0.33759853 0.07476519 -0.05025969
000260 3e ea cb bd 65 12 57 bc 6b 9c 66 bb 06 70 e3 bc
       -0.099567875 -0.013126944 -0.0035188447 -0.027763378
000270 9b 2b ef be 1a ed 41 3e 4b 90 09 3d 59 6e 9d 3e
       -0.46712956 0.18938103 0.033584874 0.3074825
000280 7d c3 12 3d 06 38 90 be 5e f7 bc 3e b2 38 d9 bd
       0.035830963 -0.28167742 0.36907476 -0.10606517
000290 bd ab a0 be 12 73 cb be 04 fd 02 3e 74 6d 2f 3e
       -0.31381026 -0.3973623 0.1279183 0.17131597
0002a0 d2 4e 4a be 29 92 bb 3d b2 31 88 be 2d 09 81 bb
       -0.1975663 0.09158737 -0.26600415 -0.0039378614
0002b0 5e 24 99 3d 62 bf de 3d 6a 3f 4a 3d 66 ba 4e 3d
       0.074776396 0.10876347 0.049376883 0.050470732
0002c0 fb 56 7a bd c9 e0 b7 bc 25 89 11 3c 7f fd 5d be
       -0.061118107 -0.022446053 0.008882795 -0.21678732
0002d0 5f 15 64 be a6 0a 59 bd f4 69 e6 bd a7 26 1a 3e
       -0.22273777 -0.05298867 -0.11250678 0.15053807
0002e0 ac 83 af be 7d ec 1a 3e 3f 06 bb bc 9f bd 05 3e
       -0.34280145 0.15129276 -0.022830127 0.13060616
0002f0 ad 14 36 be 60 a2 03 bd 0b 4d 07 3f ab 10 29 bd
       -0.17781325 -0.032137275 0.52851933 -0.04127566
000300 5f 87 5c be 6a e2 dc bc a2 65 9d be be bc 9c be
       -0.21536015 -0.026963431 -0.30741602 -0.3061275
000310 3e 1e 0b be 01 0b 63 be 26 51 b5 3d ee 9a dd be
       -0.13585755 -0.22172166 0.088533685 -0.43282264
000320 ad d0 cd bc 8d c8 84 3d da 3c 76 bd b9 5c 64 be
       -0.025123918 0.064835645 -0.060116626 -0.22300996
000330 73 63 6c 3e 36 31 46 3e fb d6 4a be 8c 4f 47 bd
       0.23084812 0.1935471 -0.19808571 -0.048659846
000340 00 3a 8c bd 46 22 a5 be 21 e0 89 3e 7c be 26 be
       -0.06847 -0.3225271 0.2692881 -0.16283602
000350 d5 d9 56 3d 8f cd c2 be 8d a2 46 be e9 6d 53 3e
       0.052453835 -0.38047454 -0.19397946 0.20647396
000360 64 c9 a7 3e f0 e9 d4 be a1 78 05 3e 5c 3a 38 be
       0.32770836 -0.4158473 0.13034298 -0.17991012
000370 3a cf ce bd 23 47 40 be 9a 9f 7b be 01 f1 b2 3e
       -0.10098119 -0.18777137 -0.24572602 0.34949496
000380 a8 b7 c8 bd 03 f5 c0 be 44 62 7d 3e 54 34 e0 be
       -0.09800655 -0.3768693 0.24744517 -0.43789923
000390 0f bb ca bd dc 49 6d be 71 02 fb bb b5 38 e9 bc
       -0.0989896 -0.23172706 -0.007660203 -0.028469423
0003a0 7c fc 6b 3e b5 ee e9 bd 5f 86 1e be 63 41 1c 3e
       0.23045534 -0.11422483 -0.15480946 0.15259318
0003b0 e8 b0 b4 3d 26 f8 26 be 75 23 9a be fb fe f8 bd
       0.08822805 -0.16305599 -0.30105177 -0.12158009
0003c0 91 24 3f be c0 c9 60 be 5a ce d2 be 4f 31 12 be
       -0.18666293 -0.21951962 -0.4117306 -0.14276622
0003d0 63 a5 91 bc c1 02 3a be 2e 21 0d bf ef d8 a6 3e
       -0.017779058 -0.18165113 -0.55128753 0.32587382
0003e0 94 d1 80 3c c4 1b e5 bb ab 7b 00 be 53 a0 bc be
       0.015724935 -0.0069918353 -0.12547176 -0.36841068
0003f0 47 45 9c 3d fb 0a e7 be 51 75 2a 3e c5 c8 3a be
       0.07630401 -0.45125565 0.16646315 -0.1824065

action_model._discrete_distribution.branches.1.bias f4 [2]
000000 0a 5e 23 be 67 5e 23 3e
       -0.15953842 0.1595398

exp_avg f4 [128, 52]
000000 5c 9d 8f 35 04 00 00 00 04 00 00 00 e7 0e 03 bc
       1.0700128e-06 6e-45 6e-45 -0.007999158
000010 39 36 03 bc 51 cd ce 35 04 00 00 80 04 00 00 00
       -0.008008533 1.5407951e-06 -6e-45 6e-45
000020 e0 10 03 bc 64 48 03 bc 9f 09 4d 35 04 00 00 80
       -0.007999629 -0.008012865 7.638245e-07 -6e-45
000030 04 00 00 00 9d 0d 03 bc 60 75 03 bc b8 fe 9a 35
       6e-45 -0.007998851 -0.00802359 1.1548027e-06
000040 04 00 00 80 04 00 00 80 41 0f 03 bc 95 4c 03 bc
       -6e-45 -6e-45 -0.007999242 -0.008013864
000050 9b 17 4c 35 04 00 00 00 04 00 00 00 9a 0d 03 bc
       7.603027e-07 6e-45 6e-45 -0.007998848
000060 14 9d 03 bc f7 54 7d 34 04 00 00 00 04 00 00 80
       -0.008033056 2.3593371e-07 6e-45 -6e-45
000070 66 0b 03 bc 46 53 03 bc 7f e2 58 32 04 00 00 00
       -0.007998323 -0.008015459 1.2624354e-08 6e-45
000080 04 00 00 80 77 0a 03 bc 30 b3 03 bc 89 c3 6e 34
       -6e-45 -0.0079981005 -0.008038327 2.2236613e-07
000090 04 00 00 80 04 00 00 80 57 0b 03 bc f7 1e 04 bc
       -6e-45 -6e-45 -0.007998309 -0.008064023
0000a0 3b a1 05 b5 04 00 00 00 04 00 00 00 53 08 03 bc
       -4.978098e-07 6e-45 6e-45 -0.00799759
0000b0 85 ec 03 bc 5d c2 26 38 ca ab 1f b9 cd 98 ab bb
       -0.008051996 3.97585e-05 -0.00015227418 -0.005236721
0000c0 89 14 b4 bd 1e 09 3e bc e7 0f bf bd 70 f4 3e bc
       -0.08792979 -0.011598853 -0.09329205 -0.011654958
0000d0 89 ab 53 b1 04 00 00 80 04 00 00 80 ca 04 37 3b
       -3.0802048e-09 -6e-45 -6e-45 0.0027926438
0000e0 51 59 37 3b a1 be c2 b0 04 00 00 00 04 00 00 00
       0.002797682 -1.4169538e-09 6e-45 6e-45
0000f0 c3 04 37 3b 90 5b 37 3b 24 65 04 b3 04 00 00 80
       0.0027926422 0.002797816 -3.0825632e-08 -6e-45
000100 04 00 00 80 42 05 37 3b a7 90 37 3b 8b 2f 1e b0
       -6e-45 0.0027926718 0.0028009804 -5.754763e-10
000110 04 00 00 00 04 00 00 00 bf 04 37 3b 66 5b 37 3b
       6e-45 6e-45 0.0027926413 0.0027978062
000120 29 65 04 b3 04 00 00 00 04 00 00 80 42 05 37 3b
       -3.082565e-08 6e-45 -6e-45 0.0027926718
000130 ab ab 37 3b bf e2 38 b2 04 00 00 80 04 00 00 00
       0.0028025906 -1.0761766e-08 -6e-45 6e-45
000140 ea 04 37 3b ec 66 37 3b 5a 9f ba 2d 04 00 00 80
       0.0027926513 0.002798493 2.1216518e-11 -6e-45
000150 04 00 00 00 bd 04 37 3b 07 bd 37 3b 4b 88 3b b2
       6e-45 0.0027926408 0.0028036253 -1.0915822e-08
000160 04 00 00 80 04 00 00 00 ea 04 37 3b 8d 04 38 3b
       -6e-45 6e-45 0.0027926513 0.0028078884
000170 33 f5 1a 32 04 00 00 00 04 00 00 80 96 04 37 3b
       9.019732e-09 6e-45 -6e-45 0.0027926317
000180 84 f1 37 3b 5c 1a 6f 37 b5 ee 23 3a 83 8f 79 3a
       0.0028067539 1.4251647e-05 0.00062535267 0.0009519981
000190 5d 54 c6 3c 9b 76 7f 3b a9 2a ff 3c df 33 7f 3b
       0.02421015 0.0038980606 0.031148272 0.003894083
0001a0 d8 32 02 b3 04 00 00 80 04 00 00 80 d8 a8 85 38
       -3.0314226e-08 -6e-45 -6e-45 6.373384e-05
0001b0 16 25 8c 38 91 03 ee b2 04 00 00 00 04 00 00 80
       6.682628e-05 -2.7708468e-08 6e-45 -6e-45
0001c0 68 a7 85 38 12 d3 8c 38 02 43 04 b2 04 00 00 80
       6.373116e-05 6.715035e-05 -7.698647e-09 -6e-45
0001d0 04 00 00 80 b2 9c 85 38 d6 dd 92 38 1b e7 e8 b2
       -6e-45 6.371121e-05 7.003143e-05 -2.711345e-08
0001e0 04 00 00 00 04 00 00 00 1a a7 85 38 24 6b 8d 38
       6e-45 6e-45 6.373059e-05 6.7433604e-05
0001f0 0c 39 04 b2 04 00 00 00 04 00 00 80 b2 9c 85 38
       -7.696382e-09 6e-45 -6e-45 6.371121e-05
000200 c0 b9 96 38 a6 bf 22 b3 04 00 00 80 04 00 00 00
       7.187156e-05 -3.7892868e-08 -6e-45 6e-45
000210 de ac 85 38 6e 4f 8f 38 e7 71 fb 2d 04 00 00 80
       6.374133e-05 6.833566e-05 2.8585979e-11 -6e-45
000220 04 00 00 00 80 98 85 38 46 77 99 38 d4 aa 23 b3
       6e-45 6.3703395e-05 7.317825e-05 -3.8106762e-08
000230 04 00 00 80 04 00 00 00 fa ac 85 38 42 a7 a2 38
       -6e-45 6e-45 6.3741536e-05 7.755916e-05
000240 c7 75 29 31 04 00 00 00 04 00 00 80 36 97 85 38
       2.4659685e-09 6e-45 -6e-45 6.3700994e-05
000250 e2 3b a0 38 2f 94 84 b7 91 04 93 ba aa 83 42 3a
       7.6405486e-05 -1.580463e-05 -0.0011216571 0.0007420132
000260 e6 4d 4b 3c 88 e2 64 3a d2 b5 e4 3b 74 bc 64 3a
       0.012408709 0.00087312656 0.0069796825 0.00087255915
000270 10 20 4e b1 04 00 00 80 04 00 00 80 5d 42 44 3a
       -2.999517e-09 -6e-45 -6e-45 0.00074866955
000280 1b c6 44 3a 2d 29 1d b2 04 00 00 80 04 00 00 80
       0.00075063267 -9.147965e-09 -6e-45 -6e-45
000290 c5 42 44 3a 77 df 44 3a ee de 98 b2 04 00 00 80
       0.0007486756 0.00075101055 -1.7796506e-08 -6e-45
0002a0 04 00 00 80 59 43 44 3a 95 95 45 3a bd 54 8e b2
       -6e-45 0.0007486842 0.0007537243 -1.656951e-08
0002b0 04 00 00 00 04 00 00 00 47 43 44 3a c1 fd 44 3a
       6e-45 6e-45 0.0007486832 0.0007514619
0002c0 36 db 98 b2 04 00 00 00 04 00 00 80 59 43 44 3a
       -1.7794815e-08 6e-45 -6e-45 0.0007486842
0002d0 2b 14 46 3a f7 f4 ee b2 04 00 00 00 04 00 00 00
       0.0007556106 -2.7818244e-08 6e-45 6e-45
0002e0 09 44 44 3a 99 41 45 3a 96 e8 d4 2c 04 00 00 80
       0.00074869447 0.00075247284 6.0512246e-12 -6e-45
0002f0 04 00 00 00 27 42 44 3a eb 71 46 3a 8c 0f ef b2
       6e-45 0.0007486664 0.00075700757 -2.7830332e-08
000300 04 00 00 00 04 00 00 00 05 44 44 3a f7 89 47 3a
       6e-45 6e-45 0.00074869423 0.0007611806
000310 9d 97 3a 33 04 00 00 00 04 00 00 80 3b 3f 44 3a
       4.344439e-08 6e-45 -6e-45 0.0007486229
000320 c7 44 47 3a 5b 95 93 b7 d1 73 52 ba 6a d6 e4 3a
       0.0007601496 -1.7593315e-05 -0.0008028122 0.001745892
000330 c0 ca 96 3c 7c ac b2 3a 31 3c 32 3c 32 48 b2 3a
       0.018407226 0.0013631727 0.010878609 0.0013601838
000340 1c 0d 9c b3 04 00 00 00 04 00 00 80 5b c7 49 3a
       -7.266701e-08 6e-45 -6e-45 0.0007697248
000350 5a db 49 3a f3 4e 3c b3 04 00 00 00 04 00 00 00
       0.00077002274 -4.3843965e-08 6e-45 6e-45
000360 6c c5 49 3a cb e4 49 3a e8 a7 cc b3 04 00 00 80
       0.00076969597 0.00077016343 -9.530032e-08 -6e-45
000370 04 00 00 80 e0 c8 49 3a a7 12 4a 3a 88 41 fe b2
       -6e-45 0.0007697474 0.0007708468 -2.9599292e-08
000380 04 00 00 00 04 00 00 80 77 c4 49 3a 48 ec 49 3a
       6e-45 -6e-45 0.0007696817 0.000770275
000390 42 36 cc b3 04 00 00 80 04 00 00 80 da c8 49 3a
       -9.50936e-08 -6e-45 -6e-45 0.0007697471
0003a0 58 35 4a 3a 75 61 37 b3 04 00 00 00 04 00 00 80
       0.00077136373 -4.2696644e-08 6e-45 -6e-45
0003b0 58 c5 49 3a fa fb 49 3a cf 5c db 2e 04 00 00 80
       0.0007696948 0.0007705089 9.975453e-11 -6e-45
0003c0 04 00 00 00 78 c2 49 3a da 47 4a 3a 15 d5 38 b3
       6e-45 0.00076965196 0.0007716395 -4.3034635e-08
0003d0 04 00 00 80 04 00 00 80 5d c5 49 3a 46 9c 4a 3a
       -6e-45 -6e-45 0.0007696951 0.0007728975
0003e0 18 4a 75 b0 04 00 00 80 04 00 00 80 88 c2 49 3a
       -8.9235774e-10 -6e-45 -6e-45 0.0007696529
0003f0 65 7d 4a 3a 78 6b 59 37 49 1c 10 3a e4 87 7f b9
       0.0007724374 1.295923e-05 0.0005497379 -0.00024369318
